SensorFormer/SensorFormer/result/CLfor12/AdamW_lr0.0003_ep50_10to11.pt (torch, 37890 bytes, 22 tensors)

weight f4 [108, 36]
0	0xbe1a36a1	-0.15059902
1	0x3dd73700	0.10508537
2	0x3e0099ed	0.12558718
3	0x3d9d5dc5	0.07683901
4	0xbddd6782	-0.10810758
5	0x3dd550fb	0.104158364
6	0xbe5211ff	-0.20514677
7	0x3dcd508f	0.10025131
8	0xbd3312f0	-0.043719232
9	0xbde5c8c9	-0.11219937
10	0xbe178cc7	-0.14799796
11	0x3d193c74	0.03741117
12	0xbd8e58d3	-0.069505356
13	0xbd0f9e8c	-0.03506331
14	0x3da38a46	0.07985358
15	0xbdd643d0	-0.10462153
16	0x3e062314	0.13099319
17	0x3e287431	0.16450574
18	0x3e30cac3	0.17264847
19	0x3bfed500	0.0077768564
20	0xbe010196	-0.12598261
21	0xbd2352f2	-0.039874025
22	0xbd42288d	-0.047401953
23	0x3c6900a5	0.014221345
24	0xbe0a219b	-0.13489382
25	0xbd2af796	-0.041740023
26	0x3c57909d	0.013157037
27	0x3d3d7f34	0.04626389
28	0xbb679228	-0.0035334919
29	0x3db29a00	0.087207794
30	0xbd7509d2	-0.05982382
31	0xbdb15900	-0.086595535
32	0xbdc506b3	-0.096204184
33	0x3e68389c	0.22677845
34	0x3e244cae	0.16044876
35	0xbe00ded5	-0.12585004
36	0xbe1b77fe	-0.15182492
37	0xbd208614	-0.039190367
38	0xbd8c2710	-0.06843388
39	0x3d8422ec	0.06451973
40	0xbd98fb5c	-0.07469818
41	0x3cfaacf6	0.030600052
42	0xbdb50841	-0.08839465
43	0xbe122a00	-0.14273834
44	0xbd1aafbc	-0.03776525
45	0x3e3f1e71	0.18663956
46	0x3e1d566d	0.15365
47	0xbdf788d7	-0.12086647
48	0x3da26778	0.07929891
49	0x3e5095e0	0.20369673
50	0xbcadb1a7	-0.021202875
51	0xbcbe9666	-0.023265075
52	0x3e0d75fc	0.13814539
53	0xbc59417f	-0.013260244
54	0xbcdce984	-0.026966818
55	0x3e2e5073	0.17022876
56	0x3ddeb607	0.10874563
57	0xbe2a0681	-0.16604044
58	0x3e50dd34	0.20396882
59	0x3e4f0950	0.20218396
60	0x3e5e27a0	0.21694803
61	0xbd29277e	-0.04129743
62	0xbc519734	-0.012792397
63	0x3e3542a2	0.177012
64	0x3e533dd5	0.20629056
65	0xbddd6166	-0.10809593
66	0x3e64a1bb	0.2232732
67	0x3e18d8d2	0.1492646
68	0x3df3a5c5	0.118968524
69	0xbb93a1bc	-0.004505364
70	0x3d0dfb59	0.034663532
71	0x3e2f14b3	0.1709774
72	0xbbcada47	-0.0061905715
73	0x3e5d3a7a	0.21604338
74	0xbe36fe73	-0.17870502
75	0xbd4e88f3	-0.050423574
76	0xbd86a5e4	-0.0657461
77	0x3dcb6c3b	0.09932753
78	0x3e096584	0.13417631
79	0x3dad6a32	0.08467521
80	0xbd842d38	-0.06453937
81	0xbd1049a9	-0.035226498
82	0x3dbcc301	0.092168815
83	0xbe07350a	-0.13203827
84	0x3dcb6a02	0.09932329
85	0x3da29746	0.07939009
86	0x3e393300	0.18085861
87	0x3df02e4a	0.11727579
88	0x3e1b4ead	0.15166731
89	0xbde7eb4f	-0.113241784
90	0xbda77c00	-0.08177948
91	0x3df14821	0.117813356
92	0xbe1f35ef	-0.15547918
93	0xbbc79f31	-0.006091975
94	0xbdfd5ac7	-0.1237083
95	0xbdbfcc48	-0.093651354
96	0xbdb71456	-0.08939426
97	0xbe096093	-0.13415746
98	0xbcac169d	-0.021006877
99	0x3dd0b5ac	0.10190901
100	0xbd543ebc	-0.05181764
101	0xbe0863d6	-0.13319334
102	0x3dd5414b	0.10412844
103	0xbe2a2841	-0.16616918
104	0xbb8e7017	-0.0043468582
105	0xbd969cdb	-0.073541366
106	0x3b6b3300	0.0035888553
107	0x3d17b8af	0.037041362
108	0x3db10698	0.08643836
109	0xbdc130bc	-0.094331235
110	0x3e3ce9a3	0.184485
111	0x3db76b54	0.08956018
112	0xbd2ec5d1	-0.04266912
113	0x3d8482f9	0.064702936
114	0xbe322884	-0.17398268
115	0x3c8bdb1a	0.01707225
116	0xbe236d57	-0.15959679
117	0x3d38a1ff	0.045076367
118	0x3e54a469	0.20765842
119	0x3d6c4b8c	0.057689235
120	0xbe0c2711	-0.13686778
121	0x3e6470aa	0.22308603
122	0xbe38b524	-0.1803785
123	0x3e00dc48	0.1258403
124	0x3d25ad57	0.040448513
125	0xbd92acb4	-0.07161847
126	0x3d615c60	0.055019736
127	0xbd6f0158	-0.05835089
128	0x3e7c754a	0.24654117
129	0xbdeed518	-0.11661738
130	0x3da1c7b0	0.078994155
131	0xbcefdde1	-0.029280605
132	0x3e560417	0.20899998
133	0x3e2cf682	0.1689091
134	0x3e64f485	0.22358902
135	0xbc84ac61	-0.016195478
136	0x3df7764b	0.120831095
137	0xbdbea8f0	-0.09309566
138	0x3e2e82e8	0.17042124
139	0x3c0a9b2e	0.008459849
140	0x3df2e51b	0.11860105
141	0x3e2c0516	0.16798815
142	0xbd914c75	-0.07094661
143	0x3e3b3d0a	0.18285003
144	0xbd151cf3	-0.03640456
145	0x3d12df91	0.03585774
146	0xbdc99785	-0.09843353
147	0xbd57d979	-0.052697632
148	0x3d97dace	0.074147806
149	0x3e28c22a	0.16480318
150	0x3c91925f	0.01776999
151	0x3d51abf5	0.05118938
152	0xbd8e8c8e	-0.069604024
153	0xbe42dd45	-0.1902972
154	0xbddc12b7	-0.10745757
155	0xbcc7e115	-0.02439932
156	0x3db7ce4b	0.08974894
157	0xbc82ebc2	-0.015981559
158	0x3b89b6e0	0.0042027086
159	0xbe391e6a	-0.18078008
160	0xbe086b95	-0.1332229
161	0x3caaa76a	0.020831782
162	0x3d7de6b9	0.061987612
163	0x3d56f8af	0.052483257
164	0x3e44fd91	0.19237353
165	0xbe88cd7c	-0.26719272
166	0x3dff1a8d	0.12456236
167	0x3e4f8464	0.20265347
168	0xbd027280	-0.031847477
169	0x3e27f0bf	0.16400431
170	0x3e2cded5	0.16881879
171	0x3dc7a494	0.09748188
172	0xbdf3099a	-0.11867066
173	0x3e170bb7	0.14750563
174	0x3e78d6d9	0.24300708
175	0x3ceffdf1	0.029295893
176	0x3e14c656	0.14528784
177	0x3e519d65	0.20470197
178	0xbda174df	-0.078836195
179	0xbe007932	-0.12546232
180	0x3d5cbf71	0.05389351
181	0xbcea423d	-0.028596038
182	0xbcd455e4	-0.025919862
183	0xbe160ecf	-0.14654087
184	0xbe104f6c	-0.14092797
185	0x3d6a9bad	0.05727737
186	0xbd825256	-0.063633606
187	0xbe39cbc6	-0.1814414
188	0xbc89bd1f	-0.016813813
189	0xbd069c95	-0.032864172
190	0xbe1f51c9	-0.15558542
191	0x3e07d7d7	0.1326593
192	0x3e5225c0	0.20522213
193	0x3e3aeca0	0.18254328
194	0xbe3b7769	-0.1830727
195	0xbda2532a	-0.079260185
196	0xbe65140a	-0.22370926
197	0x3e353b31	0.17698361
198	0xbd71149c	-0.058857545
199	0x3e2b0e0d	0.16704579
200	0xbd426030	-0.047455013
201	0x3db7ff50	0.08984244
202	0x3e36ca53	0.17850618
203	0xbd4fdd82	-0.050748356
204	0x3e00d292	0.12580326
205	0x3e109ff6	0.1412352
206	0x3dad7822	0.08470179
207	0xbce56697	-0.02800302
208	0xbde1a90e	-0.11018573
209	0x3db0fb82	0.08641721
210	0xbe0bbdef	-0.13646673
211	0xbc98680c	-0.0186043
212	0x3d933889	0.071885176
213	0x3e2a0dee	0.16606876
214	0x3e428a0f	0.18997978
215	0xbdf17a78	-0.11790937
216	0xbe2bbe48	-0.16771805
217	0x3d87ddd6	0.06634109
218	0xbdc58b45	-0.09645704
219	0xbdac5127	-0.08413916
220	0xbe2dfbf4	-0.16990644
221	0xbd9a085d	-0.075211264
222	0x3d23f510	0.04002863
223	0xbe346fec	-0.1762082
224	0x3e14d171	0.1453302
225	0xbe0acf52	-0.13555649
226	0xbe01984f	-0.12655757
227	0x3c82bbf2	0.01595876
228	0xbe32444e	-0.17408869
229	0x3db5167b	0.088421784
230	0xbd08eb9b	-0.033427816
231	0xbe2969e0	-0.16544294
232	0x3e841f80	0.25805283
233	0x3da5dfc5	0.08099321
234	0x3e071e03	0.13195042
235	0x3e155bb5	0.14585765
236	0x3de26ad4	0.11055532
237	0x3ddbd93d	0.10734794
238	0x3d951ee9	0.07281286
239	0xbe4cfd5a	-0.20018521
240	0xbdc41a99	-0.095753856
241	0xbdb8752f	-0.09006726
242	0xbd26941e	-0.0406686
243	0x3dac3b41	0.08409739
244	0x3c997f99	0.018737601
245	0xbe7f63a5	-0.24940355
246	0x3c16a410	0.009194389
247	0xbd69b615	-0.057058413
248	0x3d4867da	0.048927166
249	0xbe1b3bd4	-0.15159541
250	0x3e0129c0	0.12613583
251	0xbe52ff0a	-0.20605102
252	0x3e4d62c4	0.20057207
253	0x3db6254a	0.08893831
254	0xbcf4da41	-0.029889228
255	0xbd420d85	-0.047376174

bias f4 [108]
0	0x3d3da99b	0.046304327
1	0x3d5512f2	0.05202002
2	0xbd9dfd03	-0.07714274
3	0x3d95f644	0.07322362
4	0x3d65983a	0.056053378
5	0x3d3b46db	0.04572187
6	0xbd8bbc9a	-0.06823082
7	0x3dc6eac4	0.09712747
8	0xbd3027da	-0.043006755
9	0x3cfb9ccc	0.030714415
10	0x3d50acae	0.05094593
11	0xbd523c0a	-0.05132679
12	0x3d653c39	0.055965636
13	0x3ce2252d	0.027605617
14	0x3ca7f1e5	0.020501086
15	0xbd618cdb	-0.05506597
16	0x3d1061eb	0.03524963
17	0xbdb1291f	-0.08650421
18	0x3d68b894	0.056816652
19	0x3d8e94a6	0.06961946
20	0xbb2d8fc2	-0.0026483391
21	0xbd379194	-0.04481657
22	0x3dccf870	0.10008323
23	0xbd6f9f3e	-0.058501475
24	0xbdcba256	-0.099430725
25	0xbd605213	-0.054765772
26	0xbd0ab7cc	-0.03386669
27	0x3d7ba720	0.06143868
28	0xbdd18542	-0.10230495
29	0x3da147c3	0.078750156
30	0x3c66b7a3	0.014081868
31	0x3dac7f7b	0.084227525
32	0x3cb8e829	0.02257164
33	0xbc80d045	-0.01572431
34	0x3d9fd0bd	0.078034855
35	0xbccff6dd	-0.025386268
36	0xbc70e5fe	-0.014703272
37	0xbcdcd71a	-0.026958037
38	0x3c97c478	0.0185263
39	0x3c317b61	0.0108326385
40	0x3c96b8df	0.0183987
41	0xbcfc0186	-0.030762445
42	0xbcd8aa9d	-0.026448542
43	0x3c1044bd	0.008805451
44	0x3d009039	0.03138754
45	0x3c229347	0.009922809
46	0x3cd9b6ed	0.026576484
47	0x3ae9be74	0.0017833249
48	0x3ce01d62	0.02735776
49	0xbcc0bcdf	-0.02352756
50	0xbc81c577	-0.015841229
51	0x3c0b1964	0.00848994
52	0xbd0a6db0	-0.033796012
53	0x3c46c071	0.012130843
54	0xbcd1f29b	-0.025628379
55	0xbc8c8ca7	-0.017156912
56	0xbd20a9ec	-0.03922455
57	0x3c429d27	0.011878288
58	0xbcb95a6f	-0.02262613
59	0x3aca381a	0.0015428097
60	0x3c9da280	0.019242525
61	0x3cadd85e	0.021221336
62	0x3ca59e98	0.020217225
63	0x3c93b806	0.018032085
64	0xbbb65c0d	-0.0055651725
65	0x3c7f156e	0.015569074
66	0xbce25322	-0.027627531
67	0x3c1f6dc0	0.009730756
68	0xbc73a3ec	-0.014870625
69	0x3cea1a70	0.02857706
70	0xbbb568aa	-0.0055361586
71	0x3c426abc	0.011866268
72	0xbe12e7a3	-0.14346175
73	0x3e1bb920	0.15207338
74	0xbe1b8902	-0.15188983
75	0x3e07863e	0.13234803
76	0x3e23e7eb	0.16006438
77	0xbdabeb9b	-0.083945476
78	0xbe06e2d6	-0.13172469
79	0xbe5df1dd	-0.21674295
80	0x3e2703b7	0.16310011
81	0xbdf40887	-0.11915689
82	0xbe46a551	-0.19399
83	0x3dbee3ee	0.09320818
84	0xbccf6251	-0.025315436
85	0xbe023e8a	-0.1271917
86	0xbd110db9	-0.035413478
87	0x3d514d36	0.051099025
88	0x3cb0ea2e	0.02159604
89	0xbdf73a2b	-0.120716415
90	0x3e524b34	0.205365
91	0x3e8f1513	0.27945766
92	0xbd76a9fa	-0.060220696
93	0x3e8b80e8	0.27246785
94	0x3da251f6	0.07925789
95	0x3cff5b1b	0.031171372
96	0xbdbe8ca5	-0.093041696
97	0xbd7008e0	-0.058602214
98	0xbc6ad591	-0.014333145
99	0xbe2266f6	-0.15859589
100	0xbe71efa0	-0.23626566
101	0xbc253e2d	-0.010085625
102	0xbe80ecae	-0.25180572
103	0xbd1616db	-0.03664289
104	0xbe1351b6	-0.14386639
105	0x3e89d463	0.2691985
106	0x3dccc35e	0.09998201
107	0x3d9448c1	0.07240439

weight f4 [36, 36]
0	0x3e279816	0.1636661
1	0x3bb52c06	0.0055289296
2	0x3e1e6ed1	0.1547196
3	0x3dcadca5	0.09905366
4	0x3e729270	0.23688674
5	0xbdcf4340	-0.10120249
6	0x3d8da05c	0.06915352
7	0x382ac13c	4.0711122e-05
8	0x3db9fba3	0.09081199
9	0xbd94d063	-0.07266309
10	0xbe42ff34	-0.19042665
11	0x3e9a0377	0.30080768
12	0xbe44bdc4	-0.19213015
13	0x3e4442bd	0.19166084
14	0xbdb477de	-0.08811925
15	0x3ca1cc1d	0.01975065
16	0x3e968c4c	0.29403913
17	0xbe7df308	-0.2479974
18	0xbe2ab1ee	-0.16669437
19	0x3e945dbe	0.2897777
20	0xbe3708df	-0.17874478
21	0x3e2453bb	0.16047566
22	0x3ea3b3f2	0.31973225
23	0xbe498c09	-0.19682325
24	0xbe9d3fa3	-0.30712613
25	0xbe7aeb6f	-0.24503873
26	0xb785f50f	-1.596895e-05
27	0xbe44fecc	-0.19237822
28	0x3e35319a	0.17694703
29	0xbe117559	-0.14204921
30	0xbea5365b	-0.32268032
31	0x3caa4259	0.02078359
32	0xbdf8d057	-0.12149113
33	0x3eabbe8e	0.3354382
34	0x3e8a7701	0.27043918
35	0x3e2aabae	0.16667053
36	0x3e28f241	0.16498663
37	0x3e6f23e8	0.23353541
38	0xbc9dfe4c	-0.019286297
39	0x3e9d77c4	0.30755436
40	0x3e5d518a	0.21613136
41	0xbe487717	-0.19576679
42	0x3df5ca5c	0.120014876
43	0x3d14711d	0.036240686
44	0xbd2604d5	-0.040531952
45	0x3e598265	0.21241148
46	0x3e2b5a63	0.16733699
47	0xbe28fe7e	-0.16503331
48	0xbe76f479	-0.24116696
49	0x3dbcb53a	0.09214254
50	0x3db334b9	0.087502904
51	0x3e69f872	0.2284868
52	0xbe7153b4	-0.23567086
53	0xbb0d0c92	-0.0021522385
54	0x3e4764f2	0.19472101
55	0x3d78e897	0.06076869
56	0x3d9e86fc	0.0774059
57	0x3e2b4e3c	0.16729063
58	0xbddc50c1	-0.1075759
59	0xbd4cb166	-0.049973868
60	0xbd295557	-0.041341152
61	0xbda247df	-0.079238646
62	0x3e66abc1	0.22526456
63	0x3db9a04b	0.090637766
64	0xbe30325c	-0.1720671
65	0xbe4ebe20	-0.20189714
66	0xbdc6e90f	-0.09712421
67	0x3e39819f	0.18115853
68	0xbdc4c661	-0.0960815
69	0x3de4920f	0.11160671
70	0x3ddb833b	0.107183896
71	0xbe900582	-0.28129202
72	0x3e74ccfb	0.23906319
73	0xbe25e331	-0.16199948
74	0x3edbb077	0.4290807
75	0x3e1d881b	0.15383951
76	0xbd72ff8c	-0.05932574
77	0xbe2e67f8	-0.17031848
78	0xbd6c37e6	-0.057670496
79	0x3c9173f6	0.01775549
80	0x3de4f5bc	0.111796826
81	0x3e86443c	0.26223934
82	0x3ec2e002	0.3806153
83	0x3e6cc450	0.23121762
84	0xbe11418a	-0.14185157
85	0x3e5722d6	0.21009383
86	0x3e0add6b	0.13561027
87	0xbe498673	-0.19680195
88	0x3dd8c896	0.10585134
89	0xbe860f4e	-0.26183552
90	0xbe9713fb	-0.2950743
91	0xbe018491	-0.12648226
92	0x3d87a61d	0.066234805
93	0xbe69a5f8	-0.22817218
94	0xbd5b7729	-0.053580437
95	0x3d7ae8b7	0.06125709
96	0xbcb4e037	-0.02207957
97	0x3e53a897	0.2066978
98	0xbe0f49b4	-0.1399296
99	0x3e686322	0.22694066
100	0xbadbad0e	-0.0016759948
101	0x3d31d84a	0.04341916
102	0x3d6d99b2	0.058007903
103	0xbc9de8b0	-0.019275993
104	0x3d8114da	0.06302805
105	0xbeadf99d	-0.33979502
106	0x3e54564c	0.20736045
107	0xbe7c051f	-0.24611329
108	0x3d3dc924	0.0463344
109	0xbe5fbc8a	-0.21849266
110	0x3ed340cc	0.41260374
111	0xbea101c4	-0.3144666
112	0xbde7acdf	-0.113122694
113	0x3e269ba0	0.16270304
114	0x3e5346f3	0.20632534
115	0x3ef8194e	0.48456806
116	0x3c900656	0.017581146
117	0x3e53bd9d	0.206778
118	0x3ed5d5b3	0.41764602
119	0x3d299c88	0.041409045
120	0xbc8129bc	-0.01576697
121	0x3c8d1053	0.017219698
122	0x3eb2bccd	0.3490967
123	0xbcbc6a24	-0.02299983
124	0x3e24a9e9	0.1608044
125	0x3eb24e3c	0.34825313
126	0xbec6884f	-0.3877587
127	0xbeca78c0	-0.3954525
128	0xbe0c1dd4	-0.13683254
129	0xbe6107f4	-0.2197569
130	0x3e780864	0.24221951
131	0xbc071e8b	-0.008247028
132	0x3c18eaab	0.009333293
133	0x3e1ada01	0.15122224
134	0x3ae85ea8	0.0017728405
135	0x3e5dd278	0.21662319
136	0x3e1ef41e	0.15522811
137	0xbe414be0	-0.188766
138	0x3e5b2bd2	0.21403435
139	0xbe07ae89	-0.13250174
140	0xbc8b1c97	-0.016981406
141	0xbea57a56	-0.32319897
142	0x3e40de8c	0.18834895
143	0xbd35704d	-0.04429655
144	0x3e7d2d01	0.24724199
145	0x3d94605c	0.072449416
146	0xbdc04538	-0.093882024
147	0xbe117871	-0.14206101
148	0x3d537be6	0.05163183
149	0xbe296302	-0.16541675
150	0xbd4d02d1	-0.050051514
151	0xbd3ab9ae	-0.045587234
152	0xbe535a69	-0.20639957
153	0xbd1ada35	-0.037805755
154	0xbe09dcdf	-0.13463162
155	0x3e170a8d	0.14750119
156	0xbe3ac105	-0.18237694
157	0x3e9a0dbf	0.30088612
158	0x3dcfa1ba	0.10138269
159	0xbd8c3181	-0.068453796
160	0x3bb3d892	0.0054884637
161	0x3d3016eb	0.042990606
162	0xbdc784ba	-0.097421125
163	0x3e958d4c	0.29209363
164	0x3e23c338	0.15992439
165	0xbc58cd5e	-0.013232557
166	0x3db93125	0.09042577
167	0x3e3fb9ea	0.18723264
168	0x3cdfc34b	0.027314803
169	0x3e07cf69	0.13262714
170	0x3e0d434e	0.13795206
171	0xbc818eed	-0.015815223
172	0xbe429cb2	-0.19005087
173	0xbe6ed7e1	-0.23324539
174	0xbaec7c9a	-0.0018042505
175	0xbe804b1f	-0.25057313
176	0x3e5abe32	0.21361616
177	0xbdec2a57	-0.11531513
178	0x3e5b7e6c	0.21434945
179	0xbe68ee72	-0.2274721
180	0xbe27c467	-0.16383515
181	0x3e5818e7	0.2110325
182	0xbcdf9efc	-0.02729749
183	0x3dd1e01d	0.10247824
184	0x3e3a36c0	0.18184948
185	0x3ded3f10	0.11584294
186	0xbdab2f8c	-0.08358678
187	0x3e4a738e	0.19770643
188	0xbe565453	-0.20930605
189	0xbe98ceaa	-0.29845172
190	0xbd5b5a4f	-0.05355292
191	0xbd765116	-0.060135923
192	0x3e50c189	0.20386328
193	0xbe8d3e04	-0.27586377
194	0xbd3858cb	-0.045006555
195	0xbd1854d1	-0.037190262
196	0xbe26d965	-0.16293867
197	0xbe9ef543	-0.31046495
198	0x3dd59042	0.104279056
199	0xbd8aa37e	-0.06769465
200	0xbe85ca04	-0.26130688
201	0xbe8cd6eb	-0.2750772
202	0x3ecd1aa4	0.40059388
203	0xbe11c6b7	-0.1423596
204	0x3d40cdeb	0.04707138
205	0xbe0ad679	-0.13558377
206	0xbe4da297	-0.20081554
207	0xbe25e6b6	-0.1620129
208	0x3e3c3b68	0.18382037
209	0xbd960ca1	-0.073266275
210	0x3deee0eb	0.116639934
211	0xbc5bd208	-0.013416775
212	0x3e26d3b1	0.16291691
213	0x3d89acaa	0.06722386
214	0x3da50e00	0.08059311
215	0x3dcd6ec0	0.100308895
216	0xbdfb6891	-0.12275804
217	0xbe61bd29	-0.22044815
218	0x3e30a879	0.17251767
219	0x3e8a63c5	0.27029243
220	0x3dd7143a	0.10501905
221	0x3e900ff9	0.28137186
222	0xbe198b1e	-0.14994475
223	0x3dbf3d40	0.093378544
224	0xbe2864ed	-0.1644475
225	0x3e74a9f1	0.23892953
226	0x3d44ff9c	0.04809533
227	0xbe949415	-0.29019228
228	0x3d91f1fa	0.071262315
229	0x3d3ab66d	0.04558413
230	0x3cfc8e49	0.030829566
231	0x3e4532c2	0.19257644
232	0xbe06be26	-0.13158473
233	0x3e967c5e	0.2939176
234	0xbd0e0d64	-0.03468074
235	0x3dede1b0	0.11615312
236	0xbe5f86e2	-0.21828797
237	0x3d9a7b54	0.07543054
238	0xbe1f3d7c	-0.15550798
239	0x3e57bb37	0.2106751
240	0xbd6d2ae6	-0.05790224
241	0xbde5ffcb	-0.11230429
242	0xbe86b6f2	-0.2631145
243	0xbd8120cb	-0.06305083
244	0x3db57489	0.08860118
245	0xbe1bf684	-0.15230757
246	0xbe7dcf13	-0.24786024
247	0x3e88afa2	0.26696497
248	0x3eac5489	0.33658245
249	0x3e149c7c	0.14512819
250	0xbe03f156	-0.12885031
251	0x3a1faa89	0.00060907804
252	0xbcdf70a7	-0.027275397
253	0x3cd6b1b5	0.026207784
254	0x3e3008ef	0.17190908
255	0x3e1f9b68	0.15586627

bias f4 [36]
0	0x3de32f4d	0.11093006
1	0xba1b0a5d	-0.0005914325
2	0xbe519302	-0.20466235
3	0xbe4432f5	-0.19160064
4	0xbc9e8c8a	-0.019354124
5	0x3d22dd1e	0.039761655
6	0xbd62d0f8	-0.05537507
7	0xbe4e6894	-0.20157081
8	0x3d9cceb6	0.076566145
9	0xbe6f71e2	-0.23383287
10	0x3e0571ff	0.13031767
11	0x3eb9846f	0.3623385
12	0x3cb26583	0.02177692
13	0xbeb49797	-0.35271904
14	0xbe4e085b	-0.20120375
15	0xbe2f278b	-0.17104928
16	0x3e87d6af	0.26530978
17	0x3dc93013	0.098236226
18	0x3e27d9c0	0.16391659
19	0xbdf9fb0a	-0.12206085
20	0x3d6f5eb3	0.05843992
21	0xbdca05f8	-0.0986442
22	0x3de23589	0.11045367
23	0xbd20c89d	-0.03925382
24	0x3db1527b	0.0865831
25	0x3da1deda	0.07903834
26	0x3e273206	0.16327676
27	0xbc348b81	-0.011019588
28	0x3e419811	0.18905665
29	0x3d8ec26b	0.06970676
30	0xbd4697e3	-0.048484694
31	0x3d411eac	0.04714839
32	0xbdb715fe	-0.089397416
33	0x3dd358cf	0.10319673
34	0x3d152b57	0.036418285
35	0x3d821969	0.06352503

weight f4 [1, 18]
0	0xbde9e458	-0.11420506
1	0xbe7153e2	-0.23567155
2	0x3e61ef4f	0.22063945
3	0xbda2ea40	-0.07954836
4	0xbe56d156	-0.20978293
5	0xbe2df640	-0.16988468
6	0x3d6f9781	0.058494095
7	0x3e1468a6	0.14493045
8	0x3cc74026	0.02432258
9	0x3d169b80	0.03676939
10	0xbd066112	-0.032807417
11	0x3d209738	0.039206713
12	0xbca3dadf	-0.020001827
13	0x3e412893	0.18863134
14	0x3db508d7	0.08839577
15	0xbdcf0e64	-0.10110167
16	0x3dab77bb	0.08372446
17	0xbda951d3	-0.0826756

weight f4 [1, 36]
0	0xbf803919	-1.0017425
1	0x3f8fa4ed	1.1222206
2	0x3f3cff3e	0.7382697
3	0xbf564a28	-0.83706903
4	0x3f8c8691	1.0978566
5	0xbf9fa194	-1.2471185
6	0x3f9dbe3b	1.2323679
7	0x3faece2c	1.3656669
8	0xbf611efb	-0.879379
9	0x3f82c08f	1.0215014
10	0xbfa879d3	-1.3162178
11	0x3f2d3e8b	0.6767356
12	0xbf8b34b3	-1.0875458
13	0xbf0013a4	-0.5002997
14	0xbf644959	-0.8917442
15	0x3f8de2d0	1.1084843
16	0x3f4ac661	0.7920895
17	0xbf242f90	-0.64135075
18	0xbf91d5da	-1.1393387
19	0x3f993363	1.1968807
20	0xbf9c0ad5	-1.2190806
21	0x3fa1271c	1.259006
22	0xbf990ea7	-1.1957597
23	0x3f8cc363	1.0997127
24	0x3f81938d	1.0123154
25	0xbf861324	-1.0474591
26	0x3f631488	0.88703203
27	0x3f8d7048	1.104989
28	0xbf94345f	-1.1578482
29	0xbf88edaf	-1.0697535
30	0x3f8ad0c2	1.0844958
31	0x3f7854ef	0.970046
32	0x3f937b89	1.1522075
33	0xbf90bd00	-1.1307678
34	0xbf9229ed	-1.1419045
35	0xbfa4c979	-1.2873985

weight f4 [1, 9]
0	0xbe9c472c	-0.3052305
1	0xbea55562	-0.32291704
2	0xbdaec55b	-0.08533736
3	0xbcf77516	-0.030207198
4	0x3e7ffaa8	0.24997962
5	0xbe5ee9ae	-0.21768829
6	0xbea54b2c	-0.32283914
7	0x3aa8b956	0.0012872617
8	0xbe9e0de4	-0.30869973

weight f4 [1, 2]
0	0x3f02819b	0.5097901
1	0xbf15dcc8	-0.5854001

weight f4 [18, 3]
0	0xbe56c322	-0.20972875
1	0x3ef36045	0.47534385
2	0x3d92fa1a	0.07176609
3	0x3e00cc34	0.12577897
4	0x3c86b07d	0.016441578
5	0xbe3427f6	-0.17593369
6	0x3eaff776	0.34368485
7	0xbee6db88	-0.45089364
8	0x3e87ac98	0.26498866
9	0x3e5db3b9	0.2165059
10	0xbf20faf6	-0.62882936
11	0x3e48c827	0.19607602
12	0x3dff3307	0.124609046
13	0x3eb12aa5	0.34602848
14	0xbd28df4a	-0.04122857
15	0xbbb96e63	-0.005658911
16	0x3cceb15a	0.025231052
17	0x3b2f991f	0.0026794148
18	0x3dbbca6e	0.0916947
19	0x3cadf735	0.021236042
20	0xbe8ed68a	-0.27898055
21	0x3f182fbb	0.5944783
22	0x3e7bdbea	0.2459561
23	0xbe9fd627	-0.31218073
24	0xbe193baa	-0.14964166
25	0xbee07c64	-0.43844903
26	0xbe39f5e3	-0.18160205
27	0x3e7667fc	0.24063104
28	0x3f05cb55	0.52263385
29	0xbf024db5	-0.5089982
30	0xbe9c8806	-0.30572528
31	0xbed2db1f	-0.411828
32	0x3eb9f51f	0.36319825
33	0xbf0df2db	-0.55448693
34	0x3e5c0ad2	0.21488503
35	0x3e91f505	0.28507248
36	0x3e57ffe6	0.21093711
37	0xbd0cd79e	-0.034385316
38	0x3b8921ec	0.004184952
39	0x3ec9c51a	0.3940819
40	0xbeaa5fad	-0.3327612
41	0x3e087e02	0.13329318
42	0x3ea755da	0.32682687
43	0xbe55873a	-0.20852366
44	0xbe86cc72	-0.26327854
45	0x3eaaa9f0	0.33332777
46	0xbe985d83	-0.29758844
47	0xbd89b91a	-0.067247584
48	0xbeadd3b4	-0.3395058
49	0x3f0aa28a	0.54154265
50	0xbe30638b	-0.17225473
51	0x3d8117ea	0.06303389
52	0xbee2c3ad	-0.44289914
53	0x3d52da91	0.051477972

bias f4 [18]
0	0xbd7b5a75	-0.061365563
1	0xbe50084a	-0.20315662
2	0xbeb0804e	-0.3447289
3	0xbdd02ca9	-0.10164768
4	0x3db795f9	0.08964152
5	0x3ebfe029	0.37475708
6	0xbf041dff	-0.5160827
7	0x3e7e30f4	0.24823362
8	0xbed355e0	-0.41276455
9	0xbea3fe59	-0.3202999
10	0x3d1ebf49	0.038756642
11	0xbdb36535	-0.08759538
12	0x3d89c528	0.06727058
13	0x3e3ce9b4	0.18448526
14	0xbecbce43	-0.39805803
15	0xbea15de0	-0.31516933
16	0x3ecda68f	0.40166137
17	0x3eda1331	0.42592767

weight f4 [36]
0	0x3f800000	1.0
1	0x3f800000	1.0
2	0x3f800000	1.0
3	0x3f800000	1.0
4	0x3f800000	1.0
5	0x3f800000	1.0
6	0x3f800000	1.0
7	0x3f800000	1.0
8	0x3f800000	1.0
9	0x3f800000	1.0
10	0x3f800000	1.0
11	0x3f800000	1.0
12	0x3f800000	1.0
13	0x3f800000	1.0
14	0x3f800000	1.0
15	0x3f800000	1.0
16	0x3f800000	1.0
17	0x3f800000	1.0
18	0x3f800000	1.0
19	0x3f800000	1.0
20	0x3f800000	1.0
21	0x3f800000	1.0
22	0x3f800000	1.0
23	0x3f800000	1.0
24	0x3f800000	1.0
25	0x3f800000	1.0
26	0x3f800000	1.0
27	0x3f800000	1.0
28	0x3f800000	1.0
29	0x3f800000	1.0
30	0x3f800000	1.0
31	0x3f800000	1.0
32	0x3f800000	1.0
33	0x3f800000	1.0
34	0x3f800000	1.0
35	0x3f800000	1.0

bias f4 [36]
0	0x00000000	0.0
1	0x00000000	0.0
2	0x00000000	0.0
3	0x00000000	0.0
4	0x00000000	0.0
5	0x00000000	0.0
6	0x00000000	0.0
7	0x00000000	0.0
8	0x00000000	0.0
9	0x00000000	0.0
10	0x00000000	0.0
11	0x00000000	0.0
12	0x00000000	0.0
13	0x00000000	0.0
14	0x00000000	0.0
15	0x00000000	0.0
16	0x00000000	0.0
17	0x00000000	0.0
18	0x00000000	0.0
19	0x00000000	0.0
20	0x00000000	0.0
21	0x00000000	0.0
22	0x00000000	0.0
23	0x00000000	0.0
24	0x00000000	0.0
25	0x00000000	0.0
26	0x00000000	0.0
27	0x00000000	0.0
28	0x00000000	0.0
29	0x00000000	0.0
30	0x00000000	0.0
31	0x00000000	0.0
32	0x00000000	0.0
33	0x00000000	0.0
34	0x00000000	0.0
35	0x00000000	0.0

weight f4 [9]
0	0x3f800000	1.0
1	0x3f800000	1.0
2	0x3f800000	1.0
3	0x3f800000	1.0
4	0x3f800000	1.0
5	0x3f800000	1.0
6	0x3f800000	1.0
7	0x3f800000	1.0
8	0x3f800000	1.0

bias f4 [9]
0	0x00000000	0.0
1	0x00000000	0.0
2	0x00000000	0.0
3	0x00000000	0.0
4	0x00000000	0.0
5	0x00000000	0.0
6	0x00000000	0.0
7	0x00000000	0.0
8	0x00000000	0.0

weight f4 [9]
0	0x3f800000	1.0
1	0x3f800000	1.0
2	0x3f800000	1.0
3	0x3f800000	1.0
4	0x3f800000	1.0
5	0x3f800000	1.0
6	0x3f800000	1.0
7	0x3f800000	1.0
8	0x3f800000	1.0

bias f4 [9]
0	0x00000000	0.0
1	0x00000000	0.0
2	0x00000000	0.0
3	0x00000000	0.0
4	0x00000000	0.0
5	0x00000000	0.0
6	0x00000000	0.0
7	0x00000000	0.0
8	0x00000000	0.0

running_mean f4 [12]
0	0x40b974b3	5.7954955
1	0x40ba3699	5.8191648
2	0x40b9a662	5.8015604
3	0x40b86afd	5.76306
4	0x40b7c52d	5.7428193
5	0x40b82997	5.755077
6	0x40b8dcc0	5.776947
7	0x40b906eb	5.7820945
8	0x40b802ec	5.7503567
9	0x40b583e6	5.672351
10	0x40b466d2	5.6375513
11	0x40b4b4b3	5.647058

running_var f4 [12]
0	0x44be624d	1523.0719
1	0x44be2bdb	1521.3705
2	0x44be1557	1520.6669
3	0x44be27f3	1521.2484
4	0x44be855f	1524.1678
5	0x44bea6d6	1525.2136
6	0x44be6263	1523.0746
7	0x44bdee58	1519.4482
8	0x44bd5e66	1514.95
9	0x44b88eae	1476.4587
10	0x44b8f671	1479.7013
11	0x44b9e165	1487.0436

pe f4 [1, 12, 18]
0	0x00000000	0.0
1	0x3f800000	1.0
2	0x00000000	0.0
3	0x3f800000	1.0
4	0x00000000	0.0
5	0x3f800000	1.0
6	0x00000000	0.0
7	0x3f800000	1.0
8	0x00000000	0.0
9	0x3f800000	1.0
10	0x00000000	0.0
11	0x3f800000	1.0
12	0x00000000	0.0
13	0x3f800000	1.0
14	0x00000000	0.0
15	0x3f800000	1.0
16	0x00000000	0.0
17	0x3f800000	1.0
18	0x3f576aa4	0.84147096
19	0x3f0a5141	0.54030234
20	0x3eb41165	0.3516952
21	0x3f6fa534	0.93611455
22	0x3e03e327	0.1287962
23	0x3f7dde28	0.9916711
24	0x3d3e0d21	0.04639924
25	0x3f7fb96a	0.99892294
26	0x3c88a4fd	0.016680235
27	0x3f7ff6e2	0.9998609
28	0x3bc47017	0.0059948075
29	0x3f7ffed3	0.99998206
30	0x3b0d3169	0.0021544343
31	0x3f7fffd9	0.9999977
32	0x3a4af7fa	0.000774264
33	0x3f7ffffb	0.9999997
34	0x3991e2e5	0.00027825605
35	0x3f7fffff	0.99999994
36	0x3f68c7b7	0.9092974
37	0xbed51133	-0.41614684
38	0x3f289071	0.658454
39	0x3f40abc5	0.752621
40	0x3e82c9f1	0.25544694
41	0x3f7781b8	0.9668231
42	0x3dbdd8ba	0.09269853
43	0x3f7ee5d1	0.9956942
44	0x3d08a01f	0.03335583
45	0x3f7fdb88	0.99944353
46	0x3c446f30	0.0119894
47	0x3f7ffb4a	0.9999281
48	0x3b8d3153	0.0043088584
49	0x3f7fff64	0.9999907
50	0x3acaf7f6	0.0015485275
51	0x3f7fffec	0.9999988
52	0x3a11e2e5	0.0005565121
53	0x3f7ffffd	0.9999998
54	0x3e1081c3	0.14112
55	0xbf7d7026	-0.9899925
56	0x3f618e8f	0.8810815
57	0x3ef22864	0.4729644
58	0x3ec17492	0.3778425
59	0x3f6d05cf	0.9258699
60	0x3e0e211a	0.13879815
61	0x3f7d85a8	0.9903207
62	0x3d4ce404	0.05002214
63	0x3f7fadf5	0.9987481
64	0x3c935243	0.017983561
65	0x3f7ff567	0.9998383
66	0x3bd3c9c7	0.0064632627
67	0x3f7ffea2	0.99997914
68	0x3b1839f3	0.00232279
69	0x3f7fffd3	0.9999973
70	0x3a5ad456	0.00083476806
71	0x3f7ffffa	0.99999964
72	0xbf41bdcf	-0.7568025
73	0xbf275530	-0.6536436
74	0x3f7dbadd	0.99113256
75	0x3e0810d2	0.13287666
76	0x3efce63b	0.49394402
77	0x3f5e9724	0.8694937
78	0x3e3d0776	0.18459877
79	0x3f7b99b2	0.98281395
80	0x3d888ca8	0.06667453
81	0x3f7f6e2b	0.9977748
82	0x3cc46b92	0.023977075
83	0x3f7fed29	0.9997125
84	0x3c0d30fd	0.008617637
85	0x3f7ffd91	0.99996287
86	0x3b4af7e6	0.0030970513
87	0x3f7fffb0	0.99999523
88	0x3a91e2e3	0.001113024
89	0x3f7ffff6	0.9999994
90	0xbf757c10	-0.9589243
91	0x3e913c2c	0.2836622
92	0x3f797bd4	0.9745457
93	0xbe6591c3	-0.22418885
94	0x3f1a10b6	0.6018175
95	0x3f4c7341	0.79863364
96	0x3e6b8596	0.23000178
97	0x3f7922fe	0.9731902
98	0x3daa9d95	0.08330838
99	0x3f7f1c2f	0.9965238
100	0x3cf58313	0.029969728
101	0x3f7fe290	0.9995508
102	0x3c307cec	0.010771971
103	0x3f7ffc33	0.999942
104	0x3b7db5d0	0.0038713105
105	0x3f7fff82	0.9999925
106	0x3ab65b9a	0.0013912797
107	0x3f7ffff0	0.99999905
108	0xbe8f0f8c	-0.2794155
109	0x3f75cdb8	0.96017027
110	0x3f555c5a	0.8334404
111	0xbf0d77ce	-0.5526093
112	0x3f331d4f	0.69966596
113	0x3f36e783	0.7144701
114	0x3e8cc0ec	0.27490938
115	0x3f7622e8	0.9614701
116	0x3dcca25a	0.099919036
117	0x3f7eb808	0.9949956
118	0x3d134c29	0.035961304
119	0x3f7fd59c	0.9993532
120	0x3c53c8a5	0.012926255
121	0x3f7ffa86	0.99991643
122	0x3b9839d8	0.0046455674
123	0x3f7fff4b	0.9999892
124	0x3adad451	0.0016695355
125	0x3f7fffe9	0.9999986
126	0x3f283046	0.6569866
127	0x3f40ffbd	0.75390226
128	0x3f15f9fa	0.5858456
129	0xbf4f77dc	-0.81042266
130	0x3f492e17	0.7858595
131	0x3f1e4fca	0.618405
132	0x3ea3716d	0.31922475
133	0x3f729b18	0.94767904
134	0x3dee988b	0.11650189
135	0x3f7e41bb	0.99319047
136	0x3d2bd56e	0.04195159
137	0x3f7fc64e	0.99911964
138	0x3c77141e	0.01508048
139	0x3f7ff88c	0.9998863
140	0x3bb198c3	0.005419822
141	0x3f7fff0a	0.99998534
142	0x3aff4d06	0.0019477911
143	0x3f7fffe0	0.9999981
144	0x3f7d4695	0.98935825
145	0xbe14fdf6	-0.14550003
146	0x3e86dbf1	0.26339677
147	0xbf76f5c4	-0.9646876
148	0x3f5be4f6	0.8589624
149	0x3f0314f7	0.51203865
150	0x3eb9c7ce	0.3628525
151	0x3f6e8d7f	0.93184656
152	0x3e083edf	0.13305233
153	0x3f7db952	0.991109
154	0x3d445d1e	0.047940366
155	0x3f7fb4a5	0.99885017
156	0x3c8d2fa6	0.017234635
157	0x3f7ff644	0.99985147
158	0x3bcaf7a6	0.006194073
159	0x3f7ffebe	0.9999808
160	0x3b11e2dd	0.0022260465
161	0x3f7fffd7	0.99999756
162	0x3ed30132	0.4121185
163	0xbf693fd5	-0.91113025
164	0xbdbddce7	-0.092706494
165	0xbf7ee5c4	-0.99569345
166	0x3f6af21c	0.9177568
167	0x3ecb564f	0.39714286
168	0x3ecfb7bd	0.4056987
169	0x3f69fc5b	0.9140069
170	0x3e1927c4	0.14956576
171	0x3f7d1ed6	0.98875177
172	0x3d5ce2fe	0.053927414
173	0x3f7fa0a3	0.9985449
174	0x3c9ed512	0.01938871
175	0x3f7ff3ae	0.999812
176	0x3be45681	0.00696832
177	0x3f7ffe69	0.99997574
178	0x3b241f37	0.002504302
179	0x3f7fffcb	0.99999684
180	0xbf0b44f8	-0.5440211
181	0xbf56cd64	-0.8390715
182	0xbedfb9d2	-0.43696457
183	0xbf66443d	-0.89947873
184	0x3f76155c	0.9612634
185	0x3e8d1f90	0.27563143
186	0x3ee53521	0.44767097
187	0x3f64ea2f	0.89419836
188	0x3e2a05c0	0.16603756
189	0x3f7c7253	0.98611945
190	0x3d7566d8	0.059912533
191	0x3f7f8a46	0.99820364
192	0x3cb07a4d	0.021542693
193	0x3f7ff0ca	0.9997679
194	0x3bfdb554	0.0077425633
195	0x3f7ffe09	0.99997
196	0x3b365b8f	0.002782557
197	0x3f7fffbf	0.9999961
198	0xbf7fff5c	-0.9999902
199	0x3b910572	0.004425698
200	0xbf39b33c	-0.72539115
201	0xbf3036d9	-0.6883369
202	0x3f7d1f34	0.9887574
203	0x3e191e06	0.1495286
204	0x3efa3420	0.48867893
205	0x3f5f59c8	0.8724637
206	0x3e3ad79f	0.18246315
207	0x3f7bb3d4	0.9832127
208	0x3d86f438	0.0658955
209	0x3f7f718f	0.9978265
210	0x3cc21f53	0.023696577
211	0x3f7fed99	0.9997192
212	0x3c0b8a0e	0.0085168015
213	0x3f7ffda0	0.99996376
214	0x3b4897e6	0.0030608117
215	0x3f7fffb1	0.9999953

weight f4 [9, 18]
0	0x3e70c397	0.23512112
1	0x3d8e27c4	0.069411784
2	0x3d6fc17d	0.058534134
3	0x3e6669f7	0.2250136
4	0xbe00b9f0	-0.1257093
5	0x3e10cf57	0.14141594
6	0xbe0a85c2	-0.13527587
7	0x3d897498	0.067116916
8	0xbe6e30ef	-0.23260854
9	0xbcfa5c38	-0.030561551
10	0x3e5a8858	0.21341074
11	0x3e60c1d5	0.21948941
12	0xbd42911a	-0.04750166
13	0xbde93081	-0.113862045
14	0xbcccd673	-0.025004601
15	0x3e1dbcb2	0.15404013
16	0x3d73e20d	0.05954175
17	0xbda59f60	-0.08087039
18	0xbdd26723	-0.10273578
19	0x3e1dcd21	0.15410282
20	0xbe1f4a86	-0.15555772
21	0xbdc0cb42	-0.09413768
22	0xbd11a3cc	-0.0355566
23	0x3e61a4ee	0.22035572
24	0x3e39681e	0.18106124
25	0x3e36c3bb	0.17848103
26	0xbe23684c	-0.15957755
27	0x3da68442	0.08130695
28	0xbc84ba9a	-0.01620226
29	0x3defea03	0.11714556
30	0x3e1fa881	0.15591623
31	0xbe3cd99f	-0.18442391
32	0xbe430d93	-0.19048147
33	0x3cdd2d84	0.026999243
34	0xbe6e38f1	-0.23263909
35	0x3e2e10a6	0.16998538
36	0xbe2eb7bd	-0.17062278
37	0xbe0c42d8	-0.13697374
38	0x3a89fd2b	0.001052772
39	0x3e098ed1	0.13433386
40	0x3e52bb01	0.20579149
41	0x3d3242d8	0.04352078
42	0x3e4de478	0.20106685
43	0x3dcb3759	0.09922666
44	0x3e6cc7c0	0.23123074
45	0xbd6df3ec	-0.05809395
46	0xbd753e02	-0.05987359
47	0xbd955642	-0.07291843
48	0xbd23f645	-0.040029783
49	0xbe4c261a	-0.1993641
50	0x3d9045a9	0.070445366
51	0x3e2d20c7	0.16907035
52	0x3df8ce71	0.121487506
53	0xbe184a68	-0.14872134
54	0x3e5ac2b2	0.21363333
55	0xba1dc7d3	-0.0006018851
56	0xbbe97925	-0.0071250373
57	0xbe515dc8	-0.20445931
58	0xbdd335c6	-0.10312991
59	0x3d9bec8c	0.07613477
60	0x3cea2ec1	0.028586747
61	0xbe1a47cc	-0.15066451
62	0x3e5fe018	0.21862829
63	0x3dca2de7	0.098720364
64	0x3e054552	0.13014725
65	0xbe0c66b0	-0.13711047
66	0xbdc2e954	-0.0951716
67	0x3d96f4a3	0.073708795
68	0xbe627465	-0.22114713
69	0x3de20e01	0.11037827
70	0x3c472ee2	0.012157174
71	0x3e1a4371	0.1506479
72	0x3e3937dd	0.18087716
73	0x3d3ecf59	0.04658446
74	0x3dfbd068	0.1229561
75	0x3bb3a183	0.0054819
76	0x3e6b71f6	0.22992691
77	0xbcd64b1d	-0.026158864
78	0xbe14b593	-0.1452239
79	0xbd011968	-0.03151837
80	0xbe35dcf7	-0.17760073
81	0xbe0d56f1	-0.13802697
82	0x3d52d41b	0.05147181
83	0x3e3a766c	0.18209237
84	0x3e44a88f	0.19204925
85	0x3e35d093	0.17755346
86	0x3e4e2f17	0.20135151
87	0x3e578a87	0.21048938
88	0xbe112d0a	-0.14177337
89	0xbd9368a0	-0.0719769
90	0x3ddbb048	0.10726982
91	0xbdbd9ea1	-0.09258772
92	0xbd24b3dd	-0.040210593
93	0x3e4c228f	0.19935058
94	0xbca84200	-0.020539284
95	0xbd601aa3	-0.054712903
96	0x3dc67952	0.09691109
97	0x3e6c21b6	0.23059735
98	0xbdd00ba7	-0.101584725
99	0xbcfc8889	-0.030826824
100	0xbe56bafa	-0.20969763
101	0x3ce44bca	0.02786817
102	0x3cc7482a	0.024326403
103	0x3e2217bd	0.15829368
104	0xbe452ffc	-0.19256586
105	0xbe158703	-0.14602284
106	0x3e3bd5c2	0.18343261
107	0xbdd98d92	-0.106227055
108	0x3c7e52bd	0.015522656
109	0x3e4f9f2f	0.20275567
110	0x3e519c40	0.20469761
111	0xbc71dc64	-0.014762018
112	0xbe64261b	-0.22280161
113	0xbe460dee	-0.19341251
114	0xbe67bffd	-0.22631831
115	0xbc674a69	-0.014116862
116	0xbe3bb6cd	-0.18331452
117	0x3e43bd1f	0.19115113
118	0xbe518307	-0.20460139
119	0xbd8f5241	-0.069981106
120	0x3dced3fb	0.10099026
121	0xbdcba69d	-0.09943888
122	0x3e34b3a2	0.1764665
123	0x3d4e9a1d	0.050439943
124	0x3e67d425	0.2263952
125	0x3d09a393	0.033603262
126	0x3e136a86	0.14396104
127	0xbe54d227	-0.20783292
128	0xbdcd24c3	-0.10016777
129	0x3dd7e421	0.10541559
130	0xbdb783a1	-0.08960653
131	0x3d9f12aa	0.07767232
132	0xbe121253	-0.14264803
133	0x3d3f95c0	0.046773672
134	0x3cec22f9	0.02882527
135	0xbe051351	-0.1299565
136	0xbbbc546d	-0.005747369
137	0x3e3aba2e	0.18235084
138	0xbe324b1c	-0.17411464
139	0x3d1ff901	0.039055828
140	0x3e0330c0	0.12811565
141	0x3e5e58fe	0.21713635
142	0xbe5be53e	-0.21474168
143	0x3dda62de	0.10663389
144	0x3e6579b0	0.22409701
145	0x3e252c14	0.16130096
146	0xbe502dc5	-0.2032996
147	0xbd0c0b3a	-0.034190394
148	0xbcecab35	-0.028890232
149	0xbd0ac111	-0.03387553
150	0x3c8b367a	0.01699375
151	0x3c7b14b7	0.015324763
152	0x3dffb233	0.12485161
153	0xbe3d2502	-0.18471149
154	0xbe2a31e5	-0.16620596
155	0xbbe9df70	-0.0071372315
156	0xbe63645a	-0.2220625
157	0x3e6cace5	0.23112829
158	0x3e2c63b8	0.16834915
159	0xbdd573e7	-0.10422497
160	0x3e2bcab8	0.1677655
161	0xbdd87998	-0.10570067

bias f4 [9]
0	0xbad3c83c	-0.0016157697
1	0xbe4e1464	-0.20124966
2	0x3c05f891	0.008176939
3	0x3da16d5e	0.07882188
4	0xbdc7fb57	-0.09764736
5	0x3e05fca5	0.13084657
6	0xbb17d8f6	-0.002317009
7	0x3e015582	0.12630275
8	0x3e6d934d	0.23200722

weight f4 [1, 9]
0	0xbe6e26b0	-0.23256946
1	0xbe6eeeeb	-0.23333327
2	0x3e80bf2c	0.25145853
3	0xbd9283a0	-0.07154012
4	0xbe74d8b8	-0.23910797
5	0x3d356d6b	0.044293802
6	0xbe6ad593	-0.22933035
7	0x3ea6a582	0.32548147
8	0x3e2062bb	0.15662663
