SensorFormer/SensorFormer/checkpoints/chpt_AdamW_lr0.0005_ep50.pt (torch, 83172 bytes, 35 tensors)

self_attn.qkv_proj.weight f4 [108, 36]
-0.11483324 0.14501981 -0.039123517 -0.3144356 0.33237094 0.10694741 -0.10983145 0.33647767
0.039804142 0.37828934 -0.3263493 0.010253086 -0.088567756 -0.22987138 0.13079011 -0.16146071
0.41229847 -0.011700922 0.0058718696 0.07460254 -0.102723695 0.010666938 -0.201533 -0.13590613
-0.27177802 -0.20085005 -0.16156714 -0.13715464 -0.17364654 -0.106819026 -0.21446407 -0.23664013
-0.23845708 -0.0026351134 -0.039880842 -0.26599953 -0.014745727 -0.023482965 -0.021902032 -0.22958647
0.21026002 0.08832787 -0.061339535 0.21354741 -0.09337071 0.5069536 -0.043877155 -0.085557744
0.03758207 0.15342921 -0.03487145 -0.014424707 0.17181942 -0.15505861 -0.06260181 0.31140545
0.17996112 0.053636726 0.06405725 0.15884447 0.06603146 -0.07000117 -0.106274895 0.08849727
0.0576219 -0.124996684 0.071308166 0.06713671 -0.0043277037 -0.047703613 -0.06318023 0.083346486
0.019744493 0.11718957 0.110964686 0.2714823 -0.5267279 0.054429006 0.07790151 -0.15892525
-0.16115019 -0.48374104 0.3397268 -0.050983373 0.19045834 0.37725413 0.023332775 0.16856375
-0.2630955 0.03346899 0.14397573 0.008197107 -0.019193614 0.0019636229 0.1460817 0.1985122
0.17983398 0.1767589 0.23181126 0.35373735 0.20871562 0.17825171 0.3246989 0.15364179
0.24233077 0.2228193 0.24503084 0.30537638 -0.095615216 -0.04232463 0.033689238 0.36037737
-0.56321543 0.06172082 -0.083739586 -0.45085582 0.0033108273 -0.4898365 0.61928934 0.0145024
-0.24028501 0.054226536 -0.06485604 0.037964657 0.06365351 0.14555842 0.0067355945 -0.21731457
0.094558015 -0.18113142 0.049174007 -0.09904695 0.154084 0.07181454 0.166027 -0.06364903
0.08972576 -0.12072966 0.12764166 -0.044841245 0.091097675 0.07429677 -0.04588152 0.08539886
-0.03453359 0.08167457 0.09065622 0.26467362 -0.32941762 0.030795053 0.11099503 -0.17456384
-0.1165609 -0.48494518 0.14199577 -0.02774571 0.06971254 0.15787724 -0.0062720724 -0.0146587
-0.37072432 0.17120844 0.14000866 -0.023025334 0.08552149 -0.16857068 0.19546777 0.24976231
0.09032977 0.23685032 0.2415846 0.1888933 0.027104052 0.22645561 0.29731888 0.13820405
0.22459196 0.26923603 0.057850815 0.02262851 0.031243548 -0.062201794 -0.28178772 -0.34526765
0.025552219 0.14228177 -0.13652456 -0.06809231 0.094789125 0.14357822 -0.21481289 0.12476684
0.0604715 -0.12053728 -0.10557634 -0.23507698 0.15940697 0.0072015305 -0.031724747 0.17951797
-0.047688875 0.089949645 -0.07541446 -0.25255474 -0.12597373 -0.12634578 -0.15795712 -0.2543281
-0.30360982 -0.16908616 -0.3231221 -0.24754287 -0.16720031 -0.109636545 -0.07823598 -0.32170793
-0.058336 -0.090102576 -0.1665585 -0.17485972 -0.013006216 0.14619869 -0.15901896 -0.082394846
0.11296173 0.022384265 -0.2233462 0.07312606 -0.016192174 -0.035229534 -0.102984875 -0.22330983
0.3144204 -0.078183286 0.256044 0.06496808 0.19699755 0.17677951 -0.025201088 -0.19658975
-0.1654 -0.13490976 -0.12601736 -0.007214182 -0.081977606 -0.25658602 -0.089469425 -0.11297153
-0.060799208 -0.18357363 -0.0055309683 -0.22424603 0.10676135 0.070020445 -0.23912227 -0.26365942
00000000: b12d ebbd 1380 143e fb3f 20bd b4fd a0be
00000010: 862c aa3e 3e07 db3d 50ef e0bd cd46 ac3e
00000020: ab09 233d 24af c13e 4117 a7be 8ffc 273c
00000030: 0363 b5bd 6763 6bbe d8ed 053e f555 25be
00000040: c918 d33e 39b5 3fbc d068 c03b 37c9 983d
00000050: cd60 d2bd 61c4 2e3c ab5e 4ebe fa2a 0bbe
00000060: 7d26 8bbe a3ab 4dbe db71 25be 4472 0cbe
00000070: 66d0 31be efc3 dabd 789c 5bbe ca51 72be
00000080: 182e 74be deb1 2cbb 185a 23bd 1731 88be
00000090: 1098 71bc 595f c0bc e46b b3bc b718 6bbe
000000a0: 674e 573e 3ee5 b43d 2a3f 7bbd 2cac 5a3e
000000b0: 2539 bfbd b6c7 013f 88b8 33bd e638 afbd
000000c0: a8ef 193d 8c1c 1d3e 5ed5 0ebd 9b55 6cbc
000000d0: 6ef1 2f3e afc7 1ebe 6135 80bd 8970 9f3e
000000e0: ba47 383e 2fb2 5b3d 7330 833d 20a8 223e
000000f0: 813b 873d c65c 8fbd a7a6 d9bd 0f3e b53d
00000100: f104 6c3d 43fe ffbd 040a 923d f97e 893d
00000110: 69cf 8dbb dd64 43bd a364 81bd 90b1 aa3d
00000120: 34bf a13c 1601 f03d 7441 e33d baff 8a3e
00000130: a4d7 06bf f3f0 5e3d d48a 9f3d 4dbd 22be
00000140: 8e04 25be e8ac f7be acf0 ad3e f1d3 50bd
00000150: 8307 433e 7427 c13e 6024 bf3c fa9b 2c3e
00000160: 74b4 86be c816 093d 606e 133e 294d 063c
00000170: ed3b 9dbc 20b0 003b 7196 153e c846 4b3e
00000180: 6626 383e 4900 353e ee5f 6d3e 101d b53e
00000190: 8cb9 553e 9e87 363e ef3e a63e 4654 1d3e
000001a0: 8f25 783e be2a 643e 5de9 7a3e 4b5a 9c3e
000001b0: e9d1 c3bd 975c 2dbd bafd 093d 6283 b83e
000001c0: e32e 10bf f8ce 7c3d a97f abbd 93d6 e6be
000001d0: 77fa 583b dacb fabe bf89 1e3f 799b 6d3c
000001e0: 460d 76be a51c 5e3d 3ed3 84bd d480 1b3d
000001f0: c55c 823d 440d 153e 43b6 dc3b b687 5ebe
00000200: a2a7 c13d 847a 39be af6a 493d 21d9 cabd
00000210: 32c8 1d3e 8013 933d fb02 2a3e 6c5a 82bd
00000220: 24c2 b73d 1d41 f7bd 7fb4 023e 74ab 37bd
00000230: 6b91 ba3d e828 983d 43ee 3bbd 99e5 ae3d
00000240: 1873 0dbd ff44 a73d f8a9 b93d 4d83 873e
00000250: 6da9 a8be e845 fc3c 5d51 e33d ddc0 32be
00000260: 7bb7 eebd bc4a f8be 5767 113e f94a e3bc
00000270: 73c5 8e3d 92aa 213e f585 cdbb 0b2b 70bc
00000280: 94cf bdbe 4451 2f3e 6e5e 0f3e a09f bcbc
00000290: e425 af3d cb9d 2cbe b428 483e b1c1 7f3e
000002a0: d1fe b83d e488 723e f461 773e 3f6d 413e
000002b0: 5109 de3c fbe3 673e 2e3a 983e 5d85 0d3e
000002c0: 6ffb 653e 4ed9 893e faf4 6c3d 6d5f b93c
000002d0: 78f2 ff3c 4fc7 7ebd 7b46 90be ecc6 b0be
000002e0: e352 d13c 50b2 113e 18cd 0bbe fb73 8bbd
000002f0: cd20 c23d 2b06 133e e9f7 5bbe c285 ff3d
00000300: f7b0 773d 40dc f6bd 6838 d8bd 05b8 70be
00000310: 953b 233e d1fa eb3b cff1 01bd 8fd3 373e
00000320: 6955 43bd 8537 b83d e572 9abd db4e 81be
00000330: 42ff 00be ca60 01be 83bf 21be 4b37 82be
00000340: bf72 9bbe ec24 2dbe 4370 a5be e17b 7dbe
00000350: 8f36 2bbe 2089 e0bd 2f3a a0bd e7b6 a4be
00000360: bbf1 6ebd b387 b8bd 508e 2abe 6d0e 33be
00000370: 0618 55bc 1cb5 153e ded5 22be a1be a8bd
00000380: 7b58 e73d 355f b73c deb4 64be 1ec3 953d
00000390: 73a5 84bc d84c 10bd bce9 d2bd 55ab 64be
000003a0: b6fb a03e 8f1e a0bd 3318 833e fc0d 853d
000003b0: bab9 493e b005 353e 8372 cebc d34e 49be
000003c0: 9e5e 29be c925 0abe b20a 01be f264 ecbb
000003d0: e0e3 a7bd 3e5f 83be bf3b b7bd 9e5d e7bd
000003e0: 9708 79bd bafa 3bbe 203d b5bb c0a0 65be
000003f0: b2a5 da3d e166 8f3d 78dc 74be 5efe 86be

self_attn.qkv_proj.bias f4 [108]
-0.13741189 -0.0054932428 0.22012903 0.0035303768 0.15819687 -0.19951282 -0.12132174 -0.14213543
0.11188942 0.11126682 0.07443619 -0.1670612 -0.040616814 0.20171772 0.101926655 0.17491788
-0.14275816 0.23024078 -0.09195118 -0.13985057 0.05751846 -0.0051455265 -0.15570264 -0.031091342
-0.14412534 -0.00056957535 0.038472444 0.085101865 0.13997366 -0.1524227 -0.12052002 0.06827881
-0.12562124 -0.1657431 -0.15095255 0.12027436 -0.042652268 -0.046509422 0.041925788 -0.017755762
0.044180185 -0.044729106 -0.025490958 -0.04608838 0.02308245 0.009887618 -0.06697794 -0.038714692
0.019768678 0.042836193 0.02140451 0.038062934 0.023806259 0.0483632 -0.04893151 -0.021562742
0.03072143 0.012329511 -0.04504807 -0.013908701 -0.017201118 -0.018785782 0.011759495 0.075573705
0.05308653 -0.046143305 -0.03665118 -0.053337667 -0.05305947 -0.042382836 -0.052202582 0.04039728
0.23984772 -0.077879995 -0.13153857 -0.31882587 0.16581453 -0.056864627 0.006419849 -0.18367258
-0.23723425 0.20012757 -0.2605618 -0.1750458 -0.0111010345 0.3086403 -0.12324171 0.23599732
-0.18619868 0.19899441 -0.010708781 0.5077357 0.13552049 0.17161402 -0.13936698 0.013203866
0.20878693 -0.09522908 0.09056758 -0.12369466 0.17106524 -0.30588973 -0.20867175 -0.06660579
-0.0341664 0.5142639 -0.22373286 -0.15004843
00000000: b4b5 0cbe a900 b4bb 8169 613e e55d 673b
00000010: 5cfe 213e 174d 4cbe 8877 f8bd f38b 11be
00000020: 4826 e53d dcdf e33d 0072 983d 1712 2bbe
00000030: d15d 26bd 178f 4e3e ecbe d03d ac1d 333e
00000040: 322f 12be 3dc4 6b3e e650 bcbd fd34 0fbe
00000050: 7a98 6b3d ce9b a8bb 8370 1fbe 45b3 febc
00000060: 9895 13be 8e4f 15ba 4895 1d3d e349 ae3d
00000070: 4155 0f3e b214 1cbe 33d3 f6bd c3d5 8b3d
00000080: dba2 00be 8fb8 29be 4e93 1abe 6752 f63d
00000090: 25b4 2ebd aa80 3ebd 60ba 2b3d 8874 91bc
000000a0: 48f6 343d de35 37bd 6ad2 d0bc 2bc7 3cbd
000000b0: 6817 bd3c adff 213c bb2b 89bd 4c93 1ebd
000000c0: ecf1 a13c 0175 2f3d 8358 af3c e1e7 1b3d
000000d0: 5805 c33c 7e18 463d 686c 48bd 59a4 b0bc
000000e0: 82ab fb3c b801 4a3c 5384 38bd 52e1 63bc
000000f0: 5ce9 8cbc a4e4 99bc e6aa 403c 63c6 9a3d
00000100: 4371 593d c300 3dbd 8c1f 16bd 9978 5abd
00000110: e354 59bd a099 2dbd 60d2 55bd 9e77 253d
00000120: a49a 753e 8c7f 9fbd 0cb2 06be 253d a3be
00000130: 49cb 293e e2ea 68bd 995d d23b aa14 3cbe
00000140: 89ed 72be 3eee 4c3e 5b68 85be 353f 33be
00000150: 1de1 35bc 1a06 9e3e 2666 fcbd 48a9 713e
00000160: deaa 3ebe 31c5 4b3e e273 2fbc f8fa 013f
00000170: e2c5 0a3e 96bb 2f3e 38b6 0ebe 0755 583c
00000180: 3ecc 553e 7707 c3bd 7f7b b93d a053 fdbd
00000190: ba2b 2f3e 949d 9cbe 0cae 55be 9e68 88bd
000001a0: 11f2 0bbd cda6 033f 3a1a 65be 4ca6 19be

self_attn.o_proj.weight f4 [36, 36]
0.13495883 -0.12160106 0.21717179 0.21850078 0.21704066 -0.14895117 0.080264986 -0.13716474
0.022494374 -0.047530912 -0.3451938 0.14912222 0.010863668 0.15399754 -0.059163734 0.17164153
0.2668006 -0.4349367 -0.2630922 0.26698568 -0.09516632 0.08507818 0.10468853 -0.13565637
-0.36741528 -0.13932711 0.084385164 -0.11693923 -0.13282214 -0.25459608 -0.11604797 0.009566441
-0.15427911 0.36292523 0.34176856 0.18406528 0.20962241 0.26519227 -0.017205535 -0.054500125
0.13578539 -0.19662291 0.16925046 0.067816444 -0.10544834 0.18259284 0.2133046 -0.077880085
-0.2947122 0.16883956 0.13529551 0.115122855 -0.26097617 0.26804662 0.19573313 0.047617912
0.07066594 0.10390628 0.005547198 -0.097256824 0.1420168 -0.087461844 0.16069087 0.013899097
0.15179695 -0.13144326 -0.116569504 0.10889749 -0.036840145 0.01841835 -0.19229998 -0.3062844
0.20894744 0.04129853 0.22473375 -0.031750698 -0.047427207 -0.084749036 -0.12455795 0.047188852
0.06751321 0.24656132 0.34660143 0.26843882 -0.08762176 0.21645673 0.097241126 -0.22293556
0.08492081 0.08811627 -0.17297938 -0.046218175 0.03620996 -0.16251294 0.10281925 0.025784846
0.14365461 0.11430472 -0.17563704 0.13589579 0.23500021 0.09112765 0.029022256 -0.0030286126
-0.0037100567 -0.23579559 0.049537998 -0.15460537 -0.14809142 -0.104417935 0.3259321 -0.12937652
-0.1812219 0.10800493 0.11420631 0.595443 0.35041466 0.20439734 0.32401448 0.0034425585
0.25310048 -0.19584832 0.17539048 -0.21964233 0.50447184 0.17771064 -0.54630923 -0.34622023
-0.20167078 -0.26444718 0.23117056 0.07563152 -0.031471267 0.054039262 0.01566333 0.22943267
0.15829533 0.30307195 0.17344809 -0.12131746 -0.35579428 -0.26218712 0.69294167 0.41421837
0.23444226 0.16055956 -0.16211814 -0.12282123 0.19176863 -0.03960679 -0.09205253 -0.15239812
-0.30854732 -0.1625123 -0.14427277 0.2260936 -0.19182049 0.33259797 0.1525523 0.023438284
-0.1318259 0.0828409 0.08764643 0.29101205 0.028207686 0.093079515 0.22009178 0.118870966
-0.01523938 0.13025914 0.09166409 -0.028631598 -0.2411443 -0.32117218 -0.08063476 -0.15724279
0.23864502 -0.0120399 -0.17604378 -0.255434 -0.17551385 0.04084737 -0.03212755 0.34605995
0.13618341 0.06578789 -0.12121161 0.12900549 -0.11231079 -0.2573762 -0.06157067 -0.09334153
0.15627138 -0.28193465 -0.08723837 -0.008088512 -0.113526456 -0.49859768 0.08270538 -0.0922658
-0.20599052 -0.16574846 0.21256217 -0.072696075 -0.1401519 -0.09404317 -0.12871176 -0.057768248
-0.14825672 -0.08981623 0.097255915 0.004962816 0.17257954 0.03534401 0.21523547 0.039626386
-0.036876634 -0.12671681 0.065876245 -0.008803163 0.18138008 0.23731418 -0.026082601 -0.03705494
-0.25106594 0.097126104 -0.050622974 -0.19072846 0.07134999 0.15424125 0.1764637 0.22349268
-0.063136265 0.37212354 0.01741941 0.23818226 -0.20488364 0.029630419 -0.028037172 0.0633968
-0.041833516 -0.061817423 -0.14440666 -0.15945393 0.14251564 -0.2072987 -0.14605613 0.12744987
0.21735674 0.23560235 -0.33556548 0.019129572 0.08872248 0.052125197 0.027624309 -0.053743333
00000000: a632 0a3e fa09 f9bd 4862 5e3e abbe 5f3e
00000010: e83f 5e3e a886 18be f861 a43d ea74 0cbe
00000020: 1f46 b83c c6af 42bd 3ebd b0be 7fb3 183e
00000030: 87fd 313c 88b1 1d3e ac55 72bd ccc2 2f3e
00000040: 179a 883e 06b0 debe 05b4 86be 59b2 883e
00000050: 8fe6 c2bd 783d ae3d f166 d63d 81e9 0abe
00000060: db1d bcbe c4ab 0ebe 21d2 ac3d d67d efbd
00000070: 8702 08be 6b5a 82be 8faa edbd 90bc 1c3c
00000080: 58fb 1dbe 56d1 b93e 4afc ae3e 9c7b 3c3e
00000090: 42a7 563e 48c7 873e 9ff2 8cbc 863b 5fbd
000000a0: 530b 0b3e 8457 49be fe4f 2d3e 59e3 8a3d
000000b0: 4df5 d7bd 9ef9 3a3e 856c 5a3e 987f 9fbd
000000c0: 84e4 96be 47e4 2c3e e88a 0a3e 88c5 eb3d
000000d0: ab9e 85be 683d 893e 446e 483e 000b 433d
000000e0: 4eb9 903d d1cc d43d 45c5 b53b 962e c7bd
000000f0: da6c 113e 321f b3bd 268c 243e 0ab9 633c
00000100: a970 1b3e 1099 06be febb eebd a605 df3d
00000110: b1e5 16bd 14e2 963c 49ea 44be 4fd1 9cbe
00000120: 51f6 553e a628 293d 9b20 663e 050d 02bd
00000130: 0843 42bd e790 adbd 3d18 ffbd 1949 413d
00000140: 5e44 8a3d 927a 7c3e be75 b13e d070 893e
00000150: 0a73 b3bd d5a6 5d3e 5b26 c73d 3849 64be
00000160: f6ea ad3d 4e76 b43d 8221 31be 454f 3dbd
00000170: e550 143d cb69 26be e692 d23d be3a d33c
00000180: 321a 133e 9818 ea3d 32da 33be 4428 0b3e
00000190: e5a3 703e 22a1 ba3d 15c0 ed3c b07b 46bb
000001a0: 6c24 73bb 6674 71be 5be8 4a3d df50 1ebe
000001b0: 47a5 17be 12d9 d5bd 92e0 a63e 477b 04be
000001c0: 3c92 39be b031 dd3d ffe4 e93d f46e 183f
000001d0: 8d69 b33e 894d 513e 3ae5 a53e 8c9c 613b
000001e0: 6396 813e 768c 48be 9099 333e ebe9 60be
000001f0: 1125 013f c7f9 353e ecda 0bbf c743 b1be
00000200: c982 4ebe 9f65 87be fab7 6c3e b3e4 9a3d
00000210: 04e8 00bd 4658 5d3d 6250 803c 66f0 6a3e
00000220: 2c18 223e 3f2c 9b3e 609c 313e 4a75 f8bd
00000230: ab2a b6be 643d 86be a064 313f 6e14 d43e
00000240: a211 703e ba69 243e 4c02 26be b289 fbbd
00000250: ff5e 443e bb3a 22bd 0986 bcbd 410e 1cbe
00000260: eaf9 9dbe a069 26be 3ebc 13be 1585 673e
00000270: 976c 44be 484a aa3e ac36 1c3e a501 c03c
00000280: 5efd 06be 7da8 a93d f97f b33d 88ff 943e
00000290: ce13 e73c 79a0 be3d bd5f 613e 9f72 f33d
000002a0: 98ae 79bc a762 053e 62ba bb3d d08c eabc
000002b0: 88ee 76be ae70 a4be d623 a5bd 4104 21be
000002c0: 5c5f 743e 0043 45bc d244 34be 3fc8 82be
000002d0: e7b9 33be 924f 273d 2e98 03bd c52e b13e
000002e0: aa73 0b3e cdbb 863d cb3d f8bd 041a 043e
000002f0: 3303 e6bd d0c6 83be 8731 7cbd d829 bfbd
00000300: 9b05 203e bd59 90be 08aa b2bd ae85 04bc
00000310: 8f80 e8bd 3248 ffbe 7061 a93d daf5 bcbd
00000320: 2eef 52be f7b9 29be e6a9 593e aee1 94bd
00000330: fb83 0fbe b599 c0bd 04cd 03be 669e 6cbd
00000340: 9cd0 17be 92f1 b7bd 1c2e c73d 1e9f a23b
00000350: b1b8 303e e1c4 103d b066 5c3e 474f 223d
00000360: f40b 17bd 0dc2 01be 20ea 863d 243b 10bc
00000370: b3bb 393e 7d02 733e 2eab d5bc ecc6 17bd
00000380: b78b 80be 0dea c63d 095a 4fbd 524e 43be
00000390: f21f 923d 6bf1 1d3e e6b2 343e 44db 643e
000003a0: 964d 81bd fa86 be3e 27b3 8e3c 0de6 733e
000003b0: 04cd 51be 7ebb f23c 36ae e5bc 2ed6 813d
000003c0: 9f59 2bbd 4434 7dbd 57df 13be e447 23be
000003d0: 9fef 113e 1c46 54be bd8f 15be 3882 023e
000003e0: c492 5e3e be41 713e 3dcf abbe 9fb5 9c3c
000003f0: 22b4 b53d 3b81 553d 604c e23c f821 5cbd

self_attn.o_proj.bias f4 [36]
0.018069232 0.2314678 0.0077787484 -0.73879427 0.48383686 -0.18579839 0.40829498 0.0776723
-0.5403323 0.14130099 -0.117665365 0.72093755 -0.46263343 -0.5821744 -0.6832165 0.047004566
0.79782915 -0.67970645 -0.40523338 0.29579425 -0.34004977 0.20520565 -0.41892672 0.46635905
0.32262528 -0.5971032 0.5970555 0.5574893 -0.17658387 -0.36541882 0.5193016 0.51675874
0.6247294 -0.17610721 -0.32451114 -0.36950648
00000000: ed05 943c e505 6d3e dfe4 fe3b 9f21 3dbf
00000010: 77b9 f73e ef41 3ebe 0a0c d13e a812 9f3d
00000020: 3853 0abf 35b1 103e 8afa f0bd 5d8f 383f
00000030: 4ade ecbe 6209 15bf 47e7 2ebf dc87 403d
00000040: 883e 4c3f 3e01 2ebf c07a cfbe 5872 973e
00000050: 011b aebe 6e21 523e 907d d6be 9dc6 ee3e
00000060: 242f a53e c1db 18bf a1d8 183f 9eb7 0e3f
00000070: 67d2 34be 2d18 bbbe f3f0 043f 4d4a 043f
00000080: 44ee 1f3f 7355 34be 5326 a6be f42f bdbe

fc.weight f4 [1, 18]
-0.11420506 -0.23567155 0.22063945 -0.07954836 -0.20978293 -0.16988468 0.058494095 0.14493045
0.02432258 0.03676939 -0.032807417 0.039206713 -0.020001827 0.18863134 0.08839577 -0.10110167
0.08372446 -0.0826756
00000000: 58e4 e9bd e253 71be 4fef 613e 40ea a2bd
00000010: 56d1 56be 40f6 2dbe 8197 6f3d a668 143e
00000020: 2640 c73c 809b 163d 1261 06bd 3897 203d
00000030: dfda a3bc 9328 413e d708 b53d 640e cfbd
00000040: bb77 ab3d d351 a9bd

fc1.weight f4 [1, 36]
-1.3919208 1.4641806 1.460546 -0.6942061 0.8900895 -1.4291191 0.97544354 1.596465
-0.6706888 1.4923149 -1.6083515 0.54454887 -0.8818828 -0.39375895 -0.6998654 1.399799
0.64559144 -0.5344991 -0.88432777 0.88180417 -1.0013837 0.9534327 -0.7289657 0.92709273
1.1238458 -0.7457715 0.8409003 0.824201 -1.2897086 -0.7943577 0.9263638 0.8359702
0.7383253 -1.3740329 -1.2035847 -1.0453452
00000000: 762a b2bf 456a bb3f 2cf3 ba3f 7eb7 31bf
00000010: e8dc 633f 60ed b6bf abb6 793f f758 cc3f
00000020: 43b2 2bbf 2d04 bf3f 76de cdbf 8e67 0b3f
00000030: 12c3 61bf c69a c9be 612a 33bf 9d2c b33f
00000040: 7b45 253f efd4 08bf 4e63 62bf ebbd 613f
00000050: 572d 80bf 2a14 743f 7f9d 3abf f355 6d3f
00000060: 2eda 8f3f e2ea 3ebf 3e45 573f d6fe 523f
00000070: 2c15 a5bf 075b 4bbf 2e26 6d3f 2502 563f
00000080: e302 3d3f 4fe0 afbf 100f 9abf dfcd 85bf

fc2.weight f4 [1, 9]
-0.3052305 -0.32291704 -0.08533736 -0.030207198 0.24997962 -0.21768829 -0.32283914 0.0012872617
-0.30869973
00000000: 2c47 9cbe 6255 a5be 5bc5 aebd 1675 f7bc
00000010: a8fa 7f3e aee9 5ebe 2c4b a5be 56b9 a83a
00000020: e40d 9ebe

fc3.weight f4 [1, 2]
0.5097901 -0.5854001
00000000: 9b81 023f c8dc 15bf

input_fc.weight f4 [18, 3]
-0.35604885 0.6249742 0.00613095 0.27382722 -0.21881957 -0.21508555 0.46653497 -0.2203211
0.3672346 0.17652386 -0.527269 0.34372273 0.22084874 0.09189401 -0.42306983 -0.19262491
0.17579225 0.10216083 0.16201036 -0.10668993 -0.1392238 0.36605603 -0.046751518 -0.45752594
0.13499822 -0.41999117 0.004960966 0.33920822 0.18174055 -0.70409054 -0.32139015 -0.033197183
0.57977486 -0.4556227 0.44389555 0.25253442 -0.005044889 -0.015572555 0.004778982 0.21330862
-0.30180156 0.14136475 0.33619657 -0.39863026 -0.17435412 0.35527518 -0.37469295 0.013908124
-0.3163905 0.43390423 -0.24101333 0.21515118 -0.46431017 0.21098584
00000000: 094c b6be 4ffe 1f3f 23e6 c83b 1533 8c3e
00000010: 3d12 60be 633f 5cbe acdd ee3e db9b 61be
00000020: 2c06 bc3e acc2 343e 1afb 06bf 6dfc af3e
00000030: 2c26 623e ed32 bc3d 9c9c d8be 773f 45be
00000040: e202 343e b239 d13d 0be6 253e 4080 dabd
00000050: af90 0ebe b26b bb3e 857e 3fbd d740 eabe
00000060: f93c 0a3e 1509 d7be 998f a23b b3ac ad3e
00000070: 321a 3a3e 473f 34bf 408d a4be c5f9 07bd
00000080: 206c 143f 6147 e9be 4746 e33e 314c 813e
00000090: 994f a5bb 0824 7fbc 0299 9c3b 936d 5a3e
000000a0: bc85 9abe ecc1 103e f521 ac3e 4419 ccbe
000000b0: e389 32be a1e6 b53e c1d7 bfbe e6de 633c
000000c0: f0fd a1be b228 de3e 33cc 76be 9750 5c3e
000000d0: 10ba edbe ac0c 583e

input_fc.bias f4 [18]
-0.18228537 0.008279907 -0.010957583 0.07300357 -0.033412192 0.21978173 -0.10789609 0.20079568
-0.13204348 -0.17679615 0.029802809 -0.23148705 0.15934257 0.2629773 -0.038502425 0.0036872835
0.06745876 0.50496066
00000000: 04a9 3abe 72a8 073c 6f87 33bc e582 953d
00000010: 39db 08bd 760e 613e a0f8 dcbd 629d 4d3e
00000020: 6836 07be 0d0a 35be 0525 f43c f10a 6dbe
00000030: b32a 233e f6a4 863e b8b4 1dbd 5aa6 713b
00000040: d227 8a3d 1a45 013f

norm.weight f4 [36]
1.0 1.0 1.0 1.0 1.0 1.0 1.0 1.0
1.0 1.0 1.0 1.0 1.0 1.0 1.0 1.0
1.0 1.0 1.0 1.0 1.0 1.0 1.0 1.0
1.0 1.0 1.0 1.0 1.0 1.0 1.0 1.0
1.0 1.0 1.0 1.0
00000000: 0000 803f 0000 803f 0000 803f 0000 803f
00000010: 0000 803f 0000 803f 0000 803f 0000 803f
00000020: 0000 803f 0000 803f 0000 803f 0000 803f
00000030: 0000 803f 0000 803f 0000 803f 0000 803f
00000040: 0000 803f 0000 803f 0000 803f 0000 803f
00000050: 0000 803f 0000 803f 0000 803f 0000 803f
00000060: 0000 803f 0000 803f 0000 803f 0000 803f
00000070: 0000 803f 0000 803f 0000 803f 0000 803f
00000080: 0000 803f 0000 803f 0000 803f 0000 803f

norm.bias f4 [36]
0.0 0.0 0.0 0.0 0.0 0.0 0.0 0.0
0.0 0.0 0.0 0.0 0.0 0.0 0.0 0.0
0.0 0.0 0.0 0.0 0.0 0.0 0.0 0.0
0.0 0.0 0.0 0.0 0.0 0.0 0.0 0.0
0.0 0.0 0.0 0.0
00000000: 0000 0000 0000 0000 0000 0000 0000 0000
00000010: 0000 0000 0000 0000 0000 0000 0000 0000
00000020: 0000 0000 0000 0000 0000 0000 0000 0000
00000030: 0000 0000 0000 0000 0000 0000 0000 0000
00000040: 0000 0000 0000 0000 0000 0000 0000 0000
00000050: 0000 0000 0000 0000 0000 0000 0000 0000
00000060: 0000 0000 0000 0000 0000 0000 0000 0000
00000070: 0000 0000 0000 0000 0000 0000 0000 0000
00000080: 0000 0000 0000 0000 0000 0000 0000 0000

norm1.weight f4 [9]
1.0 1.0 1.0 1.0 1.0 1.0 1.0 1.0
1.0
00000000: 0000 803f 0000 803f 0000 803f 0000 803f
00000010: 0000 803f 0000 803f 0000 803f 0000 803f
00000020: 0000 803f

norm1.bias f4 [9]
0.0 0.0 0.0 0.0 0.0 0.0 0.0 0.0
0.0
00000000: 0000 0000 0000 0000 0000 0000 0000 0000
00000010: 0000 0000 0000 0000 0000 0000 0000 0000
00000020: 0000 0000

norm2.weight f4 [9]
1.0 1.0 1.0 1.0 1.0 1.0 1.0 1.0
1.0
00000000: 0000 803f 0000 803f 0000 803f 0000 803f
00000010: 0000 803f 0000 803f 0000 803f 0000 803f
00000020: 0000 803f

norm2.bias f4 [9]
0.0 0.0 0.0 0.0 0.0 0.0 0.0 0.0
0.0
00000000: 0000 0000 0000 0000 0000 0000 0000 0000
00000010: 0000 0000 0000 0000 0000 0000 0000 0000
00000020: 0000 0000

m.running_mean f4 [12]
-0.3240792 -0.2999764 -0.31720462 -0.3486768 -0.36437568 -0.34856606 -0.31932953 -0.311095
-0.3371463 -0.3849721 -0.416857 -0.41084725
00000000: b5ed a5be 8296 99be a568 a2be c485 b2be
00000010: 738f babe 4077 b2be 297f a3be d847 9fbe
00000020: 719e acbe 101b c5be 486e d5be 925a d2be

m.running_var f4 [12]
2465.1973 2458.7454 2451.6218 2448.072 2449.563 2452.8894 2452.6309 2447.8389
2442.5542 2440.8096 2445.023 2451.3691
00000000: 2813 1a45 edab 1945 f339 1945 2701 1945
00000010: 0219 1945 3b4e 1945 184a 1945 6cfd 1845
00000020: dea8 1845 f48c 1845 5ed0 1845 e835 1945

linear_net.0.weight f4 [9, 18]
0.23512112 0.069411784 0.058534134 0.2250136 -0.1257093 0.14141594 -0.13527587 0.067116916
-0.23260854 -0.030561551 0.21341074 0.21948941 -0.04750166 -0.113862045 -0.025004601 0.15404013
0.05954175 -0.08087039 -0.10273578 0.15410282 -0.15555772 -0.09413768 -0.0355566 0.22035572
0.18106124 0.17848103 -0.15957755 0.08130695 -0.01620226 0.11714556 0.15591623 -0.18442391
-0.19048147 0.026999243 -0.23263909 0.16998538 -0.17062278 -0.13697374 0.001052772 0.13433386
0.20579149 0.04352078 0.20106685 0.09922666 0.23123074 -0.05809395 -0.05987359 -0.07291843
-0.040029783 -0.1993641 0.070445366 0.16907035 0.121487506 -0.14872134 0.21363333 -0.0006018851
-0.0071250373 -0.20445931 -0.10312991 0.07613477 0.028586747 -0.15066451 0.21862829 0.098720364
0.13014725 -0.13711047 -0.0951716 0.073708795 -0.22114713 0.11037827 0.012157174 0.1506479
0.18087716 0.04658446 0.1229561 0.0054819 0.22992691 -0.026158864 -0.1452239 -0.03151837
-0.17760073 -0.13802697 0.05147181 0.18209237 0.19204925 0.17755346 0.20135151 0.21048938
-0.14177337 -0.0719769 0.10726982 -0.09258772 -0.040210593 0.19935058 -0.020539284 -0.054712903
0.09691109 0.23059735 -0.101584725 -0.030826824 -0.20969763 0.02786817 0.024326403 0.15829368
-0.19256586 -0.14602284 0.18343261 -0.106227055 0.015522656 0.20275567 0.20469761 -0.014762018
-0.22280161 -0.19341251 -0.22631831 -0.014116862 -0.18331452 0.19115113 -0.20460139 -0.069981106
0.10099026 -0.09943888 0.1764665 0.050439943 0.2263952 0.033603262 0.14396104 -0.20783292
-0.10016777 0.10541559 -0.08960653 0.07767232 -0.14264803 0.046773672 0.02882527 -0.1299565
-0.005747369 0.18235084 -0.17411464 0.039055828 0.12811565 0.21713635 -0.21474168 0.10663389
0.22409701 0.16130096 -0.2032996 -0.034190394 -0.028890232 -0.03387553 0.01699375 0.015324763
0.12485161 -0.18471149 -0.16620596 -0.0071372315 -0.2220625 0.23112829 0.16834915 -0.10422497
0.1677655 -0.10570067
00000000: 97c3 703e c427 8e3d 7dc1 6f3d f769 663e
00000010: f0b9 00be 57cf 103e c285 0abe 9874 893d
00000020: ef30 6ebe 385c fabc 5888 5a3e d5c1 603e
00000030: 1a91 42bd 8130 e9bd 73d6 ccbc b2bc 1d3e
00000040: 0de2 733d 609f a5bd 2367 d2bd 21cd 1d3e
00000050: 864a 1fbe 42cb c0bd cca3 11bd eea4 613e
00000060: 1e68 393e bbc3 363e 4c68 23be 4284 a63d
00000070: 9aba 84bc 03ea ef3d 81a8 1f3e 9fd9 3cbe
00000080: 930d 43be 842d dd3c f138 6ebe a610 2e3e
00000090: bdb7 2ebe d842 0cbe 2bfd 893a d18e 093e
000000a0: 01bb 523e d842 323d 78e4 4d3e 5937 cb3d
000000b0: c0c7 6c3e ecf3 6dbd 023e 75bd 4256 95bd
000000c0: 45f6 23bd 1a26 4cbe a945 903d c720 2d3e
000000d0: 71ce f83d 684a 18be b2c2 5a3e d3c7 1dba
000000e0: 2579 e9bb c85d 51be c635 d3bd 8cec 9b3d
000000f0: c12e ea3c cc47 1abe 18e0 5f3e e72d ca3d
00000100: 5245 053e b066 0cbe 54e9 c2bd a3f4 963d
00000110: 6574 62be 010e e23d e22e 473c 7143 1a3e
00000120: dd37 393e 59cf 3e3d 68d0 fb3d 83a1 b33b
00000130: f671 6b3e 1d4b d6bc 93b5 14be 6819 01bd
00000140: f7dc 35be f156 0dbe 1bd4 523d 6c76 3a3e
00000150: 8fa8 443e 93d0 353e 172f 4e3e 878a 573e
00000160: 0a2d 11be a068 93bd 48b0 db3d a19e bdbd
00000170: ddb3 24bd 8f22 4c3e 0042 a8bc a31a 60bd
00000180: 5279 c63d b621 6c3e a70b d0bd 8988 fcbc
00000190: faba 56be ca4b e43c 2a48 c73c bd17 223e
000001a0: fc2f 45be 0387 15be c2d5 3b3e 928d d9bd
000001b0: bd52 7e3c 2f9f 4f3e 409c 513e 64dc 71bc
000001c0: 1b26 64be ee0d 46be fdbf 67be 694a 67bc
000001d0: cdb6 3bbe 1fbd 433e 0783 51be 4152 8fbd
000001e0: fbd3 ce3d 9da6 cbbd a2b3 343e 1d9a 4e3d
000001f0: 25d4 673e 93a3 093d 866a 133e 27d2 54be
00000200: c324 cdbd 21e4 d73d a183 b7bd aa12 9f3d
00000210: 5312 12be c095 3f3d f922 ec3c 5113 05be
00000220: 6d54 bcbb 2eba 3a3e 1c4b 32be 01f9 1f3d
00000230: c030 033e fe58 5e3e 3ee5 5bbe de62 da3d
00000240: b079 653e 142c 253e c52d 50be 3a0b 0cbd
00000250: 35ab ecbc 11c1 0abd 7a36 8b3c b714 7b3c
00000260: 33b2 ff3d 0225 3dbe e531 2abe 70df e9bb
00000270: 5a64 63be e5ac 6c3e b863 2c3e e773 d5bd
00000280: b8ca 2b3e 9879 d8bd

linear_net.0.bias f4 [9]
-0.0016157697 -0.20124966 0.008176939 0.07882188 -0.09764736 0.13084657 -0.002317009 0.12630275
0.23200722
00000000: 3cc8 d3ba 6414 4ebe 91f8 053c 5e6d a13d
00000010: 57fb c7bd a5fc 053e f6d8 17bb 8255 013e
00000020: 4d93 6d3e

linear_net.2.weight f4 [1, 9]
-0.23256946 -0.23333327 0.25145853 -0.07154012 -0.23910797 0.044293802 -0.22933035 0.32548147
0.15662663
00000000: b026 6ebe ebee 6ebe 2cbf 803e a083 92bd
00000010: b8d8 74be 6b6d 353d 93d5 6abe 82a5 a63e
00000020: bb62 203e

exp_avg f4 [108, 36]
-9.5466574e-05 -3.3984506e-05 -0.001157561 -0.000112356814 -5.872204e-05 6.7586916e-05 -4.7287474e-05 -0.00014564465
0.00029552626 -4.3799155e-05 -1.4145198e-05 4.6893147e-05 1.9909432e-05 -0.00024020822 5.2616964e-05 -0.00027382185
0.0003989605 -0.00012459765 -1.1769156e-05 -2.4837977e-05 -2.8551529e-05 -5.603206e-06 -1.7325967e-05 -3.6341833e-05
-6.5026416e-06 -4.09553e-05 -2.3490668e-06 -4.155152e-05 -8.4477006e-07 -4.1628507e-05 -3.036206e-07 -4.163844e-05
-1.0911683e-07 -4.1639723e-05 -3.92146e-08 -4.1639905e-05 -0.0006010573 0.00018785584 -0.0022975048 -8.0430254e-05
6.7731125e-05 -2.3744196e-05 3.9772513e-05 8.043629e-06 0.0008613991 0.00022277293 -0.00034488642 -0.0003504864
4.5764235e-05 -0.00035763707 0.00047109844 -0.00029562728 0.0006312484 -7.1466566e-05 -1.902402e-05 -3.521746e-05
-4.4054737e-05 4.3141885e-05 -6.689259e-05 -6.5030225e-05 -2.7787231e-05 -9.459228e-05 -1.0170776e-05 -9.877241e-05
-3.6638198e-06 -9.931861e-05 -1.3171101e-06 -9.938929e-05 -4.7336343e-07 -9.93984e-05 -1.701188e-07 -9.939957e-05
-0.0014915323 0.00076077395 -0.002061631 0.0003290212 0.00043104016 -0.0004221917 0.00036587683 0.00063328975
0.0013928725 0.0007784557 -0.00095388055 -0.0012959872 4.6506007e-05 -1.8081302e-05 0.0012406795 0.00031598954
0.00015419352 0.00038600032 -3.4846782e-06 1.7805467e-05 -7.00057e-05 -9.418123e-06 -6.027136e-05 -9.6740754e-05
-2.4241797e-05 -0.00011855679 -8.8392935e-06 -0.00012162264 -3.1826296e-06 -0.000122022975 -1.1440551e-06 -0.00012207475
-4.1116473e-07 -0.00012208144 -1.4776559e-07 -0.0001220823 0.007398712 -0.0031283966 0.017231807 -0.00084460236
-0.0013816343 0.0014123291 -0.0012837971 -0.0016784281 -0.008337285 -0.0029340608 0.004186156 0.005431753
-0.00034495612 0.0016914073 -0.0059002177 0.00046739838 -0.003373843 -0.0009640935 0.0001055164 9.5401054e-05
0.00041237325 -8.531846e-05 0.0004594468 0.0006189495 0.0001879992 0.0008044397 6.869098e-05 0.00083060644
2.4739e-05 0.00083402457 8.89319e-06 0.0008344667 3.1961604e-06 0.000834524 1.1486457e-06 0.00083453115
-0.00022442988 0.00019215558 0.00047701946 0.00012667097 0.00016344024 -0.00014079742 0.00011691569 0.0002750428
4.8588423e-05 0.00024666043 -0.00022368247 -0.0003163482 -5.413201e-06 0.00017404315 0.00022126929 0.00027761262
-0.0002649994 0.00015831874 8.333706e-06 2.308364e-05 5.6582403e-06 4.913086e-06 -6.5863006e-08 8.146087e-06
-3.2647304e-07 7.0169963e-06 -1.3313101e-07 6.8261015e-06 -4.858947e-08 6.8006448e-06 -1.7496754e-08 6.79734e-06
-6.2896133e-09 6.7969168e-06 -2.260451e-09 6.796868e-06 0.0005125337 -0.00021509704 0.001332257 -5.9221197e-06
-0.00011962054 7.987989e-05 -7.960019e-05 -0.0001311807 -0.00060756743 -0.00026309333 0.00033517095 0.0003842739
-2.892468e-05 0.00016071317 -0.00042207816 7.102454e-05 -0.0003033544 -2.653508e-05 7.580509e-06 1.7875775e-05
4.259656e-05 -1.469191e-05 3.7781138e-05 4.816986e-05 1.5015097e-05 6.180664e-05 5.4656575e-06 6.3683496e-05
1.9674992e-06 6.39279e-05 7.0723354e-07 6.395949e-05 2.541736e-07 6.396357e-05 9.134556e-08 6.39641e-05
0.002783941 -0.00123045 0.0058425018 -0.0003840816 -0.00058921805 0.0005842841 -0.000524243 -0.00076492707
-0.0030106253 -0.0011972748 0.0016277214 0.0021367203 -0.00012080844 0.0004930224 -0.002244592 -7.1477707e-06
-0.0010353543 -0.0004457046 3.2717668e-05 2.001939e-05 0.00012114778 -8.7046305e-05 0.00018691312 0.00019704504
7.822386e-05 0.0002805859 2.8659731e-05 0.00029249894 1.0325403e-05 0.00029405724 3.7119505e-06 0.00029425876
1.3340609e-06 0.00029428487 4.794392e-07 0.0002942882 0.0033765142 -0.0014867978 0.0070836092 -0.00048280784
00000000: 3a35 c8b8 968a 0eb8 4db9 97ba 1ba1 ebb8
00000010: 4f4c 76b8 73bd 8d38 8a56 46b8 30b8 18b9
00000020: ddf0 9a39 fcb4 37b8 2a51 6db7 22af 4438
00000030: 2e03 a737 67e0 7bb9 09b1 5c38 bf8f 8fb9
00000040: 922b d139 6da6 02b9 2474 45b7 265b d0b7
00000050: f181 efb7 2c03 bcb6 3b57 91b7 bf6d 18b8
00000060: 4431 dab6 6bc7 2bb8 a9a4 1db6 9b47 2eb8
00000070: 28c4 62b5 459a 2eb8 4c01 a3b4 efa4 2eb8
00000080: 9d53 eab3 50a6 2eb8 e96c 28b3 82a6 2eb8
00000090: 4690 1dba 2bfb 4439 bc91 16bb aaac a8b8
000000a0: df0a 8e38 462e c7b7 69d1 2638 20f3 0637
000000b0: 84cf 613a 2798 6939 dfd1 b4b9 7dc1 b7b9
000000c0: f9f2 3f38 3c81 bbb9 c3fd f639 6cfe 9ab9
000000d0: 5d7a 253a 52e0 95b8 c695 9fb7 76b6 13b8
000000e0: 6ac7 38b8 3ff3 3438 b048 8cb8 d660 88b8
000000f0: a018 e9b7 d85f c6b8 26a3 2ab7 0924 cfb8
00000100: f2df 75b6 4649 d0b8 8fc7 b0b5 386f d0b8
00000110: 9322 feb4 1c74 d0b8 e6a9 36b4 bd74 d0b8
00000120: 857f c3ba ad6e 473a 6e1c 07bb 7a80 ac39
00000130: 3bfd e139 9c59 ddb9 28d3 bf39 5b03 263a
00000140: 0c91 b63a 4711 4c3a d70d 7aba 1dde a9ba
00000150: 720f 4338 4dad 97b7 4c9e a23a 66ab a539
00000160: 02af 2139 1660 ca39 51da 69b6 f35c 9537
00000170: 06d0 92b8 8802 1eb7 e1cb 7cb8 4ce1 cab8
00000180: dd5a cbb7 b1a1 f8b8 7a4c 14b7 a80f ffb8
00000190: 2995 55b6 96e6 ffb8 6f8d 99b5 3101 00b9
000001a0: 0dbe dcb4 fd02 00b9 7fa9 1eb4 3803 00b9
000001b0: e570 f23b c905 4dbb b829 8d3c 4e68 5dba
000001c0: f417 b5ba e71d b93a 1545 a8ba b4fe dbba
000001d0: 1c99 08bc 5f49 40bb 062c 893b d9fc b13b
000001e0: 3adb b4b9 36b2 dd3a 9d56 c1bb 260d f539
000001f0: b11b 5dbb 38bb 7cba b048 dd38 0d12 c838
00000200: cd33 d839 00ed b2b8 e8e1 f039 ff40 223a
00000210: a721 4539 09e1 523a 300e 9038 0ebd 593a
00000220: 9986 cf37 71a2 5a3a f633 1537 1dc0 5a3a
00000230: 9e7d 5636 f5c3 5a3a 2a2b 9a35 70c4 5a3a
00000240: f054 6bb9 5f7d 4939 7818 fa39 fbd2 0439
00000250: 2861 2b39 05a3 13b9 a230 f538 9f33 9039
00000260: 6ccb 4b38 3452 8139 4e8c 6ab9 89db a5b9
00000270: 0ba3 b5b6 5a7f 3639 8604 6839 898c 9139
00000280: 9eef 8ab9 5d02 2639 ffd0 0b37 bda3 c137
00000290: eadb bd36 16db a436 9270 8db3 2dab 0837
000002a0: 1d46 afb4 8a73 eb36 c6f2 0eb4 c40b e536
000002b0: b0b0 50b3 1831 e436 c54b 96b2 b514 e436
000002c0: 061c d8b1 1211 e436 4656 1bb1 a710 e436
000002d0: 8e5b 063a ac8b 61b9 209f ae3a 9fb6 c6b6
000002e0: cadc fab8 3085 a738 07ef a6b8 8d8d 09b9
000002f0: 2945 1fba caef 89b9 e2b9 af39 5f78 c939
00000300: 47a3 f2b7 1d85 2839 5f4a ddb9 02f3 9438
00000310: 8a0b 9fb9 a797 deb7 145c fe36 eff3 9537
00000320: b5a9 3238 467d 76b7 3077 1e38 fe09 4a38
00000330: 5ae9 7b37 309e 8138 a465 b736 d18d 8538
00000340: 6109 0436 0811 8638 b8d8 3d35 fd21 8638
00000350: 5b75 8834 2e24 8638 c129 c433 7724 8638
00000360: c872 363b 0d47 a1ba 7572 bf3b 8f5e c9b9
00000370: c175 1aba a42a 193a 5a6d 09ba 6385 48ba
00000380: e94d 45bb e0ed 9cba 4459 d53a 3808 0c3b
00000390: 8a5a fdb8 2c3e 013a 011a 13bb e2d6 efb6
000003a0: bab4 87ba 75ad e9b9 543a 0938 50ef a737
000003b0: b810 fe38 a18c b6b8 1cfe 4339 e09d 4e39
000003c0: 1d0c a438 9a1b 9339 4e6a f037 8b5a 9939
000003d0: 453b 2d37 b22b 9a39 d31a 7936 be46 9a39
000003e0: fc0d b335 3f4a 9a39 d0b2 0035 b24a 9a39
000003f0: 8248 5d3b a8e0 c2ba 9f1d e83b 5f21 fdb9

exp_avg_sq f4 [108, 36]
0.003412088 0.00082952966 0.013800872 0.00073074154 0.00038129112 0.00045764146 0.00024599637 0.0009815245
0.0028380344 0.00065667456 0.00074799074 0.0023752046 2.5499392e-05 0.00035389955 0.0018728479 0.00107378
0.0012073481 0.0006646817 6.633271e-07 2.3829934e-06 4.7188096e-06 7.7239565e-06 1.385843e-05 1.5005323e-05
2.65422e-06 2.9956704e-05 3.6025565e-07 3.2771808e-05 4.6827207e-08 3.3153185e-05 6.0529732e-09 3.3202716e-05
7.818546e-10 3.320918e-05 1.0098164e-10 3.3210013e-05 0.0007746946 0.00016245975 0.0061508734 0.00015992408
0.00010762165 9.917573e-05 4.4820612e-05 0.00023883319 0.0009054865 0.00016031321 0.00014660032 0.00043421818
8.5196925e-06 0.00011413011 0.00038530803 0.0003008172 0.0005056668 0.00014311589 2.5687874e-07 4.2501e-07
2.0884845e-06 1.6145009e-06 4.0732643e-06 6.100831e-06 7.381729e-07 1.0885584e-05 9.953536e-08 1.17253585e-05
1.29270425e-08 1.1838184e-05 1.6707904e-09 1.18528205e-05 2.1581091e-10 1.1854722e-05 2.7873388e-11 1.1854952e-05
0.0052935937 0.0012586523 0.0123586105 0.0011296098 0.00043639986 0.0006365526 0.00036405033 0.001239489
0.0038352448 0.000866841 0.0011618956 0.0038806635 2.7191387e-05 0.00044109058 0.0030263893 0.0013546943
0.0011865819 0.0010470909 8.973444e-07 3.5117744e-06 5.185259e-06 1.1057137e-05 1.638075e-05 1.5877427e-05
3.2067594e-06 3.2660228e-05 4.3636027e-07 3.5932044e-05 5.6737893e-08 3.6377038e-05 7.3343447e-09 3.6434903e-05
9.473722e-10 3.6442354e-05 1.2235954e-10 3.6443333e-05 0.0038845425 0.0006987992 0.03454354 0.0007052552
0.0005122346 0.00041741985 0.0001819101 0.0011036455 0.005053622 0.0007934199 0.0007048986 0.0019792956
4.428666e-05 0.0005725816 0.001891187 0.0014055454 0.0026567439 0.0006285385 1.0780091e-06 1.2380722e-06
1.1304239e-05 6.5796353e-06 2.25544e-05 3.3029755e-05 4.03167e-06 6.0006118e-05 5.42678e-07 6.466803e-05
7.046385e-08 6.529301e-05 9.107005e-09 6.53742e-05 1.1763215e-09 6.5384535e-05 1.5192947e-10 6.538599e-05
0.004196099 0.0010210412 0.013898044 0.0008996145 0.0004217508 0.00054560765 0.0003001289 0.0011231477
0.003278903 0.0007621202 0.000928461 0.003003069 2.7107886e-05 0.0004016697 0.0023505082 0.0012293288
0.001264923 0.0008272432 7.930997e-07 2.9629553e-06 5.060739e-06 9.319631e-06 1.5366451e-05 1.5948528e-05
2.9726777e-06 3.2199536e-05 4.039545e-07 3.530472e-05 5.2515166e-08 3.572614e-05 6.788335e-09 3.5780933e-05
8.7684127e-10 3.5787987e-05 1.1324988e-10 3.578893e-05 0.002202905 0.0005022355 0.0039111427 0.00046560887
0.00015669569 0.00023988647 0.00014156598 0.00045897346 0.0015473465 0.0003487966 0.00048525078 0.0016248525
8.789028e-06 0.00016213031 0.001274304 0.0004954415 0.00037901712 0.00043166714 3.4627797e-07 1.5153646e-06
1.8790039e-06 4.403278e-06 5.976248e-06 5.652918e-06 1.1797655e-06 1.1649134e-05 1.6069238e-07 1.283486e-05
2.0896682e-08 1.2996387e-05 2.7012963e-09 1.301739e-05 3.4892622e-10 1.3020091e-05 4.5066194e-11 1.3020448e-05
0.0034629107 0.00077916647 0.004858469 0.00071605085 0.00022182007 0.00035806964 0.00021791342 0.0006748562
0.0023750414 0.0005391353 0.00077764725 0.002582533 1.1702164e-05 0.0002345847 0.0020263426 0.0007123462
0.00047766743 0.00066712167 4.6035368e-07 2.0894997e-06 2.608965e-06 6.4877004e-06 8.793856e-06 7.666565e-06
1.7392983e-06 1.6341495e-05 2.3694899e-07 1.8068402e-05 3.081385e-08 1.8303783e-05 3.983295e-09 1.8334416e-05
5.145208e-10 1.8338396e-05 6.645397e-11 1.8338893e-05 0.0045664045 0.0010199933 0.0054372493 0.0009531752
00000000: 569d 5f3b cb74 593a 0d1d 623c 3c8f 3f3a
00000010: 07e8 c739 99ef ef39 13f9 8039 7fa6 803a
00000020: 51fe 393b af24 2c3a cf14 443a 52a9 1b3b
00000030: 87e7 d537 988b b939 597a f53a 14be 8c3a
00000040: e13f 9e3a 093e 2e3a 7e0f 3235 84eb 1f36
00000050: 4456 9e36 2496 0137 8181 6837 5fbf 7b37
00000060: 271f 3236 884b fb37 2969 c134 7674 0938
00000070: 0f1f 4933 f60d 0b38 84fa cf31 2543 0b38
00000080: 20ea 5630 164a 0b38 9c0f de2e fb4a 0b38
00000090: e014 4b3a f559 2a39 448d c93b 4bb1 2739
000000a0: efb2 e138 91fc cf38 c4fd 3b38 4c6f 7a39
000000b0: 2c5e 6d3a c019 2839 b9b8 1939 c7a7 e339
000000c0: cdef 0e37 2359 ef38 2b03 ca39 00b7 9d39
000000d0: b98e 043a 6111 1639 25e9 8934 ee2c e434
000000e0: e427 0c36 d4b1 d835 13ad 8836 bdb5 cc36
000000f0: db26 4635 3aa1 3637 25c0 d533 08b8 4437
00000100: bc15 5e32 9d9c 4637 b6a1 e530 7adb 4637
00000110: 5f49 6d2f a5e3 4637 4a2d f52d a2e4 4637
00000120: e275 ad3b 5df9 a43a c57b 4a3c 6a0f 943a
00000130: 99cc e439 52de 263a 02de be39 5976 a23a
00000140: bb58 7b3b b73c 633a bf4a 983a bb52 7e3b
00000150: 0f19 e437 2d42 e739 6356 463b ff8f b13a
00000160: 1587 9b3a 8a3e 893a 0ae1 7035 d3ab 6b36
00000170: 09fd ad36 0b82 3937 6569 8937 8430 8537
00000180: b533 5736 a7fc 0838 e644 ea34 bdb5 1638
00000190: f9af 7333 8c93 1838 9401 fc31 aed1 1838
000001a0: b234 8230 aed9 1838 2689 062f bbda 1838
000001b0: cf93 7e3b 9f2f 373a 877d 0d3d e0e0 383a
000001c0: 7b47 063a 25d9 da39 1fbf 3e39 33a8 903a
000001d0: db98 a53b 82fd 4f3a f2c8 383a 12b7 013b
000001e0: 70c0 3938 4d19 163a b5e1 f73a 473a b83a
000001f0: c41c 2e3b 81c4 243a 1cb0 9035 d62b a635
00000200: 56a7 3d37 a3c6 dc36 3533 bd37 6e89 0a38
00000210: c847 8736 14af 7b38 8cac 1135 629e 8738
00000220: e951 9733 ebed 8838 0875 1c32 8219 8938
00000230: 22ac a130 0e1f 8938 580c 272f d61f 8938
00000240: 6e7f 893b 75d4 853a 9fb4 633c 1bd4 6b3a
00000250: 6f1e dd39 1c07 0f3a 9e5a 9d39 9536 933a
00000260: dde2 563b 05c9 473a f763 733a 23cf 443b
00000270: be65 e337 3297 d239 fc0a 1a3b 6e21 a13a
00000280: c6cb a53a 5adb 583a 65e5 5435 2fd7 4636
00000290: 6bcf a936 835b 1c37 34e7 8037 34c9 8537
000002a0: 377e 4736 fd0d 0738 15df d834 2814 1438
000002b0: 098d 6133 a7d8 1538 d33e e931 7c13 1638
000002c0: 3806 7130 0f1b 1638 040a f92e 121c 1638
000002d0: 9d5e 103b 74a8 033a 0b29 803b f71c f439
000002e0: ae4e 2439 098a 7b39 5471 1439 60a2 f039
000002f0: 55d0 ca3a b0de b639 4269 fe39 01f9 d43a
00000300: 9674 1337 8601 2a39 8c06 a73a 84e0 013a
00000310: d1b6 c639 6251 e239 15e8 b934 8863 cb35
00000320: 1532 fc35 dfbf 9336 9487 c836 32ae bd36
00000330: 6f58 9e35 a670 4337 c98a 2c34 4e55 5737
00000340: 4a80 b332 0f0b 5a37 b5a1 3931 4465 5a37
00000350: 00d3 bf2f dd70 5a37 0634 462e 6672 5a37
00000360: 00f2 623b fa40 4c3a cb33 9f3b 5cb5 3b3a
00000370: 5f98 6839 4bbb bb39 b07f 6439 d5e8 303a
00000380: 95a6 1b3b c254 0d3a 06db 4b3a b73f 293b
00000390: 6954 4437 dafa 7539 63cc 043b bfbc 3a3a
000003a0: 706f fa39 c7e1 2e3a 8726 f734 5539 0c36
000003b0: ad15 2f36 ecb0 d936 5389 1337 a59f 0037
000003c0: d671 e935 1815 8937 0b6c 7e34 9991 9737
000003d0: 3058 0433 138b 9937 6fdd 8831 dccc 9937
000003e0: 2f6e 0d30 68d5 9937 4222 922e 79d6 9937
000003f0: c7a1 953b 4cb1 853a f42a b23b 81de 793a

exp_avg f4 [108]
-4.163992e-05 -9.939978e-05 -0.0001220824 0.0008345322 6.796856e-06 6.396416e-05 0.00029428862 0.00035549703
-1.6869539e-05 -0.0004248232 0.00019949213 0.00050748145 0.0002514539 -7.8841476e-05 0.00036821736 0.00020575718
-7.893509e-05 -0.0002762687 0.00026243486 -2.8768367e-05 0.00020558549 -0.0003270739 0.00010196056 0.00015107925
0.00013746685 0.000102728 -0.00040905646 -0.0005236924 -0.00019383052 0.00012404661 0.00076106016 0.0002724544
0.00011156086 -0.00024348308 0.00021700222 0.00019110176 -2.7171465e-08 -5.087743e-09 3.506229e-08 4.7113216e-09
2.9807524e-08 -4.6075407e-08 -3.7833576e-08 -4.377206e-08 1.11084075e-08 2.8826568e-08 4.0699144e-10 -4.4312735e-08
-5.9181287e-09 5.6304543e-08 1.8359065e-08 2.312972e-08 -1.73152e-08 4.761929e-08 -1.602712e-08 -3.0125257e-08
1.0444019e-08 -6.6901347e-09 -4.2035563e-08 -1.6215727e-10 -3.7676394e-08 -1.2194369e-09 4.9876054e-09 2.0665313e-08
4.3443606e-08 -3.7735013e-08 -2.4644121e-08 1.4383441e-08 -2.4653575e-08 -3.5213652e-08 -2.8305074e-08 2.0422156e-08
0.008367218 0.0018657901 -0.0044167154 -0.012216781 0.003411552 -0.00065594394 -0.000762125 -0.0025471929
-0.0073499717 0.004125955 0.005682315 0.0011756491 -0.007989742 0.013211494 0.002199039 -0.000550488
-0.013707718 0.01847779 0.008651471 0.005116817 0.00064175477 0.005745356 -0.0003966886 -0.0015881908
0.015389966 0.0014893616 0.0014277329 -0.0011558669 0.00824674 -0.006690969 -0.0010743862 6.165969e-05
0.00811843 0.0024959436 -0.024728661 -0.010008622
00000000: 86a6 2eb8 da74 d0b8 3f03 00b9 82c4 5a3a
00000010: 8c10 e436 7f24 8638 c04a 9a39 0162 ba39
00000020: 0f83 8db7 ceba deb9 c32e 5139 8108 053a
00000030: 92d5 8339 b257 a5b8 4c0d c139 86c0 5739
00000040: f489 a5b8 28d8 90b9 6997 8939 9953 f1b7
00000050: 6f92 5739 1e7b abb9 a9d3 d538 076b 1e39
00000060: fa24 1039 ad6f d738 a176 d6b9 6748 09ba
00000070: fc3e 4bb9 8212 0239 e281 473a 36d8 8e39
00000080: c8f5 e938 7e4f 7fb9 178b 6339 7d62 4839
00000090: af66 e9b2 43d0 aeb1 6597 1633 39e1 a131
000000a0: b805 0033 72e4 45b3 757e 22b3 e4ff 3bb3
000000b0: 4bd7 3e32 4b9e f732 f4be df2f 5e52 3eb3
000000c0: 6958 cbb1 80d3 7133 03b4 9d32 cbae c632
000000d0: 87bc 94b2 f785 4c33 02ac 89b2 1263 01b3
000000e0: 486d 3332 0cdf e5b1 978a 34b3 374b 32af
000000f0: a2d1 21b3 1f99 a7b0 715f ab31 8183 b132
00000100: c096 3a33 1612 22b3 ffb0 d3b2 0b1b 7732
00000110: c9c5 d3b2 d23d 17b3 8423 f3b2 cc6c af32
00000120: a816 093c 878d f43a 18ba 90bb e528 48bc
00000130: 5894 5f3b a7f3 2bba 58c9 47ba ceee 26bb
00000140: 08d8 f0bb 0533 873b b732 ba3b 3d18 9a3a
00000150: 68e7 02bc 0675 583c c11d 103b a04e 10ba
00000160: 5696 60bc bc5e 973c e6be 0d3c f9aa a73b
00000170: 6f3b 283a 8a43 bc3b a5fa cfb9 d72a d0ba
00000180: 3226 7c3c af36 c33a c422 bb3a 7580 97ba
00000190: 561d 073c eb3f dbbb 6bd2 8cba 4b4f 8138
000001a0: 2a03 053c fc92 233b c393 cabc 34fb 23bc

exp_avg_sq f4 [108]
3.321012e-05 1.1854986e-05 3.644348e-05 6.5386135e-05 3.5789064e-05 1.3020504e-05 1.833896e-05 2.2483555e-05
4.8155684e-06 2.3850274e-05 1.4172169e-06 5.1458046e-05 1.4267915e-06 8.016803e-06 4.640761e-05 3.6054254e-05
3.6769784e-06 4.4818735e-05 7.66206e-06 4.2490883e-05 1.180724e-05 1.871258e-05 1.7036791e-05 1.1933373e-05
5.204306e-05 1.6075035e-06 3.2151194e-05 2.2295746e-05 3.894781e-05 1.6671263e-05 4.004148e-05 6.332765e-06
2.2732835e-05 2.8992188e-05 3.6681875e-05 3.0627205e-05 4.849256e-15 1.006766e-15 5.8353353e-15 3.9005617e-15
4.0526554e-15 4.973897e-15 3.2659714e-15 4.1538542e-15 1.0074914e-15 2.1629628e-15 9.806059e-17 5.2237017e-15
1.5229806e-16 6.7216575e-15 4.4138607e-15 4.306621e-15 7.9081595e-16 7.069684e-15 1.0279813e-15 4.687619e-15
3.0772673e-15 1.5082659e-15 4.3922788e-15 8.306227e-16 5.408234e-15 4.2517226e-17 1.1240111e-15 1.5100606e-15
6.19933e-15 3.786981e-15 2.5140099e-15 7.718279e-16 3.7461442e-15 8.535032e-15 3.653979e-15 2.8840254e-15
0.0004490661 6.621583e-06 0.00010611905 0.0012864397 8.2187296e-05 3.387776e-06 1.2930318e-05 0.00030735566
0.0003796791 0.00035787595 0.00056347327 6.627776e-06 0.00035914115 0.0011042354 8.64983e-06 0.0002609438
0.00077667995 0.0023702967 0.00039151873 0.0005070033 9.620546e-06 0.00018816891 3.61029e-06 8.347159e-06
0.0015884937 4.7644426e-06 7.4719765e-06 1.4347844e-05 0.00084909867 0.00038579485 4.5587443e-05 2.582891e-06
0.00033485756 0.00044657016 0.0028233042 0.00043586656
00000000: 184b 0b38 c7e4 4637 e4da 1838 ea1f 8938
00000010: 371c 1638 a472 5a37 9ed6 9937 119b bc37
00000020: 6b95 a136 1312 c837 3437 be35 a8d4 5738
00000030: 2f80 bf35 e87f 0637 cba5 4238 f638 1738
00000040: 02c2 7636 c0fb 3b38 4c8c 0037 3d38 3238
00000050: b617 4637 f6f8 9c37 3bea 8e37 7235 4837
00000060: cf48 5a38 66c1 d735 15da 0638 c007 bb37
00000070: e45b 2338 44d9 8b37 36f2 2738 0a7e d436
00000080: 64b2 be37 4034 f337 ddda 1938 b675 0038
00000090: 7eb6 ae27 1c17 9126 783d d227 5588 8c27
000000a0: 2603 9227 1a34 b327 8a56 6b27 8ba8 9527
000000b0: df31 9126 9fdb 1b27 c11c e224 2534 bc27
000000c0: 7496 2f25 592c f227 ae06 9f27 9129 9b27
000000d0: ebef 6326 53b6 fe27 d125 9426 a7e3 a827
000000e0: 90bd 5d27 315d d926 9f3f 9e27 2369 6f26
000000f0: 27da c227 7b13 4424 b1fc a126 679f d926
00000100: ba5a df27 bc70 8827 4c27 3527 d976 5e26
00000110: 15f8 8627 e3c0 1928 02a6 8327 e1d0 4f27
00000120: a270 eb39 f72e de36 3b8c de38 c19d a83a
00000130: f85b ac38 8c59 6336 4bef 5837 9424 a139
00000140: ab0f c739 4ca1 bb39 0db6 133a 2a64 de36
00000150: 1c4b bc39 febb 903a bd1e 1137 49cf 8839
00000160: 1c9a 4b3a fb56 1b3b c144 cd39 6ae8 043a
00000170: ee67 2137 354f 4539 4f48 7236 c60a 0c37
00000180: 0135 d03a 40de 9f36 cab7 fa36 85b7 7037
00000190: 0c96 5e3a 8244 ca39 2535 3f38 bb55 2d36
000001a0: d28f af39 a221 ea39 2f07 393b 0585 e439
