SensorFormer/SensorFormer/checkpoints/chpt_AdamW_lr0.0005_ep350.pt (torch, 83227 bytes, 35 tensors)

self_attn.qkv_proj.weight f4 [108, 36]
0.20199943 0.06760671 -0.2601954 -0.5268928 -0.0653019 -0.018760143 0.010826426 -0.07447325
-0.027200868 0.3322548 0.0717827 0.12206041 -0.07283212 -0.0075991997 -0.20563887 0.020576239
-0.006199526 0.081781834 0.036731992 0.04482894 0.057348922 0.13297777 -0.15992843 -0.1085323
-0.17179348 -0.15285805 -0.1574546 -0.14696413 -0.15910475 -0.14325644 -0.16451181 -0.1604605
-0.16766554 -0.12952445 -0.14142472 -0.16434857 0.2642243 0.034434017 -0.22810227 -1.0201726
-0.0021568534 0.006868794 0.058403626 0.0072004097 -0.08405707 0.7056848 0.048869837 0.25656784
-0.08403879 0.027585564 -0.28871095 0.107555844 0.017686723 -0.08630371 -0.23467244 -0.17709245
-0.06415415 -0.36450234 0.19724864 0.04468687 0.21102464 0.08649681 0.18980101 0.114584364
0.21166667 0.08724813 0.21350041 0.11277593 0.20348401 0.09759736 0.19561964 0.114934295
-0.21526545 -0.025888924 0.20723839 0.3997119 0.047306042 -0.040932547 -0.052622925 0.11741916
0.056335453 -0.2721148 -0.08702881 -0.15336984 0.11576422 0.023579737 0.22280596 -0.03477437
0.046233032 -0.10030534 -0.07860488 -0.070059836 -0.044136617 -0.09319701 0.17941919 0.14443563
0.18679753 0.17797194 0.19397052 0.20391738 0.19095813 0.18101195 0.20628157 0.1778052
0.19538487 0.18695809 0.19572963 0.19788083 -0.24189216 -0.010397537 0.39460525 0.8301322
-0.12776269 0.052103143 -0.019488096 0.0976481 0.0062619024 -0.62413216 0.120572954 -0.005510226
0.05180664 -0.09643365 0.24928565 0.012530086 0.092162475 0.005931223 -0.0111252265 -0.011237934
-0.090293966 -0.25098312 0.112266466 0.02965433 0.13031192 0.09065702 0.13234644 0.07575249
0.12231675 0.06856805 0.1273384 0.078652516 0.122501746 0.09441028 0.104381576 0.095883936
-0.19928044 -0.038447767 0.28982687 0.5898768 -0.0137753105 0.01636384 -0.000518356 0.057871092
0.02642814 -0.40841928 -0.03012898 -0.09278367 0.041669298 -0.029463056 0.22756332 -0.03009987
0.027686495 -0.053614356 -0.055372186 -0.053993445 -0.07469912 -0.19562307 0.16395111 0.10539567
0.1541911 0.1485318 0.17463402 0.14561597 0.14632589 0.15101303 0.18206726 0.139381
0.17245269 0.15672754 0.15040228 0.1241245 -0.040721387 0.027622903 -0.09599245 -0.22227943
-0.11481294 -0.12519653 0.19012694 0.13003433 0.047137335 0.36354354 0.024071464 0.051035006
-0.19727463 -0.09816008 -0.05360569 0.122499496 -0.013272188 0.12145119 -0.12541738 -0.034910593
0.14427827 -0.08510598 0.22101027 0.16614518 0.2237885 0.19751081 0.22071722 0.18270765
0.20159552 0.19424753 0.19899642 0.1839078 0.21950844 0.2021447 0.23095441 0.17410156
0.21963006 0.044716347 0.14046833 -0.15225339 -0.19815613 -0.007776921 0.01593149 0.026507773
0.07933961 -0.16058128 0.17452404 0.5492709 0.09145513 0.06400706 -0.24844664 -0.06957119
0.028551942 0.05547465 0.2630872 0.10564524 -0.15274929 0.095203735 -0.0050403844 0.0066915057
-0.015395365 0.022034496 -0.009228182 0.039326336 -0.0032967476 0.006404824 -0.004278959 0.025402192
-0.0005280524 0.01606808 0.0066355933 0.010681311 0.3264605 0.044209577 0.11006304 -0.3749261
00000000: f0d8 4e3e 6375 8a3d 5538 85be 72e2 06bf
00000010: 01bd 85bd dfae 99bc 5261 313c 6e85 98bd
00000020: 5bd4 debc 4d1d aa3e cf02 933d cffa f93d
00000030: 0229 95bd b502 f9bb ff92 52be 808f a83c
00000040: 6525 cbbb 3c7d a73d 4974 163d 8d9e 373d
00000050: b4e6 6a3d 532b 083e 47c4 23be 2f46 debd
00000060: a1ea 2fbe d286 1cbe c73b 21be c47d 16be
00000070: 5bec 22be d1b1 12be c975 28be c24f 24be
00000080: 84b0 2bbe 0fa2 04be a4d1 10be fe4a 28be
00000090: 6848 873e af0a 0d3d a493 69be 0495 82bf
000000a0: ff59 0dbb 9f13 e13b a438 6f3d 6af1 eb3b
000000b0: 1d26 acbd c2a7 343f bd2b 483d dc5c 833e
000000c0: 871c acbd 1ffb e13c ecd1 93be 3d46 dc3d
000000d0: bfe3 903c 00c0 b0bd f94d 70be b957 35be
000000e0: 4063 83bd 0da0 babe 8cfb 493e 9409 373d
000000f0: d816 583e 3d25 b13d 325b 423e 35ab ea3d
00000100: 26bf 583e 26af b23d da9f 5a3e 11f7 e63d
00000110: 1d5e 503e 20e1 c73d 8450 483e ac62 eb3d
00000120: 8c6e 5cbe 0215 d4bc 4d36 543e 0aa7 cc3e
00000130: fbc3 413d e3a8 27bd 238b 57bd 7579 f03d
00000140: 01c0 663d a252 8bbe 293c b2bd fc0c 1dbe
00000150: cb15 ed3d 4b2a c13c 3f27 643e 926f 0ebd
00000160: d95e 3d3d e36c cdbd 98fb a0bd 887b 8fbd
00000170: 99c8 34bd 13de bebd aab9 373e efe6 133e
00000180: da47 3f3e 473e 363e 35a0 463e b8cf 503e
00000190: 878a 433e 325b 393e 7a3b 533e 9112 363e
000001a0: f912 483e f171 3f3e 596d 483e 46a1 4a3e
000001b0: 94b2 77be 6e5a 2abc b309 ca3e 8b83 543f
000001c0: 39d4 02be 1b6a 553d 80a5 9fbc bafb c73d
000001d0: a530 cd3b 20c7 1fbf f4ee f63d 208f b4bb
000001e0: 3333 543d 017f c5bd bd44 7f3e fd4a 4d3c
000001f0: aebf bc3d b45a c23b 9546 36bc 501f 38bc
00000200: 0bec b8bd dc80 80be f6eb e53d a3ed f23c
00000210: 7d70 053e 63aa b93d d385 073e 1f24 9b3d
00000220: 3481 fa3d 686d 8c3d ff64 023e 9214 a13d
00000230: 32e2 fa3d 2d5a c13d 02c6 d53d cc5e c43d
00000240: 2c10 4cbe 687b 1dbd 3064 943e 2a02 173f
00000250: d7b1 61bc 760d 863c 48e2 07ba 3d0a 6d3d
00000260: d47f d83c 551c d1be 0dd1 f6bc 5d05 bebd
00000270: 6dad 2a3d 825c f1bc 5c06 693e 0194 f6bc
00000280: cace e23c ba9a 5bbd f2cd 62bd 3b28 5dbd
00000290: dafb 98bd 6a51 48be cde2 273e afd9 d73d
000002a0: 46e4 1d3e b818 183e 43d3 323e 5a1c 153e
000002b0: 74d6 153e 29a3 1a3e d76f 3a3e e5b9 0e3e
000002c0: 7097 303e 2f7d 203e 0e03 1a3e fc34 fe3d
000002d0: 78cb 26bd 6d49 e23c b197 c4bd 389d 63be
000002e0: 0c23 ebbd 8533 00be a3b0 423e b827 053e
000002f0: 1413 413d 6122 ba3e 8531 c53c 150a 513d
00000300: 5c02 4abe 2708 c9bd a491 5bbd 04e1 fa3d
00000310: 9773 59bc 67bb f83d 6a6d 00be 69fe 0ebd
00000320: afbd 133e 0b4c aebd 8450 623e f621 2a3e
00000330: d028 653e 4640 4a3e b203 623e b717 3b3e
00000340: 0e6f 4e3e d3e8 463e b8c5 4b3e 5452 3c3e
00000350: d2c6 603e 05ff 4e3e 507f 6c3e ae47 323e
00000360: b4e6 603e 7d28 373d eed6 0f3e 50e8 1bbe
00000370: 71e9 4abe 8bd5 febb c282 823c d426 d93c
00000380: ce7c a23d 6b6f 24be 6eb6 323e 059d 0c3f
00000390: d44c bb3d 2216 833d cc68 7ebe 577b 8ebd
000003a0: c3e5 e93c 6339 633d 5eb3 863e 885c d83d
000003b0: 4f6a 1cbe 2dfa c23d cf29 a5bb 6b44 db3b
000003c0: d73c 7cbc b081 b43c cd31 17bc a714 213d
000003d0: 3f0e 58bb 8fdf d13b 8236 8cbb 4218 d03c
000003e0: ff6c 0aba 35a1 833c 646f d93b aa00 2f3c
000003f0: d525 a73e 1a15 353d bb68 e13d 50f6 bfbe

self_attn.qkv_proj.bias f4 [108]
-0.1473477 0.10318125 0.18661079 0.085054025 0.14204371 0.19026825 0.02430192 0.052134566
0.0976306 -0.0026479645 -0.26074576 -0.08898934 0.10321396 -0.011005107 -0.2252327 0.07804566
0.23839526 0.035706643 0.05772773 -0.16654168 0.18402079 0.055335645 -0.04149942 0.16705304
-0.11088065 0.0012477722 0.033452 -0.21176362 -0.009302828 0.042545862 0.11841445 -0.15733705
-0.19503736 -0.08730652 -0.19670554 0.21648951 -0.089903474 -0.0846947 0.112635896 0.03043816
0.07622012 0.07128177 -0.23797373 -0.22734596 0.20952395 -0.12848416 -0.34960762 -0.14050396
-0.09855266 0.14146963 -0.12704034 0.10599943 0.24957633 0.067855805 -0.16133988 -0.006010801
0.13481447 -0.08871088 -0.08854477 0.1442593 0.029122703 0.20465751 -0.09988998 -0.15392977
0.15300521 -0.13500841 0.14458366 0.19666454 -0.10782663 0.04633898 -0.09261843 0.14379673
0.1632115 -0.12448443 -0.12901212 -0.55288315 -0.097637236 -0.1336707 -0.02239346 0.019572485
-0.047862235 0.0648466 0.14300999 -0.20768994 -0.3808685 0.073414944 0.14790487 -0.11032919
-0.14962173 0.62660426 -0.15050739 -0.047658324 0.12934932 0.17882997 -0.18202402 0.17689973
0.09261328 0.08592629 0.15575653 0.11886686 0.094379194 0.056628577 -0.16186748 -0.033180244
0.18035653 -0.04061335 -0.7453219 -0.12062436
00000000: 51e2 16be b150 d33d e616 3f3e ce30 ae3d
00000010: e873 113e aed5 423e d214 c73c 0e8b 553d
00000020: 8df2 c73d 7989 2dbb 7880 85be 0b40 b6bd
00000030: d761 d33d c44e 34bc 67a3 66be 67d6 9f3d
00000040: e31d 743e 2141 123d ea73 6c3d e789 2abe
00000050: f26f 3c3e a1a7 623d 4cfb 29bd f40f 2b3e
00000060: 6515 e3bd 4a8c a33a f704 093d 90d8 58be
00000070: e46a 18bc 9244 2e3d 4683 f23d f71c 21be
00000080: e0b7 47be c3cd b2bd 2d6d 49be 6daf 5d3e
00000090: 501f b8bd 6a74 adbd a6ad e63d 7359 f93c
000000a0: 4b19 9c3d 2dfc 913d 63af 73be 61cd 68be
000000b0: 728d 563e 5a91 03be c5ff b2be 45e0 0fbe
000000c0: fad5 c9bd 6add 103e dd16 02be 3b16 d93d
000000d0: f090 7f3e fcf7 8a3d 4836 25be 41f6 c4bb
000000e0: ce0c 0a3e 0dae b5bd f656 b5bd b6b8 133e
000000f0: bc92 ee3c bd91 513e 1e93 ccbd c49f 1dbe
00000100: 66ad 1c3e a53f 0abe bd0d 143e 6e62 493e
00000110: 35d4 dcbd f1cd 3d3d bbae bdbd 733f 133e
00000120: ea20 273e b1f1 febd c11b 04be c089 0dbf
00000130: 08f6 c7bd f9e0 08be 7d72 b7bc 7a56 a03c
00000140: 310b 44bd 4bce 843d 3671 123e acac 54be
00000150: 3201 c3be 935a 963d 6074 173e 45f4 e1bd
00000160: 7036 19be 2369 203f 9c1e 1abe 6035 43bd
00000170: 2674 043e 341f 373e 8164 3abe 3425 353e
00000180: 08ac bd3d 1ffa af3d a47e 1f3e 7870 f33d
00000190: e149 c13d 5ef3 673d 97c0 25be 02e8 07bd
000001a0: 62af 383e 2f5a 26bd 6bcd 3ebf e809 f7bd

self_attn.o_proj.weight f4 [36, 36]
0.033453308 -0.0587447 -0.05625197 0.094215296 0.15104868 -0.053892147 -0.029485067 -0.13082872
0.001240448 -0.01709149 -0.12775183 0.05116597 0.24534811 0.02181701 -0.11657891 0.10939456
-0.037177037 -0.17334941 -0.28028637 0.1402351 0.07361634 0.08198902 -0.07887496 -0.08588056
-0.046415098 0.028865013 0.08649708 -0.10876189 -0.07767556 -0.14238918 -0.11458307 2.252171e-05
-0.357715 0.14340363 0.21936311 -0.022692878 0.05090125 0.0069908006 0.017959239 -0.17624032
-0.0044296784 -0.05890837 0.06872645 -0.018539168 0.0029801046 0.07184594 0.02980988 -0.037048895
-0.4313612 0.061104003 0.040862367 0.02060833 -0.033638753 0.26335937 0.18985043 0.02020663
0.012671578 0.026679631 0.000587271 0.018730942 0.023152681 0.0056828368 0.031287376 0.039111644
0.046553526 -0.04317137 -0.018207822 0.006405346 0.42673588 0.031152682 -0.3686488 -0.028233444
0.035861246 -0.077826045 0.025862226 -0.89677626 -0.1838914 -0.08036484 0.0798564 0.34307438
0.057845324 0.09479548 0.28639093 0.014954849 -0.47747988 0.09500871 0.22053827 -0.20134777
-0.03970758 0.78180575 -0.92127365 -0.3246339 0.06085296 0.10450194 -0.047075316 0.06815525
-0.4078566 0.14672989 0.028943058 0.22729377 0.0030002033 0.177823 -0.047735043 -0.011083378
0.08334629 -0.41583875 -0.600781 0.075993285 -0.010981305 0.022449642 0.11023199 -0.023697285
-0.062124778 0.044080008 -0.014874952 0.14717317 -0.0057768053 0.035918914 0.10634687 0.077547655
0.34668133 -0.037894264 0.07800124 -0.079278834 0.026617674 -0.030719023 -0.5492119 -0.12221141
-0.09183267 -0.083742045 0.09096316 -0.02983178 -0.081351146 -0.00844292 -0.07323019 0.09138098
0.040356573 0.043680865 0.07178294 -0.016660303 -0.54495686 -0.14976314 0.27145538 0.0809439
0.0020005812 0.029146593 -0.005043326 -0.06355155 0.03269835 0.00028782757 0.051481184 -0.06578702
-0.0013146999 -0.033269428 -0.07081611 0.010674405 -0.358481 0.044871714 -0.0076247877 0.04815519
0.044338044 0.11789338 0.39519185 0.09126682 -0.012672327 -0.0072672362 0.050584782 0.027248275
0.032416765 -0.004150359 0.0010286579 -0.041568533 -0.038473338 -0.053691924 0.0052473326 -0.019226335
0.51129884 0.07852405 -0.251168 -0.050729338 -0.048786312 0.057653617 0.07685025 0.6625538
0.20781054 0.04922898 0.018661316 -0.28290775 0.054225665 -0.07384043 -0.2534496 0.09267485
0.4945242 -0.12800188 -0.2460931 0.17910236 0.062274992 -0.69037074 0.46038315 0.24902162
-0.08616114 -0.08281828 0.09184202 -0.1541411 0.2281064 -0.14318167 -0.11661976 -0.20016517
-0.023809835 -0.16637282 0.11804962 0.017326634 -0.12984094 0.3259109 0.60845655 -0.13906857
-0.08415831 0.030148366 0.051046386 -0.7117313 -0.15829417 0.07505159 -0.112781405 0.28025073
-0.0050304863 -0.019040674 0.21627241 -0.07868221 -0.2563041 -0.039110687 0.22745739 -0.18413588
0.08840196 0.70564216 -0.6257441 -0.21939944 -0.06086169 -0.06523087 0.020570476 0.09694161
0.029358802 -0.039845537 -0.105514914 0.08911468 -0.049341083 0.23688808 0.044857606 -0.029083883
0.0027823325 -0.23507202 -0.55378675 -0.09707259 0.034479395 -0.025185335 0.03998396 -0.13909781
00000000: 5606 093d 489e 70bd 7768 66bd f3f3 c03d
00000010: 81ac 1a3e 03be 5cbd ab8a f1bc f7f7 05be
00000020: 8796 a23a 7403 8cbc 60d1 02be 6893 513d
00000030: 893c 7b3e 96b9 b23c ecc0 eebd 410a e03d
00000040: f346 18bd 8282 31be b281 8fbe ca99 0f3e
00000050: 2ac4 963d dce9 a73d 3289 a1bd 26e2 afbd
00000060: c21d 3ebd 5276 ec3c 6225 b13d 8ebe debd
00000070: 5d14 9fbd 78ce 11be 87aa eabd 01ed bc37
00000080: 6c26 b7be 67d8 123e b9a0 603e 6ae6 b9bc
00000090: d47d 503d 1613 e53b 411f 933c 5878 34be
000000a0: d626 91bb e749 71bd 74c0 8c3d 74df 97bc
000000b0: dc4d 433b f723 933d d933 f43c 95c0 17bd
000000c0: 60db dcbe 3148 7a3d 4c5f 273d cdd2 a83c
000000d0: cac8 09bd 0ad7 863e 2768 423e 6088 a53c
000000e0: 739c 4f3c 3e8f da3c 17f3 193a a271 993c
000000f0: b1aa bd3c 1737 ba3b 3127 003d 8833 203d
00000100: e9ae 3e3d 76d4 30bd 9228 95bc f0e3 d13b
00000110: 207d da3e e933 ff3c 89bf bcbe d349 e7bc
00000120: 3ee3 123d 4363 9fbd 05dd d33c 2193 65bf
00000130: 074e 3cbe 5296 a4bd c18b a33d 72a7 af3e
00000140: 38ef 6c3d 2224 c23d d5a1 923e 2f05 753c
00000150: 3e78 f4be ed93 c23d c9d4 613e 1c2e 4ebe
00000160: 6aa4 22bd 6c24 483f 97d8 6bbf 6a36 a6be
00000170: f440 793d 1d05 d63d 0cd2 40bd fb94 8b3d
00000180: 95d2 d0be 5c40 163e fe19 ed3c b3bf 683e
00000190: 0f9f 443b 3c17 363e d285 43bd 0f97 35bc
000001a0: 76b1 aa3d d1e8 d4be c9cc 19bf 5ea2 9b3d
000001b0: eeea 33bc 50e8 b73c 4fc1 e13d cf20 c2bc
000001c0: 8d76 7ebd 3d8d 343d 12b6 73bc 90b4 163e
000001d0: 5b4b bdbb b61f 133d 63cc d93d 4ed1 9e3d
000001e0: 3780 b13e 0437 1bbd 1dbf 9f3d f15c a2bd
000001f0: 4f0d da3c 76a6 fbbc 2799 0cbf fa49 fabd
00000200: c412 bcbd f380 abbd e54a ba3d c761 f4bc
00000210: 6e9b a6bd 2c54 0abc b6f9 95bd f425 bb3d
00000220: ef4c 253d b5ea 323d ef02 933d 307b 88bc
00000230: 4b82 0bbf 825b 19be 33fc 8a3e eac5 a53d
00000240: 2f1c 033b d6c4 ee3c 7c42 a5bb 5127 82bd
00000250: b4ee 053d 90e7 9639 efdd 523d 58bb 86bd
00000260: 0252 acba 8645 08bd 0908 91bd b3e3 2e3c
00000270: d28a b7be 67cb 373d 5bd9 f9bb 603e 453d
00000280: cf9b 353d 1672 f13d 9656 ca3e 19ea ba3d
00000290: 989f 4fbc ff21 eebb fd31 4f3d c637 df3c
000002a0: 71c7 043d bcff 87bb 08d4 863a c443 2abd
000002b0: 3896 1dbd 10ec 5bbd d1f1 ab3b 8c80 9dbc
000002c0: 7be4 023f 38d1 a03d 1899 80be 91c9 4fbd
000002d0: 28d4 47bd 3326 6c3d aa63 9d3d 209d 293f
000002e0: 49cc 543e 54a4 493d 9edf 983c 49d9 90be
000002f0: bb1b 5e3d a739 97bd 25c4 81be 50cc bd3d
00000300: 4732 fd3e ed12 03be d4ff 7bbe 9c66 373e
00000310: 1014 7f3d 23bc 30bf 57b7 eb3e 86ff 7e3e
00000320: 4075 b0bd a19c a9bd ab17 bc3d 2ad7 1dbe
00000330: b994 693e 379e 12be 57d6 eebd 19f8 4cbe
00000340: d80c c3bc a35d 2abe 00c4 f13d 96f0 8d3c
00000350: 06f5 04be cbdd a63e cfc3 1b3f fe67 0ebe
00000360: 315b acbd b5f9 f63c 0416 513d 0634 36bf
00000370: de17 22be a6b4 993d f0f9 e6bd 067d 8f3e
00000380: c7d6 a4bb 30fb 9bbc 8476 5d3e 2324 a1bd
00000390: 4a3a 83be 8732 20bd 97ea 683e 1e8e 3cbe
000003a0: 160c b53d f7a4 343f c430 20bf 3faa 60be
000003b0: 1c4a 79bd c397 85bd 6a83 a83c 5389 c63d
000003c0: df81 f03c 1335 23bd 3418 d8bd c281 b63d
000003d0: e019 4abd ca92 723e 9cbc 373d 5341 eebc
000003e0: cb57 363b b8b6 70be f8c4 0dbf fecd c6bd
000003f0: 443a 0d3d 7a51 cebc 39c6 233d a86f 0ebe

self_attn.o_proj.bias f4 [36]
-0.34734398 0.6137815 1.125836 -0.55753535 0.48986787 -1.1776484 0.91326725 0.52183264
-0.32147324 0.40032464 -0.4508522 0.6972824 -1.0829707 -0.40541753 -0.39238244 1.1210953
0.43644807 -0.75484675 -0.7716817 0.5687978 -0.8909533 0.6758449 -0.3159225 0.7649502
0.98094386 -0.26382902 0.47416636 0.61485726 -0.6121301 -0.441971 0.92565763 0.72932935
0.23859176 -0.87997293 -1.0956041 -0.88455445
00000000: 12d7 b1be c920 1d3f 651b 903f a3ba 0ebf
00000010: f6cf fa3e 2fbd 96bf e2cb 693f d396 053f
00000020: 2498 a4be 5af7 cc3e 19d6 e6be 1981 323f
00000030: c99e 8abf e392 cfbe 5ae6 c8be 0d80 8f3f
00000040: 1f76 df3e a33d 41bf ef8c 45bf bc9c 113f
00000050: 8415 64bf 2c04 2d3f 98c0 a1be c7d3 433f
00000060: 231f 7b3f 9914 87be efc5 f23e 4967 1d3f
00000070: 8fb4 1cbf 064a e2be e6f7 6c3f 54b5 3a3f
00000080: 6651 743e e845 61bf c13c 8cbf 2972 62bf

fc.weight f4 [1, 18]
-0.11420506 -0.23567155 0.22063945 -0.07954836 -0.20978293 -0.16988468 0.058494095 0.14493045
0.02432258 0.03676939 -0.032807417 0.039206713 -0.020001827 0.18863134 0.08839577 -0.10110167
0.08372446 -0.0826756
00000000: 58e4 e9bd e253 71be 4fef 613e 40ea a2bd
00000010: 56d1 56be 40f6 2dbe 8197 6f3d a668 143e
00000020: 2640 c73c 809b 163d 1261 06bd 3897 203d
00000030: dfda a3bc 9328 413e d708 b53d 640e cfbd
00000040: bb77 ab3d d351 a9bd

fc1.weight f4 [1, 36]
-2.0913615 1.5934393 0.746798 -1.8965896 2.1514533 -0.7926428 0.46362057 1.9116619
-0.18745102 2.5816038 -2.1414907 0.00086812105 -0.58478796 -1.1742272 -0.11031513 0.64996177
1.7117574 -0.2165512 -0.3949862 0.2560797 -0.3735062 0.31087106 -0.21904784 0.4572826
0.4987102 -0.10921298 0.23278801 0.28278095 -1.5689737 -0.25054455 0.3975035 0.4431656
-0.01581097 -1.0444186 -0.8682185 -0.41542003
00000000: ded8 05c0 d2f5 cb3f 272e 3f3f 73c3 f2bf
00000010: 69b1 0940 a3ea 4abf ad5f ed3e 56b1 f43f
00000020: 29f3 3fbe ff38 2540 2f0e 09c0 9e92 633a
00000030: aab4 15bf 144d 96bf e6ec e1bd e563 263f
00000040: de1a db3f 99bf 5dbe a23b cabe e11c 833e
00000050: 343c bfbe 7e2a 9f3e 144e 60be f220 ea3e
00000060: f156 ff3e 0eab dfbd fb5f 6e3e aac8 903e
00000070: 21d4 c8bf 6047 80be 9485 cb3e 9ae6 e23e
00000080: 0286 81bc 82af 85bf 9143 5ebf efb1 d4be

fc2.weight f4 [1, 9]
-0.3052305 -0.32291704 -0.08533736 -0.030207198 0.24997962 -0.21768829 -0.32283914 0.0012872617
-0.30869973
00000000: 2c47 9cbe 6255 a5be 5bc5 aebd 1675 f7bc
00000010: a8fa 7f3e aee9 5ebe 2c4b a5be 56b9 a83a
00000020: e40d 9ebe

fc3.weight f4 [1, 2]
0.5097901 -0.5854001
00000000: 9b81 023f c8dc 15bf

input_fc.weight f4 [18, 3]
-0.4026637 0.40168315 -0.13580756 0.0005861923 0.03780104 0.036447667 -0.13889034 0.24959953
0.4704871 -0.07530768 -0.19793786 0.4142073 0.23187274 -0.18657133 -0.1362334 0.012595129
0.0040508043 -0.015568103 -0.016698282 -0.024917565 -0.03103838 -0.04508006 -0.006955507 0.04816101
-0.009495661 -0.032472 -0.018715905 0.33678547 -0.051146377 -0.48363423 -0.26382008 0.2538965
0.099821985 -0.39430556 0.4989411 0.07046878 0.0013013568 0.024546843 0.014307118 0.017729193
0.02196316 -0.0066033406 0.21634015 -0.40401268 0.17604168 0.031316467 -0.0043477337 -0.011282031
-0.015135002 0.0046727345 0.012547408 -0.00016932677 0.0124071045 0.004966186
00000000: f029 cebe 6aa9 cd3e 2311 0bbe b3aa 193a
00000010: 43d5 1a3d 264a 153d 4539 0ebe 0597 7f3e
00000020: afe3 f03e ea3a 9abd 39b0 4abe fb12 d43e
00000030: 0c70 6d3e 8e0c 3fbe c580 0bbe cd5b 4e3c
00000040: 9cbc 843b 5b11 7fbc d6ca 88bc ec1f ccbc
00000050: 3344 febc dea5 38bd 06eb e3bb 7b44 453d
00000060: b093 1bbc 5c01 05bd 1952 99bc 256f ac3e
00000070: dd7e 51bd e89e f7be 6d13 87be b9fe 813e
00000080: 786f cc3d 6be2 c9be 3575 ff3e f051 903d
00000090: 4a92 aa3a 7616 c93c 6768 6a3c d03c 913c
000000a0: 16ec b33c d660 d8bb 4688 5d3e c0da cebe
000000b0: 4544 343e b245 003d 6f77 8ebb 45d8 38bc
000000c0: cdf8 77bc bd1d 993b a593 4d3c 4f8d 31b9
000000d0: 2b47 4b3c 63bb a23b

input_fc.bias f4 [18]
-0.128963 0.06922395 -0.23921645 0.14163093 0.20897996 0.026833672 -0.0035915866 0.14333794
-0.09039169 -0.040499706 -0.24401301 -0.21507996 0.027475711 0.020741772 0.16976105 -0.002122708
0.11372245 -0.10649911
00000000: e00e 04be 49c5 8d3d 28f5 74be b307 113e
00000010: d8fe 553e 4ad2 db3c d360 6bbb 2ec7 123e
00000020: 471f b9bd 05e3 25bd 8cde 79be ec3d 5cbe
00000030: be14 e13c a6ea a93c d7d5 2d3e 211d 0bbb
00000040: 51e7 e83d 351c dabd

norm.weight f4 [36]
1.0 1.0 1.0 1.0 1.0 1.0 1.0 1.0
1.0 1.0 1.0 1.0 1.0 1.0 1.0 1.0
1.0 1.0 1.0 1.0 1.0 1.0 1.0 1.0
1.0 1.0 1.0 1.0 1.0 1.0 1.0 1.0
1.0 1.0 1.0 1.0
00000000: 0000 803f 0000 803f 0000 803f 0000 803f
00000010: 0000 803f 0000 803f 0000 803f 0000 803f
00000020: 0000 803f 0000 803f 0000 803f 0000 803f
00000030: 0000 803f 0000 803f 0000 803f 0000 803f
00000040: 0000 803f 0000 803f 0000 803f 0000 803f
00000050: 0000 803f 0000 803f 0000 803f 0000 803f
00000060: 0000 803f 0000 803f 0000 803f 0000 803f
00000070: 0000 803f 0000 803f 0000 803f 0000 803f
00000080: 0000 803f 0000 803f 0000 803f 0000 803f

norm.bias f4 [36]
0.0 0.0 0.0 0.0 0.0 0.0 0.0 0.0
0.0 0.0 0.0 0.0 0.0 0.0 0.0 0.0
0.0 0.0 0.0 0.0 0.0 0.0 0.0 0.0
0.0 0.0 0.0 0.0 0.0 0.0 0.0 0.0
0.0 0.0 0.0 0.0
00000000: 0000 0000 0000 0000 0000 0000 0000 0000
00000010: 0000 0000 0000 0000 0000 0000 0000 0000
00000020: 0000 0000 0000 0000 0000 0000 0000 0000
00000030: 0000 0000 0000 0000 0000 0000 0000 0000
00000040: 0000 0000 0000 0000 0000 0000 0000 0000
00000050: 0000 0000 0000 0000 0000 0000 0000 0000
00000060: 0000 0000 0000 0000 0000 0000 0000 0000
00000070: 0000 0000 0000 0000 0000 0000 0000 0000
00000080: 0000 0000 0000 0000 0000 0000 0000 0000

norm1.weight f4 [9]
1.0 1.0 1.0 1.0 1.0 1.0 1.0 1.0
1.0
00000000: 0000 803f 0000 803f 0000 803f 0000 803f
00000010: 0000 803f 0000 803f 0000 803f 0000 803f
00000020: 0000 803f

norm1.bias f4 [9]
0.0 0.0 0.0 0.0 0.0 0.0 0.0 0.0
0.0
00000000: 0000 0000 0000 0000 0000 0000 0000 0000
00000010: 0000 0000 0000 0000 0000 0000 0000 0000
00000020: 0000 0000

norm2.weight f4 [9]
1.0 1.0 1.0 1.0 1.0 1.0 1.0 1.0
1.0
00000000: 0000 803f 0000 803f 0000 803f 0000 803f
00000010: 0000 803f 0000 803f 0000 803f 0000 803f
00000020: 0000 803f

norm2.bias f4 [9]
0.0 0.0 0.0 0.0 0.0 0.0 0.0 0.0
0.0
00000000: 0000 0000 0000 0000 0000 0000 0000 0000
00000010: 0000 0000 0000 0000 0000 0000 0000 0000
00000020: 0000 0000

m.running_mean f4 [12]
0.63689345 0.66070557 0.6443043 0.6097001 0.5905434 0.602357 0.6280062 0.6350033
0.6059834 0.55754226 0.5251687 0.53206354
00000000: 730b 233f 0024 293f 20f1 243f 4e15 1c3f
00000010: da2d 173f 1134 1a3f 04c5 203f 948f 223f
00000020: ba21 1b3f 17bb 0e3f 7571 063f 5135 083f

m.running_var f4 [12]
749.22485 745.9469 742.64984 741.77136 743.0007 744.513 744.5163 742.1293
739.5072 738.68066 740.8358 743.8948
00000000: 644e 3b44 9a7c 3a44 97a9 3944 5e71 3944
00000010: 0bc0 3944 d520 3a44 0b21 3a44 4688 3944
00000020: 76e0 3844 90ab 3844 7e35 3944 44f9 3944

linear_net.0.weight f4 [9, 18]
0.23512112 0.069411784 0.058534134 0.2250136 -0.1257093 0.14141594 -0.13527587 0.067116916
-0.23260854 -0.030561551 0.21341074 0.21948941 -0.04750166 -0.113862045 -0.025004601 0.15404013
0.05954175 -0.08087039 -0.10273578 0.15410282 -0.15555772 -0.09413768 -0.0355566 0.22035572
0.18106124 0.17848103 -0.15957755 0.08130695 -0.01620226 0.11714556 0.15591623 -0.18442391
-0.19048147 0.026999243 -0.23263909 0.16998538 -0.17062278 -0.13697374 0.001052772 0.13433386
0.20579149 0.04352078 0.20106685 0.09922666 0.23123074 -0.05809395 -0.05987359 -0.07291843
-0.040029783 -0.1993641 0.070445366 0.16907035 0.121487506 -0.14872134 0.21363333 -0.0006018851
-0.0071250373 -0.20445931 -0.10312991 0.07613477 0.028586747 -0.15066451 0.21862829 0.098720364
0.13014725 -0.13711047 -0.0951716 0.073708795 -0.22114713 0.11037827 0.012157174 0.1506479
0.18087716 0.04658446 0.1229561 0.0054819 0.22992691 -0.026158864 -0.1452239 -0.03151837
-0.17760073 -0.13802697 0.05147181 0.18209237 0.19204925 0.17755346 0.20135151 0.21048938
-0.14177337 -0.0719769 0.10726982 -0.09258772 -0.040210593 0.19935058 -0.020539284 -0.054712903
0.09691109 0.23059735 -0.101584725 -0.030826824 -0.20969763 0.02786817 0.024326403 0.15829368
-0.19256586 -0.14602284 0.18343261 -0.106227055 0.015522656 0.20275567 0.20469761 -0.014762018
-0.22280161 -0.19341251 -0.22631831 -0.014116862 -0.18331452 0.19115113 -0.20460139 -0.069981106
0.10099026 -0.09943888 0.1764665 0.050439943 0.2263952 0.033603262 0.14396104 -0.20783292
-0.10016777 0.10541559 -0.08960653 0.07767232 -0.14264803 0.046773672 0.02882527 -0.1299565
-0.005747369 0.18235084 -0.17411464 0.039055828 0.12811565 0.21713635 -0.21474168 0.10663389
0.22409701 0.16130096 -0.2032996 -0.034190394 -0.028890232 -0.03387553 0.01699375 0.015324763
0.12485161 -0.18471149 -0.16620596 -0.0071372315 -0.2220625 0.23112829 0.16834915 -0.10422497
0.1677655 -0.10570067
00000000: 97c3 703e c427 8e3d 7dc1 6f3d f769 663e
00000010: f0b9 00be 57cf 103e c285 0abe 9874 893d
00000020: ef30 6ebe 385c fabc 5888 5a3e d5c1 603e
00000030: 1a91 42bd 8130 e9bd 73d6 ccbc b2bc 1d3e
00000040: 0de2 733d 609f a5bd 2367 d2bd 21cd 1d3e
00000050: 864a 1fbe 42cb c0bd cca3 11bd eea4 613e
00000060: 1e68 393e bbc3 363e 4c68 23be 4284 a63d
00000070: 9aba 84bc 03ea ef3d 81a8 1f3e 9fd9 3cbe
00000080: 930d 43be 842d dd3c f138 6ebe a610 2e3e
00000090: bdb7 2ebe d842 0cbe 2bfd 893a d18e 093e
000000a0: 01bb 523e d842 323d 78e4 4d3e 5937 cb3d
000000b0: c0c7 6c3e ecf3 6dbd 023e 75bd 4256 95bd
000000c0: 45f6 23bd 1a26 4cbe a945 903d c720 2d3e
000000d0: 71ce f83d 684a 18be b2c2 5a3e d3c7 1dba
000000e0: 2579 e9bb c85d 51be c635 d3bd 8cec 9b3d
000000f0: c12e ea3c cc47 1abe 18e0 5f3e e72d ca3d
00000100: 5245 053e b066 0cbe 54e9 c2bd a3f4 963d
00000110: 6574 62be 010e e23d e22e 473c 7143 1a3e
00000120: dd37 393e 59cf 3e3d 68d0 fb3d 83a1 b33b
00000130: f671 6b3e 1d4b d6bc 93b5 14be 6819 01bd
00000140: f7dc 35be f156 0dbe 1bd4 523d 6c76 3a3e
00000150: 8fa8 443e 93d0 353e 172f 4e3e 878a 573e
00000160: 0a2d 11be a068 93bd 48b0 db3d a19e bdbd
00000170: ddb3 24bd 8f22 4c3e 0042 a8bc a31a 60bd
00000180: 5279 c63d b621 6c3e a70b d0bd 8988 fcbc
00000190: faba 56be ca4b e43c 2a48 c73c bd17 223e
000001a0: fc2f 45be 0387 15be c2d5 3b3e 928d d9bd
000001b0: bd52 7e3c 2f9f 4f3e 409c 513e 64dc 71bc
000001c0: 1b26 64be ee0d 46be fdbf 67be 694a 67bc
000001d0: cdb6 3bbe 1fbd 433e 0783 51be 4152 8fbd
000001e0: fbd3 ce3d 9da6 cbbd a2b3 343e 1d9a 4e3d
000001f0: 25d4 673e 93a3 093d 866a 133e 27d2 54be
00000200: c324 cdbd 21e4 d73d a183 b7bd aa12 9f3d
00000210: 5312 12be c095 3f3d f922 ec3c 5113 05be
00000220: 6d54 bcbb 2eba 3a3e 1c4b 32be 01f9 1f3d
00000230: c030 033e fe58 5e3e 3ee5 5bbe de62 da3d
00000240: b079 653e 142c 253e c52d 50be 3a0b 0cbd
00000250: 35ab ecbc 11c1 0abd 7a36 8b3c b714 7b3c
00000260: 33b2 ff3d 0225 3dbe e531 2abe 70df e9bb
00000270: 5a64 63be e5ac 6c3e b863 2c3e e773 d5bd
00000280: b8ca 2b3e 9879 d8bd

linear_net.0.bias f4 [9]
-0.0016157697 -0.20124966 0.008176939 0.07882188 -0.09764736 0.13084657 -0.002317009 0.12630275
0.23200722
00000000: 3cc8 d3ba 6414 4ebe 91f8 053c 5e6d a13d
00000010: 57fb c7bd a5fc 053e f6d8 17bb 8255 013e
00000020: 4d93 6d3e

linear_net.2.weight f4 [1, 9]
-0.23256946 -0.23333327 0.25145853 -0.07154012 -0.23910797 0.044293802 -0.22933035 0.32548147
0.15662663
00000000: b026 6ebe ebee 6ebe 2cbf 803e a083 92bd
00000010: b8d8 74be 6b6d 353d 93d5 6abe 82a5 a63e
00000020: bb62 203e

exp_avg f4 [108, 36]
-0.0018315967 0.00066112017 0.008915159 0.0015576414 -0.0011678304 -5.484462e-05 -0.0010105595 -4.72717e-05
-0.0006704468 -0.0026334585 0.0012581368 0.0029896488 0.00042968043 0.00029637065 -0.00052804314 0.0002037673
4.300169e-05 0.00013290363 6.0228012e-05 -1.49312555e-05 0.00018225168 -5.480949e-06 0.0002540683 0.00035097272
0.00010652423 0.00046236924 3.9041002e-05 0.00047837183 1.4066125e-05 0.0004804671 5.056755e-06 0.0004807382
1.81738e-06 0.0004807732 6.531361e-07 0.00048077782 0.0075595295 -0.0021925431 -0.026561387 -0.004667653
0.0025496653 8.635257e-05 0.0032014612 0.00033066448 0.0021907454 0.0066693397 -0.0026344082 -0.0071776165
-0.0013835366 -0.0010584674 0.00045503673 -0.0007765698 -7.566066e-05 -0.0004332655 -2.909805e-05 3.8717935e-05
-0.0006232439 0.00011806464 -0.0008164112 -0.0010523184 -0.00034065743 -0.0014047739 -0.00012477789 -0.0014552554
-4.4952998e-05 -0.0014618622 -1.6160397e-05 -0.001462717 -5.807982e-06 -0.0014628276 -2.087291e-06 -0.0014628415
0.0013506495 -0.0004343357 -0.005561217 -0.0009901453 0.0006412225 2.6331816e-05 0.000645727 4.421371e-05
0.00043624255 0.0015439492 -0.00067733636 -0.0016916748 -0.00027763986 -0.00020049146 0.00021060488 -0.0001417477
-2.3027616e-05 -8.604022e-05 -2.7748156e-05 1.2920362e-05 -0.00011990218 7.370862e-06 -0.000161948 -0.0002209355
-6.7756104e-05 -0.0002913593 -2.4826177e-05 -0.00030146533 -8.944357e-06 -0.00030278834 -3.215473e-06 -0.0003029594
-1.155629e-06 -0.00030298153 -4.1531368e-07 -0.00030298447 0.0026736138 -0.0010714796 -0.015169257 -0.002592494
0.0021665527 0.00011022465 0.0016843567 5.0666273e-05 0.0010991656 0.0046715746 -0.0023653663 -0.005458897
-0.00070821104 -0.0004687724 0.0011603043 -0.0003149357 -8.090958e-05 -0.00021864817 -0.00012235255 2.57948e-05
-0.00029560493 -6.4961904e-07 -0.0004254699 -0.0005929903 -0.00017881919 -0.00078113546 -6.55562e-05 -0.0008082011
-2.3620207e-05 -0.0008117453 -8.4914755e-06 -0.00081220403 -3.051809e-06 -0.0008122631 -1.0967692e-06 -0.0008122708
0.0023557292 -0.0008490828 -0.011517589 -0.0019951067 0.0015077223 7.164545e-05 0.001305239 6.3028616e-05
0.00086375023 0.0033897434 -0.0016273917 -0.0038735606 -0.00055345206 -0.00038148565 0.00069605326 -0.00026319968
-5.483246e-05 -0.00017129324 -7.5621014e-05 2.0465248e-05 -0.00023364331 8.6896025e-06 -0.00032933935 -0.00045240004
-0.00013821354 -0.00059731136 -5.0660976e-05 -0.0006181403 -1.8252967e-05 -0.00062086753 -6.561934e-06 -0.0006212205
-2.3583366e-06 -0.00062126614 -8.4754674e-07 -0.000621272 0.0001913852 0.00018630121 0.0040248283 0.0006358172
-0.0009607369 -6.261969e-05 -0.00037164683 5.885408e-05 -0.00020962751 -0.0016994092 0.0010974277 0.002194792
0.000143937 5.1723066e-05 -0.00080717355 1.541724e-05 4.0844207e-05 4.255875e-05 8.751985e-05 6.567528e-07
2.7312704e-05 2.9740253e-05 9.411459e-05 0.00014639001 4.120713e-05 0.00019444755 1.5180096e-05 0.00020149663
5.472841e-06 0.00020242188 1.9676468e-06 0.00020254165 7.0717294e-07 0.00020255714 2.5414647e-07 0.00020255915
0.0023076274 -0.0010418036 -0.015691774 -0.0025916174 0.0024145946 0.00013516626 0.0017112605 2.9518407e-05
0.0010892318 0.0049979277 -0.0026711535 -0.006034609 -0.0007054642 -0.00044626254 0.0014830701 -0.00029588444
-8.800577e-05 -0.000217991 -0.00014305861 1.5430378e-05 -0.00029363736 -1.0935424e-05 -0.00043216156 -0.0006099935
-0.00018191317 -0.0008021713 -6.670298e-05 -0.0008298403 -2.4033969e-05 -0.0008334639 -8.6402515e-06 -0.0008339328
-3.10528e-06 -0.0008339934 -1.1159857e-06 -0.0008340011 0.0039630155 -0.0015758784 -0.022236092 -0.0037750807
00000000: 3012 f0ba 064f 2d3a e310 123c c629 cc3a
00000010: e311 99ba f608 66b8 c074 84ba 9a45 46b8
00000020: ecc0 2fba 1a96 2cbb 11e8 a43a fced 433b
00000030: bb46 e139 3262 9b39 606c 0aba 5eaa 5539
00000040: b75c 3438 0c5c 0b39 569d 7c38 4181 7ab7
00000050: d01a 3f39 fee8 b7b6 7834 8539 c302 b839
00000060: c365 df38 266a f239 f5bf 2338 fbcd fa39
00000070: 8cfd 6b37 34e7 fb39 32ad a936 970b fc39
00000080: b4ec f335 4910 fc39 2c53 2f35 e810 fc39
00000090: eeb5 f73b c5b0 0fbb 4497 d9bc 1cf3 98bb
000000a0: 4918 273b 2f18 b538 9bcf 513b 095d ad39
000000b0: 9c92 0f3b 7a8a da3b 09a6 2cbb 3632 ebbb
000000c0: c957 b5ba 46bc 8aba ff91 ee39 b892 4bba
000000d0: 02ac 9eb8 e927 e3b9 9617 f4b7 1165 2238
000000e0: 3161 23ba 7999 f738 6e04 56ba f2ed 89ba
000000f0: 449a b2b9 6420 b8ba cfd6 02b9 45be beba
00000100: ea8b 3cb8 f59b bfba 3090 87b7 a3b8 bfba
00000110: 2fe2 c2b6 59bc bfba 6313 0cb6 d1bc bfba
00000120: 4708 b13a 8db7 e3b9 df3a b6bb c3c7 81ba
00000130: b717 283a 25e3 dc37 0146 293a 1c72 3938
00000140: 7cb7 e439 575e ca3a 468f 31ba 30bb ddba
00000150: 3190 91b9 043b 52b9 d1d5 5c39 1ca2 14b9
00000160: 6e2b c1b7 7e70 b4b8 b6c4 e8b7 88c4 5837
00000170: fe73 fbb8 3953 f736 96d0 29b9 ecaa 67b9
00000180: 4818 8eb8 95c1 98b9 cf41 d0b7 fe0d 9eb9
00000190: b90f 16b7 90bf 9eb9 68c9 57b6 86d6 9eb9
000001a0: 1c1b 9bb5 7ed9 9eb9 47f8 deb4 e3d9 9eb9
000001b0: cc37 2f3b e470 8cba 7a88 78bc d5e6 29bb
000001c0: b9fc 0d3b 6928 e738 a2c5 dc3a 7f82 5438
000001d0: e111 903a 0214 993b 4304 1bbb 8ce0 b2bb
000001e0: 3da7 39ba 91c5 f5b9 5a15 983a f41d a5b9
000001f0: 00ae a9b8 ec44 65b9 c34b 00b9 e961 d837
00000200: 6cfb 9ab9 7b61 2eb5 9a11 dfb9 e872 1bba
00000210: 6981 3bb9 1dc5 4cba 387b 89b8 75dd 53ba
00000220: 0224 c6b7 4ecb 54ba 9c76 0eb7 17ea 54ba
00000230: aecd 4cb6 0eee 54ba b434 93b5 92ee 54ba
00000240: 9462 1a3b fb94 5eba 45b4 3cbc 56c0 02bb
00000250: c49e c53a 5c40 9638 8e14 ab3a 3b2e 8438
00000260: 4c6d 623a 7526 5e3b 344e d5ba 90db 7dbb
00000270: 8a15 11ba 2302 c8b9 5877 363a 10fe 89b9
00000280: e8fb 65b8 2e9d 33b9 b996 9eb8 c9ac ab37
00000290: 26fe 74b9 8fc9 1137 2eab acb9 1b30 edb9
000002a0: 6aed 10b9 e394 1cba cf7c 54b8 b10a 22ba
000002b0: f31d 99b7 b7c1 22ba 952e dcb6 67d9 22ba
000002c0: ea43 1eb6 77dc 22ba f882 63b5 dcdc 22ba
000002d0: 93ae 4839 da59 4339 b5e2 833b f8ac 263a
000002e0: f6d9 7bba b152 83b8 98d9 c2b9 16da 7638
000002f0: 75cf 5bb9 b6be deba 90d7 8f3a 80d6 0f3b
00000300: cbed 1639 38f1 5838 8098 53ba 4554 8137
00000310: 2250 2b38 1c81 3238 dd8a b738 b54b 3035
00000320: 961d e537 b57a f937 635f c538 4580 1939
00000330: d2d5 2c38 9ee4 4b39 04ae 7e37 d748 5339
00000340: 59a3 b736 3641 5439 ea0b 0436 5c61 5439
00000350: 8ed4 3d35 8565 5439 a071 8834 0f66 5439
00000360: 903b 173b 218d 88ba 098c 80bc 20d8 29bb
00000370: 2d3e 1e3b 6bbb 0d39 604c e03a 4c9e f737
00000380: 8ec4 8e3a a8c5 a33b 850e 2fbb f8bd c5bb
00000390: e7ee 38ba 58f8 e9b9 9363 c23a f020 9bb9
000003a0: bd8f b8b8 8394 64b9 0102 16b9 7c70 8137
000003b0: 57f3 99b9 4a77 37b7 be93 e2b9 f9e7 1fba
000003c0: f2bf 3eb9 ce48 52ba e4e2 8bb8 a489 59ba
000003d0: 8e9c c9b7 d17c 5aba 99f5 10b7 489c 5aba
000003e0: 4e64 50b6 5aa0 5aba fac8 95b5 dea0 5aba
000003f0: 2fdc 813b b48d ceba 7728 b6bc 5867 77bb

exp_avg_sq f4 [108, 36]
0.0003224833 2.0757964e-06 0.0010231433 7.1681614e-05 3.2166052e-05 2.362327e-06 8.542138e-06 2.1645237e-06
2.3932616e-06 8.670357e-05 5.138482e-05 0.00019233362 3.3467882e-06 1.982448e-06 0.00010228633 2.1454282e-06
1.4535682e-06 1.6522499e-06 1.0174445e-07 6.6351895e-08 9.1174167e-07 6.144793e-07 1.1773116e-06 2.5804654e-06
2.0723185e-07 4.026656e-06 2.784763e-08 4.2717284e-06 3.6150958e-09 4.3045143e-06 4.672169e-10 4.308768e-06
6.034852e-11 4.30932e-06 7.7944e-12 4.309385e-06 0.0013446764 1.5065014e-05 0.0052936883 0.00031034285
0.00012754467 1.7038734e-05 5.110115e-05 1.3296759e-05 1.8842748e-05 0.00047873554 0.00017737264 0.00063351647
2.117081e-05 1.2535745e-05 0.00027221735 1.2557675e-05 1.0964766e-05 1.2596508e-05 4.9067813e-07 3.5016657e-07
4.450149e-06 2.9334062e-06 6.675653e-06 1.2408812e-05 1.1850397e-06 2.0427473e-05 1.593985e-07 2.1802358e-05
2.0695238e-08 2.1986556e-05 2.6747002e-09 2.201046e-05 3.4548095e-10 2.201354e-05 4.4621085e-11 2.2013937e-05
0.00020822683 1.3382538e-06 0.0007965424 4.8683552e-05 2.8150305e-05 1.6613564e-06 6.418986e-06 1.7629307e-06
1.6074221e-06 7.3343865e-05 4.4509805e-05 0.00018113942 2.2022462e-06 1.4473369e-06 7.92198e-05 1.6210388e-06
1.0287075e-06 1.2484513e-06 8.020478e-08 5.360245e-08 6.901068e-07 4.793011e-07 8.383844e-07 1.9122342e-06
1.4743401e-07 2.935069e-06 1.9810571e-08 3.1083916e-06 2.5717357e-09 3.1315747e-06 3.3237205e-10 3.1345874e-06
4.293114e-11 3.1349753e-06 5.544827e-12 3.1350264e-06 0.0013237231 6.2419776e-06 0.0026822523 0.00026316542
0.00011056862 8.029526e-06 2.297321e-05 5.613919e-06 7.3999977e-06 0.00021282646 0.00018880187 0.0006058136
1.0898959e-05 5.7611423e-06 0.00044236315 5.903016e-06 4.950622e-06 4.994538e-06 2.7488468e-07 1.8193508e-07
2.3607565e-06 1.762055e-06 3.7136476e-06 6.9848984e-06 6.611958e-07 1.14729e-05 8.896731e-08 1.224373e-05
1.1551416e-08 1.2347e-05 1.4929402e-09 1.2360426e-05 1.9283801e-10 1.2362172e-05 2.4906237e-11 1.2362381e-05
0.00055980304 3.4405184e-06 0.001660732 0.00012178559 5.338913e-05 3.718721e-06 1.43158795e-05 3.4779587e-06
4.155638e-06 0.00013760012 8.634961e-05 0.00031529795 5.388796e-06 3.2357927e-06 0.00017766023 3.506286e-06
2.331903e-06 2.6262967e-06 1.6496405e-07 1.0735378e-07 1.4893618e-06 1.0077719e-06 1.9500915e-06 4.230139e-06
3.4364083e-07 6.6246075e-06 4.6184134e-08 7.030816e-06 5.9955925e-09 7.085172e-06 7.748746e-10 7.092226e-06
1.0008766e-10 7.093138e-06 1.2926956e-11 7.093261e-06 0.00023621944 1.8307558e-06 0.0003871053 4.353983e-05
1.672822e-05 3.7668767e-06 5.0640488e-06 1.6912418e-06 2.3262191e-06 4.1431496e-05 2.6410931e-05 6.959332e-05
3.5009366e-06 1.7103002e-06 5.9085967e-05 1.535812e-06 2.1993465e-06 2.28772e-06 5.1977494e-08 4.9849152e-08
3.3127944e-07 3.1667884e-07 7.23878e-07 9.548065e-07 1.3192147e-07 1.7728232e-06 1.7799275e-08 1.9182303e-06
2.3118472e-09 1.9377926e-06 2.988039e-10 1.9403308e-06 3.8595634e-11 1.9406623e-06 4.9848736e-12 1.940702e-06
0.0009465378 7.07198e-06 0.0028236017 0.00021292911 0.000103221224 9.161887e-06 2.0568748e-05 6.4099563e-06
7.303489e-06 0.0002721971 0.00015791092 0.0005272828 1.1876369e-05 5.92554e-06 0.0002973785 5.773939e-06
5.891065e-06 6.2268878e-06 2.0587476e-07 1.4222586e-07 2.0852133e-06 1.4027614e-06 3.9610613e-06 6.1308465e-06
7.093764e-07 1.0849307e-05 9.5510345e-08 1.1666471e-05 1.2401915e-08 1.1776077e-05 1.6028807e-09 1.1790313e-05
2.0703883e-10 1.1792171e-05 2.6740339e-11 1.17923855e-05 0.00094087643 1.0281948e-05 0.004330477 0.00023509304
00000000: fa12 a939 e94d 0b36 fe1a 863a c653 9638
00000010: 09ea 0638 7888 1e36 3450 0f37 3c42 1136
00000020: ec9b 2036 a0d4 b538 0886 5738 2aad 4939
00000030: 6299 6036 330a 0536 8e82 d638 2dfa 0f36
00000040: 3918 c335 e0c2 dd35 9a7e da33 577d 8e33
00000050: 69be 7435 b2f2 2435 1e04 9e35 0f2c 2d36
00000060: 7583 5e34 b61c 8736 9635 ef32 de55 8f36
00000070: 706d 7831 7f6f 9036 776d 0030 0994 9036
00000080: 32b5 842e c798 9036 db1e 092d 5699 9036
00000090: da3f b03a bebf 7c37 ad76 ad3b 83b5 a239
000000a0: 83bd 0539 67ee 8e37 7155 5638 2515 5f37
000000b0: 7e10 9e37 ccfe fa39 1bfd 3939 9212 263a
000000c0: f897 b137 9d50 5237 65b8 8e39 ceae 5237
000000d0: 50f5 3737 9755 5337 25b7 0335 87fe bb34
000000e0: 7d52 9536 89db 4436 6cff df36 712f 5037
000000f0: a70d 9f35 aa5b ab37 2027 2b34 35e4 b637
00000100: 4fc5 b132 c56f b837 d3cd 3731 1aa3 b837
00000110: 1fee bd2f b8a9 b837 e03e 442e 92aa b837
00000120: 7757 5a39 0d9e b335 0ecf 503a 9131 4c38
00000130: 5224 ec37 c5fb de35 ab62 d736 d69d ec35
00000140: 9abe d735 30d0 9938 0ab0 3a38 3ef0 3d39
00000150: 4dca 1336 1e42 c235 ce22 a638 7892 d935
00000160: 1f12 8a35 7690 a735 0b3d ac33 8438 6633
00000170: c73f 3935 52a9 0035 560d 6135 ef53 0036
00000180: 5a4e 1e34 1af8 4436 e82b aa32 c399 5036
00000190: 74ba 3031 0b28 5236 35b9 b62f cd5b 5236
000001a0: 2bd0 3c2e 7762 5236 5d17 c32c 5863 5236
000001b0: c780 ad3a 2e72 d136 bac8 2f3b 77f9 8939
000001c0: 13e1 e738 8db6 0637 98b6 c037 325f bc36
000001d0: 7f4d f836 2b2a 5f39 1ef9 4539 76cf 1e3a
000001e0: acda 3637 d64f c136 faec e739 8512 c636
000001f0: 851d a636 c196 a736 dd93 9334 ef59 4334
00000200: 7d6d 1e36 c07f ec35 fb37 7936 d25f ea36
00000210: 087d 3135 bb7b 4037 4c0e bf33 6c6a 4d37
00000220: aa73 4632 f625 4f37 2a30 cd30 a05f 4f37
00000230: 1307 542f 2067 4f37 dc13 db2d 0668 4f37
00000240: bfbf 123a a8e3 6636 ebac d93a 2467 ff38
00000250: 24ee 5f38 248f 7936 3c2e 7037 e066 6936
00000260: a970 8b36 c048 1039 9816 b538 934e a539
00000270: 68d1 b436 7f26 5936 4e4a 3a39 894d 6b36
00000280: ca7d 1c36 6f3f 3036 f920 3134 5d8a e633
00000290: 15e6 c735 c742 8735 51de 0236 9ef0 8d36
000002a0: a37d b834 f248 de36 fe5b 4633 40ea eb36
000002b0: ca01 ce31 2abd ed36 f4fe 5430 c2f9 ed36
000002c0: 5818 dc2e 9701 ee36 d669 632d a602 ee36
000002d0: acb1 7739 4ab8 f535 65f4 ca39 899e 3638
000002e0: 9453 8c37 73ca 7c36 d9eb a936 a0fe e235
000002f0: 241c 1c36 bbc6 2d38 0b8d dd37 a1f2 9138
00000300: a2f1 6a36 788d e535 13d3 7738 1922 ce35
00000310: 7c98 1336 bb86 1936 dc3d 5f33 b919 5633
00000320: b3da b134 0204 aa34 8450 4235 e726 8035
00000330: 4ca6 0d34 bef1 ed35 05e5 9832 f2ba 0036
00000340: 72de 1e31 060b 0236 e944 a42f a136 0236
00000350: d2be 292e 533c 0236 c063 af2c 023d 0236
00000360: 1421 783a d84b ed36 2d0c 393b b945 5f39
00000370: 7978 d838 01b6 1937 0d8b ac37 1b15 d736
00000380: 7e10 f536 adb5 8e39 e494 2539 5a39 0a3a
00000390: 9e40 4737 00d4 c636 77e9 9b39 c2bd c136
000003a0: ddab c536 8ff0 d036 6c0e 5d34 bfb6 1834
000003b0: b1ef 0b36 8446 bc35 42e9 8436 92b7 cd36
000003c0: fa6b 3e35 6b05 3637 5e1b cd33 1dbb 4337
000003d0: 3310 5532 de91 4537 5a4c dc30 02cf 4537
000003e0: 40a4 632f fdd6 4537 e435 eb2d e9d7 4537
000003f0: 26a5 763a a180 2c37 ade6 8d3b 4f83 7639

exp_avg f4 [108]
0.00048077846 -0.0014628437 -0.00030298482 -0.0008122721 -0.00062127283 0.00020255941 -0.0008340023 -0.0011904162
0.00089549157 -0.0008603254 0.0016158257 -0.00013616284 -0.0014844548 -0.00021016083 0.0018126507 0.00033589185
0.0005219721 3.2053824e-05 -0.0013732621 0.00084605557 -0.00035686558 -0.0010718529 -0.0003246136 0.0004262921
0.0015496808 0.00029910952 -0.0011324411 -0.00030451233 -1.9682346e-05 -8.915248e-05 0.00019730629 0.0010711142
0.00016544678 0.0014052326 -4.947751e-05 -0.0004312638 1.7814678e-09 3.64126e-09 -1.9401092e-09 -1.7641785e-09
-2.1640971e-10 9.798518e-11 1.7687806e-09 2.490329e-09 -2.4983333e-09 2.7326512e-09 1.4682408e-09 1.6121225e-09
1.4051033e-09 -6.382838e-10 7.6572004e-10 -2.4047655e-09 -2.3455256e-09 -7.9253015e-10 1.7687614e-09 1.3749982e-09
-1.8453252e-09 2.9214522e-09 1.6295304e-09 -2.161954e-09 2.8917133e-10 -1.1278211e-09 3.8259675e-09 2.6577296e-09
-1.8413674e-09 2.0576842e-09 -2.2356765e-09 -2.7163385e-09 3.0720924e-09 3.1263725e-10 2.5668838e-09 -2.040784e-09
0.0012206167 -0.00034330628 0.00015215413 0.0014424742 -0.0068496843 -0.00097527466 0.022807864 0.008175631
0.0013835845 0.0010663631 0.0115370285 -0.0047038244 -0.035499997 0.0031019659 0.008363269 -0.011851252
-0.00027414298 0.0060858927 0.044652905 -0.007545051 8.0568214e-05 0.0016267111 0.0006460621 0.005291383
0.0011748029 0.00097039394 0.00055066944 0.011790281 0.002286186 0.006459215 0.00053744385 -0.0006365839
0.049289994 -0.008751305 -0.021333039 -0.0056815213
00000000: fe10 fc39 e4bc bfba efd9 9eb9 a8ee 54ba
00000010: eadc 22ba 2166 5439 f2a0 5aba bd07 9cba
00000020: 6cbf 6a3a 7687 61ba 1dca d33a efc6 0eb9
00000030: 0a92 c2ba 9e5e 5cb9 7796 ed3a a41a b039
00000040: f4d4 083a 8871 0638 08ff b3ba d4c9 5d3a
00000050: b019 bbb9 6a7d 8cba e630 aab9 f57f df39
00000060: a91e cb3a cdd1 9c39 6b6e 94ba f4a6 9fb9
00000070: 841b a5b7 60f7 bab8 01e4 4e39 a164 8c3a
00000080: c87b 2d39 c82f b83a 1286 4fb8 3f1b e2b9
00000090: d3d7 f430 b939 7a31 c352 05b1 8377 f2b0
000000a0: ebf1 6daf c178 d72e 6f19 f330 5522 2b31
000000b0: 25af 2bb1 4fc9 3b31 21cb c930 8591 dd30
000000c0: ad1d c130 3b73 2fb0 c27a 5230 1541 25b1
000000d0: ec2e 21b1 5ad9 59b0 c218 f330 73fa bc30
000000e0: 9c9e fdb0 bbc2 4831 01f6 df30 7f91 14b1
000000f0: 3ff9 9e2f ad01 9bb0 9175 8331 46a3 3631
00000100: 5b13 fdb0 2a67 0d31 70a2 19b1 55aa 3ab1
00000110: d21c 5331 c8df ab2f 1965 3031 da3d 0cb1
00000120: 1afd 9f3a cafd b3b9 908b 1f39 6711 bd3a
00000130: 5173 e0bb 93a9 7fba 8fd7 ba3c 15f3 053c
00000140: 6459 b53a 35c5 8b3a ce05 3d3c 8a22 9abb
00000150: 7268 11bd 5a4a 4b3b 1806 093c c12b 42bc
00000160: d9ba 8fb9 2b6c c73b f7e5 363d 7a3c f7bb
00000170: bbf6 a838 5e37 d53a 7e5c 293a 5663 ad3b
00000180: d8fb 993a 0962 7e3a cd5a 103a 062c 413c
00000190: d6d3 153b d3a7 d33b 3fe3 0c3a 6ce0 26ba
000001a0: 4ee4 493d a261 0fbc a0c2 aebc 0e2c babb

exp_avg_sq f4 [108]
4.3093996e-06 2.2013994e-05 3.1350364e-06 1.23624095e-05 7.093277e-06 1.9407087e-06 1.179242e-05 1.6884784e-05
1.0366219e-05 7.0157216e-06 8.95518e-05 5.6918145e-07 2.1404168e-05 9.879224e-07 4.8769823e-05 1.6582413e-06
4.8781776e-06 4.929501e-07 1.792354e-05 1.1229663e-05 5.9648555e-06 1.0807789e-05 1.8519605e-06 5.4518655e-06
3.1007065e-05 5.08275e-06 1.2233317e-05 3.4529207e-06 3.9758504e-07 4.4218575e-07 1.2814427e-06 1.6149987e-05
3.1289346e-06 2.8302875e-05 2.6368898e-06 6.453499e-06 3.9120996e-15 6.829653e-15 3.2804392e-15 7.8528365e-15
4.612632e-15 2.6917537e-16 2.19789e-15 3.0493421e-15 1.9439974e-15 7.247776e-15 4.562488e-15 1.6043076e-15
2.3520159e-15 5.1184024e-17 5.14278e-15 1.0859085e-14 3.0574764e-15 1.5355916e-16 3.4568706e-15 3.8466104e-15
5.497196e-15 7.316281e-15 1.1051116e-15 6.773516e-15 2.4473145e-15 5.293285e-16 8.579083e-15 5.7897675e-15
1.1554649e-15 1.4394192e-15 7.47141e-15 2.294178e-15 4.229244e-15 5.107198e-15 8.810403e-15 4.112542e-15
2.1309366e-05 1.3944415e-05 4.544617e-06 0.0035543852 0.00056227995 1.541948e-05 0.0046162372 0.00083189714
8.2975e-06 1.1062369e-05 0.0016220914 0.0001761925 0.009244545 1.8075514e-05 0.0008719979 0.0015908772
1.6164993e-05 0.003164541 0.019573068 0.0005366842 9.273203e-06 1.3474172e-05 1.2060842e-05 0.00023750447
1.1163682e-05 8.16338e-06 9.780029e-06 0.0015072131 4.8209877e-05 0.00043054562 1.3443747e-05 2.144777e-05
0.018375494 0.0009387017 0.0048416737 0.00022873418
00000000: 7699 9036 b1aa b837 8463 5236 2568 4f37
00000010: c902 ee36 1f3d 0236 0fd8 4537 cca3 8d37
00000020: 92ea 2d37 9768 eb36 c2cd bb38 dac9 1835
00000030: 1a8d b337 c198 8435 338e 4c38 bd90 de35
00000040: 3aaf a336 4653 0435 825a 9637 0967 3c37
00000050: b825 c836 1a53 3537 e190 f835 2bef b636
00000060: 950d 0238 7d8c aa36 b23d 4d37 bab8 6736
00000070: ac73 d534 8c65 ed34 09fe ab35 d579 8737
00000080: b0fa 5136 f66b ed37 6cf5 3036 228b d836
00000090: c0f2 8c27 6e10 f627 6c61 6c27 d176 0d28
000000a0: 0530 a627 462b 9b25 ea5f 1e27 6fba 5b27
000000b0: 6c14 0c27 7890 0228 8661 a427 8134 e726
000000c0: 097b 2927 6e0b 6c24 c649 b927 b19e 4328
000000d0: 7c50 5c27 aa0a 3125 0218 7927 b896 8a27
000000e0: af0e c627 64cc 0328 6c43 9f26 a80a f427
000000f0: fc58 3027 8d91 1826 0a8c 1a28 2e99 d027
00000100: 2185 a626 3271 cf26 cc97 0628 1d50 2527
00000110: e45f 9827 9601 b827 d0b6 1e28 812b 9427
00000120: 84c1 b237 cef2 6937 f67d 9836 b0f0 683b
00000130: f865 133a 1559 8137 ce43 973b ac13 5a3a
00000140: 7e35 0b37 8398 3937 5b9c d43a 50c0 3839
00000150: 6f76 173c dfa0 9737 ca96 643a fb84 d03a
00000160: 0f9a 8737 3064 4f3b b357 a03c 44b0 0c3a
00000170: 1b94 1b37 210f 6237 ec58 4a37 9f0a 7939
00000180: a64b 3b37 73f5 0837 e814 2437 ae8d c53a
00000190: f634 4a38 dbba e139 748c 6137 bcea b337
000001a0: 3488 963c 3413 763a e7a6 9e3b 5dd8 6f39
