SensorFormer/SensorFormer/checkpoints/chpt_AdamW_lr0.0003_ep200.pt (torch, 83227 bytes, 35 tensors)

self_attn.qkv_proj.weight f4 [108, 36]
00000000: 2488 653d d404 0dbe 7630 0cbe 0614 26bf
00000010: ec66 d3bd 3a1e 1dbe 948e 3bbe 6132 37be
00000020: af7c 11bc 075c 093d b9c3 acbd 9632 893e
00000030: 64c7 c4bd d33d b8bd 6820 023c e96f 25bf
00000040: 3ea1 e33e 79bf 4abe 87b2 a8bd 8288 853e
00000050: 0085 eebe 6e7c b33d ee19 34be 1f85 0bbe
00000060: 4728 46be 7a63 16be cb67 f8bd b2a7 d3bd
00000070: 2eb6 03be 33bd abbd b35d 1ebe ef42 29be
00000080: 720a 2fbe 649c 96bc f121 48bd f21b 3cbe
00000090: 1a84 4f3d 0a1d 8fbe bb0e 8bbe b392 27bf
000000a0: 82e5 4ebd 0e2c f2bd 4ce2 4cbe 3aa2 96be
000000b0: 400a f43b 62d4 0f3e 9bc3 9a3d 0df0 3a3e
000000c0: 5726 363d bba6 ae3d ad85 1cbd 287a 24bf
000000d0: 9708 013f 409b 8ebe cf78 27be 5e69 b93e
000000e0: 356d 90be cc23 183d c87e 93bd f7e9 2ebd
000000f0: 90c4 43bd bb3f 24be 08d5 1cbe ba1f 6cbd
00000100: e07d 4dbd fdd3 43be ba0c 2cbd 7390 90bd
00000110: 153e b9bd a617 12be 7be1 03be ee67 77bd
00000120: 75ce d8be 07ee 92bd e3fc 5dbe 9e78 be3d
00000130: f26d 5f3e 536c 823e 0075 8ebd cd3c 3abd
00000140: fc3e 303e fd47 4f3d 0663 d6bc 2a77 adbe
00000150: 00e8 ba3e dd16 8e3e e444 c93e 630e c03d
00000160: aad2 b63d faf7 c03d 0ac5 9a3c 6317 1e3e
00000170: bcff ed3e 5356 f53e 6ec9 41be 2b5c a53d
00000180: 42b4 68be fea5 7ebd 1f90 4ebe 816e 0d3d
00000190: 813a 5ebe 05a7 9ebd bd80 13be fac3 bebd
000001a0: c9a7 47be 62cb 4bbd 2b03 44be 358b 083b
000001b0: 548a cb3e 1b3a cd3e 4871 ed3d d98a ccbd
000001c0: 8eba 05be 1b95 e2bd a7b2 663e b0f7 743e
000001d0: 5c4e 99be dca8 5d3e ed9e c7bd 4905 533e
000001e0: 8fe5 d8be cf66 debd 33e4 96be 4182 6d3c
000001f0: 6697 f23c b6b5 c7be 6531 073e 0cb5 fdbd
00000200: 1606 febe bfa3 69be 327e 24bc aaf1 2ebe
00000210: d9e5 d53d 8d01 ccba 0d62 f13d 5326 a2bd
00000220: b2a3 903d 4296 e9bd 6ef5 c03d 75c8 87bd
00000230: c88a 903d cc60 0b3c d7ff 88bc 6c8a 7d3c
00000240: 6bcc 1cbf 00e3 ecbd 2160 52be 0b0f da3d
00000250: f3d7 263e 8b5c 953e 9c62 aebd 40de c9bd
00000260: 29fd 9f3e 5143 c3bd 0376 88bc 8d99 e3be
00000270: 7114 853e 0825 613e f18d e63e cd60 473c
00000280: 0b44 b6bc cf3f e03e 4aca c5bc 44d7 7fbd
00000290: 1a60 173f 409a 543e 20fa 92bd fa15 f43d
000002a0: 0454 4dbe b901 f23b 46d0 e7bd 91f3 0dbd
000002b0: f1ca 7ebe 7d3b 4ebc 8e6c a2bd d1a1 8bbd
000002c0: cb00 00be 06e0 653c 3957 6bbe ce22 10be
000002d0: 7c4e 0c3f beb6 713e 955f 443e 06ee 13be
000002e0: e4b9 9fbe cee1 41be bb8d 003e e7de 293e
000002f0: ac64 adbe c92c cf3c 7e75 20be 7246 b33e
00000300: efe3 60be fa34 40be b294 edbe 5aa1 97bc
00000310: 550b 4bbe d37b 38be cdb3 9f3d d091 aabd
00000320: 8854 13bf 04f1 eebe 70ba 8b3e 6dd4 a8bd
00000330: bd27 9f3e 71de 0c3e 932e 993e 3681 953d
00000340: 96c7 553e 68a6 033e c832 493e 33d9 a23d
00000350: e57a 963e 541d 2a3e 2a81 b23e 8d27 073d
00000360: bf39 6ebe 9700 dcbe 11a9 9ebc 976e 22bc
00000370: 84c0 923c 676c 47bd 739e 9cbe aee0 cebe
00000380: 7e0f 933e 2e89 c0be c87b 933e 6db6 3a3c
00000390: 2074 8c3d f5de 9c3e e8d8 4c3d dc27 85bd
000003a0: e824 ee3d ab46 963e bea6 173e ef5e 593e
000003b0: e3b2 3c3f 01e9 d93e 452c 8ebb b2f8 e83d
000003c0: 729d 0ebe a106 1d3d 6427 f6bd a9a8 d83d
000003d0: a2d3 bebd 3c78 56bd 7611 c8bd 25f3 193d
000003e0: 36ca a1bd d294 ddbb 43fa 2ebd 5f48 04bd
000003f0: 6823 093e e64e e23d bf31 92be 34f9 c3be
0.056038037 -0.13771373 -0.13690361 -0.64874303 -0.10322365 -0.15343562 -0.18316108 -0.17890312
-0.008879825 0.03353503 -0.08435769 0.26796407 -0.09608343 -0.08996167 0.007942297 -0.64623886
0.44458956 -0.19799604 -0.082371764 0.2608071 -0.46585846 0.087639675 -0.17588016 -0.13625
-0.19351302 -0.14686385 -0.12129172 -0.1033472 -0.12862465 -0.08385696 -0.15465431 -0.1652944
-0.17093828 -0.01838512 -0.048860494 -0.18370035 0.05066309 -0.27951843 -0.27159676 -0.6545822
-0.050511844 -0.11824809 -0.200082 -0.29420644 0.007447511 0.14045861 0.0755684 0.18255635
0.044470157 0.08527895 -0.03821342 -0.64248896 0.5040373 -0.2785282 -0.16354679 0.362132
-0.28208318 0.037143514 -0.07201916 -0.042703595 -0.04779488 -0.16039936 -0.1531564 -0.057647444
-0.050168872 -0.19123836 -0.042004324 -0.070588015 -0.09045044 -0.14266834 -0.12878983 -0.06040185
-0.42345014 -0.07174306 -0.216785 0.0930035 0.21819285 0.2547327 -0.0695591 -0.04546814
0.17211527 0.050605763 -0.026170265 -0.33879977 0.36505127 0.27751818 0.39310372 0.09377744
0.089269 0.09422298 0.018892784 0.15438609 0.46484172 0.47917423 -0.18924496 0.0807422
-0.22725013 -0.06217002 -0.20172165 0.034529213 -0.21702005 -0.077467 -0.14404579 -0.09314723
-0.19497599 -0.049754508 -0.19141833 0.0020834927 0.39753973 0.40083393 0.11593872 -0.099874206
-0.13059446 -0.11063596 0.22529088 0.2392261 -0.29942596 0.21646446 -0.097471096 0.20607485
-0.4236264 -0.10859453 -0.29470977 0.014496387 0.029613208 -0.39005822 0.13202436 -0.123880476
-0.49614018 -0.2281637 -0.010039853 -0.17084375 0.104442306 -0.0015564427 0.1178628 -0.07917466
0.070624724 -0.114056125 0.09421812 -0.06630031 0.070577204 0.008506965 -0.016723556 0.015474897
-0.6124942 -0.11566734 -0.20544483 0.106474005 0.16293316 0.29172167 -0.08514902 -0.09856844
0.31247833 -0.09534324 -0.016657835 -0.44453087 0.25992158 0.21986783 0.45030168 0.012169075
-0.022249242 0.43798682 -0.02414431 -0.062461153 0.59131014 0.20761967 -0.07176614 0.11918254
-0.2005158 0.0073854593 -0.11319022 -0.03465611 -0.24882104 -0.012587425 -0.079308614 -0.068179734
-0.12500302 0.014030462 -0.22982492 -0.14075777 0.5480726 0.23604867 0.19177087 -0.14446267
-0.3119651 -0.18933794 0.12554066 0.16588937 -0.3386587 0.02528991 -0.1566982 0.35014683
-0.2196195 -0.18770209 -0.46402508 -0.018509556 -0.19828542 -0.18015985 0.07797966 -0.08328593
-0.5755086 -0.46668255 0.27290678 -0.08243642 0.31085005 0.1375673 0.29918346 0.07300036
0.20876917 0.12856448 0.19648278 0.07951584 0.29390636 0.1661275 0.3486417 0.032996703
-0.23264216 -0.429692 -0.019367727 -0.009914062 0.017914064 -0.048687365 -0.30589637 -0.40405792
0.28722757 -0.3760466 0.28805375 0.011396033 0.068580866 0.30638853 0.050011545 -0.06501743
0.11628133 0.2935079 0.14809701 0.2122762 0.7371046 0.4256058 -0.0043387734 0.1137556
-0.13927248 0.0383364 -0.12019232 0.10579044 -0.093177095 -0.05236076 -0.097689554 0.037585396
-0.07899897 -0.0067621255 -0.042719137 -0.03229558 0.13392413 0.11050205 -0.28553578 -0.38276064

self_attn.qkv_proj.bias f4 [108]
00000000: d8eb d2bd 5ee8 edbd 06ba 52bd 701b 13bd
00000010: 70fe 63bd 80ae e03d a15e 043d 8b93 0cbe
00000020: 9b84 1abe 4eb9 df3d c56c 75be dabb d6bd
00000030: aae7 833d 9542 ca3d 0ce8 5f3e 7245 11be
00000040: 7d91 633d 8500 793d 1b4d cbbd abe3 aebe
00000050: cd0b e23d a241 78bd 1eca ad3d 4b62 02be
00000060: a7a3 3fbe 3e5e 3cbe a38f 9d3c f820 66be
00000070: 720a 4a3e fd74 d5ba bab4 0fbc 6525 aabe
00000080: 46af 17be f6bf c3bc 56c1 dcbd 85ed 25be
00000090: 1efe 9abb 1a8e 023d c0a3 b2bd 9165 90bd
000000a0: 5fa9 acbb 663b 843c 976e 2e3e 0520 85bd
000000b0: 84dc 89bd f8f6 963c d874 1fbd b068 d83d
000000c0: 8da6 0ebc 31c9 3a3d 7309 193d ef3c 76bd
000000d0: 276e 433d 859a 84bd b3ea 843d 69c1 95bb
000000e0: 0b1f 1f3e a49f 92bd 3b33 0a3e f2ef 623d
000000f0: f605 b43b f3bc 9cbd 4f48 1c3e 9ca6 a8bd
00000100: 7bba 783b 72a3 b9bd fd93 823d a572 4cbd
00000110: 4dde 943d a0cd 8abd dc8f 303c 1fda bebd
00000120: 3f5c 12be b64b f4bd 6233 8dbd a085 49be
00000130: e60e 723e 7534 c63d 2121 08bd 4764 51bd
00000140: ed74 10be 161e 9b3d 6573 f8bd 23f8 14be
00000150: 5ce0 873e 679e 713e 9a5f afbe f8c0 803d
00000160: b7b7 9bbe c321 273e e7ea 123e 09f6 573e
00000170: 523d 0abe a163 673e 48af 1fbd c583 ca3e
00000180: b992 883e 79de 74be 10b6 91bd d604 143e
00000190: 0776 703e 4770 c4bd 528a 77bc 5449 a33e
000001a0: 1683 e33d be97 fb3d c353 8fbe c8f7 7fbe
-0.1029889 -0.11616586 -0.051446937 -0.03591484 -0.055662572 0.10970783 0.032316808 -0.13728158
-0.15089647 0.10924016 -0.23967274 -0.104850486 0.06440671 0.09875981 0.21865863 -0.14186648
0.05555867 0.06079151 -0.09926816 -0.34158072 0.11037407 -0.060609467 0.084858164 -0.12732808
-0.18714772 -0.18395326 0.01923353 -0.22473514 0.19730547 -0.0016285476 -0.008771116 -0.33231655
-0.14812955 -0.023895245 -0.107790634 -0.16203888 -0.00473 0.0318738 -0.08722639 -0.07050622
-0.005269214 0.016141605 0.17034374 -0.06500248 -0.06731513 0.01842831 -0.03892979 0.105668426
-0.008706701 0.045602027 0.037362527 -0.060116705 0.04771247 -0.06474785 0.06490078 -0.0045701754
0.15539186 -0.07159355 0.13496105 0.05540461 0.0054938747 -0.07653227 0.15261959 -0.08234903
0.0037952948 -0.09064378 0.06375883 -0.04991402 0.07268963 -0.06777501 0.010776486 -0.09318947
-0.14293002 -0.11928503 -0.06894566 -0.1967988 0.23638496 0.09677974 -0.03323472 -0.051121023
-0.14107104 0.07574098 -0.12131385 -0.14547782 0.2653836 0.23595582 -0.34252626 0.06286806
-0.304136 0.16321473 0.1434742 0.21089949 -0.13499954 0.22596599 -0.03898552 0.39553657
0.2667444 -0.23912992 -0.07114804 0.1445497 0.23482524 -0.09591728 -0.015108662 0.31891882
0.11108987 0.12284802 -0.27993593 -0.24996865

self_attn.o_proj.weight f4 [36, 36]
00000000: b272 abbc 651f e5bd 28fd 89bc 21df 593e
00000010: 0870 8d3e 3f38 a3bc 840b 86be 5e1f 47bd
00000020: 7bed 963d bbf7 513d 2f32 37be c8c2 173e
00000030: 3174 a63d d2ff cc3c f8b0 4cbe cdac c03d
00000040: af83 d93e c95a f5bc 7e34 22bc 6663 043e
00000050: f9bf 3ebe e1f6 4b3e e2da e33d 230d 113e
00000060: 6945 f8be ac1e 0bbe 676c f1bc 1284 9c3c
00000070: 10dd ecbe 3613 26be 18b0 10be a5f6 693e
00000080: 1238 6239 4dca 473e b50f ef3e e453 373d
00000090: ac8e ed3d ae5b 143e 9225 313c a649 a3bd
000000a0: eb6b 393d 96ec ebbd c53b 433e 8ea7 5b3c
000000b0: 75e4 523c 2349 633d e317 0d3d 162a 3bbb
000000c0: b313 10be 0da7 0d3e 0a41 d93d 1764 ff3d
000000d0: 3f48 b5be 25f5 31bb e104 d13c 3c5e cf3d
000000e0: a45c a83d 9d90 8cbc b394 7a3c 85e0 34bd
000000f0: f403 633e ee40 92bc 154d ca3d 8592 1abb
00000100: ee82 9e3e af78 91bd b32e 8bbd 3c6b 163d
00000110: 2620 06be 3c6f 873d 3706 87be a84c 95bd
00000120: 8bf9 533d 8704 0abc a9de 473e 8a87 d3bd
00000130: 2fec 03be 59f5 853b bdff 5a3e 051f 9e3b
00000140: 1ac4 c23d aa3e 113d 89cc d13d e040 9b3e
00000150: 3783 87bd 71b5 103e 4b7c 4f3d ede1 d8bd
00000160: aaf4 a9bd c0be 3bbe a72d 9abe 7339 5c3d
00000170: 1331 5a3d c103 9cbe f7cd 593d b049 f1bd
00000180: 56d2 483e 7a31 793e e93b fdbd bc3d 663d
00000190: be55 b53e 4613 fa3d 8ea4 edbc 99b8 7cbd
000001a0: 751b 4abe 12ae 1fbe ee32 25bd e880 2f3d
000001b0: bad5 993c c246 9fbd daf8 653e 9b11 51be
000001c0: 3617 24be 27e2 16bb 1018 b53e 81da af3e
000001d0: f909 193e 81db a63d 2db0 783e bf42 523e
000001e0: 1fb8 87bd d554 22bd 5edd 503e 7bad 47be
000001f0: 8eb4 c23e 95a1 a63d 06d1 b0be e6f3 4fbe
00000200: 0cb6 9dbd bc5d 5bbe 7e3d f73d 914e 84be
00000210: 14dd 60bd 2861 863e 8f31 8c3d c236 d93c
00000220: fc38 fcbc 783b 513e f737 e73b e4c3 2ebe
00000230: 90c1 92be a79b 79be 9984 343f dfc0 673e
00000240: a025 233e 0570 7b3d 7997 5bbe 912f 1ebf
00000250: 1b4a 41be 9a29 b7bd 877f b23e d6f9 a5be
00000260: 3e7c f3bd eb06 16be 51f8 49bf 15eb 7f3f
00000270: 353a 48be 9558 0b3f fbe1 583e bab3 f73e
00000280: cb06 c43d e2c5 b7bd 9695 31bf 391d 593f
00000290: 51ae 003e bbe5 1cbf 2929 4b3e 5746 64ba
000002a0: 5388 c63d 4377 4c3f ec4d 453c 8500 b5bd
000002b0: 8fec 0abd e743 96be d3af e2bc 9617 3dbe
000002c0: 63b5 4dbf cccc ee3e 75b6 ac3e 1bf6 ee3e
000002d0: 9023 f0bb 2948 9f3d a09f 8ebd 2e03 d33e
000002e0: 3ad1 733e 113e f2bc 5056 c5be ca3b 643d
000002f0: b5e8 eabd 85b8 61bd 6399 d23d 073a 92be
00000300: fa31 063d dba7 7abe c014 4b3d a3b2 7dbc
00000310: e2ba d53d dcd9 febd a860 983e 87a6 3ebe
00000320: 39ef 1dbe 4f94 223e f1d5 153e e2af 15bd
00000330: 71fb 95be 2cb7 8abe d1d8 0fbd bccb d1bc
00000340: 9435 cabe 2582 2fbe 47d6 ab3d 757b 7dbd
00000350: c1d2 bb3e 921c 273d 7b3e 1f3e 6447 22be
00000360: 3daa f8bc 5677 a3bd 56da ad3c fdde 533c
00000370: 5438 003e 08eb 163e b075 cbbd 24e3 d3bc
00000380: 0e1e 08be 1b3a 793d 1d2e c2bc 85d7 27be
00000390: e2ed 253d 2043 e13d afd3 b83d 7574 1b3e
000003a0: 39c6 c7be d04e 193e 049c b13d b12b 0e3e
000003b0: 5ef1 87bd f347 b53d 669a 2c3c 428d 073e
000003c0: ab22 193e aea1 13be c763 06be 451f bdbd
000003d0: 9c71 b23e 14ed 13be a820 ffbd a3e5 b33d
000003e0: ee54 643e 7341 1d3e e5f5 0ebf 9217 4ebd
000003f0: 25fb ae3d 9773 e63d d913 143e 2040 84bc
-0.020928714 -0.11187629 -0.016844347 0.21276523 0.27624536 -0.019924281 -0.2618066 -0.0486139
0.073695146 0.051261645 -0.17890237 0.14820397 0.081276305 0.025024328 -0.19989383 0.09407959
0.4248328 -0.029950516 -0.00990021 0.12928542 -0.1862792 0.19918396 0.11125733 0.14165168
-0.48490456 -0.13585919 -0.029470636 0.019105945 -0.46262407 -0.16218266 -0.14129674 0.22847994
0.00021573927 0.19510765 0.4669167 0.04475774 0.11599478 0.14488098 0.01081218 -0.07973032
0.045268934 -0.115197346 0.19065769 0.013406647 0.012871851 0.05548967 0.03444661 -0.002855902
-0.14070015 0.13833256 0.10608108 0.124702625 -0.35406682 -0.0027154174 0.025515022 0.10125396
0.08220795 -0.0171588 0.015294242 -0.04415943 0.22169477 -0.017853227 0.098779835 -0.0023585868
0.30959266 -0.07103097 -0.067960165 0.03672336 -0.13098201 0.06613013 -0.2637193 -0.07290012
0.051751655 -0.008423931 0.19518532 -0.103285864 -0.12883066 0.0040880856 0.21386619 0.004825475
0.0951006 0.03546015 0.1024409 0.30322933 -0.06616824 0.14131714 0.050655644 -0.10589967
-0.08298619 -0.18334484 -0.30112955 0.053765725 0.053269457 -0.30471614 0.05317494 -0.11781633
0.19611487 0.2433528 -0.123649426 0.05621122 0.3541698 0.12210707 -0.02900913 -0.061699484
-0.19737037 -0.15593746 -0.040331773 0.042847544 0.01877867 -0.07777168 0.2245821 -0.20416872
-0.1602448 -0.002302298 0.3536992 0.34346393 0.1494521 0.08147336 0.24285956 0.20533274
-0.06626915 -0.039631683 0.20396945 -0.19499771 0.38028377 0.08136288 -0.34534472 -0.20307884
-0.07700738 -0.21422476 0.120722756 -0.2584119 -0.054898337 0.26246 0.0684539 0.026515368
-0.030788891 0.20432842 0.007056232 -0.17066914 -0.286633 -0.24375783 0.7051483 0.22632168
0.15932322 0.061386127 -0.21444501 -0.6179133 -0.18875925 -0.08943482 0.3486292 -0.32417172
-0.11888932 -0.14651076 -0.78894526 0.9996808 -0.19553454 0.5443204 0.21179955 0.48379308
0.09571608 -0.0897329 -0.69368875 0.84810215 0.12566496 -0.6128804 0.1983992 -0.0008707991
0.096939705 0.7986948 0.012042504 -0.0883799 -0.033917006 -0.2934868 -0.02767173 -0.18466029
-0.803549 0.46640623 0.33732954 0.4667214 -0.007328458 0.07777435 -0.0696404 0.41213363
0.23810282 -0.029570611 -0.38542414 0.05572108 -0.114701666 -0.055107612 0.102831624 -0.28559896
0.032762505 -0.24478094 0.049580336 -0.015484485 0.10436036 -0.12443897 0.29761243 -0.18618213
-0.15423287 0.15876888 0.14632393 -0.036544688 -0.29293397 -0.27092874 -0.03511888 -0.025609843
-0.39494002 -0.1713949 0.083904795 -0.061885316 0.3668423 0.04079873 0.15551178 -0.15847546
-0.030354613 -0.07981746 0.021222275 0.0129315825 0.12521487 0.14738095 -0.099345565 -0.025865145
-0.13292715 0.06084643 -0.02370363 -0.16390808 0.040510066 0.10999131 0.090247504 0.15181144
-0.3901842 0.14971471 0.08672336 0.13883854 -0.06637834 0.08851614 0.010534858 0.1323748
0.14954631 -0.14417145 -0.13124 -0.0923448 0.34852302 -0.14445907 -0.124574006 0.08784034
0.22298023 0.15356998 -0.55843955 -0.050315447 0.08543996 0.11252516 0.14460696 -0.016143858

self_attn.o_proj.bias f4 [36]
00000000: 39e3 0dbe 93df b43e 7075 163e e415 1dbf
00000010: 4759 983e b1a5 a0be 0573 de3e 6458 0b3e
00000020: 44df d3be 38a4 323e 588c 59be e0c7 fc3e
00000030: 65d2 02bf dfd9 83be bee7 04bf 2cf2 163e
00000040: 54e1 f63e 5518 0abf f228 fcbe ac31 ae3e
00000050: 9ba7 efbe 875f c83e e65f 9bbe 1ba6 273f
00000060: a5de d63e 6f8f b1be bf23 1c3f f64e 303f
00000070: bcc0 80be 720c 18bf f96d ec3e 4065 0d3f
00000080: dcba f33e be1e 86be 0d4e 97be 06ca e7be
-0.1385621 0.35326824 0.14693236 -0.6136153 0.29755613 -0.31376413 0.43447128 0.13607937
-0.41381276 0.17445457 -0.21244943 0.49371243 -0.51102287 -0.2575216 -0.5191611 0.14740819
0.48218787 -0.5394338 -0.4924999 0.34022272 -0.4680756 0.39135382 -0.30346602 0.6548783
0.4196674 -0.34679744 0.60992044 0.68870485 -0.25147045 -0.5939399 0.46177652 0.5523262
0.476035 -0.2619533 -0.29551736 -0.4527132

fc.weight f4 [1, 18]
00000000: 58e4 e9bd e253 71be 4fef 613e 40ea a2bd
00000010: 56d1 56be 40f6 2dbe 8197 6f3d a668 143e
00000020: 2640 c73c 809b 163d 1261 06bd 3897 203d
00000030: dfda a3bc 9328 413e d708 b53d 640e cfbd
00000040: bb77 ab3d d351 a9bd
-0.11420506 -0.23567155 0.22063945 -0.07954836 -0.20978293 -0.16988468 0.058494095 0.14493045
0.02432258 0.03676939 -0.032807417 0.039206713 -0.020001827 0.18863134 0.08839577 -0.10110167
0.08372446 -0.0826756

fc1.weight f4 [1, 36]
00000000: 9cac c8bf 6675 a63f 1c82 9f3f 2538 83bf
00000010: 1da6 243f 17f5 84bf 4b35 bb3f 2bf9 df3f
00000020: 9e39 25bf 4667 c93f eda4 d0bf 0bc6 183f
00000030: 47ee 8dbf 2dc6 f2be e51f 1fbf c5a0 ad3f
00000040: 48e8 323f 8125 69bf b7e2 5cbf 37d0 613f
00000050: 5faa 64bf 19af 723f 150d 2bbf 1c5f 5a3f
00000060: 3c10 833f b461 1dbf d02d 563f 7463 3c3f
00000070: 11ed 94bf 8386 42bf 3ca6 8f3f f2ec 933f
00000080: c7d7 463f 0adb b4bf 5f28 ccbf 17ad 6cbf
-1.5677676 1.3004577 1.2461581 -1.0251509 0.6431597 -1.0387295 1.4625639 1.7497915
-0.6454104 1.5734642 -1.6300331 0.5967719 -1.1088341 -0.4741682 -0.6215804 1.3564688
0.69885683 -0.9107285 -0.8628344 0.88208336 -0.89322466 0.9479843 -0.66816837 0.85301375
1.0239329 -0.6147721 0.83663654 0.73589253 -1.1634847 -0.759865 1.1222606 1.1556685
0.77673 -1.4129345 -1.594982 -0.92451614

fc2.weight f4 [1, 9]
00000000: 2c47 9cbe 6255 a5be 5bc5 aebd 1675 f7bc
00000010: a8fa 7f3e aee9 5ebe 2c4b a5be 56b9 a83a
00000020: e40d 9ebe
-0.3052305 -0.32291704 -0.08533736 -0.030207198 0.24997962 -0.21768829 -0.32283914 0.0012872617
-0.30869973

fc3.weight f4 [1, 2]
00000000: 9b81 023f c8dc 15bf
0.5097901 -0.5854001

input_fc.weight f4 [18, 3]
00000000: e9f4 f8bd 9e62 f83e b798 8cbd 6d0d 623e
00000010: f964 4fbe 9776 00be bfe8 bc3e 3536 42be
00000020: 7613 643e be93 253e aaec e4be 07c4 7b3e
00000030: f8cd a23c b678 773c 75d6 8d3b f40a 2f3b
00000040: fddb 2e3c ff84 babb 511f fb3b 76c0 af3b
00000050: 7c78 933c e7ab b23e 3ad2 29be b83b bfbe
00000060: 30ed 73bd 00d2 8c3c 7e36 ae3d a6cb 8a3e
00000070: ed33 d1bd 5e26 f6be adeb 8ebe 53f0 133e
00000080: e18c ce3e 27de 91be c762 ed3e 82ba 433e
00000090: 7d4c 1aba d86b c33b 3ce6 0e3a 1056 643c
000000a0: a567 613c 01b6 953c 0d16 203e 339c bdbe
000000b0: b083 74bd a3fc b33e 4b23 b2be c62a e63c
000000c0: 67b0 a1be e5c8 c63e 30d9 20be 0b7b 193e
000000d0: e982 e0be e95b 243e
-0.12156088 0.4851274 -0.068650655 0.22075434 -0.20253362 -0.12545238 0.3689632 -0.18965991
0.22273049 0.1616964 -0.4471181 0.24586497 0.019873604 0.015104463 0.004328544 0.002670941
0.0106725665 -0.005692124 0.0076636453 0.0053635193 0.018001787 0.34896776 -0.16584101 -0.3735025
-0.05955237 0.01718998 0.08506487 0.27108496 -0.10214982 -0.48076147 -0.2791418 0.14447145
0.40341857 -0.284898 0.46364424 0.19114116 -0.00058860314 0.0059637837 0.0005451178 0.0139365345
0.013757621 0.018275263 0.15633412 -0.37033233 -0.0596959 0.35153684 -0.3479255 0.028096568
-0.31579897 0.38825145 -0.1570785 0.14988343 -0.43849877 0.16050686

input_fc.bias f4 [18]
00000000: 2afd 9dbe a519 953e 6ff5 81bd c3d5 3d3d
00000010: c5d3 8a3d 6eb0 993e adbe 853e 5f05 933e
00000020: 0a92 3c3e 8836 433e 7ce1 8ebe 3111 9bbe
00000030: f92b 043e c3d1 7dbd 58cb 4f3e ce81 c93d
00000040: e43c e73c 80c8 e33e
-0.3085721 0.29121128 -0.06345641 0.046346437 0.06778673 0.30017418 0.26122037 0.28715035
0.18415084 0.19063771 -0.27906406 -0.30286554 0.12907399 -0.061967622 0.20292413 0.098392114
0.028227277 0.44488907

norm.weight f4 [36]
00000000: 0000 803f 0000 803f 0000 803f 0000 803f
00000010: 0000 803f 0000 803f 0000 803f 0000 803f
00000020: 0000 803f 0000 803f 0000 803f 0000 803f
00000030: 0000 803f 0000 803f 0000 803f 0000 803f
00000040: 0000 803f 0000 803f 0000 803f 0000 803f
00000050: 0000 803f 0000 803f 0000 803f 0000 803f
00000060: 0000 803f 0000 803f 0000 803f 0000 803f
00000070: 0000 803f 0000 803f 0000 803f 0000 803f
00000080: 0000 803f 0000 803f 0000 803f 0000 803f
1.0 1.0 1.0 1.0 1.0 1.0 1.0 1.0
1.0 1.0 1.0 1.0 1.0 1.0 1.0 1.0
1.0 1.0 1.0 1.0 1.0 1.0 1.0 1.0
1.0 1.0 1.0 1.0 1.0 1.0 1.0 1.0
1.0 1.0 1.0 1.0

norm.bias f4 [36]
00000000: 0000 0000 0000 0000 0000 0000 0000 0000
00000010: 0000 0000 0000 0000 0000 0000 0000 0000
00000020: 0000 0000 0000 0000 0000 0000 0000 0000
00000030: 0000 0000 0000 0000 0000 0000 0000 0000
00000040: 0000 0000 0000 0000 0000 0000 0000 0000
00000050: 0000 0000 0000 0000 0000 0000 0000 0000
00000060: 0000 0000 0000 0000 0000 0000 0000 0000
00000070: 0000 0000 0000 0000 0000 0000 0000 0000
00000080: 0000 0000 0000 0000 0000 0000 0000 0000
0.0 0.0 0.0 0.0 0.0 0.0 0.0 0.0
0.0 0.0 0.0 0.0 0.0 0.0 0.0 0.0
0.0 0.0 0.0 0.0 0.0 0.0 0.0 0.0
0.0 0.0 0.0 0.0 0.0 0.0 0.0 0.0
0.0 0.0 0.0 0.0

norm1.weight f4 [9]
00000000: 0000 803f 0000 803f 0000 803f 0000 803f
00000010: 0000 803f 0000 803f 0000 803f 0000 803f
00000020: 0000 803f
1.0 1.0 1.0 1.0 1.0 1.0 1.0 1.0
1.0

norm1.bias f4 [9]
00000000: 0000 0000 0000 0000 0000 0000 0000 0000
00000010: 0000 0000 0000 0000 0000 0000 0000 0000
00000020: 0000 0000
0.0 0.0 0.0 0.0 0.0 0.0 0.0 0.0
0.0

norm2.weight f4 [9]
00000000: 0000 803f 0000 803f 0000 803f 0000 803f
00000010: 0000 803f 0000 803f 0000 803f 0000 803f
00000020: 0000 803f
1.0 1.0 1.0 1.0 1.0 1.0 1.0 1.0
1.0

norm2.bias f4 [9]
00000000: 0000 0000 0000 0000 0000 0000 0000 0000
00000010: 0000 0000 0000 0000 0000 0000 0000 0000
00000020: 0000 0000
0.0 0.0 0.0 0.0 0.0 0.0 0.0 0.0
0.0

m.running_mean f4 [12]
00000000: c8db 243f b349 2b3f 0ec1 263f 5ef5 1d3f
00000010: 7480 193f 1077 1d3f 1e54 253f 4aad 273f
00000020: ae5f 213f 7b19 153f 2ad9 0c3f e164 0e3f
0.6439786 0.6690933 0.6513833 0.61702526 0.5996163 0.615098 0.6458148 0.65498793
0.6303662 0.58242005 0.55018866 0.5562268

m.running_var f4 [12]
00000000: 3e3a b144 798e b044 def0 af44 42cd af44
00000010: 0804 b044 7643 b044 162a b044 55cb af44
00000020: 224f af44 e33e af44 9ca9 af44 583f b044
1417.8201 1412.4523 1407.5271 1406.4143 1408.126 1410.1082 1409.3152 1406.3541
1402.4729 1401.9652 1405.3003 1409.9795

linear_net.0.weight f4 [9, 18]
00000000: 97c3 703e c427 8e3d 7dc1 6f3d f769 663e
00000010: f0b9 00be 57cf 103e c285 0abe 9874 893d
00000020: ef30 6ebe 385c fabc 5888 5a3e d5c1 603e
00000030: 1a91 42bd 8130 e9bd 73d6 ccbc b2bc 1d3e
00000040: 0de2 733d 609f a5bd 2367 d2bd 21cd 1d3e
00000050: 864a 1fbe 42cb c0bd cca3 11bd eea4 613e
00000060: 1e68 393e bbc3 363e 4c68 23be 4284 a63d
00000070: 9aba 84bc 03ea ef3d 81a8 1f3e 9fd9 3cbe
00000080: 930d 43be 842d dd3c f138 6ebe a610 2e3e
00000090: bdb7 2ebe d842 0cbe 2bfd 893a d18e 093e
000000a0: 01bb 523e d842 323d 78e4 4d3e 5937 cb3d
000000b0: c0c7 6c3e ecf3 6dbd 023e 75bd 4256 95bd
000000c0: 45f6 23bd 1a26 4cbe a945 903d c720 2d3e
000000d0: 71ce f83d 684a 18be b2c2 5a3e d3c7 1dba
000000e0: 2579 e9bb c85d 51be c635 d3bd 8cec 9b3d
000000f0: c12e ea3c cc47 1abe 18e0 5f3e e72d ca3d
00000100: 5245 053e b066 0cbe 54e9 c2bd a3f4 963d
00000110: 6574 62be 010e e23d e22e 473c 7143 1a3e
00000120: dd37 393e 59cf 3e3d 68d0 fb3d 83a1 b33b
00000130: f671 6b3e 1d4b d6bc 93b5 14be 6819 01bd
00000140: f7dc 35be f156 0dbe 1bd4 523d 6c76 3a3e
00000150: 8fa8 443e 93d0 353e 172f 4e3e 878a 573e
00000160: 0a2d 11be a068 93bd 48b0 db3d a19e bdbd
00000170: ddb3 24bd 8f22 4c3e 0042 a8bc a31a 60bd
00000180: 5279 c63d b621 6c3e a70b d0bd 8988 fcbc
00000190: faba 56be ca4b e43c 2a48 c73c bd17 223e
000001a0: fc2f 45be 0387 15be c2d5 3b3e 928d d9bd
000001b0: bd52 7e3c 2f9f 4f3e 409c 513e 64dc 71bc
000001c0: 1b26 64be ee0d 46be fdbf 67be 694a 67bc
000001d0: cdb6 3bbe 1fbd 433e 0783 51be 4152 8fbd
000001e0: fbd3 ce3d 9da6 cbbd a2b3 343e 1d9a 4e3d
000001f0: 25d4 673e 93a3 093d 866a 133e 27d2 54be
00000200: c324 cdbd 21e4 d73d a183 b7bd aa12 9f3d
00000210: 5312 12be c095 3f3d f922 ec3c 5113 05be
00000220: 6d54 bcbb 2eba 3a3e 1c4b 32be 01f9 1f3d
00000230: c030 033e fe58 5e3e 3ee5 5bbe de62 da3d
00000240: b079 653e 142c 253e c52d 50be 3a0b 0cbd
00000250: 35ab ecbc 11c1 0abd 7a36 8b3c b714 7b3c
00000260: 33b2 ff3d 0225 3dbe e531 2abe 70df e9bb
00000270: 5a64 63be e5ac 6c3e b863 2c3e e773 d5bd
00000280: b8ca 2b3e 9879 d8bd
0.23512112 0.069411784 0.058534134 0.2250136 -0.1257093 0.14141594 -0.13527587 0.067116916
-0.23260854 -0.030561551 0.21341074 0.21948941 -0.04750166 -0.113862045 -0.025004601 0.15404013
0.05954175 -0.08087039 -0.10273578 0.15410282 -0.15555772 -0.09413768 -0.0355566 0.22035572
0.18106124 0.17848103 -0.15957755 0.08130695 -0.01620226 0.11714556 0.15591623 -0.18442391
-0.19048147 0.026999243 -0.23263909 0.16998538 -0.17062278 -0.13697374 0.001052772 0.13433386
0.20579149 0.04352078 0.20106685 0.09922666 0.23123074 -0.05809395 -0.05987359 -0.07291843
-0.040029783 -0.1993641 0.070445366 0.16907035 0.121487506 -0.14872134 0.21363333 -0.0006018851
-0.0071250373 -0.20445931 -0.10312991 0.07613477 0.028586747 -0.15066451 0.21862829 0.098720364
0.13014725 -0.13711047 -0.0951716 0.073708795 -0.22114713 0.11037827 0.012157174 0.1506479
0.18087716 0.04658446 0.1229561 0.0054819 0.22992691 -0.026158864 -0.1452239 -0.03151837
-0.17760073 -0.13802697 0.05147181 0.18209237 0.19204925 0.17755346 0.20135151 0.21048938
-0.14177337 -0.0719769 0.10726982 -0.09258772 -0.040210593 0.19935058 -0.020539284 -0.054712903
0.09691109 0.23059735 -0.101584725 -0.030826824 -0.20969763 0.02786817 0.024326403 0.15829368
-0.19256586 -0.14602284 0.18343261 -0.106227055 0.015522656 0.20275567 0.20469761 -0.014762018
-0.22280161 -0.19341251 -0.22631831 -0.014116862 -0.18331452 0.19115113 -0.20460139 -0.069981106
0.10099026 -0.09943888 0.1764665 0.050439943 0.2263952 0.033603262 0.14396104 -0.20783292
-0.10016777 0.10541559 -0.08960653 0.07767232 -0.14264803 0.046773672 0.02882527 -0.1299565
-0.005747369 0.18235084 -0.17411464 0.039055828 0.12811565 0.21713635 -0.21474168 0.10663389
0.22409701 0.16130096 -0.2032996 -0.034190394 -0.028890232 -0.03387553 0.01699375 0.015324763
0.12485161 -0.18471149 -0.16620596 -0.0071372315 -0.2220625 0.23112829 0.16834915 -0.10422497
0.1677655 -0.10570067

linear_net.0.bias f4 [9]
00000000: 3cc8 d3ba 6414 4ebe 91f8 053c 5e6d a13d
00000010: 57fb c7bd a5fc 053e f6d8 17bb 8255 013e
00000020: 4d93 6d3e
-0.0016157697 -0.20124966 0.008176939 0.07882188 -0.09764736 0.13084657 -0.002317009 0.12630275
0.23200722

linear_net.2.weight f4 [1, 9]
00000000: b026 6ebe ebee 6ebe 2cbf 803e a083 92bd
00000010: b8d8 74be 6b6d 353d 93d5 6abe 82a5 a63e
00000020: bb62 203e
-0.23256946 -0.23333327 0.25145853 -0.07154012 -0.23910797 0.044293802 -0.22933035 0.32548147
0.15662663

exp_avg f4 [108, 36]
00000000: 6310 cfba ca32 6d39 4352 43bb b9dc 8fb7
00000010: 6019 69b9 b678 9cb8 67ab 42b9 8450 0f3a
00000020: 7758 19b9 0bb3 b83a cb17 93ba 0626 e7ba
00000030: c6dc 30b8 c134 67b9 f8f0 b93a c007 44ba
00000040: f076 813a 8fef fa39 1fa2 9fb4 fdf9 d137
00000050: 519d 73b8 c8dd 0b38 8c2f eab8 7d59 01b9
00000060: 67c3 47b8 ddc1 38b9 f6b8 92b7 f3c3 40b9
00000070: 7d81 d3b6 90d0 41b9 c913 18b6 50f3 41b9
00000080: 0aa0 5ab5 cff7 41b9 f923 9db4 63f8 41b9
00000090: c736 8eba b305 3f39 3b71 fdba d0ab be37
000000a0: a497 15b9 1ee6 48b8 e210 fab8 b35a d739
000000b0: 43e6 d5b8 0518 7f3a 0ea6 4dba be97 a0ba
000000c0: 1b3e e5b7 9a9a 14b9 ce39 803a eaca e8b9
000000d0: cc09 1f3a ed98 b839 8a9a 10b6 f532 6e37
000000e0: 3b9d 29b8 513b ca37 869d 9db8 70c8 acb8
000000f0: 521f 06b8 dace f6b8 70f6 44b7 c4be 00b9
00000100: 85f5 8db6 e471 01b9 6c24 ccb5 1089 01b9
00000110: 92bc 12b5 0e8c 01b9 55f0 52b4 718c 01b9
00000120: 640b 1c3a 4f63 7338 cd97 e93a ff7b 6439
00000130: 61e5 0e39 a3ca 3d38 24dd ee38 4929 18b8
00000140: 868c 4c38 1f32 0dba ad7f c539 9ac0 1e3a
00000150: 58ce d237 ed1f 0a39 baaa 08ba e70c 313a
00000160: 857b 4eba 0331 1fb8 bef0 5636 5eef 4eb6
00000170: 19dc 9b37 6bcd 76b7 7ca7 5d38 d071 7f38
00000180: 051b bf37 8ffc b638 d287 0c37 55fb be38
00000190: 489c 4a36 8b07 c038 24af 9135 3e2a c038
000001a0: 566f d134 ba2e c038 f388 1634 4e2f c038
000001b0: 8f7a 1639 ef6e 3138 5b38 fd39 c334 6738
000001c0: 0cfe 3738 0651 7e37 86e7 1538 24dc 5538
000001d0: 5a9b df36 4e3d a8b8 6ca4 3438 3151 eb38
000001e0: 8f51 f936 8af8 3738 5eb5 e9b8 58be 5a39
000001f0: 8c06 6cb9 5cdc c8b6 1415 14b7 c971 0cb8
00000200: 2a66 6135 528d 45b8 c2f0 0e38 7b22 79b5
00000210: d67d 7f37 5b93 9937 77ab bc36 0f49 b137
00000220: ad14 0836 f365 b437 19b5 4335 1acd b437
00000230: e4ac 8c34 69da b437 d139 ca33 22dc b437
00000240: 88cd f139 0f3d 74b8 08e7 803a da78 6838
00000250: 51ae 8d38 426c b937 e0e2 7038 4db8 38b9
00000260: bd7f 4238 5c8f f2b9 0890 be39 1ee3 0b3a
00000270: e990 6137 c2f6 8738 40b8 deb9 919a 8e39
00000280: 2fb5 bbb9 888e e0b8 c0e8 3837 0d0e db37
00000290: d817 ba37 ab95 de37 6a67 8c37 3957 6238
000002a0: 27a9 d936 876b 7838 68ed 1d36 3062 7b38
000002b0: d44c 6335 a5c4 7b38 7f66 a334 5cd1 7b38
000002c0: 94e5 ea33 02d3 7b38 e4d5 2833 3cd3 7b38
000002d0: 6695 14ba 6df3 6fb7 bca3 caba b877 2db9
000002e0: 053a f2b8 116d 20b8 bd9b cbb8 6d52 c638
000002f0: ef1f 55b8 5114 0c3a c74b ccb9 c32c 1eba
00000300: d08e b5b7 0b92 eab8 2c7c 043a c343 0fba
00000310: 2b72 2b3a dcaa 8838 5286 d2b6 df58 40b7
00000320: 968a cab7 fabd 7ab7 5d49 12b8 fa7d 89b8
00000330: ca5a 74b7 dc72 a9b8 e701 b3b6 ab02 aeb8
00000340: d2fa 00b6 729b aeb8 6f78 39b5 34af aeb8
00000350: 8f50 85b4 c2b1 aeb8 eda4 bfb3 16b2 aeb8
00000360: 8df0 69ba c936 0cb9 452a 35bb 782a aeb9
00000370: f3dd 69b9 06d7 9db8 c115 42b9 52ca 35b8
00000380: 5065 88b8 e6c5 3e3a fb99 ffb9 e4a9 5fba
00000390: 0361 29b8 0bd8 63b9 9ebf 463a 18d8 8eba
000003a0: 14b0 a23a fce8 5338 1e85 b436 044b 4538
000003b0: 6600 fdb7 ae70 b238 76b7 e5b8 c800 95b8
000003c0: b4c1 47b8 28a9 05b9 e00a 93b7 a740 0eb9
000003d0: de06 d4b6 0261 0fb9 1975 18b6 5386 0fb9
000003e0: 2f2c 5bb5 248b 0fb9 bd88 9db4 c48b 0fb9
000003f0: b883 1aba 2bde 7639 6db8 edb9 ea2a 4d39
-0.001579773 0.00022621002 -0.002980367 -1.714971e-05 -0.00022230064 -7.461144e-05 -0.00018565134 0.0005467015
-0.00014624173 0.0014091445 -0.0011222301 -0.0017635233 -4.216728e-05 -0.00022049529 0.0014186194 -0.00074779615
0.0009877365 0.000478622 -2.9734016e-07 2.5031151e-05 -5.8082227e-05 3.3346732e-05 -0.00011166846 -0.00012335736
-4.762728e-05 -0.00017619827 -1.7490685e-05 -0.00018383544 -6.3033644e-06 -0.0001848361 -2.2661281e-06 -0.00018496555
-8.1444216e-07 -0.0001849823 -2.9269702e-07 -0.00018498446 -0.0010850065 0.00018217303 -0.0019336113 2.2729771e-05
-0.00014266238 -4.789803e-05 -0.000119240736 0.00041075572 -0.00010199521 0.0009731057 -0.00078448735 -0.0012252254
-2.7327847e-05 -0.00014171973 0.0009782852 -0.0004440167 0.00060668285 0.00035209153 -2.1547626e-06 1.419777e-05
-4.0439172e-05 2.4107898e-05 -7.5156844e-05 -8.2389335e-05 -3.197726e-05 -0.00011768723 -1.1739889e-05 -0.00012278097
-4.2307097e-06 -0.00012344826 -1.5209785e-06 -0.00012353458 -5.4663644e-07 -0.00012354573 -1.9645206e-07 -0.00012354717
0.0005952625 5.8028203e-05 0.0017821729 0.00021789967 0.00013627626 4.524983e-05 0.00011389915 -3.6278074e-05
4.8768263e-05 -0.0005386192 0.00037669894 0.00060559215 2.5130037e-05 0.00013172599 -0.00052134285 0.0006753937
-0.0007876682 -3.79542e-05 3.2028615e-06 -3.0835722e-06 1.857993e-05 -1.471057e-05 5.2846488e-05 6.0902734e-05
2.2781556e-05 8.725479e-05 8.376273e-06 9.10672e-05 3.0191313e-06 9.1566784e-05 1.0854314e-06 9.163142e-05
3.901029e-07 9.163977e-05 1.401966e-07 9.1640846e-05 0.00014350771 4.2303403e-05 0.00048297909 5.512383e-05
4.38672e-05 1.51584445e-05 3.573999e-05 5.098818e-05 6.664003e-06 -8.022283e-05 4.3068474e-05 0.00011220796
7.430273e-06 4.386207e-05 -0.00011144088 0.00020861009 -0.00022509153 -5.9861177e-06 -8.826395e-06 -3.348457e-05
8.39677e-07 -4.7100075e-05 3.407966e-05 -9.2809904e-07 1.5228483e-05 1.8307639e-05 5.6227977e-06 2.1134065e-05
2.0277614e-06 2.1505146e-05 7.290669e-07 2.155318e-05 2.6202827e-07 2.1559377e-05 9.416875e-08 2.156018e-05
0.00046120235 -5.8231e-05 0.0009834478 5.5425662e-05 6.755873e-05 2.210413e-05 5.7431753e-05 -0.00017616265
4.637217e-05 -0.00046264648 0.00036346936 0.00053362723 1.3444785e-05 6.483264e-05 -0.00042480417 0.00027199512
-0.00035802412 -0.00010707701 1.1021446e-05 2.6113377e-05 2.2184031e-05 2.6534157e-05 1.6737456e-05 5.396383e-05
6.486796e-06 5.922795e-05 2.3533012e-06 5.9934508e-05 8.467589e-07 6.0026203e-05 3.0435692e-07 6.0038044e-05
1.0938234e-07 6.003958e-05 3.931008e-08 6.003979e-05 -0.0005668014 -1.4302187e-05 -0.0015460174 -0.00016543164
-0.00011550266 -3.824855e-05 -9.708803e-05 9.456729e-05 -5.0812898e-05 0.00053436036 -0.0003896637 -0.00060338917
-2.1643384e-05 -0.00011185192 0.00050539034 -0.00054651144 0.00065401447 6.5168104e-05 -6.2741246e-06 -1.1464784e-05
-2.414481e-05 -1.4945394e-05 -3.4877437e-05 -6.556134e-05 -1.4564672e-05 -8.079942e-05 -5.334837e-06 -8.2974635e-05
-1.9219483e-06 -8.3259205e-05 -6.9093124e-07 -8.329601e-05 -2.4831795e-07 -8.3300765e-05 -8.9241304e-08 -8.330138e-05
-0.00089240895 -0.0001337185 -0.0027643603 -0.00033219508 -0.00022303294 -7.5263946e-05 -0.00018509386 -4.334219e-05
-6.503856e-05 0.0007277414 -0.00048752115 -0.00085320906 -4.038309e-05 -0.00021728889 0.0007581654 -0.0010898141
0.0012412095 5.0523304e-05 5.379915e-06 4.7038324e-05 -3.0160136e-05 8.50869e-05 -0.00010953743 -7.105019e-05
-4.7625697e-05 -0.00012746884 -1.752883e-05 -0.0001356626 -6.318892e-06 -0.00013673681 -2.2717925e-06 -0.00013687582
-8.1648153e-07 -0.00013689377 -2.934302e-07 -0.0001368961 -0.00058942614 0.00023543152 -0.0004534157 0.0001956631

exp_avg_sq f4 [108, 36]
00000000: 5796 d338 aaeb 3137 65c3 7c39 8cca 1f37
00000010: fa52 9c34 1b6f 5034 cd9d a134 8a39 1f38
00000020: 9c86 c835 e0fe ad38 0881 7a38 ffdf 1139
00000030: 4cca 8334 c19b 9c34 da52 af38 a978 d737
00000040: b9ed 0838 14d6 ab37 36da a232 2271 d632
00000050: 53a8 7a34 e476 f833 1beb cc34 27c7 2b35
00000060: 2b89 9133 a207 9435 f09a 1c32 dcac 9e35
00000070: f6a8 a230 fa19 a035 4d2e 282f 6249 a035
00000080: 4ac9 ad2d 874f a035 9390 332c 3e50 a035
00000090: a3a3 8538 a0c5 fb36 1295 0339 4650 cf36
000000a0: baf8 2c34 cd12 f533 30a5 0b34 6a2d e637
000000b0: 9c92 9935 de63 7138 cb4a 3138 2ac3 c338
000000c0: b04a 2234 28cd 0334 e462 6338 d1df 4c37
000000d0: ee19 8037 4263 6837 3cd9 7232 a140 b432
000000e0: e560 2a34 38f9 a533 a777 6434 efbf dc34
000000f0: 40a2 2033 d7e6 3335 a7a7 ac31 acb1 3f35
00000100: f34d 3330 aa45 4135 ed62 b92e 027a 4135
00000110: 9790 3f2d ca80 4135 4bef c52b a081 4135
00000120: 97f8 3438 f1ae 1a37 a9e1 8b39 29d8 cf37
00000130: aaf5 b934 7a52 7d34 171d a334 6a6d d437
00000140: 4ab6 bb35 3673 6f38 44dc 1c38 f464 8738
00000150: a596 5134 39f0 9234 722b 1c38 f177 6038
00000160: 7be8 9738 0099 8737 67aa 3233 1cc8 2233
00000170: d8cb 7d34 15bf 6534 5317 b234 154c 1235
00000180: 6014 8033 69cc 7035 990d 0a32 35c8 8035
00000190: 036c 8f30 02e9 8135 364b 142f 750e 8235
000001a0: 9d3c 992d 4013 8235 1b55 1e2c d713 8235
000001b0: 6d31 a838 f301 5037 d90c d139 4858 0538
000001c0: be5b ed34 87ff f334 2379 1f35 9f1b 1d38
000001d0: bafd 2336 5d0b ba38 fee8 7438 e96d e738
000001e0: b477 cb34 db4f 0e35 b4ac 8938 0079 9138
000001f0: 9bc9 c638 594e ca37 8d39 1e33 4177 4733
00000200: b157 cf34 8a2f 7634 cb05 0535 cf0d 7235
00000210: 14b2 bb33 598c c535 2ad5 4932 12b1 d235
00000220: 2f9e d130 ff73 d435 cbba 582f 87ae d435
00000230: 05f4 df2d 13b6 d435 4966 672c 02b7 d435
00000240: ca68 b638 ea72 8137 5e1a 1d3a bc6a 5138
00000250: e835 5335 be34 2135 2815 4f35 db27 4838
00000260: 8270 4e36 24c7 fe38 511d a038 6854 0239
00000270: 5458 0835 789c 3a35 eec5 9a38 5457 e638
00000280: c666 2139 f4d5 f537 f886 9d33 900e 9733
00000290: 8f93 0935 cf5a cd34 d8de 4635 d76a 9c35
000002a0: 5d2b 0e34 00a6 0436 d31e 9932 7c33 0e36
000002b0: 2c0f 1f31 f27b 0f36 d375 a42f 9fa6 0f36
000002c0: 19f1 292e 20ac 0f36 df97 af2c e4ac 0f36
000002d0: 3178 b038 3284 8a37 cc9b e939 1e84 2f38
000002e0: 867c 1a35 99c3 f434 a24f 1b35 65e3 5238
000002f0: bea9 5136 2af6 ef38 e212 a038 a908 0939
00000300: f547 d034 81d7 0635 a20c 9a38 4471 b038
00000310: 91dc f238 cd51 f637 529a 8433 f5d5 9533
00000320: ea0f fc34 def3 ba34 d25b 1835 cdd5 8d35
00000330: c6b3 d733 dc10 e135 860f 6832 5886 ef35
00000340: fc06 f130 0777 f135 f234 792f 81b7 f135
00000350: 92c1 002e d7bf f135 a409 852c ebc0 f135
00000360: f2ab 5e39 4c63 ce37 380b 603a 8ad7 0738
00000370: e473 3735 0780 6135 89a8 b235 9884 8e38
00000380: aea7 8e36 1edf 1f39 16c7 d838 8f57 8739
00000390: 590c 4635 4d16 a835 f6ae 2a39 fe0e 0339
000003a0: c99c 2439 f12b 2a38 6a26 7933 4ba5 8633
000003b0: dbec 5135 d451 a934 80c4 8c35 b7ac 0936
000003c0: d13a 4634 d352 6136 801a d532 df27 7036
000003d0: e950 5d31 b123 7236 d9d2 e42f ac65 7236
000003e0: 2773 6c2e 406e 7236 cb4f f42c 426f 7236
000003f0: c200 7f38 87dc 0137 0744 e438 9119 cc36
0.00010089267 1.0604892e-05 0.00024105383 9.524298e-06 2.9117638e-07 1.941193e-07 3.0103402e-07 3.796214e-05
1.4940338e-06 8.296757e-05 5.9724814e-05 0.00013911723 2.4547842e-07 2.917059e-07 8.3600826e-05 2.5686184e-05
3.2646323e-05 2.0484476e-05 1.8958513e-08 2.4964326e-08 2.33443e-07 1.1570026e-07 3.8169023e-07 6.399227e-07
6.7770394e-08 1.1029081e-06 9.115624e-09 1.1822226e-06 1.1835073e-09 1.1928489e-06 1.529596e-10 1.1942286e-06
1.9757213e-11 1.1944074e-06 2.5517685e-12 1.1944283e-06 6.372414e-05 7.5033895e-06 0.00012548667 6.178426e-06
1.6109234e-07 1.14121214e-07 1.3005479e-07 2.7439284e-05 1.1442057e-06 5.7551886e-05 4.2269745e-05 9.334677e-05
1.5114597e-07 1.2274961e-07 5.4213117e-05 1.2211459e-05 1.5270864e-05 1.3851388e-05 1.4135647e-08 2.0984148e-08
1.5867734e-07 7.728744e-08 2.1277684e-07 4.1117843e-07 3.740047e-08 6.701861e-07 5.0249187e-09 7.141159e-07
6.5230593e-10 7.199948e-07 8.430399e-11 7.207565e-07 1.0889198e-11 7.2085516e-07 1.4064109e-12 7.208673e-07
4.314686e-05 9.219847e-06 0.00026680276 2.477698e-05 3.463768e-07 2.3592466e-07 3.0382282e-07 2.532332e-05
1.3985639e-06 5.708934e-05 3.7398437e-05 6.4561056e-05 1.9519446e-07 2.7369404e-07 3.723376e-05 5.3517466e-05
7.243544e-05 1.61645e-05 4.1598835e-08 3.7900563e-08 2.3636619e-07 2.1396802e-07 3.3172054e-07 5.449995e-07
5.964171e-08 8.9704423e-07 8.035749e-09 9.595011e-07 1.0435318e-09 9.679063e-07 1.3487242e-10 9.689962e-07
1.7421004e-11 9.691357e-07 2.2500393e-12 9.691529e-07 8.0200705e-05 1.239822e-05 0.0003987316 3.179189e-05
4.421144e-07 4.5448198e-07 5.9408393e-07 3.745744e-05 2.443658e-06 8.871288e-05 5.8391124e-05 0.00011035411
3.7898792e-07 5.301533e-07 6.5648375e-05 6.936677e-05 9.478928e-05 2.411676e-05 3.6839584e-08 4.644176e-08
3.8620558e-07 2.292783e-07 4.955479e-07 9.017212e-07 8.740258e-08 1.471849e-06 1.1748208e-08 1.5697753e-06
1.525171e-09 1.582899e-06 1.9711448e-10 1.5846025e-06 2.5460531e-11 1.5848221e-06 3.2883854e-12 1.5848493e-06
8.697955e-05 1.543151e-05 0.0005993004 4.9928887e-05 7.868207e-07 6.0053924e-07 7.7144296e-07 4.7720834e-05
3.076188e-06 0.00012148757 7.634855e-05 0.0001242921 5.079248e-07 6.951809e-07 7.3801595e-05 0.00010983521
0.00015392443 2.9305906e-05 7.335433e-08 7.034134e-08 5.1251203e-07 3.8250298e-07 7.408503e-07 1.1654e-06
1.3240556e-07 1.9766157e-06 1.7825561e-08 2.1189617e-06 2.314617e-09 2.1380806e-06 2.9915145e-10 2.1405647e-06
3.864029e-11 2.140885e-06 4.9906602e-12 2.1409296e-06 8.4147214e-05 1.651244e-05 0.000445573 4.1846295e-05
5.7550676e-07 4.5590858e-07 5.785788e-07 5.027968e-05 3.124223e-06 0.0001144226 7.632912e-05 0.00013068564
3.8795375e-07 5.023249e-07 7.345645e-05 8.413431e-05 0.00011580543 2.9363577e-05 6.1748e-08 6.977272e-08
4.6950237e-07 3.4822637e-07 5.675803e-07 1.0567543e-06 1.0044418e-07 1.6768713e-06 1.3507707e-08 1.7845987e-06
1.7537043e-09 1.7990541e-06 2.2665228e-10 1.8009306e-06 2.9275755e-11 1.8011732e-06 3.7811577e-12 1.8012046e-06
0.00021235624 2.4603352e-05 0.00085465936 3.2387245e-05 6.8341456e-07 8.4005336e-07 1.3311084e-06 6.795785e-05
4.2514503e-06 0.00015246539 0.00010336765 0.00025814443 7.3778716e-07 1.2523466e-06 0.00016277641 0.00012498719
0.00015698666 4.0572082e-05 5.8009768e-08 6.269928e-08 7.820324e-07 3.153824e-07 1.0488002e-06 2.0515124e-06
1.8461584e-07 3.3575823e-06 2.4808514e-08 3.5785995e-06 3.2205725e-09 3.6081585e-06 4.1622775e-10 3.611999e-06
5.3762463e-11 3.6124984e-06 6.943756e-12 3.612557e-06 6.0797443e-05 7.740345e-06 0.00010884558 6.08265e-06

exp_avg f4 [108]
00000000: 7af8 41b9 818c 01b9 632f c038 65dc b437
00000010: 3fd3 7b38 24b2 aeb8 dc8b 0fb9 171d 4bb8
00000020: aa4b d138 7ab6 6e39 681b 3db8 ca53 49b9
00000030: fac7 77b7 efdd 7639 d905 e237 e0d6 ac38
00000040: 6df3 dfb7 07ba 8638 241c 96b9 3ba4 a3b6
00000050: 7fbd 4fb7 af01 84b8 2de2 a1b8 7970 32b9
00000060: 54c5 b4b8 f727 37b8 5dec 5338 b2c3 3b38
00000070: 2fc1 2f39 ecdd c536 a480 84b8 d92f cfb8
00000080: 5461 b0b8 1374 38b9 6cb8 90b9 3a56 f738
00000090: d9f2 5732 ffe0 8232 2712 2d32 e1e6 94b1
000000a0: 178c 2d32 7605 42b2 d50e b52e d830 6232
000000b0: ce63 5332 5129 22b2 b889 c932 9cc6 1132
000000c0: c21b 10b2 d07b 1bb2 86db a9b2 29ee 1d32
000000d0: 61ed edb1 ac96 ef31 f7ae cf31 5564 c232
000000e0: 68f1 48b2 4b1c 3232 a3d7 22b2 7d2a 3732
000000f0: 1b7d 7532 fc8e 9e32 5c73 bdb1 13b7 8832
00000100: 81b4 9cb2 9392 132f 1795 12b2 6c6c f332
00000110: 1e8f 8032 9699 1432 c21a 2032 5a48 8432
00000120: bc6a 193a 2804 f139 682c e3bb 427d a8bb
00000130: d9ce 9a3b e5b3 b13a c1b4 4abb d7ae 1dbc
00000140: 04f9 16bb 65bf 83ba 4da1 ddbb 6921 a3bb
00000150: 41ce aa39 e24d 173c 3f87 5fb9 769f 223c
00000160: 673f 0dbd 5112 3739 5441 cb3b 2c95 343c
00000170: de8f ce3a b97e 9a3b 92a6 bbba 0bde 4039
00000180: 301b bd3c 403b a5bb 7e8c c3b9 ede4 0739
00000190: e31c d43c 073a 60bc 1de8 cd3a 7e00 fc39
000001a0: 171a fc3b 469c 613c 6adb 40bd 5003 eabb
-0.00018498479 -0.0001235474 9.1641e-05 2.1560301e-05 6.00398e-05 -8.330148e-05 -0.00013689644 -4.8426064e-05
9.97999e-05 0.00022765427 -4.5086636e-05 -0.00019200068 -1.4768908e-05 0.00023543065 2.6944022e-05 8.241623e-05
-2.6697026e-05 6.424268e-05 -0.00028631196 -4.8768975e-06 -1.2382282e-05 -6.294564e-05 -7.719207e-05 -0.00017017302
-8.619824e-05 -4.366782e-05 5.052645e-05 4.476653e-05 0.00016761267 5.8968926e-06 -6.318212e-05 -9.8794415e-05
-8.410463e-05 -0.00017590848 -0.00027603225 0.00011793939 1.2569864e-08 1.5236308e-08 1.0074053e-08 -4.333615e-09
1.0101778e-08 -1.1293528e-08 8.233562e-11 1.3166037e-08 1.2304509e-08 -9.439035e-09 2.3462107e-08 8.485269e-09
-8.388215e-09 -9.050339e-09 -1.9774017e-08 9.192754e-09 -6.9245947e-09 6.972945e-09 6.044384e-09 2.2630198e-08
-1.1696422e-08 1.0367397e-08 -9.478671e-09 1.0661663e-08 1.4289323e-08 1.8458643e-08 -5.513739e-09 1.5915736e-08
-1.8242874e-08 1.3421646e-10 -8.532218e-09 2.8338228e-08 1.4966243e-08 8.649655e-09 9.31931e-09 1.5399724e-08
0.00058523915 0.000459702 -0.006932784 -0.005141885 0.004724365 0.0013557641 -0.0030930492 -0.009624205
-0.0023036608 -0.0010051547 -0.0067636133 -0.004978348 0.00032578598 0.009234877 -0.0002131732 0.009925714
-0.034484293 0.00017459063 0.006202856 0.0110218935 0.0015759428 0.0047148135 -0.001431661 0.00018393264
0.023084253 -0.0050424635 -0.00037297973 0.00012959885 0.02589268 -0.01368571 0.0015709434 0.00048065552
0.00769354 0.013770169 -0.04708425 -0.007141508

exp_avg_sq f4 [108]
00000000: 5f50 a035 c481 4135 f713 8235 30b7 d435
00000010: 03ad 0f36 1ac1 f135 626f 7236 2293 2735
00000020: 5d7e 9135 2a11 e435 137b f334 5e74 0d36
00000030: 1c4f bd35 5522 0036 1472 2b35 4535 6435
00000040: e9b6 0e35 5440 ea35 9f11 7236 047d 6c35
00000050: 44ec 3235 ef67 2035 e320 5f35 0fe0 bd35
00000060: 6c2b 4335 75b4 3635 81be 0035 9af8 3935
00000070: f676 a935 b79f 2936 77a1 f035 4150 4b35
00000080: 970f ab35 0162 4935 c3e0 1d36 ef8f 9435
00000090: 6746 aa27 0560 ef27 b69b 4527 806b 3926
000000a0: 2037 6927 c42b 4827 f936 9d26 c766 a227
000000b0: 159e 6d27 2e9d 8027 02ed 7728 bfce 6c27
000000c0: 57c9 e426 ab29 5a27 05b9 2128 e885 0a27
000000d0: 6d08 9726 045a 7a27 313e 4c27 d47b 3828
000000e0: 214c a327 5e31 6e27 7d11 9327 d5ca 7a27
000000f0: ca28 da27 b67d 1d28 17bf fe26 6757 b627
00000100: 71ae 2928 be3c 0726 200e 7f27 3ee1 a728
00000110: 2138 c827 2b9b 4d27 12d3 7b27 a2c6 f427
00000120: 04e5 bb36 0fa6 8236 2c5d a939 3e3e 0a3a
00000130: af48 2639 41a6 da36 1e01 8139 9f31 133a
00000140: 80d2 2838 a55f 2336 77ee 733a 45cb 523a
00000150: a907 1437 1833 1a3a 7437 7937 a18d 3f3a
00000160: cfda c73b 3356 8d36 c5ba 033a 7efe 963a
00000170: 7c48 9936 7330 d339 908c 4c36 f15e 1437
00000180: 7bd3 4f3b 5880 0f3a 8dcc 8137 8b59 7736
00000190: a43a 893b c7ec 7b3a d911 9d36 390a 3537
000001a0: df73 4a3a 010a 883a 371d 333c c1d2 e639
1.194432e-06 7.2086937e-07 9.691565e-07 1.5848545e-06 2.1409367e-06 1.8012099e-06 3.6125643e-06 6.2426454e-07
1.0840118e-06 1.6992319e-06 4.5351825e-07 2.1078372e-06 1.4104621e-06 1.909347e-06 6.386847e-07 8.5014136e-07
5.316529e-07 1.745308e-06 3.6071067e-06 8.809877e-07 6.665398e-07 5.975589e-07 8.312183e-07 1.4146807e-06
7.270635e-07 6.8062883e-07 4.7960935e-07 6.9279633e-07 1.2626103e-06 2.5275929e-06 1.7928386e-06 7.574018e-07
1.274503e-06 7.502095e-07 2.3525652e-06 1.106875e-06 4.726081e-15 6.643993e-15 2.7423653e-15 6.433046e-16
3.2365129e-15 2.77793e-15 1.0908964e-15 4.5075464e-15 3.2976054e-15 3.569755e-15 1.3762647e-14 3.2863657e-15
1.5875251e-15 3.0276166e-15 8.977415e-15 1.9223938e-15 1.0480014e-15 3.4743267e-15 2.8344401e-15 1.0240903e-14
4.5324127e-15 3.3055897e-15 4.0819657e-15 3.4804425e-15 6.055138e-15 8.74251e-15 1.7676586e-15 5.060991e-15
9.4192105e-15 4.6919855e-16 3.5396016e-15 1.8638408e-14 5.5572006e-15 2.8533582e-15 3.4947669e-15 6.7938963e-15
5.599695e-06 3.8936337e-06 0.0003230361 0.0005273557 0.0001585807 6.516261e-06 0.0002460563 0.0005614999
4.0250365e-05 2.4344565e-06 0.00093052484 0.0008041154 8.823271e-06 0.00058822474 1.4854468e-05 0.0007307176
0.006099082 4.2121624e-06 0.0005025084 0.0011519936 4.5681936e-06 0.00040281154 3.0480187e-06 8.843593e-06
0.0031711746 0.0005474142 1.547325e-05 3.685799e-06 0.0041878987 0.0009610173 4.6810424e-06 1.0790821e-05
0.00077229546 0.0010378958 0.010932258 0.00044026042
