SensorFormer/SensorFormer/checkpoints/chpt_AdamW_lr0.0005_ep500.pt (torch, 83227 bytes, 35 tensors)

self_attn.qkv_proj.weight f4 [108, 36]
00000000: 7f46 863e eb40 053d 3a34 02be f1b0 d3be
00000010: c02c 683d 6fd8 29bd 432b 7e3c c802 793d
00000020: 9f74 7e3d ddff 3d3e 6d75 663c 24dd 273e
00000030: 0036 90bd f4e5 ea3b 10ea 9abe 81fb b1bc
00000040: db59 a3bc 62c7 42bb 39b6 163e c009 283e
00000050: 976f 9d3e fe8b 6e3e a8e3 e6bd b283 773d
00000060: 673c 0cbe 741c 07bd c241 09be f223 1fbd
00000070: b929 0abe 1ebf 1dbd ab39 0cbe 34e5 37bd
00000080: a466 0dbe c0e2 09bd 40a6 03be 0fc2 3dbd
00000090: 81ed d43e eb07 acbb 2420 68bd e501 49bf
000000a0: d896 edbc 7e36 743d 9b00 8a3c 7bcb e83c
000000b0: f3bb 823b 583f b03e 37ff 343d 0a6c 0e3f
000000c0: 0fdd 1dbd 9e86 83bc 60b0 53bf 2294 edbb
000000d0: 23bc bfbc d4e0 0c3d 0be7 87be c048 debd
000000e0: c54e 7bbd a963 97be b05f 313e 9906 403d
000000f0: c1cf 3f3e 3fcb c23d 100c 393e 90b6 de3d
00000100: 7a57 413e 423d cb3d 2504 423e 5c5b de3d
00000110: 1439 3e3e d210 d33d 8823 3b3e 8efb df3d
00000120: c42c 7abe 5aa2 ddbc 2e8d bf3d 40ab ce3e
00000130: 46a1 bcbd 51de 2e3d e50b c13c 8e09 30bd
00000140: dbd0 f73b d62a 4bbe c990 fa3b 9a05 3dbe
00000150: 47dc 113d 78ae 913c 767f b53e c885 133d
00000160: b780 b53c d7da e43b 15c0 3abe c224 39be
00000170: dee6 82be 77a3 67be bf4c 203e 815f a2bb
00000180: adb6 363e 5377 a83d 85a9 3b3e 93ab cb3d
00000190: 7ed4 3a3e 409e bc3d ce92 403e 1f7a ba3d
000001a0: 0881 3c3e f953 c13d 6fa1 3c3e dc77 c93d
000001b0: 4caf 97be 787d e33c 7022 943e b4f1 f23e
000001c0: 4bad aabd 32f7 99bc c370 a7bd b35a 88bd
000001d0: c7ef dabd dd96 cabe 3805 20bd 6148 66bd
000001e0: feb4 0f3e 0315 25bb 9a60 f83d ca25 e3bd
000001f0: b632 ec3d 9ba0 3abd b9cf a7bd 5890 c5bc
00000200: 6840 a0be 1134 71be 25fb 1a3d 9bc6 bdbd
00000210: 4c41 663d 17ea 6bbc 72d1 6e3d 27e4 6ebc
00000220: 8497 603d 1082 87bc 012d 683d 6a92 51bc
00000230: 0108 613d 7605 e7bb 6527 463d 7261 d5bb
00000240: ff20 58be 4fb6 01bc edcf 3d3e 5fd5 bb3e
00000250: 6799 68bc d227 99bc da0f 83bd f5c6 60bd
00000260: 9c89 f0bd 1539 69be ca7b 68bc 3368 c3bd
00000270: 67c4 253e 89f6 a4bc 3580 033e 767b 82bd
00000280: f76a 463b 1b9a d2bc 445d febd 27d4 fdbd
00000290: 990f b4be a0af 52be 39d3 a23d 6736 87bd
000002a0: 0c55 c33d 4894 9d3c 9d30 d73d 2454 ce3c
000002b0: fab2 c23d 8597 e53c c767 dd3d 39db c33c
000002c0: 494a d63d b4a8 f73c 6cfd c53d cd89 963c
000002d0: 6cb0 a03d f223 59bd 57ed b1bd d545 c3be
000002e0: 5e25 c0bd b073 523d d5a9 0c3d 9811 de3d
000002f0: 7430 c03d 8b04 d93e 06d6 8a3d fd76 3d3d
00000300: dddc 82bd 088a 34bd d051 4ebe 5baf 203d
00000310: 9a6a 333d ab10 aa3d c91c d0bd 9379 003e
00000320: b0f9 913e cac0 48bd 63bf 943e 3d11 933e
00000330: db37 943e 3f5c 983e e283 933e 2275 953e
00000340: 0def 8f3e 4491 973e ae6f 8f3e 08a8 953e
00000350: 793b 933e 5f09 993e d847 953e 02d0 933e
00000360: 058b b13e 3989 cd3c b071 113e 0014 d4be
00000370: b77b 38bd 6c06 d23c 8cfe 77bc f0cf 843d
00000380: 4471 6f3c 7bd9 36bc 4b73 cab9 f189 2c3f
00000390: c5a9 303d e33a 473b f2ac 3bbf 9c6e f43c
000003a0: 55d4 40bd b697 a93d 3241 8a3d 74d9 9cbd
000003b0: 3c71 50be 9bca afbd 69df f63c 08ec 2cbd
000003c0: 0bfa 1b3d 6fc1 273a dfdf 2a3d 1bb0 313c
000003d0: c66b 343d 147f 29ba 5c0a 333d 4437 cf3b
000003e0: e794 383d bdb8 403b d114 433d d709 813a
000003f0: 6eaf d43e b6a9 8b3c c8e5 ac3d 9cd1 ecbe
0.2622566 0.032532614 -0.12715235 -0.41345933 0.056683302 -0.041466173 0.015513244 0.060793668
0.062122937 0.18554635 0.014066082 0.16392952 -0.0704155 0.007168526 -0.302567 -0.021726372
-0.019940307 -0.0029720892 0.1471795 0.1640997 0.307492 0.2329559 -0.11273891 0.06042833
-0.13694917 -0.03298612 -0.13403991 -0.03885264 -0.13492478 -0.03851234 -0.13693874 -0.04489632
-0.13808686 -0.03366351 -0.12856388 -0.046327647 0.4158745 -0.0052499673 -0.056671277 -0.78518516
-0.029002592 0.05962228 0.016845992 0.02841734 0.0039896904 0.34423327 0.044188704 0.55633605
-0.038540896 -0.016055401 -0.82691 -0.007250325 -0.02340514 0.0343941 -0.2654346 -0.1085372
-0.061354417 -0.29568222 0.17321658 0.046881292 0.18731596 0.09511422 0.18071008 0.10874665
0.18881026 0.099237934 0.18946894 0.10857269 0.18576461 0.103059426 0.18275273 0.10936652
-0.24431139 -0.027054954 0.093531 0.40365028 -0.09210448 0.042692486 0.023565242 -0.042977862
0.0075627393 -0.1984056 0.0076466543 -0.18459168 0.035610463 0.017783388 0.35448807 0.036016256
0.022156103 0.0069840956 -0.18237336 -0.18080428 -0.25566763 -0.2262095 0.15654276 -0.0049552326
0.17843123 0.08225884 0.18326385 0.099448346 0.18245122 0.09209871 0.18806002 0.09105324
0.18408597 0.09439845 0.18420957 0.098373145 -0.29625928 0.02776979 0.28932524 0.4745003
-0.08333834 -0.01879463 -0.081758045 -0.066579245 -0.10690265 -0.39568225 -0.039067477 -0.05622137
0.14033887 -0.0025189526 0.121278 -0.11091192 0.1153311 -0.04556332 -0.08193917 -0.02411668
-0.31299138 -0.23555018 0.037837166 -0.092663966 0.056214616 -0.014399073 0.05830521 -0.014580763
0.054831997 -0.01654151 0.056683544 -0.0127912555 0.054939274 -0.0070502115 0.048377413 -0.0065118605
-0.21106337 -0.007917001 0.18536349 0.36686227 -0.01419673 -0.018695746 -0.06399508 -0.05487724
-0.11744997 -0.22775681 -0.01418967 -0.09541359 0.16188203 -0.020137088 0.12841876 -0.063712046
0.0030276158 -0.025708249 -0.12420133 -0.123939805 -0.3516815 -0.20574808 0.07950444 -0.06602173
0.09537706 0.019235745 0.10507319 0.025186606 0.09506793 0.028026352 0.108108096 0.023908244
0.104633875 0.030231811 0.09667477 0.018376255 0.0784615 -0.053012796 -0.08687847 -0.38139215
-0.09382127 0.05137986 0.034341652 0.108431995 0.09384242 0.4238628 0.06779103 0.046256054
-0.063897826 -0.04407695 -0.20148396 0.039229732 0.043802835 0.083039604 -0.1016174 0.12546377
0.2851081 -0.049011983 0.29052266 0.2872409 0.28948864 0.29757878 0.28811556 0.29190928
0.2811207 0.29603016 0.28014892 0.2922976 0.28756312 0.29889962 0.29156375 0.28869635
0.34676376 0.025089847 0.14203525 -0.4142151 -0.04503986 0.025637828 -0.015136372 0.064849734
0.014614407 -0.01116025 -0.00038614342 0.6739798 0.043130655 0.003040009 -0.7331077 0.029837899
-0.047077496 0.0828089 0.06750716 -0.076586634 -0.20355695 -0.08583566 0.030135827 -0.042217284
0.038080256 0.0006399368 0.041717406 0.0108452095 0.044048093 -0.00064657745 0.04371105 0.006323727
0.04506388 0.0029406988 0.047627274 0.0009844851 0.41540092 0.017048698 0.08442265 -0.4625367

self_attn.qkv_proj.bias f4 [108]
00000000: 6370 24bd 2139 d73d 8d13 c13d 7238 2bbc
00000010: 22ee cb3c efd2 963e f5a1 c23b dcb1 363d
00000020: 387b a83d daa7 6d3c 08c0 19be b9f5 b6bd
00000030: 1b66 d7bc a00b 8bbd 9471 9ebe e0ea 6fbd
00000040: ad50 3d3e 09a6 f33d 304e b1bc 0ae8 cebb
00000050: 81ee 573c 1c53 8b3d 9678 a3bd 5031 2c3c
00000060: 92d0 2a3e b33b e73c cbb4 453d 6787 a4bc
00000070: c90c 8a3d 54c3 75bd dcb8 58bd 31a8 58bd
00000080: 4cfc 81bd 9f6d 9dbc a545 283c f502 a23d
00000090: d4a8 99bd 030f f7bd d71e ed3d ca53 973d
000000a0: 36ee 013d 7aca 0e3e eed4 04be b057 1abe
000000b0: 6e57 183e 7d0b e1bd bf0f 31be 7003 83bd
000000c0: 0997 e8bd f8b6 6a3e 8e3d f6bd cecc 023e
000000d0: 6bc8 433e e3f0 e5bc 9a26 02be 981c 23bd
000000e0: 1688 f23d 8d72 1fbe 856f c3bd 55f4 323e
000000f0: 3907 0e3e acde d33d 6d4b f3bd 9f2e 21be
00000100: cb30 b73d 7809 7bbd dbc9 a13d 1058 193e
00000110: 2d4c 0cbe fb21 ecbc 532b babd c791 e23d
00000120: 42d1 673d 3203 fcbd 0a1a dfbb 0b14 00bf
00000130: db6d 2abe 28a1 d1bd 61f8 ea3c 96ee 1a3e
00000140: 5e70 d33c 8b2c 4a3d 52f4 6f3e 57a1 a4be
00000150: 28bd d5be 3011 303d cb02 4a3e 2a03 5bbe
00000160: a6c1 fabd d7ff 053f ba2c 3fbe 7f1b 37be
00000170: 3c07 c23d 7e94 ee3d 6af2 8cbd 0e3c 6e3e
00000180: b775 de3d f8d5 b23d 9a37 ed3d 8fcf 4e3e
00000190: f9d7 903d e206 1f3e 6f97 0bbe 6ecc 9cbc
000001a0: 50c7 873e 4b9d 29be 4191 1fbf d6fb 0dbe
-0.040146243 0.10508943 0.09427557 -0.010450469 0.024893824 0.29457805 0.005939717 0.044603214
0.08226627 0.014505351 -0.1501466 -0.089335866 -0.026293805 -0.06789327 -0.30946028 -0.058573604
0.18487807 0.11896903 -0.021643728 -0.0063142823 0.013179422 0.06802961 -0.07981984 0.010509804
0.16681126 0.028226709 0.04826812 -0.020084096 0.0674072 -0.060000733 -0.05291067 -0.052894775
-0.0634695 -0.01921731 0.010270511 0.0791072 -0.075029045 -0.1206341 0.11578148 0.07389028
0.031721316 0.13944426 -0.12971851 -0.15072513 0.14877102 -0.10988519 -0.17291163 -0.0639714
-0.11356933 0.2292136 -0.120234594 0.1277344 0.19119422 -0.028068965 -0.12710038 -0.03982219
0.118423626 -0.15571041 -0.09542755 0.17476018 0.13869943 0.10345206 -0.11879621 -0.15740441
0.089448534 -0.061288327 0.07899829 0.14975 -0.13700934 -0.028824797 -0.09090295 0.11062961
0.05659605 -0.12305297 -0.006808524 -0.50030583 -0.16643469 -0.10235816 0.02868289 0.15130076
0.025810417 0.049358886 0.23433045 -0.32154343 -0.41745877 0.04298514 0.19727628 -0.21387926
-0.12243967 0.52343506 -0.18669406 -0.17881583 0.09474036 0.116494164 -0.06882174 0.23265097
0.10862296 0.087322176 0.11582871 0.20196365 0.070724435 0.1552997 -0.13631986 -0.019140448
0.2651925 -0.16563909 -0.62331015 -0.13865599

self_attn.o_proj.weight f4 [36, 36]
00000000: 839f db3c 6e56 cebd 4ee5 df3c ab34 103d
00000010: f06e db3d 4953 cebd 475e d4bd a2b2 e5bd
00000020: e908 b03c 0574 6d3c 279d 28be b285 38bd
00000030: 2a5c 0c3e 97d1 d83b 21ff acbd e01f 153e
00000040: 3228 c5bd 2324 b1bd 7622 94be e568 fd3d
00000050: 581e a23d 4de7 aa3d 1287 4dbc f695 a0bd
00000060: 632c ba3d dda3 833d 056b bf3d 6ede c1bd
00000070: a8e7 64bd 67a7 dcbd 1c2c 00be ffd6 87bb
00000080: f7ee 8abe 4ee1 003e 531c ff3d 54fc f5bc
00000090: fd20 8c3d acc2 333d 18b8 ecbd 6869 21be
000000a0: 12d4 823c 3070 143b 346a 1c3d 8bf7 71bc
000000b0: 263c 06bd dd4a 083d 9e7f 863d 2ac9 5abd
000000c0: a288 90be 763a 223d 7fc0 aebb 75ca 26bd
000000d0: aac4 283d ff6d 553e eda9 093e fca6 90bc
000000e0: 0d6e 4abd c088 28bc ebd9 b1bd 2b14 213d
000000f0: 0ef6 27bc a024 12bd 9535 663c 81a7 c83c
00000100: f250 d43d 5c9f fdbc ff32 b13c 2c86 ac3c
00000110: 8cec b93e 247e 1bbb aeea 8dbe 2849 ccbd
00000120: 3f59 293d eacc ddbd 5ffd a93d 92e4 75bf
00000130: f860 85be 5a3c 92bd 63f6 29be b4b0 a43e
00000140: c525 903d 862c 853d c6b4 7b3e 26ba 39be
00000150: 738a ebbe afe9 0e3d 8a37 b63e 4a72 65be
00000160: 7fa8 ddbd a980 483f 47c0 57bf ad23 6dbe
00000170: 803a 5f3d 29d3 9b3c aaab 11bd 4ab5 e53d
00000180: 5a51 1dbd eb75 1c3c 7d3e ab3b 9f08 ce3e
00000190: 9431 ee3d b1ca 543e 5fd1 54bd 3414 ce3b
000001a0: c6ac 783e d47f abbe 9482 1ebf 9e5d 09be
000001b0: 7bb3 89bd fa28 43bc af9a c13d a6c8 3ebd
000001c0: 4789 833c 08b7 aabb 0c08 3dbe 9bd3 ba3c
000001d0: 113d cdba fdb7 b5bc c906 e7bd 0537 dbbd
000001e0: 6836 713e ce4d 93bc 16d7 95bc 9766 ea3d
000001f0: 3c0f 25bd 04fe a7bc 97e4 13bf 906d 91bd
00000200: 6c35 84b9 1492 1cbc 2b1f a93d 6211 163d
00000210: fa35 553d 6ec1 a03c ad54 b5bb 3342 01bd
00000220: 7b93 4bbd 9600 22bc a094 d0bc 4652 13bd
00000230: be68 debe d26b 3bbd c240 273e 25d0 fdbb
00000240: b05f 23bb 56b4 aa3d c683 8dbd d533 1bbd
00000250: 1da1 b53c 26fe 673d 52e7 033e 64fe 0fbd
00000260: 4e42 22bc 6113 d4bb 01b1 813d 12f7 d53d
00000270: 25ee 8fbe 11fc d93c 1565 f3bb 566f 8fbd
00000280: eb32 d63d fa71 c73d 72b2 d33e 7f1a 853d
00000290: 4500 71bd 56d6 34bd 6cd0 b1bb 2657 08bd
000002a0: 84fc 9ebd 5de0 38bd 34c1 89bd 82c7 4b3c
000002b0: 3ece 363b f0ce 14bd 8427 ca3d cf49 b4bb
000002c0: d042 ec3e 0d04 353d 28f4 4fbe 13ff 1a3c
000002d0: db28 4fbd 00a4 523c 44e1 0fbd 4db2 493f
000002e0: a1e6 083e c6ef 2e3d a689 233e 98f4 2ebe
000002f0: 4aea f13d b616 13bd 72db 62be 1dfe 9c3d
00000300: 0cc6 d23e 2fa7 6abd 32f1 68be 02bf 3e3e
00000310: e5a3 b83d b993 3bbf b2b8 043f 2c25 0c3e
00000320: 2950 37bc ce6e adbc 8354 ab3d 802e 86bd
00000330: d15d 15b8 9f4c 95bd 72b7 b7bd 9c38 88be
00000340: 958f c3bc 8810 c1bd e854 bf3d 174c 003c
00000350: 5e80 84be 4aa2 323e 3ccc 183f e433 84bd
00000360: 188d 10bd 63dd 0fbd bb89 5e3d 20f4 3abf
00000370: a373 5cbe 6ab0 883c 0e72 78bd 2507 833e
00000380: 7925 743d 2f3a 0bbd da68 b53e 0152 dcbb
00000390: b23d 93be 1894 4c3c 956b ae3e 72db b0be
000003a0: 6c03 0c3d 807e 1c3f fb5a 03bf 51ff 2abe
000003b0: 9fa7 cabc 21c9 36bd 6ff5 883a 96ae 753d
000003c0: 9740 cc3d e60a 0b3d e618 f0bb 327c b73e
000003d0: 0f52 1fbc b5d6 503e 6db7 a0bd 335c 70bc
000003e0: 1eb5 4d3e e43a 54be 5ead ecbe ce55 273c
000003f0: e7cf 283d 4c25 283d ae58 0bbd 78b0 d0bd
0.02680946 -0.10075079 0.02733102 0.035206478 0.10714519 -0.10074479 -0.103695445 -0.11215712
0.021488624 0.014492993 -0.16466199 -0.045049377 0.13707033 0.006616782 -0.084470995 0.1456294
-0.09626807 -0.08649471 -0.28932542 0.12373523 0.07915944 0.083448984 -0.01254441 -0.07841103
0.09090497 0.06427739 0.09346584 -0.09466253 -0.055884987 -0.10774117 -0.12516826 -0.0041455026
-0.2713544 0.12585947 0.12456574 -0.030027546 0.068422295 0.043886825 -0.115585506 -0.15762866
0.015970264 0.0022649877 0.03818722 -0.0147684915 -0.032772206 0.03327452 0.0656731 -0.0534145
-0.28229243 0.039606534 -0.005333006 -0.04072042 0.04120318 0.20842741 0.13443728 -0.01765775
-0.04942136 -0.01028651 -0.08684143 0.039325874 -0.010251535 -0.03567946 0.014050861 0.024493935
0.103670016 -0.030959778 0.021630762 0.021060072 0.36313283 -0.0023726309 -0.2771811 -0.09974891
0.041344877 -0.108301 0.0830028 -0.96051896 -0.26050544 -0.071404174 -0.16597895 0.32166064
0.07038454 0.06502633 0.24580678 -0.18137416 -0.46004066 0.034890827 0.35589248 -0.22406879
-0.10823154 0.7832132 -0.84277767 -0.2315814 0.05449915 0.019021587 -0.035564102 0.11216219
-0.03840766 0.009549598 0.005225955 0.40240952 0.1163055 0.20780446 -0.051957484 0.0062890295
0.24284658 -0.33495963 -0.61917996 -0.13414618 -0.06723686 -0.011911625 0.09453332 -0.046578072
0.01605667 -0.0052098073 -0.18460101 0.02280598 -0.0015658458 -0.022182459 -0.11280591 -0.107038535
0.2355591 -0.017981436 -0.018291038 0.11445349 -0.04029773 -0.020506866 -0.57770675 -0.071009755
-0.00025216804 -0.009556312 0.08257898 0.03663767 0.05205343 0.019623484 -0.005533776 -0.031557273
-0.049701195 -0.009887835 -0.025461495 -0.035967134 -0.43439287 -0.045757122 0.16333297 -0.00774576
-0.002492886 0.083351776 -0.069098994 -0.037891228 0.022171551 0.05663886 0.1288121 -0.035154715
-0.009903504 -0.0064720367 0.06332589 0.104475155 -0.28111377 0.026609452 -0.0074278214 -0.070036575
0.104589306 0.09738536 0.4134708 0.06499194 -0.058838148 -0.04414972 -0.005426457 -0.033286236
-0.07763007 -0.045135844 -0.06726304 0.012437703 0.0027893926 -0.036330163 0.09870818 -0.0055019627
0.46144724 0.044193316 -0.20307982 0.0094602285 -0.050576072 0.012856483 -0.03512694 0.7878769
0.13369228 0.042709135 0.15970477 -0.17085493 0.11812265 -0.03591033 -0.22154024 0.07665656
0.41166723 -0.057288345 -0.22748259 0.18627551 0.090156354 -0.7327228 0.5184432 0.13686055
-0.011188545 -0.021171 0.08365729 -0.06551838 -3.561174e-05 -0.07290005 -0.08970536 -0.2660569
-0.023872176 -0.09426981 0.093423665 0.007830641 -0.25879186 0.17444721 0.59686637 -0.0645521
-0.035290807 -0.03512324 0.05433057 -0.73028755 -0.21528487 0.016685683 -0.060655646 0.25591388
0.05960605 -0.033991035 0.35431558 -0.006723643 -0.28758007 0.01248648 0.34066454 -0.34542423
0.03418295 0.61130524 -0.513107 -0.16698958 -0.024738131 -0.044625405 0.0010449121 0.05998095
0.09973257 0.03394594 -0.007327187 0.3583694 -0.009724154 0.20394404 -0.07847486 -0.0146704195
0.20088622 -0.2072559 -0.4622602 0.0102133285 0.041213896 0.041051194 -0.03402012 -0.10189909

self_attn.o_proj.bias f4 [36]
00000000: 482b 85be f60b 033f 988c 8c3f 19e2 b1be
00000010: 77b3 b93e b1f8 96bf 0c4c 763f a657 d93e
00000020: 4b3c 7ebe 5b1f 7f3e f3ab cbbe 270a f13e
00000030: d285 8abf 80b5 c7be e028 7cbd d2cd 8d3f
00000040: 3aa5 943e 01c8 96be 15b6 5cbf f0c3 e63e
00000050: bd9c 6abf 7ef0 0e3f 1104 8fbe 9727 2e3f
00000060: 4cc4 7e3f 9f87 233e 7e55 593e 8828 cb3e
00000070: c398 0ebf 52ef c5be 4626 6f3f 91d4 4f3f
00000080: 8bd0 a43c 6683 89bf 0b10 98bf b473 6bbf
-0.26009583 0.51190126 1.0980406 -0.3474281 0.36269733 -1.1794645 0.9620979 0.42449683
-0.24827687 0.24914305 -0.39779624 0.47078058 -1.0822089 -0.3900566 -0.06156242 1.1078436
0.29032308 -0.29449466 -0.86215335 0.45071363 -0.91645414 0.5583571 -0.2793279 0.6802916
0.99518275 0.15969704 0.21224019 0.3967936 -0.55701846 -0.3865915 0.93417776 0.81183726
0.020118972 -1.0743225 -1.1879896 -0.91973424

fc.weight f4 [1, 18]
00000000: 58e4 e9bd e253 71be 4fef 613e 40ea a2bd
00000010: 56d1 56be 40f6 2dbe 8197 6f3d a668 143e
00000020: 2640 c73c 809b 163d 1261 06bd 3897 203d
00000030: dfda a3bc 9328 413e d708 b53d 640e cfbd
00000040: bb77 ab3d d351 a9bd
-0.11420506 -0.23567155 0.22063945 -0.07954836 -0.20978293 -0.16988468 0.058494095 0.14493045
0.02432258 0.03676939 -0.032807417 0.039206713 -0.020001827 0.18863134 0.08839577 -0.10110167
0.08372446 -0.0826756

fc1.weight f4 [1, 36]
00000000: 7900 0fc0 1efc c43f 22b3 033f d803 1fc0
00000010: db5e 0e40 2665 15bf 181f e33e 601f f13f
00000020: 4c22 9ebd 81d4 3f40 a24c ffbf 2aad 62bd
00000030: b9ca f9be 3329 96bf f2d3 bdbd 9aaa 063f
00000040: c6e4 f03f 0313 3f3c f23a e0be ea31 0c3e
00000050: d4db ffbe d316 493e 67f2 bdbd 3b31 c23e
00000060: 2cee f03e 63f9 4a3d 4543 6b3e 9388 913e
00000070: 600f b3bf b346 f8bd 6e25 e13e 958f cb3e
00000080: 34f7 3c3c 550c 3ebf 9e1a 1bbf 4ff3 f7be
-2.2344038 1.538944 0.5144521 -2.4846096 2.2245395 -0.58357465 0.4435966 1.88377
-0.07721385 2.9973452 -1.9945261 -0.055340923 -0.48787478 -1.1731323 -0.09268941 0.5260407
1.8819816 0.011662248 -0.43794972 0.13690916 -0.49972403 0.19637613 -0.0927475 0.37928185
0.4705671 0.04955424 0.2297488 0.2842451 -1.3989067 -0.1212286 0.4397387 0.39757982
0.011533547 -0.7423757 -0.6058749 -0.48427817

fc2.weight f4 [1, 9]
00000000: 2c47 9cbe 6255 a5be 5bc5 aebd 1675 f7bc
00000010: a8fa 7f3e aee9 5ebe 2c4b a5be 56b9 a83a
00000020: e40d 9ebe
-0.3052305 -0.32291704 -0.08533736 -0.030207198 0.24997962 -0.21768829 -0.32283914 0.0012872617
-0.30869973

fc3.weight f4 [1, 2]
00000000: 9b81 023f c8dc 15bf
0.5097901 -0.5854001

input_fc.weight f4 [18, 3]
00000000: 4d4b a7be ea41 be3e b05d 15be 574c b93b
00000010: 3c86 823b aea7 9bbc 197e 44be eeef 903e
00000020: 993f b93e 736c 6dbe c0d3 c3bd be6f d43e
00000030: 1433 2d3c 2818 9cbc 3e34 d1bc c8ac 8bbb
00000040: d665 693c b19b 483d fbb2 1c3c cae3 743c
00000050: 37e7 003d 1ba4 b8bc a2e9 52bd 254f 5abd
00000060: a221 e73a cd33 dbba 7b45 59bc ee91 ad3e
00000070: 2af8 bcbd 3baf a3be cd2c b2bc 4c41 a93a
00000080: 148c e63c ec5c cfbe 7266 e43e 18df b63c
00000090: 43bd d73b 60d4 00bb 0684 87bc 4026 ee3b
000000a0: 267f 6d3c c1c5 9c3c 4e22 abbb d713 88be
000000b0: 161c a73e d010 46bc 8f4e 1ebc 8109 f538
000000c0: c864 a537 dec1 5abc def6 93bc f7d5 22bd
000000d0: a748 1bbd fc6a 29bc
-0.32674637 0.37159663 -0.1458652 0.0056548524 0.003983287 -0.019000854 -0.19188727 0.28308052
0.36181334 -0.23185901 -0.095618725 0.41491503 0.01057126 -0.019054487 -0.025537606 -0.0042625405
0.014245471 0.048976604 0.009564157 0.014946887 0.031470504 -0.02253919 -0.05149234 -0.053298134
0.0017633925 -0.0016723812 -0.013261194 0.33900398 -0.09227021 -0.31969628 -0.021749878 0.0012913137
0.028142966 -0.4050058 0.4460941 0.022323176 0.006583841 -0.0019657835 -0.016542446 0.0072677433
0.014495647 0.019137265 -0.0052225953 -0.26577637 0.32638615 -0.012088969 -0.0096622845 0.000116842806
1.9716463e-05 -0.013351886 -0.018062051 -0.039754834 -0.037911084 -0.0103404485

input_fc.bias f4 [18]
00000000: fbb7 c63d 9449 b93d 8f30 efbe 065a cd3b
00000010: 9e4a 2d3e f5d7 203d ab46 fd3d 4415 113e
00000020: c76c ab3c 5c3d 9b3d a030 20be 554a 1fbe
00000030: 462e 97bd 3863 9dbc a1f8 c53d b914 b13d
00000040: 2e69 0d3d 85af 94bd
0.0970306 0.09047237 -0.46716735 0.006266835 0.16922995 0.039268453 0.123669945 0.14168268
0.020925893 0.07580063 -0.15643549 -0.15555699 -0.07381873 -0.01921235 0.09666563 0.08646531
0.034524135 -0.0726004

norm.weight f4 [36]
00000000: 0000 803f 0000 803f 0000 803f 0000 803f
00000010: 0000 803f 0000 803f 0000 803f 0000 803f
00000020: 0000 803f 0000 803f 0000 803f 0000 803f
00000030: 0000 803f 0000 803f 0000 803f 0000 803f
00000040: 0000 803f 0000 803f 0000 803f 0000 803f
00000050: 0000 803f 0000 803f 0000 803f 0000 803f
00000060: 0000 803f 0000 803f 0000 803f 0000 803f
00000070: 0000 803f 0000 803f 0000 803f 0000 803f
00000080: 0000 803f 0000 803f 0000 803f 0000 803f
1.0 1.0 1.0 1.0 1.0 1.0 1.0 1.0
1.0 1.0 1.0 1.0 1.0 1.0 1.0 1.0
1.0 1.0 1.0 1.0 1.0 1.0 1.0 1.0
1.0 1.0 1.0 1.0 1.0 1.0 1.0 1.0
1.0 1.0 1.0 1.0

norm.bias f4 [36]
00000000: 0000 0000 0000 0000 0000 0000 0000 0000
00000010: 0000 0000 0000 0000 0000 0000 0000 0000
00000020: 0000 0000 0000 0000 0000 0000 0000 0000
00000030: 0000 0000 0000 0000 0000 0000 0000 0000
00000040: 0000 0000 0000 0000 0000 0000 0000 0000
00000050: 0000 0000 0000 0000 0000 0000 0000 0000
00000060: 0000 0000 0000 0000 0000 0000 0000 0000
00000070: 0000 0000 0000 0000 0000 0000 0000 0000
00000080: 0000 0000 0000 0000 0000 0000 0000 0000
0.0 0.0 0.0 0.0 0.0 0.0 0.0 0.0
0.0 0.0 0.0 0.0 0.0 0.0 0.0 0.0
0.0 0.0 0.0 0.0 0.0 0.0 0.0 0.0
0.0 0.0 0.0 0.0 0.0 0.0 0.0 0.0
0.0 0.0 0.0 0.0

norm1.weight f4 [9]
00000000: 0000 803f 0000 803f 0000 803f 0000 803f
00000010: 0000 803f 0000 803f 0000 803f 0000 803f
00000020: 0000 803f
1.0 1.0 1.0 1.0 1.0 1.0 1.0 1.0
1.0

norm1.bias f4 [9]
00000000: 0000 0000 0000 0000 0000 0000 0000 0000
00000010: 0000 0000 0000 0000 0000 0000 0000 0000
00000020: 0000 0000
0.0 0.0 0.0 0.0 0.0 0.0 0.0 0.0
0.0

norm2.weight f4 [9]
00000000: 0000 803f 0000 803f 0000 803f 0000 803f
00000010: 0000 803f 0000 803f 0000 803f 0000 803f
00000020: 0000 803f
1.0 1.0 1.0 1.0 1.0 1.0 1.0 1.0
1.0

norm2.bias f4 [9]
00000000: 0000 0000 0000 0000 0000 0000 0000 0000
00000010: 0000 0000 0000 0000 0000 0000 0000 0000
00000020: 0000 0000
0.0 0.0 0.0 0.0 0.0 0.0 0.0 0.0
0.0

m.running_mean f4 [12]
00000000: 3c70 aa3e cf9f b63e a18b ae3e 8350 9c3e
00000010: d24c 923e 9dfc 973e 99ee a43e 1e51 a83e
00000020: 9ccc 983e 96b3 7f3e 4f7b 5e3e 9eff 653e
0.33288753 0.356688 0.34090903 0.30530176 0.28574234 0.29684916 0.32213286 0.32874388
0.29843605 0.2497085 0.21726726 0.22460791

m.running_var f4 [12]
00000000: 72a0 b843 ea89 b743 1db8 b643 55a5 b643
00000010: 1d20 b743 727c b743 c144 b743 cd86 b643
00000020: eef5 b543 b524 b643 410f b743 e105 b843
369.25348 367.07745 365.4384 365.29166 366.2509 366.97223 366.53714 365.05313
363.92133 364.28677 366.11917 368.04593

linear_net.0.weight f4 [9, 18]
00000000: 97c3 703e c427 8e3d 7dc1 6f3d f769 663e
00000010: f0b9 00be 57cf 103e c285 0abe 9874 893d
00000020: ef30 6ebe 385c fabc 5888 5a3e d5c1 603e
00000030: 1a91 42bd 8130 e9bd 73d6 ccbc b2bc 1d3e
00000040: 0de2 733d 609f a5bd 2367 d2bd 21cd 1d3e
00000050: 864a 1fbe 42cb c0bd cca3 11bd eea4 613e
00000060: 1e68 393e bbc3 363e 4c68 23be 4284 a63d
00000070: 9aba 84bc 03ea ef3d 81a8 1f3e 9fd9 3cbe
00000080: 930d 43be 842d dd3c f138 6ebe a610 2e3e
00000090: bdb7 2ebe d842 0cbe 2bfd 893a d18e 093e
000000a0: 01bb 523e d842 323d 78e4 4d3e 5937 cb3d
000000b0: c0c7 6c3e ecf3 6dbd 023e 75bd 4256 95bd
000000c0: 45f6 23bd 1a26 4cbe a945 903d c720 2d3e
000000d0: 71ce f83d 684a 18be b2c2 5a3e d3c7 1dba
000000e0: 2579 e9bb c85d 51be c635 d3bd 8cec 9b3d
000000f0: c12e ea3c cc47 1abe 18e0 5f3e e72d ca3d
00000100: 5245 053e b066 0cbe 54e9 c2bd a3f4 963d
00000110: 6574 62be 010e e23d e22e 473c 7143 1a3e
00000120: dd37 393e 59cf 3e3d 68d0 fb3d 83a1 b33b
00000130: f671 6b3e 1d4b d6bc 93b5 14be 6819 01bd
00000140: f7dc 35be f156 0dbe 1bd4 523d 6c76 3a3e
00000150: 8fa8 443e 93d0 353e 172f 4e3e 878a 573e
00000160: 0a2d 11be a068 93bd 48b0 db3d a19e bdbd
00000170: ddb3 24bd 8f22 4c3e 0042 a8bc a31a 60bd
00000180: 5279 c63d b621 6c3e a70b d0bd 8988 fcbc
00000190: faba 56be ca4b e43c 2a48 c73c bd17 223e
000001a0: fc2f 45be 0387 15be c2d5 3b3e 928d d9bd
000001b0: bd52 7e3c 2f9f 4f3e 409c 513e 64dc 71bc
000001c0: 1b26 64be ee0d 46be fdbf 67be 694a 67bc
000001d0: cdb6 3bbe 1fbd 433e 0783 51be 4152 8fbd
000001e0: fbd3 ce3d 9da6 cbbd a2b3 343e 1d9a 4e3d
000001f0: 25d4 673e 93a3 093d 866a 133e 27d2 54be
00000200: c324 cdbd 21e4 d73d a183 b7bd aa12 9f3d
00000210: 5312 12be c095 3f3d f922 ec3c 5113 05be
00000220: 6d54 bcbb 2eba 3a3e 1c4b 32be 01f9 1f3d
00000230: c030 033e fe58 5e3e 3ee5 5bbe de62 da3d
00000240: b079 653e 142c 253e c52d 50be 3a0b 0cbd
00000250: 35ab ecbc 11c1 0abd 7a36 8b3c b714 7b3c
00000260: 33b2 ff3d 0225 3dbe e531 2abe 70df e9bb
00000270: 5a64 63be e5ac 6c3e b863 2c3e e773 d5bd
00000280: b8ca 2b3e 9879 d8bd
0.23512112 0.069411784 0.058534134 0.2250136 -0.1257093 0.14141594 -0.13527587 0.067116916
-0.23260854 -0.030561551 0.21341074 0.21948941 -0.04750166 -0.113862045 -0.025004601 0.15404013
0.05954175 -0.08087039 -0.10273578 0.15410282 -0.15555772 -0.09413768 -0.0355566 0.22035572
0.18106124 0.17848103 -0.15957755 0.08130695 -0.01620226 0.11714556 0.15591623 -0.18442391
-0.19048147 0.026999243 -0.23263909 0.16998538 -0.17062278 -0.13697374 0.001052772 0.13433386
0.20579149 0.04352078 0.20106685 0.09922666 0.23123074 -0.05809395 -0.05987359 -0.07291843
-0.040029783 -0.1993641 0.070445366 0.16907035 0.121487506 -0.14872134 0.21363333 -0.0006018851
-0.0071250373 -0.20445931 -0.10312991 0.07613477 0.028586747 -0.15066451 0.21862829 0.098720364
0.13014725 -0.13711047 -0.0951716 0.073708795 -0.22114713 0.11037827 0.012157174 0.1506479
0.18087716 0.04658446 0.1229561 0.0054819 0.22992691 -0.026158864 -0.1452239 -0.03151837
-0.17760073 -0.13802697 0.05147181 0.18209237 0.19204925 0.17755346 0.20135151 0.21048938
-0.14177337 -0.0719769 0.10726982 -0.09258772 -0.040210593 0.19935058 -0.020539284 -0.054712903
0.09691109 0.23059735 -0.101584725 -0.030826824 -0.20969763 0.02786817 0.024326403 0.15829368
-0.19256586 -0.14602284 0.18343261 -0.106227055 0.015522656 0.20275567 0.20469761 -0.014762018
-0.22280161 -0.19341251 -0.22631831 -0.014116862 -0.18331452 0.19115113 -0.20460139 -0.069981106
0.10099026 -0.09943888 0.1764665 0.050439943 0.2263952 0.033603262 0.14396104 -0.20783292
-0.10016777 0.10541559 -0.08960653 0.07767232 -0.14264803 0.046773672 0.02882527 -0.1299565
-0.005747369 0.18235084 -0.17411464 0.039055828 0.12811565 0.21713635 -0.21474168 0.10663389
0.22409701 0.16130096 -0.2032996 -0.034190394 -0.028890232 -0.03387553 0.01699375 0.015324763
0.12485161 -0.18471149 -0.16620596 -0.0071372315 -0.2220625 0.23112829 0.16834915 -0.10422497
0.1677655 -0.10570067

linear_net.0.bias f4 [9]
00000000: 3cc8 d3ba 6414 4ebe 91f8 053c 5e6d a13d
00000010: 57fb c7bd a5fc 053e f6d8 17bb 8255 013e
00000020: 4d93 6d3e
-0.0016157697 -0.20124966 0.008176939 0.07882188 -0.09764736 0.13084657 -0.002317009 0.12630275
0.23200722

linear_net.2.weight f4 [1, 9]
00000000: b026 6ebe ebee 6ebe 2cbf 803e a083 92bd
00000010: b8d8 74be 6b6d 353d 93d5 6abe 82a5 a63e
00000020: bb62 203e
-0.23256946 -0.23333327 0.25145853 -0.07154012 -0.23910797 0.044293802 -0.22933035 0.32548147
0.15662663

exp_avg f4 [108, 36]
00000000: 692a 59ba 2588 a2b7 064b 043b 5cee 8839
00000010: fb68 a1b8 0b0e 5139 55f6 8039 136d 05ba
00000020: a495 47b8 26e1 47b8 d68c 6ab7 0d68 f2b8
00000030: cbf5 57b8 9dc4 2639 0b4d ab39 3056 bbb8
00000040: 29dd dfb8 0c0a e4b9 07cd 3438 d30f 7036
00000050: cc00 6838 9bde b436 212e a238 531d f538
00000060: 5f58 0738 f6b8 1d39 6749 4637 13bf 2239
00000070: adde 8e36 5a67 2339 a471 cd35 1c7d 2339
00000080: e2ab 1335 ed7f 2339 5548 5434 4980 2339
00000090: db3e 043c 676d 4b39 62b7 3fbd bd8a c7bb
000000a0: e841 b03a 78c3 2dbb 12b0 8fbb 70bd 143c
000000b0: dbbc 113a 353f b03b 67dd b439 0fc0 03bc
000000c0: 7f8c 863a 32ef 24bb fa5b 30bb cdd1 d83a
000000d0: 65fc f63a 8bd0 0e3c 1b00 acb9 b01a b138
000000e0: 3f7c a4ba 0148 fc37 78bd e2ba 4581 1dbb
000000f0: 23f8 3dba 1c10 4fbb 803b 8bb9 ae2d 56bb
00000100: 72a7 c8b8 2b1c 57bb 0245 10b8 093b 57bb
00000110: 5c66 4fb7 003f 57bb 7312 95b6 843f 57bb
00000120: a811 053a 690a a336 0cc7 7c3a 83b2 8339
00000130: 178b 72b7 efae 18b8 41ff 9637 2c9b 0fb8
00000140: 6a6c 6437 47b7 f9b9 0786 8c36 ac61 593a
00000150: 4295 7eb7 c6a3 38b7 3e5a 1cb9 b870 c6b6
00000160: e24a 24b7 92dc a6b8 34a5 84b7 5e49 57b7
00000170: eb0e 3d37 b93b 58b7 eaf8 0038 780e e237
00000180: f623 6137 9995 3238 06d3 a536 9631 3c38
00000190: a420 ef35 7974 3d38 1df2 2b35 479e 3d38
000001a0: 8830 7734 a5a3 3d38 f4ab b133 54a4 3d38
000001b0: 9f95 c33b fe25 1639 a8cf f8bc cb27 84bb
000001c0: 5da8 673a 34cf eeba 13cf 3ebb cf57 c53b
000001d0: 0391 cd39 feb5 563b 0217 6639 1c28 94bb
000001e0: 932e 313a fdf5 ddba 1277 0bbb 4c06 8f3a
000001f0: 3687 a33a f459 bb3b 1366 9ab9 a62d 5038
00000200: 2ff9 52ba bf7f 89b7 484c 92ba b0d8 cfba
00000210: bb20 f5b9 ffe4 07bb 0ba8 33b9 d67b 0cbb
00000220: 8574 81b8 a515 0dbb d327 bab7 8a29 0dbb
00000230: a9ce 05b7 1d2c 0dbb 365a 40b6 712c 0dbb
00000240: 27a1 4f3b 451c ac38 3769 7dbc 54a7 0cbb
00000250: 8f7a fb39 7fd9 81ba 04af c6ba d642 4d3b
00000260: 26fe 6039 e1fc de3a d540 d338 468f 0fbb
00000270: 354a b839 d255 69ba 7769 9eba 2b65 133a
00000280: 3233 2c3a ffba 3f3b 3661 22b9 59ba 9d37
00000290: 7a86 ceb9 6dd1 5d37 3afe 16ba 90aa 51ba
000002a0: 8aad 7db9 1849 8aba 35fb b9b8 2117 8fba
000002b0: 9e04 06b8 2db8 8fba cbb7 40b7 02cd 8fba
000002c0: 3b86 8ab6 b2cf 8fba 2522 c7b5 0bd0 8fba
000002d0: 6d9e ea3b 5e46 e038 8b65 d5bc aeb7 0fbb
000002e0: c405 443a 6cb4 deba 2e1d 31bb 1d3e b83b
000002f0: 42f0 be39 90c7 773a f7ff a039 f05f e7ba
00000300: a7c6 163a f978 d3ba 5a1b ebba b13a 8a3a
00000310: 1d78 953a 44bf af3b f815 0ab9 121c ccb6
00000320: a5e8 54ba df12 e336 e663 84ba bd38 bbba
00000330: 544a dcb9 ea66 f3ba dc51 21b9 6b71 fbba
00000340: cd75 68b8 d27e fcba bd22 a7b7 a7a1 fcba
00000350: 8145 f0b6 2ca6 fcba f5b2 2cb6 bfa6 fcba
00000360: f631 173c 3c5c 7e39 3e72 5abd 8be4 efbb
00000370: 2a87 d13a ea48 4dbb d02a a5bb 28b5 2a3c
00000380: 2ea5 2c3a 984c d33b 5b1b ba39 785f 16bc
00000390: 3a8e 9b3a 1331 3ebb f44d 5cbb d7d3 f63a
000003a0: d92d 0f3b 7745 223c de1b d2b9 a940 ad38
000003b0: 6eb2 b3ba e110 b038 0bea 01bb c297 31bb
000003c0: e63f 5aba dd17 6bbb f501 a0b9 e25a 73bb
000003d0: 609a e6b8 cf6f 74bb b8cd 25b8 a493 74bb
000003e0: 635b 6eb7 4498 74bb b252 abb6 e098 74bb
000003f0: f922 233c c023 8a39 8c38 69bd bd38 00bc
-0.00082842127 -1.9375302e-05 0.002018632 0.00026117533 -7.6966324e-05 0.00019937025 0.00024597594 -0.00050898007
-4.758466e-05 -4.7654983e-05 -1.3980278e-05 -0.0001155884 -5.1488907e-05 0.00015904238 0.00032673063 -8.9329085e-05
-0.00010674663 -0.00043495034 4.310629e-05 3.5771998e-06 5.5313852e-05 5.3903327e-06 7.733354e-05 0.000116879724
3.226881e-05 0.0001504159 1.181881e-05 0.00015520705 4.2578527e-06 0.00015583393 1.5306764e-06 0.00015591498
5.501189e-07 0.00015592547 1.9770353e-07 0.00015592681 0.008071627 0.00019400344 -0.046805747 -0.006089537
0.0013447376 -0.0026514214 -0.004385003 0.009078369 0.00055594527 0.0053786286 0.00034497233 -0.008041396
0.001026526 -0.0025166986 -0.002691029 0.0016542018 0.001884353 0.008716713 -0.00032806475 8.4449886e-05
-0.0012549235 3.007427e-05 -0.0017298898 -0.002403335 -0.0007246753 -0.0031595295 -0.00026556477 -0.0032681036
-9.567932e-05 -0.0032823186 -3.4396544e-05 -0.0032841584 -1.2361994e-05 -0.0032843947 -4.442694e-06 -0.0032844255
0.00050761783 4.8589905e-06 0.00096426974 0.0002511927 -1.4456708e-05 -3.6402544e-05 1.8000255e-05 -3.4238372e-05
1.3615101e-05 -0.00047629533 4.187928e-06 0.00082924473 -1.5174332e-05 -1.1005386e-05 -0.00014910937 -5.913982e-06
-9.792597e-06 -7.956581e-05 -1.5812555e-05 -1.2832081e-05 1.1268751e-05 -1.28885085e-05 3.0749397e-05 2.6948037e-05
1.3419418e-05 4.257783e-05 4.9419496e-06 4.4868873e-05 1.7816387e-06 4.5169585e-05 6.4054785e-07 4.520852e-05
2.3021323e-07 4.5213517e-05 8.273483e-08 4.5214154e-05 0.005968764 0.00014319268 -0.030372456 -0.004033064
0.0008837039 -0.001821971 -0.0029115125 0.0060224305 0.0003920869 0.0032762284 0.0002194308 -0.004521383
0.0006758954 -0.0016934272 -0.0021280688 0.0010911911 0.0012476209 0.0057175104 -0.0002944922 4.9633578e-05
-0.00080479955 -1.6391159e-05 -0.001116165 -0.0015857425 -0.00046754428 -0.0020735858 -0.00017133371 -0.0021436117
-6.172903e-05 -0.0021527794 -2.2191472e-05 -0.0021539652 -7.975535e-06 -0.0021541186 -2.866274e-06 -0.0021541382
0.0031681748 8.206865e-05 -0.01546698 -0.002146204 0.00047965764 -0.0009906738 -0.001515836 0.0031320355
0.00021456982 0.001701262 0.0001007334 -0.0021905466 0.00035150503 -0.0008901033 -0.0012085874 0.000562268
0.0006568908 0.0029255745 -0.00015485738 1.8802633e-05 -0.00039391575 1.3221387e-05 -0.00057599286 -0.0007998133
-0.00024192609 -0.0010550348 -8.8682784e-05 -0.0010916927 -3.195239e-05 -0.0010964923 -1.1486884e-05 -0.0010971131
-4.128347e-06 -0.0010971932 -1.4836593e-06 -0.0010972036 0.007159999 0.00010694259 -0.026049396 -0.002192955
0.0007477666 -0.0016991026 -0.002702545 0.005622639 0.0003641863 0.00094520394 0.00030708287 -0.0017652493
0.00057516474 -0.0016134075 -0.0017937229 0.0010546056 0.0011403594 0.005363377 -0.0001316889 -6.0829416e-06
-0.0008121825 6.767324e-06 -0.0010100573 -0.0014283877 -0.0004201705 -0.00185701 -0.00015384651 -0.0019183581
-5.542282e-05 -0.001926387 -1.9924128e-05 -0.001927425 -7.1606487e-06 -0.0019275597 -2.5734164e-06 -0.0019275768
0.00922822 0.00024257688 -0.053331606 -0.0073209456 0.0015985717 -0.0031323978 -0.005040504 0.010419168
0.0006585893 0.0064483397 0.00035497066 -0.009178035 0.0011867948 -0.002902095 -0.00336158 0.0018831444
0.0021847396 0.009904257 -0.00040075084 8.261327e-05 -0.0013709792 8.395478e-05 -0.0019823338 -0.0027098511
-0.00083255616 -0.0035872378 -0.00030519036 -0.0037133028 -0.00010996009 -0.0037298088 -3.9530656e-05 -0.0037319446
-1.4207183e-05 -0.0037322203 -5.105824e-06 -0.0037322566 0.009957069 0.00026348047 -0.056938693 -0.007826027

exp_avg_sq f4 [108, 36]
00000000: a7f5 ff3b a3b2 2838 9706 9e3b 49a2 1a3b
00000010: d2fa 1037 01c1 0039 56d3 a339 f349 9039
00000020: 748c 4739 18e8 b13b 7bae 0738 a8ab cf3b
00000030: c219 3239 02f8 2339 ce8b 8939 3550 fa38
00000040: 57f3 aa38 de80 383a 5574 3836 97de fc35
00000050: af04 8137 63da 2637 a504 ea37 862c 2238
00000060: 1f64 a636 2103 9438 f10c 3335 669d 9f38
00000070: 35f9 b933 dc2b a138 1149 4032 8f5f a138
00000080: acb1 c630 4866 a138 0a4d 4d2f 2467 a138
00000090: d7e9 153d 733c c539 2ee0 363d b706 233c
000000a0: 966a 8a38 c2aa 433a c651 083b 326a cf3a
000000b0: ee5d a73a c4a8 bf3c 96af 9d39 ec6c cc3c
000000c0: 693b a23a 0457 883a a692 3e3a 93b6 603a
000000d0: 4ecb 0b3a 05f0 6d3b 1e29 0737 3f0d a036
000000e0: 9d73 e238 a83b 6538 3176 5539 74de 9739
000000f0: 9235 1838 2644 0b3a a7d9 a336 0234 163a
00000100: 8831 2a35 6eab 173a 8cf8 af33 13dc 173a
00000110: 17d6 3532 6be2 173a f3e1 bb30 34e3 173a
00000120: 6942 1b3c e2a0 4d38 53e4 9f3b 5b15 3e3b
00000130: 9e64 1737 02bb 1139 712b c639 1555 b139
00000140: fa7c 5839 c18c db3b 481a 2338 438d fe3b
00000150: 0b8f 5a39 2046 3039 8fc2 9639 aab0 0e39
00000160: 14be ba38 49ea 633a 8d69 6636 9001 1536
00000170: 0633 9137 ba72 3b37 77e6 ff37 20fd 3338
00000180: 8174 b536 cf12 a338 ce31 4335 0cb7 af38
00000190: b1bb ca33 fd68 b138 cd9c 5132 46a1 b138
000001a0: 3e99 d830 90a8 b138 ffcc 5f2f 85a9 b138
000001b0: 7dc8 a03c 4c70 f238 3eee a73c d72b b13b
000001c0: 66b6 1938 5ad6 b539 4f7e 493a 3c47 223a
000001d0: 6ab1 163a dd84 493c ec51 e238 40e7 7f3c
000001e0: f444 e639 6910 ea39 b670 8e3a 9aa2 c339
000001f0: ec49 8139 47f7 c33a 6016 ea36 d0a4 c736
00000200: 1a8c 3f38 1dbb 0b38 0e68 c838 4e0f fe38
00000210: e921 9037 65e9 7039 3850 1b36 a471 8239
00000220: ed58 a134 20c9 8339 d6d3 2633 aff5 8339
00000230: 5263 ac31 78fb 8339 cd1e 3230 2afc 8339
00000240: 3894 af3b 9f64 0c38 7f30 cc3b a39b d73a
00000250: 712e 4037 9e62 ce38 0ccf 6d39 6cc8 4039
00000260: f1fd 2c39 edd3 713b 2127 0238 f81f 923b
00000270: d7ac 0639 78ac 0739 62c5 7439 2955 dd38
00000280: 5b9f 9338 4d64 ec39 7344 1f36 f61d 0336
00000290: 9f8a 6837 f5c3 2837 a781 dd37 6c1c 1238
000002a0: e9c8 9e36 a27a 8738 350a 2b35 8569 9238
000002b0: 34ad b133 6de1 9338 bab5 3732 3e12 9438
000002c0: 63d5 bd30 9218 9438 2e25 442f 6219 9438
000002d0: 0d37 0a3d 28e0 373a 9738 5f3d c54f c73b
000002e0: 72be e438 7f6e 433a ea9c 3d3b 38ce a13a
000002f0: 0a3d d13a 5256 873c ce6b 2a3a 6647 a13c
00000300: f055 063b 66da 743a 091c bf3a c632 b73a
00000310: 0462 103a db57 163b 540e 2a37 0ea6 2437
00000320: 2892 0f39 9806 bb38 1d76 8d39 0bdc b839
00000330: c722 4c38 15e0 2d3a dc11 dc36 db2c 3c3a
00000340: fba1 6435 9d18 3e3a 3e66 ec33 8c58 3e3a
00000350: aa47 7432 b160 3e3a 0767 fc30 d861 3e3a
00000360: d704 123d 4059 8b39 46b5 1d3d 435c 3a3c
00000370: 6dcb 5c38 0918 323a 1ee1 f23a eecd da3a
00000380: 13ea 893a e096 d33c caa0 5039 15dc db3c
00000390: 33fd 853a 83e1 703a ff5a bd39 ce4a 2c3a
000003a0: 84ae fa39 6b98 843b 5b1b f536 1fd4 7c36
000003b0: 97fb bc38 fba6 2b38 eb49 2e39 fd4b 7e39
000003c0: c07b f737 c063 e739 5a22 8536 7d4b f939
000003d0: 7847 0a35 98b1 fb39 bdf8 8e33 3b01 fc39
000003e0: b8bc 1332 880b fc39 2da6 9830 dc0c fc39
000003f0: 54bc 593d 7d7b d339 782c 5a3d ce4f 883c
0.0078112665 4.022069e-05 0.004822563 0.0023595265 8.6414675e-06 0.00012278931 0.0003124724 0.00027520917
0.00019030442 0.005429279 3.2349006e-05 0.0063376017 0.00016984998 0.00015637281 0.0002623484 0.00011935869
8.151557e-05 0.00070382457 2.748585e-06 1.8840245e-06 1.538018e-05 9.945218e-06 2.7897137e-05 3.8665275e-05
4.958841e-06 7.057773e-05 6.670153e-07 7.6110286e-05 8.660064e-08 7.685248e-05 1.1192484e-08 7.6948774e-05
1.4456893e-09 7.6961296e-05 1.8672011e-10 7.69629e-05 0.03659996 0.00037619806 0.04464739 0.009950331
6.600206e-05 0.00074641046 0.0020800694 0.0015824495 0.0012769082 0.023395903 0.00030076195 0.024954282
0.0012377325 0.0010401909 0.0007269777 0.00085721276 0.0005332724 0.0036306393 8.0562e-06 4.7699136e-06
0.000107980544 5.4653414e-05 0.00020357293 0.00028966705 3.6289515e-05 0.0005312584 4.8831166e-06 0.00057297957
6.340201e-07 0.0005785738 8.194283e-08 0.00057929865 1.0584265e-08 0.0005793932 1.3670259e-09 0.0005794049
0.009476283 4.9025643e-05 0.0048795133 0.0029004428 9.023728e-06 0.00013897943 0.0003779787 0.00033823462
0.00020645923 0.006700129 3.8886705e-05 0.0077683046 0.00020843388 0.00016810792 0.00028755187 0.00013607988
8.904576e-05 0.0008694274 3.433411e-06 2.220364e-06 1.7309107e-05 1.117278e-05 3.0505687e-05 4.2912667e-05
5.407783e-06 7.775949e-05 7.2715636e-07 8.3787454e-05 9.440499e-08 8.459573e-05 1.22010535e-08 8.470057e-05
1.5759622e-09 8.471415e-05 2.0354561e-10 8.471593e-05 0.01962685 0.00011560376 0.020499345 0.0054068374
3.6647914e-05 0.00034682715 0.0007686363 0.00061904243 0.00057484827 0.0122997435 0.00010791779 0.015619099
0.00043920393 0.00044644185 0.0010867331 0.00037314446 0.00024659873 0.0014951014 6.9763482e-06 5.949849e-06
4.566843e-05 3.3314445e-05 9.556125e-05 0.000121145145 1.7181928e-05 0.0002297513 2.3143493e-06 0.000248802
3.005329e-07 0.00025136117 3.884255e-08 0.00025169316 5.0171503e-09 0.00025173626 6.4799793e-10 0.00025174144
0.005358245 3.347231e-05 0.006231367 0.0016449582 1.1454905e-05 9.841214e-05 0.00022679212 0.0001838521
0.00016497799 0.00369 3.1030857e-05 0.0044593774 0.00012843624 0.00012938853 0.00023343184 0.000105539635
7.0391885e-05 0.00045088158 2.373269e-06 1.953796e-06 1.3860553e-05 1.0059205e-05 2.6405627e-05 3.4835582e-05
4.732156e-06 6.460144e-05 6.371732e-07 6.981477e-05 8.27371e-08 7.051495e-05 1.0693322e-08 7.060588e-05
1.3812208e-09 7.0617665e-05 1.7839305e-10 7.061918e-05 0.033743907 0.0007014298 0.054497328 0.0060825073
0.000109073604 0.0007455125 0.002893264 0.0012344783 0.0015963626 0.016520653 0.00065010495 0.019687366
0.0020498 0.0009340405 0.0014580499 0.0013976924 0.00055077695 0.002294055 1.0136126e-05 9.813824e-06
0.0001369199 8.918083e-05 0.00026981617 0.0003525916 4.866978e-05 0.0006632817 6.55859e-06 0.0007178315
8.517233e-07 0.00072515925 1.1008204e-07 0.00072611193 1.4218964e-08 0.0007262333 1.8364695e-09 0.00072625047
0.035649147 0.00026578642 0.038502954 0.011374536 5.2641542e-05 0.00067937427 0.0018530225 0.0016693452
0.001052203 0.025828779 0.00019896324 0.026838342 0.0010222554 0.00091888773 0.00036116687 0.0006572426
0.0004781374 0.00404649 7.3047536e-06 3.7674397e-06 9.011401e-05 4.092509e-05 0.0001662147 0.00024251635
2.950232e-05 0.00044134073 3.967708e-06 0.00047549224 5.1513007e-07 0.00048006768 6.6576355e-08 0.00048066102
8.599436e-09 0.00048073777 1.1106686e-09 0.00048074767 0.05315812 0.00040337062 0.053265065 0.016639616

exp_avg f4 [108]
00000000: 5780 2339 993f 57bb 7aa4 3d38 7e2c 0dbb
00000010: 1bd0 8fba d6a6 fcba f598 74bb 019b 82bb
00000020: e8dd 0e3b d353 a9ba a2e8 37bb 03aa beba
00000030: e27e dfba ecd7 b738 92e6 273b 275a 413a
00000040: 8997 7d3a b0eb 6f39 e736 96ba f3d8 853a
00000050: cbd3 99ba 7da2 18bb 6f52 64ba a3d7 a2b9
00000060: 0faf 863a c6dc 4f3b 51bb 07bb 4eef 293a
00000070: 667c b53a 123b 98ba 1eb6 71b9 a30d 863b
00000080: cb8a 2f3a 34ac 3b3b b8cd 013a 10b8 4aba
00000090: e915 84b2 0e41 cbb2 eee1 9632 a7bc 8d32
000000a0: c8ed 4c32 1a96 2331 9214 d0b2 d587 cfb2
000000b0: 021c d532 511f e4b2 ae89 1832 d94d 22b2
000000c0: 7505 dfb2 9fbb 8db1 0639 68b1 0e91 bc32
000000d0: 2e6f ba32 fe90 4f32 62fa c9b2 552b 1db2
000000e0: 6426 8232 4531 d8b2 eca7 a5b1 61b2 a732
000000f0: 8182 0db2 30bb 7132 51a5 e4b2 355a 84b2
00000100: 6fd8 4b32 ee4c 87b2 c7c9 a032 0a18 c932
00000110: 35a5 62b2 ebd3 d8b1 fc8e a7b2 f6dd 5332
00000120: 8e0d 3b3b c7e7 d33b ac59 13bc 7694 813c
00000130: 6377 9dbb a550 8d3b bc39 043d 6bee b23b
00000140: b466 44ba 6f55 a53a d8eb b43c dd3c e03b
00000150: d7b3 bebc ffe4 363b 6f71 ac3b 9425 b3bc
00000160: 38e2 0b3c d39a d5bb f820 963d 96c4 82bb
00000170: 93cf bbbb a832 67bb 102e 9dbb 5ccb 863a
00000180: 0bff d6bb cedf 82bb f3ed 2cbb 0873 363c
00000190: 265e f53b 3de4 903b 2b93 0c3c 0a96 fe3a
000001a0: 1547 533d 0456 b9bb df35 1fbc 1c6a 7eba
0.00015592702 -0.0032844304 4.5214292e-05 -0.0021541412 -0.0010972054 -0.0019275795 -0.0037322615 -0.003985763
0.0021799747 -0.0012918658 -0.0028062244 -0.0014546517 -0.0017051364 8.7663386e-05 0.0025619608 0.00073757995
0.00096737646 0.00022880617 -0.0011460454 0.0010211751 -0.0011736093 -0.002329021 -0.00087097933 -0.0003105971
0.001027556 0.0031717285 -0.0020711015 0.00064824976 0.0013846278 -0.0011614284 -0.00023051395 0.004090981
0.0006696402 0.0028636577 0.0004951614 -0.0007733116 -1.5376786e-08 -2.3661894e-08 1.756504e-08 1.650035e-08
1.1928428e-08 2.3804945e-09 -2.4223741e-08 -2.415974e-08 2.48092e-08 -2.6556934e-08 8.878869e-09 -9.447342e-09
-2.5963098e-08 -4.12497e-09 -3.3792857e-09 2.1952044e-08 2.1703809e-08 1.2081953e-08 -2.351334e-08 -9.148455e-09
1.515145e-08 -2.5168115e-08 -4.8212225e-09 1.9522476e-08 -8.236953e-09 1.4070608e-08 -2.661787e-08 -1.5407844e-08
1.18653665e-08 -1.5751052e-08 1.871821e-08 2.3410411e-08 -1.3192495e-08 -6.3105197e-09 -1.950638e-08 1.23322845e-08
0.0028542015 0.006466839 -0.008993547 0.015817862 -0.004805492 0.004312592 0.032281622 0.0054605505
-0.00074921106 0.0012613962 0.022085115 0.006843193 -0.023279114 0.0027907488 0.005262546 -0.021868505
0.0085378215 -0.0065187006 0.07330507 -0.00399072 -0.005731532 -0.0035277996 -0.004796751 0.0010283994
-0.006561165 -0.0039939648 -0.0026386946 0.011135824 0.00748803 0.0044217394 0.008580009 0.0019423377
0.05158146 -0.005656006 -0.009717434 -0.00097051426

exp_avg_sq f4 [108]
00000000: 4567 a138 4ee3 173a a8a9 b138 45fc 8339
00000010: 7f19 9438 0462 3e3a 250d fc39 ac68 3c3a
00000020: fad0 ab39 b108 093a 75bc ed39 29ea 5939
00000030: a811 093a 2409 5c37 3a57 ac3a b473 d439
00000040: 7c16 4f39 cd47 a538 585d 023a 805a 1c38
00000050: 1010 0e39 d888 133a 91b7 4e39 2d3b c639
00000060: 2e66 6139 af7d 8e39 eea6 283a d4b1 3e39
00000070: f509 4639 a54f 2039 1d94 9139 9c76 2f3a
00000080: a30a 6638 82d1 ef38 c8ba 9d39 5860 7d38
00000090: 73e4 0927 90d5 e727 2178 1427 92e1 2e27
000000a0: efec c626 7ca4 6626 c8a4 b827 fc8f cb27
000000b0: cc9a b427 a731 c527 2e6e 8b26 8267 9b26
000000c0: 0964 c027 227c 4825 db09 3827 56fe 9927
000000d0: ab96 7e27 c620 b126 cad8 9327 e798 2226
000000e0: 7a24 1627 037d d727 c226 4426 547c 6827
000000f0: a236 4c26 2c54 1027 e1a7 d827 706b 1b27
00000100: 0e14 bc26 9eba f226 86b5 3f27 964d c627
00000110: cc61 c926 155f 8526 36af 7727 44df c726
00000120: 30d2 be37 3d7f 7d38 3118 9038 5503 193c
00000130: 6833 a83a eb89 df37 1c21 0a3c 302b df3a
00000140: 436d f437 91ea 2e38 cd4d bf3b 020d 3438
00000150: edd6 c53b 1a6f 1c38 48bd 153b 596e ba3b
00000160: 9d3f 9538 9193 db3b b687 2b3d a762 613a
00000170: 3032 2d38 eff8 2238 0230 ec37 d526 3a39
00000180: 2d24 8038 c7f3 c337 bdf9 9537 01af 703b
00000190: cc68 4d38 fbd2 763a 20ba c338 ed81 0338
000001a0: dbbe a63c 8056 d33a eddd b03b 9150 4538
7.696314e-05 0.0005794064 8.471619e-05 0.00025174223 7.061939e-05 0.000726253 0.0004807498 0.0007187228
0.0003277136 0.00052274304 0.00045344574 0.00020781964 0.0005228766 1.311515e-05 0.0013148554 0.00040521997
0.00019749434 7.881187e-05 0.0004973016 3.7277583e-05 0.00013548159 0.0005627996 0.00019714075 0.00037809592
0.00021495737 0.00027177992 0.0006433566 0.00018186058 0.00018886461 0.00015288459 0.00027766908 0.00066933944
5.484618e-05 0.00011435432 0.00030084536 6.0409628e-05 1.9136412e-15 6.4346925e-15 2.0604248e-15 2.4269633e-15
1.3803231e-15 8.00202e-16 5.1248915e-15 5.6499927e-15 5.0127867e-15 5.4732317e-15 9.674927e-16 1.0783341e-15
5.3399164e-15 1.7389293e-16 2.5540472e-15 4.2741782e-15 3.5331258e-15 1.2290725e-15 4.103574e-15 5.641226e-16
2.0836456e-15 5.9810026e-15 6.8053687e-16 3.2263866e-15 7.085076e-16 2.0029644e-15 6.013406e-15 2.1568813e-15
1.3050556e-15 1.6842706e-15 2.6604979e-15 5.504016e-15 1.3973685e-15 9.254501e-16 3.4373118e-15 1.3868915e-15
2.2747641e-05 6.04384e-05 6.870961e-05 0.009339173 0.0012832703 2.6647895e-05 0.008430745 0.0017026421
2.9137946e-05 4.170329e-05 0.005838132 4.292746e-05 0.006037584 3.729677e-05 0.0022848416 0.005689424
7.1167226e-05 0.006700941 0.04187747 0.0008597769 4.1293155e-05 3.8855647e-05 2.8155748e-05 0.00017752808
6.110254e-05 2.335933e-05 1.7878478e-05 0.0036725404 4.897341e-05 0.0009415594 9.332993e-05 3.1353837e-05
0.020354679 0.0016123801 0.0053975494 4.7043493e-05
