SensorFormer/SensorFormer/checkpoints/chpt_AdamW_lr0.0005_ep250.pt (torch, 83227 bytes, 35 tensors)

self_attn.qkv_proj.weight f4 [108, 36]
0	0x3deed64f	0.1166197
1	0x3d987217	0.07443636
2	0xbea7299a	-0.32648927
3	0xbf3b5efc	-0.7319181
4	0x3d7a9b7e	0.061183445
5	0xbcacd6c5	-0.021098504
6	0x3c3803a3	0.011231336
7	0xbd1948a7	-0.037422802
8	0x3baae06a	0.0052147405
9	0x3eeedf68	0.4665482
10	0xbda1ed46	-0.079065844
11	0xbd1a2a9a	-0.037638284
12	0x3c0a0754	0.008424599
13	0xbd8e8ab0	-0.06960046
14	0xbbdfe115	-0.006832252
15	0x3bedc4e8	0.007256139
16	0x3d3572eb	0.044299047
17	0xbd8e2915	-0.069414295
18	0xbcb31675	-0.021861294
19	0xbd7579eb	-0.059930723
20	0xbe05eae8	-0.13077891
21	0xbd01db9b	-0.031703573
22	0xbdf705f9	-0.12061686
23	0xbe01a938	-0.12662208
24	0xbdff68eb	-0.124711834
25	0xbe12f3d0	-0.1435082
26	0xbdc11ed4	-0.09429708
27	0xbe00881a	-0.12551919
28	0xbdc71a56	-0.0972182
29	0xbdf08362	-0.11743809
30	0xbddcc4c9	-0.10779721
31	0xbe1abb70	-0.15110564
32	0xbde9827f	-0.11401843
33	0xbdb913d8	-0.09036988
34	0xbd800d65	-0.06252555
35	0xbe228ad7	-0.15873276
36	0x3e933934	0.2875458
37	0xbd21025b	-0.039308887
38	0xbe048daf	-0.12944673
39	0xbfa1522c	-1.2603202
40	0x3da28ea6	0.07937364
41	0x3c95f3fe	0.018304821
42	0xbc9223d8	-0.017839357
43	0xbcf5d075	-0.030006627
44	0xbd8961f5	-0.06708137
45	0x3f2bf023	0.67163295
46	0xbc873169	-0.016503053
47	0x3e244cd5	0.16044934
48	0x3d2a155a	0.04152427
49	0x3d86fb7f	0.06590938
50	0xbe05f03b	-0.13079922
51	0xbcc37ec4	-0.023864157
52	0x3d5109a8	0.0510346
53	0xbe071ba7	-0.13194142
54	0xbd18918b	-0.037248176
55	0xbd454ae0	-0.04816711
56	0x3d6ce6a3	0.05783714
57	0xbe2b8a26	-0.16751918
58	0x3e51e815	0.20498689
59	0x3e137c1b	0.14402811
60	0x3e593f84	0.21215636
61	0x3e00fcc8	0.12596428
62	0x3e2c33e9	0.16816677
63	0x3e2f24b0	0.17103839
64	0x3e57dc42	0.21080115
65	0x3dedd03a	0.11611982
66	0x3e5b81a7	0.21436177
67	0x3e2a099e	0.16605231
68	0x3e476171	0.19470765
69	0x3e0b8605	0.13625343
70	0x3e37ae17	0.17937504
71	0x3e2e5b76	0.17027077
72	0xbe0867ec	-0.13320893
73	0xbcc2b942	-0.023769978
74	0x3e92556b	0.28580794
75	0x3f0ffa8d	0.56241685
76	0xbdc1ee60	-0.094692945
77	0x3d3391da	0.043840267
78	0xbc2c4a0e	-0.010515703
79	0x3dd5c528	0.10437995
80	0xbd27941c	-0.040912732
81	0xbee0ffaa	-0.43945056
82	0x3d48e8e1	0.049050216
83	0xbce1bc10	-0.027555496
84	0x3d3e20f9	0.046418164
85	0x3dba45f6	0.09095375
86	0x3d970dc3	0.07375672
87	0xbd67ca4e	-0.056589417
88	0xbd0f52a0	-0.034990907
89	0x3cb23cde	0.02175754
90	0x3cd7a628	0.026324347
91	0x3d8cc4ae	0.06873451
92	0x3db6de3a	0.08929105
93	0x3dbc59aa	0.091967896
94	0x3d97fee1	0.07421661
95	0x3dfd7f26	0.12377767
96	0x3d872388	0.06598574
97	0x3ded7bc7	0.11595874
98	0x3d9e65b4	0.07734242
99	0x3e23a45f	0.15980671
100	0x3d919025	0.071075715
101	0x3de969be	0.11397122
102	0x3dcf222f	0.10113942
103	0x3ddc4b38	0.10756534
104	0x3da3620c	0.07977685
105	0x3e00845a	0.12550488
106	0x3da4f8e3	0.08055284
107	0x3e1679bc	0.14694875
108	0xbe6e2f91	-0.23260333
109	0xbced32de	-0.02895492
110	0x3ed61672	0.41814
111	0x3f7806e4	0.96885514
112	0xbe1db9f7	-0.15402971
113	0x3da74cb5	0.081689276
114	0xbdb9088c	-0.09034833
115	0x3c16a1cb	0.009193848
116	0x38fae1c5	0.00011962982
117	0xbf15431a	-0.58305514
118	0x3e5985be	0.21242425
119	0x3e19d02c	0.15020818
120	0xbe1b10eb	-0.15143172
121	0x3c96e0d3	0.018417751
122	0x3ae57209	0.0017505299
123	0x3ce2f320	0.027703822
124	0x3d27d795	0.04097708
125	0x3e58ffdf	0.21191357
126	0x3df275db	0.118388854
127	0x3d8bee0e	0.06832515
128	0x3e497551	0.19673659
129	0x3c0d3c25	0.008620297
130	0x3dec7e88	0.115475714
131	0x3e0ea9e9	0.13932003
132	0x3e04d32f	0.12971185
133	0x3e2aed42	0.16692069
134	0x3e0659e4	0.13120228
135	0x3e04179b	0.1289963
136	0x3de3b5db	0.111186706
137	0x3de916fd	0.11381338
138	0x3df7d414	0.121009976
139	0x3e08ad33	0.1334732
140	0x3de46785	0.11152557
141	0x3e2853cc	0.16438216
142	0x3d9ba09c	0.07598993
143	0x3e2b4844	0.16726786
144	0xbe000a56	-0.12503943
145	0xbd140f8b	-0.036147635
146	0x3ead6030	0.33862448
147	0x3f36df6f	0.7143468
148	0xbda87b79	-0.082266755
149	0x3d785c8c	0.060635135
150	0xbc8e92cf	-0.017403988
151	0x3d2a716e	0.04161208
152	0xbd137ff7	-0.03601071
153	0xbefb5e68	-0.49095464
154	0x3d649555	0.055806477
155	0x3d49b0a2	0.049240716
156	0xbcfc5279	-0.030801045
157	0x3cfc4f85	0.030799637
158	0x3c953333	0.01821289
159	0xbd8ceda1	-0.068812616
160	0xbd2e5b80	-0.04256773
161	0x3d8e36b2	0.06944026
162	0x3d3c003a	0.045898654
163	0x3d7586d7	0.059943046
164	0x3de6fa1b	0.112781726
165	0x393569fc	0.00017300987
166	0x3de75005	0.112945594
167	0x3e16ca66	0.14725646
168	0x3d91b3f5	0.07114402
169	0x3e16247d	0.14662357
170	0x3dde53fc	0.108558625
171	0x3e07f995	0.13278802
172	0x3d57b2f4	0.052660897
173	0x3e11c651	0.14235808
174	0x3dfb768f	0.12278473
175	0x3df48803	0.11940005
176	0x3dd4ceb9	0.10390992
177	0x3e1d1980	0.15341759
178	0x3d78891f	0.060677644
179	0x3db726d8	0.08942956
180	0x3d69173b	0.05690692
181	0x3d09a08f	0.033600386
182	0xbe486784	-0.19570738
183	0xbe752761	-0.23940803
184	0xbe07d0fb	-0.13263313
185	0x3d00ca25	0.03144278
186	0x3e2e5acf	0.17026828
187	0xbdab6f3d	-0.083708264
188	0x3e521ce9	0.20518841
189	0x3e5f3892	0.21798924
190	0xbc453fe2	-0.012039157
191	0xbd91509d	-0.07095454
192	0x3d5ae98b	0.05344538
193	0x3c89bba7	0.016813112
194	0x3c7fe19a	0.015617752
195	0x3ce23cb7	0.027616842
196	0xbd27b22e	-0.04094141
197	0x3ea21c5f	0.3166227
198	0x3e162274	0.1466158
199	0x3e21ec4e	0.158128
200	0x3da822f7	0.08209794
201	0x3c090aa4	0.008364353
202	0x3dc6a47b	0.09699341
203	0x3d623501	0.05522633
204	0x3dbf0d55	0.09328715
205	0x3da7c8fa	0.0819263
206	0x3db07612	0.0861627
207	0x3d49bb02	0.04925061
208	0x3d46a6b6	0.04849883
209	0x3d925445	0.071449794
210	0x3d31f114	0.0434428
211	0x3d51526b	0.05110399
212	0x3dabc1c3	0.083865665
213	0x3db1f0f2	0.08688535
214	0x3ddac4e4	0.10682085
215	0x3d026c81	0.03184176
216	0x3eb1ddcf	0.3473954
217	0xbd1001cf	-0.035157975
218	0x3d407682	0.046988018
219	0xbee3ccf5	-0.44492307
220	0xbe2b420e	-0.16724417
221	0xbd264bb5	-0.040599544
222	0x3daf8138	0.085695684
223	0x3d14714d	0.036240865
224	0x3c4366e7	0.011926389
225	0xbd7b656f	-0.06137603
226	0x3de8da3c	0.1136975
227	0x3ece5ba5	0.40304294
228	0xbd837859	-0.06419439
229	0x3b1283b2	0.0022356329
230	0xbe96692f	-0.29377124
231	0x3de8a351	0.11359275
232	0x3caf6574	0.021410681
233	0x3e36da4f	0.17856716
234	0x3e060765	0.13088758
235	0x3d321935	0.04348107
236	0xbdb39c71	-0.08770073
237	0x3d915378	0.070959985
238	0x3e024969	0.12723316
239	0x3d856a6b	0.06514438
240	0x3dde5482	0.10855962
241	0x3de235f9	0.11045451
242	0x3df79a99	0.12090034
243	0x3e164208	0.14673626
244	0x3e07c325	0.13258035
245	0x3da8c5a9	0.08240826
246	0x3e05c9b6	0.13065228
247	0x3df53845	0.11973623
248	0x3e0d56b8	0.13802612
249	0x3dcfb31c	0.10141584
250	0x3e1bcfc7	0.1521598
251	0x3dba119c	0.0908539
252	0x3f0b41f6	0.54397523
253	0x3cc17114	0.02361349
254	0xbc9fa546	-0.019487988
255	0xbf42ab05	-0.76042205

self_attn.qkv_proj.bias f4 [108]
0	0xbe005d5d	-0.12535615
1	0x3e16bde7	0.1472088
2	0x3dffa4f3	0.124826334
3	0x3e158509	0.1460153
4	0x3dff33c8	0.12461048
5	0x3d822d34	0.06356278
6	0x3df0c903	0.1175709
7	0x3e064e68	0.13115847
8	0x3c4f9f1c	0.012672212
9	0x3de8194d	0.11332951
10	0xbe05f230	-0.13080668
11	0x3c33ad7c	0.010966655
12	0x3e339026	0.17535457
13	0xbd1b2858	-0.03788027
14	0xbe180ffd	-0.14849849
15	0x3cc8ddd1	0.024519833
16	0x3d4c7bb9	0.04992268
17	0x3dd571f8	0.104221284
18	0x3de11068	0.10989457
19	0xbe18ef52	-0.14935043
20	0x3de79188	0.11307055
21	0x3e0002df	0.12501095
22	0x3dac1b88	0.08403689
23	0x3d85bf51	0.06530631
24	0xbe033482	-0.12812999
25	0xbddd0ae6	-0.10793094
26	0x3dba5abe	0.09099339
27	0xbd4e874a	-0.05042199
28	0x3d06fb28	0.032954365
29	0x3d297cc2	0.041378744
30	0xbd628e7d	-0.05531167
31	0xbe8008d2	-0.2500673
32	0xbdaa1c35	-0.08306161
33	0xbe1d5303	-0.15363698
34	0xbdd3a525	-0.10334233
35	0x3dec2182	0.115298286
36	0xbe605ef6	-0.21911225
37	0xbe0de68c	-0.13857478
38	0x3e688ec0	0.22710705
39	0x3e84c8fb	0.25934586
40	0x3e6fac9b	0.23405688
41	0xbdf0a7c8	-0.11750752
42	0x3d9b5700	0.07584953
43	0x3cfa8991	0.030583175
44	0xbbe4e7d8	-0.0069856457
45	0xbd939919	-0.072069354
46	0x3cda6fd6	0.026664656
47	0xbe084cd9	-0.13310565
48	0x3d8bba16	0.068226025
49	0x3e1856bf	0.14876841
50	0x3e3bd052	0.18341187
51	0x3e44942b	0.19197147
52	0x3de097f1	0.109664805
53	0x3e58057a	0.21095839
54	0xbd8239ed	-0.06358705
55	0xbe44d704	-0.19222647
56	0x3e432e74	0.19060689
57	0xbdf5f6ed	-0.12009988
58	0xbd095500	-0.033528328
59	0x3da97e11	0.082759984
60	0xbe9a4220	-0.30128574
61	0xbe31f67f	-0.17379187
62	0xbdd859c5	-0.10563997
63	0xbde4d0da	-0.11172648
64	0x3e5b1498	0.21394575
65	0xbe116af8	-0.14200962
66	0x3e40f1a2	0.18842176
67	0xbe24336b	-0.1603524
68	0xbe350fe4	-0.17681843
69	0xbe7cf0ab	-0.24701183
70	0xbe3da222	-0.1851888
71	0x3e51bbf6	0.20481858
72	0x3e03e224	0.12879235
73	0xbde7ae8b	-0.11312588
74	0xbe1205bd	-0.14260001
75	0xbf19fdcd	-0.60152894
76	0x3dbbe590	0.09174645
77	0xbddf6b3e	-0.10909127
78	0xbdfb2e71	-0.12264717
79	0xbe942386	-0.28933352
80	0xbd9fc9f7	-0.078021936
81	0x3d5750aa	0.05256716
82	0xbd9f39cd	-0.077746965
83	0xbdebe9dd	-0.11519215
84	0xbe408d2c	-0.18803853
85	0x3da3846b	0.07984241
86	0xbd377339	-0.04478762
87	0x3df6a19a	0.12042542
88	0xbe0815a5	-0.13289507
89	0x3f239559	0.6389976
90	0xbe2c6271	-0.16834427
91	0x3e867395	0.26260057
92	0x3e243dfd	0.16039272
93	0x3e06b622	0.13155416
94	0xbe2d92b2	-0.16950491
95	0x3d6c5da3	0.057706486
96	0x3f019e03	0.5063173
97	0x3de4c39d	0.11170123
98	0x3e307871	0.17233445
99	0xbdd1bac2	-0.10240699
100	0xbbe15c63	-0.0068774684
101	0xbe1d95ee	-0.15389225
102	0xbe04a9a4	-0.12955338
103	0xbd5a58db	-0.053307395
104	0x3ce13943	0.027493125
105	0x3e8ca7a3	0.27471647
106	0xbf1e14db	-0.6175057
107	0xbe76e083	-0.24109082

self_attn.o_proj.weight f4 [36, 36]
0	0x3d20f652	0.03929741
1	0xbd3ed52c	-0.046590015
2	0xbd9f48c9	-0.077775545
3	0x3deb32e0	0.11484313
4	0x3e3df6a7	0.18551122
5	0xbd4466cf	-0.04794961
6	0xbe11f226	-0.14252529
7	0xbdd0a355	-0.10187403
8	0xbd17e170	-0.03708023
9	0xbd78a8d8	-0.060707897
10	0xbe26387b	-0.16232483
11	0x3d32e21e	0.043672673
12	0x3e7f7856	0.24948248
13	0x3d82ce31	0.06386984
14	0xbdff5fde	-0.12469457
15	0x3e0e48e8	0.13894999
16	0x3cc59a8b	0.024121543
17	0xbe57fd57	-0.21092735
18	0xbe6454cb	-0.22297971
19	0x3dd38abf	0.10329198
20	0x3dc53287	0.09628778
21	0x3db42e6f	0.08797919
22	0xbd1cd72a	-0.038291134
23	0xbd9672c4	-0.073461086
24	0xbe1c18bf	-0.15243815
25	0x3d071ba7	0.032985356
26	0x3dd7ebb8	0.10543007
27	0xbe079f58	-0.13244379
28	0xbdcee8db	-0.101030074
29	0xbe0f2203	-0.13977818
30	0xbded2a38	-0.11580318
31	0xbd30220f	-0.04300123
32	0xbe707543	-0.23482232
33	0x3e100b1b	0.14066736
34	0x3e4e395e	0.20139071
35	0x3dee8ec8	0.11648327
36	0x3d1cb88c	0.038261935
37	0x3da288d2	0.07936253
38	0x3d267344	0.04063727
39	0xbe0cbca8	-0.13743842
40	0x3b4b9463	0.0031063787
41	0xbd02fd51	-0.031979863
42	0x3e45ec04	0.19328314
43	0xbd5e4441	-0.05426431
44	0xbc6c97c0	-0.014440477
45	0x3d932650	0.07185042
46	0x3d6eb30e	0.05827623
47	0xbcd5bf0f	-0.02609208
48	0xbecd6bcf	-0.40121314
49	0x3d93834c	0.07202777
50	0x3d959169	0.073031254
51	0x3cc6d03b	0.024269214
52	0xbd36f9bb	-0.044671755
53	0x3e776c6d	0.24162455
54	0x3e4805df	0.1953349
55	0x3db5f645	0.08884863
56	0xbd0cea62	-0.034403212
57	0x3ae9a7e0	0.001782652
58	0x3ca590ac	0.020210586
59	0xbc62734e	-0.013821436
60	0x3e2e834f	0.17042278
61	0xbd7a1494	-0.06105478
62	0xbc10065c	-0.008790579
63	0x3d995273	0.07486429
64	0x3d8db7d2	0.069198266
65	0xbdbf1482	-0.093300834
66	0xbc2d3704	-0.010572199
67	0x3dba1dac	0.09087691
68	0x3e587911	0.21139933
69	0x3dbcb9bc	0.092151135
70	0xbe9aecc3	-0.3025876
71	0xbe7c4c3d	-0.24638458
72	0x3d82c686	0.063855216
73	0x3ae20cc2	0.0017246234
74	0x3b78b8a6	0.0037951856
75	0xbeea2ef6	-0.45738953
76	0xbde7d73a	-0.11320348
77	0xbb84f5dc	-0.004057629
78	0xbdcab067	-0.09896927
79	0x3dd465bb	0.10370966
80	0xbbf1caf2	-0.0073789293
81	0x3d00e581	0.031468872
82	0x3e4097bd	0.18807884
83	0xba4f58b9	-0.0007909644
84	0xbea833bb	-0.32851967
85	0x3bee5fbd	0.0072745965
86	0x3e19b2aa	0.15009561
87	0xbe459f20	-0.19298983
88	0x3d6d293e	0.05790066
89	0x3f02ef9a	0.5114685
90	0xbeb8be32	-0.36082608
91	0xbe1b65c9	-0.15175547
92	0x3d5ee327	0.054415848
93	0xbdaa4007	-0.083129935
94	0x3b2a522a	0.0025988915
95	0x3db7668d	0.08955107
96	0x3ec94acf	0.39314887
97	0x3d8539fb	0.065051995
98	0xbcbf2b64	-0.02333612
99	0x3e42279b	0.18960421
100	0x3d798ac3	0.06092335
101	0x3e0250a0	0.12726068
102	0xbc47baa3	-0.012190494
103	0x3d6b93b0	0.057513893
104	0xbd988ca9	-0.07448704
105	0xbe2623c0	-0.16224575
106	0xbef2ce04	-0.47422802
107	0xbec30954	-0.38093054
108	0xbc825a1a	-0.015912104
109	0x3d8e74ca	0.069558695
110	0x3e1027f0	0.14077735
111	0xbde1bb38	-0.11022037
112	0xbdd36d8b	-0.10323628
113	0x3dcbdfed	0.0995482
114	0xbdc946f6	-0.09827988
115	0x3e21ba2c	0.15793675
116	0xbd861962	-0.0654781
117	0x3d4c79da	0.049920894
118	0x3e0a0c41	0.13481237
119	0x3dd7b8fe	0.10533331
120	0x3e97e9b1	0.2967048
121	0x3d03f5e3	0.032216918
122	0x3e0d21d2	0.13782433
123	0xbdd7206e	-0.10504232
124	0x3d5a7be8	0.053340822
125	0x3de29023	0.11062648
126	0xbed22466	-0.41043395
127	0xbe0b5ac4	-0.13608843
128	0xbde37bf2	-0.11107625
129	0xbe0f1007	-0.13970958
130	0x3e2c0b9c	0.16801304
131	0xbcddfa65	-0.027096936
132	0x3da21c62	0.0791557
133	0x3b9ecdb5	0.0048462995
134	0xbd8eec2f	-0.06978642
135	0x3dfdf08c	0.12399396
136	0x3dc99358	0.09842557
137	0x3d345fe8	0.044036776
138	0x3e1c97de	0.15292308
139	0xbd8cf21a	-0.06882115
140	0xbec0d88f	-0.3766522
141	0xbdedd188	-0.116122305
142	0x3e35addf	0.17742108
143	0x3e2336f7	0.15938936
144	0x3d0a711f	0.033799287
145	0xbc493d6a	-0.012282709
146	0xbcc77c49	-0.024351256
147	0xbd3dbd5a	-0.046323158
148	0x3d05f81a	0.03270731
149	0xbd4efb15	-0.05053242
150	0x3e161122	0.14654973
151	0xbd804553	-0.062632225
152	0x3d052e93	0.03251512
153	0xbcbc281e	-0.022968348
154	0xbd814d8d	-0.0631362
155	0x3c91bfe9	0.017791705
156	0xbeae8170	-0.34083128
157	0x3d85730e	0.065160856
158	0x3ccd2c60	0.025045574
159	0x3d0e9462	0.034809478
160	0x3cd97160	0.02654332
161	0x3d875958	0.06608838
162	0x3e8a7cc8	0.27048326
163	0x3e133a67	0.14377747
164	0x3b8cfb82	0.004302443
165	0x3d2c61f0	0.042085588
166	0x3c6153b6	0.013752868
167	0x3d62e353	0.055392575
168	0x3c75dace	0.01500578
169	0x3ca7a65a	0.020465065
170	0x3cfd9af3	0.030957675
171	0xbca2a6ac	-0.019854866
172	0xbd876229	-0.066105194
173	0xbdaa5c43	-0.08318379
174	0xbd7b476f	-0.06134742
175	0x3bb440bc	0.005500881
176	0x3eb5de4a	0.35521156
177	0x3d80e5b2	0.06293811
178	0xbe2b904e	-0.16754267
179	0xbe2ce805	-0.16885383
180	0xbe06d32d	-0.13166495
181	0x3c7641b6	0.015030315
182	0x3d50a424	0.050937787
183	0x3edc7191	0.43055394
184	0x3df76c6e	0.12081228
185	0x3cf6f0ef	0.030144183
186	0xbc4aa458	-0.012368284
187	0x3c9075fe	0.017634388
188	0x3d375a6b	0.044763964
189	0xbdb89393	-0.090125225
190	0xbe0aa789	-0.13540472
191	0x3de8a114	0.11358848
192	0x3e9d6763	0.3074294
193	0xbd6e6b84	-0.058208004
194	0xbe238c3a	-0.15971461
195	0x3e05fc3d	0.13084503
196	0xbb5b6303	-0.0033475764
197	0xbf03b455	-0.5144704
198	0x3e575bed	0.2103116
199	0x3bc2218b	0.005924409
200	0xbd918ea1	-0.071072824
201	0xbcaa7a66	-0.020810317
202	0x3d8592a8	0.06522113
203	0xbe1a31ec	-0.15058106
204	0xbeabaf98	-0.33532405
205	0xbc9b5bfb	-0.018964758
206	0xbd21f8b9	-0.03954384
207	0xbe20be81	-0.15697671
208	0xbdb70aa6	-0.08937578
209	0xbd5af550	-0.053456604
210	0x3d29869b	0.041388135
211	0xbd969719	-0.07353038
212	0x3dc3f2b6	0.09567778
213	0x3ce81a8b	0.02833297
214	0x3ef740b6	0.48291558
215	0x3e6fdc89	0.23423971
216	0x3ccb49f7	0.024815543
217	0xbdba80ad	-0.09106574
218	0x3bff0419	0.007782471
219	0xbf17181d	-0.5902117
220	0x3aac84a5	0.001316209
221	0x3c5c5351	0.013447599
222	0xbe738ccf	-0.23784183
223	0x3ddb8f73	0.1072072
224	0xbcdc856e	-0.026919093
225	0x3bfaf95d	0.007659121
226	0x3d7ce85e	0.06174504
227	0xbe1364d5	-0.14393933
228	0xbdc99548	-0.09842926
229	0xbe083c3d	-0.13304229
230	0x3db52527	0.08844977
231	0xbdb61e66	-0.08892517
232	0x3c9637bd	0.018337125
233	0x3f2b212a	0.6684748
234	0xbf03dcf8	-0.51509047
235	0xbd9a1c08	-0.07524878
236	0xbcfa4c82	-0.03055406
237	0x3d8151d8	0.063144386
238	0xbd3f9481	-0.046772484
239	0x3dd3e072	0.10345544
240	0x3ee055a1	0.4381533
241	0xbb2051a6	-0.0024462729
242	0x3d09bb31	0.033625785
243	0xbd758480	-0.059940815
244	0xbdacd58a	-0.08439167
245	0x3e2a636f	0.16639493
246	0xbd9b95ba	-0.075969175
247	0xbdf6eaf6	-0.12056534
248	0xbdeb29d1	-0.11482585
249	0xbd8966b8	-0.06709045
250	0xbf0fdd9d	-0.5619753
251	0xbe6e84b3	-0.23292808
252	0x3d145645	0.036215086
253	0xbc769a5b	-0.01505145
254	0x3d80ddef	0.062923305
255	0xbdecc02e	-0.11560093

self_attn.o_proj.bias f4 [36]
0	0xbe958fce	-0.29211277
1	0x3f09b058	0.53784704
2	0x3f551689	0.8323751
3	0xbf1b1809	-0.6058355
4	0x3f05a391	0.5220271
5	0xbf5423c7	-0.8286709
6	0x3f80f3c9	1.0074397
7	0x3edcecd9	0.4314945
8	0xbf1e63c7	-0.61871
9	0x3ec3a506	0.3821184
10	0xbec8953f	-0.39176366
11	0x3f6ada9f	0.9173984
12	0xbf7a83ed	-0.9785755
13	0xbec34897	-0.3814132
14	0xbf450e80	-0.7697525
15	0x3f68f262	0.90994847
16	0x3f0c41f3	0.5478813
17	0xbf5ad984	-0.8548815
18	0xbf550d31	-0.83223253
19	0x3f2ce28a	0.6753317
20	0xbf5f501b	-0.87231606
21	0x3f388216	0.72073495
22	0xbf0f157e	-0.5589217
23	0x3f705b5e	0.93889415
24	0x3f80ad99	1.0052978
25	0xbf347cec	-0.70503116
26	0x3f4aea6f	0.7926397
27	0x3f6004b7	0.87507194
28	0xbf029f05	-0.51023895
29	0xbf201276	-0.6252817
30	0x3f7b42bb	0.981487
31	0x3f606a02	0.87661755
32	0x3f36d421	0.71417433
33	0xbf21da94	-0.6322415
34	0xbf45eee9	-0.7731767
35	0xbf6b073b	-0.9180791

fc.weight f4 [1, 18]
0	0xbde9e458	-0.11420506
1	0xbe7153e2	-0.23567155
2	0x3e61ef4f	0.22063945
3	0xbda2ea40	-0.07954836
4	0xbe56d156	-0.20978293
5	0xbe2df640	-0.16988468
6	0x3d6f9781	0.058494095
7	0x3e1468a6	0.14493045
8	0x3cc74026	0.02432258
9	0x3d169b80	0.03676939
10	0xbd066112	-0.032807417
11	0x3d209738	0.039206713
12	0xbca3dadf	-0.020001827
13	0x3e412893	0.18863134
14	0x3db508d7	0.08839577
15	0xbdcf0e64	-0.10110167
16	0x3dab77bb	0.08372446
17	0xbda951d3	-0.0826756

fc1.weight f4 [1, 36]
0	0xc005caea	-2.09051
1	0x3fdf5c05	1.7449957
2	0x3f7a0736	0.97667253
3	0xbfc18ecd	-1.5121704
4	0x40006a07	2.0064714
5	0xbf809002	-1.0043948
6	0x3efa072f	0.48833606
7	0x40063bd2	2.0974011
8	0xbe876e44	-0.26451313
9	0x401c0b09	2.4381735
10	0xc00dcda3	-2.215676
11	0x3de63adc	0.11241695
12	0xbf299a7e	-0.6625136
13	0xbf5e5301	-0.86845404
14	0xbe9fd9c8	-0.3122084
15	0x3f50536d	0.813773
16	0x3fc41a1f	1.5320472
17	0xbe566288	-0.20936024
18	0xbed26699	-0.410939
19	0x3ea5fe4e	0.32420582
20	0xbee3e0b7	-0.4450738
21	0x3eb70d43	0.35752305
22	0xbe996ce7	-0.29965898
23	0x3ee8ef00	0.45494843
24	0x3f0f13ea	0.5588976
25	0xbeb4b788	-0.35296273
26	0x3eb6a35b	0.35671505
27	0x3ebc469a	0.36772615
28	0xbfde64c0	-1.7374496
29	0xbea17edb	-0.31542096
30	0x3edcb940	0.43110085
31	0x3ecc580c	0.39910924
32	0x3e8c56ae	0.2740988
33	0xbfa03d0c	-1.251863
34	0xbf8855d5	-1.0651194
35	0xbef47d9b	-0.4775208

fc2.weight f4 [1, 9]
0	0xbe9c472c	-0.3052305
1	0xbea55562	-0.32291704
2	0xbdaec55b	-0.08533736
3	0xbcf77516	-0.030207198
4	0x3e7ffaa8	0.24997962
5	0xbe5ee9ae	-0.21768829
6	0xbea54b2c	-0.32283914
7	0x3aa8b956	0.0012872617
8	0xbe9e0de4	-0.30869973

fc3.weight f4 [1, 2]
0	0x3f02819b	0.5097901
1	0xbf15dcc8	-0.5854001

input_fc.weight f4 [18, 3]
0	0xbeb470a1	-0.3524218
1	0x3ec20cdf	0.37900445
2	0xbd829b7f	-0.06377315
3	0x3ba80b14	0.0051282737
4	0xbc88f64b	-0.016719004
5	0x3c48f138	0.012264542
6	0xbdd4dea2	-0.10394026
7	0x3d67a383	0.05655242
8	0x3ecb58de	0.39716238
9	0x3d1537c9	0.036430154
10	0xbe9d6a4f	-0.3074517
11	0x3e9feb4c	0.31234205
12	0x3e70055c	0.23439544
13	0xbde81140	-0.11331415
14	0xbe6c2091	-0.23059298
15	0x3c06e308	0.008232839
16	0x3bebdc4a	0.0071978914
17	0x3a1bc7a9	0.00059425324
18	0xbc158a38	-0.009127192
19	0xbc356d87	-0.011073477
20	0x3b3f4edf	0.0029191298
21	0xbc0a5db7	-0.008445195
22	0xbcc2291b	-0.023701241
23	0x3d199b99	0.037501905
24	0x3bef8a04	0.007310154
25	0xbc0ff3ad	-0.008786124
26	0x3ca061d1	0.019577892
27	0x3e9a2a78	0.30110526
28	0x3de5d199	0.11221618
29	0xbef280a8	-0.47363782
30	0xbe86e09c	-0.26343238
31	0x3e4c01b5	0.19922526
32	0x3e4715ca	0.19441906
33	0xbeb4735e	-0.35244268
34	0x3ebaf27a	0.3651312
35	0x3e142eeb	0.14471023
36	0x3b915be5	0.0044360035
37	0xbc6e247a	-0.014535064
38	0x3bbbe54f	0.005734123
39	0x3bbff0ac	0.0058575477
40	0x3b91edf7	0.0044534164
41	0xba60283d	-0.0008550918
42	0x3e74aecd	0.23894806
43	0xbeb0ed6e	-0.34556144
44	0x3d515f38	0.0511162
45	0xbb989b5f	-0.0046571936
46	0x3ab614ba	0.0013891675
47	0x3abc561a	0.0014368922
48	0x3a1df932	0.00060262077
49	0xbbb4061f	-0.0054938938
50	0x3c9eb6f9	0.019374358
51	0xbdbffc6d	-0.09374318
52	0x3cff3f6c	0.031158172
53	0x3dfba951	0.12288154

input_fc.bias f4 [18]
0	0xbe58292e	-0.21109459
1	0x3ded2f62	0.11581303
2	0xbe1e2c78	-0.15446651
3	0x3db0abf3	0.08626547
4	0x3dad944e	0.084755525
5	0xbd16aab1	-0.036783878
6	0x3cd1a7eb	0.025592765
7	0x3e8d6ba2	0.2762118
8	0xbd927c68	-0.07152635
9	0x3c2bd891	0.010488645
10	0xbe1982e9	-0.14991345
11	0xbe678ba2	-0.2261186
12	0x3d0818dd	0.033226836
13	0xbcf71689	-0.030162113
14	0x3e3e2c17	0.18571506
15	0x3bc7a884	0.0060930867
16	0x3e1ed8de	0.15512416
17	0x3c81db76	0.015851717

norm.weight f4 [36]
0	0x3f800000	1.0
1	0x3f800000	1.0
2	0x3f800000	1.0
3	0x3f800000	1.0
4	0x3f800000	1.0
5	0x3f800000	1.0
6	0x3f800000	1.0
7	0x3f800000	1.0
8	0x3f800000	1.0
9	0x3f800000	1.0
10	0x3f800000	1.0
11	0x3f800000	1.0
12	0x3f800000	1.0
13	0x3f800000	1.0
14	0x3f800000	1.0
15	0x3f800000	1.0
16	0x3f800000	1.0
17	0x3f800000	1.0
18	0x3f800000	1.0
19	0x3f800000	1.0
20	0x3f800000	1.0
21	0x3f800000	1.0
22	0x3f800000	1.0
23	0x3f800000	1.0
24	0x3f800000	1.0
25	0x3f800000	1.0
26	0x3f800000	1.0
27	0x3f800000	1.0
28	0x3f800000	1.0
29	0x3f800000	1.0
30	0x3f800000	1.0
31	0x3f800000	1.0
32	0x3f800000	1.0
33	0x3f800000	1.0
34	0x3f800000	1.0
35	0x3f800000	1.0

norm.bias f4 [36]
0	0x00000000	0.0
1	0x00000000	0.0
2	0x00000000	0.0
3	0x00000000	0.0
4	0x00000000	0.0
5	0x00000000	0.0
6	0x00000000	0.0
7	0x00000000	0.0
8	0x00000000	0.0
9	0x00000000	0.0
10	0x00000000	0.0
11	0x00000000	0.0
12	0x00000000	0.0
13	0x00000000	0.0
14	0x00000000	0.0
15	0x00000000	0.0
16	0x00000000	0.0
17	0x00000000	0.0
18	0x00000000	0.0
19	0x00000000	0.0
20	0x00000000	0.0
21	0x00000000	0.0
22	0x00000000	0.0
23	0x00000000	0.0
24	0x00000000	0.0
25	0x00000000	0.0
26	0x00000000	0.0
27	0x00000000	0.0
28	0x00000000	0.0
29	0x00000000	0.0
30	0x00000000	0.0
31	0x00000000	0.0
32	0x00000000	0.0
33	0x00000000	0.0
34	0x00000000	0.0
35	0x00000000	0.0

norm1.weight f4 [9]
0	0x3f800000	1.0
1	0x3f800000	1.0
2	0x3f800000	1.0
3	0x3f800000	1.0
4	0x3f800000	1.0
5	0x3f800000	1.0
6	0x3f800000	1.0
7	0x3f800000	1.0
8	0x3f800000	1.0

norm1.bias f4 [9]
0	0x00000000	0.0
1	0x00000000	0.0
2	0x00000000	0.0
3	0x00000000	0.0
4	0x00000000	0.0
5	0x00000000	0.0
6	0x00000000	0.0
7	0x00000000	0.0
8	0x00000000	0.0

norm2.weight f4 [9]
0	0x3f800000	1.0
1	0x3f800000	1.0
2	0x3f800000	1.0
3	0x3f800000	1.0
4	0x3f800000	1.0
5	0x3f800000	1.0
6	0x3f800000	1.0
7	0x3f800000	1.0
8	0x3f800000	1.0

norm2.bias f4 [9]
0	0x00000000	0.0
1	0x00000000	0.0
2	0x00000000	0.0
3	0x00000000	0.0
4	0x00000000	0.0
5	0x00000000	0.0
6	0x00000000	0.0
7	0x00000000	0.0
8	0x00000000	0.0

m.running_mean f4 [12]
0	0x3f712936	0.9420351
1	0x3f774ce5	0.96601707
2	0x3f731505	0.9495395
3	0x3f69f76c	0.9139316
4	0x3f64d951	0.893941
5	0x3f67e090	0.9057703
6	0x3f6e81f9	0.9316707
7	0x3f705ad5	0.938886
8	0x3f68de48	0.90964174
9	0x3f5c6877	0.860969
10	0x3f541899	0.82850033
11	0x3f560001	0.83593756

m.running_var f4 [12]
0	0x43c818a2	400.19244
1	0x43c6ac1d	397.34464
2	0x43c594af	395.1616
3	0x43c565d9	394.7957
4	0x43c65e21	396.73538
5	0x43c6f972	397.9488
6	0x43c6cee5	397.61636
7	0x43c5f186	395.8869
8	0x43c544eb	394.53842
9	0x43c58b39	395.08768
10	0x43c68cf4	397.1012
11	0x43c7b3da	399.4051

linear_net.0.weight f4 [9, 18]
0	0x3e70c397	0.23512112
1	0x3d8e27c4	0.069411784
2	0x3d6fc17d	0.058534134
3	0x3e6669f7	0.2250136
4	0xbe00b9f0	-0.1257093
5	0x3e10cf57	0.14141594
6	0xbe0a85c2	-0.13527587
7	0x3d897498	0.067116916
8	0xbe6e30ef	-0.23260854
9	0xbcfa5c38	-0.030561551
10	0x3e5a8858	0.21341074
11	0x3e60c1d5	0.21948941
12	0xbd42911a	-0.04750166
13	0xbde93081	-0.113862045
14	0xbcccd673	-0.025004601
15	0x3e1dbcb2	0.15404013
16	0x3d73e20d	0.05954175
17	0xbda59f60	-0.08087039
18	0xbdd26723	-0.10273578
19	0x3e1dcd21	0.15410282
20	0xbe1f4a86	-0.15555772
21	0xbdc0cb42	-0.09413768
22	0xbd11a3cc	-0.0355566
23	0x3e61a4ee	0.22035572
24	0x3e39681e	0.18106124
25	0x3e36c3bb	0.17848103
26	0xbe23684c	-0.15957755
27	0x3da68442	0.08130695
28	0xbc84ba9a	-0.01620226
29	0x3defea03	0.11714556
30	0x3e1fa881	0.15591623
31	0xbe3cd99f	-0.18442391
32	0xbe430d93	-0.19048147
33	0x3cdd2d84	0.026999243
34	0xbe6e38f1	-0.23263909
35	0x3e2e10a6	0.16998538
36	0xbe2eb7bd	-0.17062278
37	0xbe0c42d8	-0.13697374
38	0x3a89fd2b	0.001052772
39	0x3e098ed1	0.13433386
40	0x3e52bb01	0.20579149
41	0x3d3242d8	0.04352078
42	0x3e4de478	0.20106685
43	0x3dcb3759	0.09922666
44	0x3e6cc7c0	0.23123074
45	0xbd6df3ec	-0.05809395
46	0xbd753e02	-0.05987359
47	0xbd955642	-0.07291843
48	0xbd23f645	-0.040029783
49	0xbe4c261a	-0.1993641
50	0x3d9045a9	0.070445366
51	0x3e2d20c7	0.16907035
52	0x3df8ce71	0.121487506
53	0xbe184a68	-0.14872134
54	0x3e5ac2b2	0.21363333
55	0xba1dc7d3	-0.0006018851
56	0xbbe97925	-0.0071250373
57	0xbe515dc8	-0.20445931
58	0xbdd335c6	-0.10312991
59	0x3d9bec8c	0.07613477
60	0x3cea2ec1	0.028586747
61	0xbe1a47cc	-0.15066451
62	0x3e5fe018	0.21862829
63	0x3dca2de7	0.098720364
64	0x3e054552	0.13014725
65	0xbe0c66b0	-0.13711047
66	0xbdc2e954	-0.0951716
67	0x3d96f4a3	0.073708795
68	0xbe627465	-0.22114713
69	0x3de20e01	0.11037827
70	0x3c472ee2	0.012157174
71	0x3e1a4371	0.1506479
72	0x3e3937dd	0.18087716
73	0x3d3ecf59	0.04658446
74	0x3dfbd068	0.1229561
75	0x3bb3a183	0.0054819
76	0x3e6b71f6	0.22992691
77	0xbcd64b1d	-0.026158864
78	0xbe14b593	-0.1452239
79	0xbd011968	-0.03151837
80	0xbe35dcf7	-0.17760073
81	0xbe0d56f1	-0.13802697
82	0x3d52d41b	0.05147181
83	0x3e3a766c	0.18209237
84	0x3e44a88f	0.19204925
85	0x3e35d093	0.17755346
86	0x3e4e2f17	0.20135151
87	0x3e578a87	0.21048938
88	0xbe112d0a	-0.14177337
89	0xbd9368a0	-0.0719769
90	0x3ddbb048	0.10726982
91	0xbdbd9ea1	-0.09258772
92	0xbd24b3dd	-0.040210593
93	0x3e4c228f	0.19935058
94	0xbca84200	-0.020539284
95	0xbd601aa3	-0.054712903
96	0x3dc67952	0.09691109
97	0x3e6c21b6	0.23059735
98	0xbdd00ba7	-0.101584725
99	0xbcfc8889	-0.030826824
100	0xbe56bafa	-0.20969763
101	0x3ce44bca	0.02786817
102	0x3cc7482a	0.024326403
103	0x3e2217bd	0.15829368
104	0xbe452ffc	-0.19256586
105	0xbe158703	-0.14602284
106	0x3e3bd5c2	0.18343261
107	0xbdd98d92	-0.106227055
108	0x3c7e52bd	0.015522656
109	0x3e4f9f2f	0.20275567
110	0x3e519c40	0.20469761
111	0xbc71dc64	-0.014762018
112	0xbe64261b	-0.22280161
113	0xbe460dee	-0.19341251
114	0xbe67bffd	-0.22631831
115	0xbc674a69	-0.014116862
116	0xbe3bb6cd	-0.18331452
117	0x3e43bd1f	0.19115113
118	0xbe518307	-0.20460139
119	0xbd8f5241	-0.069981106
120	0x3dced3fb	0.10099026
121	0xbdcba69d	-0.09943888
122	0x3e34b3a2	0.1764665
123	0x3d4e9a1d	0.050439943
124	0x3e67d425	0.2263952
125	0x3d09a393	0.033603262
126	0x3e136a86	0.14396104
127	0xbe54d227	-0.20783292
128	0xbdcd24c3	-0.10016777
129	0x3dd7e421	0.10541559
130	0xbdb783a1	-0.08960653
131	0x3d9f12aa	0.07767232
132	0xbe121253	-0.14264803
133	0x3d3f95c0	0.046773672
134	0x3cec22f9	0.02882527
135	0xbe051351	-0.1299565
136	0xbbbc546d	-0.005747369
137	0x3e3aba2e	0.18235084
138	0xbe324b1c	-0.17411464
139	0x3d1ff901	0.039055828
140	0x3e0330c0	0.12811565
141	0x3e5e58fe	0.21713635
142	0xbe5be53e	-0.21474168
143	0x3dda62de	0.10663389
144	0x3e6579b0	0.22409701
145	0x3e252c14	0.16130096
146	0xbe502dc5	-0.2032996
147	0xbd0c0b3a	-0.034190394
148	0xbcecab35	-0.028890232
149	0xbd0ac111	-0.03387553
150	0x3c8b367a	0.01699375
151	0x3c7b14b7	0.015324763
152	0x3dffb233	0.12485161
153	0xbe3d2502	-0.18471149
154	0xbe2a31e5	-0.16620596
155	0xbbe9df70	-0.0071372315
156	0xbe63645a	-0.2220625
157	0x3e6cace5	0.23112829
158	0x3e2c63b8	0.16834915
159	0xbdd573e7	-0.10422497
160	0x3e2bcab8	0.1677655
161	0xbdd87998	-0.10570067

linear_net.0.bias f4 [9]
0	0xbad3c83c	-0.0016157697
1	0xbe4e1464	-0.20124966
2	0x3c05f891	0.008176939
3	0x3da16d5e	0.07882188
4	0xbdc7fb57	-0.09764736
5	0x3e05fca5	0.13084657
6	0xbb17d8f6	-0.002317009
7	0x3e015582	0.12630275
8	0x3e6d934d	0.23200722

linear_net.2.weight f4 [1, 9]
0	0xbe6e26b0	-0.23256946
1	0xbe6eeeeb	-0.23333327
2	0x3e80bf2c	0.25145853
3	0xbd9283a0	-0.07154012
4	0xbe74d8b8	-0.23910797
5	0x3d356d6b	0.044293802
6	0xbe6ad593	-0.22933035
7	0x3ea6a582	0.32548147
8	0x3e2062bb	0.15662663

exp_avg f4 [108, 36]
0	0xba49268b	-0.0007673285
1	0x37896e3e	1.6383008e-05
2	0x3b8647ae	0.0040979004
3	0x3a0095cb	0.00049051334
4	0xba871835	-0.0010306897
5	0x392fc42f	0.00016762385
6	0xb9469700	-0.00018939003
7	0x391da498	0.00015034003
8	0x391233f0	0.00013942993
9	0xb9ca50ce	-0.00038588647
10	0x3aa288a7	0.0012400345
11	0x3acc9d72	0.0015610887
12	0xb88b8e29	-6.654516e-05
13	0x38b97777	8.8437395e-05
14	0xb9dbc73c	-0.00041919376
15	0xb813488d	-3.51151e-05
16	0x3928c5a4	0.00016095355
17	0x3a110d72	0.00055333145
18	0x38a8cc86	8.04896e-05
19	0x37aa5de0	2.0309293e-05
20	0x395bde78	0.00020968344
21	0x38d8171c	0.00010303987
22	0x39225279	0.00015480247
23	0x39aa74c1	0.00032511915
24	0x38804345	6.1160456e-05
25	0x39c4f0fc	0.0003756358
26	0x37baa6b9	2.2250564e-05
27	0x39c89f74	0.00038265774
28	0x37065ec3	8.009086e-06
29	0x39c91a56	0.0003835733
30	0x36413339	2.8789057e-06
31	0x39c92a38	0.00038369163
32	0x358ade65	1.0346527e-06
33	0x39c92c44	0.00038370688
34	0x34c7a0c1	3.7183602e-07
35	0x39c92c8e	0.00038370903
36	0x3c7f065f	0.015565484
37	0xba1418c8	-0.00056494446
38	0xbd79e881	-0.06101275
39	0xbbdd7a90	-0.0067589954
40	0x3c4c6caa	0.012477079
41	0xbb460091	-0.003021274
42	0x3b60fbb6	0.003432972
43	0xbb0750ef	-0.0020647605
44	0xbb2ed83e	-0.0026679183
45	0x3a2e99fb	0.0006660518
46	0xbc80118c	-0.015633367
47	0xbca1b5ec	-0.019740067
48	0x3a2d95ee	0.00066217675
49	0xbaee9497	-0.0018202242
50	0x3b88f22b	0.0041792593
51	0x3a4b2c93	0.00077504775
52	0xbb3bfd52	-0.0028684926
53	0xbbf514f5	-0.007479305
54	0xba0d9e34	-0.0005402297
55	0xba036876	-0.00050128193
56	0xbb28ced2	-0.002575804
57	0x39dffc3b	0.000427218
58	0xbb4c54f4	-0.0031178566
59	0xbb8a6082	-0.0042229304
60	0xbaa8cc44	-0.0012878259
61	0xbbb50fb8	-0.0055255555
62	0xb9f6fe8e	-0.00047110434
63	0xbbbb2022	-0.0057106176
64	0xb931efd8	-0.00016969384
65	0xbbbbeb1a	-0.0057348134
66	0xb87fdd50	-6.100285e-05
67	0xbbbc055b	-0.005737943
68	0xb7b7e9af	-2.1924117e-05
69	0xbbbc08be	-0.005738347
70	0xb70430bb	-7.879159e-06
71	0xbbbc092e	-0.005738399
72	0x3891bdd7	6.949499e-05
73	0x3780f526	1.5372945e-05
74	0xb98a29dc	-0.000263526
75	0xb8deed1c	-0.0001062995
76	0x38c87e80	9.5603056e-05
77	0x376af438	1.40043485e-05
78	0xb792c87c	-1.7497914e-05
79	0xb794dd1c	-1.7745937e-05
80	0x37ad4875	2.0656948e-05
81	0x390ac8fb	0.00013235577
82	0xb8b8298d	-8.781543e-05
83	0xb8b46eae	-8.6036845e-05
84	0x37cc4560	2.4351e-05
85	0x37b54f9e	2.1613956e-05
86	0xb77f0e84	-1.5202564e-05
87	0xb73b281c	-1.1155407e-05
88	0x3780ca85	1.5353095e-05
89	0xb7e2d277	-2.7039305e-05
90	0xb7d588d9	-2.5455303e-05
91	0x37849ac4	1.5807695e-05
92	0xb863b200	-5.4286793e-05
93	0xb8d412c6	-0.000101124446
94	0x37d0ab4a	2.4875295e-05
95	0xb8712604	-5.7494282e-05
96	0x375717bc	1.2820525e-05
97	0xb80fc5bd	-3.4278015e-05
98	0x36a12364	4.802294e-06
99	0xb8015590	-3.0835683e-05
100	0x35e8ddcf	1.7349902e-06
101	0xb7fedfb2	-3.0383326e-05
102	0x35277d5f	6.2394787e-07
103	0xb7fe61d4	-3.0324714e-05
104	0x3470caba	2.2425493e-07
105	0xb7fe519f	-3.0317167e-05
106	0x33ad12fe	8.059395e-08
107	0xb7fe4f80	-3.031618e-05
108	0xbb184413	-0.0023233935
109	0x389a1cd9	7.3486655e-05
110	0x3aa416b0	0.0012518968
111	0x39f8fe63	0.0004749178
112	0x3a50f618	0.0007971241
113	0x391b94bc	0.0001483736
114	0xb92caea5	-0.00016468258
115	0x37de1112	2.6472411e-05
116	0x3928b87d	0.00016090456
117	0x3abb18da	0.0014274374
118	0xba63a73a	-0.00086842815
119	0xbaa77af7	-0.0012777735
120	0x37fad97c	2.9903596e-05
121	0x38d78c7b	0.000102781654
122	0x3a9648e3	0.0011465814
123	0xb83f58b6	-4.5620567e-05
124	0x3910088d	0.00013736096
125	0xb947bf98	-0.00019049493
126	0xb9035fe6	-0.00012528858
127	0x382cafdd	4.117178e-05
128	0x3883a8d8	6.2780164e-05
129	0xb99b9873	-0.00029677487
130	0x39503268	0.00019855204
131	0x38162980	3.5801437e-05
132	0x38b212a7	8.491176e-05
133	0x390ee7a0	0.00013628462
134	0x3802cf25	3.1187334e-05
135	0x391df570	0.0001506412
136	0x373c91a8	1.12395865e-05
137	0x391feda5	0.00015251951
138	0x368795de	4.0407604e-06
139	0x39202ee0	0.00015276251
140	0x35c2eaa3	1.4522415e-06
141	0x3920374e	0.00015279392
142	0x350c197d	5.2191155e-07
143	0x39203865	0.00015279798
144	0x39a29614	0.00031010865
145	0x36f08e8b	7.1691516e-06
146	0xbb06f201	-0.0020591023
147	0xb995b4b6	-0.00028554135
148	0x3a18b243	0.0005824903
149	0xb8832c7d	-6.254853e-05
150	0x38928368	6.986299e-05
151	0xb8ac278f	-8.2089675e-05
152	0xb831ebd2	-4.2419713e-05
153	0x39af5966	0.00033445208
154	0xba31b0c5	-0.0006778355
155	0xba5e522d	-0.0008480873
156	0x3853a61e	5.046103e-05
157	0xb7b7856b	-2.1877428e-05
158	0x39747994	0.00023314945
159	0x37070364	8.0474165e-06
160	0xb86d225c	-5.6537203e-05
161	0xb994a684	-0.00028352824
162	0xb899bb62	-7.330511e-05
163	0x35f40358	1.818039e-06
164	0xb9038a6f	-0.00012544704
165	0xb9192c8e	-0.00014607815
166	0xb82ea9ae	-4.164286e-05
167	0xb94b9486	-0.00019414918
168	0xb76e7d37	-1.4215059e-05
169	0xb94d626c	-0.00019586988
170	0xb6aa14ab	-5.068801e-06
171	0xb94d7b6a	-0.00019596299
172	0xb5f43e46	-1.8197541e-06
173	0xb94d7e10	-0.00019597285
174	0xb52f8787	-6.53898e-07
175	0xb94d7e5d	-0.00019597397
176	0xb47c52d6	-2.3499464e-07
177	0xb94d7e69	-0.00019597415
178	0xb3b55c4b	-8.445257e-08
179	0xb94d7e6d	-0.00019597421
180	0x3995fa8e	0.00028606172
181	0xb7b29cab	-2.1292208e-05
182	0xbb5b3159	-0.0033446162
183	0xb9539028	-0.0002017623
184	0x3a76fed5	0.0009422128
185	0xb925b78e	-0.00015804006
186	0x393eca62	0.00018195205
187	0xb8e55617	-0.000109356064
188	0xb90b4df1	-0.00013285108
189	0x39a847ae	0.00032096863
190	0xba99a149	-0.001172104
191	0xbacc3a97	-0.0015581426
192	0x3821d3fc	3.8582817e-05
193	0xb8cf02e0	-9.871065e-05
194	0x3a1eee2c	0.0006062712
195	0x3834b740	4.308601e-05
196	0xb91bbfdd	-0.00014853427
197	0xba033c26	-0.0005006216
198	0xb7f0fae8	-2.8727067e-05
199	0xb793c409	-1.7615052e-05
200	0xb8d644bb	-0.00010217117
201	0x382b263f	4.0805196e-05
202	0xb93687cd	-0.00017407462
203	0xb95bc46f	-0.00020958645
204	0xb89a7ee3	-7.366927e-05
205	0xb997ed98	-0.00028977985
206	0xb7e2bc71	-2.702905e-05
207	0xb99dfa7e	-0.00030132005
208	0xb7236795	-9.739674e-06
209	0xb99ec554	-0.0003028313
210	0xb66afab3	-3.5014643e-06
211	0xb99edf93	-0.00030302684
212	0xb5a8e6e1	-1.258417e-06
213	0xb99ee2f5	-0.00030305205
214	0xb4f2cd53	-4.5225406e-07
215	0xb99ee366	-0.00030305533
216	0xbb478ca7	-0.0030448826
217	0x3780644a	1.530549e-05
218	0xbc58752d	-0.013211531
219	0x39d4f47f	0.00040617955
220	0x3bb8cc3f	0.0056395824
221	0xba0ce69c	-0.00053749396
222	0x3a270f14	0.0006372791
223	0xb9d6ce38	-0.00040970906
224	0xb9c63214	-0.00037802814
225	0x3b6095d3	0.003426899
226	0xbbe3b604	-0.006949188
227	0xbc1e494a	-0.009661028
228	0x395509f0	0.00020316965
229	0xb9b55f81	-0.00034594166
230	0x3ba894ae	0.005144677
231	0x392a0a0f	0.0001621621
232	0xb9faebd1	-0.00047859413
233	0xbb2b2ff7	-0.0026121119
234	0xb9ce3b7d	-0.00039335704
235	0x3722f699	9.713368e-06
236	0xb9c5c09e	-0.0003771828
237	0xb9c186ff	-0.00036912409
238	0xb9e3c938	-0.00043446734
239	0xba718c6d	-0.00092143455
240	0xb93d9b5c	-0.0001808232
241	0xba902922	-0.0010998587
242	0xb88ade29	-6.621733e-05
243	0xba938813	-0.0011255763
244	0xb7c81c4d	-2.3855036e-05
245	0xba93f919	-0.0011289447
246	0xb70fe08c	-8.575746e-06
247	0xba9407ba	-0.0011293807
248	0xb64ed5da	-3.082087e-06
249	0xba94099d	-0.0011294369
250	0xb594aa96	-1.1076506e-06
251	0xba9409de	-0.0011294445
252	0xbb16687c	-0.002295046
253	0xb81f4bf4	-3.797929e-05
254	0xbcaace91	-0.020850452
255	0xb97f0317	-0.00024319846

exp_avg_sq f4 [108, 36]
0	0x3c01d26e	0.0079237055
1	0x39a9eeaa	0.0003241201
2	0x3c4c136e	0.012455804
3	0x3a7980c0	0.00095177814
4	0x3b21ed19	0.0024707972
5	0x39bb8e92	0.00035773643
6	0x39b915a2	0.00035302067
7	0x395b3edf	0.00020908889
8	0x39b95288	0.0003534744
9	0x3bc0dde1	0.005885825
10	0x3b70bf83	0.0036735244
11	0x3c01d40c	0.007924091
12	0x399d5c82	0.00030014297
13	0x398c2e8b	0.00026737558
14	0x3b71e710	0.0036911406
15	0x398bd973	0.00026674158
16	0x396cd5ce	0.00022586362
17	0x39f0a5c3	0.0004589987
18	0x36ea0cde	6.9752414e-06
19	0x36d50ac4	6.349148e-06
20	0x3840b9d6	4.594944e-05
21	0x37c1cb02	2.3101926e-05
22	0x38b0b145	8.425353e-05
23	0x38ecc04a	0.000112891736
24	0x377e6afd	1.516449e-05
25	0x395d37d8	0.00021097006
26	0x36091c55	2.0431082e-06
27	0x396f32fa	0.00022811806
28	0x348e712c	2.6531904e-07
29	0x39719d1b	0.00023042077
30	0x331347c7	3.4291386e-08
31	0x3971ed69	0.00023071993
32	0x31983087	4.429299e-09
33	0x3971f7c3	0.0002307585
34	0x301d4005	5.7207244e-10
35	0x3971f91a	0.00023076349
36	0x3ceabc17	0.028654141
37	0x3b07a26d	0.0020696179
38	0x3d4dbd4a	0.05022935
39	0x3aaee3ba	0.0013343014
40	0x3b8adcbd	0.00423774
41	0x3ad2f00b	0.0016093267
42	0x3acf3a30	0.0015810188
43	0x3a55c3a3	0.00081544573
44	0x3b116b5c	0.0022189235
45	0x3c69f609	0.014279851
46	0x3bc5387a	0.0060186954
47	0x3c232877	0.009958378
48	0x3af35ed9	0.0018567696
49	0x3a9b3120	0.0011840202
50	0x3bc21f56	0.0059241457
51	0x3a8291c3	0.0009961653
52	0x3adb8389	0.0016747575
53	0x3a6a78f7	0.0008944417
54	0x373df69e	1.1322698e-05
55	0x3781202f	1.5392985e-05
56	0x3926269a	0.00015845374
57	0x38efa93a	0.00011427929
58	0x39b45991	0.00034399008
59	0x39ec59f1	0.0004508044
60	0x38831bc0	6.2517356e-05
61	0x3a5e7880	0.0008486584
62	0x370d783e	8.432251e-06
63	0x3a70e15a	0.00091888534
64	0x3592fdd5	1.0951723e-06
65	0x3a735aec	0.0009283263
66	0x3417fcbe	1.4154918e-07
67	0x3a73ad23	0.0009295514
68	0x329d0dbc	1.8283451e-08
69	0x3a73b7b7	0.000929709
70	0x31224699	2.3614233e-09
71	0x3a73b91a	0.00092972966
72	0x3bdb5b73	0.006694251
73	0x3978c78d	0.00023725462
74	0x3c21042d	0.009827656
75	0x3a47bf60	0.00076197647
76	0x3b0e63c2	0.002172694
77	0x3989d84d	0.00026291833
78	0x398714e9	0.00025764786
79	0x39199151	0.00014645352
80	0x398b1eed	0.00026535187
81	0x3b964934	0.004586363
82	0x3b538600	0.0032275915
83	0x3be06b4a	0.0068487274
84	0x396315a2	0.00021656466
85	0x394f6ff2	0.00019782761
86	0x3b52723f	0.0032111553
87	0x39484d58	0.00019102299
88	0x393852ab	0.00017578404
89	0x39cf8a2a	0.00039585057
90	0x36c7a630	5.950009e-06
91	0x36ad6061	5.1670218e-06
92	0x38173739	3.6052636e-05
93	0x3797e397	1.8106583e-05
94	0x38854434	6.354638e-05
95	0x38b4a428	8.613645e-05
96	0x373faea1	1.1425146e-05
97	0x39279c1e	0.00015984519
98	0x35ce9449	1.5391353e-06
99	0x39351eb2	0.0001727294
100	0x34569bfc	1.998705e-07
101	0x3936ef2b	0.0001744597
102	0x32dde601	2.583238e-08
103	0x39372b7b	0.00017468438
104	0x31654b97	3.3366854e-09
105	0x39373346	0.00017471341
106	0x2feceb60	4.3095394e-10
107	0x39373433	0.00017471686
108	0x3c7bf5f9	0.015378469
109	0x3a3e7398	0.00072651496
110	0x3cea8bb0	0.028631061
111	0x3ae8be4e	0.001775691
112	0x3b81bb57	0.0039591
113	0x3a7c498f	0.0009623998
114	0x3a76d0dd	0.00094152783
115	0x3a0db68c	0.0005405925
116	0x3a4d7a8b	0.000783839
117	0x3c55311b	0.013012196
118	0x3bbecf01	0.0058230166
119	0x3c519ac8	0.01279325
120	0x3a353aa1	0.00069133384
121	0x3a3b3fbe	0.0007142982
122	0x3bc21d21	0.0059238826
123	0x3a3a75af	0.0007112873
124	0x3a099e7a	0.000524975
125	0x3a543761	0.00080954103
126	0x374a7d9b	1.2069383e-05
127	0x376246c1	1.3487123e-05
128	0x38ddb854	0.00010572435
129	0x38771cb3	5.8916117e-05
130	0x395b38f9	0.00020906691
131	0x398e8122	0.00027180562
132	0x381e7782	3.7781436e-05
133	0x3a06d3fc	0.00051432825
134	0x36aae125	5.092605e-06
135	0x3a11fd61	0.00055690674
136	0x353188e1	6.6136823e-07
137	0x3a137d45	0.00056262716
138	0x33b790e4	8.547957e-08
139	0x3a13af1e	0.00056336995
140	0x323daf5a	1.1041118e-08
141	0x3a13b58d	0.0005634658
142	0x30c3fe27	1.4260352e-09
143	0x3a13b669	0.0005634786
144	0x3c330e74	0.010928739
145	0x39e812de	0.00044264545
146	0x3c90af2b	0.017661652
147	0x3aaacbfb	0.0013030762
148	0x3b61c6d5	0.0034450789
149	0x3a07632e	0.000516462
150	0x3a05c2c9	0.00051025726
151	0x399a5e7b	0.00029443562
152	0x39fc5f2e	0.000481361
153	0x3c070e25	0.008243118
154	0x3ba7f5bb	0.005125729
155	0x3c35abc4	0.011088315
156	0x39d5e179	0.00040794516
157	0x39c9eee4	0.00038515695
158	0x3ba78a6d	0.005112937
159	0x39c8b149	0.0003827906
160	0x39a77fc2	0.0003194791
161	0x3a28a6bc	0.0006433537
162	0x3721ff80	9.655836e-06
163	0x37147094	8.847699e-06
164	0x3888d061	6.523799e-05
165	0x3805790c	3.1822405e-05
166	0x38f98f1c	0.000118999014
167	0x3927bb6b	0.0001599618
168	0x37b366a6	2.1386262e-05
169	0x399c9d19	0.00029871686
170	0x3641546e	2.8808386e-06
171	0x39a94fd7	0.00032293677
172	0x34c8d784	3.740971e-07
173	0x39ab045e	0.00032618915
174	0x334fa9eb	4.8350483e-08
175	0x39ab3cf3	0.00032661072
176	0x31d695f5	6.245268e-09
177	0x39ab445f	0.00032666602
178	0x305db87f	8.0661516e-10
179	0x39ab4544	0.00032667269
180	0x3ae94429	0.0017796803
181	0x389687fb	7.177886e-05
182	0x3b596b21	0.0033175426
183	0x392d9d90	0.00016557262
184	0x39cfb5a3	0.00039617447
185	0x3915668a	0.00014247946
186	0x3911339b	0.00013847502
187	0x3886cf41	6.428222e-05
188	0x38a7fc0f	8.01013e-05
189	0x3ab7c7d2	0.0014021343
190	0x3a16b031	0.00057483005
191	0x3aa044e2	0.001222756
192	0x388ed4a7	6.810697e-05
193	0x38db4775	0.00010456044
194	0x3a1794c7	0.00057823624
195	0x38c409e9	9.347854e-05
196	0x38ae5fbe	8.3148e-05
197	0x38b1c69f	8.477014e-05
198	0x357b6f17	9.3666443e-07
199	0x35ce67aa	1.5378366e-06
200	0x3748e839	1.19749975e-05
201	0x37010a47	7.691392e-06
202	0x37d488f4	2.5336143e-05
203	0x380669ab	3.20465e-05
204	0x369a5914	4.5999277e-06
205	0x388073ad	6.125062e-05
206	0x3526871a	6.203642e-07
207	0x388b431a	6.640535e-05
208	0x33ad0658	8.057094e-08
209	0x388cb731	6.709842e-05
210	0x3232e7cc	1.0413668e-08
211	0x388ce763	6.718819e-05
212	0x30b8de8b	1.3451013e-09
213	0x388cedb0	6.719993e-05
214	0x2f3f0436	1.7372845e-10
215	0x388cee86	6.720149e-05
216	0x3b1aa35a	0.00235959
217	0x38d6e83d	0.00010247573
218	0x3bda50f1	0.006662481
219	0x394fba74	0.00019810518
220	0x3a592b67	0.00082843605
221	0x3920d6a2	0.00015338746
222	0x392bab56	0.00016371658
223	0x38902d1a	6.874856e-05
224	0x38e70561	0.0001101594
225	0x3ad1e0e6	0.001601246
226	0x3a99e8b2	0.0011742322
227	0x3b100339	0.0021974577
228	0x38c5b4b5	9.427351e-05
229	0x38e353a4	0.00010839783
230	0x3a614e02	0.0008594693
231	0x38d3e045	0.000101030375
232	0x38fb27ee	0.0001197605
233	0x39586772	0.00020637902
234	0x360027fe	1.9096765e-06
235	0x3622e09e	2.4270626e-06
236	0x37946b72	1.7693008e-05
237	0x3780c010	1.5348225e-05
238	0x38138335	3.5169727e-05
239	0x383b96ed	4.4724835e-05
240	0x36d7b7f9	6.4289165e-06
241	0x38af6103	8.36272e-05
242	0x3568f1bf	8.677852e-07
243	0x38bdfce2	9.0593254e-05
244	0x33f20f60	1.12718e-07
245	0x38bff479	9.153126e-05
246	0x327a4a3c	1.4568794e-08
247	0x38c03602	9.165333e-05
248	0x3101513a	1.8818143e-09
249	0x38c03e6c	9.1669004e-05
250	0x2f859e05	2.430484e-10
251	0x38c03f78	9.1670954e-05
252	0x3b8d4061	0.004310653
253	0x3932ba3a	0.00017044778
254	0x3c4a863f	0.012361108
255	0x399ffab2	0.00030513626

exp_avg f4 [108]
0	0x39c92c95	0.00038370924
1	0xbbbc093f	-0.005738407
2	0xb7fe4f3a	-3.0316052e-05
3	0x3920388c	0.00015279854
4	0xb94d7e6d	-0.00019597421
5	0xb99ee377	-0.00030305583
6	0xba9409e6	-0.0011294454
7	0xbaee2120	-0.0018167831
8	0x3a95f098	0.00114395
9	0xbb8caf5f	-0.004293367
10	0x3b672ffd	0.0035276406
11	0xba2d18c7	-0.00066031184
12	0xbb831575	-0.0040003606
13	0xb909295f	-0.0001308075
14	0x3bd7dc34	0.0065875296
15	0x3b26394b	0.002536374
16	0xb88dc777	-6.760557e-05
17	0xba529833	-0.00080335437
18	0xbb813ffe	-0.003944396
19	0x3a475d75	0.0007605174
20	0xb8942b85	-7.065296e-05
21	0xbb954ce2	-0.0045562843
22	0xbaf278c7	-0.0018499129
23	0x3acb3715	0.0015504087
24	0x3ab98e7d	0.0014156845
25	0x3a58c89d	0.000826964
26	0xbb94cec5	-0.0045412504
27	0xbaa05859	-0.0012233361
28	0x3a0c30b8	0.0005347836
29	0xba56d0e9	-0.0008194582
30	0x3afb4839	0.0019171304
31	0x3aebc847	0.0017988764
32	0xb91a21e4	-0.0001469921
33	0x39f10fef	0.00045978974
34	0xbab1c6d0	-0.0013563279
35	0xb9a969a1	-0.00032312892
36	0x32d806c7	2.5148791e-08
37	0x329dce52	1.837103e-08
38	0xb2b953ad	-2.1574886e-08
39	0xb3072cac	-3.1472766e-08
40	0xb2ce6b93	-2.4030475e-08
41	0x31d50452	6.199607e-09
42	0x3282f77e	1.5246538e-08
43	0x32f33995	2.8315108e-08
44	0xb2bda568	-2.2077714e-08
45	0x328b678c	1.6228817e-08
46	0x32815a00	1.5058504e-08
47	0x328a07c0	1.6068839e-08
48	0x32c82c90	2.3303329e-08
49	0xb0814861	-9.406557e-10
50	0xb1c5e7b8	-5.759798e-09
51	0xb2ed7a70	-2.764611e-08
52	0xb2c2b474	-2.2666633e-08
53	0xb266cc10	-1.34341605e-08
54	0x32ed53d1	2.7628547e-08
55	0x32c38309	2.2760576e-08
56	0xb302f5a1	-3.0491382e-08
57	0x32bbb853	2.1853486e-08
58	0x328d17c7	1.6425373e-08
59	0xb33ae49f	-4.351443e-08
60	0x3296b1a4	1.754308e-08
61	0xb1fbf94c	-7.333403e-09
62	0x32e9de26	2.7225791e-08
63	0x33070c92	3.144357e-08
64	0xb29615c6	-1.74722e-08
65	0x3231727f	1.0328789e-08
66	0xb2aff7c3	-2.048535e-08
67	0xb2a17ba2	-1.8799089e-08
68	0x32dbf809	2.5607749e-08
69	0x32edaf87	2.7670252e-08
70	0x330aebee	3.2345206e-08
71	0xb2ded981	-2.594311e-08
72	0xba3ae6fb	-0.00071297557
73	0x3a25ea68	0.000632918
74	0xba1bb031	-0.00059390353
75	0x3bd10458	0.0063786916
76	0x3982e9d0	0.00024969736
77	0x39df99c9	0.00042648453
78	0x3d016c9d	0.031597722
79	0xba4bb938	-0.0007771435
80	0x3b6c88fa	0.0036092387
81	0xba83deb4	-0.0010060878
82	0x3b81320b	0.003942733
83	0x399cc887	0.00029904043
84	0xbd48ef12	-0.04905612
85	0xba832493	-0.0010005407
86	0x3a613053	0.000859027
87	0xbba4133e	-0.0050071767
88	0xb9b98b9f	-0.00035389976
89	0x3b77376d	0.0037722245
90	0x3d58ed71	0.052960817
91	0xbadeb34a	-0.0016990688
92	0xbb3f9106	-0.0029230728
93	0x3b6cc9f5	0.0036131118
94	0xba96df58	-0.0011510653
95	0xb9ca39bf	-0.00038571467
96	0x39349539	0.00017221727
97	0xbb0da720	-0.0021614507
98	0xbaf75d6f	-0.001887245
99	0x3bd36c03	0.006452085
100	0xba8d9b6b	-0.0010803764
101	0xb9014f07	-0.00012331839
102	0xba9908c1	-0.0011675583
103	0x3b9c7b6a	0.0047754543
104	0x3d49abe6	0.0492362
105	0xba86dcf3	-0.0010289237
106	0xbcd0c8ae	-0.025486317
107	0xbcbaaed4	-0.022788443

exp_avg_sq f4 [108]
0	0x3971f956	0.00023076436
1	0x3a73b955	0.0009297331
2	0x39373459	0.00017471741
3	0x3a13b68a	0.00056348054
4	0x39ab455c	0.00032667338
5	0x388ceea4	6.7201705e-05
6	0x38c03f9b	9.167121e-05
7	0x3933d0ed	0.00017148601
8	0x38e5cf0f	0.000109581386
9	0x3a00fa00	0.00049200654
10	0x3a8fcbf9	0.0010970823
11	0x392ace31	0.00016289276
12	0x3a06d458	0.0005143336
13	0x375abf89	1.3038408e-05
14	0x3accf35b	0.001563649
15	0x39c96b9c	0.00038417883
16	0x38d94eca	0.00010362042
17	0x394c00a4	0.00019455195
18	0x3a0eb9f8	0.00054445816
19	0x39a805be	0.00032047735
20	0x39ac638f	0.00032880573
21	0x3a110007	0.0005531315
22	0x39808d79	0.00024519468
23	0x399ed5e3	0.00030295466
24	0x3a0c2563	0.0005346147
25	0x38626f8b	5.398648e-05
26	0x3a320935	0.0006791533
27	0x394f5f95	0.00019776665
28	0x3906a077	0.00012839014
29	0x39026cd0	0.00012438302
30	0x398432cf	0.00025214857
31	0x39281f68	0.00016033428
32	0x3965b1b7	0.00021905346
33	0x3a4ade4c	0.00077388133
34	0x39aa0c79	0.0003243422
35	0x39868648	0.0002565852
36	0x278253bd	3.6173038e-15
37	0x279386d5	4.094688e-15
38	0x274f2dff	2.8751955e-15
39	0x27faca54	6.9608304e-15
40	0x2786d314	3.7421323e-15
41	0x25bc6320	3.267997e-16
42	0x27673419	3.2085932e-15
43	0x27f7a254	6.873227e-15
44	0x2767041d	3.205992e-15
45	0x273f18f5	2.6520104e-15
46	0x2774dc1f	3.398113e-15
47	0x26d54cfa	1.4800709e-15
48	0x278b2179	3.861654e-15
49	0x24c8ac6a	8.7028255e-17
50	0x2789617b	3.8130827e-15
51	0x27b6128b	5.053525e-15
52	0x2745efd5	2.7469255e-15
53	0x26b90962	1.2839497e-15
54	0x27ada42e	4.819515e-15
55	0x2781bb76	3.600794e-15
56	0x27b34345	4.9755414e-15
57	0x2792a170	4.069817e-15
58	0x26b7aaea	1.2744502e-15
59	0x281828f1	8.446573e-15
60	0x274e2db7	2.8613025e-15
61	0x26863d4e	9.314735e-16
62	0x27bfb5d7	5.32103e-15
63	0x27b56880	5.035089e-15
64	0x2703d6da	1.8296373e-15
65	0x264171c2	6.7114497e-16
66	0x2736c33a	2.5363406e-15
67	0x27c7b448	5.5429057e-15
68	0x277e0481	3.5252023e-15
69	0x27b419d4	4.998804e-15
70	0x27de43be	6.1690824e-15
71	0x2775d1d3	3.4114326e-15
72	0x3983ed82	0.00025163224
73	0x38b474b1	8.604804e-05
74	0x3809762a	3.2773394e-05
75	0x3bb7255d	0.005589171
76	0x3a0bb129	0.0005328828
77	0x3904b562	0.00012656071
78	0x3c0b8619	0.008515858
79	0x3a79908f	0.0009520137
80	0x37fe9b79	3.0351557e-05
81	0x38d806f4	0.00010300978
82	0x3aa81bb5	0.001282564
83	0x39dee637	0.00042514663
84	0x3c93289a	0.017963696
85	0x389d80fa	7.510367e-05
86	0x3a4aa357	0.0007730028
87	0x3ab2a1cc	0.0013628541
88	0x38e85b8c	0.00011079674
89	0x3bb317ae	0.0054654693
90	0x3cb0f856	0.02160279
91	0x3a64ea09	0.0008732384
92	0x3847c78b	4.7631136e-05
93	0x38051241	3.172667e-05
94	0x3871d12d	5.7653688e-05
95	0x39c5285d	0.0003760484
96	0x3b63683e	0.0034699584
97	0x3873e29c	5.814676e-05
98	0x38a38808	7.7977835e-05
99	0x3ac2ef47	0.0014872336
100	0x3979cb36	0.00023822192
101	0x3a1b60d1	0.00059272075
102	0x386f5a2c	5.706602e-05
103	0x384be436	4.861151e-05
104	0x3c8c75c0	0.017145991
105	0x3a9621ca	0.0011454162
106	0x3c0ae3dd	0.008477178
107	0x3b98b75d	0.0046605305
