SensorFormer/SensorFormer/checkpoints/chpt_AdamW_lr0.0005_ep150.pt (torch, 83227 bytes, 35 tensors)

self_attn.qkv_proj.weight f4 [108, 36]
000000 ad 6a 45 3e ee e3 a5 3d a5 8c e2 bd a9 6c 26 bf
       0.19278975 0.08100115 -0.11061982 -0.6500955
000010 d0 75 7c 3e 7e 95 97 3d 25 27 67 bd 71 af 4b 3e
       0.24654317 0.0740156 -0.056433816 0.19891144
000020 1c fc 70 be 9a 8b 03 3f 40 51 6f be 0d b0 23 3e
       -0.23533672 0.5138489 -0.23370838 0.15985127
000030 dc 18 2a bd 7a bd bf 3c 97 4a 1e bc ae 2d ad bd
       -0.041527614 0.02340578 -0.009661338 -0.08455978
000040 3f 3b 20 3e 20 06 1f be c3 cd cc 3d 4b 9b 99 bd
       0.156476 -0.1552968 0.100001834 -0.07500323
000050 fb 6c 5d bd 70 78 0e 3d fb ef 1f be b2 fd a5 bd
       -0.05405901 0.034782827 -0.15618889 -0.08105029
000060 ed 59 42 be 98 6e 10 be ed 81 08 be 98 1a e2 bd
       -0.18979616 -0.14104688 -0.13330813 -0.110402286
000070 f4 c7 0e be 7d df c2 bd ee 0f 24 be 5a 31 25 be
       -0.13943464 -0.09515283 -0.16021702 -0.16132107
000080 26 95 30 be 37 79 2c bd 5d 0b 92 bd ff 83 34 be
       -0.17244396 -0.042107787 -0.071310736 -0.17628478
000090 6e d0 e8 3e 26 e7 ec bd 22 b3 e7 3c f8 8a 2f bf
       0.4547152 -0.115675256 0.02828366 -0.68571424
0000a0 5c 52 44 3e ec c3 13 3d a8 d1 18 bd 34 3b 0e 3d
       0.19172043 0.036075518 -0.03730932 0.03472443
0000b0 21 a8 c1 be b0 f8 26 3f 1b 60 5c bd db a2 81 3e
       -0.37823585 0.65223217 -0.05380259 0.2531956
0000c0 08 68 9d 3c cc 1c eb 3d c2 d2 47 be 7e a6 39 bd
       0.019214645 0.11480102 -0.19513991 -0.045324795
0000d0 e5 99 11 3e 47 da b2 be 0d 81 1f bd 00 74 a0 3c
       0.14218862 -0.34932157 -0.03894143 0.019586563
0000e0 d4 45 9b 3d 77 9f ce bc cb 66 2c 3e b9 87 52 3e
       0.07581678 -0.025222523 0.16836087 0.20559587
0000f0 2f 89 34 3e f7 fd d9 3d 28 ed b6 3d 7a 35 41 3e
       0.17630456 0.10644143 0.08931953 0.18868056
000100 ed 10 31 3e 18 09 a4 3d 0d 36 38 3e 3a 48 36 3e
       0.17291613 0.08009547 0.17989369 0.1780099
000110 fc bd 10 3e 4b bc f4 3d 2e f6 e3 3d ad bb 3e 3e
       0.14134973 0.119499765 0.111309394 0.1862628
000120 ca 33 4a be 2d bd 9a 3c 99 09 f2 3d ae 5e ed 3e
       -0.19746318 0.018889034 0.11818237 0.46361297
000130 f6 42 9c be 33 8e 73 3c e3 f9 1c 3c 85 fc a1 bd
       -0.30519837 0.014865446 0.009581062 -0.079094924
000140 64 87 d6 3d d8 ba ec be 0a 01 40 3e c0 6b 3a be
       0.104750425 -0.462363 0.18750396 -0.18205166
000150 de ef 18 3d 36 65 dd 3c c0 95 cc 3d 53 9b c8 3c
       0.03733813 0.0270258 0.099895 0.024488127
000160 58 bc e1 bd 70 b5 12 3e 18 02 53 bd 75 e5 be 3d
       -0.11022252 0.14327025 -0.05151567 0.09321109
000170 36 83 79 bd 92 e2 4f 3c 4d 36 ff 3d 1d 2a e0 3d
       -0.060916148 0.012688296 0.12461529 0.109455325
000180 2d 0b 0e 3e 47 6f 0a 3e 88 af 28 3e 28 d2 68 3e
       0.1387145 0.13519011 0.1647321 0.22736418
000190 dc 94 1c 3e da 8a 0d 3e 3e 0f 59 3e 4e c0 00 3e
       0.1529116 0.13822499 0.2119722 0.12573358
0001a0 d5 1d 2e 3e 00 d7 24 3e e3 94 2f 3e 3d ee 4f 3e
       0.17003568 0.16097641 0.1714664 0.20305724
0001b0 a1 69 b9 be ad f9 99 3b cf 68 11 3e 6a a5 59 3f
       -0.362134 0.004698953 0.14200138 0.85018027
0001c0 9f 81 d5 be 01 ab 70 3d 2a 46 33 bd e3 ea 90 be
       -0.41700456 0.058756832 -0.043768086 -0.28304204
0001d0 3b 8d b5 3e cb f2 2f bf 29 02 e7 3e 8c a0 fd bd
       0.35459313 -0.6872985 0.45118836 -0.123841375
0001e0 2f 71 01 be 71 b9 b7 bd e6 01 10 3d 16 3c c6 3d
       -0.12640832 -0.08970917 0.03515806 0.09679429
0001f0 16 3f 31 3d cb 69 9f 3e ab 99 78 bc b1 99 c5 3d
       0.043273054 0.311354 -0.015173356 0.09648455
000200 37 84 08 3e ff 97 ca bd b2 0d 89 3d 02 74 3d bc
       0.13331686 -0.09892272 0.06692065 -0.011563303
000210 69 24 ed 3d 14 78 9e 3d 3f 74 f8 3d b1 db 06 3c
       0.1157921 0.07737747 0.12131547 0.008231089
000220 15 b3 a8 3d b7 05 ab bc 0c 3e d0 3d 32 b4 91 3c
       0.08237282 -0.020876748 0.101680845 0.01778612
000230 c4 21 aa 3d 9e ba a0 3d 97 03 5a 3c 5b 50 ac 3d
       0.083072215 0.078480944 0.01330652 0.08413764
000240 6b 5a 6e be d9 24 1d bb c1 05 f6 3d 42 e3 08 3f
       -0.23276679 -0.0023978262 0.12012816 0.5347177
000250 dd 55 77 be 56 75 8a 3c 43 a9 04 3d 69 bf f9 bd
       -0.24153848 0.016901653 0.032387983 -0.12194712
000260 04 0c 14 3e 37 4a 0a bf 04 94 0b 3e 0e 0c 1d be
       0.14457709 -0.5401949 0.13630682 -0.1533663
000270 16 25 b1 3c 76 9e 9e bd 72 42 78 3d 46 05 83 bd
       0.02162413 -0.07745068 0.060610242 -0.0639749
000280 82 62 14 be de fe 50 3e 36 56 0e bd b6 91 b6 3d
       -0.14490703 0.20409724 -0.034750186 0.08914511
000290 5b a8 00 3d 64 f3 a7 bd 3e 38 1c 3e c2 95 14 3e
       0.031410556 -0.0820072 0.1525583 0.14510253
0002a0 fd b9 c3 3d f7 d3 2b 3e bd 45 30 3e da 77 14 3e
       0.09556959 0.16780077 0.17214103 0.14498845
0002b0 d9 a3 80 3d 75 43 28 3e af 4b 4d 3e 13 6a f4 3d
       0.062812515 0.16431983 0.20048402 0.119342946
0002c0 0e 5c 27 3e 54 9c 3e 3e 30 ce a0 3d 52 d2 77 3d
       0.1634371 0.18614322 0.07851827 0.06050331
0002d0 4e 56 16 3e 40 a3 a4 3d 59 3e 83 bd 0a bb 76 be
       0.1468136 0.0803895 -0.06408376 -0.24094787
0002e0 44 83 93 bd 44 4b 0c 3d 92 03 8c b9 13 39 8d bd
       -0.07202771 0.034251466 -0.0002670554 -0.06895652
0002f0 5a 00 90 3d e4 f1 02 3e 63 7f 7c bd ca 15 2b 3e
       0.07031317 0.12787586 -0.061644923 0.1670753
000300 4b e1 8d 3d d3 d5 c3 3d 9e 83 bd bd d9 9b 9c 3d
       0.06927737 0.09562268 -0.092536196 0.07646913
000310 b2 10 6e 3c 69 fc 79 3d 5d 35 1b 3e d5 9f b7 3d
       0.014530348 0.061031733 0.15157075 0.089660324
000320 37 4b f5 3d 1e 0f 2c be 7b 49 e6 3d 9f 34 55 bc
       0.11977237 -0.16802642 0.11244484 -0.013013034
000330 56 69 bd 3d 3e 5e 47 3d 8d 8d 9d 3d 88 59 7f bc
       0.09248607 0.04867386 0.07693014 -0.015585311
000340 2b bf 37 3b 39 0f e5 3c ca d2 e9 bb ec 38 44 bc
       0.002803753 0.02796136 -0.0071357237 -0.011976462
000350 02 fa 93 3d 71 aa 6e 3d 73 79 f0 3d a2 ed 4b bd
       0.072254196 0.058268014 0.117419146 -0.04978717
000360 29 20 4f 3e a3 35 41 bd 1d a7 83 3d 48 f5 13 be
       0.20227112 -0.047170293 0.06428359 -0.14449036
000370 51 dd 40 be 41 3d b6 ba 0a 26 bd 3d 7b 07 57 be
       -0.18834426 -0.0013903753 0.09235771 -0.20998947
000380 03 4a 41 3c 81 b0 62 bd fc 6c 9a 3d e6 83 7c 3e
       0.011797431 -0.05534411 0.07540318 0.2465969
000390 16 f8 ef bd c7 de 23 3e f3 24 63 be 3e 85 81 3d
       -0.117172405 0.16002952 -0.22182064 0.06324242
0003a0 a9 75 1d 3e 4d 54 d9 3b 8d 6a 7a 3e 69 d7 5d bd
       0.15376915 0.006632364 0.24454708 -0.05416051
0003b0 88 75 7f 3c df b9 ac be 8c b7 59 3e 9e 6d 1b bd
       0.0155919865 -0.33735558 0.21261424 -0.037946336
0003c0 2d a1 23 3e 1e 49 68 3d f5 70 3a 3e 6e f0 03 3e
       0.15979452 0.056710355 0.18207152 0.12884685
0003d0 c5 af 51 3e 29 7a 31 3b f2 c5 4d 3e 21 9c 9b 3d
       0.20477207 0.002708087 0.20095041 0.075981386
0003e0 c0 a2 5c 3e d9 f5 23 3d b7 2b 79 3e fd 20 9e 3c
       0.21546459 0.04002938 0.24333082 0.01930284
0003f0 06 0d cd 3e 94 43 d8 3d 5b 68 a1 bc 3f e6 bf be
       0.40049 0.105597645 -0.01970308 -0.3748035

self_attn.qkv_proj.bias f4 [108]
000000 89 e1 e2 bd 84 63 10 3e d8 70 23 3e f2 c7 2d 3d
       -0.11078174 0.14100462 0.15961015 0.04242701
000010 f2 ac 04 3e 80 7a 4c 3c 2c ee 92 3d 71 e5 78 3d
       0.12956598 0.012480378 0.07174334 0.060765687
000020 ad 76 0e 3e 29 97 09 3e e3 4a c1 bd 74 7b 39 bd
       0.13912459 0.1343657 -0.09438112 -0.04528375
000030 28 bb 08 3e 39 ba 09 be bf bc 8f bc b4 a0 a0 3d
       0.13352644 -0.13449945 -0.017546056 0.07843152
000040 80 e2 85 3d ba 3f 2f 3e f1 6c 95 3d 03 fb 0b be
       0.06537342 0.17114154 0.072961695 -0.13669972
000050 b9 e2 9b 3d cc be f8 3d 63 71 29 3d a5 4a 3c 3b
       0.07611603 0.121457666 0.0413679 0.0028731015
000060 f4 89 0e be 19 ad ab bd 7d 3b cf 3d 44 a7 50 bc
       -0.13919812 -0.08382625 0.10118768 -0.012735192
000070 f1 db 93 3d 3d 91 d1 3b 02 97 a9 bd 32 d4 77 be
       0.07219685 0.0063954876 -0.082807556 -0.2420204
000080 f2 8c b0 bd 71 24 f9 bd 30 2e cd bd 44 0f 00 3e
       -0.08620633 -0.12165154 -0.10018575 0.12505823
000090 50 22 dd bd 39 99 e5 bd 14 22 c4 3d 21 31 a2 3d
       -0.1079756 -0.112108655 0.095768124 0.07919527
0000a0 9d 38 01 3e 99 3d c1 bd a0 31 ab bd c0 99 af bd
       0.12619253 -0.09435577 -0.083590746 -0.08574247
0000b0 e2 7f b9 3d 97 2e b5 bd 6f 9a df bd d5 0f c7 bd
       0.09057595 -0.08846777 -0.10918128 -0.097198166
0000c0 10 f3 bf bc e9 6f 5b bc 17 70 e7 3d 89 f1 d2 3d
       -0.02343133 -0.013393381 0.11300676 0.102999754
0000d0 c8 8f 05 3e b5 2f e5 3d cf 17 b3 bd a5 bd ac bd
       0.1304313 0.1119074 -0.087447755 -0.08434609
0000e0 74 2a f0 3d 69 b1 8e bd fd c7 be bd 3d 26 cb 3d
       0.11726847 -0.06967432 -0.093154885 0.09919403
0000f0 1c 79 bd bd 90 b4 12 bd 51 c7 ba bd 8b 85 87 bd
       -0.092516154 -0.03581673 -0.09120048 -0.06617268
000100 49 0d f3 3d ad d5 cc bd 4f 48 b5 3d f9 2c 13 3b
       0.11867768 -0.10001693 0.088516824 0.0022457226
000110 74 80 04 be 9b e4 ab bd 78 bb e6 bd d5 24 fe 3d
       -0.12939626 -0.083932124 -0.112662256 0.12409369
000120 18 2a be 3c 81 01 4b bc 55 ff 4e be e0 73 10 bf
       0.023213431 -0.012390495 -0.20214589 -0.5642681
000130 04 62 a6 3e bb 6a b0 3c bc 52 48 be c0 f9 f7 be
       0.32496655 0.021535268 -0.1956281 -0.48432732
000140 e8 5d 29 be 84 e4 93 bd b1 d8 74 be be a4 c8 bc
       -0.16539729 -0.0722132 -0.23910786 -0.024492618
000150 6a 70 5d 3b c5 59 a9 3e bc 47 64 be 74 73 b2 3e
       0.0033788928 0.330763 -0.2229299 0.3485371
000160 84 60 58 be 23 bd f5 3e 31 e5 16 be 92 dc 01 3f
       -0.21130568 0.47995862 -0.14735867 0.5072719
000170 15 0c df 3d cc 14 41 3e be e0 1f be 83 32 ab bd
       0.10890976 0.1885559 -0.15613076 -0.08359244
000180 19 22 e2 3e 5c 30 70 3c 0d d4 d5 3d 80 60 89 be
       0.4416664 0.014659967 0.10440836 -0.26831436
000190 ea 37 3a 3c 82 b1 ca be 2d 79 0c be 7c 42 02 bd
       0.01136587 -0.39588553 -0.137181 -0.031801686
0001a0 f1 49 97 bd d2 24 e3 3e fa f4 c4 be 14 9a 00 be
       -0.0738715 0.4436403 -0.38468152 -0.12558776

self_attn.o_proj.weight f4 [36, 36]
000000 26 a1 90 3d 38 08 85 bd 65 b5 29 bd be 83 4c 3e
       0.070619866 -0.06495708 -0.041432757 0.1997213
000010 68 ea 74 3e 26 95 b1 bd 8a e1 17 be 26 49 b0 bd
       0.23917544 -0.08671026 -0.1483213 -0.08607702
000020 75 f1 25 3b c1 13 e4 bd 21 a0 1b be 5f 48 5f 3d
       0.0025320922 -0.1113658 -0.15197803 0.054512378
000030 fb dc 5b 3e 67 fc 13 3d 09 fd ea bd 9f 67 11 3e
       0.21471016 0.03612938 -0.11474044 0.14199685
000040 f2 39 03 3e 84 73 b6 be f9 87 5d be c6 20 1e 3e
       0.12815073 -0.35635006 -0.216339 0.1544219
000050 99 a9 9f bb 6c e9 e7 3c 5e 1a f5 b9 f8 9f b6 bd
       -0.0048725125 0.028309546 -0.00046749687 -0.0891723
000060 a3 fc 94 be 97 6c 5d bd 5a 2e ca 3d 73 41 76 be
       -0.29098997 -0.054058637 0.09872122 -0.24048404
000070 d8 54 2e be 88 31 19 be b9 12 0f be e5 dc 0a bc
       -0.17024553 -0.14960301 -0.13971986 -0.008475517
000080 f7 14 4e be be ae 43 3e 5c 01 ab 3e fe f8 79 3e
       -0.20125185 0.19109628 0.33399475 0.24411389
000090 79 3a b9 3d f3 2f 02 3e 86 99 c3 3d 9a 79 09 be
       0.09044356 0.12713604 0.09550767 -0.13425294
0000a0 02 e6 01 3c 63 87 bf bd df 6e 76 3e c6 a1 d5 bc
       0.007928373 -0.09351995 0.24065731 -0.026078116
0000b0 57 08 bb bd f6 ad 33 3e 7c ee 0d 3d 7c f0 18 bd
       -0.0913245 0.1754683 0.034651265 -0.03733872
0000c0 82 d1 b0 be 2f 40 36 3e e7 b9 e4 3d 49 ba 92 3d
       -0.34534842 0.17797922 0.111682706 0.07164437
0000d0 b5 6f 20 be 83 da 90 3e 15 38 30 3e 27 fa 9b 3d
       -0.15667613 0.2829171 0.17208894 0.07616072
0000e0 8f 55 88 3c 3e 28 a4 3d eb 7d 18 3d af a4 dd bc
       0.01664236 0.08015488 0.03722946 -0.027056066
0000f0 e6 42 4d 3e bf c9 48 bd f0 23 37 3d 5d 09 19 3e
       0.20045051 -0.049020525 0.044712007 0.14944978
000100 3e dc 23 3e 87 46 04 be c3 88 ef bb eb 42 80 3d
       0.16001984 -0.12917529 -0.0073100044 0.062627636
000110 f9 dd b9 3d 24 c1 aa 3d 08 74 ab be f6 7e 9c be
       0.09075541 0.0833762 -0.33486962 -0.30565614
000120 16 17 fa 3d a5 36 cb bc 8d 10 11 3e 1c e7 4f be
       0.122114345 -0.02480633 0.1416647 -0.20303005
000130 d4 73 0e be 3e 11 b6 bd b4 b3 1a 3d f6 e8 e3 3c
       -0.13911372 -0.088900074 0.037769035 0.027821045
000140 8f a3 ab 3d 39 c9 14 3e b1 d5 3f 3e 56 05 1f 3d
       0.08380806 0.14529885 0.1873386 0.038823448
000150 fc d5 e0 bd 35 e6 2d 3e 3e a2 3f 3e 9c 1f 2a be
       -0.10978314 0.16982348 0.18714234 -0.1661362
000160 55 d5 75 bc 1d e3 89 3e a4 bc 19 be 0c d0 5f 3c
       -0.015004476 0.26931086 -0.15013367 0.013660442
000170 83 a0 e2 3c cf 96 ef bd c2 f8 31 3d 73 00 0b 3e
       0.027664429 -0.11698686 0.043450125 0.1357439
000180 46 b7 86 3e cd 89 76 3d 7b 64 97 bd 40 58 35 3e
       0.26311702 0.06019001 -0.07392212 0.17709446
000190 97 1b 4f 3e b8 b0 91 3d e1 3b 35 3c 2a c7 d0 bc
       0.20225368 0.071137846 0.0110616395 -0.025485594
0001a0 65 cd 8a bc ec 9e fd bd 7f c9 5b be 09 de ef bd
       -0.016943643 -0.123838276 -0.21463583 -0.11712272
0001b0 5e 39 a4 3d d1 41 28 bc 0a 9d 14 3e e1 bb 5e be
       0.080187544 -0.010269598 0.1451303 -0.21751358
0001c0 12 1c 2a be d4 2c 69 3d 29 70 96 3c 2f 08 a3 3e
       -0.1661227 0.056927517 0.018364029 0.3184218
0001d0 2d 1f 54 bc 06 23 3f 3e 47 e1 b2 3e a0 8b 2d 3d
       -0.012946886 0.18665704 0.34937498 0.042369485
0001e0 11 40 8f 3e 2f 95 68 3d a9 aa 97 3e 56 04 3c be
       0.27978566 0.056782898 0.2962239 -0.18361029
0001f0 6f ea c5 ba 43 2f 80 3e 92 fa d5 be 2d 28 24 be
       -0.0015099774 0.25036058 -0.41792732 -0.16030951
000200 04 43 1c be b5 bf 27 be d0 9f f2 3d a1 ba 56 3d
       -0.1525994 -0.16381724 0.11846888 0.052424077
000210 ca 8b 21 3e c1 c2 be 3c 7c e5 b8 3c 8c 94 c0 3d
       0.15775982 0.023286225 0.022570364 0.09403333
000220 af 16 66 3e 0e a2 0a 3e 6a 82 ab 3d f3 3b 4e bd
       0.2246959 0.13538381 0.08374484 -0.05035014
000230 78 b1 9a be 33 d5 58 be 59 c3 92 3e d9 4d 9d 3e
       -0.30213523 -0.21175079 0.28664663 0.30723456
000240 c3 62 17 3d 31 9c 06 3d 10 1e 0f bd 9a 5d 98 bd
       0.03695942 0.0328638 -0.03494078 -0.07439728
000250 de aa a6 3d bd ea 15 bd 20 fc 40 3d 1b f6 d7 bd
       0.08138059 -0.036600817 0.047115445 -0.10544988
000260 85 ab b1 bd d4 91 97 bd 07 d0 38 be ea b9 c1 3d
       -0.08675293 -0.074008614 -0.18048106 0.094592884
000270 cf 58 90 be 25 54 32 3e 2d 5e 7b 3c ad 3e 63 3d
       -0.28192756 0.17414911 0.0153422775 0.055479694
000280 76 18 18 3d 35 df 84 3d 61 6a 0a 3e a4 ad 3d 3e
       0.037132703 0.06487886 0.13517143 0.1852327
000290 40 b8 44 3d d7 a7 8d 3d 97 bc dd 3d 5b fc 8d 3d
       0.048027277 0.069167785 0.10826986 0.069328986
0002a0 e0 f6 c3 39 78 d6 a3 3d 29 d6 0e 3d 7b 56 85 3d
       0.00037377235 0.07999891 0.034872208 0.065106355
0002b0 b9 0b fb bd c6 52 3b be 41 c0 0a bd 8b 03 a4 bd
       -0.12258095 -0.18293294 -0.033874754 -0.08008488
0002c0 c2 30 70 3e e7 38 99 3d 9d c8 5c be 9f b4 84 be
       0.234561 0.074815564 -0.21560903 -0.25919053
0002d0 76 41 14 be de 98 68 3d e2 37 f9 bc 18 07 ba 3e
       -0.14478096 0.05678641 -0.030422155 0.36333537
0002e0 6f a9 15 3e ee b1 89 3d 17 43 35 be c3 fd c6 3d
       0.14615415 0.067233905 -0.17701374 0.0971637
0002f0 82 74 0b bd 50 4d 37 be 0b 0d 80 bc dd 26 3b 3d
       -0.034046657 -0.17900586 -0.01563122 0.04569136
000300 7d 4f 26 3e a6 af 81 be 42 be 19 be 6b 88 47 3c
       0.1624126 -0.25329322 -0.15013984 0.012178521
000310 66 b6 56 3c 87 f3 f6 be 25 67 b0 3d 31 89 ed bd
       0.013105011 -0.48232672 0.08613423 -0.11598433
000320 17 58 f1 bd 21 ff 5b bd 92 ff f9 3d e4 19 1b be
       -0.1178438 -0.053710107 0.12206949 -0.15146595
000330 c2 80 8c be 24 85 58 bd 23 33 aa bd 4e ce 0a be
       -0.27441984 -0.052861348 -0.08310535 -0.13555261
000340 76 ed 39 be 27 4f 89 bc e7 31 84 3d 13 92 da 3c
       -0.1815699 -0.016761376 0.064548306 0.026680982
000350 c9 36 b5 3d 58 43 dc bc ce e3 c4 3e 95 38 9b 3d
       0.0884834 -0.02688758 0.3845505 0.075791515
000360 a8 4e b5 bd 13 b2 62 bd 8d ae 75 bd 36 56 85 be
       -0.08852893 -0.055345606 -0.059980918 -0.26042336
000370 ec 93 f9 3d d9 30 0b 3e 3a 85 cd bd 1e ed 0f bd
       0.12186417 0.13592853 -0.100351766 -0.035138242
000380 7e c0 58 bd d6 dc ce bd eb 22 4b bb 86 e8 3b be
       -0.05291795 -0.10100715 -0.0030996155 -0.1835042
000390 95 ff d3 3d c4 35 db 3d 36 4b b0 3d 32 23 21 3e
       0.10351483 0.10703614 0.08608095 0.15736082
0003a0 8d 4a 3a bd d6 0d e7 3e 95 78 4b be 5c 86 81 3e
       -0.045481253 0.45127743 -0.19870217 0.2529782
0003b0 d7 e1 70 bd 30 73 2a bd fe 8c dc bc b5 89 ec 3d
       -0.058809128 -0.041613758 -0.026922699 0.11549703
0003c0 6b 04 55 3e 2a 94 50 bd 3d 07 7d bd 60 65 28 be
       0.20802467 -0.05092255 -0.06177448 -0.16444921
0003d0 d8 c3 6a 3c c4 18 82 bd 19 07 d1 bd 36 36 c5 bb
       0.014328919 -0.0635238 -0.10206432 -0.0060184253
0003e0 cb 47 27 bd 1d e3 22 3e ed 6e d3 be 4d 8c a5 3d
       -0.04083995 0.1590695 -0.41295567 0.08083401
0003f0 f9 5b a0 3d c4 a0 0d bd 6c 5a a7 3d 73 8d 02 be
       0.078300424 -0.034577146 0.081715435 -0.12749271

self_attn.o_proj.bias f4 [36]
000000 c3 42 0a be ed c3 c6 3e 62 4e a6 3e 23 0a 23 bf
       -0.1350203 0.38821355 0.32481676 -0.6368734
000010 b9 9f 07 3f b2 f1 ea be b7 dc 4b 3f 65 5c 80 3e
       0.5297809 -0.45887524 0.7963366 0.2507049
000020 72 58 53 bf 66 f8 8e 3e 1c e9 83 be 2b bc 7e 3f
       -0.8255683 0.27923888 -0.25763786 0.9950587
000030 51 63 2b bf ab 3c c7 be 0a 56 7c bf e8 7f d0 3e
       -0.6694842 -0.38913473 -0.98568785 0.40722585
000040 92 08 34 3f d5 2b 81 bf 2c 9a 51 bf f2 da 21 3f
       0.7032558 -1.0091501 -0.8187587 0.6322471
000050 d3 c7 49 bf c9 dc 1b 3f a6 f3 30 bf 0d dc 59 3f
       -0.7882053 0.60883766 -0.6912178 0.85101396
000060 d9 8d 3f 3f 9d 02 51 bf 86 45 6a 3f 8c cc 63 3f
       0.7482582 -0.8164461 0.91512334 0.8898399
000070 75 03 b2 be fe 7f 28 bf 3f 63 7a 3f bd 4e 6a 3f
       -0.34768263 -0.658203 0.9780769 0.91526395
000080 4a bb 49 3f a4 b3 c0 be 76 ec 06 bf 23 dc 54 bf
       0.78801405 -0.37637055 -0.5270456 -0.831484

fc.weight f4 [1, 18]
000000 58 e4 e9 bd e2 53 71 be 4f ef 61 3e 40 ea a2 bd
       -0.11420506 -0.23567155 0.22063945 -0.07954836
000010 56 d1 56 be 40 f6 2d be 81 97 6f 3d a6 68 14 3e
       -0.20978293 -0.16988468 0.058494095 0.14493045
000020 26 40 c7 3c 80 9b 16 3d 12 61 06 bd 38 97 20 3d
       0.02432258 0.03676939 -0.032807417 0.039206713
000030 df da a3 bc 93 28 41 3e d7 08 b5 3d 64 0e cf bd
       -0.020001827 0.18863134 0.08839577 -0.10110167
000040 bb 77 ab 3d d3 51 a9 bd
       0.08372446 -0.0826756

fc1.weight f4 [1, 36]
000000 fe 49 f4 bf 0d ef e3 3f aa 60 ad 3f c4 59 71 bf
       -1.9085081 1.7807328 1.3545125 -0.94277596
000010 f6 d2 c2 3f 8f 32 aa bf e4 9d 38 3f 74 89 01 40
       1.522063 -1.3296679 0.7211592 2.0240145
000020 46 8f d5 be 43 b8 06 40 96 4d 05 c0 08 8b bc 3e
       -0.4171087 2.1049964 -2.0828605 0.36824822
000030 1a ce 66 bf b8 d3 fe be 61 0b f1 be 48 ac 94 3f
       -0.90158236 -0.49770904 -0.47078994 1.1615076
000040 95 a0 77 3f 9a 37 59 be 1b e8 17 bf db b1 08 3f
       0.96729404 -0.21212617 -0.5933854 0.53396386
000050 43 0e 31 bf bb 83 15 3f 9f 33 f1 be 90 14 23 3f
       -0.69162387 0.5840413 -0.47109696 0.6370325
000060 e2 e1 53 3f 4a ee 03 bf 31 01 02 3f ec f4 05 3f
       0.82766545 -0.51535475 0.5078307 0.52326846
000070 56 50 e0 bf c8 89 fd be 55 9c 25 3f 59 eb 08 3f
       -1.7524517 -0.4951918 0.6469167 0.5348411
000080 d4 94 ff 3e fd 20 ba bf 6d d8 a4 bf a9 74 3a bf
       0.49918234 -1.4541317 -1.2878548 -0.7283426

fc2.weight f4 [1, 9]
000000 2c 47 9c be 62 55 a5 be 5b c5 ae bd 16 75 f7 bc
       -0.3052305 -0.32291704 -0.08533736 -0.030207198
000010 a8 fa 7f 3e ae e9 5e be 2c 4b a5 be 56 b9 a8 3a
       0.24997962 -0.21768829 -0.32283914 0.0012872617
000020 e4 0d 9e be
       -0.30869973

fc3.weight f4 [1, 2]
000000 9b 81 02 3f c8 dc 15 bf
       0.5097901 -0.5854001

input_fc.weight f4 [18, 3]
000000 0d e4 a4 be 4d 12 df 3e cc 09 0e bd 04 29 aa b9
       -0.3220524 0.4356865 -0.03467731 -0.00032455486
000010 62 b5 b6 bc 0f 78 b0 3c cb f5 3d 3e 7b 12 c2 3c
       -0.022303287 0.021541623 0.18550794 0.023690453
000020 96 4d ab 3e f5 71 aa 3d e5 b5 ac be 00 8c 9d 3e
       0.3345763 0.08322517 -0.33732525 0.30770874
000030 6b 79 60 3e b1 94 29 3c fa 50 ab be 07 68 da 3a
       0.21921317 0.010350392 -0.33460218 0.0016663083
000040 13 67 06 3b 62 ce 3a 3c 36 d9 f3 bb 06 8f 3f bb
       0.0020508214 0.011401745 -0.007441665 -0.0029229536
000050 24 c5 2f bc 00 17 95 3e 5f cd 0c be af fd 9a be
       -0.010728154 0.2911911 -0.13750218 -0.3027167
000060 18 7f 1e 3d 5f 79 5d be a2 bc 47 3e 36 c6 a0 3e
       0.038695425 -0.2162833 0.19505551 0.31401223
000070 73 7f c4 3d ae d9 02 bf 47 96 9c be 38 8a a6 3d
       0.095946215 -0.511134 -0.30583403 0.08131832
000080 8c 14 c0 3e a3 f1 ba be d4 e5 bf 3e 1b 26 24 3e
       0.37515676 -0.3651248 0.37480032 0.16030161
000090 42 15 09 bb 13 a4 3f bb 00 4d ab 3b d1 38 0a bb
       -0.0020917212 -0.0029242083 0.005227685 -0.0021090994
0000a0 71 40 d3 bb 59 2f a0 bc 57 56 90 3e 4a 87 ac be
       -0.006446891 -0.019553827 0.28190872 -0.33696967
0000b0 95 51 fa bc e9 c0 0a 3c a4 b4 01 3c 0f 40 08 bc
       -0.03055648 0.008468845 0.007916603 -0.008316054
0000c0 e4 86 8e bd 29 d4 61 3e 89 44 50 be 68 71 81 3d
       -0.06959322 0.22053589 -0.20338644 0.06320459
0000d0 59 fb 85 be 41 e8 66 3e
       -0.26168326 0.22549535

input_fc.bias f4 [18]
000000 f2 2e 83 be 44 bb 3e 3e 75 1c 33 bc aa 78 bd 3d
       -0.25621754 0.18626124 -0.010932078 0.092515305
000010 b1 ab 9e 3d 5a 00 44 bd 17 e6 27 3d 6e 71 5b 3e
       0.07747591 -0.047851898 0.040990915 0.21429989
000020 b5 34 b7 3d 93 69 82 3c 8f a3 14 be b0 13 88 be
       0.089456 0.015919482 -0.14515518 -0.2657752
000030 e7 a2 71 3d 67 13 c8 bb 39 78 4c 3e b8 55 58 3b
       0.058993246 -0.0061058286 0.19967736 0.0033010077
000040 2d 9a 4a bc d5 99 a4 3e
       -0.01236586 0.32148615

norm.weight f4 [36]
000000 00 00 80 3f 00 00 80 3f 00 00 80 3f 00 00 80 3f
       1.0 1.0 1.0 1.0
000010 00 00 80 3f 00 00 80 3f 00 00 80 3f 00 00 80 3f
       1.0 1.0 1.0 1.0
000020 00 00 80 3f 00 00 80 3f 00 00 80 3f 00 00 80 3f
       1.0 1.0 1.0 1.0
000030 00 00 80 3f 00 00 80 3f 00 00 80 3f 00 00 80 3f
       1.0 1.0 1.0 1.0
000040 00 00 80 3f 00 00 80 3f 00 00 80 3f 00 00 80 3f
       1.0 1.0 1.0 1.0
000050 00 00 80 3f 00 00 80 3f 00 00 80 3f 00 00 80 3f
       1.0 1.0 1.0 1.0
000060 00 00 80 3f 00 00 80 3f 00 00 80 3f 00 00 80 3f
       1.0 1.0 1.0 1.0
000070 00 00 80 3f 00 00 80 3f 00 00 80 3f 00 00 80 3f
       1.0 1.0 1.0 1.0
000080 00 00 80 3f 00 00 80 3f 00 00 80 3f 00 00 80 3f
       1.0 1.0 1.0 1.0

norm.bias f4 [36]
000000 00 00 00 00 00 00 00 00 00 00 00 00 00 00 00 00
       0.0 0.0 0.0 0.0
000010 00 00 00 00 00 00 00 00 00 00 00 00 00 00 00 00
       0.0 0.0 0.0 0.0
000020 00 00 00 00 00 00 00 00 00 00 00 00 00 00 00 00
       0.0 0.0 0.0 0.0
000030 00 00 00 00 00 00 00 00 00 00 00 00 00 00 00 00
       0.0 0.0 0.0 0.0
000040 00 00 00 00 00 00 00 00 00 00 00 00 00 00 00 00
       0.0 0.0 0.0 0.0
000050 00 00 00 00 00 00 00 00 00 00 00 00 00 00 00 00
       0.0 0.0 0.0 0.0
000060 00 00 00 00 00 00 00 00 00 00 00 00 00 00 00 00
       0.0 0.0 0.0 0.0
000070 00 00 00 00 00 00 00 00 00 00 00 00 00 00 00 00
       0.0 0.0 0.0 0.0
000080 00 00 00 00 00 00 00 00 00 00 00 00 00 00 00 00
       0.0 0.0 0.0 0.0

norm1.weight f4 [9]
000000 00 00 80 3f 00 00 80 3f 00 00 80 3f 00 00 80 3f
       1.0 1.0 1.0 1.0
000010 00 00 80 3f 00 00 80 3f 00 00 80 3f 00 00 80 3f
       1.0 1.0 1.0 1.0
000020 00 00 80 3f
       1.0

norm1.bias f4 [9]
000000 00 00 00 00 00 00 00 00 00 00 00 00 00 00 00 00
       0.0 0.0 0.0 0.0
000010 00 00 00 00 00 00 00 00 00 00 00 00 00 00 00 00
       0.0 0.0 0.0 0.0
000020 00 00 00 00
       0.0

norm2.weight f4 [9]
000000 00 00 80 3f 00 00 80 3f 00 00 80 3f 00 00 80 3f
       1.0 1.0 1.0 1.0
000010 00 00 80 3f 00 00 80 3f 00 00 80 3f 00 00 80 3f
       1.0 1.0 1.0 1.0
000020 00 00 80 3f
       1.0

norm2.bias f4 [9]
000000 00 00 00 00 00 00 00 00 00 00 00 00 00 00 00 00
       0.0 0.0 0.0 0.0
000010 00 00 00 00 00 00 00 00 00 00 00 00 00 00 00 00
       0.0 0.0 0.0 0.0
000020 00 00 00 00
       0.0

m.running_mean f4 [12]
000000 4e 3e f7 3e 39 cb 01 3f 10 2c fb 3e fa da e9 3e
       0.48289722 0.5070072 0.49057055 0.45674878
000010 2a 2e e0 3e 02 0d e7 3e 25 08 f5 3e 81 01 f9 3e
       0.4378522 0.45127112 0.47857776 0.4863396
000020 ea c9 ea 3e fd 14 d2 3e 33 c8 c1 3e 3d 5b c5 3e
       0.45857173 0.41031638 0.37848052 0.38546172

m.running_var f4 [12]
000000 0c 8b 79 44 6f 5e 78 44 38 3d 77 44 ba ba 76 44
       998.1726 993.4755 988.95654 986.9176
000010 e9 48 77 44 74 bf 77 44 8b b7 77 44 7d f7 76 44
       989.1392 990.99146 990.86786 987.867
000020 96 25 76 44 4b 01 76 44 a7 af 76 44 d5 ce 77 44
       984.5873 984.0202 986.74457 991.23175

linear_net.0.weight f4 [9, 18]
000000 97 c3 70 3e c4 27 8e 3d 7d c1 6f 3d f7 69 66 3e
       0.23512112 0.069411784 0.058534134 0.2250136
000010 f0 b9 00 be 57 cf 10 3e c2 85 0a be 98 74 89 3d
       -0.1257093 0.14141594 -0.13527587 0.067116916
000020 ef 30 6e be 38 5c fa bc 58 88 5a 3e d5 c1 60 3e
       -0.23260854 -0.030561551 0.21341074 0.21948941
000030 1a 91 42 bd 81 30 e9 bd 73 d6 cc bc b2 bc 1d 3e
       -0.04750166 -0.113862045 -0.025004601 0.15404013
000040 0d e2 73 3d 60 9f a5 bd 23 67 d2 bd 21 cd 1d 3e
       0.05954175 -0.08087039 -0.10273578 0.15410282
000050 86 4a 1f be 42 cb c0 bd cc a3 11 bd ee a4 61 3e
       -0.15555772 -0.09413768 -0.0355566 0.22035572
000060 1e 68 39 3e bb c3 36 3e 4c 68 23 be 42 84 a6 3d
       0.18106124 0.17848103 -0.15957755 0.08130695
000070 9a ba 84 bc 03 ea ef 3d 81 a8 1f 3e 9f d9 3c be
       -0.01620226 0.11714556 0.15591623 -0.18442391
000080 93 0d 43 be 84 2d dd 3c f1 38 6e be a6 10 2e 3e
       -0.19048147 0.026999243 -0.23263909 0.16998538
000090 bd b7 2e be d8 42 0c be 2b fd 89 3a d1 8e 09 3e
       -0.17062278 -0.13697374 0.001052772 0.13433386
0000a0 01 bb 52 3e d8 42 32 3d 78 e4 4d 3e 59 37 cb 3d
       0.20579149 0.04352078 0.20106685 0.09922666
0000b0 c0 c7 6c 3e ec f3 6d bd 02 3e 75 bd 42 56 95 bd
       0.23123074 -0.05809395 -0.05987359 -0.07291843
0000c0 45 f6 23 bd 1a 26 4c be a9 45 90 3d c7 20 2d 3e
       -0.040029783 -0.1993641 0.070445366 0.16907035
0000d0 71 ce f8 3d 68 4a 18 be b2 c2 5a 3e d3 c7 1d ba
       0.121487506 -0.14872134 0.21363333 -0.0006018851
0000e0 25 79 e9 bb c8 5d 51 be c6 35 d3 bd 8c ec 9b 3d
       -0.0071250373 -0.20445931 -0.10312991 0.07613477
0000f0 c1 2e ea 3c cc 47 1a be 18 e0 5f 3e e7 2d ca 3d
       0.028586747 -0.15066451 0.21862829 0.098720364
000100 52 45 05 3e b0 66 0c be 54 e9 c2 bd a3 f4 96 3d
       0.13014725 -0.13711047 -0.0951716 0.073708795
000110 65 74 62 be 01 0e e2 3d e2 2e 47 3c 71 43 1a 3e
       -0.22114713 0.11037827 0.012157174 0.1506479
000120 dd 37 39 3e 59 cf 3e 3d 68 d0 fb 3d 83 a1 b3 3b
       0.18087716 0.04658446 0.1229561 0.0054819
000130 f6 71 6b 3e 1d 4b d6 bc 93 b5 14 be 68 19 01 bd
       0.22992691 -0.026158864 -0.1452239 -0.03151837
000140 f7 dc 35 be f1 56 0d be 1b d4 52 3d 6c 76 3a 3e
       -0.17760073 -0.13802697 0.05147181 0.18209237
000150 8f a8 44 3e 93 d0 35 3e 17 2f 4e 3e 87 8a 57 3e
       0.19204925 0.17755346 0.20135151 0.21048938
000160 0a 2d 11 be a0 68 93 bd 48 b0 db 3d a1 9e bd bd
       -0.14177337 -0.0719769 0.10726982 -0.09258772
000170 dd b3 24 bd 8f 22 4c 3e 00 42 a8 bc a3 1a 60 bd
       -0.040210593 0.19935058 -0.020539284 -0.054712903
000180 52 79 c6 3d b6 21 6c 3e a7 0b d0 bd 89 88 fc bc
       0.09691109 0.23059735 -0.101584725 -0.030826824
000190 fa ba 56 be ca 4b e4 3c 2a 48 c7 3c bd 17 22 3e
       -0.20969763 0.02786817 0.024326403 0.15829368
0001a0 fc 2f 45 be 03 87 15 be c2 d5 3b 3e 92 8d d9 bd
       -0.19256586 -0.14602284 0.18343261 -0.106227055
0001b0 bd 52 7e 3c 2f 9f 4f 3e 40 9c 51 3e 64 dc 71 bc
       0.015522656 0.20275567 0.20469761 -0.014762018
0001c0 1b 26 64 be ee 0d 46 be fd bf 67 be 69 4a 67 bc
       -0.22280161 -0.19341251 -0.22631831 -0.014116862
0001d0 cd b6 3b be 1f bd 43 3e 07 83 51 be 41 52 8f bd
       -0.18331452 0.19115113 -0.20460139 -0.069981106
0001e0 fb d3 ce 3d 9d a6 cb bd a2 b3 34 3e 1d 9a 4e 3d
       0.10099026 -0.09943888 0.1764665 0.050439943
0001f0 25 d4 67 3e 93 a3 09 3d 86 6a 13 3e 27 d2 54 be
       0.2263952 0.033603262 0.14396104 -0.20783292
000200 c3 24 cd bd 21 e4 d7 3d a1 83 b7 bd aa 12 9f 3d
       -0.10016777 0.10541559 -0.08960653 0.07767232
000210 53 12 12 be c0 95 3f 3d f9 22 ec 3c 51 13 05 be
       -0.14264803 0.046773672 0.02882527 -0.1299565
000220 6d 54 bc bb 2e ba 3a 3e 1c 4b 32 be 01 f9 1f 3d
       -0.005747369 0.18235084 -0.17411464 0.039055828
000230 c0 30 03 3e fe 58 5e 3e 3e e5 5b be de 62 da 3d
       0.12811565 0.21713635 -0.21474168 0.10663389
000240 b0 79 65 3e 14 2c 25 3e c5 2d 50 be 3a 0b 0c bd
       0.22409701 0.16130096 -0.2032996 -0.034190394
000250 35 ab ec bc 11 c1 0a bd 7a 36 8b 3c b7 14 7b 3c
       -0.028890232 -0.03387553 0.01699375 0.015324763
000260 33 b2 ff 3d 02 25 3d be e5 31 2a be 70 df e9 bb
       0.12485161 -0.18471149 -0.16620596 -0.0071372315
000270 5a 64 63 be e5 ac 6c 3e b8 63 2c 3e e7 73 d5 bd
       -0.2220625 0.23112829 0.16834915 -0.10422497
000280 b8 ca 2b 3e 98 79 d8 bd
       0.1677655 -0.10570067

linear_net.0.bias f4 [9]
000000 3c c8 d3 ba 64 14 4e be 91 f8 05 3c 5e 6d a1 3d
       -0.0016157697 -0.20124966 0.008176939 0.07882188
000010 57 fb c7 bd a5 fc 05 3e f6 d8 17 bb 82 55 01 3e
       -0.09764736 0.13084657 -0.002317009 0.12630275
000020 4d 93 6d 3e
       0.23200722

linear_net.2.weight f4 [1, 9]
000000 b0 26 6e be eb ee 6e be 2c bf 80 3e a0 83 92 bd
       -0.23256946 -0.23333327 0.25145853 -0.07154012
000010 b8 d8 74 be 6b 6d 35 3d 93 d5 6a be 82 a5 a6 3e
       -0.23910797 0.044293802 -0.22933035 0.32548147
000020 bb 62 20 3e
       0.15662663

exp_avg f4 [108, 36]
000000 71 81 05 bb 1c 6f 53 b9 ad e9 64 bc 14 ce 18 ba
       -0.0020371343 -0.0002016392 -0.013971728 -0.0005829048
000010 18 3a de 3a c9 7e 0a ba 5b 74 56 3a 0a 3d 36 3b
       0.0016954569 -0.00052831747 0.00081807905 0.0027807378
000020 0e 5f 53 38 94 7b 9a 3a cf 4c 33 bb bf aa 80 bb
       5.0394847e-05 0.0011786097 -0.0027359014 -0.0039266045
000030 9c 96 94 39 55 a5 8a 3a 58 a2 00 3b 13 aa d3 b9
       0.00028340972 0.0010577837 0.0019628014 -0.0004037177
000040 80 51 3c 3a 54 3c a0 b9 fe 96 a8 b8 ff 2b ea b5
       0.00071837753 -0.00030562526 -8.038989e-05 -1.7447163e-06
000050 53 4b 90 b9 88 16 81 38 de e4 e2 b9 c9 d5 10 ba
       -0.0002752194 6.155396e-05 -0.00043276598 -0.00055250205
000060 9d 6e 3f b9 4d 27 44 ba 91 6b 8c b8 5e 89 4b ba
       -0.00018256386 -0.0007482663 -6.695756e-05 -0.0007764305
000070 1a 63 ca b7 e0 80 4c ba 82 84 11 b7 e4 a0 4c ba
       -2.4126424e-05 -0.00078011863 -8.673525e-06 -0.0007805957
000080 c4 31 51 b6 07 a5 4c ba aa 5c 96 b5 8f a5 4c ba
       -3.1172394e-06 -0.00078065734 -1.120284e-06 -0.00078066526
000090 d4 e6 32 bc e8 05 ea ba 3d 02 ec bd 62 25 2a bc
       -0.0109192915 -0.0017854543 -0.115238644 -0.010384889
0000a0 a6 2a 7e 3c d8 11 83 bb 0e fd ca 3b 91 47 b8 3c
       0.015513098 -0.00399993 0.0061947173 0.022495063
0000b0 37 aa 50 bb c9 fd 54 3c f1 d3 bc bc 59 12 e5 bc
       -0.0031839737 0.01299996 -0.02305028 -0.02796285
0000c0 f8 9d e9 3a f4 5b 04 3c c5 e7 43 3c 4d 56 3c bb
       0.0017823568 0.008078564 0.011957114 -0.0028737963
0000d0 96 fc 1d 3c 5e 15 de bb 1c c6 52 ba 5f 80 95 b9
       0.009642741 -0.0067774495 -0.0008040385 -0.0002851514
0000e0 1c eb 2d bb 0b 14 9d 39 13 ca 5f bb 52 91 99 bb
       -0.0026537841 0.00029960307 -0.0034147545 -0.004686513
0000f0 c3 f9 b9 ba e3 48 c9 bb 6a 2a 08 ba 98 17 d0 bb
       -0.0014188815 -0.006142722 -0.00051943085 -0.006350469
000100 64 35 44 b9 90 fb d0 bb 23 12 8d b8 10 19 d1 bb
       -0.00018711906 -0.006377645 -6.726782e-05 -0.0063811615
000110 0f cd ca b7 df 1c d1 bb 39 c4 11 b7 5c 1d d1 bb
       -2.4175764e-05 -0.0063816155 -8.68836e-06 -0.0063816737
000120 c9 af ab 3a fd fc 49 37 95 cf da 3a 2c 54 17 ba
       0.0013098653 1.2039437e-05 0.0016693944 -0.00057727355
000130 f3 15 cd b9 74 59 db 38 c6 96 25 b9 cb 2d 5b ba
       -0.00039117 0.00010459396 -0.00015791794 -0.00083610107
000140 61 06 da b9 c9 86 93 b9 9f a5 46 3a 42 25 c3 3a
       -0.00041584953 -0.00028138448 0.000757778 0.0014888423
000150 d6 db ae b8 89 e8 58 b9 28 75 8e ba 8e d1 bc 38
       -8.337914e-05 -0.00020685991 -0.0010868656 9.003571e-05
000160 8b d1 b7 39 d6 60 f2 b9 e1 d0 5b 37 00 fd 1b 36
       0.00035060602 -0.00046229985 1.3102051e-05 2.3244065e-06
000170 fa aa a3 b6 f2 19 68 b8 fc 34 a7 38 0d 44 65 38
       -4.877683e-06 -5.5337274e-05 7.97305e-05 5.4661232e-05
000180 0c c9 15 38 35 66 d2 38 41 43 5d 37 41 71 e0 38
       3.5711608e-05 0.00010032618 1.3188285e-05 0.000107022475
000190 b7 97 9f 36 25 49 e2 38 aa 85 e5 35 29 86 e2 38
       4.756231e-06 0.00010790144 1.7100731e-06 0.00010801509
0001a0 4b fb 24 35 1e 8e e2 38 bd 2a 6d 34 18 8f e2 38
       6.146044e-07 0.00010802991 2.2087893e-07 0.00010803173
0001b0 20 c8 3e 3b b7 36 3d 3a d5 b0 50 3d 7d 3e 91 3b
       0.0029110983 0.0007217931 0.05094989 0.004432498
0001c0 d7 66 9d bb 83 04 e4 3a 7b 38 32 bb a5 0f f6 bb
       -0.004803519 0.0017396364 -0.002719431 -0.007509189
0001d0 f9 22 a2 3a 3f 85 34 bb 7c f1 f5 3b f8 53 1f 3c
       0.0012370042 -0.0027545241 0.007505594 0.00972461
0001e0 ee cc 4e ba 3c e1 64 bb 37 8a 64 bb d3 6e ad 3a
       -0.0007888813 -0.003492429 -0.0034872422 0.0013231881
0001f0 a5 22 8b bb 98 22 3d 3b de cd 53 39 00 2c 14 39
       -0.0042460733 0.002885973 0.0002019922 0.00014130771
000200 0a 40 96 3a 90 e7 87 b9 91 5b c8 3a 87 fd 01 3b
       0.0011463177 -0.00025921734 0.0015286078 0.0019834952
000210 14 ea 26 3a 83 42 2d 3b 1f 7e 74 39 47 70 33 3b
       0.0006367278 0.002643735 0.00023316637 0.0027380155
000220 7e 28 b0 38 36 3f 34 3b a7 4f fd 37 fd 59 34 3b
       8.399876e-05 0.0027503497 3.0197041e-05 0.0027519458
000230 f4 13 36 37 71 5d 34 3b 1a df 82 36 e3 5d 34 3b
       1.0852691e-05 0.0027521516 3.9002744e-06 0.002752178
000240 7e 7b 09 3b 5d f3 e0 38 70 d3 01 3c 3c a6 36 b9
       0.0020978148 0.00010726482 0.007923946 -0.000174188
000250 dc 7c 9f ba 0b e0 ad 39 bc 8b 05 ba 1f c0 09 bb
       -0.0012167948 0.00033164056 -0.00050943694 -0.0021019054
000260 c2 71 b4 b9 62 9d 74 ba 47 1f 05 3b a4 b3 4f 3b
       -0.00034417032 -0.0009331313 0.0020312832 0.0031692768
000270 d2 95 4f b9 bd 1e 2e ba 4b 64 f6 ba 55 d1 86 39
       -0.00019796871 -0.00066421536 -0.00187982 0.00025714436
000280 33 30 81 b8 ec c8 62 b9 81 6b 79 38 d0 54 5f b6
       -6.160177e-05 -0.00021627889 5.9466347e-05 -3.3278957e-06
000290 b4 93 0f 39 6b 7e 67 b8 66 a8 89 39 3c d6 a4 39
       0.00013692566 -5.5192428e-05 0.00026256143 0.00031440135
0002a0 4d a6 ea 38 29 c8 e5 39 d8 53 2c 38 99 29 ef 39
       0.000111889654 0.00043827415 4.108608e-05 0.00045616625
0002b0 b9 69 78 37 37 64 f0 39 2a 9d b2 36 ef 8c f0 39
       1.4806567e-05 0.00045851033 5.3231097e-06 0.0004588137
0002c0 12 63 00 36 30 92 f0 39 89 8f 38 35 d7 92 f0 39
       1.9131153e-06 0.00045885285 6.875421e-07 0.0004588577
0002d0 32 90 27 bb 98 c2 63 b9 f1 98 77 bc 4f 8b 79 ba
       -0.0025568125 -0.00021720899 -0.015112148 -0.0009519355
0002e0 d5 c3 29 3b e7 3a 0b ba f6 a0 56 3a 96 e4 79 3b
       0.0025904079 -0.00053112063 0.0008187437 0.0038130633
0002f0 42 c6 30 b9 be c4 1d 3b 0a 0d 7e bb 55 c7 a0 bb
       -0.00016858525 0.0024073566 -0.0038765096 -0.0049065747
000300 da 21 6c 39 a4 70 8e 3a 38 0a 26 3b ca 7e c3 b9
       0.00022519325 0.001086731 0.002533568 -0.00037287764
000310 e0 d1 80 3a 84 7d 14 ba 71 c0 08 b9 ca 6b 0f b8
       0.0009828173 -0.0005664455 -0.0001304166 -3.4194243e-05
000320 e5 ca c8 b9 09 94 8c 38 7d 53 f5 b9 d3 79 25 ba
       -0.0003829814 6.703294e-05 -0.00046792245 -0.0006312404
000330 3e 9f 4a b9 f7 b8 58 ba e7 3c 94 b8 98 ff 5f ba
       -0.00019323544 -0.0008267308 -7.068534e-05 -0.00085448613
000340 28 95 d5 b7 1a f3 60 ba 80 8f 19 b7 9b 12 61 ba
       -2.5461035e-05 -0.0008581147 -9.152922e-06 -0.0008585841
000350 6e c1 5c b6 ac 16 61 ba ef ab 9e b5 2f 17 61 ba
       -3.2895146e-06 -0.0008586447 -1.1821957e-06 -0.00085865235
000360 59 84 81 bb 3a 48 2d b9 b3 d2 03 bc b8 05 03 3a
       -0.0039525446 -0.00016525472 -0.00804584 0.00049981056
000370 a1 7a 29 3b 68 cd d0 b9 2c 55 1b 3a 62 81 7f 3b
       0.0025860446 -0.0003982589 0.00059254724 0.003898703
000380 d8 2c 03 3a ea 5c 3a 3b 06 3c 81 bb 97 6b b2 bb
       0.00050039357 0.0028436729 -0.003943923 -0.0054449546
000390 6b 42 90 39 b1 83 52 3a 39 b6 65 3b 4a 59 8b b9
       0.00027515306 0.0008030488 0.003505124 -0.00026578672
0003a0 20 6a 77 b9 eb 42 f5 39 32 e2 7f b9 e4 79 1b 38
       -0.0002359529 0.000467799 -0.0002440296 3.70684e-05
0003b0 bd cc 21 b9 2e ce 4b b9 fc dd 4d b9 22 29 e3 b9
       -0.00015430427 -0.00019436397 -0.00019633019 -0.0004332746
0003c0 39 c9 ac b8 a0 50 07 ba 3d 59 fd b7 95 76 0a ba
       -8.23908e-05 -0.00051618554 -3.0201505e-05 -0.00052819523
0003d0 10 90 36 b7 37 e0 0a ba 40 43 83 b6 e0 ed 0a ba
       -1.08815875e-05 -0.0005297693 -3.911933e-06 -0.00052997284
0003e0 8e b3 bc b5 a3 ef 0a ba dc a1 07 b5 df ef 0a ba
       -1.4059349e-06 -0.0005299991 -5.0526955e-07 -0.0005300026
0003f0 7c 0d aa bb 9a a2 bb b9 91 c9 9e bc 4b 2a 77 ba
       -0.0051895957 -0.00035788567 -0.019383224 -0.00094286044

exp_avg_sq f4 [108, 36]
000000 ec ff 59 3d e4 7d ab 3a 4a ac 52 3e c3 76 ab 3b
       0.05322258 0.0013083783 0.20573536 0.0052326634
000010 2a e6 d8 3c 87 e3 b6 3a d3 70 21 3b e1 7c 34 3d
       0.026476938 0.0013953306 0.00246339 0.044064406
000020 58 e3 a2 3a 50 e5 62 3d ba 8c 43 3d ff fa 68 3d
       0.0012427373 0.05539447 0.04774163 0.056879994
000030 da 95 ba 39 0d ca d4 3a 23 d4 21 3d 7c 86 c2 39
       0.00035588333 0.0016234532 0.03950895 0.00037102762
000040 97 be 60 3b 38 3d 37 3b f4 57 68 39 44 cb ae 37
       0.0034293288 0.0027960073 0.00022158009 2.083707e-05
000050 c2 ca 58 39 20 8c 20 39 6d 27 ad 39 49 02 4b 39
       0.00020674898 0.0001531099 0.00033026506 0.0001936044
000060 f4 9c 95 38 45 45 ff 39 62 d4 24 37 97 00 11 3a
       7.1341085e-05 0.00048689 9.824611e-06 0.0005531399
000070 13 b8 ab 35 66 67 13 3a c8 9d 31 34 68 b7 13 3a
       1.2794065e-06 0.00056230125 1.654181e-07 0.00056349346
000080 91 8b b7 32 e2 c1 13 3a 39 a6 3d 31 35 c3 13 3a
       2.1367471e-08 0.0005636496 2.7597606e-09 0.0005636693
000090 e8 59 f7 3b 53 4d 8f 3a d9 e1 6f 3e 45 21 1d 3b
       0.0075485595 0.0010933079 0.23425998 0.002397613
0000a0 47 8e 75 3b e6 d1 3f 3a a5 e4 ee 3a af d7 c6 3b
       0.0037468837 0.0007317349 0.00182261 0.006068192
0000b0 bc 9e f3 39 ad 61 14 3c 91 bc d0 3b be a4 17 3c
       0.00046466838 0.009056491 0.006370135 0.009255586
0000c0 49 99 1f 3a 6c 08 1c 3b 4e 5d a9 3b 75 63 f7 39
       0.000608821 0.002380873 0.0051685935 0.00047185612
0000d0 99 ba a6 3a 65 1e 7f 3a 0a bf 57 37 bd 76 81 37
       0.0012720405 0.0009732007 1.2859478e-05 1.543329e-05
0000e0 57 b7 fa 38 15 c7 15 39 50 a6 9f 39 58 69 bb 39
       0.00011955079 0.00014283911 0.00030450756 0.00035745907
0000f0 12 51 69 38 86 23 35 3a 5f e4 fb 36 aa cf 44 3a
       5.562703e-05 0.00069098955 7.506969e-06 0.0007507751
000100 dd de 82 35 19 ec 46 3a dd 51 07 34 3d 32 47 3a
       9.750617e-07 0.0007588282 1.2602636e-07 0.00075987336
000110 b1 d4 8b 32 57 3b 47 3a 04 7b 10 31 72 3c 47 3a
       1.627845e-08 0.000760009 2.1024684e-09 0.00076002546
000120 3b 77 cf 3d 84 90 08 3b 48 77 a1 3e f7 31 23 3c
       0.10130163 0.002083809 0.31536317 0.009960643
000130 99 9f 47 3d 34 86 17 3b 80 b5 8a 3b 24 3f aa 3d
       0.04873619 0.0023120763 0.0042330623 0.08312824
000140 f6 37 21 3b c5 a1 ca 3d 38 4d b7 3d 3d 3f e2 3d
       0.0024600006 0.09894136 0.08950275 0.11047218
000150 64 70 fa 39 b9 9b 36 3b 3f 42 9a 3d 0c f4 13 3a
       0.00047767453 0.0027863814 0.07532167 0.0005643971
000160 ac 52 d3 3b 58 ba b1 3b 10 b1 dc 39 14 d0 13 38
       0.0064490642 0.0054238252 0.00042093592 3.524132e-05
000170 1d 2d c5 39 6b 96 82 39 ec a7 09 3a fc 7f 91 39
       0.0003760838 0.00024907602 0.00052511576 0.0002775191
000180 5b 56 f3 38 4d 17 3d 3a 36 62 86 37 6f 8d 58 3a
       0.00011603228 0.000721325 1.6019778e-05 0.00082608213
000190 c4 0b 0c 36 ee 5d 5c 3a 77 dc 90 34 28 dd 5c 3a
       2.0868474e-06 0.00084063306 2.69825e-07 0.0008425289
0001a0 a1 b2 15 33 c5 ed 5c 3a 1c ad 9a 31 c7 ef 5c 3a
       3.4854228e-08 0.00084277644 4.50167e-09 0.00084280636
0001b0 40 0d 21 3d 26 06 f0 3a 06 63 9c 3e 96 fb 89 3b
       0.039319277 0.0018312379 0.305443 0.0042108996
0001c0 47 c9 a6 3c 79 95 de 3a f3 8b 37 3b e6 31 04 3d
       0.020359648 0.0016981802 0.0028007 0.03227415
0001d0 81 cc 9f 3a 82 5e 41 3d cf 40 10 3d 9a 63 2a 3d
       0.0012191684 0.04720927 0.035218056 0.041598894
0001e0 49 a4 54 3a 9a a4 0f 3b 56 02 ed 3c 0d 8e 2d 3a
       0.00081116386 0.0021918179 0.028931778 0.00066205935
0001f0 cf 09 3b 3b 45 29 13 3b f8 eb 22 39 b9 94 c4 37
       0.0028539782 0.0022455018 0.00015537429 2.3434275e-05
000200 69 97 60 39 78 91 47 39 4a 53 eb 39 b1 77 c4 39
       0.0002141871 0.0001903231 0.00044884748 0.0003747321
000210 89 8e bc 38 16 50 58 3a 18 ef 4d 37 ad fb 6f 3a
       8.991088e-05 0.000825168 1.22746205e-05 0.0009154629
000220 02 4e d6 35 f5 36 73 3a e5 a1 5d 34 95 a2 73 3a
       1.5966946e-06 0.00092779036 2.0641126e-07 0.0009293941
000230 c6 06 e5 32 66 b0 73 3a a3 a4 6c 31 45 b2 73 3a
       2.6662189e-08 0.0009296 3.4436105e-09 0.00092962786
000240 2a f1 ba 3d 4b 64 00 3b fe 32 9b 3e c4 23 13 3c
       0.0912803 0.001959103 0.3031234 0.008980695
000250 93 66 35 3d 31 f7 0c 3b 0c 18 80 3b e0 bb 99 3d
       0.044287276 0.0021509642 0.0039091166 0.075065374
000260 2c 86 0f 3b 3d 8a b9 3d 17 c1 a5 3d 37 de ca 3d
       0.002190004 0.0905957 0.080934696 0.09905665
000270 17 2c f5 39 73 6e 29 3b 78 e6 8a 3d d9 2f 0b 3a
       0.0004676289 0.0025853186 0.0678224 0.0005309559
000280 a2 6b be 3b 62 32 9f 3b 96 43 c6 39 b3 33 0b 38
       0.0058111707 0.004858301 0.00037815858 3.318833e-05
000290 8f 58 b4 39 d1 d6 75 39 44 b4 02 3a 70 20 90 39
       0.00034398257 0.00023445046 0.0004985968 0.00027489988
0002a0 f1 32 e5 38 ea 6a 38 3a 99 ed 7c 37 2a 87 52 3a
       0.000109290595 0.00070349744 1.50756905e-05 0.0008031005
0002b0 0e c7 03 36 33 26 56 3a 96 4e 88 34 06 9f 56 3a
       1.9636386e-06 0.0008169144 2.5389153e-07 0.00081871485
0002c0 86 db 0c 33 a1 ae 56 3a bc 8a 91 31 b5 b0 56 3a
       3.2795946e-08 0.0008189474 4.2358277e-09 0.00081897835
0002d0 29 4b ef 3b 34 56 40 39 cc 6d f0 3c 70 c4 5c 3a
       0.007302661 0.0001834266 0.02934923 0.00084216055
0002e0 7a ee 3f 3b 8a 09 27 39 90 d4 9b 39 b4 a6 b6 3b
       0.002928643 0.00015929915 0.00029722275 0.005574072
0002f0 0c 8d a5 39 d2 8c b6 3b 92 7b bc 3b 4b a0 14 3c
       0.0003157634 0.0055709863 0.0057520354 0.00907142
000300 81 53 9d 38 f8 9a 8f 39 fc d3 b0 3b 9d 22 9a 38
       7.501897e-05 0.00027390546 0.0053963643 7.3497395e-05
000310 77 6e 00 3a 30 f1 01 3a 41 23 c6 37 b6 c2 85 36
       0.0004899273 0.0004956899 2.3619856e-05 3.986376e-06
000320 06 0d 1a 38 72 aa 85 37 22 1a 3a 38 9d 5e 44 38
       3.672859e-05 1.5934205e-05 4.4370194e-05 4.6818157e-05
000330 2d ee 12 37 e7 f5 bd 38 23 49 a0 35 a8 2d d0 38
       8.757733e-06 9.058025e-05 1.1942215e-06 9.926717e-05
000340 f0 c6 26 34 f2 a9 d2 38 16 7a ac 32 c0 fc d2 38
       1.5532328e-07 0.00010045235 2.0078954e-08 0.00010060659
000350 10 3b 32 31 77 07 d3 38 5f 28 b8 2f cc 08 d3 38
       2.5935982e-09 0.000100626545 3.349809e-10 0.000100629026
000360 56 be 53 3a b8 21 47 39 f7 58 d3 3c 10 e5 4a 39
       0.00080773735 0.0001899068 0.025799258 0.00019349554
000370 22 89 c9 39 29 33 1c 39 b2 57 3e 39 e7 af 11 3a
       0.0003843988 0.00014896378 0.00018152481 0.00055575225
000380 5d 27 fd 38 ae 7b b6 3a e6 56 19 3a af 2d 98 3a
       0.00012071312 0.0013922357 0.00058494357 0.0011610294
000390 10 0c 01 39 01 17 15 39 b3 11 16 3a 08 93 d4 38
       0.00012306892 0.00014218317 0.0005724683 0.000101363345
0003a0 56 b3 04 39 65 e1 ff 38 d2 4a a5 35 dc 2f 9d 35
       0.00012655309 0.000122013305 1.2315234e-06 1.171134e-06
0003b0 87 3d 68 37 f8 11 1f 37 ba 89 0f 38 b4 fc 2e 38
       1.3842603e-05 9.481322e-06 3.4222125e-05 4.172018e-05
0003c0 63 89 cf 36 cd 01 ab 38 be c4 5f 35 a4 a8 b9 38
       6.1850747e-06 8.154251e-05 8.336027e-07 8.852899e-05
0003d0 e0 7a e8 33 58 a0 bb 38 b9 60 70 32 c4 e1 bb 38
       1.0825693e-07 8.946721e-05 1.3991831e-08 8.958907e-05
0003e0 ef 63 f8 30 37 ea bb 38 3d 53 80 2f 54 eb bb 38
       1.8072778e-09 8.960481e-05 2.334221e-10 8.960688e-05
0003f0 97 e2 24 3c 5e 62 14 3a 2d 5e 9c 3d a7 b5 91 3a
       0.010063789 0.000566041 0.0763515 0.0011116759

exp_avg f4 [108]
000000 a6 a5 4c ba 6e 1d d1 bb 3d 8f e2 38 f4 5d 34 3b
       -0.0007806666 -0.006381682 0.000108032 0.002752182
000010 f5 92 f0 39 47 17 61 ba e7 ef 0a ba 50 de 98 ba
       0.0004588586 -0.00085865374 -0.00053000305 -0.0011662934
000020 bc 11 21 ba b9 ed 9d bb d2 f4 0c 3b 2e be be 38
       -0.0006144305 -0.0048195985 0.002150823 9.09533e-05
000030 e1 33 5f bb c9 6a 2d 3b b2 91 d1 3b 84 22 80 3b
       -0.0034058022 0.0026461354 0.006395542 0.0039103646
000040 02 4d c3 ba c6 bd 4a bb 3d 66 75 bb e2 06 da 36
       -0.001490027 -0.0030935868 -0.0037444972 6.4977075e-06
000050 07 86 be b9 fd 31 a7 bb 67 eb ea ba 2a 1b fe 3a
       -0.00036339482 -0.0051023946 -0.0017922939 0.0019386758
000060 56 24 1c 3b 8e b8 51 3a ff a1 a1 bb 50 c7 c3 ba
       0.002382537 0.0008000218 -0.0049326415 -0.0014936719
000070 9c f6 47 3a 20 59 bc ba 14 78 34 3b 62 cb cd 3a
       0.0007627995 -0.0014369823 0.0027537392 0.0015700872
000080 c6 06 be 39 cf eb 39 39 56 57 08 bb 43 2b 26 ba
       0.0003624467 0.0001773082 -0.002080401 -0.0006338844
000090 99 9a 9b 31 5a 23 42 30 3f d4 62 b1 8a b3 eb b1
       4.5286694e-09 7.0627026e-10 -3.3007976e-09 -6.8598114e-09
0000a0 f0 e9 8c b1 bf e4 b8 2f 81 78 6d b1 43 00 4f b1
       -4.101132e-09 3.363194e-10 -3.4556538e-09 -3.0122613e-09
0000b0 e6 8e 46 ae e7 7b 06 31 dc 08 60 30 b0 1d a9 30
       -4.5146907e-11 1.9569997e-09 8.1503315e-10 1.2304806e-09
0000c0 e5 59 11 b1 3b a0 ba af df 8e 87 b1 0f 62 a2 b1
       -2.1151376e-09 -3.3947054e-10 -3.9452597e-09 -4.7259685e-09
0000d0 f3 e5 c1 b0 ab 6d 1e b1 e4 85 a4 b0 73 ca 91 31
       -1.4107954e-09 -2.3054365e-09 -1.1970624e-09 4.2430712e-09
0000e0 e8 73 85 b1 f7 76 e9 30 1e b6 c1 af b5 3b 9d b0
       -3.8839865e-09 1.6986793e-09 -3.5235898e-10 -1.1440223e-09
0000f0 25 cf 61 31 1e a0 6c 31 7c be d3 30 60 b6 05 31
       3.2859557e-09 3.4433536e-09 1.540641e-09 1.9457715e-09
000100 f5 9d 84 b1 39 2e 39 30 0a 47 1e b1 2e f2 9f 31
       -3.8596633e-09 6.7368294e-10 -2.3032407e-09 4.6550417e-09
000110 09 f6 47 31 f0 82 ab 31 33 92 ee 30 0a 74 ba b1
       2.9098166e-09 4.991641e-09 1.7358331e-09 -5.4265046e-09
000120 31 9f 85 3a 9f 73 7f 3a 8c 88 a6 3a b4 8d dc bb
       0.0010194537 0.0009744707 0.0012705489 -0.0067307595
000130 ec 4c fd ba c9 25 3a b9 c3 b2 94 3c c5 bc 0a bb
       -0.0019325293 -0.00017752418 0.018151646 -0.0021169644
000140 91 17 4d 3a fe a2 71 39 ed 62 45 38 0c 60 97 ba
       0.0007823641 0.0002304427 4.7060592e-05 -0.001154901
000150 fe 95 ed bc f6 d5 a5 3b c6 c2 26 3b 55 62 b7 bb
       -0.029002186 0.0050609065 0.0025445684 -0.005596439
000160 ff 0a b9 bb 45 19 87 3c 8b b3 b7 3c f9 ca 0d bb
       -0.005647063 0.016491542 0.02242448 -0.0021635874
000170 11 25 81 39 2b b3 26 3c 10 3c cf 3a 20 bd de 3a
       0.00024632414 0.010174553 0.0015810747 0.001699362
000180 7d e6 5b 3c 23 b5 ae 39 dd f3 88 ba 75 fc 6f 3c
       0.013421652 0.00033322824 -0.0010448653 0.014647593
000190 cc b7 1e 3b 56 31 cb ba cb a7 eb 3a 58 c9 0b bb
       0.0024218438 -0.0015502374 0.0017979083 -0.0021329727
0001a0 79 6e b7 3c f5 e0 c6 ba e9 2c 08 bd 57 a0 cf bc
       0.022391545 -0.0015173244 -0.033245955 -0.02534501
