SensorFormer/SensorFormer/checkpoints/chpt_AdamW_lr0.0003_ep150.pt (torch, 83227 bytes, 35 tensors)

self_attn.qkv_proj.weight f4 [108, 36]
0	0x3da42829	0.080154724
1	0xbb881cc6	-0.0041538207
2	0xbdcf388e	-0.10118209
3	0xbf2125b6	-0.6294817
4	0xbbda6b91	-0.006665655
5	0x3da05aa1	0.07829786
6	0xbe1ef076	-0.15521416
7	0xbe0c0cea	-0.13676801
8	0x3d437025	0.04771437
9	0x3d673bd7	0.056453552
10	0xbe0ede71	-0.13952042
11	0x3e9f7a89	0.31148174
12	0xbbcc4d18	-0.006234776
13	0x3be509e0	0.0069897026
14	0xbc70e9ea	-0.014704207
15	0xbf22524f	-0.6340684
16	0x3ed0c2b1	0.40773538
17	0xbe82b737	-0.25530407
18	0xbd6e4f10	-0.05818087
19	0x3e6c990c	0.23105258
20	0xbea13179	-0.31483057
21	0x3f0b194e	0.54335487
22	0xbe7e86a7	-0.24856053
23	0xbc9309bf	-0.017948983
24	0xbe943383	-0.2894555
25	0xbdc3d9f1	-0.095630534
26	0xbe5058f2	-0.2034643
27	0xbd4bab11	-0.04972369
28	0xbe59d371	-0.21272065
29	0xbcdbbd9e	-0.026823815
30	0xbe7a644a	-0.2445232
31	0xbe0181a0	-0.12647104
32	0xbe8752a4	-0.26430237
33	0x3d595c28	0.053066403
34	0xbdeb0ba9	-0.114768334
35	0xbe189356	-0.14899954
36	0x3d830ad1	0.063985474
37	0xbe241d51	-0.16026808
38	0xbe735d98	-0.23766172
39	0xbf1fa4d8	-0.62360907
40	0x3d0c7485	0.03429081
41	0x3d84c562	0.0648296
42	0xbe276419	-0.16346778
43	0xbe7eae27	-0.24871121
44	0x3cea520f	0.028603582
45	0x3e5232f1	0.20527245
46	0x3d0f19db	0.034936767
47	0x3e3e8eaf	0.18609117
48	0x3e24720d	0.16059132
49	0x3e2b2fab	0.16717403
50	0xbd655a27	-0.05599418
51	0xbf160b7a	-0.5861126
52	0x3ee09648	0.43864655
53	0xbea2b6ef	-0.31780192
54	0xbe744d43	-0.23857598
55	0x3ebb5b9e	0.36593336
56	0xbdd3006e	-0.10302816
57	0x3f1cc173	0.6123268
58	0xbe1daae7	-0.15397225
59	0x3de5f0d5	0.11227576
60	0xbe14fb76	-0.1454905
61	0xbdd32970	-0.10310638
62	0xbe8db235	-0.27675024
63	0x3c6905c1	0.014222563
64	0xbe1acb45	-0.15116604
65	0xbe19b8f7	-0.15011965
66	0xbe10887e	-0.14114568
67	0xbb362e52	-0.0027798605
68	0xbe4cf261	-0.20014335
69	0xbdba29c5	-0.09089998
70	0xbe7c4658	-0.24636209
71	0x3c1e1e5d	0.009650794
72	0xbe92707a	-0.28601438
73	0xbd49b551	-0.049245182
74	0xbe4371e3	-0.19086413
75	0x3d296957	0.041360226
76	0x3d0d6d45	0.034528036
77	0xbd0abc13	-0.033870768
78	0xbdf8694b	-0.12129458
79	0xbd21d3ad	-0.03950851
80	0x3d8e2323	0.069402955
81	0x3c03a9ce	0.00803609
82	0x3c948414	0.018129386
83	0xbe80d349	-0.25161198
84	0x3e5f51a5	0.21808489
85	0x3e5011a0	0.20319223
86	0x3e9b16fa	0.30290967
87	0x3de17622	0.1100886
88	0x3de42b6e	0.11141096
89	0x3a0ec189	0.0005445709
90	0x3c049aab	0.008093516
91	0x3df0a8ac	0.117509216
92	0x3e84a29b	0.25905308
93	0x3e909470	0.2823825
94	0xbe0d8368	-0.13819659
95	0x3cce9f8d	0.025222564
96	0xbe1d89e2	-0.1538463
97	0xbd926c63	-0.071495794
98	0xbdf3aa8c	-0.118977636
99	0x3d635c37	0.055507865
100	0xbe0c7ec1	-0.13720228
101	0xbda46319	-0.08026714
102	0xbd4478aa	-0.047966637
103	0xbdcb57a5	-0.09928826
104	0xbde1d174	-0.11026278
105	0xbd3d5ce5	-0.04623117
106	0xbdd93b4c	-0.10607013
107	0x3c8c5858	0.01713197
108	0x3e94b5c4	0.29044926
109	0x3eb2f94a	0.34955817
110	0x3dd22fcb	0.10263022
111	0xbe0f55a6	-0.13997516
112	0xbd428cb3	-0.047497462
113	0x3d477d0b	0.048703235
114	0x3eae1ffd	0.3400878
115	0x3e508fcd	0.20367356
116	0xbe81616c	-0.2526964
117	0x3e821f14	0.25414336
118	0xbdb79137	-0.089632444
119	0x3e069737	0.13143621
120	0xbed7c4f8	-0.42142463
121	0xbdebf519	-0.11521358
122	0xbe4720bf	-0.19446085
123	0xbc89a476	-0.016802054
124	0x3d9f5788	0.07780367
125	0xbe94b7c9	-0.29046467
126	0x3e18c947	0.14920531
127	0xbdc4612d	-0.09588847
128	0xbe852b69	-0.26009682
129	0xbe197423	-0.14985709
130	0x388c8645	6.70073e-05
131	0xbdfe7984	-0.12425521
132	0x3ddf1a26	0.10893659
133	0x3d07cd6a	0.033154882
134	0x3df8eaa8	0.12154132
135	0xbd8a4214	-0.06750885
136	0x3d81a31e	0.0632994
137	0xbde31699	-0.110882945
138	0x3dbc7994	0.09202877
139	0xbd57785c	-0.052605018
140	0x3d80fda5	0.06298379
141	0x3d1efbfb	0.038814526
142	0xbd34aa49	-0.04410771
143	0x3d41dc5d	0.047329295
144	0xbeeb0c17	-0.4590766
145	0xbe0152e9	-0.12629284
146	0xbe35f1f0	-0.17768073
147	0x3dde2d50	0.108484864
148	0x3d1d3e70	0.038389623
149	0x3d91b613	0.07114806
150	0xbe431814	-0.19052154
151	0xbe1b9f36	-0.15197453
152	0x3e87e4af	0.2654166
153	0xbe3d6898	-0.1849693
154	0x3d3b1f25	0.045684
155	0xbea71a57	-0.32637283
156	0x3e29bc6b	0.16575782
157	0x3e30e047	0.17273055
158	0x3ea08762	0.3135329
159	0x3cb6b48a	0.022302885
160	0xbd544311	-0.051821772
161	0x3ead3be1	0.33834746
162	0xbd1b568a	-0.037924327
163	0xbda55609	-0.080730505
164	0x3eab959a	0.33512574
165	0xbd3ab099	-0.045578573
166	0xbcd3c282	-0.025849584
167	0x3d344c66	0.04401817
168	0xbe151d33	-0.1456192
169	0xbc42836b	-0.011872153
170	0xbd0ca888	-0.03434041
171	0xbd5d1de7	-0.053983595
172	0xbe4c5177	-0.19952951
173	0xbcd39ce6	-0.025831651
174	0x3bfd7d23	0.0077358647
175	0xbdbfbf4f	-0.09362661
176	0xbd450ced	-0.04810803
177	0x3be13fe0	0.0068740696
178	0xbe3476e3	-0.17623477
179	0xbe3ab0b0	-0.18231463
180	0x3ed888d7	0.422919
181	0x3e5a9992	0.21347645
182	0x3e0e8fd3	0.13922052
183	0xbe15c027	-0.14624082
184	0xbe115033	-0.1419075
185	0x3dc9d2a3	0.09854629
186	0x3e52ea2f	0.20597146
187	0x3e27a550	0.16371655
188	0xbe921b00	-0.28536224
189	0x3d8cbad9	0.06871576
190	0xbe5f74d4	-0.2182191
191	0x3e89d2fb	0.26918778
192	0xbd1decb3	-0.038555812
193	0xbdbc0316	-0.09180276
194	0xbec043e1	-0.37551787
195	0xbd6cb3c1	-0.057788614
196	0xbe51f23b	-0.2050256
197	0xbda2667a	-0.07929702
198	0x3dd8142a	0.10550721
199	0xbcf00c5d	-0.02930277
200	0xbec37152	-0.38172394
201	0xbeb3a5ea	-0.3508752
202	0x3e839d17	0.25705788
203	0xbd4a2e53	-0.049360584
204	0x3e89ba93	0.26900157
205	0x3e183c0c	0.14866656
206	0x3e803e8d	0.25047722
207	0x3d7c461d	0.061590303
208	0x3e0ecbb9	0.13944902
209	0x3e0385ff	0.12844084
210	0x3dfeb0ef	0.12436091
211	0x3d8c134f	0.0683962
212	0x3e795347	0.24348174
213	0x3e326472	0.1742113
214	0x3e9ee8e6	0.31037062
215	0x3c3ca7dd	0.011514631
216	0xbe4d470d	-0.20046635
217	0xbeb8e1d6	-0.361098
218	0xbd2dd391	-0.042438094
219	0x3d011bf1	0.031520788
220	0xbd16a92a	-0.03678242
221	0xbdbfe4e9	-0.09369833
222	0xbee39c22	-0.44455057
223	0xbec3cab5	-0.3824059
224	0x3e98f03b	0.2987078
225	0xbed227cc	-0.41045988
226	0x3e9114b6	0.28336114
227	0x3d648e6a	0.05579988
228	0x3d9ca5ec	0.076488346
229	0x3edd12f0	0.4317851
230	0xbcad3c31	-0.021146866
231	0xbd950507	-0.072763495
232	0x3e06150d	0.13093968
233	0x3e51f906	0.20505151
234	0x3e363f08	0.17797482
235	0x3e39d2e7	0.18146859
236	0x3f346762	0.7047025
237	0x3f3e62e5	0.7436965
238	0xbdc40d31	-0.095728286
239	0x3defca44	0.11708501
240	0xbe7b31e4	-0.2453075
241	0x3caf6d74	0.021414496
242	0xbe6157dc	-0.22006172
243	0x3dd47f19	0.103758045
244	0xbe3f3cab	-0.18675487
245	0xbdb76986	-0.08955674
246	0xbe44ce38	-0.19219291
247	0x3ca6f2e4	0.020379491
248	0xbe2d3d3e	-0.16917893
249	0xbd0a8ba2	-0.03382457
250	0xbdfec6a7	-0.12440234
251	0xbd853042	-0.06503345
252	0x3e230fa0	0.15923929
253	0x3e325096	0.17413554
254	0xbe7a2223	-0.24427085
255	0xbee6a4f2	-0.45047718

self_attn.qkv_proj.bias f4 [108]
0	0xbd4e381b	-0.050346475
1	0xbd6faa56	-0.058512054
2	0xbd45d513	-0.048298907
3	0xbc7da813	-0.015481967
4	0xbda05ff2	-0.078308
5	0x3dd79d97	0.10528105
6	0x3c646194	0.01393928
7	0xbd9929c2	-0.07478668
8	0xbdf03090	-0.117280126
9	0x3d5b1b6e	0.053492956
10	0xbe4bbdce	-0.19896623
11	0xbd8abbba	-0.06774087
12	0x3d85e7d9	0.06538362
13	0x3d1f7df1	0.038938466
14	0x3e36f8ee	0.17868397
15	0xbdd25daa	-0.10271771
16	0x3ae2293b	0.0017254719
17	0x3c3618b3	0.011114287
18	0xbd80b0b6	-0.06283705
19	0xbe949622	-0.29020792
20	0x3d6b34e4	0.057423487
21	0xbcba4093	-0.02273587
22	0x3dbb37c3	0.09141495
23	0xbdbd13a3	-0.09232261
24	0xbdf22fbc	-0.11825511
25	0xbe172563	-0.14760356
26	0x3d07e27a	0.03317497
27	0xbe35fbc1	-0.17771818
28	0x3e0c2586	0.13686189
29	0x3d5fa236	0.054598056
30	0x3cfee816	0.031116527
31	0xbe8a73c5	-0.2704145
32	0xbdc7c9fd	-0.09755323
33	0x3d1910c0	0.03736949
34	0xbd89d2c3	-0.06729653
35	0xbe22e113	-0.15906172
36	0xbcd7c69f	-0.026339827
37	0x3cb06715	0.021533528
38	0x3d0813e5	0.033222098
39	0xbdf68854	-0.12037721
40	0x3e08d5e1	0.13362838
41	0xbdc19a8f	-0.09453308
42	0x3dd3e62c	0.10346636
43	0xbd1d7da3	-0.038449895
44	0x3cc13564	0.023585029
45	0x3d6b75af	0.05748528
46	0xbbf5ad03	-0.0074974312
47	0x3d7c89ac	0.06165473
48	0xbdf17acf	-0.11791002
49	0x3d8dcfed	0.06924424
50	0x3bd3a235	0.0064585456
51	0x3b022f7f	0.0019864736
52	0x3c4df162	0.012569757
53	0x3d93434c	0.0719057
54	0xbb1f595f	-0.0024314744
55	0x3c33137d	0.010929939
56	0x3d99ce1b	0.075100146
57	0xbd0bb1cd	-0.03410511
58	0x3b9a6ec3	0.004712911
59	0x3c9b0907	0.018925203
60	0x3a128456	0.00055891776
61	0xbc1e1dab	-0.009650628
62	0x3dc25371	0.094885714
63	0xbbf37ac0	-0.0074304044
64	0x3cb96ca5	0.022634814
65	0xbdd4c989	-0.10390002
66	0xbd957a25	-0.07298688
67	0xbd12bf32	-0.03582687
68	0x3d4c5943	0.049889814
69	0xbda22c2b	-0.079185806
70	0xbcddcfa0	-0.027076542
71	0x3d2b8180	0.041871548
72	0xbdab42a3	-0.08362319
73	0xbd4c4934	-0.0498745
74	0x3d89cd76	0.06728642
75	0xbe5e9e6a	-0.21740118
76	0x3d1e766b	0.03868715
77	0x3dd4b088	0.10385233
78	0x3ddc9943	0.1077142
79	0x3d0d997f	0.034570213
80	0xbdbe8c7e	-0.093041405
81	0x3c4d734a	0.012539694
82	0xbda4731b	-0.08029767
83	0xbe3a1931	-0.18173672
84	0x3e5d7c37	0.21629415
85	0x3e742f42	0.23846152
86	0xbe9f1e02	-0.31077582
87	0x3dafa806	0.0857697
88	0xbe8edcc1	-0.27902797
89	0x3de26af7	0.11055558
90	0x3d7d3ba3	0.061824452
91	0x3e3eab04	0.18619925
92	0xbdba5b76	-0.09099476
93	0x3e10eddb	0.14153235
94	0xbdb0f86b	-0.08641132
95	0x3eaf5a5b	0.34248623
96	0x3e823cbf	0.2543697
97	0xbe6e28bf	-0.23257731
98	0xbda34904	-0.07972911
99	0x3d43e26a	0.047823347
100	0x3e6dbb47	0.23215972
101	0xbd1282ef	-0.0357694
102	0xbd8685c6	-0.06568484
103	0x3e99773f	0.2997379
104	0x3da2670e	0.07929812
105	0x3e254a9b	0.16141741
106	0xbe81fb04	-0.25386822
107	0xbe32dbdb	-0.1746668

self_attn.o_proj.weight f4 [36, 36]
0	0x3d27a634	0.040929988
1	0xbda21754	-0.07914606
2	0x3c71a9a1	0.014749915
3	0x3e3fdc3d	0.18736358
4	0x3e8e9898	0.27850795
5	0xbbad1efc	-0.0052832346
6	0xbe6eb1a9	-0.2330996
7	0xbd617037	-0.055038657
8	0x3d9c93bd	0.07645366
9	0x3bb5058e	0.005524344
10	0xbe430126	-0.19043407
11	0x3e3e4332	0.1858032
12	0x3cd04864	0.025425144
13	0x3d903210	0.07040799
14	0xbe0bdc1d	-0.13658185
15	0x3dd07b5b	0.10179778
16	0x3ec49873	0.3839756
17	0xbda3938d	-0.079871275
18	0xbd4389a6	-0.047738694
19	0x3e180156	0.1484426
20	0xbe4fc5ff	-0.20290373
21	0x3e4ba715	0.19887955
22	0x3e0c1713	0.13680677
23	0x3ddcb565	0.10776786
24	0xbef34747	-0.47515318
25	0xbe1b1958	-0.15146387
26	0xbc54ac1e	-0.012980489
27	0xbc4fe58a	-0.012689004
28	0xbecdbc0c	-0.4018253
29	0xbe2ace05	-0.16680153
30	0xbe1e61c9	-0.1546699
31	0x3e4dced3	0.20098428
32	0xbc8a1190	-0.016854078
33	0x3e64751c	0.22310299
34	0x3ecdd0a2	0.40198237
35	0x3d5101b6	0.051027022
36	0x3df491ea	0.119418934
37	0x3e31b3bd	0.17353721
38	0xbc7553bf	-0.01497358
39	0xbd7fa8de	-0.062416904
40	0x3dc5414a	0.096315935
41	0xbe2402a8	-0.16016638
42	0x3e712614	0.23549682
43	0xbc6fa39a	-0.014626408
44	0xbd901867	-0.070359044
45	0x3daf743e	0.08567093
46	0x3d3751e2	0.044755824
47	0xbd0a86eb	-0.033820074
48	0xbe1cf2ea	-0.1532704
49	0x3e271d17	0.1631969
50	0x3dcaf12d	0.09909282
51	0x3e21fe99	0.15819778
52	0xbeb6ebf5	-0.35726896
53	0xbd45b534	-0.048268512
54	0x3da72a90	0.08162415
55	0x3df9b355	0.12192408
56	0x3de600e7	0.11230641
57	0x3cec7131	0.028862568
58	0x3d41e76e	0.04733985
59	0xbd53f673	-0.051748704
60	0x3e6aaf38	0.22918403
61	0xbd752e3c	-0.059858546
62	0x3df128b9	0.11775345
63	0xbc70befc	-0.014693972
64	0x3ea49c6e	0.32150596
65	0xbe10c059	-0.14135875
66	0xbde6ced0	-0.11269915
67	0x3d6104b2	0.05493612
68	0xbdf03b4b	-0.11730059
69	0x3ddc8dd0	0.10769236
70	0xbe6411fd	-0.22272487
71	0xbe025598	-0.12727964
72	0x3dacb268	0.08432466
73	0xbc2ec6a1	-0.010667474
74	0x3e4baf7c	0.1989116
75	0xbd29e635	-0.04147931
76	0xbdeb9936	-0.11503832
77	0xbd89645e	-0.06708597
78	0x3e5d1dd6	0.21593413
79	0xbcadc654	-0.021212734
80	0x3dda70d6	0.10666053
81	0x3d8a87f0	0.06764209
82	0x3e276446	0.16346845
83	0x3e96a840	0.2942524
84	0xbddfdbd6	-0.10930602
85	0x3e37f00e	0.17962667
86	0x3dc4d848	0.09611565
87	0xbdf86347	-0.12128311
88	0xbd28587e	-0.041100018
89	0xbe83bfe5	-0.2573234
90	0xbe9124ee	-0.28348488
91	0x3ced37ae	0.028957214
92	0x3da112b8	0.078648984
93	0xbe90537d	-0.28188697
94	0x3d98f75f	0.07469057
95	0xbe1c98f8	-0.15292728
96	0x3e4dcdce	0.2009804
97	0x3e643155	0.22284444
98	0xbe01bfc9	-0.12670816
99	0x3d8acb02	0.06777002
100	0x3eb6ab59	0.35677603
101	0x3d9c38d6	0.07628028
102	0xbce47cdf	-0.027891574
103	0xbdde5c38	-0.10857433
104	0xbe230f97	-0.15923916
105	0xbe11fc59	-0.14256419
106	0x3c87b420	0.016565382
107	0xbb638b7e	-0.0034720595
108	0x3cf9cd77	0.030493481
109	0xbdb6281f	-0.08894371
110	0x3e6711cb	0.22565381
111	0xbe4edc00	-0.20201111
112	0xbe3a0744	-0.18166834
113	0x3d36f7b4	0.04466982
114	0x3e9f2d77	0.31089374
115	0x3ec553a5	0.38540378
116	0x3e90b005	0.28259292
117	0x3da9878e	0.08277808
118	0x3e91bef7	0.28466007
119	0x3e817fa6	0.252927
120	0xbd6b2cc7	-0.05741575
121	0xbda70e90	-0.081570745
122	0x3e5ff38f	0.21870254
123	0xbe3056aa	-0.1722056
124	0x3ee05e06	0.43821734
125	0x3e1efc22	0.15525869
126	0xbedc4a5a	-0.43025476
127	0xbe80df91	-0.25170568
128	0xbdc8a9df	-0.09798025
129	0xbe84f4bb	-0.25967965
130	0x3dc812d3	0.097692154
131	0xbe95cce7	-0.2925789
132	0xbde139bf	-0.10997342
133	0x3ea80554	0.32816565
134	0x3d8bfe3a	0.06835599
135	0x3d0ead64	0.034833327
136	0xbdb9ff04	-0.090818435
137	0x3e623532	0.22090605
138	0x3d506d78	0.050885648
139	0xbe3a5acc	-0.18198699
140	0xbeb7fa3e	-0.35933107
141	0xbe7f6087	-0.24939166
142	0x3f422101	0.7583161
143	0x3e96b298	0.2943313
144	0x3e5b2034	0.21399003
145	0x3dcc281b	0.09968587
146	0xbeb5dc9e	-0.3551988
147	0xbf1a112f	-0.6018247
148	0xbe532661	-0.20620109
149	0xbe0bf75e	-0.13668582
150	0x3e9d2b9d	0.30697337
151	0xbed0e294	-0.40797865
152	0xbe3468b0	-0.1761806
153	0xbe440f39	-0.19146432
154	0xbf3793f3	-0.7171013
155	0x3f76a88f	0.9635095
156	0xbe5ad355	-0.2136968
157	0x3f10bc49	0.565373
158	0x3e6f70d9	0.23382892
159	0x3f0075ac	0.50179553
160	0x3defad15	0.11702935
161	0xbd88ebad	-0.066855766
162	0xbf2d0314	-0.6758282
163	0x3f520a8d	0.8204735
164	0x3e441814	0.1914981
165	0xbf1264a3	-0.5718481
166	0x3e5bd96d	0.2146966
167	0x3c7e8680	0.015534997
168	0x3d8a23a0	0.06745076
169	0x3f434f98	0.76293325
170	0x3d1f722d	0.038927246
171	0xbdf47708	-0.11936766
172	0xbd8c518b	-0.068514906
173	0xbee12848	-0.43976045
174	0x3d5eb465	0.054371256
175	0xbe4a1ccd	-0.19737549
176	0xbf43e5a6	-0.7652229
177	0x3f04bfd6	0.5185522
178	0x3ead7861	0.33880904
179	0x3ecbcdfe	0.39805597
180	0xbca2a48d	-0.019853855
181	0x3dcde258	0.10052937
182	0xbbbc7b11	-0.0057519753
183	0x3ec2c760	0.38042736
184	0x3e7636c5	0.2404433
185	0x3d495f18	0.049162954
186	0xbec61988	-0.38691354
187	0x3e0af829	0.13571228
188	0xbe2bcfc5	-0.16778477
189	0xbdc837bf	-0.09776258
190	0x3d9c4ccd	0.07631836
191	0xbe7f09ed	-0.2490613
192	0x3dba7b0f	0.09105503
193	0xbe8e5100	-0.27796173
194	0xbbdc7e27	-0.0067289057
195	0xbd9120c1	-0.070863254
196	0x3cf40923	0.029789513
197	0xbde3be42	-0.11120273
198	0x3e82c2e0	0.25539303
199	0xbe3068be	-0.17227456
200	0xbe31bd76	-0.1735743
201	0x3da1b023	0.078949235
202	0x3e21b996	0.15793452
203	0xbd31cfae	-0.04341095
204	0xbe847326	-0.258691
205	0xbe72fd46	-0.23729429
206	0xbd9e5e7f	-0.077328674
207	0xbd512590	-0.051061213
208	0xbeadcc25	-0.33944812
209	0xbdbfdea3	-0.093686365
210	0x3e01ded6	0.12682661
211	0xbd2b06cd	-0.041754533
212	0x3eaf4999	0.34235838
213	0xbd11ccb8	-0.035595626
214	0x3e04da89	0.1297399
215	0xbe032577	-0.1280726
216	0xbd3ee1a6	-0.046601914
217	0xbdceab0f	-0.100912206
218	0x3cbb547a	0.02286743
219	0x3d28f079	0.041244958
220	0x3e397cfa	0.18114081
221	0x3e27c3b0	0.16383243
222	0xbdd1f6f6	-0.10252182
223	0xbd05ebcf	-0.032695588
224	0xbe658b0f	-0.22416328
225	0x3dc18f1b	0.09451123
226	0xbd079c42	-0.033108003
227	0xbe56a419	-0.20961036
228	0x3d3241e3	0.043519866
229	0x3de13756	0.109968826
230	0x3dba3915	0.09092919
231	0x3e2d2a38	0.16910636
232	0xbebcea76	-0.3689763
233	0x3e15b37c	0.14619249
234	0x3e0996dc	0.13436455
235	0x3e2c1951	0.16806532
236	0xbd6d5d36	-0.05795022
237	0x3e0b23b2	0.13587835
238	0x3d065f55	0.03280576
239	0x3e191f45	0.14953335
240	0x3e02bd4e	0.12767527
241	0xbe458b25	-0.1929136
242	0xbe22075a	-0.15823117
243	0xbe037d9a	-0.12840882
244	0x3eb9ea84	0.36311734
245	0xbe4511a7	-0.19245015
246	0xbe3ab61a	-0.18233529
247	0x3dd7b8b4	0.10533276
248	0x3e9582b8	0.29201293
249	0x3e359f12	0.17736462
250	0xbf086473	-0.53278273
251	0xbd99403a	-0.07482953
252	0x3d4dbc2a	0.050228275
253	0x3d966fb5	0.07345525
254	0x3e3b43ff	0.18287657
255	0x3cf04ed6	0.029334467

self_attn.o_proj.bias f4 [36]
0	0xbe0dc26d	-0.13843699
1	0x3eb396d8	0.35076022
2	0x3dfcc0f7	0.123414926
3	0xbf201a7b	-0.62540406
4	0x3e77dc49	0.24205126
5	0xbe91606f	-0.28393885
6	0x3edd585c	0.43231475
7	0x3e046892	0.12930515
8	0xbeb5f867	-0.35541078
9	0x3e2a9aea	0.16660658
10	0xbe53147b	-0.20613281
11	0x3edac1f2	0.42726094
12	0xbefec594	-0.49760115
13	0xbe87de59	-0.26536825
14	0xbec6cba7	-0.3882725
15	0x3e176a66	0.14786682
16	0x3edc02cb	0.4297088
17	0xbf0938c1	-0.53602225
18	0xbed62371	-0.41823915
19	0x3ea7a93a	0.32746297
20	0xbed0d03a	-0.40783864
21	0x3eb62de0	0.35581875
22	0xbe7c214b	-0.24622075
23	0x3f12c4c5	0.57331496
24	0x3ec34101	0.38135532
25	0xbe992f98	-0.29919124
26	0x3f0ffa74	0.56241536
27	0x3f103afe	0.56340015
28	0xbe671290	-0.22565675
29	0xbf01c9ec	-0.50698733
30	0x3ee1fb23	0.44136915
31	0x3f0fe92f	0.56215185
32	0x3ed7c1a3	0.4213992
33	0xbe825d48	-0.25461793
34	0xbe93b788	-0.2885096
35	0xbecab35d	-0.39589968

fc.weight f4 [1, 18]
0	0xbde9e458	-0.11420506
1	0xbe7153e2	-0.23567155
2	0x3e61ef4f	0.22063945
3	0xbda2ea40	-0.07954836
4	0xbe56d156	-0.20978293
5	0xbe2df640	-0.16988468
6	0x3d6f9781	0.058494095
7	0x3e1468a6	0.14493045
8	0x3cc74026	0.02432258
9	0x3d169b80	0.03676939
10	0xbd066112	-0.032807417
11	0x3d209738	0.039206713
12	0xbca3dadf	-0.020001827
13	0x3e412893	0.18863134
14	0x3db508d7	0.08839577
15	0xbdcf0e64	-0.10110167
16	0x3dab77bb	0.08372446
17	0xbda951d3	-0.0826756

fc1.weight f4 [1, 36]
0	0xbfc9df05	-1.5771185
1	0x3fa16b0e	1.2610795
2	0x3fab20db	1.3369402
3	0xbf6f8907	-0.9356846
4	0x3f357756	0.7088522
5	0xbf901374	-1.1255937
6	0x3fa5673d	1.2922131
7	0x3fd4cdd9	1.662532
8	0xbf2d66ae	-0.677348
9	0x3fcbc475	1.5919329
10	0xbfd49450	-1.6607761
11	0x3f0af95d	0.5428675
12	0xbf72684c	-0.94690394
13	0xbf0087b8	-0.5020709
14	0xbf24e049	-0.6440473
15	0x3fb8fb46	1.4451683
16	0x3f21c7e9	0.63195664
17	0xbf4cafcd	-0.7995575
18	0xbf6a3de1	-0.9150067
19	0x3f75ba1a	0.95987093
20	0xbf73cef2	-0.9523765
21	0x3f82cf8a	1.0219586
22	0xbf3f3a6b	-0.74698514
23	0x3f661edb	0.8989083
24	0x3f8a523e	1.0806348
25	0xbf19672e	-0.59923065
26	0x3f430f27	0.76194996
27	0x3f4203fd	0.75787336
28	0xbf9cfbdd	-1.2264363
29	0xbf4e6e85	-0.8063739
30	0x3f8c42d6	1.0957897
31	0x3f7d2476	0.9888376
32	0x3f2b134a	0.6682631
33	0xbfbd9638	-1.4811468
34	0xbfc99423	-1.5748333
35	0xbf7e054c	-0.9922683

fc2.weight f4 [1, 9]
0	0xbe9c472c	-0.3052305
1	0xbea55562	-0.32291704
2	0xbdaec55b	-0.08533736
3	0xbcf77516	-0.030207198
4	0x3e7ffaa8	0.24997962
5	0xbe5ee9ae	-0.21768829
6	0xbea54b2c	-0.32283914
7	0x3aa8b956	0.0012872617
8	0xbe9e0de4	-0.30869973

fc3.weight f4 [1, 2]
0	0x3f02819b	0.5097901
1	0xbf15dcc8	-0.5854001

input_fc.weight f4 [18, 3]
0	0xbe4eeb13	-0.20206861
1	0x3f084f5b	0.53246087
2	0x390e3f61	0.00013565786
3	0x3e50fc30	0.20408702
4	0xbe47a69e	-0.19497153
5	0xbe216d50	-0.15764356
6	0x3ec27a5b	0.37983975
7	0xbe384c0d	-0.17997761
8	0x3e907895	0.28216997
9	0x3e626428	0.22108519
10	0xbeea0221	-0.4570475
11	0x3e752e4a	0.23943439
12	0x3c4c2402	0.012459757
13	0xbd1711d2	-0.03688223
14	0xbb9e1414	-0.004824171
15	0xbc8b11a6	-0.016976189
16	0xbd0d69e9	-0.034524832
17	0xbd358727	-0.044318344
18	0x3e0b4a45	0.1360255
19	0xbe08967e	-0.13338658
20	0xbdda2282	-0.10651113
21	0x3eb132fe	0.34609216
22	0xbde621d7	-0.11236923
23	0xbeccaac0	-0.39974022
24	0x3db1541b	0.0865862
25	0xbe99bc2f	-0.30026385
26	0x3e172775	0.14761145
27	0x3e80d9ab	0.25166067
28	0xbd1caceb	-0.038250845
29	0xbf05fe5d	-0.5234125
30	0xbe849ce6	-0.25900954
31	0x3dbd3ae7	0.0923975
32	0x3ee08d6c	0.43857896
33	0xbeb10c11	-0.34579518
34	0x3edff876	0.43744248
35	0x3e6ffaa4	0.23435456
36	0xba05d53e	-0.0005105323
37	0xbcf4731a	-0.029840041
38	0x3b57dc61	0.0032937753
39	0x3a06dd01	0.00051446265
40	0x3bf50d9a	0.007478428
41	0x3b31eb4d	0.0027148307
42	0x3e505412	0.2034457
43	0xbec91cfd	-0.3927993
44	0xbe1a912e	-0.15094444
45	0x3eb2e6aa	0.34941608
46	0xbeae56f3	-0.34050712
47	0x3c04f51a	0.008115077
48	0xbeace753	-0.33770236
49	0x3ec5d13f	0.38636205
50	0xbe2c5cf8	-0.1683234
51	0x3e4aca42	0.19803718
52	0xbef0d64c	-0.47038496
53	0x3df1baaf	0.11803185

input_fc.bias f4 [18]
0	0xbe96c9cd	-0.29450837
1	0x3e4f0bc6	0.20219335
2	0xbd993514	-0.07480827
3	0x3d8f44d3	0.06995549
4	0x3d5489fe	0.051889412
5	0x3e994560	0.2993574
6	0x3de7e542	0.11323024
7	0x3e7530ea	0.2394444
8	0x3e429b23	0.19004492
9	0x3d985306	0.074377105
10	0xbe3c64d2	-0.18397835
11	0xbe948a78	-0.29011893
12	0x3e23eb63	0.16007762
13	0xbdb1d53c	-0.08683249
14	0x3de3efc3	0.11129715
15	0x3d8147a2	0.06312491
16	0x3d5c737d	0.053821076
17	0x3eed571a	0.46355516

norm.weight f4 [36]
0	0x3f800000	1.0
1	0x3f800000	1.0
2	0x3f800000	1.0
3	0x3f800000	1.0
4	0x3f800000	1.0
5	0x3f800000	1.0
6	0x3f800000	1.0
7	0x3f800000	1.0
8	0x3f800000	1.0
9	0x3f800000	1.0
10	0x3f800000	1.0
11	0x3f800000	1.0
12	0x3f800000	1.0
13	0x3f800000	1.0
14	0x3f800000	1.0
15	0x3f800000	1.0
16	0x3f800000	1.0
17	0x3f800000	1.0
18	0x3f800000	1.0
19	0x3f800000	1.0
20	0x3f800000	1.0
21	0x3f800000	1.0
22	0x3f800000	1.0
23	0x3f800000	1.0
24	0x3f800000	1.0
25	0x3f800000	1.0
26	0x3f800000	1.0
27	0x3f800000	1.0
28	0x3f800000	1.0
29	0x3f800000	1.0
30	0x3f800000	1.0
31	0x3f800000	1.0
32	0x3f800000	1.0
33	0x3f800000	1.0
34	0x3f800000	1.0
35	0x3f800000	1.0

norm.bias f4 [36]
0	0x00000000	0.0
1	0x00000000	0.0
2	0x00000000	0.0
3	0x00000000	0.0
4	0x00000000	0.0
5	0x00000000	0.0
6	0x00000000	0.0
7	0x00000000	0.0
8	0x00000000	0.0
9	0x00000000	0.0
10	0x00000000	0.0
11	0x00000000	0.0
12	0x00000000	0.0
13	0x00000000	0.0
14	0x00000000	0.0
15	0x00000000	0.0
16	0x00000000	0.0
17	0x00000000	0.0
18	0x00000000	0.0
19	0x00000000	0.0
20	0x00000000	0.0
21	0x00000000	0.0
22	0x00000000	0.0
23	0x00000000	0.0
24	0x00000000	0.0
25	0x00000000	0.0
26	0x00000000	0.0
27	0x00000000	0.0
28	0x00000000	0.0
29	0x00000000	0.0
30	0x00000000	0.0
31	0x00000000	0.0
32	0x00000000	0.0
33	0x00000000	0.0
34	0x00000000	0.0
35	0x00000000	0.0

norm1.weight f4 [9]
0	0x3f800000	1.0
1	0x3f800000	1.0
2	0x3f800000	1.0
3	0x3f800000	1.0
4	0x3f800000	1.0
5	0x3f800000	1.0
6	0x3f800000	1.0
7	0x3f800000	1.0
8	0x3f800000	1.0

norm1.bias f4 [9]
0	0x00000000	0.0
1	0x00000000	0.0
2	0x00000000	0.0
3	0x00000000	0.0
4	0x00000000	0.0
5	0x00000000	0.0
6	0x00000000	0.0
7	0x00000000	0.0
8	0x00000000	0.0

norm2.weight f4 [9]
0	0x3f800000	1.0
1	0x3f800000	1.0
2	0x3f800000	1.0
3	0x3f800000	1.0
4	0x3f800000	1.0
5	0x3f800000	1.0
6	0x3f800000	1.0
7	0x3f800000	1.0
8	0x3f800000	1.0

norm2.bias f4 [9]
0	0x00000000	0.0
1	0x00000000	0.0
2	0x00000000	0.0
3	0x00000000	0.0
4	0x00000000	0.0
5	0x00000000	0.0
6	0x00000000	0.0
7	0x00000000	0.0
8	0x00000000	0.0

m.running_mean f4 [12]
0	0x3f564f4d	0.83714753
1	0x3f5ce1f9	0.86282307
2	0x3f589db7	0.84615654
3	0x3f5064b8	0.81403685
4	0x3f4c82fc	0.79887366
5	0x3f5099fe	0.81484973
6	0x3f58698e	0.84536064
7	0x3f5a7642	0.853367
8	0x3f544043	0.82910556
9	0x3f47e0b8	0.7807727
10	0x3f3f8850	0.7481737
11	0x3f40f8f7	0.7537989

m.running_var f4 [12]
0	0x44d805e1	1728.1837
1	0x44d75165	1722.5436
2	0x44d6a9ee	1717.3103
3	0x44d667e9	1715.2472
4	0x44d67ceb	1715.9037
5	0x44d6ad67	1717.4188
6	0x44d68c51	1716.3849
7	0x44d62eb6	1713.4597
8	0x44d5a1cb	1709.056
9	0x44d58ef6	1708.4675
10	0x44d5fb98	1711.8623
11	0x44d68e12	1716.4397

linear_net.0.weight f4 [9, 18]
0	0x3e70c397	0.23512112
1	0x3d8e27c4	0.069411784
2	0x3d6fc17d	0.058534134
3	0x3e6669f7	0.2250136
4	0xbe00b9f0	-0.1257093
5	0x3e10cf57	0.14141594
6	0xbe0a85c2	-0.13527587
7	0x3d897498	0.067116916
8	0xbe6e30ef	-0.23260854
9	0xbcfa5c38	-0.030561551
10	0x3e5a8858	0.21341074
11	0x3e60c1d5	0.21948941
12	0xbd42911a	-0.04750166
13	0xbde93081	-0.113862045
14	0xbcccd673	-0.025004601
15	0x3e1dbcb2	0.15404013
16	0x3d73e20d	0.05954175
17	0xbda59f60	-0.08087039
18	0xbdd26723	-0.10273578
19	0x3e1dcd21	0.15410282
20	0xbe1f4a86	-0.15555772
21	0xbdc0cb42	-0.09413768
22	0xbd11a3cc	-0.0355566
23	0x3e61a4ee	0.22035572
24	0x3e39681e	0.18106124
25	0x3e36c3bb	0.17848103
26	0xbe23684c	-0.15957755
27	0x3da68442	0.08130695
28	0xbc84ba9a	-0.01620226
29	0x3defea03	0.11714556
30	0x3e1fa881	0.15591623
31	0xbe3cd99f	-0.18442391
32	0xbe430d93	-0.19048147
33	0x3cdd2d84	0.026999243
34	0xbe6e38f1	-0.23263909
35	0x3e2e10a6	0.16998538
36	0xbe2eb7bd	-0.17062278
37	0xbe0c42d8	-0.13697374
38	0x3a89fd2b	0.001052772
39	0x3e098ed1	0.13433386
40	0x3e52bb01	0.20579149
41	0x3d3242d8	0.04352078
42	0x3e4de478	0.20106685
43	0x3dcb3759	0.09922666
44	0x3e6cc7c0	0.23123074
45	0xbd6df3ec	-0.05809395
46	0xbd753e02	-0.05987359
47	0xbd955642	-0.07291843
48	0xbd23f645	-0.040029783
49	0xbe4c261a	-0.1993641
50	0x3d9045a9	0.070445366
51	0x3e2d20c7	0.16907035
52	0x3df8ce71	0.121487506
53	0xbe184a68	-0.14872134
54	0x3e5ac2b2	0.21363333
55	0xba1dc7d3	-0.0006018851
56	0xbbe97925	-0.0071250373
57	0xbe515dc8	-0.20445931
58	0xbdd335c6	-0.10312991
59	0x3d9bec8c	0.07613477
60	0x3cea2ec1	0.028586747
61	0xbe1a47cc	-0.15066451
62	0x3e5fe018	0.21862829
63	0x3dca2de7	0.098720364
64	0x3e054552	0.13014725
65	0xbe0c66b0	-0.13711047
66	0xbdc2e954	-0.0951716
67	0x3d96f4a3	0.073708795
68	0xbe627465	-0.22114713
69	0x3de20e01	0.11037827
70	0x3c472ee2	0.012157174
71	0x3e1a4371	0.1506479
72	0x3e3937dd	0.18087716
73	0x3d3ecf59	0.04658446
74	0x3dfbd068	0.1229561
75	0x3bb3a183	0.0054819
76	0x3e6b71f6	0.22992691
77	0xbcd64b1d	-0.026158864
78	0xbe14b593	-0.1452239
79	0xbd011968	-0.03151837
80	0xbe35dcf7	-0.17760073
81	0xbe0d56f1	-0.13802697
82	0x3d52d41b	0.05147181
83	0x3e3a766c	0.18209237
84	0x3e44a88f	0.19204925
85	0x3e35d093	0.17755346
86	0x3e4e2f17	0.20135151
87	0x3e578a87	0.21048938
88	0xbe112d0a	-0.14177337
89	0xbd9368a0	-0.0719769
90	0x3ddbb048	0.10726982
91	0xbdbd9ea1	-0.09258772
92	0xbd24b3dd	-0.040210593
93	0x3e4c228f	0.19935058
94	0xbca84200	-0.020539284
95	0xbd601aa3	-0.054712903
96	0x3dc67952	0.09691109
97	0x3e6c21b6	0.23059735
98	0xbdd00ba7	-0.101584725
99	0xbcfc8889	-0.030826824
100	0xbe56bafa	-0.20969763
101	0x3ce44bca	0.02786817
102	0x3cc7482a	0.024326403
103	0x3e2217bd	0.15829368
104	0xbe452ffc	-0.19256586
105	0xbe158703	-0.14602284
106	0x3e3bd5c2	0.18343261
107	0xbdd98d92	-0.106227055
108	0x3c7e52bd	0.015522656
109	0x3e4f9f2f	0.20275567
110	0x3e519c40	0.20469761
111	0xbc71dc64	-0.014762018
112	0xbe64261b	-0.22280161
113	0xbe460dee	-0.19341251
114	0xbe67bffd	-0.22631831
115	0xbc674a69	-0.014116862
116	0xbe3bb6cd	-0.18331452
117	0x3e43bd1f	0.19115113
118	0xbe518307	-0.20460139
119	0xbd8f5241	-0.069981106
120	0x3dced3fb	0.10099026
121	0xbdcba69d	-0.09943888
122	0x3e34b3a2	0.1764665
123	0x3d4e9a1d	0.050439943
124	0x3e67d425	0.2263952
125	0x3d09a393	0.033603262
126	0x3e136a86	0.14396104
127	0xbe54d227	-0.20783292
128	0xbdcd24c3	-0.10016777
129	0x3dd7e421	0.10541559
130	0xbdb783a1	-0.08960653
131	0x3d9f12aa	0.07767232
132	0xbe121253	-0.14264803
133	0x3d3f95c0	0.046773672
134	0x3cec22f9	0.02882527
135	0xbe051351	-0.1299565
136	0xbbbc546d	-0.005747369
137	0x3e3aba2e	0.18235084
138	0xbe324b1c	-0.17411464
139	0x3d1ff901	0.039055828
140	0x3e0330c0	0.12811565
141	0x3e5e58fe	0.21713635
142	0xbe5be53e	-0.21474168
143	0x3dda62de	0.10663389
144	0x3e6579b0	0.22409701
145	0x3e252c14	0.16130096
146	0xbe502dc5	-0.2032996
147	0xbd0c0b3a	-0.034190394
148	0xbcecab35	-0.028890232
149	0xbd0ac111	-0.03387553
150	0x3c8b367a	0.01699375
151	0x3c7b14b7	0.015324763
152	0x3dffb233	0.12485161
153	0xbe3d2502	-0.18471149
154	0xbe2a31e5	-0.16620596
155	0xbbe9df70	-0.0071372315
156	0xbe63645a	-0.2220625
157	0x3e6cace5	0.23112829
158	0x3e2c63b8	0.16834915
159	0xbdd573e7	-0.10422497
160	0x3e2bcab8	0.1677655
161	0xbdd87998	-0.10570067

linear_net.0.bias f4 [9]
0	0xbad3c83c	-0.0016157697
1	0xbe4e1464	-0.20124966
2	0x3c05f891	0.008176939
3	0x3da16d5e	0.07882188
4	0xbdc7fb57	-0.09764736
5	0x3e05fca5	0.13084657
6	0xbb17d8f6	-0.002317009
7	0x3e015582	0.12630275
8	0x3e6d934d	0.23200722

linear_net.2.weight f4 [1, 9]
0	0xbe6e26b0	-0.23256946
1	0xbe6eeeeb	-0.23333327
2	0x3e80bf2c	0.25145853
3	0xbd9283a0	-0.07154012
4	0xbe74d8b8	-0.23910797
5	0x3d356d6b	0.044293802
6	0xbe6ad593	-0.22933035
7	0x3ea6a582	0.32548147
8	0x3e2062bb	0.15662663

exp_avg f4 [108, 36]
0	0xba285201	-0.0006420911
1	0x39460898	0.00018885953
2	0xbace92c0	-0.0015760288
3	0xb97fcb9b	-0.00024394544
4	0x3835e65e	4.336831e-05
5	0x39442bc6	0.00018708323
6	0x39068773	0.00012829695
7	0x391afb08	0.00014780101
8	0x38903293	6.875875e-05
9	0x3a223bc7	0.0006188717
10	0xba02246f	-0.00049645355
11	0xba0bca6d	-0.0005332593
12	0x383a333b	4.4393568e-05
13	0xb7924664	-1.7437334e-05
14	0x3a381916	0.0007022781
15	0xb9ba0942	-0.00035483582
16	0x3a216cd4	0.0006157879
17	0x392a4027	0.00016236362
18	0x361f529e	2.3740936e-06
19	0x374c6132	1.2181978e-05
20	0xb70f3612	-8.536053e-06
21	0x380567ee	3.1806463e-05
22	0xb867c0c9	-5.5254237e-05
23	0xb83eaee4	-4.546241e-05
24	0xb7cbabc3	-2.4279469e-05
25	0xb89d4e79	-7.50096e-05
26	0xb7161ad8	-8.946947e-06
27	0xb8a656be	-7.931654e-05
28	0xb65879cf	-3.225741e-06
29	0xb8a78605	-7.9881436e-05
30	0xb59ba8d8	-1.159754e-06
31	0xb8a7ad44	-7.995454e-05
32	0xb4dfc6ce	-4.1681636e-07
33	0xb8a7b258	-7.9964e-05
34	0xb420d7e5	-1.4979703e-07
35	0xb8a7b2fd	-7.99652e-05
36	0xb9dcf124	-0.00042141334
37	0x3904cffc	0.00012665981
38	0xba836ad1	-0.0010026341
39	0xb91aef9d	-0.00014775847
40	0x37ec6b19	2.8183264e-05
41	0x38fa2a05	0.00011928756
42	0x38b3f98f	8.581869e-05
43	0x38d60819	0.000102058235
44	0x384d939a	4.9013273e-05
45	0x39d2a968	0.0004018054
46	0xb9a9d9a0	-0.00032396335
47	0xb9b9167f	-0.0003530271
48	0x37f01eb6	2.862453e-05
49	0xb73ba3bb	-1.118419e-05
50	0x39f06d59	0.00045857838
51	0xb9647606	-0.00021787742
52	0x39c9dcfa	0.00038502348
53	0x38ec5601	0.000112693764
54	0xb5949815	-1.1071121e-06
55	0x369fe562	4.765273e-06
56	0xb711ed0f	-8.697868e-06
57	0x379fabef	1.903434e-05
58	0xb811354b	-3.4620327e-05
59	0xb7ffeacf	-3.050771e-05
60	0xb77ca771	-1.5059356e-05
61	0xb84b05e6	-4.8404465e-05
62	0xb6b9fc50	-5.5428027e-06
63	0xb855ea96	-5.1001633e-05
64	0xb6061737	-1.9981069e-06
65	0xb8575824	-5.1342082e-05
66	0xb540d5d6	-7.1836746e-07
67	0xb8578773	-5.138614e-05
68	0xb48a9c24	-2.581811e-07
69	0xb8578d8f	-5.139183e-05
70	0xb3c741ad	-9.278606e-08
71	0xb8578e57	-5.139256e-05
72	0x3a04bdd5	0.00050636876
73	0xb8e4336e	-0.00010881467
74	0x3ad02e66	0.0015882968
75	0x39a51637	0.00031487804
76	0xb82302e7	-3.886493e-05
77	0xb946f358	-0.00018973404
78	0xb8a294d5	-7.752484e-05
79	0xb8053c0f	-3.1765605e-05
80	0xb78a05da	-1.6453607e-05
81	0xba03ba9d	-0.0005025061
82	0x39c91275	0.0003835146
83	0x39c22688	0.00037031271
84	0xb83508a3	-4.3161806e-05
85	0x3788fcd3	1.6330194e-05
86	0xba1517bb	-0.0005687435
87	0x39ec0fc4	0.00045025174
88	0xba357832	-0.00069225125
89	0xb88dee55	-6.767797e-05
90	0x35ff5960	1.9024992e-06
91	0xb6f3a6cb	-7.2613816e-06
92	0x36b6dbe0	5.4496195e-06
93	0xb8116a34	-3.4669603e-05
94	0x385ced4b	5.2673084e-05
95	0x382a18bf	4.0554205e-05
96	0x37c28b5c	2.3191496e-05
97	0x3890eddc	6.91076e-05
98	0x370f6829	8.547716e-06
99	0x3899a600	7.3265284e-05
100	0x364ed241	3.0818776e-06
101	0x389acab9	7.381052e-05
102	0x3594b7c4	1.1080342e-06
103	0x389af099	7.388107e-05
104	0x34d5cc17	3.9822837e-07
105	0x389af580	7.38902e-05
106	0x3419aba8	1.4311684e-07
107	0x389af621	7.389137e-05
108	0xb89a9c01	-7.37235e-05
109	0x378f60f4	1.7092076e-05
110	0xb966d620	-0.00022014277
111	0xb83b1db3	-4.4611934e-05
112	0x3667d288	3.4544228e-06
113	0x37a653c8	1.9827756e-05
114	0x37315981	1.0570861e-05
115	0x373e8b54	1.1357322e-05
116	0x365bba46	3.2741968e-06
117	0x38a111d3	7.680398e-05
118	0xb87931d9	-5.941265e-05
119	0xb8736c64	-5.803666e-05
120	0x36958360	4.45584e-06
121	0xb5f130b0	-1.7970069e-06
122	0x38b09ada	8.421177e-05
123	0xb87969d4	-5.9464786e-05
124	0x38c70a41	9.4909694e-05
125	0x372863ca	1.0036814e-05
126	0x368db77a	4.223487e-06
127	0x372570c8	9.861025e-06
128	0x379e16c6	1.8845672e-05
129	0x37b6c701	2.178876e-05
130	0xb781b0e5	-1.5460371e-05
131	0x366178f4	3.3598017e-06
132	0xb7002938	-7.6389915e-06
133	0xb710b4c8	-8.62516e-06
134	0xb63f4cce	-2.8505924e-06
135	0xb72edf09	-1.0423138e-05
136	0xb58a2995	-1.0293903e-06
137	0xb732d75c	-1.0659769e-05
138	0xb4c6bc40	-3.7017344e-07
139	0xb7335af0	-1.0690404e-05
140	0xb40edae4	-1.3304413e-07
141	0xb7336bf5	-1.0694367e-05
142	0xb34d5c1c	-4.7814055e-08
143	0xb7336e24	-1.06948755e-05
144	0x3a2e2321	0.0006642808
145	0xb9358576	-0.00017311223
146	0x3ae9b74a	0.0017831114
147	0x399f9697	0.0003043904
148	0xb83ebba6	-4.547429e-05
149	0xb9596c89	-0.00020735165
150	0xb8f7e948	-0.0001182133
151	0xb8e049a3	-0.00010694868
152	0xb86bcd5e	-5.621963e-05
153	0xba26f72c	-0.0006369229
154	0x3a0379d1	0.00050154055
155	0x3a0991ab	0.00052478415
156	0xb84d2f2c	-4.891974e-05
157	0x379c1cb4	1.8610015e-05
158	0xba3f8d9f	-0.0007307175
159	0x39e938dd	0.0004448359
160	0xba3efd5e	-0.00072856795
161	0xb915057e	-0.00014211793
162	0xb5a0bc42	-1.1975719e-06
163	0xb7825818	-1.553823e-05
164	0xb69449a5	-4.419317e-06
165	0xb856c623	-5.1206105e-05
166	0x388d3b9c	6.734507e-05
167	0x383237ff	4.2490658e-05
168	0x37fcb945	3.0127014e-05
169	0x38a9e844	8.101811e-05
170	0x373aa16d	1.1124049e-05
171	0x38b5bd1b	8.665976e-05
172	0x36869c37	4.011697e-06
173	0x38b74a94	8.740011e-05
174	0x35c197af	1.4423766e-06
175	0x38b77e05	8.749593e-05
176	0x350b27b5	5.1839316e-07
177	0x38b784ad	8.750833e-05
178	0x34480a5e	1.8630223e-07
179	0x38b78587	8.7509914e-05
180	0xba0e7933	-0.000543493
181	0x38fb883b	0.000119939876
182	0xbadf991e	-0.0017059182
183	0xb9b3962a	-0.00034253421
184	0x382a4f18	4.060482e-05
185	0x3952208b	0.00020039284
186	0x38b145e8	8.453039e-05
187	0x383974dc	4.421627e-05
188	0x3782bd34	1.5585312e-05
189	0x3a1060f1	0.00055076095
190	0xb9dce0b6	-0.00042129093
191	0xb9d384b6	-0.00040343934
192	0x383d81a2	4.518184e-05
193	0xb7916ac8	-1.733507e-05
194	0x3a20fec1	0.0006141477
195	0xb9fc5699	-0.00048129706
196	0x3a4316f0	0.00074420776
197	0x3892ebed	7.005767e-05
198	0x3645ed8d	2.949356e-06
199	0x3765ed9b	1.37047855e-05
200	0x3706ba13	8.030346e-06
201	0x383a58df	4.4428623e-05
202	0xb87d7bc3	-6.0435163e-05
203	0xb821655a	-3.8479782e-05
204	0xb7e44d9c	-2.7215858e-05
205	0xb89ac0c4	-7.3791976e-05
206	0xb728b918	-1.0056676e-05
207	0xb8a59f90	-7.897534e-05
208	0xb673694a	-3.6271108e-06
209	0xb8a70cdc	-7.965576e-05
210	0xb5af0927	-1.304118e-06
211	0xb8a73c22	-7.974381e-05
212	0xb4fba221	-4.6870358e-07
213	0xb8a7423e	-7.975519e-05
214	0xb434ddb3	-1.684446e-07
215	0xb8a74307	-7.975665e-05
216	0xb9a02d23	-0.00030551208
217	0x388eb940	6.805593e-05
218	0xba7049d2	-0.00091662735
219	0xb92e3626	-0.00016614105
220	0x37eae67c	2.8002301e-05
221	0x39034e99	0.00012522413
222	0x385865cd	5.1593222e-05
223	0x375b060a	1.3054823e-05
224	0x37892728	1.6349906e-05
225	0x3994f2b3	0.00028409585
226	0xb9648da1	-0.00021796535
227	0xb9664904	-0.0002196171
228	0x37f58cb7	2.9271801e-05
229	0xb7324e60	-1.0627875e-05
230	0x39af603d	0.00033450304
231	0xb9854640	-0.00025420077
232	0x39cccab8	0.0003906095
233	0x38611e88	5.3672615e-05
234	0xb785c6ff	-1.59475e-05
235	0xb7b3f2a6	-2.1451455e-05
236	0xb866f193	-5.5061257e-05
237	0xb7be6111	-2.2694965e-05
238	0xb728425e	-1.0029033e-05
239	0xb846dd69	-4.7413083e-05
240	0xb6131b87	-2.192073e-06
241	0xb8358bce	-4.3283966e-05
242	0xb53fad92	-7.140562e-07
243	0xb8326b95	-4.25387e-05
244	0xb487e7f1	-2.531447e-07
245	0xb832002d	-4.243867e-05
246	0xb3c30580	-9.0813955e-08
247	0xb831f23c	-4.2425687e-05
248	0xb30c2444	-3.2629274e-08
249	0xb831f06b	-4.2423995e-05
250	0xb2497382	-1.1726003e-08
251	0xb831f032	-4.2423788e-05
252	0xb73028f8	-1.0499956e-05
253	0x376e23b0	1.4194215e-05
254	0xb82ccfd1	-4.120154e-05
255	0xb7bdd0f2	-2.2627853e-05

exp_avg_sq f4 [108, 36]
0	0x38e711dd	0.00011018266
1	0x376ef2df	1.4242453e-05
2	0x39a7142d	0.00031867754
3	0x374d93d5	1.2253372e-05
4	0x34d24eb1	3.9172804e-07
5	0x349bae48	2.8997806e-07
6	0x36b65816	5.434277e-06
7	0x3801602b	3.084556e-05
8	0x3710518e	8.602057e-06
9	0x389e8f24	7.560689e-05
10	0x386925df	5.55868e-05
11	0x38cb2c3d	9.688034e-05
12	0x3508291e	5.072378e-07
13	0x348a7917	2.5792608e-07
14	0x38f31a14	0.000115920004
15	0x37c54a45	2.3518814e-05
16	0x384433b5	4.6778197e-05
17	0x37ce3435	2.4581424e-05
18	0x3279b627	1.4535124e-08
19	0x3281ba79	1.5102374e-08
20	0x34488e43	1.8678206e-07
21	0x3405146e	1.2394023e-07
22	0x34c4629c	3.6579593e-07
23	0x351632b1	5.595312e-07
24	0x338c86ed	6.543801e-08
25	0x3585cccb	9.968875e-07
26	0x3217575a	8.809218e-09
27	0x358ff341	1.0725126e-06
28	0x309d3583	1.1438462e-09
29	0x35914fc1	1.0826553e-06
30	0x2f228c01	1.4783554e-10
31	0x35917d07	1.083973e-06
32	0x2da7f6f9	1.909538e-11
33	0x359182d9	1.0841424e-06
34	0x2c2d8cd0	2.4662945e-12
35	0x3591839b	1.0841644e-06
36	0x385643fe	5.10849e-05
37	0x36f47850	7.285773e-06
38	0x390da848	0.00013509498
39	0x36b352fb	5.344276e-06
40	0x342339b7	1.5201555e-07
41	0x3400694b	1.1959234e-07
42	0x363ccf8d	2.8134993e-06
43	0x37860b98	1.5979444e-05
44	0x3685360d	3.970001e-06
45	0x3819c3e7	3.666049e-05
46	0x37e58b5b	2.736382e-05
47	0x384522b6	4.7000787e-05
48	0x3455940a	1.9891027e-07
49	0x33fc9e16	1.176342e-07
50	0x3861d678	5.384392e-05
51	0x372c559a	1.027193e-05
52	0x37a234b6	1.933645e-05
53	0x3745aebb	1.1782798e-05
54	0x3209724f	8.00044e-09
55	0x32197378	8.932027e-09
56	0x33afa9c2	8.179951e-08
57	0x338452c9	6.1617875e-08
58	0x34298794	1.5788675e-07
59	0x34885a90	2.5397867e-07
60	0x32f2c829	2.826353e-08
61	0x34ee3a1e	4.437324e-07
62	0x3182beb3	3.805178e-09
63	0x34ffd66d	4.7653467e-07
64	0x3007d0eb	4.9409604e-10
65	0x35011989	4.8093403e-07
66	0x2e8c6d8a	6.385921e-11
67	0x350140b3	4.8150395e-07
68	0x2d111bbb	8.248453e-12
69	0x350145c8	4.815779e-07
70	0x2b95eefa	1.0653416e-12
71	0x3501466d	4.815873e-07
72	0x384c3692	4.8688213e-05
73	0x36d9d9c4	6.492455e-06
74	0x39c07ce5	0.00036714147
75	0x382733ef	3.986427e-05
76	0x3516ea56	5.622036e-07
77	0x346cea79	2.2064513e-07
78	0x362d8996	2.5859094e-06
79	0x3781e889	1.5486281e-05
80	0x3716eef5	8.996333e-06
81	0x386d911c	5.6640347e-05
82	0x38150cca	3.553628e-05
83	0x382fd595	4.1922165e-05
84	0x3535907a	6.7637995e-07
85	0x3530cae2	6.586034e-07
86	0x386d456b	5.6569854e-05
87	0x383d9392	4.5198547e-05
88	0x38c44666	9.359121e-05
89	0x37947160	1.769577e-05
90	0x32a9ff04	1.9790157e-08
91	0x32cc4b5b	2.3782993e-08
92	0x347ba3ba	2.343576e-07
93	0x34118bb0	1.3554995e-07
94	0x34a9cc9b	3.1627573e-07
95	0x35210cb0	5.9995637e-07
96	0x3370ed10	5.609496e-08
97	0x3582eefe	9.755311e-07
98	0x3201a09e	7.545308e-09
99	0x358b954f	1.0399762e-06
100	0x3086a3de	9.796357e-10
101	0x358cbe3c	1.0486178e-06
102	0x2f0b35aa	1.2661042e-10
103	0x358ce4b9	1.049738e-06
104	0x2d8fd97a	1.6353797e-11
105	0x358ce9a9	1.0498817e-06
106	0x2c14a1f0	2.1121958e-12
107	0x358cea41	1.049899e-06
108	0x383515ef	4.317419e-05
109	0x36a5a248	4.936275e-06
110	0x3986eb8c	0.00025733968
111	0x37ddd212	2.6443075e-05
112	0x34ae5690	3.2473008e-07
113	0x3416b268	1.4034742e-07
114	0x36017f23	1.9296501e-06
115	0x373d74b8	1.1292454e-05
116	0x36e7c69a	6.9074567e-06
117	0x3832b9fc	4.261172e-05
118	0x37e49154	2.7247392e-05
119	0x38121850	3.4831755e-05
120	0x34efc29c	4.4658816e-07
121	0x3523a872	6.096735e-07
122	0x384713e0	4.7463807e-05
123	0x37f12068	2.874453e-05
124	0x38805408	6.119168e-05
125	0x37701668	1.4310332e-05
126	0x3272fba9	1.4143475e-08
127	0x328e2225	1.6546503e-08
128	0x343e0b4e	1.7699242e-07
129	0x33cbde89	9.493403e-08
130	0x346fbe9d	2.2327954e-07
131	0x34e77d07	4.3118072e-07
132	0x33295034	3.9421323e-08
133	0x353a7acd	6.94691e-07
134	0x31b618d0	5.299718e-09
135	0x354694ac	7.3977094e-07
136	0x303d2025	6.880348e-10
137	0x35483390	7.458084e-07
138	0x2ec38aeb	8.89225e-11
139	0x35486982	7.465934e-07
140	0x2d4a0f4c	1.1485767e-11
141	0x35487063	7.466935e-07
142	0x2bd0c75d	1.4834623e-12
143	0x3548714e	7.4670686e-07
144	0x38c1b9ab	9.2375405e-05
145	0x3746ddc8	1.1853357e-05
146	0x3a413740	0.00073705986
147	0x38adb119	8.28227e-05
148	0x359ecc91	1.1831454e-06
149	0x351347d7	5.486631e-07
150	0x369e02d9	4.7090984e-06
151	0x38018e53	3.0888546e-05
152	0x3792c900	1.7498154e-05
153	0x3908c4b8	0.00013043254
154	0x38a9d766	8.098669e-05
155	0x38ac4859	8.215075e-05
156	0x35cd9203	1.5316185e-06
157	0x35dfda7e	1.6678384e-06
158	0x38ece0c4	0.00011295223
159	0x38af67f8	8.364016e-05
160	0x3942bb82	0.00018571134
161	0x380bbdd2	3.3316966e-05
162	0x333a9764	4.344419e-08
163	0x334cc0ee	4.767292e-08
164	0x3510ddda	5.3967017e-07
165	0x34964480	2.7989518e-07
166	0x35287e84	6.276898e-07
167	0x35a99a00	1.2636301e-06
168	0x33ed1e92	1.1041733e-07
169	0x36061f30	1.998571e-06
170	0x327eec78	1.4838513e-08
171	0x360e89ed	2.1239932e-06
172	0x3104601c	1.926316e-09
173	0x360faa71	2.140787e-06
174	0x2f88ddbf	2.4895816e-10
175	0x360fcfe8	2.1429678e-06
176	0x2e0d6d72	3.2156895e-11
177	0x360fd4ba	2.1432484e-06
178	0x2c922158	4.1532715e-12
179	0x360fd55b	2.143285e-06
180	0x38bfdc32	9.148604e-05
181	0x375584f5	1.2726746e-05
182	0x3a335292	0.0006840612
183	0x38a789db	7.988858e-05
184	0x3594e9bd	1.1094886e-06
185	0x34f789a3	4.610748e-07
186	0x36ab34ab	5.1023285e-06
187	0x37feb49a	3.0363259e-05
188	0x37944600	1.7675571e-05
189	0x38fc3426	0.0001202601
190	0x389e68e8	7.5535674e-05
191	0x38adf1f4	8.29435e-05
192	0x35b8e383	1.3775283e-06
193	0x35ca795a	1.5085491e-06
194	0x38e3e5b2	0.000108669876
195	0x38ac251a	8.20851e-05
196	0x3938ad9f	0.00017612286
197	0x3812ae13	3.497123e-05
198	0x333a8e4f	4.343593e-08
199	0x335d91b9	5.1588106e-08
200	0x35057ea4	4.973065e-07
201	0x349aaee1	2.8811976e-07
202	0x351d2291	5.853736e-07
203	0x35a160f2	1.202365e-06
204	0x33dd538b	1.0306311e-07
205	0x35fd77c5	1.8884826e-06
206	0x326df7b4	1.3851537e-08
207	0x360698bf	2.0056466e-06
208	0x30f724b7	1.798205e-09
209	0x3607a652	2.0213379e-06
210	0x2f7f873e	2.3240163e-10
211	0x3607c95a	2.023377e-06
212	0x2e0405b9	3.0018408e-11
213	0x3607cddf	2.02364e-06
214	0x2c886975	3.8770606e-12
215	0x3607ce7a	2.0236753e-06
216	0x397bafd6	0.0002400273
217	0x37b2c422	2.1310585e-05
218	0x3aaa43ec	0.0012990213
219	0x38ba1c0e	8.874397e-05
220	0x35aadf82	1.2731036e-06
221	0x351f7f97	5.9417783e-07
222	0x3709a952	8.205259e-06
223	0x383ba780	4.474027e-05
224	0x37de074b	2.6467858e-05
225	0x3918444c	0.00014521292
226	0x38c58142	9.417768e-05
227	0x392aef9f	0.00016301729
228	0x35f32924	1.8116884e-06
229	0x360af219	2.0704522e-06
230	0x3980afc3	0.00024545015
231	0x390e6e2b	0.00013583216
232	0x398e8634	0.0002718434
233	0x38825ded	6.216378e-05
234	0x33427336	4.527393e-08
235	0x33650714	5.3324655e-08
236	0x353997b1	6.913861e-07
237	0x34c8ec87	3.7425e-07
238	0x359c4ed7	1.1645851e-06
239	0x360437f5	1.9702104e-06
240	0x345f3052	2.0786072e-07
241	0x366379cd	3.3896533e-06
242	0x32f0515c	2.7976675e-08
243	0x3673db0c	3.6337324e-06
244	0x3179a13e	3.6325924e-09
245	0x36760d08	3.6664442e-06
246	0x30010d75	4.694905e-10
247	0x36765604	3.6706924e-06
248	0x2e855aa8	6.0642436e-11
249	0x36765f67	3.6712388e-06
250	0x2d09c9cf	7.832359e-12
251	0x3676608c	3.6713054e-06
252	0x3893e75f	7.0526025e-05
253	0x37389e27	1.1004077e-05
254	0x390ad42f	0.0001323975
255	0x36bd3f08	5.6399767e-06

exp_avg f4 [108]
0	0xb8a7b316	-7.996538e-05
1	0xb8578e79	-5.1392683e-05
2	0x389af63a	7.3891555e-05
3	0xb7336e78	-1.0694952e-05
4	0x38b785a9	8.751016e-05
5	0xb8a74326	-7.975688e-05
6	0xb831f026	-4.2423744e-05
7	0xb63845c1	-2.7458739e-06
8	0x388dd8d5	6.763792e-05
9	0x38dc1151	0.00010493643
10	0xb7c32275	-2.3261857e-05
11	0xb8850393	-6.3426e-05
12	0xb7910c21	-1.7290995e-05
13	0x38dfea41	0.00010677102
14	0xb72c851c	-1.0282991e-05
15	0x38309e05	4.2108837e-05
16	0xb7b10fcd	-2.1107402e-05
17	0x389b1c57	7.396255e-05
18	0xb8ec2e38	-0.00011261966
19	0x3612047d	2.1758308e-06
20	0xb6bfdf90	-5.7182697e-06
21	0xb79a9450	-1.8427294e-05
22	0xb861c7d4	-5.3830285e-05
23	0xb88504f3	-6.342856e-05
24	0xb83c62b9	-4.4914636e-05
25	0xb7b587d6	-2.1640135e-05
26	0x380e085d	3.3863227e-05
27	0x3820d610	3.8346334e-05
28	0x38983697	7.258093e-05
29	0xb72bf7dd	-1.0250104e-05
30	0xb8a88b08	-8.036761e-05
31	0xb85b5d0a	-5.230032e-05
32	0xb80aa1d5	-3.305248e-05
33	0xb89f720a	-7.602952e-05
34	0xb9030c92	-0.00012497816
35	0x38dd44da	0.00010550926
36	0xb34b7925	-4.73748e-08
37	0xb374e6ea	-5.7020692e-08
38	0xb2f4c40d	-2.8494492e-08
39	0x31a5e66e	4.828329e-09
40	0xb2c96d46	-2.3449171e-08
41	0x32ef4749	2.7855679e-08
42	0x3152ad24	3.065744e-09
43	0xb355fe9e	-4.98245e-08
44	0xb34e6928	-4.805875e-08
45	0x3311fcab	3.3990244e-08
46	0xb3c58c02	-9.1989946e-08
47	0xb30da0bb	-3.2975304e-08
48	0x32931986	1.7124659e-08
49	0x32f5ca17	2.8613654e-08
50	0x33a4064a	7.637989e-08
51	0xb32a11b4	-3.959731e-08
52	0x32ce5b83	2.4023171e-08
53	0xb242d437	-1.1340538e-08
54	0xb2cbca37	-2.3724267e-08
55	0xb3a4a268	-7.6663866e-08
56	0x333b0f5f	4.355331e-08
57	0xb32d87df	-4.0403275e-08
58	0x331670cf	3.5027195e-08
59	0xb327129e	-3.889965e-08
60	0xb3538110	-4.9244647e-08
61	0xb38af91f	-6.4714406e-08
62	0x32f31fb3	2.8303338e-08
63	0xb372fac9	-5.6573104e-08
64	0x33983655	7.0879345e-08
65	0xb1846f10	-3.854332e-09
66	0x32c14f48	2.250421e-08
67	0xb3dce3b8	-1.028597e-07
68	0xb345a01a	-4.601325e-08
69	0xb2f3fb85	-2.8403301e-08
70	0xb3168f06	-3.5054676e-08
71	0xb353fbcb	-4.935627e-08
72	0xba657603	-0.0008753242
73	0xba893994	-0.001046943
74	0xbb1a4644	-0.0023540417
75	0xbbc0e3e6	-0.0058865426
76	0x3b5ea760	0.0033974275
77	0xba5caf77	-0.000841848
78	0x3b870349	0.0041202647
79	0xbba9c606	-0.005181077
80	0xbbbb23dc	-0.005711062
81	0x3a4d4b36	0.00078313367
82	0xbab615bf	-0.0013891979
83	0xbbe85220	-0.007089868
84	0x39781c3c	0.00023661641
85	0x3c1f2e80	0.009715676
86	0xba4526e5	-0.00075207494
87	0x3b84a40d	0.0040478767
88	0xbcf030e8	-0.029320195
89	0xbaf6cb2c	-0.001882886
90	0x3be0a7a4	0.006855922
91	0x3be7b40a	0.007071023
92	0x3a970f1e	0.0011524891
93	0x3ba6236a	0.0050701397
94	0x39ef6b00	0.00045665354
95	0x3a3ece69	0.00072786823
96	0x3cca0e1e	0.024664935
97	0xbbdc2219	-0.006717932
98	0x39312156	0.00016892454
99	0x3a60df51	0.00085781986
100	0x3ce606a7	0.028079344
101	0xbc1cc923	-0.009569439
102	0xba56806a	-0.00081825873
103	0x3a820ea6	0.0009922578
104	0x3c0e687b	0.008691902
105	0x3c160a1e	0.009157686
106	0xbd1709aa	-0.03687445
107	0xbbd90355	-0.0066227117

exp_avg_sq f4 [108]
0	0x359183b1	1.0841669e-06
1	0x3501468a	4.815889e-07
2	0x358cea5c	1.049902e-06
3	0x35487174	7.46709e-07
4	0x360fd579	2.1432918e-06
5	0x3607ce92	2.0236807e-06
6	0x367660bf	3.671317e-06
7	0x350e2ec2	5.2967164e-07
8	0x35a9aafa	1.2641242e-06
9	0x35a6aea8	1.2418795e-06
10	0x34ae409d	3.2457038e-07
11	0x35ccc960	1.5257792e-06
12	0x35b29098	1.3304116e-06
13	0x36068f1f	2.0050863e-06
14	0x34f255b1	4.513836e-07
15	0x35484ba3	7.461587e-07
16	0x348c9b67	2.6190102e-07
17	0x359e6f30	1.1804277e-06
18	0x36276454	2.4943338e-06
19	0x35071d15	5.033374e-07
20	0x352d7c01	6.462797e-07
21	0x353399ff	6.690679e-07
22	0x35940db0	1.1030843e-06
23	0x35a3b712	1.2197727e-06
24	0x34e3f7e6	4.2462415e-07
25	0x35535766	7.8730807e-07
26	0x34d4cea5	3.963843e-07
27	0x350b2ae1	5.184393e-07
28	0x3594dbaf	1.1090796e-06
29	0x362fe221	2.6208656e-06
30	0x36017b76	1.9294362e-06
31	0x3538113c	6.857042e-07
32	0x357cd82b	9.419188e-07
33	0x352286e7	6.054601e-07
34	0x36059189	1.9903257e-06
35	0x35bf4a04	1.425215e-06
36	0x27f05a0e	6.671102e-15
37	0x281cfd95	8.7147264e-15
38	0x271dd8d1	2.1905663e-15
39	0x2633ab5c	6.2335336e-16
40	0x271c5888	2.1697342e-15
41	0x27071df7	1.8751258e-15
42	0x27016d93	1.7961747e-15
43	0x27e6a84a	6.4020283e-15
44	0x279b6869	4.3134344e-15
45	0x279e79ec	4.3985997e-15
46	0x28b9aba8	2.061357e-14
47	0x27840e06	3.6652564e-15
48	0x2684f331	9.225257e-16
49	0x278afa5c	3.8574135e-15
50	0x286a3eb8	1.3003209e-14
51	0x2756054c	2.9701337e-15
52	0x26dbff2d	1.5265343e-15
53	0x274e97d8	2.8670558e-15
54	0x2769a1b4	3.2422905e-15
55	0x282f6221	9.73573e-15
56	0x27ee9b43	6.6226605e-15
57	0x27b8bae6	5.1272895e-15
58	0x27b88fc3	5.1226126e-15
59	0x27b23ce9	4.9470964e-15
60	0x27db8635	6.093022e-15
61	0x28601827	1.2439735e-14
62	0x2776d0d8	3.4252572e-15
63	0x27eee419	6.6305574e-15
64	0x2869fa5d	1.2988387e-14
65	0x26877c26	9.401157e-16
66	0x27796023	3.4607807e-15
67	0x28d83742	2.4004782e-14
68	0x27a21735	4.4989194e-15
69	0x276cac09	3.284484e-15
70	0x279dae24	4.3765057e-15
71	0x280359c7	7.291428e-15
72	0x36932a6d	4.3858804e-06
73	0x369dd28c	4.7034755e-06
74	0x396b8faf	0.00022464873
75	0x3a0034ab	0.00048906606
76	0x38d5549b	0.000101723905
77	0x36e4a5e7	6.814243e-06
78	0x39b05583	0.00033633047
79	0x39c11c5b	0.00036832955
80	0x393deef8	0.00018113467
81	0x362f094e	2.6082448e-06
82	0x3a283742	0.00064169255
83	0x3a37cc37	0.00070113264
84	0x36b0d147	5.269572e-06
85	0x3a349cf8	0.0006889845
86	0x36e4103b	6.796819e-06
87	0x3a072f08	0.00051568495
88	0x3b96882b	0.004593869
89	0x3683cb29	3.927755e-06
90	0x39dcb1d5	0.00042094165
91	0x3a4cbfde	0.0007810573
92	0x363e0e21	2.832043e-06
93	0x399d0195	0.00029946552
94	0x36707301	3.5829728e-06
95	0x36d2063e	6.2592144e-06
96	0x3b6b68f6	0.0035920716
97	0x3a02dfdc	0.0004992464
98	0x362575eb	2.4655553e-06
99	0x3679d8a4	3.7229993e-06
100	0x3b9c0b97	0.004762124
101	0x3a278091	0.00063897023
102	0x37110888	8.64466e-06
103	0x370e82aa	8.494282e-06
104	0x3a3212d9	0.00067929697
105	0x3a573693	0.00082097313
106	0x3be80ecb	0.0070818416
107	0x39add280	0.00033153966
