SensorFormer/SensorFormer/result/ensemble/LCS0_11.pt (torch, 81661 bytes, 35 tensors)

self_attn.qkv_proj.weight f4 [108, 36]
000000 b0 1c 6e be 59 b9 0b 3e d6 1d 4a 3e 9d 0b 28 3e
       -0.23253131 0.13644923 0.19737944 0.1641068
000010 84 77 31 be bc cf 25 3e 5b a2 ee bd 4c 19 ac 3d
       -0.17330748 0.16192526 -0.116520606 0.084032625
000020 ad ba 92 3c dc 24 e7 bd ec 11 0a be cd cb f9 bd
       0.01791128 -0.11286327 -0.13483399 -0.12197075
000030 72 9d a9 bd e7 dc b1 bc 1b 79 79 3e 70 45 cb 3d
       -0.082819834 -0.02171178 0.24362604 0.099253535
000040 e1 1f 18 3d 57 4e 80 3e 4a 4f 2b 3d c7 eb 4f bd
       0.037139777 0.2505977 0.041823663 -0.050761964
000050 1b 2a 24 be 5b d0 9e bd da c3 dd bd d0 9c 97 bd
       -0.16031687 -0.077545844 -0.10828371 -0.074029565
000060 c0 9a 45 be 35 07 fc bd 53 25 54 bd 47 04 1e bd
       -0.19297314 -0.12306062 -0.051793408 -0.038578298
000070 0b cf 8a bd 27 ef 16 3a 7c e4 f8 bd f1 56 29 be
       -0.067777716 0.00057576824 -0.12152955 -0.16537072
000080 d3 0b 20 be 91 0e 09 3e d9 2f b5 3d ae bd 4f be
       -0.1562951 0.13384463 0.08847017 -0.20287201
000090 ce b1 65 be ee dd 89 3c 81 6c 9f bc ea ec 1e 3e
       -0.22431108 0.016829457 -0.019460918 0.15520063
0000a0 e1 e3 fb bd 3c e0 35 3d c7 cf 30 bc 46 e9 1b be
       -0.12299324 0.0444033 -0.0107917255 -0.15225706
0000b0 4b a1 7d 3c b6 c1 0f 3e 52 42 2c 3e 2a ac 84 be
       0.01548035 0.14038739 0.16822174 -0.259126
0000c0 af 73 73 3d 06 51 4b 3e b4 93 ec 3d a1 ac 24 3e
       0.059436496 0.19855127 0.1155161 0.16081478
0000d0 83 00 83 3d d3 7a 8e 3d 6f 8e b9 bd 02 94 13 3e
       0.06396582 0.069570206 -0.0906037 0.14411929
0000e0 d3 e3 95 3d 8f 41 03 be 9c 87 e5 3d ad 08 f7 3d
       0.07318845 -0.12817977 0.11207506 0.12062202
0000f0 18 aa f7 3d a9 5d f8 bd 8d 8b ca bd 4d 8e b0 3d
       0.1209299 -0.12127239 -0.098898984 0.08620892
000100 97 a6 e1 3d 4c 9f 3e be 7c 5a 01 3e c9 fc 73 3d
       0.110181026 -0.18615454 0.12632173 0.059567247
000110 a0 09 da 3c d9 b4 b2 bd 2a 39 5e bd eb 75 a4 3d
       0.026615918 -0.087259 -0.054253735 0.080303036
000120 ad 79 83 bd 10 46 12 3e de c0 37 be 2d d9 20 3d
       -0.06419692 0.14284539 -0.17944667 0.039269615
000130 38 28 03 be 86 2d 3d 3d 63 03 00 3e a1 95 ce bb
       -0.12808311 0.046185993 0.12501292 -0.0063044582
000140 a2 90 99 bb 55 99 14 be 2e 8e 3b 3e 7b e7 88 bc
       -0.004686431 -0.14511617 0.18315956 -0.016711941
000150 19 47 e4 3c 11 dd 10 3d 2d 4b d7 3d 51 65 d8 3d
       0.027865933 0.035367075 0.105123855 0.105661996
000160 ab ac 51 3d d4 8c 6f bd 9d 5a 98 3b f7 25 1b 3e
       0.05119006 -0.058483914 0.004649474 0.15151201
000170 4d 21 16 be 0d 5e 7c 3e 73 52 59 be 5d 90 5f bd
       -0.1466114 0.24645253 -0.21222858 -0.054581035
000180 d5 ac 3a be db 24 0c be 70 30 f0 bd 36 26 ac 3d
       -0.18229993 -0.13685934 -0.11727989 0.08405726
000190 5d 46 16 be 94 61 10 be 79 a7 0c 3b 42 b1 30 be
       -0.14675279 -0.14099723 0.0021462126 -0.17255118
0001a0 a9 64 cf bd 57 45 ac bd ac a1 be bd cb dc af 3c
       -0.10126621 -0.08411663 -0.0930818 0.021467587
0001b0 99 a4 6d bc 20 a9 03 be 36 e4 23 3e 73 de 12 3e
       -0.014504575 -0.12857485 0.16005024 0.1434267
0001c0 b7 f7 e6 bd 44 79 a9 3d 6a eb c8 bd 92 09 35 bd
       -0.112777166 0.08275083 -0.09810527 -0.04419858
0001d0 22 e4 79 bd ef a2 89 bc 26 77 85 3e 93 5e 98 bd
       -0.06100858 -0.016801326 0.26067466 -0.074399136
0001e0 fb d2 4a be c3 42 1d 3e 17 b7 c9 bd 5c fa 34 3e
       -0.19807045 0.15357499 -0.09849375 0.1767363
0001f0 d8 eb 2d bc cf 20 7b 3c 2e 4e 4b bd 6b 39 57 be
       -0.010615312 0.015327646 -0.049635105 -0.21017997
000200 5f 1c 0c 3e c5 16 d2 bd c9 c2 b2 bc e6 85 09 be
       0.13682698 -0.10258249 -0.021821396 -0.13429984
000210 a4 7f d2 3d 6f e1 5d 3d e0 18 ef 3d 73 d2 fa bd
       0.10278252 0.05417007 0.116746664 -0.12247171
000220 49 d5 98 3c 48 98 48 be 90 6e 87 3d 7f 97 ca bd
       0.01865639 -0.1958934 0.06612885 -0.09892177
000230 3b 4e 8b 3c 48 bc 5a 3d 2d 0e 27 be 72 6a 8a 3d
       0.017005077 0.053402215 -0.16314001 0.06758584
000240 87 fb 3f be a6 cb b8 3d 51 6f 51 3d 54 a8 0c 3e
       -0.18748294 0.09023218 0.05113155 0.13736087
000250 8d d2 a9 bd 1b bb 46 3e 92 92 e1 3d bc f8 f0 bb
       -0.082921125 0.19407313 0.11014284 -0.00735387
000260 6b b4 10 3d ce 4c 86 be 0a 76 75 bc 17 d9 43 be
       0.03532831 -0.26230472 -0.014981756 -0.19125782
000270 a2 6a 31 3d 6b ba 04 3c 58 17 56 3e 9f ab e0 3d
       0.043314584 0.008101086 0.20907342 0.10970234
000280 b8 be 93 be 55 b1 47 3e 9e db 20 3b ae 48 8a bd
       -0.28856444 0.1950124 0.0024544965 -0.06752144
000290 88 70 8f 3d a1 a6 53 be f9 8b d8 3b c8 e7 81 3d
       0.070038855 -0.20669033 0.006608483 0.06343037
0002a0 30 2c 0f be 54 9d 04 3d 0d 9d 55 3d 49 be f8 bc
       -0.139817 0.032376602 0.05215173 -0.030364173
0002b0 4b a3 63 be 46 56 8f 3c 3f f8 fb 3d 40 4c c3 bd
       -0.2223026 0.017497193 0.123032086 -0.09536028
0002c0 0d 46 f3 3c eb b9 93 3d 5d d5 3c be fc f4 78 be
       0.029696489 0.072131954 -0.18440767 -0.24312204
0002d0 70 57 15 3e 8a fb 9c bc 18 47 23 be 10 e2 88 be
       0.14584136 -0.019162912 -0.15945089 -0.26734972
0002e0 5b 26 59 bd e6 67 29 3d 85 96 7e bd e3 c6 14 be
       -0.053015094 0.04135885 -0.062155265 -0.14528994
0002f0 73 1c 64 bd a4 89 0a 3d cc db 57 be ff 79 39 3e
       -0.055691194 0.03382267 -0.2107994 0.18112944
000300 20 14 49 3e 2f 06 e4 3d 77 38 94 be 69 3b 86 be
       0.19636583 0.11133992 -0.2894933 -0.262172
000310 46 87 9e bd 10 40 92 3d a1 f0 40 bd b7 e7 64 3e
       -0.07740645 0.07141125 -0.04710448 0.22354017
000320 f9 7e dd bc 88 fd 9b 3c b8 31 38 3e 2c 2b 79 bd
       -0.027038084 0.019041792 0.17987716 -0.060832188
000330 4a 51 02 3e f0 65 01 3e ff 9b b3 3d 12 da 0e bd
       0.12726322 0.12636542 0.08769988 -0.034875937
000340 40 9b c9 bd a9 67 98 3d 84 1d fd bd 9c cd d3 bc
       -0.09844065 0.074416466 -0.12359145 -0.025854878
000350 07 1d 9a 3d a0 16 1a 3e 88 3e 40 3e a1 26 f7 bd
       0.07525068 0.15047693 0.18773854 -0.12067915
000360 3c 19 84 bd 10 17 0b 3d 94 11 54 bd 20 e0 f7 bd
       -0.064501256 0.03395754 -0.051774576 -0.12103295
000370 ee 9b b6 bd 0d 7f 83 bd 19 14 3a bd a6 39 f2 bd
       -0.0891646 -0.064207174 -0.045429323 -0.11827402
000380 2c a9 79 3d 86 70 c0 bd ec 81 34 be b5 b5 c8 3d
       0.06095235 -0.09396462 -0.17627686 0.09800283
000390 e9 7d e3 bd ee 80 ee 3d 56 0d 28 be 3e cf 55 be
       -0.11108 0.11645685 -0.16411337 -0.20879838
0003a0 76 b5 8b 3e a9 1a 99 3a 0c 10 35 3e b7 41 90 3e
       0.2728688 0.0011680919 0.17681903 0.28175136
0003b0 3b ee 31 3e 26 64 fc 3d bc 4f ea 3d 10 20 05 be
       0.17376034 0.12323789 0.114409894 -0.13000512
0003c0 74 61 3c bd 7f 37 e6 bc d5 6d db 3b 85 2c 0d 3e
       -0.045991376 -0.028102634 0.0066964426 0.13786514
0003d0 a0 dc 81 3d 6b f4 38 be 7f 59 5e 3d dc 46 47 3b
       0.06340909 -0.18061988 0.05428457 0.0030407226
0003e0 16 ee bc 3d 5d a4 b2 bd ec 32 2a 3e a6 8e 0e be
       0.09225099 -0.08722756 0.16620988 -0.13921604
0003f0 ff 79 8b 3e 9e 64 c7 3d aa 20 8a be 11 64 a3 be
       0.27241513 0.09735988 -0.26978046 -0.31912282

self_attn.qkv_proj.bias f4 [108]
000000 d1 97 1d bd 8f 56 08 bd 3a 51 b3 bd 6f e3 17 bd
       -0.03847486 -0.033285674 -0.08755727 -0.037082132
000010 8f f6 8e bd 1b ad 11 3d 8d e7 f9 bb d7 a8 a0 3d
       -0.06980621 0.035565477 -0.00762648 0.07844704
000020 78 0a 6b 3d 5f f3 ee bc 79 c3 a3 3d cd 93 1f 3d
       0.05738303 -0.029168783 0.07996268 0.038959313
000030 00 16 f7 3c b8 6f 00 bd 1a e5 46 bd 69 d9 7c 3d
       0.030161858 -0.031356543 -0.048558332 0.061730776
000040 f8 14 ea bc 57 8c 9a bd ff 53 d9 3c 84 87 ab bd
       -0.028574452 -0.07546299 0.02652931 -0.08375457
000050 aa c3 dc bd 3c 96 95 3c 7e e8 9b 3d 20 c5 41 3d
       -0.107795075 0.018260114 0.07612704 0.047307134
000060 78 20 b8 bd bc f7 18 3d e5 b0 51 bc 40 4a 03 bc
       -0.08990568 0.037345633 -0.012798523 -0.008013308
000070 68 00 99 bd b3 47 90 3d 74 89 28 3d d7 b5 05 3e
       -0.074707806 0.070449255 0.04114671 0.13057648
000080 f5 c0 d9 3d ee 1e 94 3d fa 75 af 3d 89 07 45 bd
       0.10632507 0.07232462 0.08567424 -0.04810289
000090 44 85 39 3d 7f 09 17 3d 3d c0 c2 3b b1 80 7f 3b
       0.045293108 0.03687429 0.0059433267 0.0038986618
0000a0 ee 3f b2 3c 8d fc 2d bd a8 62 ae bc 8c fc 9b bc
       0.021759 -0.04247718 -0.021287277 -0.019041322
0000b0 a0 a5 ac bc b4 ef 98 ba 66 49 41 bc 2b 97 89 bd
       -0.02107507 -0.0011668117 -0.011797285 -0.06718286
0000c0 52 b6 0c bd b2 54 39 3d 13 33 3c 3b 90 a3 ae bb
       -0.03435356 0.045246787 0.0028716966 -0.0053295568
0000d0 f0 fa 36 3c 36 3a 36 3d a2 90 06 bd ca 73 b9 3c
       0.011168227 0.044489108 -0.032852776 0.02263822
0000e0 2f f1 6c bc b5 eb eb bb b8 37 00 bd 57 43 32 bd
       -0.0144617995 -0.0071997293 -0.031303138 -0.04352125
0000f0 de 2e 0c 3a 75 e5 5f 3c 5b 0c 0e 3c 22 4d bd 3c
       0.000534756 0.013665547 0.008669938 0.023108069
000100 3e 9d d3 3c a8 3d ab bc 0e e8 4c bd 50 0d ad bc
       0.025831815 -0.020903423 -0.050025992 -0.021124512
000110 b1 78 5b bb e2 15 00 3c d4 f9 d1 bc fb d7 83 3c
       -0.0033488686 0.007817717 -0.025631823 0.016094198
000120 9d 7e a8 3d 7f 53 34 bc c3 e5 85 bd ac 76 e8 3d
       0.082272746 -0.011006235 -0.06537964 0.1135076
000130 61 e7 74 bd 59 03 31 3c c1 de 7c be 08 d2 e9 bd
       -0.059790973 0.010804021 -0.24694349 -0.114170134
000140 59 d7 06 3c 2f 69 63 bb c3 58 19 bd b0 65 b9 bd
       0.008230054 -0.0034700145 -0.037438165 -0.090525985
000150 53 4d 14 be d1 c1 08 3d 41 83 b2 bd 70 2c 49 3e
       -0.14482622 0.033387963 -0.08716441 0.19645858
000160 f9 50 ae be 92 bd aa 3d 00 83 eb 3d d3 26 7c 3e
       -0.34046152 0.08336939 0.11499596 0.24624185
000170 df 82 e1 3d d8 26 7b 3e 83 33 28 bc 82 b5 83 3e
       0.1101129 0.24526536 -0.010266188 0.25724417
000180 da 6c 01 3e 53 b4 94 3d 58 e8 36 3e 67 bb 9b bd
       0.1263918 0.072609566 0.1786207 -0.076041035
000190 a4 85 67 be f2 e9 80 be 22 54 cb 3d ed da 91 3d
       -0.22609574 -0.25178486 0.099281564 0.07121835
0001a0 f6 14 79 3e 97 6e 5a 3e fd b3 8e be 79 dd 5d be
       0.24324402 0.21331249 -0.27871695 -0.21666516

self_attn.o_proj.weight f4 [36, 36]
000000 24 f8 6f 3e 32 3c 28 bd 75 87 20 3e 3d a2 cb 3d
       0.23434502 -0.04107303 0.15676673 0.09943054
000010 97 cf f8 3d 4f f3 b3 bd 1b 67 8e 3d 53 db 23 bd
       0.121489696 -0.08786642 0.069532596 -0.040004086
000020 89 44 a6 3d ba df 24 bd 8b 61 63 be 56 5c 84 3e
       0.08118541 -0.040252425 -0.22205178 0.25851697
000030 99 dd 69 be ec 40 57 3e e8 6f b2 bd 20 c1 64 3d
       -0.22838439 0.2102086 -0.08712751 0.05584824
000040 1e dc 60 3e bf 34 5e be d6 a8 03 be 93 21 a6 3e
       0.21958968 -0.21699809 -0.12857375 0.3244749
000050 37 cf 15 be d5 46 00 3e 6a 2b 82 3e 24 32 4e be
       -0.14629827 0.1252702 0.25423747 -0.20136315
000060 fb ac 4b be 7b 2e 0a be 0b 97 a0 3d 89 34 3a be
       -0.19890206 -0.13494293 0.07841309 -0.18184103
000070 f2 78 2d 3e 22 7b 45 be 1e f5 47 be 55 80 c8 39
       0.16940668 -0.19285253 -0.19527099 0.00038242587
000080 00 d8 88 bd 62 fc d4 3e 80 ff 30 3e 8d 0c 99 3d
       -0.06681824 0.41598803 0.17284966 0.07473097
000090 a0 b2 99 3e 26 25 85 3d 65 18 3e 3b a0 6e ab 3e
       0.30019093 0.06501226 0.002900624 0.33482838
0000a0 82 e7 f7 3d 11 09 10 be 27 7a 7b 3c 9d 5a 45 bc
       0.121047035 -0.14065959 0.015348948 -0.01204553
0000b0 96 4e 34 be be 87 a9 3e 14 f8 13 3e f1 38 87 be
       -0.17608103 0.33111376 0.14450103 -0.2641063
0000c0 cd 06 82 be df 0a 6d 3e 1f 5a 57 3d 0d 31 a7 3e
       -0.25395814 0.23148678 0.05257618 0.3265461
0000d0 b2 f2 98 be a6 b3 32 3e 9b b6 5d 3e 7c 17 23 3e
       -0.29872662 0.17451343 0.2165169 0.15926927
0000e0 91 da 83 3e 3e 52 88 3e 3a 4a 14 be 45 62 cd 3d
       0.2575269 0.26625246 -0.1448144 0.10028509
0000f0 00 e3 ea 3b 2a 04 e9 bd 10 52 98 3e 23 b1 02 3e
       0.007168174 -0.11377747 0.2975011 0.12762885
000100 ff b3 97 be f6 55 8c be 43 83 d3 bd 2c 9c b2 3d
       -0.29629514 -0.27409333 -0.103277706 0.08721194
000110 91 b1 24 3d ae ca 4d 3e 4b e4 e8 bc 89 90 c2 be
       0.040208403 0.20096847 -0.028429171 -0.38000897
000120 4a 41 20 3e a2 49 cc bd d6 2c b4 3e a2 55 fd 3d
       0.15649906 -0.09974982 0.35190457 0.12369849
000130 3f 4b 95 3d 8f d4 56 be 9f 63 34 bd 3e 9e 59 3c
       0.07289743 -0.20979522 -0.04404032 0.013282357
000140 92 e5 07 3e 46 43 61 3e 1f 1e b4 3e 77 6e 81 3e
       0.13271168 0.21998319 0.3517923 0.2527959
000150 9b 9c 17 be 38 99 2e 3e ee 3e 05 3e 6d cc 66 be
       -0.14805834 0.17050636 0.13012287 -0.2253892
000160 e5 38 18 3e 58 36 94 be 09 4b 88 be 1f d9 3f be
       0.14865454 -0.2894771 -0.26619747 -0.18735169
000170 40 9b d2 3c 56 20 4a be 7f 2a 9d bc d3 5d 5d 3b
       0.025708795 -0.19738898 -0.019185303 0.0033777847
000180 6e 6d a9 bd fb 67 0c 3e 06 35 69 be c2 d0 82 3e
       -0.08272825 0.1371154 -0.22774133 0.25549895
000190 b6 4d 83 3b da 7d b3 3d 77 d5 d4 bc 25 93 05 3c
       0.0040070666 0.08764239 -0.025980694 0.008152758
0001a0 08 2e 35 3c 27 09 ce be 53 7c 98 3e ba 13 17 be
       0.011058338 -0.40241358 0.29782352 -0.14753619
0001b0 13 a5 36 be 6c 29 0d 3c da b6 f1 3d 5b 13 2c be
       -0.17836408 0.008615833 0.11802454 -0.16804259
0001c0 8a 8e 0f 3e ab 47 2d 3e 2b 6f 43 3e f1 a7 af 3e
       0.14019218 0.1692187 0.19085376 0.34307817
0001d0 1b 11 7e 3e fc 1b 10 bd c9 43 10 3e ea 99 3a 3e
       0.24811213 -0.035182938 0.14088358 0.18222776
0001e0 05 37 ef b9 e3 fd 56 be 93 e4 c4 3e 4c bd c6 bd
       -0.00045626625 -0.20995288 0.38455638 -0.09704074
0001f0 4b 83 8a 3e 3e cb 99 3d 04 b0 7e be 23 30 aa be
       0.27053294 0.075094685 -0.24871832 -0.3323985
000200 20 4e c4 be 57 a5 f0 bd b9 d0 c8 3e db 48 4f be
       -0.38340855 -0.11750286 0.39221743 -0.20242636
000210 aa d7 15 be 66 6c 5b 3e 97 19 46 3b e3 64 a2 3d
       -0.1463305 0.2142807 0.0030227655 0.07929399
000220 a4 6e a8 3d 28 af 1d bc 11 77 99 3d 7b 88 02 be
       0.08224228 -0.00962428 0.07493413 -0.12747376
000230 2a ee 3f be 95 a5 35 be 78 26 e3 3e 9f cd 82 3e
       -0.18743196 -0.17738946 0.44365287 0.255475
000240 ff 78 d6 3e af fb 15 be 2f 9d 8d bd 0b e6 8d bd
       0.41889188 -0.14646791 -0.06914746 -0.06928643
000250 8f a1 8e 3c 7d 7e f6 bd d6 9f 48 be 0d 8b 0a be
       0.017411022 -0.120358445 -0.19592223 -0.13529606
000260 d9 b3 c5 be f3 54 03 3e 4f 4c 30 be 6a 36 b8 bc
       -0.38613775 0.12825374 -0.1721661 -0.022486884
000270 c6 24 2d be bf 0f e2 3e c7 0d 52 3c bc 74 00 3e
       -0.16908559 0.44152638 0.012820668 0.1254453
000280 48 63 2f be 60 e5 7c 3e e2 7c d1 bc 92 67 b7 3e
       -0.17127717 0.24696875 -0.025572244 0.35821205
000290 4f 4c b7 3e 3d 26 16 3e 60 06 5b bc cc ca ca 3e
       0.35800406 0.14663024 -0.013368219 0.39607847
0002a0 30 fb 0b 3e 4b 1b 9e 3d c3 9d 4b 3e 93 1c d3 3d
       0.13670039 0.077200495 0.198844 0.103081845
0002b0 63 a6 c8 be 3b a3 c6 be 42 f7 4a 3d 17 ba 75 be
       -0.39189443 -0.3879641 0.04955221 -0.23996769
0002c0 ae 1c df 3e 92 c9 d1 3c c1 5a 8c bc e8 c0 c0 be
       0.43576568 0.025608812 -0.017133119 -0.37647176
0002d0 b6 fc cd bd 84 52 3b 3e 97 6d be bd b2 8c 17 3e
       -0.100579664 0.18293196 -0.09298246 0.14799765
0002e0 c9 f0 11 3e b5 28 23 3e 61 8e e6 bd 99 49 0c 3e
       0.14252008 0.15933497 -0.11257625 0.1369995
0002f0 56 05 46 be 12 90 90 be 89 cc b2 bd 2c 68 a5 bd
       -0.19337973 -0.28234917 -0.08730418 -0.0807651
000300 7f 8e 2b 3e 88 3e 7a be 2c 9a 49 bd 0d 66 f1 3a
       0.16753577 -0.24437916 -0.049219295 0.0018417254
000310 d5 71 57 be 07 8e 97 be 5d 85 18 3e 20 2d 44 3c
       -0.21039517 -0.29600546 0.14894624 0.011973649
000320 f9 6e 89 be 14 93 8c be a8 93 b7 3e c2 e6 19 be
       -0.26842478 -0.27455962 0.3585484 -0.15029433
000330 42 e1 f0 3d ba 2b 81 bc 54 1c dc bd 8b e1 16 be
       0.117617145 -0.01576792 -0.10747591 -0.14734475
000340 9d 97 31 3e df 57 01 be 58 52 4d 3e 5c da c7 bc
       0.17342992 -0.12631176 0.20050943 -0.024396114
000350 bc 18 48 3e b8 40 2c 3e 11 43 34 3b f4 6a df 3c
       0.19540685 0.16821563 0.0027505795 0.027272679
000360 47 1e 0c be 7e 5d 7f be 95 ea 67 3e f9 e1 2c 3e
       -0.13683425 -0.24938008 0.2264808 0.16883077
000370 5b 40 c5 3d cf 4f 65 3e 69 e0 56 bd 23 f4 20 3e
       0.096314155 0.22393726 -0.052460108 0.15718131
000380 1e d1 58 be 30 ac 72 3e ff 22 03 3e 64 8c 85 be
       -0.21173522 0.23698497 0.12806319 -0.26083672
000390 8e 9a f3 3d ab 8d 8c 3d e3 98 d4 3d e6 6b 15 3e
       0.11894713 0.068629585 0.10380723 0.14591941
0003a0 da cc cc bc 96 42 a9 3e 48 e9 dd bd 1f 93 9c 3d
       -0.025000025 0.33058614 -0.108355105 0.076452486
0003b0 be b4 2a be 1e c8 73 3c fd 2e af bd 32 1c 3e 3e
       -0.1667051 0.014879255 -0.08553884 0.18565443
0003c0 9a 33 2f be e7 6d 76 be 33 1e a3 be 86 6b e2 bd
       -0.17109528 -0.24065362 -0.31858978 -0.11055665
0003d0 14 2a 0c 3e 3d 78 db bd 13 ff 90 be f7 1c 69 3e
       0.13687927 -0.10716293 -0.28319606 0.22764955
0003e0 21 4f 91 3e ed 57 48 3d 68 ec c1 bd b4 d9 94 3c
       0.28380683 0.048911978 -0.09468919 0.018170215
0003f0 29 22 dc bb e2 e4 7f bd fc e7 06 3e 3c 4b 90 3d
       -0.0067179394 -0.06247414 0.13174433 0.070456

self_attn.o_proj.bias f4 [36]
000000 30 af 02 3d a5 91 91 3e cb ad 17 be 8c 24 a4 be
       0.031905353 0.2843143 -0.1481239 -0.32059133
000010 66 eb a5 3e e5 c4 4d b9 1e 8b e6 3c df dc 81 bd
       0.32406157 -0.00019623672 0.028142508 -0.06340956
000020 ba ff 8a 3d 80 3f b2 bd f2 14 00 3d 1d 57 ad 3e
       0.06787057 -0.08703518 0.031269975 0.33855525
000030 dd 6f 79 be a7 4e a8 be b2 c5 06 be 37 8c fc bd
       -0.24359079 -0.32872507 -0.13161352 -0.12331431
000040 13 1b a0 3d 7f 5d e1 3d cf 8e f8 3d 88 3b 93 bd
       0.07817664 0.11004161 0.121366136 -0.07189089
000050 7a 70 30 3d cf 66 bb bd 2f 33 af 3b 40 43 0c 3d
       0.043076016 -0.091504686 0.0053466777 0.034243822
000060 b0 40 b4 3e 27 64 00 3d 91 74 a6 3e a3 2b 99 3e
       0.35205603 0.031345513 0.32510808 0.29916105
000070 86 af 3a be 77 f4 99 be 24 b1 8d 3e 32 76 a6 3e
       -0.1823102 -0.30069324 0.2767421 0.3251205
000080 ec 40 8c be 2b 57 1d bd 3c 40 a0 be 66 98 03 3b
       -0.2739328 -0.038413208 -0.31299007 0.002007985

fc.weight f4 [1, 18]
000000 58 e4 e9 bd e2 53 71 be 4f ef 61 3e 40 ea a2 bd
       -0.11420506 -0.23567155 0.22063945 -0.07954836
000010 56 d1 56 be 40 f6 2d be 81 97 6f 3d a6 68 14 3e
       -0.20978293 -0.16988468 0.058494095 0.14493045
000020 26 40 c7 3c 80 9b 16 3d 12 61 06 bd 38 97 20 3d
       0.02432258 0.03676939 -0.032807417 0.039206713
000030 df da a3 bc 93 28 41 3e d7 08 b5 3d 64 0e cf bd
       -0.020001827 0.18863134 0.08839577 -0.10110167
000040 bb 77 ab 3d d3 51 a9 bd
       0.08372446 -0.0826756

fc1.weight f4 [1, 36]
000000 da 7f ab bf 17 1a 5c 3f 04 0e b7 3f f4 7d 6a bf
       -1.3398392 0.8597731 1.4301152 -0.9159844
000010 79 e5 53 3f b4 fa ab bf 77 e4 ab 3f 0f a0 b8 3f
       0.8277202 -1.3435884 1.3429097 1.4423846
000020 37 af a9 bf 97 1f b5 3f b1 3b c3 bf da b2 3d 3f
       -1.3256596 1.4150265 -1.5252591 0.7410103
000030 93 4d 53 bf 7a 6e c8 be c0 c6 85 bf de e4 c4 3f
       -0.82540244 -0.39146787 -1.0451279 1.5382345
000040 85 2f 8e 3f 31 2d a0 bf 06 a7 c5 bf 9b 0f c5 3f
       1.1108252 -1.2513791 -1.5441597 1.5395387
000050 b6 5b bb bf d4 a0 cc 3f 5e 80 9b bf 54 92 ae 3f
       -1.4637363 1.5986581 -1.214855 1.3638406
000060 28 af 5d 3f 33 23 9e bf 98 98 52 3f 36 a8 61 3f
       0.8659539 -1.2354492 0.8226409 0.88147295
000070 93 01 23 bf cf ae 61 bf 5e 5f 6e 3f f0 d9 48 3f
       -0.6367428 -0.8815736 0.9311427 0.78457546
000080 7a 4b 44 bf 73 c0 a8 bf 4a 8d 58 bf 05 6b aa bf
       -0.7667767 -1.3183731 -0.8459059 -1.331391

fc2.weight f4 [1, 9]
000000 2c 47 9c be 62 55 a5 be 5b c5 ae bd 16 75 f7 bc
       -0.3052305 -0.32291704 -0.08533736 -0.030207198
000010 a8 fa 7f 3e ae e9 5e be 2c 4b a5 be 56 b9 a8 3a
       0.24997962 -0.21768829 -0.32283914 0.0012872617
000020 e4 0d 9e be
       -0.30869973

fc3.weight f4 [1, 2]
000000 9b 81 02 3f c8 dc 15 bf
       0.5097901 -0.5854001

input_fc.weight f4 [18, 3]
000000 73 40 c2 be 1c c6 f3 3e 3b 48 16 3e 08 ab 67 3e
       -0.37939796 0.47612083 0.14675991 0.22623837
000010 17 26 ae bc 1f 13 82 be 81 e1 66 3e 1b b9 d0 be
       -0.021258397 -0.25405213 0.2254696 -0.40766224
000020 59 f4 c6 3e 61 21 99 3e 68 87 17 bf c2 76 48 3e
       0.38858297 0.2990828 -0.5919099 0.19576553
000030 f6 21 17 be fb 27 c0 3e 14 5d 4a bd a7 fe 98 3d
       -0.14759049 0.37530503 -0.049405172 0.07470446
000040 7c 42 f9 bd 13 8f eb bc 60 8d 3d 3e 26 0e a5 3c
       -0.12170884 -0.028754747 0.18510962 0.020148348
000050 2d 65 aa be 84 89 0d 3f d6 5a 76 3e a8 8f 80 be
       -0.33280316 0.5528796 0.24058089 -0.251096
000060 df b3 3c 3d 44 c0 dc be 80 63 97 be 66 98 78 3e
       0.046069976 -0.43115437 -0.295681 0.24276885
000070 97 9b 04 3f c1 de ef be 72 bd 96 be 69 4b d2 be
       0.5179991 -0.46849635 -0.2944141 -0.41073158
000080 57 d0 79 3e 83 0d 1d bf b0 0e 46 3e 91 60 83 3e
       0.24395882 -0.6134874 0.1934154 0.25659612
000090 f6 5e 67 3e 3b 50 1d bd c1 8c 8c 3d ef eb e3 3e
       0.22594818 -0.03840659 0.06862784 0.4451594
0000a0 eb 13 91 be 2c ea 50 3e 52 96 d6 3e f1 ad 44 be
       -0.2833551 0.2040183 0.4191156 -0.19206978
0000b0 64 38 7f be 14 5e c0 3e 69 ba 8f be 07 38 33 bd
       -0.24923855 0.37571776 -0.28071907 -0.043754604
0000c0 58 39 43 be 4e f6 07 3f 81 35 8c be 10 16 65 3e
       -0.19064844 0.53110206 -0.2738457 0.22371697
0000d0 b9 63 e6 be e2 16 48 3d
       -0.44997957 0.048849948

input_fc.bias f4 [18]
000000 f2 c4 09 3d 05 f3 8a be a3 40 4a be 86 28 f8 bd
       0.033635087 -0.27138534 -0.1975122 -0.12117104
000010 42 27 f9 3d a1 7f 9d 3e 8e 6f 01 bf 2b f7 a8 3e
       0.12165691 0.30761436 -0.50560844 0.33001074
000020 f7 ad 05 bf b0 07 59 be 58 70 f0 bd 8d 2b 22 be
       -0.52218574 -0.21194339 -0.11740178 -0.15836926
000030 d5 f8 49 3e bd 57 97 3e c7 3c a3 be ec 4f 6f be
       0.19723828 0.29559126 -0.31882307 -0.23370332
000040 ae c9 78 3e 99 79 b3 3e
       0.24295685 0.3505371

norm.weight f4 [36]
000000 00 00 80 3f 00 00 80 3f 00 00 80 3f 00 00 80 3f
       1.0 1.0 1.0 1.0
000010 00 00 80 3f 00 00 80 3f 00 00 80 3f 00 00 80 3f
       1.0 1.0 1.0 1.0
000020 00 00 80 3f 00 00 80 3f 00 00 80 3f 00 00 80 3f
       1.0 1.0 1.0 1.0
000030 00 00 80 3f 00 00 80 3f 00 00 80 3f 00 00 80 3f
       1.0 1.0 1.0 1.0
000040 00 00 80 3f 00 00 80 3f 00 00 80 3f 00 00 80 3f
       1.0 1.0 1.0 1.0
000050 00 00 80 3f 00 00 80 3f 00 00 80 3f 00 00 80 3f
       1.0 1.0 1.0 1.0
000060 00 00 80 3f 00 00 80 3f 00 00 80 3f 00 00 80 3f
       1.0 1.0 1.0 1.0
000070 00 00 80 3f 00 00 80 3f 00 00 80 3f 00 00 80 3f
       1.0 1.0 1.0 1.0
000080 00 00 80 3f 00 00 80 3f 00 00 80 3f 00 00 80 3f
       1.0 1.0 1.0 1.0

norm.bias f4 [36]
000000 00 00 00 00 00 00 00 00 00 00 00 00 00 00 00 00
       0.0 0.0 0.0 0.0
000010 00 00 00 00 00 00 00 00 00 00 00 00 00 00 00 00
       0.0 0.0 0.0 0.0
000020 00 00 00 00 00 00 00 00 00 00 00 00 00 00 00 00
       0.0 0.0 0.0 0.0
000030 00 00 00 00 00 00 00 00 00 00 00 00 00 00 00 00
       0.0 0.0 0.0 0.0
000040 00 00 00 00 00 00 00 00 00 00 00 00 00 00 00 00
       0.0 0.0 0.0 0.0
000050 00 00 00 00 00 00 00 00 00 00 00 00 00 00 00 00
       0.0 0.0 0.0 0.0
000060 00 00 00 00 00 00 00 00 00 00 00 00 00 00 00 00
       0.0 0.0 0.0 0.0
000070 00 00 00 00 00 00 00 00 00 00 00 00 00 00 00 00
       0.0 0.0 0.0 0.0
000080 00 00 00 00 00 00 00 00 00 00 00 00 00 00 00 00
       0.0 0.0 0.0 0.0

norm1.weight f4 [9]
000000 00 00 80 3f 00 00 80 3f 00 00 80 3f 00 00 80 3f
       1.0 1.0 1.0 1.0
000010 00 00 80 3f 00 00 80 3f 00 00 80 3f 00 00 80 3f
       1.0 1.0 1.0 1.0
000020 00 00 80 3f
       1.0

norm1.bias f4 [9]
000000 00 00 00 00 00 00 00 00 00 00 00 00 00 00 00 00
       0.0 0.0 0.0 0.0
000010 00 00 00 00 00 00 00 00 00 00 00 00 00 00 00 00
       0.0 0.0 0.0 0.0
000020 00 00 00 00
       0.0

norm2.weight f4 [9]
000000 00 00 80 3f 00 00 80 3f 00 00 80 3f 00 00 80 3f
       1.0 1.0 1.0 1.0
000010 00 00 80 3f 00 00 80 3f 00 00 80 3f 00 00 80 3f
       1.0 1.0 1.0 1.0
000020 00 00 80 3f
       1.0

norm2.bias f4 [9]
000000 00 00 00 00 00 00 00 00 00 00 00 00 00 00 00 00
       0.0 0.0 0.0 0.0
000010 00 00 00 00 00 00 00 00 00 00 00 00 00 00 00 00
       0.0 0.0 0.0 0.0
000020 00 00 00 00
       0.0

m.running_mean f4 [12]
000000 b1 32 29 40 18 50 2b 40 d3 78 2a 40 a3 f0 27 40
       2.643719 2.6767635 2.6636245 2.6240623
000010 16 7f 26 40 f2 0f 27 40 43 ab 28 40 0c b6 28 40
       2.6015067 2.6103482 2.635453 2.6361113
000020 71 ca 26 40 9c 9f 23 40 28 6f 21 40 73 31 21 40
       2.606106 2.5566168 2.5224094 2.5186431

m.running_var f4 [12]
000000 a7 2f ac 44 d3 72 ab 44 f9 43 ab 44 cf 6e ab 44
       1377.4891 1371.5883 1370.1241 1371.4628
000010 36 c0 ab 44 92 03 ac 44 10 08 ac 44 cc f0 ab 44
       1374.0066 1376.1116 1376.252 1375.5249
000020 7a 00 ac 44 f7 ed ab 44 89 04 ac 44 80 ad ac 44
       1376.0149 1375.4364 1376.1417 1381.4219

linear_net.0.weight f4 [9, 18]
000000 97 c3 70 3e c4 27 8e 3d 7d c1 6f 3d f7 69 66 3e
       0.23512112 0.069411784 0.058534134 0.2250136
000010 f0 b9 00 be 57 cf 10 3e c2 85 0a be 98 74 89 3d
       -0.1257093 0.14141594 -0.13527587 0.067116916
000020 ef 30 6e be 38 5c fa bc 58 88 5a 3e d5 c1 60 3e
       -0.23260854 -0.030561551 0.21341074 0.21948941
000030 1a 91 42 bd 81 30 e9 bd 73 d6 cc bc b2 bc 1d 3e
       -0.04750166 -0.113862045 -0.025004601 0.15404013
000040 0d e2 73 3d 60 9f a5 bd 23 67 d2 bd 21 cd 1d 3e
       0.05954175 -0.08087039 -0.10273578 0.15410282
000050 86 4a 1f be 42 cb c0 bd cc a3 11 bd ee a4 61 3e
       -0.15555772 -0.09413768 -0.0355566 0.22035572
000060 1e 68 39 3e bb c3 36 3e 4c 68 23 be 42 84 a6 3d
       0.18106124 0.17848103 -0.15957755 0.08130695
000070 9a ba 84 bc 03 ea ef 3d 81 a8 1f 3e 9f d9 3c be
       -0.01620226 0.11714556 0.15591623 -0.18442391
000080 93 0d 43 be 84 2d dd 3c f1 38 6e be a6 10 2e 3e
       -0.19048147 0.026999243 -0.23263909 0.16998538
000090 bd b7 2e be d8 42 0c be 2b fd 89 3a d1 8e 09 3e
       -0.17062278 -0.13697374 0.001052772 0.13433386
0000a0 01 bb 52 3e d8 42 32 3d 78 e4 4d 3e 59 37 cb 3d
       0.20579149 0.04352078 0.20106685 0.09922666
0000b0 c0 c7 6c 3e ec f3 6d bd 02 3e 75 bd 42 56 95 bd
       0.23123074 -0.05809395 -0.05987359 -0.07291843
0000c0 45 f6 23 bd 1a 26 4c be a9 45 90 3d c7 20 2d 3e
       -0.040029783 -0.1993641 0.070445366 0.16907035
0000d0 71 ce f8 3d 68 4a 18 be b2 c2 5a 3e d3 c7 1d ba
       0.121487506 -0.14872134 0.21363333 -0.0006018851
0000e0 25 79 e9 bb c8 5d 51 be c6 35 d3 bd 8c ec 9b 3d
       -0.0071250373 -0.20445931 -0.10312991 0.07613477
0000f0 c1 2e ea 3c cc 47 1a be 18 e0 5f 3e e7 2d ca 3d
       0.028586747 -0.15066451 0.21862829 0.098720364
000100 52 45 05 3e b0 66 0c be 54 e9 c2 bd a3 f4 96 3d
       0.13014725 -0.13711047 -0.0951716 0.073708795
000110 65 74 62 be 01 0e e2 3d e2 2e 47 3c 71 43 1a 3e
       -0.22114713 0.11037827 0.012157174 0.1506479
000120 dd 37 39 3e 59 cf 3e 3d 68 d0 fb 3d 83 a1 b3 3b
       0.18087716 0.04658446 0.1229561 0.0054819
000130 f6 71 6b 3e 1d 4b d6 bc 93 b5 14 be 68 19 01 bd
       0.22992691 -0.026158864 -0.1452239 -0.03151837
000140 f7 dc 35 be f1 56 0d be 1b d4 52 3d 6c 76 3a 3e
       -0.17760073 -0.13802697 0.05147181 0.18209237
000150 8f a8 44 3e 93 d0 35 3e 17 2f 4e 3e 87 8a 57 3e
       0.19204925 0.17755346 0.20135151 0.21048938
000160 0a 2d 11 be a0 68 93 bd 48 b0 db 3d a1 9e bd bd
       -0.14177337 -0.0719769 0.10726982 -0.09258772
000170 dd b3 24 bd 8f 22 4c 3e 00 42 a8 bc a3 1a 60 bd
       -0.040210593 0.19935058 -0.020539284 -0.054712903
000180 52 79 c6 3d b6 21 6c 3e a7 0b d0 bd 89 88 fc bc
       0.09691109 0.23059735 -0.101584725 -0.030826824
000190 fa ba 56 be ca 4b e4 3c 2a 48 c7 3c bd 17 22 3e
       -0.20969763 0.02786817 0.024326403 0.15829368
0001a0 fc 2f 45 be 03 87 15 be c2 d5 3b 3e 92 8d d9 bd
       -0.19256586 -0.14602284 0.18343261 -0.106227055
0001b0 bd 52 7e 3c 2f 9f 4f 3e 40 9c 51 3e 64 dc 71 bc
       0.015522656 0.20275567 0.20469761 -0.014762018
0001c0 1b 26 64 be ee 0d 46 be fd bf 67 be 69 4a 67 bc
       -0.22280161 -0.19341251 -0.22631831 -0.014116862
0001d0 cd b6 3b be 1f bd 43 3e 07 83 51 be 41 52 8f bd
       -0.18331452 0.19115113 -0.20460139 -0.069981106
0001e0 fb d3 ce 3d 9d a6 cb bd a2 b3 34 3e 1d 9a 4e 3d
       0.10099026 -0.09943888 0.1764665 0.050439943
0001f0 25 d4 67 3e 93 a3 09 3d 86 6a 13 3e 27 d2 54 be
       0.2263952 0.033603262 0.14396104 -0.20783292
000200 c3 24 cd bd 21 e4 d7 3d a1 83 b7 bd aa 12 9f 3d
       -0.10016777 0.10541559 -0.08960653 0.07767232
000210 53 12 12 be c0 95 3f 3d f9 22 ec 3c 51 13 05 be
       -0.14264803 0.046773672 0.02882527 -0.1299565
000220 6d 54 bc bb 2e ba 3a 3e 1c 4b 32 be 01 f9 1f 3d
       -0.005747369 0.18235084 -0.17411464 0.039055828
000230 c0 30 03 3e fe 58 5e 3e 3e e5 5b be de 62 da 3d
       0.12811565 0.21713635 -0.21474168 0.10663389
000240 b0 79 65 3e 14 2c 25 3e c5 2d 50 be 3a 0b 0c bd
       0.22409701 0.16130096 -0.2032996 -0.034190394
000250 35 ab ec bc 11 c1 0a bd 7a 36 8b 3c b7 14 7b 3c
       -0.028890232 -0.03387553 0.01699375 0.015324763
000260 33 b2 ff 3d 02 25 3d be e5 31 2a be 70 df e9 bb
       0.12485161 -0.18471149 -0.16620596 -0.0071372315
000270 5a 64 63 be e5 ac 6c 3e b8 63 2c 3e e7 73 d5 bd
       -0.2220625 0.23112829 0.16834915 -0.10422497
000280 b8 ca 2b 3e 98 79 d8 bd
       0.1677655 -0.10570067

linear_net.0.bias f4 [9]
000000 3c c8 d3 ba 64 14 4e be 91 f8 05 3c 5e 6d a1 3d
       -0.0016157697 -0.20124966 0.008176939 0.07882188
000010 57 fb c7 bd a5 fc 05 3e f6 d8 17 bb 82 55 01 3e
       -0.09764736 0.13084657 -0.002317009 0.12630275
000020 4d 93 6d 3e
       0.23200722

linear_net.2.weight f4 [1, 9]
000000 b0 26 6e be eb ee 6e be 2c bf 80 3e a0 83 92 bd
       -0.23256946 -0.23333327 0.25145853 -0.07154012
000010 b8 d8 74 be 6b 6d 35 3d 93 d5 6a be 82 a5 a6 3e
       -0.23910797 0.044293802 -0.22933035 0.32548147
000020 bb 62 20 3e
       0.15662663

exp_avg f4 [108, 36]
000000 dc 0f cb 3b 5d b3 1c 3c f5 78 b6 3b 78 51 18 bc
       0.006196959 0.009564248 0.0055686184 -0.009296767
000010 40 d8 55 3c b7 e4 1a bb 98 d7 a6 3b c2 58 82 3d
       0.013052046 -0.002363486 0.0050916187 0.063645855
000020 78 6f 2d bd 02 cf 36 3d d0 8f 51 bd 0f f1 0e bd
       -0.042342633 0.04463101 -0.05116254 -0.03489786
000030 c5 6d b6 3c 27 df f8 3c 78 77 7a 3c 47 34 4f 3c
       0.022269139 0.030379845 0.015287273 0.012646741
000040 88 e4 46 3c 02 68 2c bc 05 3b ee 38 16 7b 65 39
       0.012139447 -0.010522844 0.000113597176 0.00021884995
000050 c3 29 bf 3a 90 f6 0d 3b 9f 19 86 39 02 cf 13 3b
       0.001458459 0.0021661855 0.0002557756 0.0022553806
000060 ba 58 93 38 74 9e 0d 3b 9c d5 ca 37 69 aa 0c 3b
       7.026033e-05 0.0021609338 2.4179746e-05 0.0021463877
000070 0c f3 10 37 36 8a 0c 3b 62 36 50 36 0a 86 0c 3b
       8.639658e-06 0.0021444685 3.102607e-06 0.0021442198
000080 0b a4 95 35 81 85 0c 3b 0d 1c d7 34 6f 85 0c 3b
       1.1149108e-06 0.002144188 4.006728e-07 0.0021441837
000090 54 cd 06 3c c3 63 50 3c e9 be e8 3b c6 a9 4c bc
       0.008227665 0.012719098 0.0071028364 -0.012491649
0000a0 f6 0d 8e 3c 81 5e 4d bb 5a bc e0 3b 86 61 ac 3d
       0.017340641 -0.0031336846 0.0068583908 0.084170386
0000b0 20 d2 64 bd 29 95 72 3d d0 ba 8a bd 58 ef 3c bd
       -0.055864453 0.05922428 -0.06773913 -0.046126693
0000c0 84 9d f0 3c 09 ae 23 3d 9e c8 a5 3c f0 58 88 3c
       0.029371984 0.039960895 0.020237263 0.016643971
0000d0 5b 2c 85 3c 75 ab 65 bc bb fd 2d 39 49 13 84 39
       0.016256502 -0.014017929 0.00016593088 0.0002519137
0000e0 13 c4 ee 3a 1d 2a 30 3b e9 a4 db 39 11 31 3e 3b
       0.0018216394 0.002688057 0.00041893803 0.0029020945
0000f0 7d b3 0b 39 b2 3a 3a 3b 4f 4a 45 38 a2 9a 39 3b
       0.00013322938 0.0028416333 4.7037665e-05 0.0028320928
000100 96 79 8d 37 78 85 39 3b 03 50 cb 36 ba 82 39 3b
       1.6865128e-05 0.0028308313 6.059186e-06 0.002830668
000110 b8 20 12 36 5f 82 39 3b b5 0f 52 35 52 82 39 3b
       2.177474e-06 0.0028306467 7.8253953e-07 0.0028306437
000120 54 ab a0 3b 51 ef f7 3b 7a fc 6c 3b ab 00 fd bb
       0.0049032364 0.0075663705 0.003616123 -0.007721027
000130 d6 f1 28 3c c0 bc f2 ba a7 47 8b 3b 88 83 49 3d
       0.010311564 -0.0018519387 0.004250485 0.049197704
000140 d3 c2 04 bd d5 78 0f 3d 20 d9 22 bd d4 47 dc bc
       -0.03241236 0.035027344 -0.039757848 -0.02688972
000150 e1 53 8b 3c d1 b1 bb 3c 45 2b 42 3c b2 73 1c 3c
       0.01700777 0.022911938 0.011851137 0.009549068
000160 ea 9e 22 3c 15 f0 09 bc 2f 6a 6a 38 25 08 ca 38
       0.009925583 -0.008419056 5.588884e-05 9.6336276e-05
000170 b7 a7 6a 3a 38 c4 ac 3a f5 41 ba 39 7b aa ce 3a
       0.0008951383 0.0013181036 0.00035525826 0.001576736
000180 ac 5f 0c 39 d3 25 d6 3a f0 31 4b 38 df 3d d7 3a
       0.00013387081 0.0016338177 4.844548e-05 0.0016421637
000190 94 2e 92 37 a3 62 d7 3a 41 2a d2 36 64 67 d7 3a
       1.7426246e-05 0.0016432594 6.2634067e-06 0.0016434011
0001a0 a3 0f 17 36 02 68 d7 3a 95 27 59 35 16 68 d7 3a
       2.2509855e-06 0.0016434195 8.08964e-07 0.0016434218
0001b0 72 be 3b 3b ed 64 86 3b 56 29 1c 3b ab f5 88 bb
       0.002864745 0.0041013868 0.002382835 -0.0041796765
0001c0 8b 67 bd 3b 20 8b 8b ba ed e8 0c 3b c7 11 e3 3c
       0.0057801655 -0.0010646321 0.002150114 0.027718438
0001d0 3a 79 98 bc 50 8a 9f 3c 29 fa b6 bc c3 10 77 bc
       -0.018612493 0.019475132 -0.022336083 -0.01507968
0001e0 e6 e1 1e 3c 15 fd 57 3c b0 74 d6 3b da 4f b1 3b
       0.009697413 0.013182898 0.006544672 0.0054111304
0001f0 16 5d b0 3b 06 f4 99 bb 0d 26 25 37 e6 c4 1b 39
       0.0053821905 -0.0046982793 9.843626e-06 0.00014855302
000200 13 e0 15 3a 62 0e 82 3a 58 2d ca 38 2e eb 80 3a
       0.00057172886 0.0009922499 9.6405565e-05 0.0009835714
000210 40 ef e3 37 42 1e 78 3a d8 c7 1d 37 12 af 76 3a
       2.7171918e-05 0.0009464958 9.404459e-06 0.0009410243
000220 59 af 61 36 dc 7e 76 3a ec 1b a2 35 a1 78 76 3a
       3.3629678e-06 0.0009403059 1.2078067e-06 0.00094021304
000230 3f 04 e9 34 d4 77 76 3a 53 7b 27 34 bb 77 76 3a
       4.340272e-07 0.0009402011 1.5597952e-07 0.00094019965
000240 65 50 2d 3c 02 1b 87 3c d2 8b 12 3c 44 03 85 bc
       0.01057825 0.01649237 0.008944469 -0.016236909
000250 ba 7c b7 3c 65 1f 84 bb 8a 34 13 3c 81 54 de 3d
       0.022398341 -0.004032063 0.008984694 0.108559616
000260 a2 2d 93 bd 5a c5 9c 3d 05 06 b3 bd 4f c5 73 bd
       -0.07186438 0.07654829 -0.087413825 -0.05951434
000270 ca e0 1a 3d 73 63 52 3d a4 56 d6 3c a3 93 af 3c
       0.03781203 0.051364373 0.02616436 0.021432703
000280 0a ec ac 3c 8e 81 94 bc 1d 4e 74 39 91 22 b2 39
       0.021108646 -0.018128183 0.00023298753 0.0003397656
000290 25 0f 19 3b 13 f2 66 3b 87 40 03 3a f2 32 76 3b
       0.0023354974 0.0035239502 0.0005006869 0.0037566987
0002a0 eb 89 21 39 23 b1 6f 3b 60 e6 62 38 02 ad 6e 3b
       0.00015405535 0.0036574088 5.4097152e-05 0.0036419039
0002b0 26 97 a2 37 a3 8a 6e 3b b3 a2 e9 36 31 86 6e 3b
       1.9382289e-05 0.0036398552 6.962882e-06 0.0036395902
0002c0 81 eb 27 36 9e 85 6e 3b 3a 63 71 35 87 85 6e 3b
       2.502202e-06 0.003639556 8.992389e-07 0.0036395506
0002d0 2d 93 ee bb ac 3f 3d bc 94 f8 c5 bb d1 11 3a 3c
       -0.0072807283 -0.011550825 -0.0060415957 0.011356787
0002e0 ad 13 7f bc da 98 36 3b 9f fc d0 bb 19 7e 9a bd
       -0.015568656 0.0027862103 -0.006377771 -0.075435825
0002f0 7c b8 4b 3d dc 67 5a bd 60 e8 78 3d ed 96 29 3d
       0.049736485 -0.053321704 0.060768485 0.0414037
000300 53 c0 d6 bc ef a1 11 bd a9 9a 95 bc b9 ec 73 bc
       -0.026214754 -0.035554823 -0.018262224 -0.014887982
000310 d0 ea 71 bc ee 94 4e 3c 71 1a 14 b9 84 90 52 b9
       -0.014765456 0.01260875 -0.0001412423 -0.00020080997
000320 66 a2 d6 ba fa b3 1d bb 4a 85 ba b9 77 5b 2a bb
       -0.0016375303 -0.0024063573 -0.00035575993 -0.0025994459
000330 5f 45 e5 b8 86 e5 25 bb cb f6 20 b8 90 30 25 bb
       -0.00010932492 -0.0025313809 -3.8376817e-05 -0.0025205947
000340 8d ac 66 b7 9d 18 25 bb ba bb a5 b6 81 15 25 bb
       -1.3749243e-05 -0.0025191673 -4.9392374e-06 -0.002518982
000350 c7 3b ee b5 1b 15 25 bb 72 3b 2b b5 0d 15 25 bb
       -1.7749779e-06 -0.0025189582 -6.378897e-07 -0.002518955
000360 b4 59 e2 39 02 f2 96 3a bd cd 07 39 68 45 8d ba
       0.00043172913 0.0011516216 0.00012951247 -0.0010778131
000370 3a a1 a7 3a 60 a9 48 b9 64 f8 56 3a 54 5f cb 3b
       0.0012789138 -0.00019136583 0.0008200465 0.0062064324
000380 92 dc 6e bb c9 af 98 3b 9a 6a a5 bb 6b dd 66 bb
       -0.0036447388 0.004659627 -0.0050481083 -0.003522719
000390 cc cb 04 3b 6b bd 2c 3b 02 50 dd 3a f7 8f a0 3a
       0.0020263074 0.002635802 0.0016884806 0.0012249936
0003a0 8e 28 b9 3a a9 85 89 ba 6f 4a 7f 37 b4 ed bd b8
       0.0014126466 -0.0010492104 1.5216515e-05 -9.056498e-05
0003b0 bb 6d 18 39 07 f0 58 38 17 94 a2 38 91 41 2c 39
       0.00014536727 5.1721956e-05 7.752346e-05 0.00016427624
0003c0 43 9c f3 37 cf 2c 3f 39 2d 00 30 37 50 a8 41 39
       2.9040622e-05 0.00018231872 1.0490458e-05 0.00018468616
0003d0 30 2c 7d 36 88 fa 41 39 95 fc b5 35 28 05 42 39
       3.7725658e-06 0.00018499244 1.3559062e-06 0.00018503203
0003e0 7e ce 02 35 88 06 42 39 c2 09 3c 34 b4 06 42 39
       4.872926e-07 0.00018503715 1.7512414e-07 0.00018503779
0003f0 b4 8b 71 bc df 78 ba bc 4b 34 4d bc ff f9 b7 3c
       -0.0147427805 -0.022762714 -0.012524675 0.022458075

exp_avg_sq f4 [108, 36]
000000 8e af 0e 3a 8c a6 65 39 ee e0 c1 39 52 32 d5 39
       0.000544303 0.00021901185 0.00036979414 0.00040664017
000010 91 2b 1d 3a 1a 38 83 37 6a b1 4f 39 36 78 36 3c
       0.00059955666 1.5642541e-05 0.0001980715 0.011137059
000020 ee b7 eb 3b 28 4d ac 3b f7 fc ea 3b d1 64 2e 3b
       0.007193557 0.005258221 0.007171269 0.0026610384
000030 a9 b9 bd 3a ba e2 35 3b ae 49 f1 39 b4 e1 a6 39
       0.0014474887 0.0027753548 0.00046021998 0.0003183015
000040 fe 49 05 3a 9f 75 f6 39 16 7f 3d 36 a4 eb ff 35
       0.0005084573 0.0004700841 2.8237168e-06 1.9067561e-06
000050 ee b0 f4 36 ed c7 e1 36 8f f3 ca 36 a8 d6 4f 37
       7.292364e-06 6.728797e-06 6.048423e-06 1.238814e-05
000060 6a 5b 8d 35 7e 93 97 37 54 d2 17 34 6f fc 9f 37
       1.0531924e-06 1.8069284e-05 1.4139488e-07 1.9071826e-05
000070 9e a7 9d 32 e1 1d a1 37 1a 00 23 31 75 43 a1 37
       1.8353429e-08 1.9206609e-05 2.371968e-09 1.9224108e-05
000080 bf 6e a8 2f 57 48 a1 37 7a 08 2e 2e ef 48 a1 37
       3.0637712e-10 1.9226381e-05 3.9570548e-11 1.9226658e-05
000090 eb 4e 2c 3a 44 ee 9e 39 a4 dc 0a 3a 5d 66 07 3a
       0.0006573039 0.0003031363 0.000529716 0.00051650946
0000a0 67 10 52 3a 08 bf c0 37 25 1e 8b 39 00 d8 7b 3c
       0.00080133084 2.297714e-05 0.00026534605 0.015371323
0000b0 f4 a7 1e 3c ff 00 ec 3b ee 06 22 3c f7 ca 77 3b
       0.009683598 0.007202267 0.0098893475 0.0037810185
0000c0 b1 07 05 3b 4a 79 80 3b 92 2f 2b 3a c6 f4 f1 39
       0.0020298774 0.003920709 0.0006530221 0.00046149472
0000d0 0f 92 2f 3a 44 2b 20 3a 65 44 86 36 17 cd 28 36
       0.00066974846 0.00061099627 4.0014734e-06 2.5153329e-06
0000e0 f7 ac 29 37 5d c0 1d 37 a7 e2 07 37 4a 97 90 37
       1.01134565e-05 9.402717e-06 8.099399e-06 1.7236587e-05
0000f0 1f 56 be 35 91 11 d0 37 60 95 4c 34 9a 58 db 37
       1.4181168e-06 2.4803712e-05 1.9053323e-07 2.6148093e-05
000100 f0 76 d4 32 20 dd dc 37 f8 ab 5b 31 9d 0f dd 37
       2.4734135e-08 2.6329013e-05 3.1966447e-09 2.6352523e-05
000110 2a fe e2 2f 14 16 dd 37 5d 8a 6a 2e fb 16 dd 37
       4.1289755e-10 2.6355534e-05 5.332833e-11 2.6355954e-05
000120 19 23 bd 38 34 0d 55 38 d6 99 06 39 76 ca 90 38
       9.01876e-05 5.0795454e-05 0.00012836544 6.9041664e-05
000130 e0 6c 04 39 08 e6 aa 36 76 7f 59 38 62 97 29 3b
       0.0001262906 5.093174e-06 5.185554e-05 0.0025877585
000140 b8 94 da 3a d4 6e 97 3a 9c 25 d9 3a 54 45 2d 3a
       0.0016676402 0.0011553415 0.0016566995 0.0006609757
000150 be ca c2 39 a7 18 44 3a b0 00 e9 38 8b a4 b3 38
       0.00037153618 0.000748048 0.00011110434 8.566034e-05
000160 f6 ec cc 38 84 b9 ba 38 7d f7 6d 35 98 bf f4 34
       9.7716154e-05 8.903726e-05 8.8649523e-07 4.5587944e-07
000170 fe 64 05 36 da aa e9 35 25 0f cd 35 56 24 5a 36
       1.987733e-06 1.7409577e-06 1.5278098e-06 3.2505682e-06
000180 d5 aa 93 34 eb 5d 9c 36 2f 4e 1f 33 21 0b a5 36
       2.750518e-07 4.660096e-06 3.709118e-08 4.9186788e-06
000190 6e 85 a5 31 54 37 a6 36 7d 25 2b 30 55 5e a6 36
       4.8173012e-09 4.9536266e-06 6.226271e-10 4.958167e-06
0001a0 0d da b0 2e 49 63 a6 36 7d bb 36 2d f5 63 a6 36
       8.042287e-11 4.958744e-06 1.0387133e-11 4.958822e-06
0001b0 2f 40 42 38 7a 8b db 37 71 e3 83 38 17 cc 1e 38
       4.631298e-05 2.6171783e-05 6.288931e-05 3.786021e-05
0001c0 05 ab 8b 38 ca 5a 33 36 c0 f4 d4 37 18 13 b0 3a
       6.6598914e-05 2.6725925e-06 2.538634e-05 0.0013433425
0001d0 21 d7 5f 3a e9 38 1f 3a 4d 0b 62 3a 66 11 b3 39
       0.00085388316 0.0006073849 0.00086229 0.00034154503
0001e0 76 20 48 39 03 7f c7 39 99 e2 6e 38 ad 8e 37 38
       0.00019085579 0.0003805087 5.6954657e-05 4.3763477e-05
0001f0 b3 b1 5b 38 50 29 47 38 78 8c d7 34 6d 6f 7e 34
       5.2379164e-05 4.7483773e-05 4.0149075e-07 2.369613e-07
000200 11 52 86 35 18 74 64 35 cf 66 53 35 a5 f1 d4 35
       1.0007662e-06 8.510556e-07 7.875323e-07 1.5865559e-06
000210 56 65 18 34 1f eb 1a 36 53 6b a4 32 6e d4 23 36
       1.4192969e-07 2.3084647e-06 1.9140918e-08 2.4412543e-06
000220 02 d6 2a 31 d5 08 25 36 61 a4 b0 2f de 30 25 36
       2.4859905e-09 2.4592057e-06 3.2131012e-10 2.461536e-06
000230 da 87 36 2e 09 36 25 36 9d 99 bc 2c a3 36 25 36
       4.150267e-11 2.4618369e-06 5.360336e-12 2.4618719e-06
000240 1b b4 3d 3a 63 b9 d9 39 de b9 38 3a 7e 9f 26 3a
       0.00072366156 0.0004152759 0.00070467393 0.00063561636
000250 68 64 88 3a 86 57 08 38 bf 0d ae 39 a1 85 aa 3c
       0.00104059 3.250644e-05 0.00033198108 0.020815672
000260 48 0d 4d 3c b9 86 1f 3c d9 45 5b 3c 3e 4c ae 3b
       0.0125153735 0.00973671 0.013383352 0.0053191474
000270 dd c8 35 3b 44 12 b0 3b 85 f4 71 3a 62 f7 2d 3a
       0.0027738132 0.005373271 0.00092298567 0.0006636289
000280 4c 4e 62 3a 6b d4 48 3a 34 3c bb 36 b8 de 56 36
       0.0008632883 0.0007661047 5.580043e-06 3.2018124e-06
000290 96 42 66 37 ba af 50 37 46 a8 27 37 49 18 c2 37
       1.37245715e-05 1.2438681e-05 9.993155e-06 2.313791e-05
0002a0 83 13 ec 35 59 e6 07 38 6e f4 7d 34 0c da 0e 38
       1.7589049e-06 3.2401036e-05 2.3651384e-07 3.405851e-05
0002b0 26 e2 03 33 d4 c9 0f 38 e1 5b 88 31 f2 e8 0f 38
       3.0706495e-08 3.4281824e-05 3.9685664e-09 3.4310804e-05
0002c0 57 e7 0c 30 fc ec 0f 38 cb 96 91 2e 7f ed 0f 38
       5.1260457e-10 3.4314566e-05 6.620623e-11 3.4315042e-05
0002d0 6f 5a bd 39 36 e6 4f 39 9d 5c ae 39 cf 3a a0 39
       0.00036116267 0.00019826819 0.00033256868 0.00030561394
0002e0 85 18 03 3a e1 87 7f 37 49 97 28 39 f1 13 23 3c
       0.0005000907 1.5230821e-05 0.00016078087 0.009953485
0002f0 aa b7 c5 3b e3 68 98 3b bd a8 d1 3b 21 da 25 3b
       0.0060338574 0.0046511753 0.006398289 0.0025307017
000300 51 48 ad 3a 8f bb 27 3b 4d 04 e7 39 9d fb a4 39
       0.0013220405 0.0025593971 0.00044062958 0.00031467984
000310 77 c6 d8 39 6d 13 c2 39 90 e2 30 36 0c d3 cc 35
       0.00041346598 0.00037017037 2.635792e-06 1.5260607e-06
000320 1a 4f df 36 8a ed c7 36 87 65 a0 36 bf 79 3c 37
       6.6551265e-06 5.9583153e-06 4.780191e-06 1.1234019e-05
000330 81 98 60 35 5f 92 83 37 c1 6f f1 33 de 34 8a 37
       8.3668425e-07 1.5684576e-05 1.1242765e-07 1.64755e-05
000340 12 be 7a 32 85 19 8b 37 c7 9f 01 31 32 37 8b 37
       1.4595132e-08 1.6581975e-05 1.8862794e-09 1.6595794e-05
000350 b4 f1 85 2f 0b 3b 8b 37 ed 65 0a 2e 84 3b 8b 37
       2.43643e-10 1.6597585e-05 3.1468095e-11 1.6597805e-05
000360 65 47 11 38 f4 5b ec 36 fe 5c 4a 37 83 53 bc 37
       3.4637185e-05 7.044053e-06 1.206179e-05 2.2450235e-05
000370 e7 e5 cf 37 8d 3b ec 34 fe 30 0b 37 ae 5c c0 39
       2.478338e-05 4.4001754e-07 8.2964525e-06 0.00036690145
000380 5a 4d 94 39 46 bb 3f 39 2e 00 7b 39 6f 40 92 38
       0.0002828639 0.00018284944 0.00023937292 6.973824e-05
000390 24 4a 38 38 75 08 a9 38 e6 8e 4a 37 38 76 f1 36
       4.3938067e-05 8.060123e-05 1.2073409e-05 7.196122e-06
0003a0 5f 0e c4 37 4b 3b bd 37 56 06 d9 33 b8 66 e1 33
       2.3371713e-05 2.2558166e-05 1.01060024e-07 1.04960634e-07
0003b0 3d ec 65 34 c9 5a 7a 34 ae f2 8f 34 ed 12 c2 34
       2.141323e-07 2.3316092e-07 2.6812398e-07 3.6149086e-07
0003c0 a5 4e 4b 33 49 bd 24 35 4d a8 da 31 a5 de 30 35
       4.7336147e-08 6.1370207e-07 6.3637686e-09 6.58891e-07
0003d0 ef 18 63 30 d6 80 32 35 93 cd ea 2e 2e b7 32 35
       8.261755e-10 6.649765e-07 1.0677605e-10 6.657673e-07
0003e0 d8 a0 72 2d 19 be 32 35 4f b2 fa 2b f6 be 32 35
       1.3791822e-11 6.6586796e-07 1.7813059e-12 6.658805e-07
0003f0 f3 5f f0 3a e8 9d 6c 3a f5 1f cb 3a 56 c3 c7 3a
       0.0018339142 0.00090262154 0.0015497195 0.001524071

exp_avg f4 [108]
000000 6c 85 0c 3b 50 82 39 3b 19 68 d7 3a b4 77 76 3a
       0.002144183 0.0028306432 0.0016434222 0.00094019924
000010 87 85 6e 3b 0d 15 25 bb ba 06 42 39 62 9e a5 bb
       0.0036395506 -0.002518955 0.00018503788 -0.005054281
000020 b2 c3 b1 bb 60 be 3c 3a b6 9e d3 ba 50 bb 98 b9
       -0.00542494 0.0007199999 -0.0016145322 -0.00029131258
000030 c4 c3 02 bb 9b 2b ca 3b 36 3a 62 3a 42 35 b1 ba
       -0.0019953111 0.006169749 0.000862989 -0.00135199
000040 09 49 cb 3a df 01 66 3b 6d 9b 4a bb ed dc 04 3b
       0.0015509437 0.003509633 -0.0030915395 0.0020273284
000050 30 be 26 3b 84 cb 0d ba 8e 0c 16 bb a5 f1 68 ba
       0.002544295 -0.00054090493 -0.0022895667 -0.00088861055
000060 4f 15 fa 3a 82 a4 3f 39 2d e9 bb 3a a4 9b 51 3b
       0.0019079837 0.00018276463 0.001433646 0.0031983638
000070 47 e3 bd 3b 10 01 fd ba 46 51 e2 ba 02 70 b4 bb
       0.005794916 -0.0019302685 -0.0017266653 -0.0055065164
000080 bc 2c 6b bb 55 4b 7f bb 94 e3 7f bb 04 48 0b 3b
       -0.0035884818 -0.0038954813 -0.003904556 0.0021252641
000090 43 45 76 31 32 af 63 31 00 ac b1 31 e7 e7 20 32
       3.5837082e-09 3.3132435e-09 5.170932e-09 9.365954e-09
0000a0 b0 bf 39 32 87 66 8d b1 f8 27 c9 2f 94 83 25 b2
       1.0812002e-08 -4.115296e-09 3.6590087e-10 -9.6341815e-09
0000b0 30 62 01 b2 20 50 dc 30 49 69 dc b1 b6 fe 6c af
       -7.5311135e-09 1.602988e-09 -6.4148122e-09 -2.1554566e-10
0000c0 6e ca 09 b2 a6 4f 8a 31 8e b4 b0 31 12 31 05 b2
       -8.020477e-09 4.0253836e-09 5.142801e-09 -7.752776e-09
0000d0 1c d9 ec 31 fb 7b 3f 31 41 dc 85 2f db ff 3e 32
       6.8931865e-09 2.7864633e-09 2.434906e-10 1.111763e-08
0000e0 3c df 26 32 fe 17 5f b1 a6 43 9b b1 8f 14 fe ae
       9.713229e-09 -3.246441e-09 -4.5187845e-09 -1.15542347e-10
0000f0 a9 a0 77 31 a1 8e ec b1 4d d3 8c 31 79 81 a9 31
       3.6034555e-09 -6.884719e-09 4.0985584e-09 4.9332667e-09
000100 a7 59 80 31 36 61 78 b2 7b 18 2b b0 ca c4 97 b1
       3.7354826e-09 -1.4457603e-08 -6.2244226e-10 -4.4170507e-09
000110 d9 d0 b8 b1 fe a8 46 b2 72 27 9d b1 93 03 e2 31
       -5.378848e-09 -1.1563541e-08 -4.573786e-09 6.577872e-09
000120 8a 98 39 3b ba 08 81 ba a9 9f 21 bb fc 3f 41 3b
       0.002831968 -0.000984452 -0.0024661815 0.00294876
000130 28 dd e9 ba 07 46 ee 39 00 be 9e bb a9 83 55 bb
       -0.0017842399 0.00045447072 -0.004844427 -0.0032579696
000140 ae c3 85 ba ff 41 e6 b8 bf 8d ef ba 61 9b f7 ba
       -0.0010205412 -0.000109795474 -0.0018276497 -0.0018890911
000150 a8 83 c4 ba 12 a5 d6 3a c9 32 d5 ba 70 e8 35 3b
       -0.001499285 0.0016376099 -0.0016265746 0.0027756952
000160 2b c0 89 bb 2b 80 de 3a 05 02 98 3b 2a fe c2 3b
       -0.0042038164 0.0016975453 0.0046389126 0.005950709
000170 e6 c8 3f 3b 49 1f be 3b 22 34 ea 39 1a 21 a0 3b
       0.0029264032 0.0058020693 0.000446708 0.0048867585
000180 3f aa 0c 3b 80 52 3a 3a f2 4b 6e 3b b2 e5 8a b9
       0.002146378 0.00071076304 0.0036361185 -0.00026492547
000190 4f 9e cf bb 98 ff 8f bb 5b de dd 3a 3b bb d3 b8
       -0.0063360105 -0.004394483 0.0016927229 -0.000100961384
0001a0 ff e6 87 3b 11 24 b9 3b 02 a6 9e bb 84 ae 4b bb
       0.00414741 0.0056500514 -0.004841567 -0.0031079361
