SensorFormer/SensorFormer/result/ensemble/LCS11_9.pt (torch, 81661 bytes, 35 tensors)

self_attn.qkv_proj.weight f4 [108, 36]
000000 e5 16 56 be de b9 1b 3e ab 7d 48 3e 61 a7 fb 3d
       -0.20907171 0.15207621 0.19579189 0.12287784
000010 0b cf 17 be 8a 21 36 3e 21 97 0a be d8 51 d8 3d
       -0.14825074 0.17786232 -0.13534214 0.105624855
000020 d8 96 c2 ba f8 fd b7 bd 59 cf 23 be c1 c4 06 be
       -0.001484598 -0.089839876 -0.15997066 -0.13160993
000030 33 a5 9f bd 79 bc 96 bc 9c 49 6e 3e 55 5e 9b 3d
       -0.07795181 -0.018400418 0.23270267 0.07586352
000040 df b5 a6 3d 60 c1 63 3e bf c8 0e 3d 4d 8b 62 bd
       0.08140158 0.22241735 0.034859415 -0.05530863
000050 dc 23 f7 bd 36 e6 dd bd fe 6f 9a bd 92 4b 56 bd
       -0.120673865 -0.10834925 -0.07540892 -0.052318163
000060 d2 51 28 be 6d 26 cd bd a7 07 95 bc ef 0d 4a bc
       -0.16437462 -0.10017095 -0.018192125 -0.012332424
000070 4d 70 0e bd da ae e7 3c 02 54 b9 bd 5a 27 13 be
       -0.034775067 0.028281618 -0.09049226 -0.1437048
000080 b6 8e 01 be 09 66 2a 3e 88 2e 02 3e 90 f1 3a be
       -0.12652096 0.16640486 0.12713063 -0.18256211
000090 a5 0e 53 be 25 51 f6 3c 0c ef f0 bc 94 2b f1 3d
       -0.20611055 0.03006799 -0.029410861 0.1177589
0000a0 32 a6 cd bd f3 cf 4f 3d 85 78 9b bc 6a 54 12 be
       -0.10041465 0.050735425 -0.018978367 -0.14290014
0000b0 98 1d d6 39 93 a1 2d 3e 8f 4e 21 3e cc e0 8b be
       0.0004083931 0.16956167 0.15752624 -0.27319944
0000c0 e4 fc 87 3d 8d c4 53 3e 48 f0 dd 3d 47 f5 0f 3e
       0.06640032 0.20680447 0.10836846 0.1405841
0000d0 78 e5 d9 3d 9a 25 22 3d 81 d3 dc bd ab 09 0f 3e
       0.10639471 0.03958664 -0.10782529 0.13968532
0000e0 3e 5c e7 3d 59 6f 2d be 6a de 1b 3e 30 01 11 3e
       0.11296891 -0.16937007 0.15221563 0.14160609
0000f0 1d 81 24 3e f2 fd d3 bd df c8 89 bd e0 8c e5 3d
       0.16064878 -0.103511706 -0.06727766 0.112085104
000100 9b fc 18 3e 15 34 2e be 68 1b 2a 3e f0 2a ad 3d
       0.14940111 -0.17012055 0.16612017 0.08455455
000110 d1 94 80 3d e4 7a 8a bd d4 6b ac bc 77 2e d9 3d
       0.062783845 -0.06761721 -0.02104751 0.106045656
000120 48 1f 87 bc 5e 60 28 3e e0 ae e9 bd 44 30 59 bc
       -0.016494408 0.16443011 -0.11410308 -0.013256136
000130 80 e4 a0 bd f9 9c df 3c bb 24 b3 3d b4 a4 3f 3d
       -0.07856083 0.02729653 0.0874724 0.046787933
000140 2a e2 78 bd 3b f1 c4 bd 1a 0f 09 3e 5c 34 8d bd
       -0.06076256 -0.096163236 0.13384667 -0.068947524
000150 a0 58 b8 3d 5e 79 c9 3d 73 1b 08 3e e6 27 22 3e
       0.09001279 0.09837602 0.13291721 0.15835533
000160 e4 51 d9 3d 5d 0e e9 bd d5 b8 a1 bd dd 1e 9b 3d
       0.106113225 -0.11379693 -0.07896582 0.07574246
000170 ae c0 0a be 0c dd d1 3d d8 aa e2 bd 60 a6 1c bd
       -0.13550064 0.102472395 -0.11067742 -0.038244605
000180 5b 90 9b bd 42 41 b6 bd b2 fd 05 bc aa ff 12 3e
       -0.07595893 -0.08899166 -0.008178161 0.1435534
000190 3d 7f 1e bd 9f c7 b6 bd fd ae ec 3d f0 a4 f9 bd
       -0.038695563 -0.089247935 0.11556814 -0.121896625
0001a0 e4 86 06 3c 45 ac f7 bc d7 b1 84 3c bd 32 a2 3d
       0.008210871 -0.030233512 0.016198082 0.07919834
0001b0 ea e4 60 3c ff 5e 8b bd 3b 8f 12 3e f8 de cc 3d
       0.013726452 -0.068052284 0.1431245 0.100034654
0001c0 f6 90 9c bd 6c 53 08 3d 54 2d 88 bd 6e 97 b8 ba
       -0.076448366 0.033282682 -0.06649271 -0.0014083216
0001d0 6d 76 c1 bd 93 61 0c 3d 1c c7 67 3e 20 d5 08 be
       -0.09446416 0.03427274 0.22634548 -0.1336255
0001e0 ac dd 36 be 1e 15 3b 3e 9c 2d 1f bd 09 26 62 3e
       -0.17857999 0.18269774 -0.038861856 0.22084822
0001f0 5b 99 2d 3d 2a 70 d1 bc ba 0c 39 bd a2 07 20 be
       0.04238258 -0.02556618 -0.045178153 -0.15627912
000200 2b 57 3e 3e 47 db 12 be be 1a 9c 3c a2 50 e3 bd
       0.1858794 -0.1434146 0.01905572 -0.11099364
000210 62 fe 15 3e 14 4e b5 3d 40 97 24 3e fa f2 c0 bd
       0.1464782 0.08852783 0.16073322 -0.09421344
000220 ec c5 71 3d 29 59 2e be c2 8a dd 3d bf db 8e bd
       0.059026644 -0.170262 0.108174816 -0.06975507
000230 5e 02 6a 3d d8 75 b4 3d 5d 0d 05 be 0b 94 d2 3d
       0.057131164 0.088115394 -0.12993379 0.10282143
000240 a3 4e 26 be 26 8f e1 3d 05 29 37 3d 0f a7 cb 3d
       -0.16240935 0.110136315 0.044716854 0.09943973
000250 85 ea 6b bd 00 3a 4f 3e bc 9b dd 3d f7 f8 34 3c
       -0.057596702 0.20236969 0.108207196 0.011045686
000260 46 a0 84 3c 30 42 7c be bc 60 0e bd a4 70 51 be
       0.016189706 -0.24634624 -0.03476022 -0.20453125
000270 ce b4 58 3d 81 15 67 3c 33 de 55 3e 95 68 c3 3d
       0.052906804 0.014104248 0.20885544 0.09541432
000280 29 00 85 be d1 e6 2b 3e 0f 55 ee 3b 3f f7 9a bd
       -0.25976685 0.16787268 0.0072733234 -0.0756669
000290 df aa de 3d b7 80 77 be 3f 66 35 3d de b6 b7 3d
       0.10872435 -0.24170195 0.044286963 0.08970426
0002a0 2d 52 dd bd e1 70 7c 3d c5 fb b9 3d 45 3f 44 bb
       -0.108066894 0.061631087 0.09081224 -0.0029944938
0002b0 17 4c 46 be c9 1d 3f 3d e6 31 28 3e 31 f9 8f bd
       -0.19364963 0.046659265 0.16425285 -0.07029951
0002c0 31 44 8a 3d b7 8b d3 3d cb 1c 1e be 49 cf 64 be
       0.06751288 0.10329383 -0.15440671 -0.22344698
0002d0 28 41 e1 3d b2 da f1 bc 0d 8a 31 be c9 84 6b be
       0.10998756 -0.029523227 -0.17337818 -0.22999872
0002e0 7a 6f b8 bd 98 77 07 3d 81 4f 36 bd a1 02 34 be
       -0.090056375 0.033073038 -0.044509415 -0.17579128
0002f0 89 73 e4 bc 88 b3 a3 3b 7d 1f 45 be 1b 41 4a 3e
       -0.027887123 0.004995767 -0.19250293 0.19751398
000300 43 89 3d 3e fb 3d ca 3d 69 1a 92 be 60 72 85 be
       0.18509392 0.09875103 -0.28535774 -0.26063824
000310 54 46 f9 bd 4b fe ea 3d 61 19 21 bd 2f 01 7f 3e
       -0.12171617 0.11474284 -0.039330844 0.24902795
000320 c2 1d 79 bd 57 aa 94 3d 64 e2 08 3e f7 b0 b8 bd
       -0.060819395 0.07259052 0.13367611 -0.09018128
000330 b9 a3 a1 3d ed e4 c0 3d 1b 49 1b 3d a8 3e 97 bd
       0.07892556 0.09418664 0.037911516 -0.073849976
000340 09 b9 1e be 2e 06 21 3d cd 67 39 be 63 5b 84 bd
       -0.15500273 0.039312534 -0.18106003 -0.06462743
000350 09 1c cd 3c 95 e8 f1 3d 12 15 11 3e 9e d0 26 be
       0.025037782 0.118119396 0.14168194 -0.16290519
000360 76 fb 94 bd 5c ad bc 3c 5a 32 1c bd 98 07 b6 bd
       -0.07274525 0.023031883 -0.038133956 -0.08888167
000370 04 d2 e1 bd d1 8f 43 bd 5e 68 40 bd d5 88 ff bd
       -0.110263854 -0.047744576 -0.046974532 -0.124772705
000380 4f 16 86 3d 23 34 f2 bd fe c0 33 be 06 bf d2 3d
       0.06547224 -0.118263505 -0.1755409 0.10290341
000390 d1 a4 e6 bd cc 15 03 3e f5 54 23 be 3e 00 38 be
       -0.11261905 0.12801284 -0.15950377 -0.17968842
0003a0 e6 dc 7c 3e 71 41 b3 3c a0 72 46 3e 83 cc 7d 3e
       0.24693641 0.02188179 0.19379663 0.24785046
0003b0 95 20 11 3e 4e 35 3a 3e cf 71 bb 3d 7a 43 09 be
       0.14172585 0.18184397 0.09152567 -0.13404647
0003c0 e6 d0 94 bd b6 81 0e bd 01 c8 91 bc 14 e1 0b 3e
       -0.07266407 -0.03479167 -0.017795565 0.13660079
0003d0 c7 ff 27 3d 63 34 46 be 63 50 01 3d ae 4e 53 bb
       0.041015413 -0.19355921 0.031570803 -0.0032242942
0003e0 cb 45 91 3d d6 35 c6 bd 3a 2b 17 3e c1 49 1a be
       0.0709339 -0.09678237 0.14762583 -0.15067197
0003f0 40 b9 80 3e db 66 a0 3d 93 8d 87 be 47 88 91 be
       0.25141335 0.07832118 -0.264752 -0.28424284

self_attn.qkv_proj.bias f4 [108]
000000 96 a5 47 bc 27 57 3f bc 4c 70 0a bd 9d 96 b9 bb
       -0.012185475 -0.011678494 -0.0337985 -0.0056637065
000010 7c 79 33 bd 21 dd 7e ba 17 fd 69 bc e0 a5 5b 3d
       -0.04381703 -0.0009722282 -0.014281533 0.053624988
000020 34 a5 13 3d 18 03 82 bc e1 7f 56 3d c9 e9 2f bb
       0.03604622 -0.015870616 0.05236805 -0.0026842228
000030 67 0a a2 bb d0 dd 1f bc de fe ec bc c7 52 18 3d
       -0.0049450877 -0.009757474 -0.028930124 0.037188318
000040 4f 73 cc ba 2b c8 4a bd fd 52 0d 3c a4 3b 5e bd
       -0.001559833 -0.0495073 0.008625743 -0.054256096
000050 7a 79 b5 bd 64 58 96 3c 16 fe 56 3d 64 48 cb 3c
       -0.088610604 0.018352695 0.05248841 0.024814792
000060 6a 49 76 bd da 9d 51 3d ee 38 46 3d ac e6 41 3c
       -0.060128607 0.05117593 0.048394136 0.011834782
000070 4a ea 60 bd ca db d2 3c 31 a2 ad 3c e5 fa e3 3d
       -0.054910935 0.02573957 0.021195503 0.11131839
000080 d4 6d c7 3d 85 04 5b 3d 05 3f 81 3d c6 fe a8 bc
       0.09737745 0.053471107 0.06310848 -0.020629298
000090 b8 21 7d 3c 8f 16 41 3c c7 11 4e 3c 26 6c 9a bc
       0.015449934 0.011785164 0.012577481 -0.018850397
0000a0 c3 05 e2 b9 58 81 94 bc 69 af 1a 3b 2c c8 38 3c
       -0.00043110372 -0.018128082 0.0023603088 0.011278193
0000b0 c7 1c 17 3c 0f 75 80 bb a0 f4 a1 3c 38 ab 04 bd
       0.00922317 -0.0039202045 0.019769967 -0.03238985
0000c0 21 8f e0 bb a7 f7 82 3c c3 1f 81 ba 39 38 be 3c
       -0.006853 0.01598723 -0.0009851385 0.023220168
0000d0 ce 33 a6 bc 37 84 9a 3c f9 1d 10 bb 1f af e3 3a
       -0.020288374 0.018861873 -0.0021990521 0.0017370916
0000e0 a5 5e f7 bc 4c d5 6d bb c1 50 f3 bb 6c 49 08 bd
       -0.030196497 -0.0036290465 -0.007425398 -0.033273146
0000f0 6d c6 2f ba c7 ff cc bb 96 55 d1 3c 3f be b4 bb
       -0.0006705288 -0.006256077 0.025553506 -0.005515843
000100 3c 3c b9 bb b4 eb b0 bb e4 19 02 bd 67 2e d0 3b
       -0.0056529325 -0.0053991918 -0.031762972 0.006353188
000110 5d 87 a4 3c 85 7f f2 3c e8 c7 81 3b 52 04 ff bb
       0.020084077 0.029601822 0.0039605983 -0.0077824974
000120 ba 39 98 3d 7a f8 e4 bc 44 2a c0 b9 22 c8 39 3d
       0.074328855 -0.027950514 -0.00036652584 0.045356877
000130 29 1e 74 bb 5d 55 36 bd f1 ba 2e be 1c e1 2b bd
       -0.0037249422 -0.044515003 -0.170635 -0.041962728
000140 8a 88 de bb 80 45 76 3c 44 0e b2 3c 95 6a b1 bd
       -0.006791179 0.0150312185 0.021735318 -0.08662907
000150 e0 90 99 bd 03 02 19 3d df 1d a1 bd 39 be 15 3e
       -0.07498336 0.037355434 -0.078670256 0.14623345
000160 56 24 95 be 91 85 b3 3d 7c d4 4d 3d d0 be 33 3e
       -0.29129285 0.0876571 0.05025147 0.17553258
000170 0f 93 c5 3d c8 34 2f 3e 54 d0 01 bd cb 13 3c 3e
       0.0964719 0.17109978 -0.031692818 0.18366925
000180 30 6b f0 3d 87 12 2b 3c d4 27 e9 3d cf 75 37 bd
       0.117391944 0.010441429 0.1138455 -0.044790085
000190 5f 68 1b be 8d 15 44 be 01 1d 8f 3d ac b3 60 3d
       -0.15176533 -0.19148846 0.06987954 0.05485885
0001a0 ce 36 43 3e 1b f9 0e 3e 24 ac 66 be 1b 91 3a be
       0.19063875 0.13962214 -0.22526604 -0.18219416

self_attn.o_proj.weight f4 [36, 36]
000000 ff 31 7f 3e b0 f9 49 bd 3d 49 47 3e 4d 5e d1 3d
       0.24921416 -0.049310386 0.19461532 0.102230646
000010 c8 b4 ab 3d 49 8c 95 bd 86 0f 8a 3d 96 99 3a bd
       0.08384091 -0.07302148 0.06741242 -0.045556627
000020 42 9e b0 3d 1e ee c6 bc 3b 21 84 be 8f b8 83 3e
       0.08623935 -0.024283465 -0.25806603 0.25726745
000030 96 e7 6e be e6 36 68 3e 84 b6 e6 bd c7 1b 98 3d
       -0.2333053 0.22677192 -0.11265281 0.07427173
000040 e6 92 5c 3e c4 93 60 be 8b 3c 20 be 83 3a a6 3e
       0.21540412 -0.21931368 -0.15648095 0.32466516
000050 6a e6 18 be 42 73 0f 3e 2d ad 73 3e 02 20 4d be
       -0.14931646 0.14008811 0.2379653 -0.20031741
000060 56 10 43 be 97 b4 fd bd 38 f4 56 3d fc 39 2f be
       -0.190492 -0.123879604 0.052479 -0.17111963
000070 a0 3e 33 3e fe 37 54 be 9e 69 2d be 86 6a 37 bd
       0.17504358 -0.20724484 -0.16934821 -0.044779323
000080 42 82 7f bd c0 0c cf 3e 34 d4 3f 3e 86 ad 78 3d
       -0.062380083 0.40439415 0.18733293 0.06071236
000090 a7 84 90 3e 5f 71 98 3d 3a 28 08 bc 69 e0 a8 3e
       0.28226206 0.07443499 -0.008310372 0.3298371
0000a0 cd 6d 21 3e 72 c6 2e be 80 03 3a 3d 01 00 91 3b
       0.15764542 -0.17067888 0.045413494 0.0044250493
0000b0 8e 56 3b be cd 61 a0 3e 2a bd 32 3e 6b 31 80 be
       -0.18294737 0.31324616 0.17454973 -0.25037703
0000c0 d1 a1 89 be ea 8b 52 3e 6f 57 bf 3d e2 98 9a 3e
       -0.2688127 0.20561185 0.093428485 0.30194765
0000d0 53 de 87 be 88 33 23 3e bb d9 5d 3e a9 9a 16 3e
       -0.26536807 0.15937626 0.21665089 0.14707436
0000e0 6e be 6f 3e 46 da 77 3e ab ca fb bd 1e 87 89 3d
       0.23412487 0.24204358 -0.12294515 0.06715225
0000f0 0b 2a d8 bc 21 db 00 be 7c f3 9f 3e 2e ab ed 3d
       -0.026387235 -0.12583591 0.3124045 0.116049156
000100 16 76 8d be 19 fa 7d be cb e7 02 be 34 71 10 3e
       -0.27629155 -0.24802436 -0.12783735 0.14105684
000110 7e 66 03 3b ce f4 4c 3e ae 11 45 3c 20 33 b0 be
       0.0020050104 0.2001526 0.012028141 -0.34414005
000120 26 29 2c 3e ce 29 ea bd ef b4 b7 3e a0 69 ef 3d
       0.16812572 -0.11433755 0.3588023 0.11690068
000130 0f be 00 3e 51 63 6d be f0 7a 12 bd 41 5b f4 3c
       0.12572502 -0.23182417 -0.035761774 0.02982867
000140 89 6d f3 3d 25 92 6c 3e 13 a7 ce 3e 84 9a 83 3e
       0.118861265 0.23102625 0.40361843 0.25703824
000150 6a 34 09 be 38 b8 3e 3e 15 eb 0f 3e a6 33 76 be
       -0.133989 0.18624961 0.1405452 -0.2404314
000160 b1 c0 20 3e de a1 93 be f9 7a 8a be d2 16 45 be
       0.15698506 -0.28834432 -0.27046946 -0.19246987
000170 7a e4 20 3d 61 1f 60 be 36 3e 81 bc d4 64 aa bb
       0.039280392 -0.2188697 -0.015776735 -0.005200008
000180 44 21 af bd 49 c4 df 3d c9 d5 6b be 14 11 8a 3e
       -0.08551267 0.1092611 -0.23030771 0.26966155
000190 b8 6f 1e 3c 91 8d c1 3d d0 5a 7d bd 3a ae 5f 3d
       0.0096701905 0.0945083 -0.061854184 0.054609515
0001a0 c4 87 44 3c 87 25 d0 be 63 4d 95 3e b7 1f 19 be
       0.01199526 -0.4065363 0.29160604 -0.14953505
0001b0 3e 97 36 be d0 5f 49 3b 09 43 18 3e 44 0a 21 be
       -0.17831132 0.0030727275 0.14869322 -0.15726572
0001c0 9b bf cd 3d 28 d5 1d 3e a0 07 1b 3e 44 dd b2 3e
       0.100463115 0.15413344 0.15139627 0.34934437
0001d0 6d 9b 87 3e 9c b9 4d 3c ca b5 ec 3d d7 4e 3b 3e
       0.26485768 0.01255646 0.11558111 0.18291794
0001e0 57 73 8f 3c 66 14 40 be ba e7 b1 3e df e2 92 bd
       0.017511053 -0.18757781 0.34747106 -0.071721785
0001f0 f7 20 5c 3e de 05 bc 3d 38 0f 85 be 7a b8 aa be
       0.2149695 0.091808066 -0.25988173 -0.3334387
000200 2c 22 c1 be 84 31 8b bd 66 d1 b7 3e 77 98 1a be
       -0.37721384 -0.06796554 0.35901946 -0.15097223
000210 b3 bc f1 bd 21 74 68 3e 86 98 0f bc 39 d4 f8 3d
       -0.1180357 0.2270055 -0.008764392 0.12149853
000220 f3 e5 14 3d 7e 32 73 bd eb 3f ba 3c 19 77 53 be
       0.03635211 -0.059374325 0.022735557 -0.20650901
000230 80 68 0f be 5d 4e 3d be e3 2e e2 3e a8 06 55 3e
       -0.14004707 -0.18486924 0.44176397 0.2080332
000240 79 7b d4 3e 1e f9 0e be 25 20 a3 bd 24 36 a0 bd
       0.41500452 -0.13962218 -0.079651155 -0.078228265
000250 16 b6 1d 3d 45 e1 08 be 32 6d 2d be 78 99 06 be
       0.03850373 -0.13367184 -0.16936186 -0.13144481
000260 d0 a5 c7 be 66 26 d4 3d b4 6b 2e be 7e 6e f8 bb
       -0.38993692 0.103588864 -0.17033273 -0.007581531
000270 8c c5 47 be 07 5c db 3e b9 1b 33 3d 48 f8 cf 3d
       -0.19508952 0.4284365 0.04372761 0.10154778
000280 3c f9 01 be 79 ea 70 3e c2 68 08 bd 2e 97 b4 3e
       -0.12692732 0.23526944 -0.03330303 0.3527159
000290 f8 67 b0 3e a1 6a e2 3d b7 a9 26 3c 50 4a b9 3e
       0.34454322 0.11055494 0.010172299 0.36189508
0002a0 6f 4f ed 3d 06 3e bd 3d ae 4b 58 3e d2 d6 b1 3d
       0.115874164 0.09240346 0.2112262 0.08683552
0002b0 eb 50 bc be 19 29 b8 be 93 13 81 3d e2 08 50 be
       -0.36780486 -0.35968855 0.063025616 -0.20315889
0002c0 cf 97 ce 3e 8f ee 84 3c 66 0e a0 3c 56 16 b1 be
       0.40350196 0.016227035 0.019538116 -0.34587353
0002d0 c5 fe f1 bd 30 79 51 3e 6d 1e 9a bd 59 18 31 3e
       -0.118161716 0.20456386 -0.075253345 0.17294444
0002e0 65 1f ae 3d a7 7e 28 3e 4f fc 0e be 80 c4 fd 3d
       0.08502082 0.16454564 -0.13963436 0.12390995
0002f0 4f 07 33 be 5b d5 8f be fc 1f 0e be 39 39 92 bd
       -0.17483257 -0.28092465 -0.13879389 -0.071398206
000300 1e af 1f 3e b5 ed 85 be 82 6f 8f bd 07 22 37 3c
       0.15594146 -0.2615792 -0.0700369 0.011177546
000310 1d 41 70 be a3 ef a4 be 6c 0f 16 3e 42 f6 68 3c
       -0.23462339 -0.32214078 0.1465432 0.014218869
000320 5e f1 96 be 20 92 83 be d4 2c b3 3e 05 30 09 be
       -0.29481024 -0.25697422 0.3499514 -0.13397224
000330 d0 8f 00 3e c9 30 b0 3c f4 1c f9 bd ba 3d 11 be
       0.1255486 0.021507638 -0.121637255 -0.14183703
000340 45 81 24 3e 46 ee 13 be eb 49 59 3e 3f 7b b9 bd
       0.16064937 -0.14446363 0.21219604 -0.090567105
000350 4a 22 59 3e e8 8e 27 3e 00 12 bf 3c 99 d2 82 3c
       0.21204486 0.16363108 0.023324013 0.015969561
000360 a0 54 15 be 2a 0d 82 be 69 a3 4e 3e e7 c8 2b 3e
       -0.14583063 -0.25400668 0.20179524 0.16775857
000370 08 03 1d 3e 08 bb 5e 3e bd 8b 26 bd 24 4e 34 3e
       0.15333188 0.21751034 -0.04066061 0.17607933
000380 fa 8c 67 be 14 00 66 3e 00 22 2c 3e 6a bf 86 be
       -0.22612372 0.22460967 0.16809845 -0.26317912
000390 a3 4c 05 3e 8f 9e 80 3d 57 ab 09 3e f1 e0 08 3e
       0.13017516 0.06280243 0.13444267 0.13367058
0003a0 da 6e 05 bc c6 b9 ad 3e 31 ce c0 bd 64 94 aa 3d
       -0.008144105 0.33930796 -0.09414328 0.083290845
0003b0 68 89 31 be 30 0c 7f bb c8 38 72 bd 92 2e 34 3e
       -0.17337573 -0.0038917176 -0.059136182 0.1759589
0003c0 ea bd 47 be ab 03 8b be e4 f7 9c be 28 cf 0a be
       -0.1950604 -0.27151236 -0.30657876 -0.13555586
0003d0 23 b9 1a 3e 18 f6 c7 bd 64 f7 a0 be e4 4e 96 3e
       0.15109687 -0.097637355 -0.31438744 0.29357064
0003e0 d9 ac 90 3e 5a 3b 91 3d 4d 6d de bd dc da 1e 3d
       0.28256872 0.070913985 -0.10860691 0.03878294
0003f0 43 11 c8 bb 80 56 7b bd 1f 7f cb 3d 64 7e 96 3d
       -0.0061055734 -0.06136179 0.09936356 0.07348326

self_attn.o_proj.bias f4 [36]
000000 f4 3f a7 3a bf 80 77 3e 2c 23 d1 bd 62 58 78 be
       0.0012760148 0.24170206 -0.10211787 -0.24252465
000010 b7 dc 78 3e 7b 3e 1e bd df d7 75 3d 84 23 a9 bc
       0.24302946 -0.038633805 0.060020324 -0.020646818
000020 57 b7 d7 3c 99 ad 40 bd ae c9 65 bb 28 35 72 3e
       0.02633254 -0.047040556 -0.0035062837 0.2365309
000030 8c c4 2f be f7 80 73 be 22 73 dc bd 69 d7 9d bd
       -0.1716482 -0.23779665 -0.10764147 -0.07707102
000040 99 1a ac 3d b4 18 9f 3d 85 65 96 3d ed 72 f4 bc
       0.084035106 0.077683836 0.07343582 -0.029839957
000050 84 94 02 3c f9 82 57 bd d1 8e c5 bc fb 24 81 3d
       0.007969979 -0.05261514 -0.024115952 0.063058816
000060 51 65 8a 3e be 27 67 3b 5f 24 7a 3e 8c b2 6c 3e
       0.27030423 0.003527149 0.24427937 0.23114985
000070 95 ab dd bd ac ad 6d be 8b c0 5c 3e 8c 30 71 3e
       -0.10823742 -0.23210782 0.21557824 0.23553675
000080 75 8d 58 be e5 fa 85 bd 8e a7 6d be f6 33 ea bc
       -0.21147712 -0.06541995 -0.23208448 -0.02858923

fc.weight f4 [1, 18]
000000 58 e4 e9 bd e2 53 71 be 4f ef 61 3e 40 ea a2 bd
       -0.11420506 -0.23567155 0.22063945 -0.07954836
000010 56 d1 56 be 40 f6 2d be 81 97 6f 3d a6 68 14 3e
       -0.20978293 -0.16988468 0.058494095 0.14493045
000020 26 40 c7 3c 80 9b 16 3d 12 61 06 bd 38 97 20 3d
       0.02432258 0.03676939 -0.032807417 0.039206713
000030 df da a3 bc 93 28 41 3e d7 08 b5 3d 64 0e cf bd
       -0.020001827 0.18863134 0.08839577 -0.10110167
000040 bb 77 ab 3d d3 51 a9 bd
       0.08372446 -0.0826756

fc1.weight f4 [1, 36]
000000 e4 44 5a bf dd 24 1c 3f e6 07 69 3f f6 e0 36 bf
       -0.8526137 0.6099375 0.9102768 -0.71437013
000010 13 1a 23 3f 6c f0 61 bf 85 c8 5c 3f 4d 0a 60 3f
       0.6371166 -0.8825748 0.8624347 0.8751572
000020 c1 26 4d bf fb 9b 53 3f ac ed 79 bf a8 e7 18 3f
       -0.8013726 0.8265988 -0.97628284 0.5972848
000030 44 33 1e bf 54 ee 97 be 7c ee 45 bf f1 e6 85 3f
       -0.61796975 -0.29674017 -0.77317023 1.0461103
000040 13 2d 47 3f 60 ad 34 bf b3 9c 81 bf 8c 6e 81 3f
       0.7780315 -0.7057705 -1.0125946 1.0111861
000050 91 97 72 bf 9e 4c 8c 3f 0e a0 47 bf 5b ed 64 3f
       -0.9476252 1.0960882 -0.779786 0.89424676
000060 eb cc 2b 3f b1 ac 48 bf 55 5b 25 3f ad f4 2a 3f
       0.67109555 -0.78388506 0.64592487 0.66779596
000070 23 18 ec be d4 2b 2a bf 72 6f 36 3f da c2 16 3f
       -0.46112165 -0.66473126 0.712638 0.5889107
000080 8f 3f 0d bf bd d0 5b bf d2 62 2a bf fc b5 66 bf
       -0.5517511 -0.85865384 -0.6655704 -0.90121436

fc2.weight f4 [1, 9]
000000 2c 47 9c be 62 55 a5 be 5b c5 ae bd 16 75 f7 bc
       -0.3052305 -0.32291704 -0.08533736 -0.030207198
000010 a8 fa 7f 3e ae e9 5e be 2c 4b a5 be 56 b9 a8 3a
       0.24997962 -0.21768829 -0.32283914 0.0012872617
000020 e4 0d 9e be
       -0.30869973

fc3.weight f4 [1, 2]
000000 9b 81 02 3f c8 dc 15 bf
       0.5097901 -0.5854001

input_fc.weight f4 [18, 3]
000000 b3 96 cd be c3 8d f4 3e 0b 16 d0 3d 66 ca 7d 3e
       -0.40154037 0.47764406 0.10160454 0.2478424
000010 dd 04 b7 bb 10 00 58 be 46 c1 76 3e 26 2c c7 be
       -0.0055852965 -0.21093774 0.24097165 -0.3890087
000020 fe 8b d1 3e bd 44 ad 3e 88 26 15 bf e2 7d 80 3e
       0.40927118 0.33841506 -0.5826192 0.2509604
000030 11 64 35 be a6 02 bc 3e 24 6c d0 bd 0e d0 0c 3e
       -0.17713954 0.3672077 -0.10176876 0.13751242
000040 dd a1 96 bd c5 1a 8e bc 1d df 40 3e 1e e1 94 3c
       -0.07355092 -0.01734675 0.18835111 0.01817375
000050 59 7c 9b be fe 0f 13 3f d5 f1 8d 3e 84 ca 6c be
       -0.30368307 0.5744628 0.27723566 -0.23124129
000060 08 10 72 3d 5c 94 e5 be b1 82 84 be 5a 3c 5a 3e
       0.05909732 -0.44839752 -0.2588096 0.21312085
000070 f4 42 08 3f 5f c9 f6 be 3d 13 89 be ca 68 dd be
       0.5322716 -0.4820051 -0.2677249 -0.4324401
000080 c8 31 8d 3e b9 1e 28 bf dd 66 2a 3e 51 f9 5b 3e
       0.27577043 -0.6567188 0.16640802 0.21481825
000090 7d d3 87 3e 80 d3 28 ba 6b 37 a2 3d ed 2b fa 3e
       0.2652854 -0.00064402074 0.079207264 0.48861638
0000a0 71 27 7e be 4a 31 72 3e 22 64 e9 3e b9 8c 2a be
       -0.24819733 0.23651615 0.45584208 -0.16655244
0000b0 25 e1 53 be 66 87 d0 3e f0 df 83 be c8 1c 68 3a
       -0.20691355 0.407283 -0.25756788 0.00088543864
0000c0 5f d7 61 be 9e 46 07 3f 6e 03 a0 be ab 81 87 3e
       -0.22054814 0.5284213 -0.31252617 0.26466116
0000d0 e0 75 df be d6 6b d4 3d
       -0.4364462 0.103721306

input_fc.bias f4 [18]
000000 d0 79 10 bd 8f e1 50 be 91 52 3c be 68 31 71 bd
       -0.03527242 -0.20398544 -0.18390872 -0.058885008
000010 c3 60 79 3d 2b 3a ae 3e 99 5d eb be ef b3 cb 3e
       0.060883295 0.34028754 -0.45969847 0.39785716
000020 b9 30 fb be 94 8e 3e be e1 50 00 be 6f a6 76 be
       -0.4906061 -0.18609077 -0.12530853 -0.24086927
000030 07 bc 6a 3e 7d 74 b5 3e 30 f1 82 be 7a 38 31 be
       0.22923289 0.35440436 -0.25574636 -0.173067
000040 e5 2a 57 3e 19 39 de 3e
       0.21012457 0.43402937

norm.weight f4 [36]
000000 00 00 80 3f 00 00 80 3f 00 00 80 3f 00 00 80 3f
       1.0 1.0 1.0 1.0
000010 00 00 80 3f 00 00 80 3f 00 00 80 3f 00 00 80 3f
       1.0 1.0 1.0 1.0
000020 00 00 80 3f 00 00 80 3f 00 00 80 3f 00 00 80 3f
       1.0 1.0 1.0 1.0
000030 00 00 80 3f 00 00 80 3f 00 00 80 3f 00 00 80 3f
       1.0 1.0 1.0 1.0
000040 00 00 80 3f 00 00 80 3f 00 00 80 3f 00 00 80 3f
       1.0 1.0 1.0 1.0
000050 00 00 80 3f 00 00 80 3f 00 00 80 3f 00 00 80 3f
       1.0 1.0 1.0 1.0
000060 00 00 80 3f 00 00 80 3f 00 00 80 3f 00 00 80 3f
       1.0 1.0 1.0 1.0
000070 00 00 80 3f 00 00 80 3f 00 00 80 3f 00 00 80 3f
       1.0 1.0 1.0 1.0
000080 00 00 80 3f 00 00 80 3f 00 00 80 3f 00 00 80 3f
       1.0 1.0 1.0 1.0

norm.bias f4 [36]
000000 00 00 00 00 00 00 00 00 00 00 00 00 00 00 00 00
       0.0 0.0 0.0 0.0
000010 00 00 00 00 00 00 00 00 00 00 00 00 00 00 00 00
       0.0 0.0 0.0 0.0
000020 00 00 00 00 00 00 00 00 00 00 00 00 00 00 00 00
       0.0 0.0 0.0 0.0
000030 00 00 00 00 00 00 00 00 00 00 00 00 00 00 00 00
       0.0 0.0 0.0 0.0
000040 00 00 00 00 00 00 00 00 00 00 00 00 00 00 00 00
       0.0 0.0 0.0 0.0
000050 00 00 00 00 00 00 00 00 00 00 00 00 00 00 00 00
       0.0 0.0 0.0 0.0
000060 00 00 00 00 00 00 00 00 00 00 00 00 00 00 00 00
       0.0 0.0 0.0 0.0
000070 00 00 00 00 00 00 00 00 00 00 00 00 00 00 00 00
       0.0 0.0 0.0 0.0
000080 00 00 00 00 00 00 00 00 00 00 00 00 00 00 00 00
       0.0 0.0 0.0 0.0

norm1.weight f4 [9]
000000 00 00 80 3f 00 00 80 3f 00 00 80 3f 00 00 80 3f
       1.0 1.0 1.0 1.0
000010 00 00 80 3f 00 00 80 3f 00 00 80 3f 00 00 80 3f
       1.0 1.0 1.0 1.0
000020 00 00 80 3f
       1.0

norm1.bias f4 [9]
000000 00 00 00 00 00 00 00 00 00 00 00 00 00 00 00 00
       0.0 0.0 0.0 0.0
000010 00 00 00 00 00 00 00 00 00 00 00 00 00 00 00 00
       0.0 0.0 0.0 0.0
000020 00 00 00 00
       0.0

norm2.weight f4 [9]
000000 00 00 80 3f 00 00 80 3f 00 00 80 3f 00 00 80 3f
       1.0 1.0 1.0 1.0
000010 00 00 80 3f 00 00 80 3f 00 00 80 3f 00 00 80 3f
       1.0 1.0 1.0 1.0
000020 00 00 80 3f
       1.0

norm2.bias f4 [9]
000000 00 00 00 00 00 00 00 00 00 00 00 00 00 00 00 00
       0.0 0.0 0.0 0.0
000010 00 00 00 00 00 00 00 00 00 00 00 00 00 00 00 00
       0.0 0.0 0.0 0.0
000020 00 00 00 00
       0.0

m.running_mean f4 [12]
000000 bc 9b 7d 40 44 41 7f 40 a1 2d 7e 40 9a ad 7b 40
       3.9626303 3.9883585 3.971535 3.9324708
000010 74 7c 7a 40 08 17 7b 40 f5 c3 7c 40 5d 39 7d 40
       3.913846 3.9232807 3.9494603 3.9566262
000020 11 7f 7b 40 8d 5c 78 40 d7 36 76 40 a0 be 76 40
       3.9296305 3.8806489 3.8470972 3.8553848

m.running_var f4 [12]
000000 cc 86 94 44 1b 73 94 44 4c 5e 94 44 95 5e 94 44
       1188.2124 1187.597 1186.9468 1186.9557
000010 fe 60 94 44 ea 72 94 44 1e 7d 94 44 fa 82 94 44
       1187.031 1187.5911 1187.9099 1188.093
000020 9d 77 94 44 d2 70 94 44 08 80 94 44 84 91 94 44
       1187.7379 1187.5256 1188.001 1188.5474

linear_net.0.weight f4 [9, 18]
000000 97 c3 70 3e c4 27 8e 3d 7d c1 6f 3d f7 69 66 3e
       0.23512112 0.069411784 0.058534134 0.2250136
000010 f0 b9 00 be 57 cf 10 3e c2 85 0a be 98 74 89 3d
       -0.1257093 0.14141594 -0.13527587 0.067116916
000020 ef 30 6e be 38 5c fa bc 58 88 5a 3e d5 c1 60 3e
       -0.23260854 -0.030561551 0.21341074 0.21948941
000030 1a 91 42 bd 81 30 e9 bd 73 d6 cc bc b2 bc 1d 3e
       -0.04750166 -0.113862045 -0.025004601 0.15404013
000040 0d e2 73 3d 60 9f a5 bd 23 67 d2 bd 21 cd 1d 3e
       0.05954175 -0.08087039 -0.10273578 0.15410282
000050 86 4a 1f be 42 cb c0 bd cc a3 11 bd ee a4 61 3e
       -0.15555772 -0.09413768 -0.0355566 0.22035572
000060 1e 68 39 3e bb c3 36 3e 4c 68 23 be 42 84 a6 3d
       0.18106124 0.17848103 -0.15957755 0.08130695
000070 9a ba 84 bc 03 ea ef 3d 81 a8 1f 3e 9f d9 3c be
       -0.01620226 0.11714556 0.15591623 -0.18442391
000080 93 0d 43 be 84 2d dd 3c f1 38 6e be a6 10 2e 3e
       -0.19048147 0.026999243 -0.23263909 0.16998538
000090 bd b7 2e be d8 42 0c be 2b fd 89 3a d1 8e 09 3e
       -0.17062278 -0.13697374 0.001052772 0.13433386
0000a0 01 bb 52 3e d8 42 32 3d 78 e4 4d 3e 59 37 cb 3d
       0.20579149 0.04352078 0.20106685 0.09922666
0000b0 c0 c7 6c 3e ec f3 6d bd 02 3e 75 bd 42 56 95 bd
       0.23123074 -0.05809395 -0.05987359 -0.07291843
0000c0 45 f6 23 bd 1a 26 4c be a9 45 90 3d c7 20 2d 3e
       -0.040029783 -0.1993641 0.070445366 0.16907035
0000d0 71 ce f8 3d 68 4a 18 be b2 c2 5a 3e d3 c7 1d ba
       0.121487506 -0.14872134 0.21363333 -0.0006018851
0000e0 25 79 e9 bb c8 5d 51 be c6 35 d3 bd 8c ec 9b 3d
       -0.0071250373 -0.20445931 -0.10312991 0.07613477
0000f0 c1 2e ea 3c cc 47 1a be 18 e0 5f 3e e7 2d ca 3d
       0.028586747 -0.15066451 0.21862829 0.098720364
000100 52 45 05 3e b0 66 0c be 54 e9 c2 bd a3 f4 96 3d
       0.13014725 -0.13711047 -0.0951716 0.073708795
000110 65 74 62 be 01 0e e2 3d e2 2e 47 3c 71 43 1a 3e
       -0.22114713 0.11037827 0.012157174 0.1506479
000120 dd 37 39 3e 59 cf 3e 3d 68 d0 fb 3d 83 a1 b3 3b
       0.18087716 0.04658446 0.1229561 0.0054819
000130 f6 71 6b 3e 1d 4b d6 bc 93 b5 14 be 68 19 01 bd
       0.22992691 -0.026158864 -0.1452239 -0.03151837
000140 f7 dc 35 be f1 56 0d be 1b d4 52 3d 6c 76 3a 3e
       -0.17760073 -0.13802697 0.05147181 0.18209237
000150 8f a8 44 3e 93 d0 35 3e 17 2f 4e 3e 87 8a 57 3e
       0.19204925 0.17755346 0.20135151 0.21048938
000160 0a 2d 11 be a0 68 93 bd 48 b0 db 3d a1 9e bd bd
       -0.14177337 -0.0719769 0.10726982 -0.09258772
000170 dd b3 24 bd 8f 22 4c 3e 00 42 a8 bc a3 1a 60 bd
       -0.040210593 0.19935058 -0.020539284 -0.054712903
000180 52 79 c6 3d b6 21 6c 3e a7 0b d0 bd 89 88 fc bc
       0.09691109 0.23059735 -0.101584725 -0.030826824
000190 fa ba 56 be ca 4b e4 3c 2a 48 c7 3c bd 17 22 3e
       -0.20969763 0.02786817 0.024326403 0.15829368
0001a0 fc 2f 45 be 03 87 15 be c2 d5 3b 3e 92 8d d9 bd
       -0.19256586 -0.14602284 0.18343261 -0.106227055
0001b0 bd 52 7e 3c 2f 9f 4f 3e 40 9c 51 3e 64 dc 71 bc
       0.015522656 0.20275567 0.20469761 -0.014762018
0001c0 1b 26 64 be ee 0d 46 be fd bf 67 be 69 4a 67 bc
       -0.22280161 -0.19341251 -0.22631831 -0.014116862
0001d0 cd b6 3b be 1f bd 43 3e 07 83 51 be 41 52 8f bd
       -0.18331452 0.19115113 -0.20460139 -0.069981106
0001e0 fb d3 ce 3d 9d a6 cb bd a2 b3 34 3e 1d 9a 4e 3d
       0.10099026 -0.09943888 0.1764665 0.050439943
0001f0 25 d4 67 3e 93 a3 09 3d 86 6a 13 3e 27 d2 54 be
       0.2263952 0.033603262 0.14396104 -0.20783292
000200 c3 24 cd bd 21 e4 d7 3d a1 83 b7 bd aa 12 9f 3d
       -0.10016777 0.10541559 -0.08960653 0.07767232
000210 53 12 12 be c0 95 3f 3d f9 22 ec 3c 51 13 05 be
       -0.14264803 0.046773672 0.02882527 -0.1299565
000220 6d 54 bc bb 2e ba 3a 3e 1c 4b 32 be 01 f9 1f 3d
       -0.005747369 0.18235084 -0.17411464 0.039055828
000230 c0 30 03 3e fe 58 5e 3e 3e e5 5b be de 62 da 3d
       0.12811565 0.21713635 -0.21474168 0.10663389
000240 b0 79 65 3e 14 2c 25 3e c5 2d 50 be 3a 0b 0c bd
       0.22409701 0.16130096 -0.2032996 -0.034190394
000250 35 ab ec bc 11 c1 0a bd 7a 36 8b 3c b7 14 7b 3c
       -0.028890232 -0.03387553 0.01699375 0.015324763
000260 33 b2 ff 3d 02 25 3d be e5 31 2a be 70 df e9 bb
       0.12485161 -0.18471149 -0.16620596 -0.0071372315
000270 5a 64 63 be e5 ac 6c 3e b8 63 2c 3e e7 73 d5 bd
       -0.2220625 0.23112829 0.16834915 -0.10422497
000280 b8 ca 2b 3e 98 79 d8 bd
       0.1677655 -0.10570067

linear_net.0.bias f4 [9]
000000 3c c8 d3 ba 64 14 4e be 91 f8 05 3c 5e 6d a1 3d
       -0.0016157697 -0.20124966 0.008176939 0.07882188
000010 57 fb c7 bd a5 fc 05 3e f6 d8 17 bb 82 55 01 3e
       -0.09764736 0.13084657 -0.002317009 0.12630275
000020 4d 93 6d 3e
       0.23200722

linear_net.2.weight f4 [1, 9]
000000 b0 26 6e be eb ee 6e be 2c bf 80 3e a0 83 92 bd
       -0.23256946 -0.23333327 0.25145853 -0.07154012
000010 b8 d8 74 be 6b 6d 35 3d 93 d5 6a be 82 a5 a6 3e
       -0.23910797 0.044293802 -0.22933035 0.32548147
000020 bb 62 20 3e
       0.15662663

exp_avg f4 [108, 36]
000000 5a 74 e9 3c 1d 9c 46 bc 20 e0 06 3d 34 bd 36 3b
       0.028497864 -0.012122181 0.032928586 0.002788377
000010 f8 fd fd 3b ec 54 cc 3a ac 73 d9 bc 0b fd 05 3d
       0.0077512227 0.0015589274 -0.026544414 0.032712024
000020 b6 69 8e bd 11 28 13 bb f5 7f a2 bc f1 56 8e ba
       -0.069537565 -0.0022454301 -0.019836405 -0.0010859651
000030 82 51 e2 3c f6 78 27 3d ca 59 4b bc 4f d0 53 3b
       0.027626757 0.04088684 -0.012411544 0.0032320207
000040 84 7a ed bb 8c 94 ca bb 54 c6 42 3a d1 ed 1a bb
       -0.007247271 -0.006182259 0.0007430066 -0.0023640285
000050 1c 99 c4 3a 89 a1 65 b9 e1 3a 05 3b e0 3e 23 3b
       0.0014999243 -0.00021899318 0.0020329284 0.0024909303
000060 32 b3 5f 3a c3 29 5d 3b a0 ff a3 39 c1 82 65 3b
       0.0008533477 0.0033746816 0.00031280238 0.0035020562
000070 97 5a ec 38 ab 9a 66 3b 39 f0 29 38 de be 66 3b
       0.000112702306 0.0035187404 4.0516465e-05 0.003520898
000080 13 4d 74 37 8f c3 66 3b 71 98 af 36 2a c4 66 3b
       1.4561479e-05 0.0035211777 5.233153e-06 0.0035212138
000090 93 16 14 3d 93 80 7c bc 5e 5a 2b 3d 22 01 6b 3b
       0.03615434 -0.015411514 0.041834228 0.003585883
0000a0 2c b2 20 3c 24 7d 01 3b 9c 1c 0a bd f3 bb 29 3d
       0.0098081045 0.0019758428 -0.03371869 0.041439008
0000b0 ae b0 b4 bd 15 be 40 bb 12 9f cd bc 5c 7d af ba
       -0.088227615 -0.0029410173 -0.025100265 -0.00133888
0000c0 ab 8e 0f 3d a9 8f 54 3d 64 3e 81 bc f8 59 86 3b
       0.03504817 0.051894818 -0.01577682 0.0041000806
0000d0 af 90 17 bc 3f 10 00 bc a6 78 6f 3a be bd 44 bb
       -0.009250804 -0.007816373 0.00091351045 -0.0030020322
0000e0 2b dd ec 3a 7f b9 b0 b9 a7 44 2b 3b 4a 42 4c 3b
       0.0018071284 -0.0003370754 0.002613345 0.003116744
0000f0 a1 80 90 3a d7 19 8c 3b e1 00 d4 39 8f 96 91 3b
       0.0011024663 0.0042755413 0.00040436446 0.004442997
000100 f3 c7 18 39 9d 4e 92 3b 85 b3 5b 38 6d 66 92 3b
       0.00014570336 0.004464938 5.238086e-05 0.0044677765
000110 84 eb 9d 37 81 69 92 3b e6 03 e3 36 e5 69 92 3b
       1.8825529e-05 0.0044681435 6.765581e-06 0.00446819
000120 7e 5e b6 3b 74 21 1d bb c2 1f cf 3b 5d ea 01 3a
       0.0055654636 -0.0023976238 0.0063209245 0.00049558823
000130 4c 42 c6 3a 1b 20 8e 39 30 52 a9 bb ce 8f c9 3b
       0.0015125959 0.0002710827 -0.005167268 0.006151176
000140 5d 90 5b bc 5e b5 08 ba bf 68 74 bb 8d cf 75 b8
       -0.013401118 -0.0005215014 -0.003729388 -5.860585e-05
000150 76 73 ac 3b c2 15 ff 3b e7 72 23 bb be 40 0e 3a
       0.0052627875 0.007784576 -0.0024940313 0.00054265175
000160 f3 fc b4 ba af fd a0 ba 2f 61 42 39 8e 18 05 ba
       -0.0013808295 -0.0012282635 0.00018537485 -0.00050772063
000170 6c 64 14 39 37 b4 42 b9 3f 3b ed 39 82 3e d6 39
       0.0001415179 -0.00018568417 0.00045248304 0.00040863833
000180 bd 87 4e 39 76 43 27 3a 1e 0e 98 38 a7 09 30 3a
       0.00019696257 0.0006380597 7.250554e-05 0.00067153055
000190 84 42 db 37 4a 30 31 3a a3 a8 1d 37 6b 56 31 3a
       2.6137808e-05 0.000675921 9.397193e-06 0.00067648914
0001a0 6c a6 62 36 5a 5b 31 3a a1 e8 a2 35 fc 5b 31 3a
       3.3773495e-06 0.00067656266 1.2137644e-06 0.0006765721
0001b0 51 4c 05 bb 24 d8 57 3a 7b 2c 18 bb 19 c3 2d b9
       -0.0020339678 0.00082338066 -0.0023219872 -0.00016571245
0001c0 bc 4f 17 ba 20 fe ff b8 fa 23 f3 3a 0a 1b 21 bb
       -0.0005772074 -0.00012206682 0.001855015 -0.0024582767
0001d0 b0 e9 a3 3b f2 6f 46 38 e5 c0 c6 3a 37 db 23 39
       0.005002223 4.7311136e-05 0.0015163688 0.00015626555
0001e0 7e 75 03 bb 76 32 41 bb 45 e7 5a 3a 6c 63 86 b9
       -0.0020059044 -0.002947954 0.0008350502 -0.00025632547
0001f0 9f 8c f7 39 d6 42 f2 39 e1 d6 1f b9 1a 03 30 39
       0.00047216282 0.00046207634 -0.0001524347 0.00016785823
000200 a7 62 fb b8 bd 08 89 37 4d fc 13 b9 a0 b3 40 b9
       -0.00011986988 1.6335742e-05 -0.00014113002 -0.00018377462
000210 29 c6 73 b8 00 e0 7c b9 c7 47 b2 b7 86 b5 82 b9
       -5.8120266e-05 -0.0002411604 -2.1252677e-05 -0.00024930778
000220 95 6d 00 b7 79 44 83 b9 07 ac 38 b6 f8 56 83 b9
       -7.654909e-06 -0.00025037283 -2.751827e-06 -0.00025051064
000230 82 bd 84 b5 5c 59 83 b9 81 d1 be b4 ab 59 83 b9
       -9.88992e-07 -0.00025052845 -3.5542692e-07 -0.00025053075
000240 2c bc 00 3d 5a 97 5a bc 24 60 14 3d dd 53 45 3b
       0.031429455 -0.013341749 0.0362245 0.00301098
000250 99 7f 0c 3c 3b 80 e0 3a 40 68 ef bc 4d ca 13 3d
       0.0085753435 0.0017128059 -0.029224515 0.0360816
000260 60 f3 9c bd c2 39 1d bb 95 7a b3 bc 31 35 9d ba
       -0.076636076 -0.0023990725 -0.021909038 -0.0011994002
000270 66 52 f9 3c aa 62 38 3d 29 05 60 bc e4 25 68 3b
       0.030434798 0.04501597 -0.013673105 0.0035422975
000280 42 d2 01 bc 41 8a e0 bb 75 d0 55 3a e6 e8 2d bb
       -0.0079236645 -0.0068524186 0.00081563677 -0.0026536523
000290 f0 1d dd 3a b1 5b 52 b9 35 82 11 3b af 2a 35 3b
       0.0016869884 -0.00020061318 0.0022202854 0.002764385
0002a0 9b c6 73 3a d4 d3 73 3b 15 ab b2 39 57 d9 7c 3b
       0.0009299309 0.0037205117 0.00034078272 0.0038581693
0002b0 54 be 00 39 c9 07 7e 3b d9 21 39 38 ee 2e 7e 3b
       0.00012277934 0.0038761965 4.413896e-05 0.0038785296
0002c0 5b 12 85 37 fc 33 7e 3b 83 4b bf 36 a3 34 7e 3b
       1.5863383e-05 0.003878831 5.7010343e-06 0.0038788698
0002d0 17 64 e4 bc a0 cc 40 3c e3 9b 02 bd cb e7 23 bb
       -0.027879758 0.011767536 -0.031886946 -0.0025009986
0002e0 54 80 fb bb 05 9c c4 ba a5 4a d3 3c 5e 0b 03 bd
       -0.00767521 -0.0015000111 0.02579243 -0.031993262
0002f0 b2 e5 8a 3d fc 1e fe 3a 10 c1 9f 3c 11 f1 89 3a
       0.06782092 0.0019387896 0.019501239 0.0010524114
000300 7a 55 dc bc 77 aa 22 bd 6a 31 46 3c 7e 9a 49 bb
       -0.026896227 -0.03971335 0.012096742 -0.003076225
000310 af 63 e0 3b 49 1f ca 3b 5a ea 61 ba ca 17 1e 3b
       0.0068478207 0.0061682803 -0.000861799 0.0024123066
000320 8e 32 bd ba de 07 81 39 04 fe 01 bb df c6 1e bb
       -0.0014434622 0.0002461066 -0.0019835243 -0.0024227423
000330 69 17 5a ba 93 4b 57 bb 1e de 9f b9 ba 6d 5f bb
       -0.00083195284 -0.0032851442 -0.00030492333 -0.0034092502
000340 95 65 e6 b8 64 7e 60 bb a9 a7 25 b8 ac a1 60 bb
       -0.00010986176 -0.0034255022 -3.949521e-05 -0.0034276051
000350 a7 24 6e b7 3b a6 60 bb 5c 2b ab b6 d1 a6 60 bb
       -1.4194439e-05 -0.0034278769 -5.101245e-06 -0.0034279118
000360 29 f6 dd bb f6 8d 3e 3b 8f 9d 02 bc fe 37 46 ba
       -0.0067737293 0.0029076315 -0.007972135 -0.0007561444
000370 be 46 ed ba bc 35 cc b9 0a 02 d1 3b 4d 71 00 bc
       -0.0018102748 -0.00038949947 0.006378417 -0.007839513
000380 73 64 88 3c 96 f4 1e 3a 01 9a 9a 3b f0 df 9d 39
       0.01664946 0.0006063668 0.0047180657 0.0003011222
000390 61 db d9 bb 92 c2 21 bc 88 48 41 3b 12 2e 57 ba
       -0.0066484665 -0.009873049 0.0029492695 -0.0008208464
0003a0 6d 47 ee 3a 1c 37 ba 3a 48 80 92 b8 74 11 00 3a
       0.0018179246 0.0014207098 -6.985717e-05 0.0004885413
0003b0 d3 13 91 b9 39 3f ac 38 1e 4b 07 ba c8 cf 12 ba
       -0.00027671325 8.213375e-05 -0.00051610346 -0.000560042
0003c0 44 30 69 b9 56 5d 53 ba 07 81 ab b8 33 d0 5c ba
       -0.00022238592 -0.00080629194 -8.1779486e-05 -0.0008423358
0003d0 c2 45 f7 b7 a0 0d 5e ba 5d cc 31 b7 b6 36 5e ba
       -2.9477178e-05 -0.0008470658 -1.0597604e-05 -0.00084767805
0003e0 26 9a 7f b6 05 3c 5e ba ec b7 b7 b5 b3 3c 5e ba
       -3.8087687e-06 -0.00084775715 -1.3688091e-06 -0.0008477673
0003f0 75 0f 0c bd aa 4d 6e 3c 9c c5 21 bd de b8 5a bb
       -0.03419443 0.014544884 -0.039495096 -0.003337435

exp_avg_sq f4 [108, 36]
000000 cb 54 fc 3a 4c 36 96 39 d5 64 b6 3a ec df d1 39
       0.0019251344 0.00028650684 0.0013915548 0.0004003042
000010 f7 ae cf 39 6c ae 05 38 34 7a 7d 3a 6c b1 a7 3b
       0.00039612476 3.1872114e-05 0.0009669394 0.005117586
000020 b2 f1 26 3c bd e7 06 3b f2 3f 46 3b c5 fb d2 39
       0.010189461 0.0020584904 0.0030250517 0.00040241904
000030 4e 9f ea 3a 18 f7 3e 3b 0e 53 94 39 a2 31 4c 38
       0.001790026 0.0029138979 0.0002829064 4.8683614e-05
000040 6d f5 c5 39 c2 aa be 39 44 69 b3 35 96 ca 17 36
       0.00037757625 0.00036366849 1.3367176e-06 2.2618674e-06
000050 55 f4 c0 36 9d f8 8b 36 d6 1a 01 37 0a b1 48 37
       5.75049e-06 4.171465e-06 7.695247e-06 1.1962149e-05
000060 fa fa b5 35 ea c4 aa 37 75 a5 43 34 e9 fd b6 37
       1.3558595e-06 2.0357274e-05 1.8220983e-07 2.1814327e-05
000070 05 30 cb 32 b1 a1 b8 37 9f 14 52 31 34 d8 b8 37
       2.3654147e-08 2.2009803e-05 3.0570744e-09 2.2035187e-05
000080 ff 14 d9 2f 39 df b8 37 d9 4c 60 2e 1e e0 b8 37
       3.948699e-10 2.2038455e-05 5.0999958e-11 2.2038872e-05
000090 e2 b3 34 3b d0 8f e5 39 db 29 18 3b ff c0 e4 39
       0.0027573039 0.00043785432 0.0023218307 0.00043631342
0000a0 66 02 03 3a 1a fa 30 38 d6 8d d5 3a ce 74 d6 3b
       0.0004997611 4.2194595e-05 0.0016292881 0.006544686
0000b0 da 11 73 3c 57 b7 16 3b 3a e6 75 3b 62 c0 08 3a
       0.014835799 0.0022997463 0.003752126 0.00052166556
0000c0 51 72 29 3b 00 e7 91 3b e9 45 f1 39 9a fe 8a 38
       0.0025855491 0.004452586 0.0004601919 6.627776e-05
0000d0 55 25 ee 39 d4 72 e7 39 ed d4 f9 35 1c 33 6d 36
       0.00045422712 0.00044145307 1.8613915e-06 3.5345502e-06
0000e0 a4 88 13 37 e1 44 c2 36 81 f8 3e 37 62 7b 9b 37
       8.793697e-06 5.789669e-06 1.1382742e-05 1.8534894e-05
0000f0 b9 38 06 36 38 c8 02 38 61 41 90 34 bb ee 0b 38
       2.0000573e-06 3.1180884e-05 2.686966e-07 3.3362518e-05
000100 46 cf 15 33 ca 28 0d 38 10 e4 9a 31 85 51 0d 38
       3.488028e-08 3.3655007e-05 4.5079176e-09 3.369294e-05
000110 9c 0d 20 30 cb 56 0d 38 06 60 a5 2e 78 57 0d 38
       5.8227e-10 3.3697852e-05 7.5203885e-11 3.369848e-05
000120 1c af 9d 38 84 c2 3b 37 49 8b 41 38 ca 61 c7 37
       7.51896e-05 1.1191358e-05 4.6144505e-05 2.3768185e-05
000130 95 45 a1 37 29 67 cf 35 77 61 fd 37 91 92 80 39
       1.9225097e-05 1.5452725e-06 3.0205336e-05 0.00024523263
000140 0d df ce 39 95 67 ef 38 cd 7e 1c 39 d1 b4 ca 37
       0.00039457568 0.00011415702 0.00014924556 2.4164476e-05
000150 42 ae 97 38 dc 0e ea 38 4e 7b 35 37 88 98 83 36
       7.232699e-05 0.00011160757 1.081715e-05 3.921861e-06
000160 a0 13 b1 37 00 43 9b 37 a1 49 98 33 24 49 fb 33
       2.1109183e-05 1.850864e-05 7.0914446e-08 1.17014025e-07
000170 c5 d4 61 34 41 97 28 34 6a 8c a5 34 c9 eb e1 34
       2.1032163e-07 1.5701245e-07 3.083581e-07 4.2081072e-07
000180 4a 06 6e 33 46 43 49 35 cd 45 00 32 8b f1 58 35
       5.5419413e-08 7.497623e-07 7.4664515e-09 8.081776e-07
000190 a0 42 85 30 a7 0d 5b 35 73 c9 09 2f db 53 5b 35
       9.69596e-10 8.1603724e-07 1.2531647e-10 8.1705883e-07
0001a0 3c 61 8e 2d d3 5c 5b 35 32 1d 13 2c 04 5e 5b 35
       1.6186712e-11 8.1718935e-07 2.0906163e-12 8.172067e-07
0001b0 22 f5 a4 39 e8 c5 f8 37 4c 97 29 38 79 6b 22 39
       0.00031463156 2.9656061e-05 4.0433646e-05 0.0001548956
0001c0 59 c5 dc 38 69 87 9e 36 62 31 02 38 7f 84 89 3a
       0.00010527176 4.7245308e-06 3.1040407e-05 0.0010491757
0001d0 60 9c b0 3a bd c1 25 3a 9d d7 3a 3a 4a ee 96 38
       0.0013474338 0.000632312 0.0007127466 7.196942e-05
0001e0 46 c8 6b 39 4e 95 76 39 b1 5b aa 37 38 6f c9 36
       0.00022485954 0.00023516009 2.0308276e-05 6.0032144e-06
0001f0 e1 22 00 39 56 e5 e7 38 d4 63 80 34 a0 ad 29 34
       0.00012220025 0.000110576555 2.3914492e-07 1.5802516e-07
000200 e8 9a 24 35 49 78 0e 35 c2 6f 6a 35 59 95 8e 35
       6.132018e-07 5.307416e-07 8.733442e-07 1.062329e-06
000210 6e b9 27 34 ea 3d 02 36 00 ab b4 32 97 cc 0c 36
       1.5620546e-07 1.9407548e-06 2.103252e-08 2.0980713e-06
000220 ba ad 3b 31 79 38 0e 36 31 0d c2 2f db 67 0e 36
       2.7310834e-09 2.119252e-06 3.5297767e-10 2.12201e-06
000230 fc 84 48 2e ef 6d 0e 36 08 30 cf 2c bd 6e 0e 36
       4.559285e-11 2.1223639e-06 5.8886264e-12 2.1224107e-06
000240 64 fa 2b 3b dc 9d dd 39 60 a4 05 3b b6 d1 ec 39
       0.0026241774 0.0004227002 0.0020392165 0.00045169675
000250 bd f8 02 3a 96 51 4b 38 91 41 bc 3a c1 d1 e4 3b
       0.00049961713 4.8474954e-05 0.0014362802 0.0069830124
000260 d1 9e 68 3c 41 32 2d 3b cc 21 84 3b 6b f9 1d 3a
       0.014198021 0.0026427659 0.004032349 0.0006026241
000270 fc 60 25 3b 14 41 89 3b a3 14 e2 39 4e 01 9f 38
       0.002523481 0.004188666 0.00043121455 7.581954e-05
000280 0e 15 ec 39 0b ec e8 39 0a da ed 35 dd 29 55 36
       0.00045029115 0.00044426354 1.7721334e-06 3.176384e-06
000290 06 93 06 37 d9 02 bc 36 94 e0 35 37 b6 41 8e 37
       8.021254e-06 5.603168e-06 1.0840729e-05 1.6958318e-05
0002a0 c4 48 00 36 f2 c2 f2 37 81 ee 89 34 0b 17 02 38
       1.9115841e-06 2.8939427e-05 2.5691773e-07 3.1015876e-05
0002b0 fb 3f 0f 33 18 42 03 38 1e 1c 94 31 e9 68 03 38
       3.3352972e-08 3.129439e-05 4.3105635e-09 3.133054e-05
0002c0 c9 0b 19 30 ed 6d 03 38 92 22 9e 2e 91 6e 03 38
       5.5677823e-10 3.133521e-05 7.191149e-11 3.1335807e-05
0002d0 31 2c c5 3a c7 7c 83 39 30 0b a4 3a 57 a0 8e 39
       0.0015043077 0.00025079233 0.0012515541 0.00027203813
0002e0 bd 25 9c 39 93 a8 f9 37 c6 60 5c 3a 1f 84 90 3b
       0.00029782756 2.9761612e-05 0.00084067544 0.0044102813
0002f0 d8 87 0b 3c ff 15 da 3a 01 a8 24 3b cb 45 d0 39
       0.008516274 0.0016638635 0.0025124552 0.0003972485
000300 cf af cb 3a 46 e4 2b 3b a3 88 7f 39 f1 96 65 38
       0.0015540066 0.002622859 0.00024369596 5.473843e-05
000310 d2 15 93 39 9e 8b 87 39 45 68 a0 35 77 b0 21 36
       0.00028054282 0.0002585323 1.1951275e-06 2.4093586e-06
000320 0e cd ad 36 14 eb 74 36 73 b7 da 36 fc a7 2e 37
       5.1796733e-06 3.6495667e-06 6.5182626e-06 1.041032e-05
000330 f7 7d 99 35 3f 64 92 37 a2 ef 24 34 ad 9d 9c 37
       1.1436049e-06 1.7451237e-05 1.5360868e-07 1.8670073e-05
000340 4d 48 ab 32 bd fc 9d 37 76 17 31 31 4c 2a 9e 37
       1.9939899e-08 1.8833549e-05 2.5770226e-09 1.8854764e-05
000350 61 fe b6 2f 41 30 9e 37 1b 14 3d 2e fa 30 9e 37
       3.3286354e-10 1.8857538e-05 4.2991482e-11 1.8857874e-05
000360 26 96 dd 39 b1 26 5d 38 f3 ed ec 38 00 cb 58 39
       0.00042264274 5.272654e-05 0.000112976784 0.00020674989
000370 da aa 14 39 d2 98 d6 36 d4 b5 b6 38 1a 4e b4 3a
       0.00014178027 6.3954876e-06 8.7123044e-05 0.0013756186
000380 36 52 f2 3a 48 26 5c 3a 30 57 76 3a 64 29 e5 38
       0.0018487636 0.00083980383 0.0009397147 0.000109272805
000390 ef 27 a5 39 ab 50 c0 39 5b aa 2f 38 f2 0b 2a 37
       0.00031501005 0.00036681196 4.1881907e-05 1.0135571e-05
0003a0 95 10 36 39 74 b8 19 39 77 1a c3 34 4c 2a 9d 34
       0.0001736305 0.00014659931 3.6340836e-07 2.9274304e-07
0003b0 23 04 77 35 8d 63 4c 35 2b e9 a3 35 f9 b8 de 35
       9.202069e-07 7.614079e-07 1.2212307e-06 1.6594123e-06
0003c0 84 37 6c 34 4e 7c 43 36 3c b2 fe 32 e8 97 52 36
       2.1999409e-07 2.912962e-06 2.9650543e-08 3.138086e-06
0003d0 8d 4e 84 31 f9 a0 54 36 5d cd 08 30 a1 e4 54 36
       3.850636e-09 3.168416e-06 4.976835e-10 3.1723541e-06
0003e0 b7 5c 8d 2e 70 ed 54 36 13 10 12 2d 7a ee 54 36
       6.428407e-11 3.1728669e-06 8.302708e-12 3.1729273e-06
0003f0 cf a2 8e 3b f8 60 30 3a 26 15 42 3b 0d a2 6c 3a
       0.0043529044 0.00067283167 0.0029614656 0.0009026833

exp_avg f4 [108]
000000 41 c4 66 3b f6 69 92 3b 15 5c 31 3a b5 59 83 b9
       0.0035212191 0.004468198 0.00067657355 -0.00025053104
000010 bd 34 7e 3b e8 a6 60 bb cd 3c 5e ba 73 5b 8a bb
       0.0038788759 -0.0034279171 -0.0008477688 -0.0042223274
000020 52 7e b7 bb d5 00 25 3b 46 4b 9d ba c6 ae be b8
       -0.0055997754 0.0025177498 -0.0012000583 -9.09246e-05
000030 ab 5b ce ba 4d ae ec 3b 6f 9d 61 39 fc 82 3a ba
       -0.0015743872 0.0072229267 0.0002151632 -0.0007114855
000040 51 cf ed 3a a9 28 9f 3b 57 9d 9f bb fb dc 0b 3b
       0.001814345 0.004857142 -0.0048710513 0.0021341431
000050 06 04 31 3b 13 fe e5 39 9e 88 6f bb 9c be 12 bb
       0.0027010455 0.00043867584 -0.0036549936 -0.0022391444
000060 1d be 2f 3b f4 0d b5 3a 68 eb d7 ba 61 04 ac 3b
       0.0026816197 0.0013813362 -0.0016473355 0.0052495454
000070 18 04 f2 3b 4f 49 c2 ba f8 bf 3d bb 11 67 ef bb
       0.007385742 -0.0014822873 -0.0028953534 -0.0073059876
000080 2f e2 a5 bb 25 4d 90 bb 04 a9 a9 bb c8 67 36 3b
       -0.0050623636 -0.0044037276 -0.005177619 0.0027832855
000090 3e 2a 07 b1 57 bc 1b b0 b8 5e 09 b0 fc e7 4f b1
       -1.9669097e-09 -5.665632e-10 -4.9974913e-10 -3.0254332e-09
0000a0 e1 f1 96 b0 41 0d 45 af 72 9f 2c 31 8c 88 b3 31
       -1.0982683e-09 -1.7921754e-10 2.5119928e-09 5.2251092e-09
0000b0 9b b7 69 31 ac ac e5 30 31 9a 15 31 ca ad fb 30
       3.401033e-09 1.6711019e-09 2.1770001e-09 1.8312047e-09
0000c0 3b 17 06 31 a6 43 69 b1 f6 6a ae af 15 3f 07 31
       1.9512771e-09 -3.3944416e-09 -3.1726416e-10 1.9680944e-09
0000d0 6f 65 51 b1 93 0b 6b b0 b9 2f 9b 31 6d d9 16 b0
       -3.0471161e-09 -8.550895e-10 4.516519e-09 -5.487866e-10
0000e0 f0 cc 5f b0 2c b1 a5 af 45 94 50 30 c1 1f 47 b1
       -8.141816e-10 -3.0139213e-10 7.5880663e-10 -2.8976361e-09
0000f0 ee 16 b2 30 41 b1 bd b1 7a 9d 70 af 53 94 0f b1
       1.2957722e-09 -5.5207754e-09 -2.188382e-10 -2.0893551e-09
000100 42 1c 9e b1 cb 8e 16 30 1e f0 df b0 1b ea f3 30
       -4.6016178e-09 5.4772603e-10 -1.6293631e-09 1.7747114e-09
000110 ae 7a 9f 30 7f ab 09 31 a6 47 1e 31 ae 46 78 af
       1.160364e-09 2.0033608e-09 2.3032753e-09 -2.2580579e-10
000120 a2 7a 8f b9 c7 a1 0f 3a 19 43 0e ba fb 94 0e 3a
       -0.00027366454 0.0005479124 -0.00054268684 0.000543907
000130 c6 68 24 ba cc c0 69 39 65 c5 c9 b9 bd 57 bc b9
       -0.0006271716 0.00022292434 -0.00038484778 -0.00035923524
000140 a7 18 42 3a 8b c0 87 ba 22 39 43 ba a4 47 97 39
       0.0007404186 -0.0010357065 -0.0007447173 0.0002885434
000150 e4 46 94 b9 99 9f 47 ba d7 46 a1 39 6b a2 11 39
       -0.00028281577 -0.00076150295 0.00030761093 0.00013888783
000160 fd 26 bf 39 02 98 0e ba aa 22 4b 3a 6b b4 fd 39
       0.00036459407 -0.0005439521 0.0007749001 0.00048390342
000170 6a da fe b9 bd 6b ed 39 80 e4 95 3a b1 e4 8a 39
       -0.00048609386 0.00045284434 0.0011435896 0.000264918
000180 bd 51 bf b9 4d fd 18 3a ae 31 17 3a 44 d2 15 ba
       -0.0003649126 0.00058360846 0.0005767596 -0.0005715231
000190 f2 01 f0 b9 9e 53 d1 b8 57 45 20 3a d4 4e f1 b9
       -0.00045777817 -9.9814715e-05 0.0006113848 -0.00046025834
0001a0 bf ea cd b8 20 03 20 3a d6 55 ca b7 ef 12 e6 38
       -9.8188866e-05 0.0006103981 -2.4120247e-05 0.00010970781
