SensorFormer/SensorFormer/result/ensemble/LCS16_9.pt (torch, 81661 bytes, 35 tensors)

self_attn.qkv_proj.weight f4 [108, 36]
00000000: f431 45be 8565 f03d f848 743e 7289 063e
00000010: 8f7c 16be a817 363e 8b09 40be abb0 d43d
00000020: f9af 80bc 7d28 d5bd bb4d 20be 0234 d4bd
00000030: f539 8dbd 0175 82bb 227c 3b3e 37a5 523d
00000040: 6093 823d f42c 623e d029 283d 4e23 60bd
00000050: 4359 ddbd 832e e7bd 6a73 6dbd eacd 03bd
00000060: c5be 16be c924 a4bd 44e6 19ba 79bf 013c
00000070: d014 8dbc 6846 473d 59bb 95bd c0a9 fdbd
00000080: 89c1 dfbd a7af 3f3e 66a1 143e 88bd 26be
00000090: ef54 3ebe b96c 18bc 3a15 8c3c ef47 033e
000000a0: dfe4 c7bd a566 583d 6314 97bd 79d4 13be
000000b0: fa99 8fbc 6002 1d3e 224a 253e 1270 77be
000000c0: eb43 a23d 6a87 673e d13c 603d cbc9 e73d
000000d0: b858 ae3d 68bd 143d c20e d0bd f2cb 0f3e
000000e0: b6ff 033e e96e 33be e09c 323e d790 2a3e
000000f0: f752 3b3e ca13 a2bd 531d 3bbd 605f 0c3e
00000100: 2cc6 2f3e 567c 15be 49f1 403e 5b2f e03d
00000110: 2597 ad3d 83d1 30bd a8fc 2a3a 762a 063e
00000120: 5815 58bc ee2b 293e 40ad dbbd 1694 5cbc
00000130: 67c3 9bbd 6ba5 063d c66e ad3d 7935 533d
00000140: 5bb8 86bd 3ffc c0bd 4f77 053e 8847 98bd
00000150: 3a94 c43d 3f59 d83d 51a8 0a3e f822 2b3e
00000160: a17c d93d 0bcd edbd 9b0e 81bd cf8c 853d
00000170: 92a6 03be 984f d83d e191 dcbd 3b6c 02bd
00000180: 4267 96bd 2cd8 abbd b1ed b4bb dfc6 183e
00000190: 3708 14bd 35b6 acbd 67de f23d b8c8 efbd
000001a0: e798 323c 70f5 cdbc 90d4 9a3c 9a4e ad3d
000001b0: a82c c93c 1c76 a5bd e6e5 323e 2561 c93d
000001c0: 1b96 90bd e8c9 2d3d 44ce ccbd 4f72 8b3b
000001d0: d784 d8bd 3b74 113d 4d46 633e 8efb 06be
000001e0: 18fd 2cbe 4437 493e df41 71bd a499 613e
000001f0: 2cb4 293d 67ac 00bd b311 34bd ca5e 1abe
00000200: e6a5 453e 84fa 19be f4fb 053d 68af c9bd
00000210: 41a0 243e 97a1 d23d b34a 333e 4291 a4bd
00000220: 9da9 953d e861 20be 059e fa3d 2398 64bd
00000230: 8abd 913d cf00 d23d c097 eebd 6d36 f03d
00000240: 9624 11be 4233 953d 2637 b83d 7116 df3d
00000250: dd3e 5dbd a540 513e 9877 563d 4f4a 2b3c
00000260: a8f3 b3ba 2825 86be fe9f 03bd f409 35be
00000270: 4161 853d 2565 013d ae21 213e aa78 953d
00000280: c921 90be bd2e 283e 1984 7c3c 5700 99bd
00000290: bca0 ff3d 71ff 7dbe f0eb 863d 3658 e93d
000002a0: 3727 b2bd 9d1c b03d e15c e63d 6032 ad3c
000002b0: 75fe 30be d149 913d 649b 3e3e 51f0 3dbd
000002c0: a579 b63d 2ed0 023e dbb7 08be 95c8 4cbe
000002d0: d9f1 ba3d fc64 643b d4d7 5bbe 9874 75be
000002e0: c9d0 bdbd 818d 093d c870 193c 1851 33be
000002f0: 9520 4fbc 30c0 963c 8cf3 48be e6f0 323e
00000300: e405 343e 31d0 ac3d 44e6 75be bb30 7abe
00000310: 2d23 d3bd 9643 f13d 651c 4fbd b7bb 803e
00000320: 0cdc 98bd 1fbc 9e3d 20b6 ea3d 9fc4 e3bd
00000330: a202 753d ec89 953d 6c31 993c b6ad c3bd
00000340: ccfd 32be e51d 933c 1bc0 4dbe 7dbc b0bd
00000350: 1d37 be3b 33aa c63d 768d fb3d a24f 3dbe
00000360: 6974 aebd f094 273d e7e3 96bd 184f b7bd
00000370: 8272 ecbd f41e 5ebd f0e9 2bbc 9838 04be
00000380: 4055 9f3d aa91 eebd 3a39 31be f058 c43d
00000390: 287d fcbd 6ce7 e83d bec7 09be e112 33be
000003a0: 9c12 813e 298f d93c c98f 463e 6f7a 7c3e
000003b0: 47ca 093e ff8c 403e 3277 9c3d f133 19be
000003c0: 9148 b5bd 7af8 51bd 513d 09bd a7e9 f63d
000003d0: f8bf d03c dba9 57be 5b2c 833c 345c a1bc
000003e0: 125a 633d 5187 e8bd 54a4 073e 019d 2bbe
000003f0: d76d 6d3e 2fc9 e93d 5f28 9fbe 6e7c 95be
-0.19257337 0.11738113 0.2385596 0.13138369 -0.14695953 0.17782462 -0.1875364 0.10385259
-0.01570891 -0.10408113 -0.15654652 -0.10361482 -0.0689582 -0.003981233 0.18309072 0.051427092
0.06375766 0.22087461 0.0410555 -0.05472117 -0.10808041 -0.11288168 -0.057971396 -0.032178797
-0.1472121 -0.08014829 -0.0005870799 0.007919186 -0.017221838 0.04865113 -0.07311124 -0.12385893
-0.10925586 0.1871935 0.14514694 -0.16283238 -0.18587087 -0.009303265 0.017099965 0.12820409
-0.097604506 0.052832264 -0.07376935 -0.1443652 -0.017529476 0.15332937 0.1614156 -0.24163845
0.079231106 0.2261025 0.0547455 0.11317786 0.085130155 0.036313444 -0.10159065 0.14042643
0.12890515 -0.17522778 0.17442656 0.16656815 0.18293367 -0.07913931 -0.045682263 0.13708258
0.1716544 -0.14598212 0.18842043 0.10946532 0.08476094 -0.043168556 0.0006522634 0.13102135
-0.0131886825 0.16520664 -0.10726404 -0.013463041 -0.076056294 0.0328726 0.08468394 0.051564667
-0.06578132 -0.09423112 0.13033794 -0.074355185 0.095985845 0.10563897 0.1354077 0.16712558
0.10619474 -0.116113745 -0.06301614 0.06520998 -0.1285651 0.10562056 -0.10770012 -0.031841498
-0.073439136 -0.08390841 -0.005521499 0.14919613 -0.036140647 -0.08433191 0.11858826 -0.11708206
0.010900713 -0.025141448 0.018900186 0.08462258 0.024557427 -0.08079168 0.17470512 0.09832982
-0.0705988 0.04242888 -0.100002795 0.00425557 -0.10572212 0.035511237 0.22194786 -0.13181898
-0.16893423 0.19649988 -0.05890071 0.22031265 0.04143159 -0.031414416 -0.04396219 -0.15075222
0.19301566 -0.1503697 0.032710984 -0.09847909 0.16076757 0.10284727 0.17508964 -0.08035518
0.07307742 -0.15662348 0.12237171 -0.05580915 0.0711623 0.102540605 -0.11650038 0.11729131
-0.14174113 0.07285167 0.08994894 0.10892952 -0.05401503 0.20434816 0.052360147 0.010454728
-0.0013729231 -0.26200223 -0.032135002 -0.17679578 0.0651269 0.0315906 0.15735504 0.072984055
-0.28150776 0.16424079 0.015412354 -0.07470768 0.124818295 -0.24804474 0.0658797 0.11393778
-0.08698886 0.085992076 0.11248184 0.021142185 -0.17284568 0.070941575 0.18613964 -0.04637176
0.089099206 0.12774727 -0.13351385 -0.19998391 0.0912816 0.003485023 -0.2146905 -0.23970258
-0.09268338 0.033582214 0.009365268 -0.17511404 -0.0126420455 0.018402189 -0.19624156 0.17474708
0.17580372 0.08438147 -0.2401362 -0.24432652 -0.103094436 0.11780469 -0.05056419 0.25143215
-0.074638456 0.07750725 0.11460519 -0.11121487 0.059816964 0.07301697 0.018700324 -0.09554617
-0.17479628 0.01795859 -0.20092814 -0.08629701 0.00580491 0.09700432 0.12282841 -0.18487409
-0.08518297 0.040913522 -0.07367688 -0.08950633 -0.11545278 -0.054228738 -0.010492787 -0.12912214
0.07779932 -0.11648877 -0.17306986 0.09587276 -0.12328559 0.11372265 -0.13455102 -0.1748767
0.2520951 0.026557522 0.19390787 0.2465608 0.13456069 0.18803786 0.07639922 -0.1496122
-0.088517316 -0.051262356 -0.03350574 0.120562844 0.025482163 -0.21060888 0.016012361 -0.019697286
0.05550582 -0.113539346 0.1324628 -0.16759111 0.23186432 0.11415326 -0.31085488 -0.29196495

self_attn.qkv_proj.bias f4 [108]
00000000: 6d10 043c 6501 543c 8340 ebbc 10e3 0a3c
00000010: c946 a2bc dbe5 b7bc a037 fcbc d91b f73c
00000020: ed29 543c c3bb 413a daa0 083d e541 e8ba
00000030: 1966 c1bc 1b92 6b3c 8203 e0bc 9f13 9b3c
00000040: 2b7d 983c 3250 c4bc dba1 7cbc d7d3 11bd
00000050: 9c81 82bd 37c2 1a3d 07ee e73c 5a73 aa3b
00000060: 60bd a0bc f6ef 963d 2c04 bb3c 0417 163d
00000070: 9984 f5bc b4d3 613c fc2b 35bc 1c0f ae3d
00000080: 048f 923d 44e0 e73c 2a87 203d 89f0 fd3a
00000090: d616 f73b 9668 8b3b b119 a33b 7691 bcbc
000000a0: dba5 8fbb 5ef3 28bc 1f2e eb3b 4f1a a13c
000000b0: e9b8 8e3c dc6e abbb 4784 d13c 0a3b cebc
000000c0: be2c 0bb9 5b6c f23b 47e1 ee39 2b63 df3c
000000d0: a48d ccbc c57f 2a3c 4c9e ae3b 75ec aa3a
000000e0: efde ebbc 75b7 b5bb dd32 2c3a 4c80 d8bc
000000f0: 10d4 c3bb d692 17bc 07d1 b73c 4dd8 4cbc
00000100: 565e 65bc 1971 aabb 0708 c8bc bfce 7b3c
00000110: 7099 d33c 2821 fd3c 2f4e 4c3c 6192 35bc
00000120: 0ea4 9f3d 55d2 45bd 5823 203d 1be1 3fbb
00000130: aa6a 1c3d 5834 a5bd da94 f6bd aaa8 a83b
00000140: 2a85 0cbd 93a7 3f3d 6d5f 833d 4fa7 b7bd
00000150: 0f32 1abd 6e1f 773d b758 9cbd 1a86 bc3d
00000160: 8882 8abe 0558 d83d a6eb 403b ba44 023e
00000170: 8918 d73d fc15 fd3d 0a5d 87bd 8b7a 093e
00000180: 9473 f13d f9f9 e2bc 296f 923d cd93 76bc
00000190: 1500 d3bd e33d 16be 7e79 4e3c f981 b63d
000001a0: 0c9a 223e 4cba bf3d 5ff3 49be 1fc7 1bbe
0.008060557 0.012939786 -0.028717285 0.0084769875 -0.019809144 -0.02244847 -0.030788243 0.030164646
0.012949449 0.00073903444 0.033356525 -0.0017719833 -0.023608254 0.014378096 -0.027345423 0.018930255
0.018614372 -0.023964021 -0.015419449 -0.035602417 -0.06372377 0.037782874 0.028311742 0.0052017393
-0.019621551 0.07369988 0.022829138 0.036643043 -0.029970454 0.013783384 -0.01105785 0.08498976
0.07156184 0.02830518 0.039191402 0.0019374053 0.007540564 0.004254411 0.004977428 -0.02301858
-0.004383785 -0.0103119295 0.007177129 0.019665865 0.017422156 -0.0052317213 0.02557577 -0.025174636
-0.00013272741 0.007398171 0.00045562742 0.027268967 -0.024969883 0.010406439 0.005328929 0.001304044
-0.028792826 -0.0055455514 0.00065688585 -0.026428364 -0.0059762076 -0.009251317 0.02243854 -0.012502742
-0.013999542 -0.0052014706 -0.02441789 0.015369116 0.02583 0.0308996 0.012469812 -0.011082263
0.07794963 -0.04829629 0.039096206 -0.002927846 0.03818766 -0.080666244 -0.1204011 0.0051470594
-0.034306683 0.04679067 0.064146854 -0.089674585 -0.037645396 0.060332708 -0.076341085 0.09205265
-0.27052712 0.105636634 0.0029437332 0.1272153 0.105027266 0.12357709 -0.06609543 0.13425653
0.11789623 -0.027707087 0.07150108 -0.015049887 -0.1030275 -0.14672045 0.012602208 0.08911509
0.15879077 0.09361705 -0.19721745 -0.15212677

self_attn.o_proj.weight f4 [36, 36]
00000000: 5e1a 453e d22e 1bbc 928e 503e ae68 ba3d
00000010: a2ce 9a3d cb7e 75bd 6451 ac3d bbce 32bc
00000020: cd8f 183e 7baa 34bd be0d 8abe 47a2 9c3e
00000030: 9a84 70be 216c 373e 8def c5bd 493c 1c3d
00000040: dfab 7c3e e505 8bbe e831 3fbe dc5a 8e3e
00000050: 4152 51be 06cd fb3d 48ff 803e e8ee 65be
00000060: cf8a 62be e28b cdbd a4b6 253d 1109 37be
00000070: ce66 483e 0356 2fbe 9372 82be d018 93bd
00000080: bb7f cfbd 1867 ba3e d367 823e f70a bf3d
00000090: b3c7 933e 010e 923d 32d3 a3bb d8f6 a83e
000000a0: 7f85 1d3e 9c67 29be 8f8e 313d 1566 e3b8
000000b0: ccdd 3bbe 2dd6 a33e 9c47 333e ffd7 83be
000000c0: a256 8cbe dee0 563e 6b29 a73d e147 a43e
000000d0: 1eb7 8dbe 4e2d 263e 41ad 5d3e 4bd9 1b3e
000000e0: 98a1 743e 754d 7d3e f42b 05be ce4f 983d
000000f0: e2c5 89bc 1a4c 02be c0f7 9e3e 39ff f83d
00000100: b3bc 8ebe f583 84be 6449 dcbd 6841 103e
00000110: c834 453c d730 4c3e fde0 9e3a 8bf1 b7be
00000120: 7443 603e b4cc 17be 88b7 b33e 52e6 043e
00000130: 04a4 0a3e acf7 7cbe 0264 5bbd d246 e9bb
00000140: 8d8c 793d edb1 7e3e 50f7 d43e b62b 5e3e
00000150: b640 08be 675e 6a3e 4366 023e 6e24 54be
00000160: 40a6 023e aec1 7abe c449 76be 493d 12be
00000170: 1b4b b33d a1f3 4dbe 08f5 d8bc 6776 9d3c
00000180: 44f5 75bd 3135 af3d 9d36 60be ee0f 8d3e
00000190: 30fd 42bc 55fc 6b3d fd3c a33c 0b85 a93d
000001a0: 0839 4f3d 0603 bbbe 7edc 683e 60f6 37be
000001b0: 4aec 32be c6f2 b63a 4eb3 123e 4d0e 1ebe
000001c0: 48ee e43d 0bc3 0e3e ed67 173e fc8c b03e
000001d0: 8e63 813e 897b 3b3c efd6 f83d 61c1 3a3e
000001e0: 55cc b83c 1261 3cbe b1f9 b53e f105 9fbd
000001f0: f5c3 5c3e b830 c63d 5f83 81be 2765 a6be
00000200: 88ea bebe d404 89bd da57 ba3e 211f 1abe
00000210: 1d90 f8bd 4f2e 613e 0b4f 70bb 3f27 f13d
00000220: 4d3f f53c a30f 80bd 2aae de3c 92de 46be
00000230: 8fb3 0bbe aa3d 32be 5db3 dc3e 5649 593e
00000240: 5b71 cd3e 94ab 05be 9f4e 9bbd 9ece a5bd
00000250: e923 b23c 42b1 e1bd 86f1 23be 064a efbd
00000260: ee54 bbbe 4706 cb3d 9025 3cbe 75d1 3e3b
00000270: ad95 50be c719 d53e 64db 303d d374 c33d
00000280: 3dc0 eebd f347 633e cd5d 32bd e958 aa3e
00000290: 28ca a83e e795 d13d dd2b 3a3c ae1f b43e
000002a0: 333d e43d 4df8 e13d 4d86 553e abe6 b23d
000002b0: ab92 b5be bdca afbe 2d04 103d f10e 6bbe
000002c0: d220 c63e 403b 9338 3cf0 4c3d a350 aebe
000002d0: 9a82 2fbe 975b 743e 34b2 70bd 1752 203e
000002e0: bc0c 9d3d 4b6f 363e f016 f5bd 62af 293e
000002f0: 6485 f2bd 71d4 97be 88f1 17be de23 f1bc
00000300: f528 263e 2ab2 9cbe e851 72bd ec72 bcbc
00000310: b99c 51be 7101 bdbe ff7b e03d 3380 28bd
00000320: 1035 b1be 9e7f 8ebe 2361 b73e 729c 24be
00000330: 4bc3 ce3d e286 263d 4dcc 11be d210 12be
00000340: d90f 3e3e d694 d8bd b942 053e 12b5 f0bd
00000350: 2a80 303e e0b5 e93d 31f9 ba3d bfa2 3a3d
00000360: 3d44 c6bd 57eb 91be 2414 3c3e d8b0 3e3e
00000370: a3c8 253e b1be 523e c9da 7abd 1c24 0a3e
00000380: 83ce 8fbe 244e 733e 57f9 343e 2611 9bbe
00000390: 04c4 fa3d e99c d33d a9ef 003e 4f1c 2a3e
000003a0: b34c 17bd c713 c43e 4f7f 64bd e1c3 0e3e
000003b0: 58e3 01be 97cf 853c 5d5d 83bd a2fd 4e3e
000003c0: 519f 31be 6224 94be 72ed 91be 2d18 0dbe
000003d0: 3e28 023e 03d0 0abe dfa0 71be a5b7 a33e
000003e0: 4acd a43e bda2 fa3d d363 32be 7ce6 3f3c
000003f0: eaf4 403d 3141 c6bd 1bd7 b43d 3de8 b43d
0.1924834 -0.009471612 0.20366886 0.09101997 0.07558943 -0.059935372 0.084139615 -0.010913546
0.14898606 -0.044107895 -0.2696361 0.30592558 -0.23488083 0.17912342 -0.09664831 0.03814343
0.24674939 -0.27152935 -0.18671381 0.27803695 -0.20441534 0.122949645 0.25194764 -0.22454417
-0.22123264 -0.10036446 0.040457383 -0.17874552 0.19570467 -0.17122655 -0.25478038 -0.07182467
-0.101317845 0.3640678 0.25469837 0.09328263 0.28863296 0.07131577 -0.0049995417 0.33000827
0.15382956 -0.1654343 0.043348845 -0.00010843218 -0.18346328 0.3199934 0.17507786 -0.2575073
-0.27409846 0.20984218 0.08162197 0.3208609 -0.2767877 0.1622822 0.21648122 0.1521961
0.23889768 0.24736579 -0.13005048 0.074370965 -0.01681799 -0.12724343 0.31048393 0.12158055
-0.2787834 -0.25881925 -0.10756186 0.1408745 0.01203651 0.19940506 0.0012121495 -0.3592647
0.21900731 -0.14824182 0.3510096 0.12978485 0.1353913 -0.24703854 -0.05356217 -0.007119038
0.060925055 0.24872561 0.41594934 0.21696362 -0.13305935 0.22887574 0.12734322 -0.20717022
0.12758732 -0.24487945 -0.24051577 -0.14281191 0.087545596 -0.20112468 -0.026484028 0.019221498
-0.060048357 0.08555067 -0.21895833 0.27551216 -0.011901185 0.05761369 0.019926542 0.08277329
0.0505915 -0.36525744 0.22740361 -0.17965078 -0.1747295 0.001395785 0.14326212 -0.15435143
0.11178261 0.1394159 0.14785738 0.34482563 0.25271267 0.011443027 0.1215037 0.1823783
0.02255837 -0.18396404 0.35542062 -0.07764805 0.21559127 0.09677261 -0.2529554 -0.32499048
-0.37288308 -0.06690374 0.3639515 -0.15050937 -0.121368624 0.21990322 -0.0036668207 0.11775064
0.02993741 -0.062529825 0.027182657 -0.19420841 -0.13642715 -0.17406335 0.43105593 0.21219382
0.40125546 -0.13053733 -0.07583355 -0.0809605 0.021745639 -0.11020137 -0.16010103 -0.11684041
-0.36588234 0.09913307 -0.18373704 0.0029116545 -0.20369597 0.4162123 0.043177977 0.09543767
-0.1165776 0.22195415 -0.043546487 0.33270958 0.32966733 0.1023367 0.011362997 0.3518042
0.11144485 0.11033688 0.20852013 0.08735403 -0.3546346 -0.34334365 0.035160232 -0.22954918
0.38696915 7.0205424e-05 0.050033793 -0.34045896 -0.17139664 0.23863064 -0.058763698 0.15656315
0.076684445 0.17815892 -0.119672656 0.1657081 -0.118418485 -0.29654267 -0.1483823 -0.029436048
0.16226561 -0.30604678 -0.059160143 -0.023004018 -0.20469941 -0.36915162 0.109611504 -0.041137885
-0.34610796 -0.2783174 0.35816297 -0.16075304 0.10095843 0.040655978 -0.14238091 -0.14264229
0.18560733 -0.10575263 0.13013734 -0.117532864 0.1723639 0.11411643 0.09129561 0.045565363
-0.09680984 -0.28499863 0.18367058 0.18622148 0.16189818 0.20580555 -0.061243806 0.13490337
-0.28087243 0.23760277 0.1767324 -0.3028652 0.12244418 0.103326626 0.12591423 0.16612361
-0.03693838 0.3829634 -0.055785473 0.1394191 -0.12684381 0.016334338 -0.06414292 0.2021394
-0.1734593 -0.28934008 -0.2850147 -0.13778754 0.12710664 -0.13555913 -0.23596524 0.31976047
0.32187873 0.12238071 -0.17420892 0.011712667 0.04710857 -0.09680403 0.088300906 0.088333584

self_attn.o_proj.bias f4 [36]
00000000: f02a 27bd 9799 7b3e a3b0 76bd 193b 6bbe
00000010: 5c3a 5e3e 71a4 a9bd 1f6e d13d 4c6f cd3c
00000020: 23e5 c3bc 2646 1c3b d80f 5ebd d58a 4a3e
00000030: 4a25 2abe c64f 45be 5cef 0ebe b35a 09bd
00000040: 514a 013e 88a2 003d a0d3 e43c afd1 6c3c
00000050: a698 0bbd a174 f7bb dfdc 8bbd b0f5 df3d
00000060: 5829 7b3e 5eb3 30bd ae36 5e3e bcca 613e
00000070: df3e 98bd 60cf 66be 4b40 543e 960e 563e
00000080: 5b65 49be fae3 dabd 8131 49be 4eb5 92bd
-0.040812433 0.24570309 -0.060227048 -0.22971763 0.2170195 -0.08283318 0.10226082 0.025077485
-0.023912972 0.0023845523 -0.05421433 0.19779523 -0.16615787 -0.19268712 -0.13958496 -0.033533763
0.12626006 0.031405002 0.027932942 0.014454289 -0.034081124 -0.007551745 -0.06829237 0.10935533
0.2452749 -0.043139808 0.21700546 0.22049993 -0.07433867 -0.22540045 0.20727651 0.20904002
-0.1966757 -0.10688014 -0.1964779 -0.071634874

fc.weight f4 [1, 18]
00000000: 58e4 e9bd e253 71be 4fef 613e 40ea a2bd
00000010: 56d1 56be 40f6 2dbe 8197 6f3d a668 143e
00000020: 2640 c73c 809b 163d 1261 06bd 3897 203d
00000030: dfda a3bc 9328 413e d708 b53d 640e cfbd
00000040: bb77 ab3d d351 a9bd
-0.11420506 -0.23567155 0.22063945 -0.07954836 -0.20978293 -0.16988468 0.058494095 0.14493045
0.02432258 0.03676939 -0.032807417 0.039206713 -0.020001827 0.18863134 0.08839577 -0.10110167
0.08372446 -0.0826756

fc1.weight f4 [1, 36]
00000000: 6aa5 5ebf 1f91 243f f208 693f 3456 3fbf
00000010: a3d0 2b3f 8651 67bf 9dfe 613f 4d56 613f
00000020: 49dd 4fbf ba92 523f 7336 7bbf 3501 223f
00000030: 164e 27bf b681 aabe 9209 4ebf 0e83 843f
00000040: 486f 4e3f 62c2 33bf a1ef 80bf e253 813f
00000050: 2954 76bf 9ab6 8b3f a890 4dbf 3191 693f
00000060: a28c 343f a820 4ebf dbc6 2d3f 5ac8 333f
00000070: 14cd fcbe 89df 32bf 96f1 3e3f 3289 1f3f
00000080: 4dc4 15bf 07dc 60bf 8e76 33bf 47c8 6cbf
-0.8697115 0.6428394 0.91029274 -0.7474091 0.6711523 -0.9035877 0.88279134 0.8802231
-0.8119703 0.82255137 -0.9812996 0.6328309 -0.65353525 -0.33302087 -0.80483353 1.0352495
0.8063855 -0.7021848 -1.0073129 1.0103724 -0.9622217 1.09151 -0.8029885 0.9123717
0.7052709 -0.8051858 0.67881554 0.7022759 -0.49375212 -0.6987234 0.7458738 0.6231872
-0.58502656 -0.87835735 -0.70102775 -0.924931

fc2.weight f4 [1, 9]
00000000: 2c47 9cbe 6255 a5be 5bc5 aebd 1675 f7bc
00000010: a8fa 7f3e aee9 5ebe 2c4b a5be 56b9 a83a
00000020: e40d 9ebe
-0.3052305 -0.32291704 -0.08533736 -0.030207198 0.24997962 -0.21768829 -0.32283914 0.0012872617
-0.30869973

fc3.weight f4 [1, 2]
00000000: 9b81 023f c8dc 15bf
0.5097901 -0.5854001

input_fc.weight f4 [18, 3]
00000000: e750 d3be eae4 ea3e e2ba 203d e885 863e
00000010: 54b9 763c d748 1abe c346 8d3e 9571 c0be
00000020: 5dfe dd3e d67e b93e a1f0 10bf 5222 9a3e
00000030: 6448 45be 60b6 b33e 81fd 1cbe 68e5 2a3e
00000040: 5f99 7cbd 243c 90bb 5999 473e 8fe9 283d
00000050: de82 6fbe 355e 1c3f 8be9 963e 7744 46be
00000060: a762 733d 7aa5 e2be f94a 60be bd47 773e
00000070: 56e3 0b3f 3c7b e9be 1ab3 92be 219b e1be
00000080: 05e5 8f3e 8198 2dbf 61f9 173e 52c1 273e
00000090: 9408 993e 442a 2d3c 63ee ac3d f2c1 073f
000000a0: 08ef 6ebe 8e5a 883e 9efa f13e f732 16be
000000b0: 5ed4 18be f846 dc3e 7e0f 75be 9bc8 543d
000000c0: 1dcf 84be e94c 033f e438 b4be f617 903e
000000d0: c94d d6be bef4 233e
-0.4127266 0.45877773 0.039240725 0.26274037 0.015058834 -0.15066849 0.2759305 -0.37586656
0.43358126 0.3622958 -0.5661717 0.3010431 -0.19265896 0.3510008 -0.15331079 0.16689074
-0.061669704 -0.0044017006 0.19492091 0.041238364 -0.23389766 0.6108125 0.29475054 -0.19362055
0.059420254 -0.44266874 -0.219036 0.2414846 0.5464376 -0.45601833 -0.2865227 -0.44063666
0.28104416 -0.6781083 0.14841224 0.1638234 0.29889357 0.010569159 0.08443906 0.5303031
-0.2333337 0.26631588 0.47261518 -0.14667879 -0.14924762 0.43022895 -0.23931691 0.051949125
-0.25939265 0.5128923 -0.35199654 0.2814328 -0.4185622 0.1601133

input_fc.bias f4 [18]
00000000: c043 b9bd d0ac 1abe 8917 28be 1c80 86bc
00000010: d6a2 873c f21f b53e b737 cbbe 8a5b dd3e
00000020: 77d9 e9be 8bbb 25be 681f fcbd 77ba 92be
00000030: 1029 713e 170d c33e 7202 52be 7e54 04be
00000040: c9b7 353e 01fa f73e
-0.090461254 -0.15104985 -0.16415228 -0.01641851 0.016557138 0.35375935 -0.39690945 0.432339
-0.45673725 -0.16184823 -0.12310678 -0.28657886 0.2355082 0.38095924 -0.20508745 -0.12922856
0.1774589 0.48432925

norm.weight f4 [36]
00000000: 0000 803f 0000 803f 0000 803f 0000 803f
00000010: 0000 803f 0000 803f 0000 803f 0000 803f
00000020: 0000 803f 0000 803f 0000 803f 0000 803f
00000030: 0000 803f 0000 803f 0000 803f 0000 803f
00000040: 0000 803f 0000 803f 0000 803f 0000 803f
00000050: 0000 803f 0000 803f 0000 803f 0000 803f
00000060: 0000 803f 0000 803f 0000 803f 0000 803f
00000070: 0000 803f 0000 803f 0000 803f 0000 803f
00000080: 0000 803f 0000 803f 0000 803f 0000 803f
1.0 1.0 1.0 1.0 1.0 1.0 1.0 1.0
1.0 1.0 1.0 1.0 1.0 1.0 1.0 1.0
1.0 1.0 1.0 1.0 1.0 1.0 1.0 1.0
1.0 1.0 1.0 1.0 1.0 1.0 1.0 1.0
1.0 1.0 1.0 1.0

norm.bias f4 [36]
00000000: 0000 0000 0000 0000 0000 0000 0000 0000
00000010: 0000 0000 0000 0000 0000 0000 0000 0000
00000020: 0000 0000 0000 0000 0000 0000 0000 0000
00000030: 0000 0000 0000 0000 0000 0000 0000 0000
00000040: 0000 0000 0000 0000 0000 0000 0000 0000
00000050: 0000 0000 0000 0000 0000 0000 0000 0000
00000060: 0000 0000 0000 0000 0000 0000 0000 0000
00000070: 0000 0000 0000 0000 0000 0000 0000 0000
00000080: 0000 0000 0000 0000 0000 0000 0000 0000
0.0 0.0 0.0 0.0 0.0 0.0 0.0 0.0
0.0 0.0 0.0 0.0 0.0 0.0 0.0 0.0
0.0 0.0 0.0 0.0 0.0 0.0 0.0 0.0
0.0 0.0 0.0 0.0 0.0 0.0 0.0 0.0
0.0 0.0 0.0 0.0

norm1.weight f4 [9]
00000000: 0000 803f 0000 803f 0000 803f 0000 803f
00000010: 0000 803f 0000 803f 0000 803f 0000 803f
00000020: 0000 803f
1.0 1.0 1.0 1.0 1.0 1.0 1.0 1.0
1.0

norm1.bias f4 [9]
00000000: 0000 0000 0000 0000 0000 0000 0000 0000
00000010: 0000 0000 0000 0000 0000 0000 0000 0000
00000020: 0000 0000
0.0 0.0 0.0 0.0 0.0 0.0 0.0 0.0
0.0

norm2.weight f4 [9]
00000000: 0000 803f 0000 803f 0000 803f 0000 803f
00000010: 0000 803f 0000 803f 0000 803f 0000 803f
00000020: 0000 803f
1.0 1.0 1.0 1.0 1.0 1.0 1.0 1.0
1.0

norm2.bias f4 [9]
00000000: 0000 0000 0000 0000 0000 0000 0000 0000
00000010: 0000 0000 0000 0000 0000 0000 0000 0000
00000020: 0000 0000
0.0 0.0 0.0 0.0 0.0 0.0 0.0 0.0
0.0

m.running_mean f4 [12]
00000000: 2379 8840 ca1c 8940 d474 8840 4747 8740
00000010: 549f 8640 ad05 8740 0bc5 8740 e9e9 8740
00000020: dbe9 8640 8233 8540 ca09 8440 5d0f 8440
4.264787 4.2847643 4.2642612 4.227451 4.206949 4.219443 4.242803 4.2473035
4.216047 4.1625376 4.126195 4.1268754

m.running_var f4 [12]
00000000: d38e fa44 22ba fa44 3ce3 fa44 dbf2 fa44
00000010: 99f1 fa44 dcf3 fa44 6b15 fb44 cc42 fb44
00000020: 9a6d fb44 668d fb44 629a fb44 bfab fb44
2004.4633 2005.8167 2007.1011 2007.5892 2007.5499 2007.6206 2008.6693 2010.0874
2011.425 2012.4187 2012.8245 2013.3671

linear_net.0.weight f4 [9, 18]
00000000: 97c3 703e c427 8e3d 7dc1 6f3d f769 663e
00000010: f0b9 00be 57cf 103e c285 0abe 9874 893d
00000020: ef30 6ebe 385c fabc 5888 5a3e d5c1 603e
00000030: 1a91 42bd 8130 e9bd 73d6 ccbc b2bc 1d3e
00000040: 0de2 733d 609f a5bd 2367 d2bd 21cd 1d3e
00000050: 864a 1fbe 42cb c0bd cca3 11bd eea4 613e
00000060: 1e68 393e bbc3 363e 4c68 23be 4284 a63d
00000070: 9aba 84bc 03ea ef3d 81a8 1f3e 9fd9 3cbe
00000080: 930d 43be 842d dd3c f138 6ebe a610 2e3e
00000090: bdb7 2ebe d842 0cbe 2bfd 893a d18e 093e
000000a0: 01bb 523e d842 323d 78e4 4d3e 5937 cb3d
000000b0: c0c7 6c3e ecf3 6dbd 023e 75bd 4256 95bd
000000c0: 45f6 23bd 1a26 4cbe a945 903d c720 2d3e
000000d0: 71ce f83d 684a 18be b2c2 5a3e d3c7 1dba
000000e0: 2579 e9bb c85d 51be c635 d3bd 8cec 9b3d
000000f0: c12e ea3c cc47 1abe 18e0 5f3e e72d ca3d
00000100: 5245 053e b066 0cbe 54e9 c2bd a3f4 963d
00000110: 6574 62be 010e e23d e22e 473c 7143 1a3e
00000120: dd37 393e 59cf 3e3d 68d0 fb3d 83a1 b33b
00000130: f671 6b3e 1d4b d6bc 93b5 14be 6819 01bd
00000140: f7dc 35be f156 0dbe 1bd4 523d 6c76 3a3e
00000150: 8fa8 443e 93d0 353e 172f 4e3e 878a 573e
00000160: 0a2d 11be a068 93bd 48b0 db3d a19e bdbd
00000170: ddb3 24bd 8f22 4c3e 0042 a8bc a31a 60bd
00000180: 5279 c63d b621 6c3e a70b d0bd 8988 fcbc
00000190: faba 56be ca4b e43c 2a48 c73c bd17 223e
000001a0: fc2f 45be 0387 15be c2d5 3b3e 928d d9bd
000001b0: bd52 7e3c 2f9f 4f3e 409c 513e 64dc 71bc
000001c0: 1b26 64be ee0d 46be fdbf 67be 694a 67bc
000001d0: cdb6 3bbe 1fbd 433e 0783 51be 4152 8fbd
000001e0: fbd3 ce3d 9da6 cbbd a2b3 343e 1d9a 4e3d
000001f0: 25d4 673e 93a3 093d 866a 133e 27d2 54be
00000200: c324 cdbd 21e4 d73d a183 b7bd aa12 9f3d
00000210: 5312 12be c095 3f3d f922 ec3c 5113 05be
00000220: 6d54 bcbb 2eba 3a3e 1c4b 32be 01f9 1f3d
00000230: c030 033e fe58 5e3e 3ee5 5bbe de62 da3d
00000240: b079 653e 142c 253e c52d 50be 3a0b 0cbd
00000250: 35ab ecbc 11c1 0abd 7a36 8b3c b714 7b3c
00000260: 33b2 ff3d 0225 3dbe e531 2abe 70df e9bb
00000270: 5a64 63be e5ac 6c3e b863 2c3e e773 d5bd
00000280: b8ca 2b3e 9879 d8bd
0.23512112 0.069411784 0.058534134 0.2250136 -0.1257093 0.14141594 -0.13527587 0.067116916
-0.23260854 -0.030561551 0.21341074 0.21948941 -0.04750166 -0.113862045 -0.025004601 0.15404013
0.05954175 -0.08087039 -0.10273578 0.15410282 -0.15555772 -0.09413768 -0.0355566 0.22035572
0.18106124 0.17848103 -0.15957755 0.08130695 -0.01620226 0.11714556 0.15591623 -0.18442391
-0.19048147 0.026999243 -0.23263909 0.16998538 -0.17062278 -0.13697374 0.001052772 0.13433386
0.20579149 0.04352078 0.20106685 0.09922666 0.23123074 -0.05809395 -0.05987359 -0.07291843
-0.040029783 -0.1993641 0.070445366 0.16907035 0.121487506 -0.14872134 0.21363333 -0.0006018851
-0.0071250373 -0.20445931 -0.10312991 0.07613477 0.028586747 -0.15066451 0.21862829 0.098720364
0.13014725 -0.13711047 -0.0951716 0.073708795 -0.22114713 0.11037827 0.012157174 0.1506479
0.18087716 0.04658446 0.1229561 0.0054819 0.22992691 -0.026158864 -0.1452239 -0.03151837
-0.17760073 -0.13802697 0.05147181 0.18209237 0.19204925 0.17755346 0.20135151 0.21048938
-0.14177337 -0.0719769 0.10726982 -0.09258772 -0.040210593 0.19935058 -0.020539284 -0.054712903
0.09691109 0.23059735 -0.101584725 -0.030826824 -0.20969763 0.02786817 0.024326403 0.15829368
-0.19256586 -0.14602284 0.18343261 -0.106227055 0.015522656 0.20275567 0.20469761 -0.014762018
-0.22280161 -0.19341251 -0.22631831 -0.014116862 -0.18331452 0.19115113 -0.20460139 -0.069981106
0.10099026 -0.09943888 0.1764665 0.050439943 0.2263952 0.033603262 0.14396104 -0.20783292
-0.10016777 0.10541559 -0.08960653 0.07767232 -0.14264803 0.046773672 0.02882527 -0.1299565
-0.005747369 0.18235084 -0.17411464 0.039055828 0.12811565 0.21713635 -0.21474168 0.10663389
0.22409701 0.16130096 -0.2032996 -0.034190394 -0.028890232 -0.03387553 0.01699375 0.015324763
0.12485161 -0.18471149 -0.16620596 -0.0071372315 -0.2220625 0.23112829 0.16834915 -0.10422497
0.1677655 -0.10570067

linear_net.0.bias f4 [9]
00000000: 3cc8 d3ba 6414 4ebe 91f8 053c 5e6d a13d
00000010: 57fb c7bd a5fc 053e f6d8 17bb 8255 013e
00000020: 4d93 6d3e
-0.0016157697 -0.20124966 0.008176939 0.07882188 -0.09764736 0.13084657 -0.002317009 0.12630275
0.23200722

linear_net.2.weight f4 [1, 9]
00000000: b026 6ebe ebee 6ebe 2cbf 803e a083 92bd
00000010: b8d8 74be 6b6d 353d 93d5 6abe 82a5 a63e
00000020: bb62 203e
-0.23256946 -0.23333327 0.25145853 -0.07154012 -0.23910797 0.044293802 -0.22933035 0.32548147
0.15662663

exp_avg f4 [108, 36]
00000000: 712d c43b 1954 8f3a 1918 e63a 4c30 6cbb
00000010: 9c00 4a3b d23f 4a3a bae0 26ba 7441 363c
00000020: 9b54 56bc de9a 003c 1885 11bc fa33 14bb
00000030: c6aa ad3b 5baa b63b 56c6 04b9 79d8 0f3a
00000040: f65d 3d3b da1d 51bb 0b7e efb7 e82a 6f37
00000050: 0cb2 5c39 d826 7bb8 4200 9b39 a333 c639
00000060: 2572 0139 cf17 053a 9fa9 3d38 90f2 093a
00000070: 5fa8 8837 2795 0a3a e882 c436 31aa 0a3a
00000080: 3340 0d36 e8ac 0a3a 7e0d 4b35 43ad 0a3a
00000090: 092f be3b 6b48 983a a375 ce3a 85b9 6cbb
000000a0: c87b 483b ef5b 4a3a de0a 04ba bccb 343c
000000b0: 9c4d 50bc ed73 013c c6e1 10bc db11 1abb
000000c0: 12fd a93b b721 b13b 596c 43b7 65c6 133a
000000d0: 28d7 403b f54d 4fbb 5dcd 16b8 9a13 ae37
000000e0: b1b1 6d39 c9a1 85b8 04d6 9639 ecaf c039
000000f0: 8610 fa38 5b6f 003a 9b07 3738 fcff 043a
00000100: f8dc 8337 cc98 053a 319d bd36 92ac 053a
00000110: f64a 0836 1faf 053a e4ec 4335 73af 053a
00000120: 18d8 5cba 1504 8f38 df70 01ba b358 8c39
00000130: 61b8 98b9 b6eb 52b8 51be ab39 900a 85ba
00000140: cba0 e53a b5ff ffb9 5ad9 453a 8dc6 dab7
00000150: 8cba 24ba c9aa 46ba e391 8739 ea27 6335
00000160: b2b1 f9b8 d5d8 a239 17ec c4b7 edb3 a838
00000170: 2ab6 79b7 2306 7cb6 b73c 3cb8 4850 59b8
00000180: ec0a a6b7 b19b 9cb8 5ce7 f4b6 f5b6 a3b8
00000190: 5d9c 30b6 0ea6 a4b8 b5fd 7db5 ffc4 a4b8
000001a0: c291 b6b4 01c9 a4b8 9739 03b4 85c9 a4b8
000001b0: 1482 b03b 5b96 1d3a b217 bd3a c65a 50bb
000001c0: e519 303b 661e 023a a281 58ba 53e2 0e3c
000001d0: 0143 36bc 29ab c93b e032 e8bb fcf2 a4ba
000001e0: d5f3 8a3b 4fff 8e3b ea55 18ba f485 fb38
000001f0: cafd 213b 644f 3abb 55ab 8eb7 945b 00b8
00000200: d833 1f39 a3a8 03b9 18cf 9439 f6a4 9939
00000210: a73d fc38 2b46 df39 d31c 3938 d545 e939
00000220: b468 8537 f194 ea39 63d8 bf36 4bc0 ea39
00000230: bbe5 0936 e8c5 ea39 6b3b 4635 9ec6 ea39
00000240: 9fba ff3b cfb3 b33a d99f 1f3b 4241 96bb
00000250: 97c6 813b 3dd0 833a 5ff2 6eba 595b 6c3c
00000260: fc2b 8cbc 5de2 243c 72f7 3bbc 45e3 3dbb
00000270: 8e3b e33b 101e f13b 0185 60b9 e4aa 403a
00000280: 7f8e 6e3b 8b29 86bb c6b1 5db8 d9db fa37
00000290: 70e5 8739 3d98 9fb8 f6e4 ca39 1bd8 013a
000002a0: a521 2a39 611c 2f3a a365 7938 8a96 353a
000002b0: a1b5 b337 856f 363a e835 0137 988b 363a
000002c0: 53c0 3936 3a8f 363a 0583 8535 b28f 363a
000002d0: a95a 87bb 3b59 50ba f075 b0ba 8f7b 1e3b
000002e0: cfc0 09bb a856 16ba 11c3 e939 be32 01bc
000002f0: 59bf 163c c092 b3bb e65d cc3b fb89 dc3a
00000300: 11f3 77bb ab95 84bb 7c3f e137 4b3c f6b9
00000310: 99c1 fcba 1a85 0d3b ddea 5e38 634f bdb8
00000320: 6006 f8b8 640d 1438 c6c1 51b9 041d 8db9
00000330: 6aa0 b0b8 6347 bdb9 1485 01b8 9c2a c4b9
00000340: 3bab 3ab7 5511 c5b9 2237 86b6 2f2f c5b9
00000350: 3ff2 c0b5 0833 c5b9 efae 0ab5 8833 c5b9
00000360: 2a1b 90bb 506b b1b9 ac8e 8bba 35d6 2a3b
00000370: 328e 0ebb 4025 a6b9 7f07 473a 293d d7bb
00000380: bab8 0f3c 5040 99bb 1c7c b13b 00b5 363a
00000390: afc7 52bb a036 54bb f2b3 2e3a 526d a038
000003a0: 8266 03bb a4ca 183b 21fb 83b7 158e c438
000003b0: 9243 05b9 a321 0339 2717 7ab9 8dd4 66b9
000003c0: 6434 d4b8 07e5 adb9 f9c0 1bb8 ea4d b6b9
000003d0: 4581 60b7 d067 b7b9 0f6c a1b6 4c8c b7b9
000003e0: 0d0f e8b5 0091 b7b9 d1cb 26b5 9c91 b7b9
000003f0: 18c8 3abc fb28 03bb 1cf6 57bb 7ad2 e03b
0.0059868624 0.0010935097 0.0017554789 -0.003603953 0.0030823117 0.00077151984 -0.00063658843 0.011124004
-0.013081695 0.007849423 -0.00888183 -0.0022613988 0.005299899 0.005574507 -0.00012662387 0.0005487274
0.0028895116 -0.0031908662 -2.8549714e-05 1.42555e-05 0.00021047163 -5.987924e-05 0.00029564096 0.00037803975
0.00012344921 0.0005077095 4.5219083e-05 0.000526228 1.6290867e-05 0.00052865077 5.8564947e-06 0.0005289643
2.1048006e-06 0.0005290047 7.5643027e-07 0.00052901 0.005803947 0.0011618262 0.0015751611 -0.003612132
0.0030591357 0.00077193876 -0.000503702 0.011034902 -0.012713816 0.007901174 -0.008842891 -0.0023509178
0.005187639 0.0054056305 -1.1648132e-05 0.0005637168 0.0029425118 -0.003163216 -3.5954046e-05 2.0751544e-05
0.00022668277 -6.372069e-05 0.00028769684 0.00036752166 0.00011924007 0.0004899406 4.3637683e-05 0.0005073545
1.5719314e-05 0.0005096316 5.6509384e-06 0.00050992623 2.0309212e-06 0.00050996424 7.298788e-07 0.00050996913
-0.00084245345 6.819532e-05 -0.00049377786 0.00026768967 -0.00029129072 -5.0287425e-05 0.00032757458 -0.0010150243
0.0017519234 -0.00048827907 0.00075473415 -2.6080083e-05 -0.0006283901 -0.00075785496 0.000258579 8.462217e-07
-0.000119063436 0.000310606 -2.3474959e-05 8.044378e-05 -1.488397e-05 -3.7554498e-06 -4.4879238e-05 -5.18116e-05
-1.9793828e-05 -7.4676595e-05 -7.2987004e-06 -7.806524e-05 -2.631706e-06 -7.8510595e-05 -9.4619037e-07 -7.856823e-05
-3.4006194e-07 -7.857569e-05 -1.2221277e-07 -7.857665e-05 0.0053866003 0.00060114794 0.0014426617 -0.0031792386
0.0026870903 0.0004963636 -0.0008259063 0.008720952 -0.011124373 0.006154437 -0.007086143 -0.0012584622
0.004240493 0.0043639312 -0.0005811142 0.000119935634 0.002471792 -0.0028428668 -1.7007502e-05 -3.0602867e-05
0.00015182735 -0.00012555956 0.00028383057 0.0002930534 0.0001202778 0.00042586154 4.413428e-05 0.00044493252
1.5903592e-05 0.00044742928 5.7174343e-06 0.00044775227 2.0548312e-06 0.0004477941 7.384721e-07 0.0004477994
0.0078042294 0.0013710203 0.0024356751 -0.004585416 0.0039604413 0.0010056567 -0.00091150956 0.014426076
-0.017110817 0.010063735 -0.01147257 -0.0028974575 0.0069345897 0.00735832 -0.00021411853 0.00073496834
0.0036400852 -0.004094308 -5.285607e-05 2.9904697e-05 0.0002592015 -7.6100674e-05 0.00038699032 0.00049531617
0.00016224997 0.0006679949 5.9460883e-05 0.0006927034 2.142304e-05 0.0006959367 7.70155e-06 0.000696355
2.7679096e-06 0.00069640914 9.947404e-07 0.00069641613 -0.0041306806 -0.00079478667 -0.0013462882 0.0024182533
-0.0021019464 -0.00057349587 0.0004458656 -0.007885633 0.009200894 -0.0054801404 0.0062367795 0.0016825789
-0.0037834088 -0.004046162 2.6851652e-05 -0.00046965698 -0.0019283771 0.0021594227 5.3147658e-05 -9.027009e-05
-0.00011826749 3.529842e-05 -0.0002000398 -0.00026915234 -8.4222134e-05 -0.00036102076 -3.0879935e-05 -0.0003741578
-1.1126332e-05 -0.0003758768 -3.9999295e-06 -0.00037609923 -1.4375618e-06 -0.0003761279 -5.166357e-07 -0.00037613162
-0.0043977695 -0.00033840025 -0.0010647378 0.0026067619 -0.0021752235 -0.0003168974 0.00075923646 -0.00656857
0.00877207 -0.004676856 0.0054164063 0.000696972 -0.0032162478 -0.0032381192 0.0006664387 7.649757e-05
-0.0020050113 0.0023314143 -1.5733358e-05 9.372473e-05 -0.0001270904 0.00012505664 -0.00023850483 -0.0002201369
-0.00010118706 -0.0003316777 -3.71346e-05 -0.00034771796 -1.3381538e-05 -0.00034981826 -4.8107536e-06 -0.0003500901
-1.7289727e-06 -0.00035012513 -6.213641e-07 -0.00035012967 -0.011400245 -0.002001344 -0.003295309 0.0068610283

exp_avg_sq f4 [108, 36]
00000000: ba25 fe3a 164d 4839 c468 0239 d7cf 803a
00000010: e98a 313a 9122 2538 3ddc 6438 fd13 003c
00000020: c0c1 123c 6836 963b e94c a93b b0d8 123a
00000030: e9a9 d23a f4b6 d83a 83b1 a738 7777 3c38
00000040: 3075 493a 03fd 363a 42ec b735 37d1 7a35
00000050: d3d2 7236 a1b9 6f36 5d7d bf36 047b d636
00000060: 82ee 8935 c4dc 4937 01b0 1434 77fb 5a37
00000070: cd78 9a32 5e4a 5d37 14b8 1f31 2297 5d37
00000080: 100b a52f 08a1 5d37 f187 2a2e 4ba2 5d37
00000090: fbc2 fa3a 4b77 4239 e559 fe38 e805 833a
000000a0: 0726 323a f974 1438 6324 7c38 9274 f63b
000000b0: 91bf 0d3c 03c4 933b baff a43b d7cd 0a3a
000000c0: 770c c83a e250 c93a 504e a938 eced 1c38
000000d0: 77ae 4e3a dea3 383a 7274 c735 9926 6d35
000000e0: 7247 7b36 dcf9 5f36 40f4 b536 dc53 d036
000000f0: 0e88 8235 b5ae 4137 0aa6 0c34 59d4 5137
00000100: b01c 9232 6401 5437 0913 1731 c749 5437
00000110: 351c 9c2f 1653 5437 284d 212e 4554 5437
00000120: ade8 d438 865a 6b37 852b e836 c1a2 8338
00000130: 6b42 2c38 a6e3 3136 026e 9936 9504 f239
00000140: 8ae2 f239 4386 9839 4e0c a439 fec1 3c38
00000150: cb4a b938 7a24 b738 f4c8 1037 25be a236
00000160: 0c1a 5b38 c6b5 3138 0b4a dc33 b270 a533
00000170: d8fe 5b34 7b90 2934 f316 8d34 fcb0 be34
00000180: 3309 5033 3e99 2735 00f8 e031 e8df 3435
00000190: fad0 6930 24ab 3635 bac5 f12e dbe6 3635
000001a0: 2bd5 792d 92ee 3635 f011 012c 93ef 3635
000001b0: 72cc 4e3a c325 8d38 ead1 3538 d772 df39
000001c0: 780c 9439 25ad 4937 645c ec37 d3e1 373b
000001d0: 6942 5b3b 8784 e33a 18da fb3a 6ec0 4539
000001e0: c070 133a 2025 0e3a bb6f 1738 649f 7537
000001f0: 6945 af39 a644 9c39 9534 2535 9ada c134
00000200: 72d4 c935 6ea7 b835 dad7 0a36 7407 2536
00000210: 3ad5 c634 c129 9636 5834 5633 7c5e a236
00000220: 4585 de31 a203 a436 ad13 6630 683a a436
00000230: f5be ed2e 7941 a436 cba6 752d 5b42 a436
00000240: a4fd 0f3b b2aa 8539 335a 4539 d951 8b3a
00000250: 51d3 453a 14c2 7638 d9be 8738 919e 243c
00000260: 05e4 333c d677 b83b 8180 d23b 8f67 583a
00000270: 8617 083b 4876 143b 484e ed38 c1b9 a538
00000280: 7d2f 5b3a 168b 473a ba1b d735 5a7e b035
00000290: 599f 9536 e87b 9336 be33 e736 a1f6 0737
000002a0: d87c a735 5226 7b37 f1ad 3434 3709 8837
000002b0: d1b9 bb32 7372 8937 f41a 4231 60a1 8937
000002c0: 5f93 c82f 77a7 8937 c03e 4f2e 3ca8 8937
000002d0: 80a1 9e3a d2ea 4139 ec9f 0a39 b0cd 293a
000002e0: a408 f339 727c 3138 d107 2038 32df d73b
000002f0: 107b d43b 0921 723b d583 883b 4bf7 293a
00000300: 5fa0 ad3a 1273 c33a 2e03 bb38 99d2 9738
00000310: 0861 0d3a ef43 ee39 f56f 7f35 1858 a235
00000320: e73a 4c36 0579 3c36 ec77 7d36 4695 ae36
00000330: de9f 3735 d76d 1537 ab1f c633 c9c1 2037
00000340: 0edb 4d32 2a49 2237 32da d430 fd7b 2237
00000350: a4f2 5b2f 9c82 2237 e942 e32d 7483 2237
00000360: 5c33 703a 3adc c838 2e50 5138 7d6b 143a
00000370: 4921 c039 5c2f 7937 27e5 2338 0049 643b
00000380: 5b15 7a3b 54a0 153b fa35 203b 7ce7 9039
00000390: e278 2d3a 6f69 1f3a eb14 6738 5d49 c137
000003a0: c280 f339 04d7 c939 e456 5b35 603a 0a35
000003b0: 299e f635 1c39 d935 9d03 1a36 a2b4 3a36
000003c0: cb08 de34 0cf2 a636 c06d 6f33 dd60 b436
000003d0: 3ac1 f831 0b31 b636 8a9a 8030 586d b636
000003e0: f3e3 042f 1e75 b636 334f 892d 2176 b636
000003f0: c094 953b 4ca6 fe39 a287 b039 8873 133b
0.0019389906 0.00019102203 0.00012436794 0.0009827566 0.00067727134 3.9371258e-05 5.456455e-05 0.007817266
0.008957326 0.0045841224 0.005166639 0.0005601747 0.0016072366 0.0016534016 7.996245e-05 4.4933953e-05
0.0007685004 0.00069804507 1.3703323e-06 9.3436705e-07 3.6183526e-06 3.5721825e-06 5.706838e-06 6.392018e-06
1.027671e-06 1.2031935e-05 1.3847604e-07 1.3052361e-05 1.7982893e-08 1.31899415e-05 2.3242182e-09 1.3207815e-05
3.0021186e-10 1.32101195e-05 3.8774265e-11 1.3210413e-05 0.0019131595 0.00018545722 0.00012128408 0.0009996267
0.00067958276 3.539489e-05 6.011537e-05 0.0075212205 0.00865163 0.0045094504 0.005035368 0.0005294955
0.0015262504 0.0015359188 8.073135e-05 3.741488e-05 0.00078842737 0.0007043461 1.4860545e-06 8.8345547e-07
3.7443501e-06 3.3375027e-06 5.422655e-06 6.2086456e-06 9.725352e-07 1.1544374e-05 1.309892e-07 1.2506812e-05
1.7009683e-08 1.26365085e-05 2.1984212e-09 1.2653362e-05 2.8396277e-10 1.265553e-05 3.667569e-11 1.2655805e-05
0.00010152287 1.4028168e-05 6.919205e-06 6.276882e-05 4.1069852e-05 2.6507564e-06 4.572562e-06 0.0004616125
0.00046326622 0.00029091732 0.00031289685 4.5003362e-05 8.835419e-05 8.732914e-05 8.629857e-06 4.850112e-06
5.2237927e-05 4.236938e-05 1.0258017e-07 7.7039104e-08 2.0488676e-07 1.5791913e-07 2.6279994e-07 3.551903e-07
4.843714e-08 6.2435345e-07 6.5474524e-09 6.738105e-07 8.506188e-10 6.8049326e-07 1.09945344e-10 6.813622e-07
1.4201344e-11 6.814745e-07 1.834196e-12 6.814891e-07 0.0007888741 6.7304376e-05 4.334926e-05 0.00042619437
0.0002823805 1.2020847e-05 2.8176415e-05 0.0028058186 0.0033456332 0.0017358222 0.0019214777 0.0001885907
0.0005624406 0.0005422402 3.6105263e-05 1.4640249e-05 0.00033430316 0.00029805786 6.1543807e-07 3.6108105e-07
1.5037497e-06 1.3757797e-06 2.0689245e-06 2.4591254e-06 3.7035517e-07 4.475209e-06 4.9873364e-08 4.8389757e-06
6.4762014e-09 4.888004e-06 8.3701474e-10 4.8943803e-06 1.0811433e-10 4.895203e-06 1.3963673e-11 4.8953057e-06
0.002197125 0.00025494915 0.00018820986 0.0010629251 0.0007546442 5.883172e-05 6.47285e-05 0.010047571
0.010979657 0.00562952 0.0064240103 0.00082551775 0.0020765974 0.002265351 0.00011315622 7.9024125e-05
0.00083612633 0.0007611973 1.6026818e-06 1.3149795e-06 4.4590965e-06 4.395366e-06 6.89036e-06 8.10405e-06
1.2478804e-06 1.4969688e-05 1.6827086e-07 1.6216754e-05 2.1854165e-08 1.6384967e-05 2.8246037e-09 1.6406819e-05
3.6484502e-10 1.6409655e-05 4.7122084e-11 1.6410013e-05 0.0012102574 0.00018493392 0.00013220281 0.0006477488
0.0004635501 4.2315987e-05 3.8154252e-05 0.0065878863 0.0064843968 0.003694596 0.004166106 0.0006483688
0.0013246647 0.0014911613 8.917447e-05 7.239468e-05 0.0005393182 0.00045445512 9.515782e-07 1.2095579e-06
3.0432655e-06 2.8084626e-06 3.7769742e-06 5.202982e-06 6.840545e-07 8.906666e-06 9.225854e-08 9.581862e-06
1.1982378e-08 9.672987e-06 1.5487045e-09 9.684821e-06 2.0004137e-10 9.686362e-06 2.5836626e-11 9.686559e-06
0.00091629266 9.5777636e-05 4.9904156e-05 0.0005661769 0.00036645893 1.4852583e-05 3.9075643e-05 0.003483355
0.0038159702 0.0022831159 0.0024446235 0.0002763829 0.0006617439 0.00060810795 5.5094173e-05 2.3041555e-05
0.00046444504 0.00038497907 8.17103e-07 5.1493953e-07 1.8374459e-06 1.6184381e-06 2.2949891e-06 2.7821302e-06
4.135712e-07 4.9753635e-06 5.574634e-08 5.3756944e-06 7.2397173e-09 5.429732e-06 9.357148e-10 5.436752e-06
1.2086314e-10 5.437657e-06 1.5610268e-11 5.4377747e-06 0.0045648515 0.00048570556 0.0003367039 0.0022499282

exp_avg f4 [108]
00000000: 4fad 0a3a 81af 053a 98c9 a4b8 b9c6 ea39
00000010: c58f 363a 9b33 c5b9 b391 b7b9 921c 83ba
00000020: a0d3 b6ba f7b4 70b8 292a 09ba c036 45b8
00000030: 8ed1 a9b9 3f28 b43a 7e18 2fb5 4a80 f9b9
00000040: 50f9 7c3a 6a1b 063a 9f62 9bba dfd9 bf39
00000050: 4129 1b3a b6d5 9339 d15f 02ba a149 b338
00000060: 4120 6a38 5b69 423a 8160 1cba e37a af3a
00000070: ef16 ed3a 87f6 08b9 b7d4 1338 c898 96ba
00000080: 34df 96ba 3d42 85ba 2a7d 81ba db27 ff39
00000090: d305 b731 9c3c cd31 7735 97b0 3256 61ae
000000a0: 6df5 6832 28e5 d7b1 a4f7 9e31 7dcd 62b2
000000b0: 4052 18b2 205e 6a31 3b5e 8cb1 588e 17b0
000000c0: c69f 0bb2 4a40 dd31 f026 0e32 6ac3 90b1
000000d0: 3368 5231 56cd c931 d621 2030 c220 7b32
000000e0: de4e 2c32 996b 74b2 9bb8 98b1 c27c d7b1
000000f0: 4378 f530 bd67 b6b2 d883 98b1 1d6b ca31
00000100: 51fe 9431 85cb a6b2 bb05 fdb1 cbc1 05b2
00000110: d4ff cbb1 fd2f 4eb2 7310 b4b1 0d13 ea31
00000120: d92a c03a f246 4fbb c3d8 6d3b 9e54 92bb
00000130: 1067 b63b d9c7 31bb 0a92 aa3b 3dd6 2d3b
00000140: 9bea a7bb 10eb 9d3b 1fa6 be3b 2b34 d5ba
00000150: db85 453b e029 7f3b cf59 6eb9 fc1c b3ba
00000160: 6660 8a3a 5bac 413b 4ec5 b5bb 1c99 9abb
00000170: 8908 0c3b 0def cebb bcac a0bb 3608 8bbb
00000180: 9785 263a 160a a3bb 4c20 9ebb a60a 293b
00000190: 6dd9 d63b d9a2 1c3b 376d 1639 3283 843b
000001a0: 1565 94ba 1deb adbb 0bb0 153a 4235 563a
0.0005290107 0.00050996995 -7.857679e-05 0.00044780018 0.00069641724 -0.00037613217 -0.00035013034 -0.0010003021
-0.0013948567 -5.7388996e-05 -0.00052324176 -4.701945e-05 -0.00032390322 0.0013744904 -6.522822e-07 -0.00047588564
0.00096501876 0.00051157793 -0.0011854953 0.00036592686 0.0005918928 0.00028197252 -0.0004973384 8.5490996e-05
5.5819986e-05 0.0007416212 -0.0005965308 0.0013388064 0.00180885 -0.0001306181 3.5245637e-05 -0.0011489624
-0.0011510612 -0.0010166835 -0.0009879221 0.00048667085 5.326663e-09 5.9731757e-09 -1.1001892e-09 -5.1235634e-11
1.3559981e-08 -6.2833756e-09 4.6265587e-09 -1.3201654e-08 -8.866266e-09 3.4104986e-09 -4.085249e-09 -5.513576e-10
-8.127193e-09 6.4392554e-09 8.274341e-09 -4.2131676e-09 3.0618252e-09 5.873214e-09 5.8255745e-10 1.4617571e-08
1.002965e-08 -1.4227134e-08 -4.4447694e-09 -6.271507e-09 1.7860277e-09 -2.1234763e-08 -4.438771e-09 5.891151e-09
4.3362793e-09 -1.9417493e-08 -7.3639206e-09 -7.785682e-09 -5.937162e-09 -1.2001689e-08 -5.2405595e-09 6.812462e-09
0.0014661207 -0.003162798 0.003629253 -0.0044656536 0.005566485 -0.0027127175 0.0052053975 0.00265254
-0.0051244027 0.0048192814 0.005818143 -0.0016266158 0.0030139599 0.0038934872 -0.00022730905 -0.0013665254
0.0010557293 0.0029552195 -0.005547202 -0.004717959 0.0021367392 -0.006315118 -0.004903404 -0.004242922
0.0006352304 -0.0049755676 -0.0048256274 0.00257937 0.006556681 0.0023900776 0.000143458 0.00404396
-0.0011321629 -0.0053075687 0.00057101314 0.0008171388

exp_avg_sq f4 [108]
00000000: 7aa2 5d37 7b54 5437 b1ef 3635 7e42 a436
00000010: 54a8 8937 8c83 2237 5176 b636 f31a 0938
00000020: 137c 6b38 d802 9f36 1792 3e37 56fc 5d36
00000030: ae81 9136 113d 9638 5a32 c635 9e4f 0137
00000040: 00d0 b937 8173 6837 6425 6138 606e a036
00000050: 2352 4237 5605 7136 6cb2 2437 c074 3035
00000060: 23aa 3034 535e 5337 521f da36 8461 3e38
00000070: 8523 ca38 f553 cc36 19a9 4235 4cdc 4138
00000080: 9391 2138 f06d fd37 d06a 2438 95d4 fb36
00000090: cffa a626 458d 2b26 aceb 0e26 6114 da25
000000a0: 6d97 ee26 114f 0426 9653 3b27 9b32 4327
000000b0: dbaa da26 201b c524 929d ca25 9770 5226
000000c0: a579 4326 713f 4027 7ed1 bc26 a3db cd25
000000d0: b8cd e025 673c 9726 575d 9627 8ec0 1627
000000e0: d68d 1a27 70c8 8d27 cea5 7a26 96d8 a625
000000f0: 689c 1e24 4c7b 4b28 a87c b526 080f 3526
00000100: 3a44 6d27 5339 9d27 c794 4e26 c6eb b126
00000110: a271 fb25 40fe 0e27 eb22 7826 a2d0 0f26
00000120: a57c c738 00ef 3e39 0b13 0339 0db6 1439
00000130: 5112 8239 fd1d 8a38 740d 2939 5bbe 5a38
00000140: 5f84 c039 563b b339 34fc 9639 5d0f d238
00000150: b0d2 a738 d405 9239 16b1 1338 7620 9d37
00000160: 9eaa a838 cdcc 3e39 fafd 7439 1175 2039
00000170: 29e1 2539 aa0e 8239 1f68 ba39 911a de38
00000180: ee0a 8838 2eb5 7139 68e2 4939 500e e038
00000190: 1301 8939 5ebb 3938 c5b8 b236 a49f 3239
000001a0: c415 3938 e51c 5539 8c01 2f38 2c5e f737
1.3210456e-05 1.2655854e-05 6.814908e-07 4.8953216e-06 1.6410057e-05 9.686581e-06 5.4377965e-06 3.2688444e-05
5.614392e-05 4.7389003e-06 1.1358897e-05 3.3078445e-06 4.3364334e-06 7.163932e-05 1.4766804e-06 7.7075365e-06
2.2150576e-05 1.385517e-05 5.3679003e-05 4.781221e-06 1.1582425e-05 3.5914904e-06 9.816704e-06 6.5735003e-07
1.6453173e-07 1.2598542e-05 6.5005524e-06 4.539035e-05 9.6387266e-05 6.0894477e-06 7.25167e-07 4.6219953e-05
3.8520968e-05 3.0211144e-05 3.9200124e-05 7.5051307e-06 1.1586546e-15 5.9519e-16 4.958554e-16 3.783078e-16
1.6555612e-15 4.5903855e-16 2.5996775e-15 2.708912e-15 1.5173099e-15 8.548108e-17 3.5148188e-16 7.3010974e-16
6.7819075e-16 2.6679744e-15 1.3101904e-15 3.5710663e-16 3.8997206e-16 1.0494102e-15 4.1734563e-15 2.0921066e-15
2.1448683e-15 3.9352676e-15 8.696088e-16 2.8943174e-16 3.439327e-17 1.12954994e-14 1.2593186e-15 6.281736e-16
3.2927343e-15 4.3638405e-15 7.167224e-16 1.2345749e-15 4.361856e-16 1.9844288e-15 8.6089607e-16 4.989584e-16
9.512276e-05 0.00018208846 0.00012500228 0.00014182199 0.0002480918 6.5859385e-05 0.00016122108 5.2152533e-05
0.00036719718 0.0003418575 0.00028798135 0.00010016442 8.002424e-05 0.00027851632 3.5212455e-05 1.8730974e-05
8.042644e-05 0.00018196106 0.00023364267 0.000153024 0.00015819505 0.00024806458 0.0003555426 0.00010590733
6.487021e-05 0.00023051046 0.00019253197 0.00010683818 0.00026131477 4.4281936e-05 5.3263234e-06 0.00017034874
4.4127708e-05 0.00020324027 4.1724692e-05 2.9488547e-05
