SensorFormer/SensorFormer/result/ensemble/LCS12_9.pt (torch, 81661 bytes, 35 tensors)

self_attn.qkv_proj.weight f4 [108, 36]
0	0xbe3a3642	-0.1818476
1	0x3e124f54	0.14288074
2	0x3e576109	0.2103311
3	0x3de54c14	0.111961514
4	0xbe0c31a1	-0.13690807
5	0x3e64ba3d	0.2233667
6	0xbe303c61	-0.17210533
7	0x3ded024b	0.11572703
8	0xbcd5ea71	-0.026112767
9	0xbdb00fc2	-0.085967556
10	0xbe310a03	-0.17288975
11	0xbddfc21d	-0.10925696
12	0xbd7ab97b	-0.061212044
13	0xbbbe90ec	-0.005815616
14	0x3e454681	0.19265176
15	0x3d1e16e9	0.038596068
16	0x3dae4792	0.08509745
17	0x3e551389	0.20808233
18	0x3d80767e	0.062726006
19	0xbd3f590c	-0.04671578
20	0xbe09b668	-0.13448489
21	0xbe154b91	-0.14579608
22	0xbd265342	-0.040606745
23	0xbd09ea19	-0.03367052
24	0xbe0353fe	-0.12825009
25	0xbd94ba80	-0.072621346
26	0x3ca68f0e	0.020331886
27	0x3c8ebc20	0.01742369
28	0x3b68836d	0.0035478726
29	0x3d7097d7	0.058738556
30	0xbd58f4db	-0.052967887
31	0xbdecf3b3	-0.115699194
32	0xbdb75947	-0.08952575
33	0x3e4ba1a8	0.19885886
34	0x3e2bc06e	0.16772625
35	0xbe1ed470	-0.15510726
36	0xbe33ec18	-0.17570531
37	0x3c83018c	0.015991949
38	0xb9009db7	-0.00012265785
39	0x3de53904	0.111925155
40	0xbdb5cc6c	-0.08876881
41	0x3dd6c63a	0.104870275
42	0xbd792fd6	-0.060836636
43	0xbe098db4	-0.13432962
44	0xbceb4330	-0.028718561
45	0x3e31cdae	0.17363617
46	0x3e183240	0.14862919
47	0xbe8187c5	-0.25298896
48	0x3db98b31	0.09059752
49	0x3e6c5c82	0.23082164
50	0x3d858157	0.0651881
51	0x3de45f0c	0.11150941
52	0x3dd352c2	0.10318519
53	0x3cc28e06	0.023749363
54	0xbd9f7b06	-0.07787137
55	0x3e219696	0.157801
56	0x3dde5368	0.10855752
57	0xbe5684f9	-0.20949163
58	0x3e482123	0.1954389
59	0x3e2dd93b	0.16977398
60	0x3e5380dd	0.20654626
61	0xbd8f026e	-0.06982885
62	0xbcc78406	-0.024354946
63	0x3e1958e6	0.14975318
64	0x3e482857	0.19546638
65	0xbe0ba9a5	-0.13638933
66	0x3e5985dd	0.21242471
67	0x3df9c213	0.1219522
68	0x3ddc58d9	0.10759134
69	0xbd04b4d7	-0.032399025
70	0x3cb8710e	0.022514846
71	0x3e133405	0.14375313
72	0xbcba5eaf	-0.022750227
73	0x3e241707	0.16024409
74	0xbe35e89c	-0.17764515
75	0xbc81ae30	-0.01583013
76	0xbda70501	-0.08155251
77	0x3c9576ad	0.018245066
78	0x3de61750	0.11234915
79	0x3d197341	0.03746343
80	0xbd51a631	-0.051183883
81	0xbdce076f	-0.100600116
82	0x3e10f5aa	0.14156213
83	0xbd4f15e4	-0.050557986
84	0x3da029f5	0.07820503
85	0x3d9d56aa	0.076825455
86	0x3e087f4d	0.13329811
87	0x3e0468de	0.12930629
88	0x3de3c96e	0.11122404
89	0xbdec4ccd	-0.11538086
90	0xbd8f4b0c	-0.06996736
91	0x3db88300	0.09009361
92	0xbe1c25a3	-0.15248732
93	0x3df78ce1	0.120874174
94	0xbe053075	-0.13006766
95	0xbd570cd0	-0.052502453
96	0xbdc1ec0d	-0.09468851
97	0xbdd7eb17	-0.10542887
98	0xbcd44a48	-0.025914326
99	0x3e0575fd	0.1303329
100	0xbd68e90a	-0.05686287
101	0xbdd8b842	-0.105820194
102	0x3dcc06c3	0.09962227
103	0xbe0e4589	-0.13893713
104	0xbc17855a	-0.009248102
105	0xbd3c4339	-0.045962546
106	0xba8cc856	-0.0010740857
107	0x3d853294	0.06503788
108	0x3d070f33	0.03297348
109	0xbd65eb39	-0.05613253
110	0x3e4f1965	0.20224531
111	0x3dbeccb2	0.09316386
112	0xbd8a720a	-0.067600325
113	0x3de6c1c2	0.11267425
114	0xbdce86f1	-0.10084332
115	0x3c8ebf24	0.017425127
116	0xbdf221a9	-0.118228264
117	0x3d4d8187	0.050172355
118	0x3e5876df	0.21139096
119	0xbe1ee8be	-0.15518472
120	0xbe1f51b4	-0.15558511
121	0x3e5a7dc4	0.21337038
122	0xbd4156e0	-0.04720199
123	0x3e7f2158	0.24915063
124	0x3d3fa478	0.04678771
125	0xbd162546	-0.03665664
126	0xbc4243b3	-0.011856961
127	0xbe0018d1	-0.12509467
128	0x3e3842c5	0.1799422
129	0xbe3116b1	-0.17293812
130	0x3d49aa72	0.049234815
131	0xbdc079d1	-0.09398235
132	0x3e38c15d	0.18042512
133	0x3ded27f0	0.11579883
134	0x3e47c9cb	0.19510572
135	0xbd8d0340	-0.068853855
136	0x3dbc5a5e	0.09196924
137	0xbe15677e	-0.1459026
138	0x3e113848	0.14181626
139	0xbd33fdda	-0.043943264
140	0x3db85e46	0.09002356
141	0x3dedf606	0.11619191
142	0xbdcc584a	-0.09977777
143	0x3e064138	0.13110816
144	0xbdfdd390	-0.12393868
145	0x3db5ac3f	0.08870744
146	0x3ca47740	0.020076394
147	0x3d950189	0.072756834
148	0xbd0ab737	-0.033866134
149	0x3e5e9074	0.21734792
150	0x3d9a66d4	0.07539144
151	0x3c8cc13c	0.017181985
152	0xbc32c4f1	-0.010911212
153	0xbe788cd5	-0.24272473
154	0xbd4106d7	-0.047125664
155	0xbe241bd7	-0.16026245
156	0x3d896889	0.067093916
157	0x3c7704d5	0.015076836
158	0x3e1589f9	0.14603414
159	0x3c48e890	0.0122624785
160	0xbe7d0315	-0.24708207
161	0x3e0de8f6	0.13858399
162	0x3ce6e46b	0.02818509
163	0xbda02382	-0.078192726
164	0x3dc1a686	0.0945559
165	0xbe8c66b6	-0.27422112
166	0x3da4ac3b	0.08040663
167	0x3de6354c	0.11240634
168	0xbd91f97c	-0.071276635
169	0x3dbf2984	0.0933409
170	0x3e05ece3	0.13078646
171	0x3ceb2bf8	0.02870749
172	0xbe217ff0	-0.1577146
173	0x3da22cef	0.07918727
174	0x3e523fd7	0.20532165
175	0xbd2184e9	-0.039433394
176	0x3ddb8279	0.10718245
177	0x3e0bee1d	0.13665052
178	0xbdf19219	-0.11795444
179	0xbe477302	-0.19477466
180	0x3dc4f2df	0.096166365
181	0x3cb9d4ff	0.022684572
182	0xbdbd0380	-0.09229183
183	0xbe5dcf39	-0.2166108
184	0xbdc66aef	-0.09688365
185	0x3da40679	0.08009047
186	0xbd14c35f	-0.036319133
187	0xbe1af8db	-0.15133993
188	0xbd1005b3	-0.035161685
189	0x3cba5edf	0.022750316
190	0xbe59b04d	-0.2125866
191	0x3df90aef	0.121602885
192	0x3e5a10dd	0.21295495
193	0x3e132c42	0.14372352
194	0xbe4de74a	-0.20107761
195	0xbe0c6c2b	-0.13713138
196	0xbe0655a6	-0.1311861
197	0x3e06dd1d	0.13170286
198	0xbd4f10e2	-0.05055321
199	0x3e8760f5	0.2644116
200	0xbcdacbac	-0.026708446
201	0x3d966bc4	0.073447734
202	0x3e0f5a09	0.1399919
203	0xbda0eb0a	-0.0785733
204	0x3da79843	0.081833385
205	0x3dd2e3b2	0.10297336
206	0x3d238108	0.039917976
207	0xbd8b7502	-0.06809427
208	0xbe1f8b13	-0.15580396
209	0x3d3eec45	0.046612043
210	0xbe3a9d8f	-0.18224166
211	0xbd70f725	-0.058829445
212	0x3cdb9e46	0.02680887
213	0x3e0192f7	0.12653719
214	0x3e149887	0.1451131
215	0xbe225278	-0.15851772
216	0xbdc3011f	-0.09521698
217	0x3c4b7a33	0.012419271
218	0xbe138149	-0.14404787
219	0xbdb89e3c	-0.09014556
220	0xbdf435e7	-0.119243436
221	0xbe117eb5	-0.14208491
222	0xbb035da3	-0.0020044826
223	0xbe19c79f	-0.15017556
224	0x3dc412e2	0.09573914
225	0xbe07f544	-0.13277155
226	0xbe2270c1	-0.15863325
227	0x3e095442	0.13411048
228	0xbe192ba3	-0.14958052
229	0x3da8e806	0.0824738
230	0xbe220659	-0.15822734
231	0xbe72ba80	-0.23703957
232	0x3e834dd4	0.25645316
233	0x3ce9fced	0.028562987
234	0x3e214c16	0.1575168
235	0x3e65b088	0.22430623
236	0x3e0c2b94	0.13688499
237	0x3e586768	0.21133196
238	0x3d61e4eb	0.055149954
239	0xbe29ff09	-0.16601194
240	0xbde65d1d	-0.11248229
241	0xbd91e2a8	-0.071233094
242	0xbd693e77	-0.056944337
243	0x3dd11b75	0.10210315
244	0x3b30d200	0.0026980639
245	0xbe6e71a8	-0.23285544
246	0xbbe15246	-0.006876263
247	0xbd230237	-0.039797034
248	0x3d0776ce	0.033072285
249	0xbe09ee06	-0.13469705
250	0x3de32c95	0.11092488
251	0xbe41e763	-0.18935923
252	0x3e635507	0.22200404
253	0x3dcb711c	0.09933683
254	0xbe84796d	-0.2587389
255	0xbe8a309f	-0.2699022

self_attn.qkv_proj.bias f4 [108]
0	0x3c9111bf	0.017708657
1	0x3cc76836	0.024341684
2	0xbd4b12cb	-0.04957847
3	0x3cac9879	0.021068798
4	0xbc4def46	-0.012569254
5	0x3bbc05ce	0.0057379967
6	0xbd50f44d	-0.051014233
7	0x3cd4a958	0.025959656
8	0xba3ded03	-0.00072450953
9	0x3ccc6675	0.0249512
10	0x3cc3de71	0.02390978
11	0x3ca19c77	0.019727929
12	0xbcb75b18	-0.022382304
13	0x3cef7b1d	0.02923351
14	0xbd1c92c5	-0.038225908
15	0xbb80aee8	-0.0039271004
16	0x3cd54c85	0.026037464
17	0xbc98d92b	-0.018658241
18	0xbca0616f	-0.01957771
19	0xbc908d65	-0.017645547
20	0xbd9bf571	-0.076151736
21	0x3d637ee7	0.055540945
22	0x3caf25f7	0.021380408
23	0xbb202f41	-0.0024442228
24	0xbc5294a5	-0.012852822
25	0x3d9a331f	0.07529282
26	0x3d1dfd4c	0.03857164
27	0x3d36c21c	0.04461871
28	0xbca0ccc4	-0.01962889
29	0x3c5b3103	0.0133783845
30	0xbd5c978b	-0.05385546
31	0x3d9f1d34	0.07769242
32	0x3d94d1e0	0.07266593
33	0x3ceba5da	0.028765608
34	0x3d1e7da8	0.038694054
35	0xbc70d40a	-0.014698992
36	0x3c4931d5	0.012279947
37	0x3c2b2737	0.010446361
38	0x3bbd8b76	0.0057844473
39	0xbcaaa2ef	-0.020829646
40	0x3ba52fe8	0.0050411113
41	0xbca7d6c2	-0.020488147
42	0x3c2312d9	0.009953224
43	0x3c39e7c4	0.011346761
44	0x3c3d1e93	0.011542934
45	0xbb5eb33b	-0.0033981341
46	0x3c9f83e3	0.019472068
47	0xbcd701f5	-0.02624605
48	0xbbfccddf	-0.0077149714
49	0x3c3b7e34	0.011443663
50	0x3bf0d5b9	0.0073496965
51	0x3ca8fdc4	0.020628817
52	0xbca4ea2a	-0.02013119
53	0x3c7a5163	0.015278193
54	0x3ba9e553	0.0051848083
55	0x3c0c87af	0.008577271
56	0xbcaefbcf	-0.021360306
57	0xbc4b9165	-0.0124248015
58	0xbb915d7c	-0.004436193
59	0xbd02c1c9	-0.03192309
60	0x3a816f34	0.000987506
61	0xbc7b5b37	-0.0153415715
62	0x3c961134	0.01831875
63	0xbbcc1627	-0.0062282267
64	0xbc263a13	-0.010145682
65	0xbc75a6c8	-0.014993377
66	0xbcfd5558	-0.030924484
67	0x3c19e70d	0.009393466
68	0x3c976b36	0.01848374
69	0x3cb62ad2	0.022237215
70	0x3bf8aacd	0.0075887204
71	0xbac2d506	-0.0014864511
72	0x3d2327ab	0.039832752
73	0xbc41210a	-0.011787662
74	0x3ca86ff2	0.020561192
75	0x3ce076a3	0.02740032
76	0x3bd5d216	0.0065252883
77	0xbd2f8208	-0.042848617
78	0xbe0c5243	-0.13703255
79	0xbc99260d	-0.018694902
80	0x3bc76ae8	0.0060857423
81	0x3ca5d178	0.020241484
82	0x3cfca2a7	0.030839277
83	0xbd5f7f96	-0.054565035
84	0xbd88d656	-0.06681506
85	0x3cdabfa8	0.026702717
86	0xbd3c742c	-0.046009228
87	0x3d89bf53	0.06725945
88	0xbe6d68c2	-0.23184493
89	0x3d8bb9c3	0.068225406
90	0x3ce76cf9	0.028250204
91	0x3e0d5197	0.13800655
92	0x3d88c63d	0.06678436
93	0x3e0e3215	0.13886292
94	0xbd17fd92	-0.037107058
95	0x3e148b97	0.14506374
96	0x3da98e52	0.082790986
97	0x3c04ee2e	0.008113427
98	0x3dc503fd	0.09619901
99	0xbd2a9aca	-0.041651525
100	0xbdedf962	-0.116198316
101	0xbe0bf4bc	-0.13667578
102	0xbd435bf5	-0.04769512
103	0x3d52924b	0.051409047
104	0x3e00f1b9	0.1259221
105	0x3de1ac0b	0.11019143
106	0xbe22397b	-0.1584224
107	0xbdefb7c7	-0.117049746

self_attn.o_proj.weight f4 [36, 36]
0	0x3e4d4a07	0.2004777
1	0xbc2f0450	-0.0106821805
2	0x3e59e2b0	0.2127788
3	0x3db7dc2d	0.08977542
4	0x3d962f3d	0.07333229
5	0xbd53540b	-0.05159382
6	0x3db42f1e	0.087980494
7	0xbc534639	-0.01289516
8	0x3e1504d8	0.14552629
9	0xbd0f443d	-0.034977186
10	0xbe8ca821	-0.27472022
11	0x3e9c4236	0.30519265
12	0xbe75a528	-0.23988783
13	0x3e4bed27	0.19914685
14	0xbdce2746	-0.100660846
15	0x3cf7b916	0.030239623
16	0x3e7fb11c	0.24969906
17	0xbe87c683	-0.2651864
18	0xbe3dbd36	-0.1852921
19	0x3e90eb24	0.28304398
20	0xbe486d28	-0.1957289
21	0x3dfc013d	0.12304924
22	0x3e7e4302	0.24830249
23	0xbe6a5c9b	-0.22886889
24	0xbe635f2e	-0.22204277
25	0xbdcd41b4	-0.100222975
26	0x3d1d8024	0.038452283
27	0xbe35a094	-0.17737037
28	0x3e4e7201	0.20160677
29	0xbe2f7901	-0.17136003
30	0xbe8fa59f	-0.28056046
31	0xbda3129d	-0.079625346
32	0xbdd5e8c2	-0.10444786
33	0x3ebbcfff	0.36682126
34	0x3e841c64	0.2580291
35	0x3dc10502	0.09424783
36	0x3e853493	0.26016673
37	0x3dbd5521	0.09244753
38	0xbce7aabb	-0.028279653
39	0x3ea39bd9	0.3195484
40	0x3e32359b	0.17403261
41	0xbe3cacdf	-0.1842532
42	0x3d85bcd2	0.06530155
43	0x3c32b3fd	0.01090717
44	0xbe38496f	-0.17996763
45	0x3e92d02a	0.28674442
46	0x3e48a7ba	0.19595233
47	0xbe6fa0ef	-0.23401235
48	0xbe956314	-0.29177153
49	0x3e33bb1c	0.17551845
50	0x3dea35c5	0.11436037
51	0x3e9ce9a2	0.30646998
52	0xbe7e03fb	-0.24806206
53	0x3e0c7cc8	0.13719475
54	0x3e537f1f	0.20653962
55	0x3e12d7f0	0.14340186
56	0x3e5177a3	0.20455794
57	0x3e67d43c	0.22639555
58	0xbdcb74a1	-0.099343546
59	0x3d522b92	0.051311083
60	0xbd469c61	-0.04848898
61	0xbe081c6e	-0.13292095
62	0x3ea5ba07	0.3236849
63	0x3dbce857	0.09224003
64	0xbe84ae30	-0.25914145
65	0xbe72082c	-0.2363593
66	0xbdc7df2c	-0.097593635
67	0x3e21f3cb	0.15815656
68	0xbc8f7e73	-0.01751635
69	0x3e49d392	0.19709614
70	0x3d0ef748	0.034903795
71	0xbeaa841f	-0.33303925
72	0x3e62fd88	0.22167027
73	0xbe1c578c	-0.15267771
74	0x3eb3f8b2	0.35150677
75	0x3e0ae86a	0.13565221
76	0x3e0de707	0.13857661
77	0xbe844840	-0.25836372
78	0xbd76ff24	-0.060301915
79	0xbbded8e6	-0.0068007587
80	0x3d848023	0.06469753
81	0x3e7c416c	0.24634331
82	0x3ed78e2b	0.42100653
83	0x3e5fa893	0.2184165
84	0xbe043494	-0.12910682
85	0x3e6147f9	0.22000112
86	0x3e0338c3	0.12814622
87	0xbe4afda8	-0.19823325
88	0x3dffbfcd	0.12487755
89	0xbe80b1b9	-0.25135592
90	0xbe7b15ac	-0.24519986
91	0xbe13fc3c	-0.14451689
92	0x3dac6db4	0.08419362
93	0xbe4b9e2f	-0.19884561
94	0xbcc6e6f7	-0.024280054
95	0x3cc9c1df	0.024628578
96	0xbd6dc23e	-0.058046572
97	0x3dacdfca	0.08441122
98	0xbe61a155	-0.220342
99	0x3e8f041f	0.27932832
100	0xbc9e96f7	-0.019359095
101	0x3d57f682	0.052725323
102	0x3d3c7d9c	0.046018228
103	0x3db922d3	0.09039845
104	0x3d6aea0f	0.057352122
105	0xbebbdc76	-0.36691636
106	0x3e654dbc	0.22392935
107	0xbe3db30c	-0.18525332
108	0xbe1eb4cf	-0.1549866
109	0xbc49584d	-0.012289119
110	0x3e2078b3	0.15671043
111	0xbe0b4c27	-0.13603269
112	0x3dc0a195	0.09405819
113	0x3e1d4426	0.15358028
114	0x3df1faf7	0.11815446
115	0x3eab4419	0.33450392
116	0x3e7f45ae	0.24928924
117	0x3d1434d2	0.036183186
118	0x3dcf4c40	0.101219654
119	0x3e2b6535	0.16737826
120	0x3d16022d	0.03662317
121	0xbe294864	-0.16531521
122	0x3eabddbb	0.33567604
123	0xbd682145	-0.056672353
124	0x3e386d62	0.18010476
125	0x3deb69ad	0.114947654
126	0xbe75148c	-0.2393362
127	0xbea048b0	-0.31305456
128	0xbeb48c45	-0.35263267
129	0xbd0daf14	-0.034590796
130	0x3eb229b9	0.34797457
131	0xbdf36328	-0.11884147
132	0xbdcd52b6	-0.100255415
133	0x3e64fbce	0.22361681
134	0xbc02de70	-0.007987604
135	0x3e0ec1c1	0.13941099
136	0xbb88aaf8	-0.0041707717
137	0xbdc92e00	-0.09823227
138	0x3d101e27	0.035185006
139	0xbe54d73d	-0.20785232
140	0xbdc9fcce	-0.09862672
141	0xbe2938fd	-0.16525646
142	0x3ec8fdd7	0.39256164
143	0x3e3e76f3	0.18600063
144	0x3ec136cd	0.37737122
145	0xbddadad1	-0.10686267
146	0xbdc70cad	-0.097192146
147	0xbdb9adda	-0.09066363
148	0x3d066d9f	0.032819387
149	0xbde28bdb	-0.110618316
150	0xbe09b8e5	-0.13449438
151	0xbdf252d2	-0.11832203
152	0xbeb2c055	-0.34912363
153	0x3d967f17	0.07348459
154	0xbe311df0	-0.17296576
155	0x3ce53d93	0.027983462
156	0xbe7086f4	-0.2348898
157	0x3eca9ed3	0.39574298
158	0x3d8dec92	0.06929888
159	0x3d9875e7	0.07444363
160	0xbda8f121	-0.08249117
161	0x3e4b5a6b	0.1985871
162	0xbd3591c5	-0.04432847
163	0x3eac23b9	0.33621004
164	0x3e9b8d5d	0.3038129
165	0x3d9802c5	0.07422403
166	0x3d12c3b6	0.035831176
167	0x3ea6b7f4	0.3256222
168	0x3daf9dc4	0.08575013
169	0x3e043089	0.1290914
170	0x3e6a6e93	0.22893743
171	0x3d7e4253	0.06207497
172	0xbea788a1	-0.32721427
173	0xbea14c83	-0.31503686
174	0x3c06e5bd	0.008233485
175	0xbe6f5a65	-0.23374327
176	0x3eb54405	0.35403457
177	0x3b931762	0.0044888714
178	0x3dbc84bd	0.09205005
179	0xbea1f1cf	-0.31629798
180	0xbe2ad3c4	-0.16682345
181	0x3e76917d	0.24078937
182	0xbd5e6e3e	-0.054304354
183	0x3e20bc7d	0.15696903
184	0x3d99e2f3	0.0751399
185	0x3e407a1b	0.1879658
186	0xbdf3adda	-0.11898394
187	0x3e2918e0	0.16513395
188	0xbe013453	-0.12617616
189	0xbe94f5eb	-0.2909387
190	0xbe1b7590	-0.15181565
191	0xbd0a5192	-0.033769198
192	0x3e2579af	0.161597
193	0xbe949c93	-0.29025707
194	0xbd7bf968	-0.06151715
195	0xbd041bbe	-0.03225302
196	0xbe5400fe	-0.20703503
197	0xbeb9da60	-0.3629942
198	0x3dedf9ef	0.11619937
199	0xbd1a8390	-0.037723124
200	0xbead17ce	-0.33807224
201	0xbe907106	-0.2821123
202	0x3eb6b9da	0.35688668
203	0xbe27ab56	-0.16373953
204	0x3dd26494	0.1027309
205	0x3d2af8af	0.04174107
206	0xbe13a4d1	-0.14418341
207	0xbe118de7	-0.14214288
208	0x3e42cb33	0.19022827
209	0xbdd8bfde	-0.10583471
210	0x3de57269	0.11203463
211	0xbdff45c7	-0.12464481
212	0x3e3128a5	0.17300661
213	0x3defc70c	0.11707887
214	0x3dbabb58	0.09117764
215	0x3d3f2c0e	0.046672873
216	0xbdd19310	-0.10233128
217	0xbe94b46e	-0.29043907
218	0x3e392ec7	0.1808425
219	0x3e3f62cc	0.18690032
220	0x3e2d7fc0	0.16943264
221	0x3e4970b6	0.19671902
222	0xbd7bf5e8	-0.06151381
223	0x3e10b95b	0.14133207
224	0xbe909ecd	-0.28246155
225	0x3e6c36cf	0.23067783
226	0x3e3c3485	0.1837941
227	0xbe9b9797	-0.3038909
228	0x3e04f586	0.12984285
229	0x3db2877f	0.0871725
230	0x3e05b084	0.13055617
231	0x3e331eaf	0.17492174
232	0xbd118ce0	-0.03553474
233	0x3ec2a0b7	0.3801324
234	0xbd82fed5	-0.063962616
235	0x3e0a7f61	0.13525154
236	0xbe0d94a5	-0.13826235
237	0x3c70f1fd	0.014706132
238	0xbd70eea2	-0.058821328
239	0x3e502c5b	0.2032942
240	0xbe34d3ef	-0.17658971
241	0xbe982f71	-0.29723695
242	0xbe947697	-0.28996727
243	0xbe116305	-0.14197929
244	0x3e035f3f	0.12829302
245	0xbe0b9880	-0.13632393
246	0xbe5c1413	-0.21492033
247	0x3eaa75f7	0.33293125
248	0x3ea68372	0.3252216
249	0x3df70883	0.1206217
250	0xbe33263b	-0.17495053
251	0x3c53f2a1	0.012936265
252	0x3d4495ea	0.04799453
253	0xbdd1645f	-0.102242224
254	0x3db3d319	0.08780498
255	0x3dbad6d8	0.091230094

self_attn.o_proj.bias f4 [36]
0	0xbc72fb97	-0.0148304915
1	0x3e45e656	0.19326147
2	0xbda945e0	-0.08265281
3	0xbe37f5a9	-0.17964806
4	0x3e350441	0.17677404
5	0xbd679fc5	-0.056548852
6	0x3d99ba00	0.0750618
7	0x3b038c96	0.002007281
8	0x3a821b71	0.0009926391
9	0xbcd2286c	-0.02565404
10	0xbcf44a35	-0.02982054
11	0x3e39c5b0	0.18141818
12	0xbdf5cd0d	-0.12002001
13	0xbe453787	-0.19259463
14	0xbdcc3781	-0.09971524
15	0xbd52b615	-0.05144318
16	0x3dab76c1	0.0837226
17	0x3d6e6d86	0.05820992
18	0x3d49d196	0.049272142
19	0xbbe8f955	-0.007109801
20	0xbc234631	-0.009965465
21	0xbce42c4b	-0.027853152
22	0xbd1c8843	-0.038215887
23	0x3da554b8	0.080727994
24	0x3e507848	0.20358384
25	0xbc23d29f	-0.009998946
26	0x3e4b23fd	0.19837947
27	0x3e2e06ef	0.16994832
28	0xbd86d245	-0.065830745
29	0xbe361ae7	-0.177837
30	0x3e1a094d	0.1504261
31	0x3e286a3c	0.16446775
32	0xbe15e7ea	-0.1463925
33	0xbda4c1e1	-0.08044792
34	0xbe21f820	-0.15817308
35	0xbd303cf9	-0.043026898

fc.weight f4 [1, 18]
0	0xbde9e458	-0.11420506
1	0xbe7153e2	-0.23567155
2	0x3e61ef4f	0.22063945
3	0xbda2ea40	-0.07954836
4	0xbe56d156	-0.20978293
5	0xbe2df640	-0.16988468
6	0x3d6f9781	0.058494095
7	0x3e1468a6	0.14493045
8	0x3cc74026	0.02432258
9	0x3d169b80	0.03676939
10	0xbd066112	-0.032807417
11	0x3d209738	0.039206713
12	0xbca3dadf	-0.020001827
13	0x3e412893	0.18863134
14	0x3db508d7	0.08839577
15	0xbdcf0e64	-0.10110167
16	0x3dab77bb	0.08372446
17	0xbda951d3	-0.0826756

fc1.weight f4 [1, 36]
0	0xbf30cd7c	-0.69063544
1	0x3f108119	0.5644699
2	0x3f387913	0.72059745
3	0xbf2f423b	-0.68460435
4	0x3f1d58a7	0.614634
5	0xbf41589e	-0.75525844
6	0x3f38ddff	0.7221374
7	0x3f2e8c2c	0.68182635
8	0xbf264167	-0.64943546
9	0x3f224d07	0.63398784
10	0xbf4d9572	-0.8030616
11	0x3f188d28	0.5959039
12	0xbf1269ee	-0.57192886
13	0xbe9eb8fb	-0.31000504
14	0xbf36e431	-0.7144194
15	0x3f5ce252	0.8628284
16	0x3f366ffc	0.71264625
17	0xbf02dce5	-0.5111831
18	0xbf4fa5ef	-0.8111257
19	0x3f52d088	0.82349443
20	0xbf4815a1	-0.78158003
21	0x3f6742df	0.9033641
22	0xbf2b52c3	-0.6692316
23	0x3f4326d9	0.7623115
24	0x3f25ac54	0.64716077
25	0xbf2d07c0	-0.6758995
26	0x3f21c760	0.6319485
27	0x3f216efe	0.63059986
28	0xbee3e6ef	-0.44512126
29	0xbf1f86b7	-0.62314934
30	0x3f2dff22	0.67967427
31	0x3f101fc4	0.5629847
32	0xbf03a07e	-0.51416767
33	0xbf35bed1	-0.7099429
34	0xbf24abbd	-0.6432455
35	0xbf497a38	-0.78702116

fc2.weight f4 [1, 9]
0	0xbe9c472c	-0.3052305
1	0xbea55562	-0.32291704
2	0xbdaec55b	-0.08533736
3	0xbcf77516	-0.030207198
4	0x3e7ffaa8	0.24997962
5	0xbe5ee9ae	-0.21768829
6	0xbea54b2c	-0.32283914
7	0x3aa8b956	0.0012872617
8	0xbe9e0de4	-0.30869973

fc3.weight f4 [1, 2]
0	0x3f02819b	0.5097901
1	0xbf15dcc8	-0.5854001

input_fc.weight f4 [18, 3]
0	0xbec4af32	-0.38414913
1	0x3ef41f1d	0.47679988
2	0x3d710c6f	0.05884975
3	0x3e83956b	0.25699934
4	0x3cc9ee2c	0.024649702
5	0xbe1c4a6e	-0.15262768
6	0x3e7d1fc0	0.24719143
7	0xbec86fc9	-0.39147785
8	0x3ed32611	0.4123998
9	0x3ea5ee42	0.3240834
10	0xbf16acbc	-0.5885732
11	0x3e8c5234	0.27406466
12	0xbe1f4161	-0.15552284
13	0x3ebff196	0.37489003
14	0xbdfa1cb7	-0.12212508
15	0x3e1bc350	0.15211225
16	0xbd8ba2ac	-0.068181366
17	0xbcc26c15	-0.023733178
18	0x3e33e382	0.17567256
19	0x3d212f5f	0.039351817
20	0xbe76fe05	-0.24120338
21	0x3f197825	0.5994895
22	0x3e990f1a	0.29894334
23	0xbe59fc49	-0.21287645
24	0x3d2c6f78	0.042098492
25	0xbee400b9	-0.445318
26	0xbe583eb3	-0.21117668
27	0x3e80bb84	0.25143063
28	0x3f112bab	0.5670726
29	0xbeead74a	-0.45867378
30	0xbe9d7044	-0.30749714
31	0xbee92043	-0.45532426
32	0x3e926a42	0.28596693
33	0xbf2934aa	-0.66095984
34	0x3e1e4d5e	0.154592
35	0x3e3d3abb	0.18479435
36	0x3e9dd452	0.3082605
37	0x3c593feb	0.013259868
38	0x3d990a29	0.07472641
39	0x3f048362	0.51762974
40	0xbe73aabc	-0.23795599
41	0x3e80f233	0.25184783
42	0x3ee818db	0.45331463
43	0xbe1f141e	-0.15535018
44	0xbe2fd35b	-0.1717047
45	0x3ecee17d	0.4040641
46	0xbe7f62e1	-0.24940063
47	0x3cf99bbf	0.030469773
48	0xbe5e325f	-0.21698903
49	0x3f098695	0.5372098
50	0xbea51883	-0.32245263
51	0x3e7d203e	0.2471933
52	0xbee1ad2b	-0.4407743
53	0x3e06ffe6	0.13183555

input_fc.bias f4 [18]
0	0xbd8e513b	-0.06949087
1	0xbe225d7a	-0.15855971
2	0xbe4a2939	-0.19742288
3	0xbd533d3a	-0.051572062
4	0x3d5454d7	0.051838722
5	0x3eace9f8	0.33772254
6	0xbed3dff2	-0.41381794
7	0x3ed4df00	0.41576385
8	0xbee59ab9	-0.44844607
9	0xbe2f865a	-0.17141095
10	0xbde21446	-0.11039023
11	0xbe890a4e	-0.26765674
12	0x3e609393	0.21931295
13	0x3eb95886	0.3620035
14	0xbe685ac0	-0.22690868
15	0xbe2041af	-0.15650056
16	0x3e5fd0d4	0.21857005
17	0x3eea5a41	0.45771983

norm.weight f4 [36]
0	0x3f800000	1.0
1	0x3f800000	1.0
2	0x3f800000	1.0
3	0x3f800000	1.0
4	0x3f800000	1.0
5	0x3f800000	1.0
6	0x3f800000	1.0
7	0x3f800000	1.0
8	0x3f800000	1.0
9	0x3f800000	1.0
10	0x3f800000	1.0
11	0x3f800000	1.0
12	0x3f800000	1.0
13	0x3f800000	1.0
14	0x3f800000	1.0
15	0x3f800000	1.0
16	0x3f800000	1.0
17	0x3f800000	1.0
18	0x3f800000	1.0
19	0x3f800000	1.0
20	0x3f800000	1.0
21	0x3f800000	1.0
22	0x3f800000	1.0
23	0x3f800000	1.0
24	0x3f800000	1.0
25	0x3f800000	1.0
26	0x3f800000	1.0
27	0x3f800000	1.0
28	0x3f800000	1.0
29	0x3f800000	1.0
30	0x3f800000	1.0
31	0x3f800000	1.0
32	0x3f800000	1.0
33	0x3f800000	1.0
34	0x3f800000	1.0
35	0x3f800000	1.0

norm.bias f4 [36]
0	0x00000000	0.0
1	0x00000000	0.0
2	0x00000000	0.0
3	0x00000000	0.0
4	0x00000000	0.0
5	0x00000000	0.0
6	0x00000000	0.0
7	0x00000000	0.0
8	0x00000000	0.0
9	0x00000000	0.0
10	0x00000000	0.0
11	0x00000000	0.0
12	0x00000000	0.0
13	0x00000000	0.0
14	0x00000000	0.0
15	0x00000000	0.0
16	0x00000000	0.0
17	0x00000000	0.0
18	0x00000000	0.0
19	0x00000000	0.0
20	0x00000000	0.0
21	0x00000000	0.0
22	0x00000000	0.0
23	0x00000000	0.0
24	0x00000000	0.0
25	0x00000000	0.0
26	0x00000000	0.0
27	0x00000000	0.0
28	0x00000000	0.0
29	0x00000000	0.0
30	0x00000000	0.0
31	0x00000000	0.0
32	0x00000000	0.0
33	0x00000000	0.0
34	0x00000000	0.0
35	0x00000000	0.0

norm1.weight f4 [9]
0	0x3f800000	1.0
1	0x3f800000	1.0
2	0x3f800000	1.0
3	0x3f800000	1.0
4	0x3f800000	1.0
5	0x3f800000	1.0
6	0x3f800000	1.0
7	0x3f800000	1.0
8	0x3f800000	1.0

norm1.bias f4 [9]
0	0x00000000	0.0
1	0x00000000	0.0
2	0x00000000	0.0
3	0x00000000	0.0
4	0x00000000	0.0
5	0x00000000	0.0
6	0x00000000	0.0
7	0x00000000	0.0
8	0x00000000	0.0

norm2.weight f4 [9]
0	0x3f800000	1.0
1	0x3f800000	1.0
2	0x3f800000	1.0
3	0x3f800000	1.0
4	0x3f800000	1.0
5	0x3f800000	1.0
6	0x3f800000	1.0
7	0x3f800000	1.0
8	0x3f800000	1.0

norm2.bias f4 [9]
0	0x00000000	0.0
1	0x00000000	0.0
2	0x00000000	0.0
3	0x00000000	0.0
4	0x00000000	0.0
5	0x00000000	0.0
6	0x00000000	0.0
7	0x00000000	0.0
8	0x00000000	0.0

m.running_mean f4 [12]
0	0x4097c49e	4.742751
1	0x40987187	4.7638583
2	0x4097932f	4.7367167
3	0x409621b1	4.6916127
4	0x409569f8	4.6691856
5	0x4095a6cf	4.6766124
6	0x409646ee	4.6961584
7	0x40962a2d	4.6926484
8	0x4094e503	4.6529555
9	0x40934930	4.602684
10	0x40922c01	4.5678716
11	0x40924b90	4.571724

m.running_var f4 [12]
0	0x451d714e	2519.0815
1	0x451dac30	2522.7617
2	0x451e0dbc	2528.8584
3	0x451e337c	2531.2178
4	0x451e32d5	2531.177
5	0x451e41d4	2532.1143
6	0x451e74a1	2535.2893
7	0x451ed34e	2541.2065
8	0x451f3b87	2547.7205
9	0x451f3d1c	2547.8193
10	0x451f21f2	2546.1216
11	0x451f04e9	2544.307

linear_net.0.weight f4 [9, 18]
0	0x3e70c397	0.23512112
1	0x3d8e27c4	0.069411784
2	0x3d6fc17d	0.058534134
3	0x3e6669f7	0.2250136
4	0xbe00b9f0	-0.1257093
5	0x3e10cf57	0.14141594
6	0xbe0a85c2	-0.13527587
7	0x3d897498	0.067116916
8	0xbe6e30ef	-0.23260854
9	0xbcfa5c38	-0.030561551
10	0x3e5a8858	0.21341074
11	0x3e60c1d5	0.21948941
12	0xbd42911a	-0.04750166
13	0xbde93081	-0.113862045
14	0xbcccd673	-0.025004601
15	0x3e1dbcb2	0.15404013
16	0x3d73e20d	0.05954175
17	0xbda59f60	-0.08087039
18	0xbdd26723	-0.10273578
19	0x3e1dcd21	0.15410282
20	0xbe1f4a86	-0.15555772
21	0xbdc0cb42	-0.09413768
22	0xbd11a3cc	-0.0355566
23	0x3e61a4ee	0.22035572
24	0x3e39681e	0.18106124
25	0x3e36c3bb	0.17848103
26	0xbe23684c	-0.15957755
27	0x3da68442	0.08130695
28	0xbc84ba9a	-0.01620226
29	0x3defea03	0.11714556
30	0x3e1fa881	0.15591623
31	0xbe3cd99f	-0.18442391
32	0xbe430d93	-0.19048147
33	0x3cdd2d84	0.026999243
34	0xbe6e38f1	-0.23263909
35	0x3e2e10a6	0.16998538
36	0xbe2eb7bd	-0.17062278
37	0xbe0c42d8	-0.13697374
38	0x3a89fd2b	0.001052772
39	0x3e098ed1	0.13433386
40	0x3e52bb01	0.20579149
41	0x3d3242d8	0.04352078
42	0x3e4de478	0.20106685
43	0x3dcb3759	0.09922666
44	0x3e6cc7c0	0.23123074
45	0xbd6df3ec	-0.05809395
46	0xbd753e02	-0.05987359
47	0xbd955642	-0.07291843
48	0xbd23f645	-0.040029783
49	0xbe4c261a	-0.1993641
50	0x3d9045a9	0.070445366
51	0x3e2d20c7	0.16907035
52	0x3df8ce71	0.121487506
53	0xbe184a68	-0.14872134
54	0x3e5ac2b2	0.21363333
55	0xba1dc7d3	-0.0006018851
56	0xbbe97925	-0.0071250373
57	0xbe515dc8	-0.20445931
58	0xbdd335c6	-0.10312991
59	0x3d9bec8c	0.07613477
60	0x3cea2ec1	0.028586747
61	0xbe1a47cc	-0.15066451
62	0x3e5fe018	0.21862829
63	0x3dca2de7	0.098720364
64	0x3e054552	0.13014725
65	0xbe0c66b0	-0.13711047
66	0xbdc2e954	-0.0951716
67	0x3d96f4a3	0.073708795
68	0xbe627465	-0.22114713
69	0x3de20e01	0.11037827
70	0x3c472ee2	0.012157174
71	0x3e1a4371	0.1506479
72	0x3e3937dd	0.18087716
73	0x3d3ecf59	0.04658446
74	0x3dfbd068	0.1229561
75	0x3bb3a183	0.0054819
76	0x3e6b71f6	0.22992691
77	0xbcd64b1d	-0.026158864
78	0xbe14b593	-0.1452239
79	0xbd011968	-0.03151837
80	0xbe35dcf7	-0.17760073
81	0xbe0d56f1	-0.13802697
82	0x3d52d41b	0.05147181
83	0x3e3a766c	0.18209237
84	0x3e44a88f	0.19204925
85	0x3e35d093	0.17755346
86	0x3e4e2f17	0.20135151
87	0x3e578a87	0.21048938
88	0xbe112d0a	-0.14177337
89	0xbd9368a0	-0.0719769
90	0x3ddbb048	0.10726982
91	0xbdbd9ea1	-0.09258772
92	0xbd24b3dd	-0.040210593
93	0x3e4c228f	0.19935058
94	0xbca84200	-0.020539284
95	0xbd601aa3	-0.054712903
96	0x3dc67952	0.09691109
97	0x3e6c21b6	0.23059735
98	0xbdd00ba7	-0.101584725
99	0xbcfc8889	-0.030826824
100	0xbe56bafa	-0.20969763
101	0x3ce44bca	0.02786817
102	0x3cc7482a	0.024326403
103	0x3e2217bd	0.15829368
104	0xbe452ffc	-0.19256586
105	0xbe158703	-0.14602284
106	0x3e3bd5c2	0.18343261
107	0xbdd98d92	-0.106227055
108	0x3c7e52bd	0.015522656
109	0x3e4f9f2f	0.20275567
110	0x3e519c40	0.20469761
111	0xbc71dc64	-0.014762018
112	0xbe64261b	-0.22280161
113	0xbe460dee	-0.19341251
114	0xbe67bffd	-0.22631831
115	0xbc674a69	-0.014116862
116	0xbe3bb6cd	-0.18331452
117	0x3e43bd1f	0.19115113
118	0xbe518307	-0.20460139
119	0xbd8f5241	-0.069981106
120	0x3dced3fb	0.10099026
121	0xbdcba69d	-0.09943888
122	0x3e34b3a2	0.1764665
123	0x3d4e9a1d	0.050439943
124	0x3e67d425	0.2263952
125	0x3d09a393	0.033603262
126	0x3e136a86	0.14396104
127	0xbe54d227	-0.20783292
128	0xbdcd24c3	-0.10016777
129	0x3dd7e421	0.10541559
130	0xbdb783a1	-0.08960653
131	0x3d9f12aa	0.07767232
132	0xbe121253	-0.14264803
133	0x3d3f95c0	0.046773672
134	0x3cec22f9	0.02882527
135	0xbe051351	-0.1299565
136	0xbbbc546d	-0.005747369
137	0x3e3aba2e	0.18235084
138	0xbe324b1c	-0.17411464
139	0x3d1ff901	0.039055828
140	0x3e0330c0	0.12811565
141	0x3e5e58fe	0.21713635
142	0xbe5be53e	-0.21474168
143	0x3dda62de	0.10663389
144	0x3e6579b0	0.22409701
145	0x3e252c14	0.16130096
146	0xbe502dc5	-0.2032996
147	0xbd0c0b3a	-0.034190394
148	0xbcecab35	-0.028890232
149	0xbd0ac111	-0.03387553
150	0x3c8b367a	0.01699375
151	0x3c7b14b7	0.015324763
152	0x3dffb233	0.12485161
153	0xbe3d2502	-0.18471149
154	0xbe2a31e5	-0.16620596
155	0xbbe9df70	-0.0071372315
156	0xbe63645a	-0.2220625
157	0x3e6cace5	0.23112829
158	0x3e2c63b8	0.16834915
159	0xbdd573e7	-0.10422497
160	0x3e2bcab8	0.1677655
161	0xbdd87998	-0.10570067

linear_net.0.bias f4 [9]
0	0xbad3c83c	-0.0016157697
1	0xbe4e1464	-0.20124966
2	0x3c05f891	0.008176939
3	0x3da16d5e	0.07882188
4	0xbdc7fb57	-0.09764736
5	0x3e05fca5	0.13084657
6	0xbb17d8f6	-0.002317009
7	0x3e015582	0.12630275
8	0x3e6d934d	0.23200722

linear_net.2.weight f4 [1, 9]
0	0xbe6e26b0	-0.23256946
1	0xbe6eeeeb	-0.23333327
2	0x3e80bf2c	0.25145853
3	0xbd9283a0	-0.07154012
4	0xbe74d8b8	-0.23910797
5	0x3d356d6b	0.044293802
6	0xbe6ad593	-0.22933035
7	0x3ea6a582	0.32548147
8	0x3e2062bb	0.15662663

exp_avg f4 [108, 36]
0	0x3b9bfaf0	0.0047601387
1	0x3a82c96f	0.0009978245
2	0x398ee553	0.0002725521
3	0xbb656d83	-0.00350079
4	0x3b4bb610	0.003108386
5	0x396cac40	0.00022570882
6	0xba0ac5f8	-0.0005293782
7	0x3bfe8354	0.0077671204
8	0xbc139740	-0.009008229
9	0x3bd1ac8f	0.0063987444
10	0xbbe1c2af	-0.006889663
11	0xbab9b77a	-0.001416906
12	0x3b77ee65	0.0037831303
13	0x3b60d135	0.0034304385
14	0xb9bb3308	-0.0003570544
15	0xb8aa5ac1	-8.123136e-05
16	0x3b4cd5d0	0.0031255372
17	0xbb4e0c60	-0.0031440482
18	0x388aa4f6	6.611079e-05
19	0x38802b93	6.111632e-05
20	0x38e0826a	0.00010705444
21	0x38657fd6	5.471691e-05
22	0x39143487	0.00014133948
23	0x3985d0f2	0.00025523413
24	0x38770e9d	5.8903e-05
25	0x39a58ca8	0.0003157605
26	0x37b4f457	2.1571452e-05
27	0x39aa16e8	0.00032441993
28	0x3702613b	7.771242e-06
29	0x39aaaefd	0.00032555303
30	0x363b7bb1	2.793717e-06
31	0x39aac2ac	0.0003256997
32	0x3586c2e9	1.0040504e-06
33	0x39aac539	0.0003257187
34	0x34c1b94f	3.608388e-07
35	0x39aac58c	0.0003257211
36	0x3bb97006	0.005659106
37	0x3aaa401d	0.0012989078
38	0xb859af13	-5.1899882e-05
39	0xbb9225dd	-0.00446008
40	0x3b7dab6f	0.0038706919
41	0x397b733c	0.00023980153
42	0xb9e0b095	-0.00042856173
43	0x3c1a0dad	0.009402675
44	0xbc2cfd6c	-0.010558467
45	0x3c0279f9	0.007963651
46	0xbc0a0cf3	-0.008425939
47	0xbaebfa2a	-0.0018003632
48	0x3b905a07	0.0044052633
49	0x3b7c4530	0.0038493387
50	0xb9a5e2b4	-0.0003164016
51	0xb93279ff	-0.0001702085
52	0x3b84e51e	0.004055633
53	0xbb807cdf	-0.003921136
54	0x388e35b5	6.781091e-05
55	0x385f4c56	5.3238437e-05
56	0x3909927e	0.0001311991
57	0x3824aa85	3.9259456e-05
58	0x3932bfb5	0.00017046819
59	0x3995a6d3	0.00028543788
60	0x3894944c	7.0848124e-05
61	0x39bbb028	0.00035798666
62	0x37d992f1	2.593684e-05
63	0x39c11d8c	0.00036833843
64	0x371cc1e5	9.343469e-06
65	0x39c1d34f	0.00036969266
66	0x36616986	3.3589035e-06
67	0x39c1ead0	0.00036986778
68	0x35a2063c	1.2071755e-06
69	0x39c1eddd	0.0003698905
70	0x34e8ea50	4.3383852e-07
71	0x39c1ee3f	0.00036989336
72	0x3b477cb6	0.0030439324
73	0x3a864bed	0.0010246016
74	0xb9e28796	-0.00043207098
75	0xbb370976	-0.0027929223
76	0x3b1a28b0	0.0023522787
77	0x393df89d	0.0001811706
78	0x3901a029	0.00012362063
79	0x3bc093e9	0.0058770073
80	0xbbbdc28d	-0.0057910145
81	0x3ba9da69	0.005183507
82	0xbbad234c	-0.0052837487
83	0xbac3fea6	-0.001495321
84	0x3b262d09	0.0025356433
85	0x3b0a4ea6	0.0021104007
86	0x3943ba72	0.00018666105
87	0x3598159e	1.1331174e-06
88	0x3b2e9698	0.0026640054
89	0xbb1a921b	-0.002358562
90	0x37afe006	2.0965945e-05
91	0x35b312a4	1.3341964e-06
92	0x3894629b	7.075557e-05
93	0xb7df9b73	-2.6656058e-05
94	0x38deb4ba	0.00010619448
95	0x390979cb	0.0001311071
96	0x383a5649	4.4426215e-05
97	0x393ad385	0.0001781714
98	0x37888925	1.6276326e-05
99	0x3941deff	0.00018488987
100	0x36c4c2d8	5.863938e-06
101	0x3942caee	0.00018576879
102	0x360d784e	2.1080664e-06
103	0x3942e973	0.00018588248
104	0x354b6002	7.57631e-07
105	0x3942ed64	0.00018589717
106	0x34922ddd	2.722799e-07
107	0x3942ede6	0.00018589906
108	0x3afe6e14	0.0019411468
109	0x3a44d87f	0.0007509067
110	0x3920c5f8	0.00015332538
111	0xbac5c249	-0.0015087809
112	0x3ab28179	0.0013618908
113	0x39872a97	0.00025780938
114	0x35eb27a4	1.7520401e-06
115	0x3b8aee79	0.004239854
116	0xbb883b98	-0.0041574948
117	0x3b652f00	0.003497064
118	0xbb6f8512	-0.0036547822
119	0xbaa44c6d	-0.0012534984
120	0x3b045f9f	0.0020198596
121	0x3af8e717	0.0018989769
122	0x3989a8f8	0.00026256568
123	0x3993f0e8	0.00028217514
124	0x3ab9c9d1	0.0014174526
125	0xbaaf5ffd	-0.0013380047
126	0x3833de8d	4.2884192e-05
127	0x37bdfd10	2.2648397e-05
128	0x359a801e	1.1511181e-06
129	0x3812e6a1	3.5023902e-05
130	0x386c3fcc	5.63262e-05
131	0x38db6dd8	0.00010463194
132	0x37d31b29	2.5165808e-05
133	0x390e6cc6	0.00013582697
134	0x371be28d	9.291468e-06
135	0x39133db1	0.00014041994
136	0x3660ddf7	3.3507802e-06
137	0x3913dfa3	0.00014102324
138	0x35a1b2d0	1.2047476e-06
139	0x3913f498	0.0001411013
140	0x34e8757f	4.3298857e-07
141	0x3913f74a	0.00014111135
142	0x34271587	1.5560919e-07
143	0x3913f7a1	0.00014111261
144	0x3b85fbc3	0.00408885
145	0x3a1a72b8	0.0005891728
146	0x39f19fd0	0.00046086172
147	0xbb353a71	-0.0027653242
148	0x3b242af6	0.002505002
149	0x38f11d1c	0.000114971976
150	0xba3a8c00	-0.00071161985
151	0x3bc32d48	0.0059563257
152	0xbbf80174	-0.0075685326
153	0x3b9b9bf8	0.0047488175
154	0xbbacfa66	-0.0052788733
155	0xba46e91a	-0.00075878354
156	0x3b471f3f	0.0030383614
157	0x3b38ea18	0.0028215703
158	0xba1ff3f3	-0.000610172
159	0xb952ceac	-0.00020104152
160	0x3b1c2ded	0.0023831085
161	0xbb2708b5	-0.0025487368
162	0x383e2581	4.533446e-05
163	0x382d09a9	4.125541e-05
164	0x38e2cad3	0.00010814299
165	0x3836b163	4.3557386e-05
166	0x39077dc2	0.00012921452
167	0x396c2603	0.00022520874
168	0x3860dd75	5.361201e-05
169	0x39925d35	0.00027916735
170	0x37a49e6a	1.962409e-05
171	0x39966941	0.0002868865
172	0x36ed3466	7.0692504e-06
173	0x3996f0d4	0.0002878966
174	0x362a8bce	2.541335e-06
175	0x3997025d	0.00028802725
176	0x35752c8e	9.133445e-07
177	0x399704a1	0.00028804413
178	0x34b0390b	3.282406e-07
179	0x399704ec	0.0002880463
180	0xbaf7034f	-0.001884559
181	0xb97f9e00	-0.00024377555
182	0xb9cf4f84	-0.0003954136
183	0x3a968ee0	0.0011486672
184	0xba904892	-0.0011007956
185	0xb886ee95	-6.434057e-05
186	0x39d5db5e	0.00040789967
187	0xbb34d592	-0.0027593118
188	0x3b6c421b	0.0036050144
189	0xbb0709b6	-0.0020605153
190	0x3b1bec46	0.0023791953
191	0x39b96a26	0.00035365036
192	0xbac16601	-0.0014755131
193	0xbac02eea	-0.0014662419
194	0x399f1bef	0.00030347655
195	0x3829bb60	4.0467246e-05
196	0xba7d166d	-0.0009654526
197	0x3a909493	0.0011030607
198	0xb73a9172	-1.1120328e-05
199	0xb730f6b9	-1.0547862e-05
200	0xb887568e	-6.453424e-05
201	0xb63dde2e	-2.829252e-06
202	0xb89bb5f0	-7.4248645e-05
203	0xb8e34b3f	-0.00010838219
204	0xb800f9e4	-3.0750307e-05
205	0xb911f676	-0.00013920091
206	0xb73ccdc2	-1.125358e-05
207	0xb916955a	-0.00014360753
208	0xb68805fb	-4.053812e-06
209	0xb9173025	-0.00014418417
210	0xb5c398a7	-1.457306e-06
211	0xb9174429	-0.00014425874
212	0xb50c97c3	-5.2374907e-07
213	0xb91746c2	-0.00014426842
214	0xb44a1b54	-1.8822658e-07
215	0xb9174715	-0.00014426962
216	0xbb67b225	-0.0035353985
217	0xbaa0ff28	-0.0012283074
218	0x3929cf3d	0.00016194298
219	0x3b44ae75	0.003001121
220	0xbb28fddc	-0.0025786078
221	0xb9aa4cdf	-0.000324822
222	0xb86e3a1f	-5.679775e-05
223	0xbbe7e5a3	-0.0070769354
224	0x3be6719f	0.0070325877
225	0xbbc7fa3e	-0.0061028292
226	0x3bcd8b56	0.0062727137
227	0x3af7451a	0.0018865198
228	0xbb52f5b6	-0.0032189912
229	0xbb384e06	-0.0028122677
230	0xb995b49f	-0.00028554068
231	0xb9512700	-0.00019946322
232	0xbb3931a7	-0.0028258355
233	0x3b294439	0.0025828017
234	0xb881ef61	-6.195787e-05
235	0xb80c9ecf	-3.3526503e-05
236	0xb80b31e2	-3.318664e-05
237	0xb87044cf	-5.7284542e-05
238	0xb8bef6b7	-9.10586e-05
239	0xb93a6686	-0.00017776535
240	0xb824fef0	-3.9338076e-05
241	0xb9696cf4	-0.000222612
242	0xb772ba80	-1.4467747e-05
243	0xb970426c	-0.00022912928
244	0xb6aefbd1	-5.2149194e-06
245	0xb97127d9	-0.00022998395
246	0xb5fba3ed	-1.8748666e-06
247	0xb971457c	-0.00023009436
248	0xb534e0e7	-6.73825e-07
249	0xb9714958	-0.00023010874
250	0xb4820278	-2.4216183e-07
251	0xb97149d7	-0.00023011059
252	0xbbd0b196	-0.006368826
253	0xba8cf3d2	-0.0010753816
254	0xb9d1ebc3	-0.00040039243
255	0x3b960cef	0.0045791785

exp_avg_sq f4 [108, 36]
0	0x3b99f858	0.0046987943
1	0x38e8f9dc	0.00011109162
2	0x391005a3	0.0001373501
3	0x3b0d7ca2	0.002158918
4	0x3ad0d3f4	0.0015932308
5	0x3721a870	9.635565e-06
6	0x39d5472b	0.0004067955
7	0x3beb2c4b	0.007176911
8	0x3c66bb49	0.014082738
9	0x3ba49786	0.005022946
10	0x3bc21376	0.00592273
11	0x39b37812	0.00034231
12	0x3afc0517	0.0019227591
13	0x3ac16dd3	0.0014757462
14	0x39cab0d3	0.00038660187
15	0x38f95d61	0.000118906384
16	0x3accac3c	0.0015615295
17	0x3ae1fb1f	0.0017240978
18	0x35fe3854	1.8940868e-06
19	0x36046743	1.972964e-06
20	0x36b99e19	5.5318346e-06
21	0x3718cf04	9.108106e-06
22	0x372ee779	1.0425102e-05
23	0x3724a912	9.8145265e-06
24	0x35f7ed4a	1.8471994e-06
25	0x37a25a33	1.9353907e-05
26	0x34855024	2.483149e-07
27	0x37b0d90f	2.108191e-05
28	0x330a74ce	3.2236862e-08
29	0x37b2cd16	2.1314754e-05
30	0x318f2762	4.166325e-09
31	0x37b30e05	2.1344991e-05
32	0x3013ecce	5.381481e-10
33	0x37b31663	2.1348887e-05
34	0x2e98d7f4	6.950521e-11
35	0x37b3177b	2.1349397e-05
36	0x3b8396f3	0.0040157973
37	0x38e7fad4	0.00011061659
38	0x38fca5c4	0.00012047173
39	0x3af88bed	0.00189626
40	0x3ab7ec5b	0.0014032231
41	0x37206bc5	9.561835e-06
42	0x39ade69f	0.00033168957
43	0x3bd7d4c8	0.006586645
44	0x3c47eba4	0.012202177
45	0x3b98ce39	0.0046632555
46	0x3bb22196	0.0054361327
47	0x39aab15e	0.00032557076
48	0x3ae28513	0.0017282091
49	0x3aad3e14	0.0013217353
50	0x39a4616a	0.00031353097
51	0x38c6b9c8	9.47598e-05
52	0x3ab6d261	0.0013948196
53	0x3ac5cce4	0.0015090969
54	0x35dbc618	1.6374424e-06
55	0x3600b4c1	1.91787e-06
56	0x36ae3fde	5.193039e-06
57	0x36f4fb7e	7.301044e-06
58	0x3710b697	8.625581e-06
59	0x3710bbc0	8.626783e-06
60	0x35cc6826	1.5229496e-06
61	0x378ad416	1.6549642e-05
62	0x345bbe26	2.046514e-07
63	0x3796cfc9	1.7978151e-05
64	0x32e435a9	2.6567095e-08
65	0x37986cf3	1.8170545e-05
66	0x316bf374	3.4335388e-09
67	0x3798a298	1.8195526e-05
68	0x2ff3d094	4.4349646e-10
69	0x3798a986	1.8198753e-05
70	0x2e7bebfd	5.7280392e-11
71	0x3798aa68	1.8199164e-05
72	0x3987b23c	0.00025882002
73	0x36ca0af1	6.021343e-06
74	0x3755ba56	1.2739174e-05
75	0x3904d11b	0.00012666399
76	0x38c0e133	9.19722e-05
77	0x35507b93	7.766586e-07
78	0x379ac928	1.8451901e-05
79	0x39dde6f7	0.00042324487
80	0x3a502d3a	0.00079413096
81	0x3998ef33	0.00029169917
82	0x39b42ac7	0.00034364147
83	0x378626f2	1.599218e-05
84	0x38eee66b	0.00011391643
85	0x38c84ab8	9.5506606e-05
86	0x37917f50	1.7344631e-05
87	0x36f2d602	7.237076e-06
88	0x38c6026c	9.441827e-05
89	0x38cf69ec	9.890259e-05
90	0x33617a3a	5.249806e-08
91	0x3399ebe7	7.167528e-08
92	0x349b06fd	2.8876084e-07
93	0x34c25e7e	3.6204068e-07
94	0x3512e11c	5.4716816e-07
95	0x35158b4b	5.5709523e-07
96	0x33d23635	9.788747e-08
97	0x3592fd42	1.0951555e-06
98	0x32625f29	1.3176568e-08
99	0x359ffcc0	1.1919983e-06
100	0x30eb256a	1.7109134e-09
101	0x35a1bcef	1.2050422e-06
102	0x2f73213a	2.2112526e-10
103	0x35a1f723	1.2067361e-06
104	0x2dfb3bcf	2.8561957e-11
105	0x35a1fea3	1.2069544e-06
106	0x2c81cb32	3.6889597e-12
107	0x35a1ffa1	1.2069833e-06
108	0x3b6160a5	0.003438988
109	0x388f0a31	6.82067e-05
110	0x3882db22	6.2397e-05
111	0x3ad3830a	0.0016137075
112	0x3a972bd4	0.0011533448
113	0x36bae664	5.570053e-06
114	0x399e8818	0.00030237506
115	0x3b9a7ee4	0.0047148336
116	0x3c2211ea	0.009891966
117	0x3b5d2fd8	0.003375044
118	0x3b814192	0.003944584
119	0x396d0e94	0.00022607512
120	0x3aa34ca0	0.0012458749
121	0x3a6a8656	0.0008946409
122	0x399d86fd	0.00030045948
123	0x38d91111	0.00010350545
124	0x3a9794ee	0.001156477
125	0x3aa5c950	0.0012648497
126	0x35c02010	1.4314446e-06
127	0x35a3723f	1.2177696e-06
128	0x3658020a	3.2187695e-06
129	0x3701c6db	7.735299e-06
130	0x3709a566	8.204346e-06
131	0x36cd0c10	6.1108803e-06
132	0x35c50111	1.4677954e-06
133	0x3760a172	1.338903e-05
134	0x345415b2	1.9751931e-07
135	0x377726fa	1.4731422e-05
136	0x32dc4bc5	2.5645827e-08
137	0x377a3152	1.49126445e-05
138	0x3163c62d	3.3145497e-09
139	0x377a9672	1.49361895e-05
140	0x2feb5dc5	4.2812878e-10
141	0x377aa37d	1.4939226e-05
142	0x2e733142	5.5295553e-11
143	0x377aa528	1.4939615e-05
144	0x3b643df7	0.0034826973
145	0x3884f3f9	6.339694e-05
146	0x3919c74a	0.00014665458
147	0x3ac0cf6f	0.0014710258
148	0x3a91e4b9	0.0011130787
149	0x3702153a	7.753546e-06
150	0x39a966c1	0.0003231075
151	0x3ba4d76e	0.005030564
152	0x3c2dc72c	0.010606568
153	0x3b550219	0.003250247
154	0x3b83f501	0.0040270095
155	0x396f985c	0.00022849574
156	0x3abe88ea	0.0014536653
157	0x3aa289a0	0.0012400635
158	0x399bc399	0.00029709635
159	0x38cc8429	9.752095e-05
160	0x3a86f841	0.0010297374
161	0x3a9d9936	0.001202381
162	0x359b4247	1.1567689e-06
163	0x359c3c54	1.1640464e-06
164	0x367a999f	3.7342322e-06
165	0x36ebf95a	7.032574e-06
166	0x3709c596	8.21184e-06
167	0x36fbdea1	7.5063003e-06
168	0x35c37c16	1.4564746e-06
169	0x377df2b3	1.5136483e-05
170	0x34523e2c	1.9580392e-07
171	0x378a89dc	1.6515078e-05
172	0x32da5b13	2.5419956e-08
173	0x378c189f	1.6700766e-05
174	0x3161c3ae	3.285304e-09
175	0x378c4c6c	1.6724887e-05
176	0x2fe949ed	4.243498e-10
177	0x378c531c	1.6728001e-05
178	0x2e710bc8	5.480752e-11
179	0x378c53fb	1.6728407e-05
180	0x3a0f15db	0.0005458274
181	0x37729837	1.4459764e-05
182	0x389deebf	7.530813e-05
183	0x3946340d	0.00018902142
184	0x3930935f	0.00016839568
185	0x3693f0f7	4.4089934e-06
186	0x385b9de2	5.236071e-05
187	0x3a93329d	0.0011230294
188	0x3b035e3a	0.0020045177
189	0x3a154cdd	0.00056953524
190	0x3a508207	0.0007953946
191	0x389f0010	7.5817225e-05
192	0x39c04c23	0.0003667782
193	0x39da0427	0.00041583294
194	0x382d520f	4.1322837e-05
195	0x37bef2d9	2.276285e-05
196	0x39082f51	0.00012987597
197	0x3932ba22	0.00017044743
198	0x3423ec4b	1.5266521e-07
199	0x34cbed1c	3.7984216e-07
200	0x355b6f15	8.1745503e-07
201	0x358e8c37	1.0620632e-06
202	0x35c16199	1.4408025e-06
203	0x35d2391b	1.5662839e-06
204	0x34863959	2.500117e-07
205	0x36476517	2.9712153e-06
206	0x330ffc72	3.352438e-08
207	0x3657e0aa	3.2168268e-06
208	0x31957e37	4.3508197e-09
209	0x365a16f4	3.2497892e-06
210	0x301a8f11	5.6228183e-10
211	0x365a6072	3.254067e-06
212	0x2e9fb58a	7.262731e-11
213	0x365a69f5	3.2546207e-06
214	0x2d250509	9.380282e-12
215	0x365a6b2c	3.2546914e-06
216	0x3b8ae81d	0.004239096
217	0x38c1843e	9.227589e-05
218	0x38b0b192	8.425409e-05
219	0x3b042e42	0.0020169173
220	0x3abd4810	0.0014441032
221	0x36fe064d	7.5705234e-06
222	0x39bf7307	0.0003651606
223	0x3bc64fc1	0.006051988
224	0x3c493776	0.012281289
225	0x3b8ec8d5	0.004357437
226	0x3ba5f65e	0.0050647696
227	0x399bedf0	0.0002974118
228	0x3acf7643	0.0015828091
229	0x3a956af1	0.0011399669
230	0x39be287d	0.0003626979
231	0x3902c093	0.00012469506
232	0x3abf1dd1	0.001458103
233	0x3acef59a	0.0015789748
234	0x35f6d9b1	1.8391785e-06
235	0x35e07640	1.6723716e-06
236	0x368cd7fd	4.1974695e-06
237	0x371bc5c4	9.284766e-06
238	0x3725c36b	9.880266e-06
239	0x3701cd47	7.736794e-06
240	0x35ecd416	1.7645095e-06
241	0x378a9efe	1.6524918e-05
242	0x347ee90e	2.3740378e-07
243	0x37982f01	1.81417e-05
244	0x330462ff	3.082368e-08
245	0x379a038c	1.8359882e-05
246	0x3188e158	3.9837396e-09
247	0x379a406d	1.8388231e-05
248	0x300d7147	5.145648e-10
249	0x379a4852	1.8391907e-05
250	0x2e922545	6.645932e-11
251	0x379a494a	1.8392358e-05
252	0x3be8c89c	0.0071039926
253	0x391ba244	0.000148424
254	0x3981e1f8	0.00024773157
255	0x3b4d3f43	0.0031318225

exp_avg f4 [108]
0	0x39aac596	0.0003257214
1	0x39c1ee4f	0.00036989382
2	0x3942edfa	0.00018589935
3	0x3913f7ac	0.00014111277
4	0x399704f9	0.0002880467
5	0xb9174723	-0.00014426983
6	0xb97149ec	-0.00023011089
7	0xb9e3a172	-0.000434171
8	0xba185ab4	-0.00058118557
9	0x38a8af7b	8.04355e-05
10	0xb99109ca	-0.0002766385
11	0xb911397a	-0.0001384969
12	0xb849cb61	-4.8111546e-05
13	0x3a62a176	0.00086452754
14	0xb90bfb33	-0.00013349652
15	0xb8f779a5	-0.00011800536
16	0x3952b5b9	0.00020094858
17	0x39ef4587	0.00045637434
18	0xba680540	-0.000885088
19	0xb7c0a0a2	-2.2962984e-05
20	0x39931f5d	0.00028061392
21	0x3994f471	0.00028410883
22	0xb9f97bd0	-0.00047585228
23	0x37eb8d71	2.8080047e-05
24	0x383df8b0	4.529272e-05
25	0x39cff633	0.0003966555
26	0xb97d792b	-0.00024173099
27	0x3a00e9d0	0.0004917653
28	0x3a8955e2	0.0010477866
29	0x37fa2b10	2.9822375e-05
30	0xb8c1e55e	-9.24568e-05
31	0xba41e013	-0.00073957554
32	0xba29912b	-0.000646847
33	0xba04c165	-0.00050642184
34	0xba293049	-0.00064540334
35	0x390db566	0.00013514384
36	0xb1ff6dac	-7.433945e-09
37	0xb1db2492	-6.3778964e-09
38	0x310aab40	2.0178987e-09
39	0xb1925568	-4.258869e-09
40	0xb2d77403	-2.508205e-08
41	0x327e49cb	1.48015245e-08
42	0xb2314c0e	-1.0320049e-08
43	0x330a8528	3.2251734e-08
44	0x32aaccc7	1.9883727e-08
45	0x30b8aa3a	1.3436143e-09
46	0x32135326	8.575432e-09
47	0x30a676f4	1.2111898e-09
48	0x3269b04d	1.3602471e-08
49	0xb2404266	-1.1190968e-08
50	0xb2a8e99a	-1.9664004e-08
51	0x32024832	7.583411e-09
52	0xb24a60a1	-1.1779918e-08
53	0xb18bcb92	-4.0685757e-09
54	0x30df927e	1.6267021e-09
55	0xb2971838	-1.7589727e-08
56	0xb2f912e4	-2.8996006e-08
57	0x330b9cc4	3.2506037e-08
58	0x318b19c6	4.0483625e-09
59	0xb13ab047	-2.7166764e-09
60	0x3163f95c	3.3174592e-09
61	0x3308ecc6	3.188031e-08
62	0x32953087	1.736795e-08
63	0xb2497b9c	-1.1727845e-08
64	0xb22a65c4	-9.918441e-09
65	0x3312dec6	3.4195885e-08
66	0xb21b84ec	-9.05241e-09
67	0x323d8ad2	1.1032812e-08
68	0x32777384	1.44035575e-08
69	0x33061f1e	3.1227607e-08
70	0x324a6d39	1.1782782e-08
71	0xb29733b7	-1.760223e-08
72	0xbb813375	-0.0039429017
73	0x3bb1c87d	0.0054255114
74	0xbb1832c2	-0.0023223613
75	0x3b47d999	0.0030494689
76	0xbbb08251	-0.0053866287
77	0x3b55da78	0.0032631438
78	0xbad4913f	-0.0016217603
79	0xbabe4889	-0.0014517467
80	0x3bfdd7aa	0.0077466564
81	0xbbd98888	-0.0066385902
82	0xbbc1caea	-0.005914082
83	0x3b8d4219	0.004310858
84	0xbb0536c2	-0.0020326828
85	0xbbccb9f9	-0.0062477556
86	0x3b174dba	0.00230871
87	0xbabd8397	-0.0014458772
88	0x3b765904	0.0037589679
89	0xbbae1097	-0.0053120363
90	0x3b803745	0.0039128386
91	0x3a90183b	0.0010993549
92	0xbbabfa56	-0.005248348
93	0x3b1ce6f4	0.002394137
94	0x3be31a54	0.006930629
95	0x3a2f92a6	0.00066975725
96	0xbb5c5513	-0.0033620044
97	0x3ba96e6e	0.005170635
98	0x3b475f82	0.0030421917
99	0xbb5eda4d	-0.003400463
100	0xbafd67ed	-0.001933334
101	0x3a28be65	0.00064370624
102	0xbb062ea5	-0.002047458
103	0xbbb61c85	-0.005557599
104	0xbb2210f5	-0.0024729345
105	0x3b0ca5d5	0.0021461148
106	0x3b2bfa0e	0.0026241574
107	0x3aee4b73	0.0018180445

exp_avg_sq f4 [108]
0	0x37b317a5	2.1349473e-05
1	0x3798aa8b	1.8199227e-05
2	0x35a1ffc5	1.2069873e-06
3	0x377aa56c	1.49396765e-05
4	0x378c541a	1.6728463e-05
5	0x365a6b5b	3.254702e-06
6	0x379a4975	1.8392437e-05
7	0x380b8f93	3.3273896e-05
8	0x38b194e1	8.4677486e-05
9	0x3684be66	3.956072e-06
10	0x37fed07c	3.0376243e-05
11	0x35341c13	6.709608e-07
12	0x3525d602	6.177871e-07
13	0x38fd04c6	0.00012064869
14	0x36cf3d36	6.1762066e-06
15	0x37934cdb	1.7559554e-05
16	0x380a63ec	3.2994823e-05
17	0x37a2fd6b	1.9429912e-05
18	0x3906b22d	0.00012845611
19	0x3570df33	8.9731765e-07
20	0x37686ab8	1.3853125e-05
21	0x376c1b99	1.4073122e-05
22	0x37c1d17f	2.3104947e-05
23	0x369dfd36	4.7084422e-06
24	0x34a6dcbf	3.1080523e-07
25	0x381f73b3	3.8016307e-05
26	0x371b7fec	9.268504e-06
27	0x38637021	5.4225446e-05
28	0x3934cbaf	0.00017242016
29	0x35f64a70	1.8350092e-06
30	0x353a502e	6.9407076e-07
31	0x388b88ea	6.653539e-05
32	0x3871466b	5.752446e-05
33	0x384095c3	4.5915844e-05
34	0x3865e39c	5.4809832e-05
35	0x36c7f1e7	5.9588233e-06
36	0x26aa2d53	1.1808405e-15
37	0x265861e0	7.50727e-16
38	0x25a4ecfd	2.8610055e-16
39	0x26b9956f	1.2877458e-15
40	0x2691a47a	1.0105978e-15
41	0x25ec8cf6	4.1034993e-16
42	0x279c0eec	4.3314876e-15
43	0x271f3018	2.2091754e-15
44	0x26b447e1	1.2509492e-15
45	0x262c7816	5.9837234e-16
46	0x25de94fa	3.8611812e-16
47	0x253124df	1.5364795e-16
48	0x25482dea	1.7362791e-16
49	0x272766de	2.323167e-15
50	0x27639ec5	3.1588647e-15
51	0x26850aa2	9.231611e-16
52	0x2604cdb2	4.607547e-16
53	0x266ee204	8.2879146e-16
54	0x2774f8d4	3.3996692e-15
55	0x25d8d039	3.7611124e-16
56	0x27194b1b	2.127373e-15
57	0x28066cf0	7.462116e-15
58	0x2690d78d	1.0050432e-15
59	0x25e638fb	3.9937251e-16
60	0x24d939e5	9.4206826e-17
61	0x2854fdb5	1.1823378e-14
62	0x26ad8751	1.2040964e-15
63	0x2620811d	5.568613e-16
64	0x2754bef4	2.9524426e-15
65	0x27b2f2b6	4.9668072e-15
66	0x27259330	2.297814e-15
67	0x267ccbea	8.770642e-16
68	0x25b20e7e	3.0887898e-16
69	0x26fef0c7	1.7690053e-15
70	0x261cbf71	5.4382824e-16
71	0x26269584	5.779545e-16
72	0x385e7b8b	5.3043983e-05
73	0x38c5b92a	9.4281815e-05
74	0x385eef13	5.315158e-05
75	0x386c6b70	5.6366844e-05
76	0x38f893af	0.0001185307
77	0x381daaf8	3.7590944e-05
78	0x389c77e5	7.460992e-05
79	0x37f9bc98	2.9770934e-05
80	0x392eb88c	0.00016662682
81	0x3932efb6	0.00017064702
82	0x390ca709	0.00013413666
83	0x3883206a	6.252604e-05
84	0x38208152	3.826741e-05
85	0x39027881	0.00012442657
86	0x37cf08df	2.4680454e-05
87	0x379000e6	1.7166556e-05
88	0x3886cea3	6.428107e-05
89	0x38b61445	8.682212e-05
90	0x38e7c018	0.000110507186
91	0x38aca0be	8.23154e-05
92	0x38aeca45	8.334642e-05
93	0x38f228d8	0.00011547067
94	0x3942b782	0.00018569644
95	0x385e8331	5.3051106e-05
96	0x38383468	4.3917826e-05
97	0x38d6165a	0.000102084785
98	0x38ab6442	8.17259e-05
99	0x3871795a	5.7571895e-05
100	0x38f78716	0.000118030395
101	0x37d5230b	2.5407897e-05
102	0x372bdd97	1.0243987e-05
103	0x38cd232c	9.781713e-05
104	0x3814f16f	3.5510802e-05
105	0x38c4113a	9.349217e-05
106	0x38006d34	3.061928e-05
107	0x37bbc534	2.2383967e-05
