SensorFormer/SensorFormer/result/ensemble/LCS11_11.pt (torch, 81844 bytes, 35 tensors)

self_attn.qkv_proj.weight f4 [108, 36]
-0.21468964 0.15311243 0.21173654 0.14130409 -0.1515269 0.14669614 -0.1215072 0.10888874
-0.003531145 -0.089449786 -0.16069393 -0.14902763 -0.0610504 -0.00028579487 0.26672018 0.12550561
0.062384393 0.22926638 0.048230916 -0.051264487 -0.14913884 -0.0929764 -0.08676676 -0.058198202
-0.17230962 -0.10470446 -0.029353358 -0.018877517 -0.04553184 0.020799125 -0.09995526 -0.14720453
-0.13515283 0.15572697 0.11263481 -0.18516684 -0.20522188 0.033831067 -0.0061167055 0.13047709
-0.09908432 0.026266767 -0.014157565 -0.12885498 -0.007306659 0.1687449 0.1445753 -0.2895535
0.084405035 0.22408248 0.13948646 0.18925525 0.09148991 0.04450013 -0.08625033 0.14372274
0.08672675 -0.14642219 0.13802335 0.13928992 0.14738098 -0.101812445 -0.07513573 0.10860698
0.13654213 -0.16708925 0.15287992 0.08168787 0.051934026 -0.06696031 -0.029955398 0.10268185
-0.047213987 0.17683758 -0.16391246 0.007130722 -0.10282468 0.029148571 0.1321579 0.02181267
-0.027049739 -0.11365474 0.15643182 -0.05030669 0.054057807 0.06015494 0.14782152 0.13962969
0.08808964 -0.08630906 0.008493176 0.14210397 -0.14753044 0.21398324 -0.18533029 -0.044293944
-0.15343282 -0.11921021 -0.087422825 0.10531004 -0.11724125 -0.12243283 0.033499535 -0.15436804
-0.07122343 -0.0648317 -0.06301491 0.042065226 0.017358184 -0.112713106 0.18510209 0.11490643
-0.07985502 0.041428886 -0.103247434 -0.01025869 -0.09695456 0.015023485 0.22969525 -0.109180644
-0.16474518 0.1920126 -0.0755809 0.213461 0.018491115 -0.018636901 -0.046271805 -0.21217541
0.16585845 -0.11522883 0.011250313 -0.10560786 0.13678455 0.08779362 0.15083435 -0.09086361
0.05151063 -0.165169 0.09954709 -0.066994846 0.04975368 0.08721757 -0.13278937 0.10158091
-0.16397221 0.10607607 0.06771654 0.11091059 -0.056428332 0.17356049 0.10585238 0.019240158
0.010069023 -0.23839246 -0.04219284 -0.22119679 0.069744155 0.03321757 0.23256277 0.13772617
-0.26483348 0.16910218 0.008153531 -0.067918435 0.08703713 -0.2266065 0.03434205 0.084055685
-0.113678165 0.056544237 0.080692925 -0.006603861 -0.19716972 0.041898437 0.152453 -0.072354585
0.057950642 0.09721972 -0.15883262 -0.22195223 0.124821804 -0.037957847 -0.17461953 -0.24171318
-0.0799065 0.060115576 -0.060414024 -0.1729515 -0.03313036 0.0061995448 -0.18702461 0.21168204
0.17465688 0.089940056 -0.31767324 -0.2923753 -0.10760068 0.09934683 -0.055282317 0.22510523
-0.039600495 0.040281285 0.15576993 -0.078123555 0.1020563 0.106775 0.061957665 -0.056917403
-0.1264987 0.053678054 -0.15195493 -0.047847122 0.049360726 0.13067038 0.16327314 -0.14384715
-0.076847464 0.0029954205 -0.058495812 -0.10235649 -0.11239458 -0.050010283 -0.059271686 -0.14684014
0.0812811 -0.12361989 -0.15121898 0.13394524 -0.13852866 0.09304064 -0.20506522 -0.24988247
0.25269917 0.021636039 0.16884694 0.29175833 0.17113486 0.13973594 0.09631087 -0.14436786
-0.06687568 -0.04476486 -0.013623287 0.12290289 0.043783404 -0.19958378 0.03455275 -0.0136477025
0.07300875 -0.10503777 0.14794186 -0.15767553 0.25198588 0.08032082 -0.28704166 -0.2955235
00000000: 9ad7 5bbe 81c9 1c3e 77d1 583e 05b2 103e
00000010: de29 1bbe 8337 163e c4d8 f8bd 0f01 df3d
00000020: c86a 67bb 7331 b7bd f38c 24be b39a 18be
00000030: fc0f 7abd bdd6 95b9 8c8f 883e 8b84 003e
00000040: c786 7f3d cec4 6a3e c88d 453d b6fa 51bd
00000050: dab7 18be 696a bebd c5b2 b1bd 3d61 6ebd
00000060: ef71 30be 4b6f d6bd 7476 f0bc 06a5 9abc
00000070: 987f 3abd ed62 aa3c 58b5 ccbd c9bc 16be
00000080: 8165 0abe e476 1f3e 14ad e63d 609c 3dbe
00000090: af25 52be 7292 0a3d a56e c8bb c99b 053e
000000a0: b8ec cabd 672d d73c 22f5 67bc 8ff2 03be
000000b0: b36c efbb 77cb 2c3e 8c0b 143e 5b40 94be
000000c0: 8cdc ac3d e175 653e 8ad5 0e3e 21cc 413e
000000d0: 105f bb3d c545 363d 03a4 b0bd 0e2c 133e
000000e0: cb9d b13d b3ef 15be fe55 0d3e 04a2 0e3e
000000f0: 0aeb 163e 0b83 d0bd c3e0 99bd 566d de3d
00000100: b3d1 0b3e 7219 2bbe 8e8c 1c3e f84b a73d
00000110: c6b8 543d 7d22 89bd 0665 f5bc dd4a d23d
00000120: 7463 41bd e914 353e abd8 27be d5a8 e93b
00000130: bf95 d2bd fcc8 ee3c 6754 073e 7cb0 b23c
00000140: 6a97 ddbc d1c3 e8bd aa2f 203e 630e 4ebd
00000150: b86b 5d3d 0765 763d 865e 173e 16fb 0e3e
00000160: 5768 b43d cec2 b0bd f626 0b3c b483 113e
00000170: 3812 17be 6c1e 5b3e 39c7 3dbe 916d 35bd
00000180: 7e1d 1dbe 7c24 f4bd bd0a b3bd caac d73d
00000190: 2e1c f0bd 10be fabd cf36 093d a812 1ebe
000001a0: 97dd 91bd 7bc6 84bd f60d 81bd 964c 2c3d
000001b0: c032 8e3c 21d6 e6bd 678b 3d3e 1054 eb3d
000001c0: 078b a3bd 56b1 293d 6473 d3bd 1114 28bc
000001d0: 1d90 c6bd 1025 763c 3b35 6b3e 1a9a dfbd
000001e0: f6b2 28be f39e 443e 29ca 9abd 8595 5a3e
000001f0: ae7a 973c 6aac 98bc 8187 3dbd 8344 59be
00000200: ccd6 293e 18fd ebbd 3c53 383c ef48 d8bd
00000210: 4011 0c3e 24cd b33d 5274 1a3e b316 babd
00000220: cffc 523d 1022 29be 58df cb3d 9834 89bd
00000230: 84ca 4b3d 209f b23d f0f9 07be a709 d03d
00000240: 55e8 27be 693e d93d f8ae 8a3d 1725 e33d
00000250: 6521 67bd d7b9 313e 22c9 d83d 899d 9d3c
00000260: 8bf8 243c 271d 74be 66d2 2cbd 6981 62be
00000270: 06d6 8e3d 260f 083d ef24 6e3e 1708 0d3e
00000280: 4198 87be 1f29 2d3e 6396 053c d218 8bbd
00000290: 8640 b23d 890b 68be 40aa 0c3d 6325 ac3d
000002a0: 19d0 e8bd ee9a 673d 5542 a53d 3465 d8bb
000002b0: dce6 49be b29d 2b3d a41c 1c3e a42e 94bd
000002c0: a75d 6d3d 221b c73d 05a5 22be 7247 63be
000002d0: 93a2 ff3d b079 1bbd 76cf 32be a983 77be
000002e0: 05a6 a3bd c03b 763d b274 77bd 331a 31be
000002f0: b3b3 07bd 8d25 cb3b 6183 3fbe 2dc3 583e
00000300: 41d9 323e 7e32 b83d 11a6 a2be 37b2 95be
00000310: bf5d dcbd 5a76 cb3d b66f 62bd fc81 663e
00000320: 2134 22bd fdfd 243d 2782 1f3e 3eff 9fbd
00000330: e502 d13d daac da3d 52c7 7d3d 3922 69bd
00000340: e088 01be 85dd 5b3d 139a 1bbe 58fb 43bd
00000350: 792e 4a3d 75ce 053e 1331 273e ab4c 13be
00000360: 3462 9dbd d14e 443b 4e99 6fbd 48a0 d1bd
00000370: 212f e6bd 95d7 4cbd dec6 72bd 435d 16be
00000380: b576 a63d 6d2c fdbd 26d9 1abe f128 093e
00000390: 75da 0dbe 178c be3d 9efc 51be 31e1 7fbe
000003a0: c961 813e 103e b13c 36e6 2c3e 5961 953e
000003b0: fa3d 2f3e f016 0f3e a23e c53d 2bd5 13be
000003c0: 1ef6 88bd 5c5b 37bd 3534 5fbc 83b4 fb3d
000003d0: 3a56 333d b15f 4cbe 2f87 0d3d 9d9a 5fbc
000003e0: 9d85 953d 0b1e d7bd 127e 173e b275 21be
000003f0: 4b04 813e 3e7f a43d 20f7 92be db4e 97be

self_attn.qkv_proj.bias f4 [108]
-0.018730778 -0.012317208 -0.068313725 -0.004388388 -0.046483763 0.014335629 -0.024448374 0.055902205
0.034360696 -0.010692357 0.054013137 0.030882934 0.0061195316 -0.008983301 -0.026639514 0.027743947
-0.0034562943 -0.05486571 0.0054783234 -0.059164476 -0.0839758 0.018999914 0.056468975 0.03254032
-0.06995164 0.058159377 0.012595497 0.013733553 -0.053149655 0.04490197 0.021808483 0.11053495
0.08565948 0.048832364 0.065513514 -0.024480524 0.030766318 0.02317909 0.0032286816 -0.008667671
0.0038337766 -0.029105745 -0.011310881 -0.001314045 -0.0041997517 -0.0048753237 0.0046094535 -0.052774843
-0.017919265 0.03055987 -0.002356376 0.0101720495 -0.0061147823 0.03186478 -0.019326862 0.0054213214
-0.030035717 -0.00060233916 -0.018737547 -0.037337128 -0.004572238 0.0059089623 0.019738395 0.0076121087
0.010717808 -0.005203395 -0.040203698 -0.0069885924 0.011524107 0.026657006 -0.01078462 0.0006095443
0.06585452 -0.009086438 -0.04296249 0.08728936 -0.041849535 -0.01534623 -0.22178772 -0.08757333
0.008949852 0.005897922 -0.015091305 -0.074367866 -0.12216639 0.031248203 -0.08034075 0.17077035
-0.3240901 0.07574648 0.09036027 0.221681 0.0949875 0.22166763 -0.024090303 0.23347034
0.11655888 0.051847063 0.1566685 -0.062438786 -0.20204446 -0.22960165 0.073042095 0.04618265
0.22251223 0.18901926 -0.25573692 -0.19792677
00000000: 4a71 99bc 1dce 49bc 11e8 8bbd 77cc 8fbb
00000010: c265 3ebd fcdf 6a3c f547 c8bc b6f9 643d
00000020: cdbd 0c3d ff2e 2fbc e13c 5d3d 35fe fc3c
00000030: 5a86 c83b b22e 13bc 1c3b dabc 4647 e33c
00000040: ff82 62bb deba 60bd 8283 b33b 7356 72bd
00000050: 81fb abbd b5a5 9b3c 034c 673d 0049 053d
00000060: ce42 8fbd 8738 6e3d 585d 4e3c b202 613c
00000070: 74b3 59bd 21eb 373d b4a7 b23c 2660 e23d
00000080: 3d6e af3d 7204 483d f32b 863d 618b c8bc
00000090: a509 fc3c 13e2 bd3c 4a98 533b d902 0ebc
000000a0: 1940 7b3b 2c6f eebc 4651 39bc 093c acba
000000b0: 129e 89bb 2ec1 9fbb e60a 973b 6f2a 58bd
000000c0: 6ccb 92bc b158 fa3c 6e6d 1abb aba8 263c
000000d0: 835e c8bb a584 023d 5e53 9ebc 57a5 b13b
000000e0: 770d f6bc 4ce6 1dba 7c7f 99bc d1ee 18bd
000000f0: b6d2 95bb f89f c13b 6ab2 a13c ff6e f93b
00000100: bf99 2f3c 3e81 aabb a2ac 24bd 9000 e5bb
00000110: 9ccf 3c3c cb5f da3c fab1 30bc d3c9 1f3a
00000120: bcde 863d 49df 14bc 70f9 2fbd c4c4 b23d
00000130: 6b6a 2bbd c16e 7bbc 521c 63be a559 b3bd
00000140: 66a2 123c 5b43 c13b 8541 77bc 2e4e 98bd
00000150: 5f32 fabd 3bfc ff3c b189 a4bd 6cde 2e3e
00000160: 23ef a5be f820 9b3d ce0e b93d 5800 633e
00000170: ce88 c23d d7fc 623e 0759 c5bc d912 6f3e
00000180: 6cb6 ee3d 965d 543d b56d 203e d0bf 7fbd
00000190: bee4 4ebe b21c 6bbe 1897 953d 052a 3d3d
000001a0: 3fda 633e 448e 413e f3ef 82be 51ad 4abe

self_attn.o_proj.weight f4 [36, 36]
0.20850255 -0.020810489 0.14917307 0.10322204 0.120705396 -0.10613836 0.07295828 -0.033725
0.10548722 -0.05360002 -0.23326251 0.28799444 -0.23361625 0.19105726 -0.0741223 0.03274925
0.2339557 -0.24426582 -0.12883158 0.32055503 -0.17438528 0.12346013 0.26895416 -0.21134135
-0.22113943 -0.120963 0.08665195 -0.19640282 0.17406526 -0.18339774 -0.20457579 -0.0023414355
-0.08127653 0.41943124 0.20261136 0.09286258 0.30210656 0.07082128 -0.007353797 0.34852165
0.109454565 -0.13204655 0.007350026 -0.023190908 -0.17252506 0.3261892 0.13538487 -0.26497734
-0.26951492 0.22709455 0.0600983 0.33811337 -0.30328563 0.17074364 0.22917506 0.17036769
0.25574508 0.27773055 -0.13757911 0.10870042 0.00085604965 -0.10394535 0.31137487 0.119611114
-0.30722237 -0.28467327 -0.095389836 0.08920728 0.044938553 0.21281208 -0.037182603 -0.38183677
0.1824994 -0.116761036 0.36189532 0.123372644 0.07884811 -0.19279566 -0.047500823 0.004398299
0.11391232 0.23213865 0.36598256 0.23428133 -0.1482685 0.19015734 0.1209005 -0.20560147
0.13934454 -0.27330583 -0.26796213 -0.17825268 0.048165016 -0.1963668 -0.027346643 0.011827643
-0.068138845 0.12327036 -0.23512506 0.26690838 0.0009140931 0.07581899 -0.014999856 0.012535012
0.025486642 -0.40263343 0.27265915 -0.16483426 -0.17248622 0.002990397 0.12669304 -0.17483535
0.15151913 0.16710898 0.19278 0.34995326 0.24299094 -0.026736697 0.15161632 0.1781447
0.006897376 -0.2033553 0.38108715 -0.092116885 0.26460016 0.084226914 -0.25677392 -0.33738816
-0.37863094 -0.11776578 0.38868937 -0.19962485 -0.13966288 0.20623481 -0.003368167 0.08855221
0.08175703 -0.016439676 0.0687827 -0.13146631 -0.18029432 -0.18298823 0.43966424 0.24899058
0.41109064 -0.1378244 -0.080725595 -0.06047732 0.005573026 -0.119439155 -0.20194742 -0.14305553
-0.37767485 0.11795825 -0.18868703 -0.011361768 -0.18279421 0.43397483 0.024393639 0.11671208
-0.16154626 0.2373304 -0.017097557 0.36687723 0.348568 0.15034926 -0.0021408983 0.39648739
0.12615713 0.09433106 0.21176682 0.09286506 -0.39970517 -0.38436383 0.057555195 -0.23934746
0.42913857 0.03309895 -0.0043433816 -0.36813864 -0.12292334 0.19742227 -0.09518564 0.15011837
0.14125147 0.14364035 -0.110829785 0.14819156 -0.1798409 -0.29303202 -0.09524288 -0.06350574
0.17045256 -0.26211947 -0.04044523 -0.018823901 -0.20194349 -0.3160515 0.14589463 0.00052995904
-0.29102954 -0.2816452 0.368559 -0.16024154 0.1056349 -0.0047745723 -0.10847731 -0.15405785
0.17859042 -0.11537234 0.18951055 -0.027240068 0.18410987 0.16322526 0.028803704 0.042465214
-0.117732674 -0.26254874 0.2264144 0.17488028 0.10095386 0.2462189 -0.058531728 0.14591521
-0.22961466 0.24367589 0.1342983 -0.2818484 0.11509067 0.082225405 0.09904386 0.16882855
-0.034282148 0.3497243 -0.0997762 0.093456924 -0.15037896 0.02029474 -0.08850206 0.19689615
-0.16230474 -0.25188187 -0.31858948 -0.11050716 0.1327213 -0.12077129 -0.2718825 0.23597157
0.30013883 0.06172109 -0.123665415 0.0061798636 0.008269245 -0.0678348 0.12835467 0.07869013
00000000: b181 553e c27a aabc d3c0 183e 1466 d33d
00000010: 6434 f73d 125f d9bd 276b 953d 3a23 0abd
00000020: af09 d83d b28b 5bbd 5edc 6ebe 0274 933e
00000030: 1939 6fbe 84a4 433e 6fcd 97bd 1424 063d
00000040: 1592 6f3e d220 7abe 6dec 03be ca1f a43e
00000050: 0e92 32be aad8 fc3d 5cb4 893e de69 58be
00000060: 6072 62be 73bb f7bd 9476 b13d d21d 49be
00000070: 2a3e 323e 9ecc 3bbe 517c 51be c572 19bb
00000080: 4f74 a6bd b1bf d63e 5a79 4f3e bd2e be3d
00000090: b6ad 9a3e bf0a 913d 1ff8 f0bb 6e71 b23e
000000a0: b729 e03d 3637 07be 7dd8 f03b dcfa bdbc
000000b0: 69aa 30be 4502 a73e 55a2 0a3e 1cab 87be
000000c0: dcfd 89be 798b 683e a329 763d 321d ad3e
000000d0: 4148 9bbe 6cd7 2e3e deac 6a3e de74 2e3e
000000e0: 05f1 823e b332 8e3e 8ae1 0cbe 539e de3d
000000f0: 8568 603a 4de1 d4bd 876c 9f3e acf6 f43d
00000100: 404c 9dbe b2c0 91be bf5b c3bd 4eb2 b63d
00000110: 7d11 383d 69eb 593e c94c 18bd 1c80 c3be
00000120: 1fe1 3a3e 6920 efbd 584a b93e ccaa fc3d
00000130: 1e7b a13d 3a6c 45be 3990 42bd 9b1f 903b
00000140: dd4a e93d c1b5 6d3e 1162 bb3e 72e7 6f3e
00000150: b3d3 17be 9bb8 423e ae9a f73d 3189 52be
00000160: 56b0 0e3e beee 8bbe 5532 89be df87 36be
00000170: ae48 453d 6114 49be 1106 e0bc bbc8 413c
00000180: 618c 8bbd 2c75 fc3d a0c4 70be 37a8 883e
00000190: c09f 6f3a fd46 9b3d f5c1 75bc a75f 4d3c
000001a0: 5dc9 d03c f825 cebe fb99 8b3e 50ca 28be
000001b0: 3aa0 30be 89fa 433b d2bb 013e 0a08 33be
000001c0: d527 1b3e 9e1e 2b3e 1f68 453e 132d b33e
000001d0: 9ed2 783e eb06 dbbc 4f41 1b3e 906b 363e
000001e0: 6203 e23b 5f3c 50be db1d c33e c7a7 bcbd
000001f0: ac79 873e 297f ac3d df77 83be 24be acbe
00000200: eadb c1be 2f2f f1bd 4b02 c73e 756a 4cbe
00000210: c903 0fbe 382f 533e 77bc 5cbb dc5a b53d
00000220: 3b70 a73d 80ac 86bc f2dd 8c3d 1b9f 06be
00000230: 139f 38be 4461 3bbe ac1b e13e 63f7 7e3e
00000240: 797a d23e d721 0dbe 7653 a5bd 11b7 77bd
00000250: ee9d b63b 849c f4bd 4ecb 4ebe 267d 12be
00000260: 995e c1be 1894 f13d 2c37 41be b526 3abc
00000270: 682e 3bbe f331 de3e 2bd5 c73c be06 ef3d
00000280: 626c 25be be06 733e 2d10 8cbc 55d7 bb3e
00000290: 8177 b23e 28f5 193e 504e 0cbb 6500 cb3e
000002a0: 562f 013e a530 c13d 67d9 583e 0930 be3d
000002b0: 28a6 ccbe 56cb c4be ffbe 6b3d 8017 75be
000002c0: 0db8 db3e c492 073d ed52 8ebb ab7c bcbe
000002d0: 3bbf fbbd 1029 4a3e b0f0 c2bd a1b8 193e
000002e0: 3aa4 103e 7516 133e bafa e2bd 87bf 173e
000002f0: 3628 38be 4b08 96be b30e c3bd 4c0f 82bd
00000300: 1e8b 2e3e 8634 86be e6a9 25bd 9534 9abc
00000310: 46ca 4ebe 81d1 a1be 6765 153e f3ec 0a3a
00000320: d301 95be cd33 90be c4b3 bc3e 5c16 24be
00000330: 1c57 d83d 0474 9cbb 5a29 debd 57c1 1dbe
00000340: 68e0 363e 5548 ecbd 0e0f 423e 9026 dfbc
00000350: 4c87 3c3e 8624 273e bff5 eb3c 01f0 2d3d
00000360: d41d f1bd ca6c 86be 2dd9 673e d113 333e
00000370: e6c0 ce3d cf20 7c3e f7be 6fbd cc6a 153e
00000380: 1b20 6bbe 2c86 793e 7e85 093e 6f4e 90be
00000390: a8b4 eb3d cb65 a83d 82d7 ca3d 64e1 2c3e
000003a0: 706b 0cbd 100f b33e 7757 ccbd 5866 bf3d
000003b0: f1fc 19be 2841 a63c 9140 b5bd 259f 493e
000003c0: 3733 26be a9f6 80be 291e a3be 9451 e2bd
000003d0: 18e8 073e f056 f7bd 2f34 8bbe 88a2 713e
000003e0: ccab 993e 41cf 7c3d 4b44 fdbd 7480 ca3b
000003f0: ba7b 073c f9ec 8abd 686f 033e 4a28 a13d

self_attn.o_proj.bias f4 [36]
0.015159024 0.281613 -0.12992871 -0.30903736 0.3072252 -0.021489555 0.045032464 -0.042977497
0.047298215 -0.06537437 0.00939463 0.30895695 -0.2236169 -0.30217844 -0.12760392 -0.10377715
0.09128286 0.09175241 0.10083992 -0.05211958 0.024004532 -0.07260768 -0.011731095 0.050918415
0.33369926 0.012343904 0.30921206 0.2821514 -0.16797256 -0.2850484 0.268485 0.30301726
-0.25804934 -0.05312994 -0.29370442 -0.01592306
00000000: 8e5d 783c 942f 903e 080c 05be 253a 9ebe
00000010: 9f4c 9d3e dd0a b0bc f673 383d 2c09 30bd
00000020: c6bb 413d ffe2 85bd efeb 193c 9b2f 9e3e
00000030: d4fb 64be 22b7 9abe 9aaa 02be 1d89 d4bd
00000040: 82f2 ba3d b0e8 bb3d 2985 ce3d 577b 55bd
00000050: 27a5 c43c 56b3 94bd c733 40bc d48f 503d
00000060: a1da aa3e 163e 4a3c 0b51 9e3e 2676 903e
00000070: 0001 2cbe ddf1 91be de76 893e 1425 9b3e
00000080: 0b1f 84be c89e 59bd 6d60 96be 1471 82bc

fc.weight f4 [1, 18]
-0.11420506 -0.23567155 0.22063945 -0.07954836 -0.20978293 -0.16988468 0.058494095 0.14493045
0.02432258 0.03676939 -0.032807417 0.039206713 -0.020001827 0.18863134 0.08839577 -0.10110167
0.08372446 -0.0826756
00000000: 58e4 e9bd e253 71be 4fef 613e 40ea a2bd
00000010: 56d1 56be 40f6 2dbe 8197 6f3d a668 143e
00000020: 2640 c73c 809b 163d 1261 06bd 3897 203d
00000030: dfda a3bc 9328 413e d708 b53d 640e cfbd
00000040: bb77 ab3d d351 a9bd

fc1.weight f4 [1, 36]
-1.0899549 0.72975373 1.1622089 -0.81504637 0.7323912 -1.110807 1.0923344 1.157247
-1.0643266 1.1214778 -1.2530283 0.67166096 -0.72103727 -0.3535468 -0.90266085 1.2775189
0.93638855 -0.97048026 -1.2706696 1.2676917 -1.1982205 1.3407552 -0.98946995 1.1221181
0.767629 -1.0042001 0.73629415 0.7717681 -0.5535128 -0.7700887 0.820042 0.6850873
-0.65776384 -1.0785345 -0.7564148 -1.1103888
00000000: a483 8bbf 24d1 3a3f 43c3 943f e1a6 50bf
00000010: fd7d 3b3f ec2e 8ebf 9dd1 8b3f ab20 943f
00000020: db3b 88bf 968c 8f3f 3b63 a0bf f9f1 2b3f
00000030: e695 38bf 1604 b5be c814 67bf bd85 a33f
00000040: 29b7 6f3f 6571 78bf 4da5 a2bf b943 a23f
00000050: 4a5f 99bf de9d ab3f e74d 7dbf 91a1 8f3f
00000060: 5683 443f a189 80bf c67d 3c3f 9892 453f
00000070: 04b3 0dbf 8824 45bf 46ee 513f e261 2f3f
00000080: 3663 28bf 6b0d 8abf 66a4 41bf 3821 8ebf

fc2.weight f4 [1, 9]
-0.3052305 -0.32291704 -0.08533736 -0.030207198 0.24997962 -0.21768829 -0.32283914 0.0012872617
-0.30869973
00000000: 2c47 9cbe 6255 a5be 5bc5 aebd 1675 f7bc
00000010: a8fa 7f3e aee9 5ebe 2c4b a5be 56b9 a83a
00000020: e40d 9ebe

fc3.weight f4 [1, 2]
0.5097901 -0.5854001
00000000: 9b81 023f c8dc 15bf

input_fc.weight f4 [18, 3]
-0.4014663 0.4634514 0.119335115 0.24376422 -0.008037693 -0.2304977 0.23046967 -0.40539464
0.393599 0.33177814 -0.57832134 0.22546482 -0.17533115 0.35771835 -0.07824112 0.098568216
-0.10728529 -0.015840303 0.1987603 0.031204576 -0.3119027 0.5828732 0.25681588 -0.23511632
0.059085578 -0.42084223 -0.27340493 0.24100614 0.5144649 -0.46938652 -0.28134075 -0.40018526
0.25897437 -0.6458092 0.17691416 0.23189978 0.2260173 -0.047459558 0.055161055 0.4618391
-0.27623335 0.21289216 0.44881657 -0.17311738 -0.22421978 0.4067174 -0.26281825 -0.017608287
-0.21572703 0.5209271 -0.29417327 0.25458637 -0.43298927 0.07908832
00000000: fe8c cdbe 8049 ed3e f865 f43d 549d 793e
00000010: 87b0 03bc 9707 6cbe 3e00 6c3e e38f cfbe
00000020: cf85 c93e d3de a93e de0c 14bf 40e0 663e
00000030: 028a 33be dc26 b73e e13c a0bd 22de c93d
00000040: 64b8 dbbd 86c3 81bc d287 4b3e bda0 ff3c
00000050: b6b1 9fbe 2e37 153f 5f7d 833e 55c2 70be
00000060: b803 723d a278 d7be bbfb 8bbe 50ca 763e
00000070: f9b3 033f 6e53 f0be e50b 90be 15e5 ccbe
00000080: 4a98 843e c053 25bf fc28 353e 2377 6d3e
00000090: 1471 673e f464 42bd 8ff0 613d 2d76 ec3e
000000a0: 756e 8dbe 6700 5a3e 49cb e53e af45 31be
000000b0: df99 65be 433d d03e 1d90 86be 413f 90bc
000000c0: 8ce7 5cbe 7a5b 053f e19d 96be 2559 823e
000000d0: c5b0 ddbe 0ff9 a13d

input_fc.bias f4 [18]
0.0032002905 -0.24529633 -0.19840705 -0.09465078 0.094271705 0.32500142 -0.48489153 0.35621506
-0.5023136 -0.20742851 -0.1092466 -0.1907374 0.18840694 0.30850062 -0.29215103 -0.20794523
0.22895174 0.38548425
00000000: f7bb 513b f62e 7bbe 382b 4bbe 45d8 c1bd
00000010: 8611 c13d 9666 a63e b443 f8be d261 b63e
00000020: a097 00bf 2468 54be aebc dfbd aa50 43be
00000030: c0ed 403e cbf3 9d3e d294 95be 98ef 54be
00000040: 5372 6a3e 315e c53e

norm.weight f4 [36]
1.0 1.0 1.0 1.0 1.0 1.0 1.0 1.0
1.0 1.0 1.0 1.0 1.0 1.0 1.0 1.0
1.0 1.0 1.0 1.0 1.0 1.0 1.0 1.0
1.0 1.0 1.0 1.0 1.0 1.0 1.0 1.0
1.0 1.0 1.0 1.0
00000000: 0000 803f 0000 803f 0000 803f 0000 803f
00000010: 0000 803f 0000 803f 0000 803f 0000 803f
00000020: 0000 803f 0000 803f 0000 803f 0000 803f
00000030: 0000 803f 0000 803f 0000 803f 0000 803f
00000040: 0000 803f 0000 803f 0000 803f 0000 803f
00000050: 0000 803f 0000 803f 0000 803f 0000 803f
00000060: 0000 803f 0000 803f 0000 803f 0000 803f
00000070: 0000 803f 0000 803f 0000 803f 0000 803f
00000080: 0000 803f 0000 803f 0000 803f 0000 803f

norm.bias f4 [36]
0.0 0.0 0.0 0.0 0.0 0.0 0.0 0.0
0.0 0.0 0.0 0.0 0.0 0.0 0.0 0.0
0.0 0.0 0.0 0.0 0.0 0.0 0.0 0.0
0.0 0.0 0.0 0.0 0.0 0.0 0.0 0.0
0.0 0.0 0.0 0.0
00000000: 0000 0000 0000 0000 0000 0000 0000 0000
00000010: 0000 0000 0000 0000 0000 0000 0000 0000
00000020: 0000 0000 0000 0000 0000 0000 0000 0000
00000030: 0000 0000 0000 0000 0000 0000 0000 0000
00000040: 0000 0000 0000 0000 0000 0000 0000 0000
00000050: 0000 0000 0000 0000 0000 0000 0000 0000
00000060: 0000 0000 0000 0000 0000 0000 0000 0000
00000070: 0000 0000 0000 0000 0000 0000 0000 0000
00000080: 0000 0000 0000 0000 0000 0000 0000 0000

norm1.weight f4 [9]
1.0 1.0 1.0 1.0 1.0 1.0 1.0 1.0
1.0
00000000: 0000 803f 0000 803f 0000 803f 0000 803f
00000010: 0000 803f 0000 803f 0000 803f 0000 803f
00000020: 0000 803f

norm1.bias f4 [9]
0.0 0.0 0.0 0.0 0.0 0.0 0.0 0.0
0.0
00000000: 0000 0000 0000 0000 0000 0000 0000 0000
00000010: 0000 0000 0000 0000 0000 0000 0000 0000
00000020: 0000 0000

norm2.weight f4 [9]
1.0 1.0 1.0 1.0 1.0 1.0 1.0 1.0
1.0
00000000: 0000 803f 0000 803f 0000 803f 0000 803f
00000010: 0000 803f 0000 803f 0000 803f 0000 803f
00000020: 0000 803f

norm2.bias f4 [9]
0.0 0.0 0.0 0.0 0.0 0.0 0.0 0.0
0.0
00000000: 0000 0000 0000 0000 0000 0000 0000 0000
00000010: 0000 0000 0000 0000 0000 0000 0000 0000
00000020: 0000 0000

m.running_mean f4 [12]
0.8074331 0.8385185 0.8196425 0.78308076 0.75904554 0.7727974 0.79681677 0.80181766
0.77497596 0.7242668 0.6936747 0.7015985
00000000: f0b3 4e3f 26a9 563f 17d4 513f fb77 483f
00000010: cf50 423f 0dd6 453f 2ffc 4b3f ec43 4d3f
00000020: d364 463f 8d69 393f aa94 313f f69b 333f

m.running_var f4 [12]
1512.3877 1507.407 1502.0997 1500.7932 1502.723 1505.117 1503.8749 1499.4348
1495.6073 1495.4755 1500.0614 1505.8356
00000000: 680c bd44 066d bc44 31c3 bb44 6299 bb44
00000010: 23d7 bb44 be23 bc44 fffb bb44 ea6d bb44
00000020: 6ff3 ba44 37ef ba44 f781 bb44 bd3a bc44

linear_net.0.weight f4 [9, 18]
0.23512112 0.069411784 0.058534134 0.2250136 -0.1257093 0.14141594 -0.13527587 0.067116916
-0.23260854 -0.030561551 0.21341074 0.21948941 -0.04750166 -0.113862045 -0.025004601 0.15404013
0.05954175 -0.08087039 -0.10273578 0.15410282 -0.15555772 -0.09413768 -0.0355566 0.22035572
0.18106124 0.17848103 -0.15957755 0.08130695 -0.01620226 0.11714556 0.15591623 -0.18442391
-0.19048147 0.026999243 -0.23263909 0.16998538 -0.17062278 -0.13697374 0.001052772 0.13433386
0.20579149 0.04352078 0.20106685 0.09922666 0.23123074 -0.05809395 -0.05987359 -0.07291843
-0.040029783 -0.1993641 0.070445366 0.16907035 0.121487506 -0.14872134 0.21363333 -0.0006018851
-0.0071250373 -0.20445931 -0.10312991 0.07613477 0.028586747 -0.15066451 0.21862829 0.098720364
0.13014725 -0.13711047 -0.0951716 0.073708795 -0.22114713 0.11037827 0.012157174 0.1506479
0.18087716 0.04658446 0.1229561 0.0054819 0.22992691 -0.026158864 -0.1452239 -0.03151837
-0.17760073 -0.13802697 0.05147181 0.18209237 0.19204925 0.17755346 0.20135151 0.21048938
-0.14177337 -0.0719769 0.10726982 -0.09258772 -0.040210593 0.19935058 -0.020539284 -0.054712903
0.09691109 0.23059735 -0.101584725 -0.030826824 -0.20969763 0.02786817 0.024326403 0.15829368
-0.19256586 -0.14602284 0.18343261 -0.106227055 0.015522656 0.20275567 0.20469761 -0.014762018
-0.22280161 -0.19341251 -0.22631831 -0.014116862 -0.18331452 0.19115113 -0.20460139 -0.069981106
0.10099026 -0.09943888 0.1764665 0.050439943 0.2263952 0.033603262 0.14396104 -0.20783292
-0.10016777 0.10541559 -0.08960653 0.07767232 -0.14264803 0.046773672 0.02882527 -0.1299565
-0.005747369 0.18235084 -0.17411464 0.039055828 0.12811565 0.21713635 -0.21474168 0.10663389
0.22409701 0.16130096 -0.2032996 -0.034190394 -0.028890232 -0.03387553 0.01699375 0.015324763
0.12485161 -0.18471149 -0.16620596 -0.0071372315 -0.2220625 0.23112829 0.16834915 -0.10422497
0.1677655 -0.10570067
00000000: 97c3 703e c427 8e3d 7dc1 6f3d f769 663e
00000010: f0b9 00be 57cf 103e c285 0abe 9874 893d
00000020: ef30 6ebe 385c fabc 5888 5a3e d5c1 603e
00000030: 1a91 42bd 8130 e9bd 73d6 ccbc b2bc 1d3e
00000040: 0de2 733d 609f a5bd 2367 d2bd 21cd 1d3e
00000050: 864a 1fbe 42cb c0bd cca3 11bd eea4 613e
00000060: 1e68 393e bbc3 363e 4c68 23be 4284 a63d
00000070: 9aba 84bc 03ea ef3d 81a8 1f3e 9fd9 3cbe
00000080: 930d 43be 842d dd3c f138 6ebe a610 2e3e
00000090: bdb7 2ebe d842 0cbe 2bfd 893a d18e 093e
000000a0: 01bb 523e d842 323d 78e4 4d3e 5937 cb3d
000000b0: c0c7 6c3e ecf3 6dbd 023e 75bd 4256 95bd
000000c0: 45f6 23bd 1a26 4cbe a945 903d c720 2d3e
000000d0: 71ce f83d 684a 18be b2c2 5a3e d3c7 1dba
000000e0: 2579 e9bb c85d 51be c635 d3bd 8cec 9b3d
000000f0: c12e ea3c cc47 1abe 18e0 5f3e e72d ca3d
00000100: 5245 053e b066 0cbe 54e9 c2bd a3f4 963d
00000110: 6574 62be 010e e23d e22e 473c 7143 1a3e
00000120: dd37 393e 59cf 3e3d 68d0 fb3d 83a1 b33b
00000130: f671 6b3e 1d4b d6bc 93b5 14be 6819 01bd
00000140: f7dc 35be f156 0dbe 1bd4 523d 6c76 3a3e
00000150: 8fa8 443e 93d0 353e 172f 4e3e 878a 573e
00000160: 0a2d 11be a068 93bd 48b0 db3d a19e bdbd
00000170: ddb3 24bd 8f22 4c3e 0042 a8bc a31a 60bd
00000180: 5279 c63d b621 6c3e a70b d0bd 8988 fcbc
00000190: faba 56be ca4b e43c 2a48 c73c bd17 223e
000001a0: fc2f 45be 0387 15be c2d5 3b3e 928d d9bd
000001b0: bd52 7e3c 2f9f 4f3e 409c 513e 64dc 71bc
000001c0: 1b26 64be ee0d 46be fdbf 67be 694a 67bc
000001d0: cdb6 3bbe 1fbd 433e 0783 51be 4152 8fbd
000001e0: fbd3 ce3d 9da6 cbbd a2b3 343e 1d9a 4e3d
000001f0: 25d4 673e 93a3 093d 866a 133e 27d2 54be
00000200: c324 cdbd 21e4 d73d a183 b7bd aa12 9f3d
00000210: 5312 12be c095 3f3d f922 ec3c 5113 05be
00000220: 6d54 bcbb 2eba 3a3e 1c4b 32be 01f9 1f3d
00000230: c030 033e fe58 5e3e 3ee5 5bbe de62 da3d
00000240: b079 653e 142c 253e c52d 50be 3a0b 0cbd
00000250: 35ab ecbc 11c1 0abd 7a36 8b3c b714 7b3c
00000260: 33b2 ff3d 0225 3dbe e531 2abe 70df e9bb
00000270: 5a64 63be e5ac 6c3e b863 2c3e e773 d5bd
00000280: b8ca 2b3e 9879 d8bd

linear_net.0.bias f4 [9]
-0.0016157697 -0.20124966 0.008176939 0.07882188 -0.09764736 0.13084657 -0.002317009 0.12630275
0.23200722
00000000: 3cc8 d3ba 6414 4ebe 91f8 053c 5e6d a13d
00000010: 57fb c7bd a5fc 053e f6d8 17bb 8255 013e
00000020: 4d93 6d3e

linear_net.2.weight f4 [1, 9]
-0.23256946 -0.23333327 0.25145853 -0.07154012 -0.23910797 0.044293802 -0.22933035 0.32548147
0.15662663
00000000: b026 6ebe ebee 6ebe 2cbf 803e a083 92bd
00000010: b8d8 74be 6b6d 353d 93d5 6abe 82a5 a63e
00000020: bb62 203e

exp_avg f4 [108, 36]
6.350932e-05 -7.389059e-05 -0.00011415077 -7.954168e-05 1.5836098e-05 -2.4539922e-05 -3.570839e-05 -0.0003494906
0.00016514461 -0.00016206437 0.00021027635 0.00025855823 -0.00013151897 -0.00024215294 -0.00014389229 -0.00014885385
4.6169636e-05 -4.4882963e-05 -3.2508729e-07 2.6208447e-06 -6.257902e-06 -1.356838e-06 -5.5393252e-06 -9.005574e-06
-2.2459124e-06 -1.1056751e-05 -8.198019e-07 -1.1347633e-05 -2.952144e-07 -1.1385656e-05 -1.0612215e-07 -1.1390575e-05
-3.81396e-08 -1.139121e-05 -1.3706719e-08 -1.1391293e-05 -5.0416824e-05 -2.1186184e-05 -1.1378795e-05 4.164586e-05
-4.5044068e-05 5.67683e-06 -4.486123e-06 -0.00019537298 0.00016185136 -0.00013402519 0.0001508043 8.230452e-05
-5.881961e-05 -8.3713814e-05 -2.8100183e-05 -2.7982083e-05 -4.4735723e-05 4.2650732e-05 -1.3518713e-06 1.9950508e-06
-4.1634394e-06 -1.2939547e-06 -2.994169e-06 -5.5789333e-06 -1.1785163e-06 -6.5367244e-06 -4.2853813e-07 -6.6694274e-06
-1.5424227e-07 -6.6867224e-06 -5.54427e-08 -6.6889606e-06 -1.9925576e-08 -6.6892494e-06 -7.160901e-09 -6.6892853e-06
-0.0005075782 0.00010449283 0.00031014514 0.0005150303 -0.00032580612 0.000113265975 8.048519e-05 -6.070138e-05
0.00044052585 -0.00029981553 0.00024020768 -0.00033064713 7.052034e-05 0.00028060251 0.00028893648 0.0003109508
-0.00042797124 0.00040498073 -4.180416e-06 4.518154e-07 -7.9139245e-06 -5.2795244e-06 4.900568e-07 -6.226566e-06
5.628425e-07 -4.489293e-06 2.2221869e-07 -4.212129e-06 8.079945e-08 -4.1753906e-06 2.9081416e-08 -4.170629e-06
1.0453352e-08 -4.17001e-06 3.756839e-09 -4.16993e-06 0.00018591326 1.8149478e-06 -8.4277446e-05 -0.00018926234
0.00013701264 -3.5699213e-05 -6.587816e-06 0.00022897878 -0.00027972698 0.00023697711 -0.00023149079 -4.4843364e-06
4.0874096e-05 5.2997207e-06 -4.118395e-05 -5.3641605e-05 0.00017125992 -0.00015608662 3.4056884e-06 -4.4390808e-07
3.233106e-06 -1.9015387e-06 4.7237154e-06 5.6368135e-06 1.9510549e-06 7.670594e-06 7.135867e-07 7.956892e-06
2.5703e-07 7.994277e-06 9.239879e-08 7.999112e-06 3.3207655e-08 7.999737e-06 1.1934269e-08 7.999818e-06
0.000107509215 -4.9662733e-05 -7.8487945e-05 -0.00010446732 5.5983302e-05 -2.717218e-05 -3.5091398e-05 -0.00011872101
-2.195444e-05 -2.2417613e-05 4.242138e-05 0.00015004187 -5.566281e-05 -0.00012324817 -0.000103512764 -0.00010279692
7.690663e-05 -7.8444085e-05 3.984682e-06 4.6224895e-06 2.652683e-06 3.58227e-06 -3.714535e-06 6.4183115e-07
-1.8349552e-06 -2.055938e-06 -6.8509695e-07 -2.469624e-06 -2.4741686e-07 -2.524216e-06 -8.8973145e-08 -2.5312859e-06
-3.1977883e-08 -2.5322015e-06 -1.1492376e-08 -2.5323207e-06 0.00026950892 3.057043e-05 -8.9336434e-05 -0.0002687836
0.0002106486 -4.7447724e-05 2.7099313e-06 0.00049409794 -0.00050473574 0.00043499915 -0.0004449063 -0.000105297055
0.00011442884 0.000100555044 -1.0434429e-05 -2.8251066e-05 0.00025301296 -0.00022968183 -8.3941515e-08 -5.1750035e-06
8.83999e-06 -6.4063876e-08 9.231817e-06 1.2465862e-05 3.812583e-06 1.6186883e-05 1.3948851e-06 1.6720494e-05
5.024539e-07 1.6790349e-05 1.8062636e-07 1.6799384e-05 6.491629e-08 1.6800546e-05 2.332981e-08 1.6800703e-05
-0.00012588846 -3.259117e-05 6.533846e-05 0.0001455331 -0.00010923833 2.1934804e-05 -2.2703032e-05 -0.0002733751
0.00024108173 -0.00025340338 0.00024633046 7.493023e-05 -5.809664e-05 -4.466505e-05 -1.3391375e-05 7.885236e-06
-0.00014282126 0.00011858267 -1.9578253e-07 2.5799122e-06 4.2884255e-07 7.8443045e-06 -7.6105516e-06 -2.7055594e-06
-3.4118018e-06 -7.0793317e-06 -1.2601331e-06 -7.7211735e-06 -4.5446245e-07 -7.805427e-06 -1.633995e-07 -7.816332e-06
-5.8726144e-08 -7.817744e-06 -2.110524e-08 -7.817923e-06 9.884376e-05 5.2191644e-05 1.2662901e-05 -9.119484e-05
00000000: 4e30 8538 b5f5 9ab8 3a64 efb8 9dcf a6b8
00000010: c3d7 8437 15db cdb7 98c5 15b8 d63b b7b9
00000020: ab2a 2d39 d3ef 29b9 a17d 5c39 198f 8739
00000030: 5be8 09b9 6fea 7db9 cbe1 16b9 a715 1cb9
00000040: 45a6 4138 b740 3cb8 a887 aeb4 c5e1 2f36
00000050: f8fa d1b6 991c b6b5 71de b9b6 a516 17b7
00000060: 7bb8 16b6 6280 39b7 5c10 5cb5 b661 3eb7
00000070: f57d 9eb4 0505 3fb7 45e5 e3b3 261a 3fb7
00000080: efce 23b3 e01c 3fb7 ca7a 6bb2 3b1d 3fb7
00000090: a776 53b8 fcb8 b1b7 8de7 3eb7 e7ac 2e38
000000a0: b3ed 3cb8 997b be36 8187 96b6 09dd 4cb9
000000b0: a5b6 2939 1d89 0cb9 3921 1e39 e79a ac38
000000c0: 13b5 76b8 838f afb8 afb8 ebb7 11bb eab7
000000d0: 9ea2 3bb8 e0e3 3238 f271 b5b5 b6e2 0536
000000e0: acb3 8bb6 f2ab adb5 6fef 48b6 ac32 bbb6
000000f0: 832d 9eb5 0956 dbb6 d511 e6b4 f2c9 dfb6
00000100: cb9d 25b4 825e e0b6 e51f 6eb3 bc71 e0b6
00000110: ce28 abb2 3774 e0b6 f40b f6b1 8674 e0b6
00000120: ff0e 05ba 2923 db38 fa9a a239 1903 073a
00000130: f5d0 aab9 3589 ed38 28ca a838 9c99 7eb8
00000140: 61f6 e639 8f30 9db9 42e0 7b39 b55a adb9
00000150: 52e4 9338 d51d 9339 667c 9739 1c07 a339
00000160: 5461 e0b9 9853 d439 8045 8cb6 0991 f234
00000170: 0cc6 04b7 c526 b1b6 728c 0335 cbed d0b6
00000180: 3e16 1735 bca2 96b6 029b 6e34 ea55 8db6
00000190: f883 ad33 551a 8cb6 b6ce f932 6ef1 8bb6
000001a0: 5496 3332 1dec 8bb6 8115 8131 6deb 8bb6
000001b0: b6f1 4239 2299 f335 1cbe b0b8 b974 46b9
000001c0: 0dab 0f39 bdbb 15b8 e90c ddb6 061a 7039
000001d0: 52a8 92b9 0f7d 7839 56bc 72b9 2878 96b6
000001e0: 3a70 2b38 41d4 b136 eebc 2cb8 3cfd 60b8
000001f0: 3c94 3339 2fab 23b9 488d 6436 4352 eeb4
00000200: 57f8 5836 5f38 ffb5 6880 9e36 dc23 bd36
00000210: deee 0236 f3b0 0037 4e8d 3f35 977e 0537
00000220: effd 8934 291f 0637 c66c c633 ed33 0637
00000230: 34a0 0e33 9c36 0637 7807 4d32 f536 0637
00000240: 9276 e138 f44c 50b8 e599 a4b8 7715 dbb8
00000250: 9dcf 6a38 d0ef e3b7 1a2f 13b8 dbf9 f8b8
00000260: cd2a b8b7 750d bcb7 9ced 3138 8f54 1d39
00000270: 7d77 69b8 2e3c 01b9 fe14 d9b8 ad94 d7b8
00000280: ef48 a138 5982 a4b8 28b4 8536 e21a 9b36
00000290: bf04 3236 ee66 7036 3a47 79b6 4d4a 2c35
000002a0: 9548 f6b5 bff8 09b6 81e7 37b5 d1bb 25b6
000002b0: b7d4 84b4 b365 29b6 8111 bfb3 29df 29b6
000002c0: 0e58 09b3 e4ee 29b6 0170 45b2 f0f0 29b6
000002d0: e04c 8d39 c038 0038 225a bbb8 86eb 8cb9
000002e0: 8ee1 5c39 9b02 47b8 44dc 3536 5a86 013a
000002f0: 3e50 04ba 9910 e439 5042 e9b9 edd2 dcb8
00000300: 84f9 ef38 14e1 d238 880f 2fb7 b4fc ecb7
00000310: d3a6 8439 bfd6 70b9 5643 b4b3 f1a4 adb6
00000320: 784f 1437 7d93 89b3 5ae2 1a37 7824 5137
00000330: addb 7f36 11c9 8737 e337 bb35 fd42 8c37
00000340: 5ee0 0635 00d9 8c37 32f2 4134 67ec 8c37
00000350: 1c68 8b33 e6ee 8c37 cb66 c832 3cef 8c37
00000360: ed00 04b9 81b2 08b8 5206 8938 3e9a 1839
00000370: e216 e5b8 a200 b837 6472 beb7 c953 8fb9
00000380: e2ca 7c39 3adb 84b9 ea25 8139 dc23 9d38
00000390: cbac 73b8 bb56 3bb8 85ab 60b7 d54a 0437
000003a0: 4ac2 15b9 96af f838 4b38 52b4 8e22 2d36
000003b0: ac3b e634 089b 0337 245e ffb6 2891 35b6
000003c0: 4ff6 64b6 ff8a edb6 d821 a9b5 308a 01b7
000003d0: d8fc f3b4 0ef4 02b7 ea72 2fb4 e422 03b7
000003e0: 143a 7cb3 f428 03b7 ea4a b5b2 b929 03b7
000003f0: 574a cf38 5ae8 5a38 bf72 5437 db3f bfb8

exp_avg_sq f4 [108, 36]
0.005102408 0.00070625625 0.0008650023 0.003361947 0.0028321804 2.338337e-05 0.00077636086 0.033791743
0.029290376 0.01975717 0.023042828 0.0042661144 0.0034837648 0.005402753 0.0006850739 0.00024477707
0.0031650166 0.0028017198 1.3679692e-05 4.1993762e-06 1.8229688e-05 1.6031203e-05 1.4278576e-05 3.343886e-05
2.523532e-06 4.7868783e-05 3.394664e-07 5.0419305e-05 4.407493e-08 5.0762443e-05 5.6963736e-09 5.0806888e-05
7.357792e-10 5.0812687e-05 9.503056e-11 5.0813367e-05 0.0044548763 0.000617249 0.0007746672 0.0029647958
0.0024876662 2.1388876e-05 0.0006784127 0.029647227 0.025639633 0.0173492 0.02020556 0.0037455985
0.0030577946 0.004742472 0.0005957319 0.0002141224 0.0027992313 0.0024621617 1.1814556e-05 3.6819513e-06
1.56459e-05 1.4231408e-05 1.2741186e-05 2.8820048e-05 2.2647407e-06 4.1615334e-05 3.048622e-07 4.3892836e-05
3.9585522e-08 4.4199383e-05 5.1162026e-09 4.423926e-05 6.608419e-10 4.4244385e-05 8.535184e-11 4.424504e-05
0.000122000114 1.1990786e-05 2.044451e-05 8.699385e-05 7.257847e-05 1.1877936e-06 1.4283802e-05 0.0007908208
0.0006939585 0.00045560618 0.0005465611 9.643625e-05 7.871312e-05 0.0001236787 1.2899536e-05 5.9559757e-06
8.2454244e-05 7.4643554e-05 1.8981021e-07 7.1475476e-08 3.3433815e-07 4.3243034e-07 4.0081332e-07 6.7722726e-07
7.590854e-08 1.0571512e-06 1.0295451e-08 1.1301796e-06 1.3381222e-09 1.1400997e-06 1.7296578e-10 1.1413906e-06
2.2341785e-11 1.1415575e-06 2.8855874e-12 1.1415776e-06 0.00025582555 4.2474272e-05 2.9537665e-05 0.00020336444
0.00016486256 1.2994813e-06 2.9653533e-05 0.0020289843 0.0015399969 0.0012416948 0.0013924325 0.0002752282
0.00019774343 0.00028564496 3.7610007e-05 1.6909287e-05 0.00019619308 0.00016112179 1.0034408e-06 2.6489133e-07
8.140538e-07 8.802118e-07 5.614721e-07 1.694531e-06 9.8476285e-08 2.2779122e-06 1.3234991e-08 2.3797868e-06
1.7181724e-09 2.3934724e-06 2.2205866e-10 2.3952439e-06 2.868245e-11 2.3954758e-06 3.704517e-12 2.3955065e-06
0.0039064023 0.000600508 0.0006004688 0.002760119 0.0023194996 1.8568095e-05 0.0005548852 0.028757349
0.0233987 0.016969929 0.019547394 0.0038121496 0.0029155086 0.004457382 0.0005650846 0.0002342336
0.0026390953 0.0022682582 1.2789401e-05 3.6204465e-06 1.3803492e-05 1.2898075e-05 1.0361988e-05 2.6394278e-05
1.8301427e-06 3.6970105e-05 2.4618103e-07 3.8834685e-05 3.1962966e-08 3.9085382e-05 4.1309707e-09 3.9117964e-05
5.335818e-10 3.9122235e-05 6.891552e-11 3.9122733e-05 0.0016064313 0.00022627602 0.00032111944 0.0010626902
0.0009090159 1.032082e-05 0.00026282127 0.0110052535 0.009496213 0.006314811 0.0074509466 0.0014396897
0.0011586259 0.0018439286 0.000232355 9.176849e-05 0.0010148012 0.0008963962 3.9317233e-06 1.2966021e-06
5.903935e-06 4.806757e-06 4.630581e-06 1.071726e-05 8.2086996e-07 1.5428486e-05 1.1047103e-07 1.6261922e-05
1.4343913e-08 1.6374064e-05 1.8538605e-09 1.6388643e-05 2.3945634e-10 1.6390512e-05 3.092729e-11 1.6390773e-05
0.00075410516 8.9295405e-05 0.00012788681 0.00051383005 0.000410815 4.213017e-06 0.000103202816 0.0044654105
0.004025589 0.0026640156 0.003087948 0.0005307881 0.00045370057 0.0006919825 8.83528e-05 3.125605e-05
0.0004741347 0.00041678103 1.5215155e-06 6.188204e-07 2.2947606e-06 2.2897477e-06 2.0950633e-06 4.378911e-06
3.723923e-07 6.482771e-06 5.0120065e-08 6.85738e-06 6.507794e-09 6.907808e-06 8.4109053e-10 6.9143452e-06
1.0864087e-10 6.9151906e-06 1.4031654e-11 6.9153025e-06 0.01277222 0.0019322411 0.0019818335 0.008874794
00000000: 1a32 a73b 0e24 393a 52c1 623a 1c54 5c3b
00000010: 1a9c 393b 6827 c437 b284 4b3a 3669 0a3d
00000020: 5ff2 ef3c cad9 a13c 50c4 bc3c c3ca 8b3b
00000030: e04f 643b 9409 b13b 8896 333a 6c55 8039
00000040: 2b6c 4f3b 0f9d 373b d481 6537 5ee8 8c36
00000050: f5eb 9837 bf7a 8637 048e 6f37 b440 0c38
00000060: f359 2936 b7c6 4838 e83f b634 5179 5338
00000070: e64c 3d33 c2e9 5438 d5b9 c331 7b19 5538
00000080: dc3f 4a30 b51f 5538 73f9 d02e 7020 5538
00000090: 36fa 913b e1ce 213a 0913 4b3a 054d 423b
000000a0: 1d08 233b 436c b337 81d7 313a bede f23c
000000b0: 350a d23c e91f 8e3c 2186 a53c b778 753b
000000c0: 4865 483b bd66 9b3b e42a 1c3a 0b86 6039
000000d0: 4f73 373b 385c 213b 2237 4637 7117 7736
000000e0: 503f 8337 6fc3 6e37 fac2 5537 95c2 f137
000000f0: f3fb 1736 208c 2e38 f1ab a334 9319 3838
00000100: be04 2a33 ba62 3938 98ca af31 8b8d 3938
00000110: 9da6 3530 0c93 3938 d0b0 bb2e c093 3938
00000120: 50da ff38 092c 4937 4080 ab37 7870 b638
00000130: 4535 9838 476c 9f35 76a4 6f37 164f 4f3a
00000140: c4ea 353a 6dde ee39 1847 0f3a d13d ca38
00000150: c912 a538 c0af 0139 166b 5837 71d9 c736
00000160: 49eb ac38 f489 9c38 a2ce 4b34 0f7e 9933
00000170: 167f b334 c628 e834 5d2f d734 b4ca 3535
00000180: 2903 a333 70e3 8d35 dfdf 3032 adb0 9735
00000190: fde8 b730 8705 9935 8a2d 3e2f e231 9935
000001a0: 3a85 c42d 9e37 9935 1f0e 4b2c 4f38 9935
000001b0: 5320 8639 6726 3238 a7c7 f737 3a3e 5539
000001c0: f5de 2c39 d669 ae35 7ac0 f837 b5f8 043b
000001d0: b9d9 c93a 5dc0 a23a 4882 b63a 814c 9039
000001e0: 5959 4f39 9ec2 9539 70bf 1d38 6bd8 8d37
000001f0: 2eb9 4d39 cdf2 2839 f7ad 8635 6336 8e34
00000200: 5a85 5a35 b247 6c35 12b8 1635 a46f e335
00000210: e979 d333 3cde 1836 1b60 6332 6db4 1f36
00000220: d124 ec30 8b9f 2036 f527 742f fabd 2036
00000230: 234b fc2d f6c1 2036 5357 822c 7dc2 2036
00000240: 4701 803b 696b 1d3a c768 1d3a 1de3 343b
00000250: bf02 183b aec2 9b37 b775 113a 8894 eb3c
00000260: a1ae bf3c 8504 8b3c db21 a03c 42d5 793b
00000270: 1e12 3f3b 3b0f 923b 3022 143a 9a9c 7539
00000280: acf4 2c3b 0fa7 143b 0f92 5637 ccf6 7236
00000290: 8c95 6737 cf64 5837 66d8 2d37 4869 dd37
000002a0: 39a3 f535 5910 1b38 dd2a 8434 6de2 2238
000002b0: a747 0933 9cef 2338 67f0 8d31 9812 2438
000002c0: 7bab 1230 2e17 2438 fd8b 972e b717 2438
000002d0: e48e d23a 8244 6d39 ec5b a839 f749 8b3a
000002e0: 064b 6e3a 9627 2d37 46cb 8939 614f 343c
000002f0: 0196 1b3c 79ec ce3b 1227 f43b f8b3 bc3a
00000300: 09dd 973a faaf f13a 52a4 7339 d573 c038
00000310: 1403 853a 21fc 6a3a 3fed 8336 e906 ae35
00000320: 6a1a c636 ba49 a136 6360 9b36 48ce 3337
00000330: c159 5c35 6c6c 8137 173c ed33 366a 8837
00000340: 326d 7632 095b 8937 ebca fe30 587a 8937
00000350: 7ca4 832f 5b7e 8937 0805 082e eb7e 8937
00000360: 24af 453a 1b44 bb38 5b19 0639 8db2 063a
00000370: a862 d739 8a5d 8d36 976e d838 9452 923b
00000380: 17e9 833b c496 2e3b 2c5f 4a3b 9624 0b3a
00000390: a9de ed39 2966 353a 0c4a b938 ee18 0338
000003a0: 4895 f839 6783 da39 e036 cc35 041d 2635
000003b0: b0ff 1936 91a9 1936 ea98 0c36 8fee 9236
000003c0: 35ed c734 9486 d936 9843 5733 7218 e636
000003d0: 299b df31 9ec9 e736 7c32 6730 c601 e836
000003e0: 5fe7 ee2e 0909 e836 f4d8 762d ff09 e836
000003f0: 9342 513c 4143 fd3a a6e1 013b 9567 113c

exp_avg f4 [108]
-1.1391302e-05 -6.689292e-06 -4.169923e-06 7.999832e-06 -2.532338e-06 1.6800721e-05 -7.817952e-06 1.3491708e-05
-2.872959e-06 2.1392334e-05 2.116184e-06 3.0627965e-05 1.4396936e-05 6.0277093e-06 -1.3252478e-05 -9.353414e-06
-1.527279e-06 -7.3949354e-06 1.1644112e-05 -1.1571792e-05 -2.6050739e-06 1.25030065e-05 1.2784852e-05 1.4571752e-05
-7.631196e-06 6.8419143e-07 9.343949e-06 -2.857492e-06 2.8313018e-06 1.6147542e-05 6.2081185e-06 5.700653e-06
1.3480855e-05 -2.477506e-06 1.0872124e-05 -9.714347e-06 6.27677e-09 5.1530695e-09 -1.8130676e-10 5.602501e-10
2.157236e-09 -4.5952047e-09 -8.022938e-09 -7.3600543e-09 -6.0265335e-09 1.7986677e-09 -2.2556585e-09 -5.0004605e-09
-2.7490017e-09 8.696586e-09 -6.0638133e-10 -2.232384e-09 2.6669744e-09 6.017856e-09 -1.1376484e-08 2.3118028e-10
-8.683929e-10 2.9845877e-09 -5.103549e-09 -3.9594616e-09 1.0300213e-09 1.1858594e-08 -2.0726434e-09 5.323615e-09
1.05334115e-08 2.2454603e-09 -5.6877663e-09 -6.801789e-09 -4.0602197e-09 -7.326898e-11 -5.7452287e-09 2.5956322e-09
-0.001222612 -0.0010888475 0.00362035 -0.002763939 0.0022165144 0.0007968579 0.0035168342 0.003197005
-0.001520353 0.003285644 0.0027782258 -0.0008287519 0.0018119448 0.0010801917 -0.00039735576 -0.00033955276
0.0013583418 0.0009509329 -0.0048980783 -0.0053973887 -0.00051663513 -0.005369946 -0.0031425334 -0.0029566134
0.00017752242 -0.0014081005 -0.004618511 0.0020111764 0.005213728 0.0032321066 -0.0011963444 0.0004945627
-0.001975481 -0.006088317 0.0028577333 0.001311734
00000000: 451d 3fb7 9574 e0b6 5eeb 8bb6 0437 0637
00000010: 3cf1 29b6 46ef 8c37 d929 03b7 725a 6237
00000020: 0fcd 40b6 b073 b337 c403 0e36 8776 0038
00000030: 5f8a 7137 a141 ca36 f656 5eb7 9bec 1cb7
00000040: e8fc ccb5 0322 f8b6 155b 4337 7824 42b7
00000050: d4d2 2eb6 01c4 5137 857e 5637 3379 7437
00000060: bd07 00b7 47a9 3735 f5c3 1c37 57c3 3fb6
00000070: 6501 3e36 9574 8737 554f d036 3d48 bf36
00000080: d52b 6237 3b43 26b6 6b67 3637 cdfa 22b7
00000090: 0eab d731 e10e b131 5159 47af 1900 1a30
000000a0: 7f3e 1431 d9e3 9db1 41d5 09b2 b9e3 fcb1
000000b0: f311 cfb1 fe34 f730 f701 1bb1 84d0 abb1
000000c0: f3e8 3cb1 fd67 1532 4bae 26b0 8468 19b1
000000d0: e945 3731 9fc5 ce31 4e72 43b2 772f 7e2f
000000e0: b8b3 6eb0 6c19 4d31 4b5b afb1 cb0b 88b1
000000f0: a790 8d30 a6ba 4b32 546e 0eb1 03eb b631
00000100: 6ff6 3432 8e4e 1a31 1f6e c3b1 2bb5 e9b1
00000110: 1282 8bb1 c51e a1ae 9167 c5b1 d85e 3231
00000120: 0d40 a0ba a9b7 8eba 6543 6d3b 3423 35bb
00000130: f142 113b 3ae4 503a b07a 663b d884 513b
00000140: 9546 c7ba f653 573b e512 363b 9940 59ba
00000150: c77e ed3a 3895 8d3a 3054 d0b9 0006 b2b9
00000160: 630a b23a 0748 793a 0f80 a0bb 94dc b0bb
00000170: cc6e 07ba 5ff6 afbb f6f2 4dbb bec3 41bb
00000180: 5025 3a39 0390 b8ba e156 97bb f1cd 033b
00000190: ecd7 aa3b c0d1 533b a8ce 9cba 8aa5 013a
000001a0: 1277 01bb 8180 c7bb cf48 3b3b 7dee ab3a

exp_avg_sq f4 [108]
5.081348e-05 4.4245164e-05 1.1415806e-06 2.3955101e-06 3.912283e-05 1.6390808e-05 6.915316e-06 0.00012701917
0.00016151763 5.779813e-06 4.0324353e-06 2.9454877e-06 6.5377894e-06 0.00027257396 8.180575e-07 3.258338e-06
1.6943632e-05 7.49221e-05 0.00010796261 8.199008e-06 1.2355419e-05 2.4990416e-06 3.0498779e-05 3.0460162e-06
2.705963e-06 1.5199547e-05 6.699188e-07 0.00011178308 0.00026942787 5.5986948e-06 1.8660052e-05 0.0001886801
5.150622e-05 4.96152e-05 0.00012560179 6.881923e-06 1.5984006e-15 9.949503e-16 1.6898391e-16 5.891436e-16
2.3391965e-15 7.9139824e-16 3.0714967e-15 4.2929476e-15 2.4417372e-15 3.7773673e-16 7.356994e-16 6.847847e-16
1.3842316e-15 2.9016573e-15 1.048925e-15 7.098366e-16 1.0002373e-15 1.4065736e-15 4.3445167e-15 2.2562686e-15
1.4651804e-15 2.6994557e-15 1.0970498e-15 6.593111e-16 1.6452741e-16 8.6583945e-15 2.3640856e-16 1.2632288e-15
3.8186553e-15 5.182325e-15 1.1952555e-15 1.8469716e-15 8.109293e-16 2.2392798e-15 1.4165619e-15 6.311664e-16
9.160716e-05 9.166437e-05 0.0002342722 0.00018150284 5.312422e-05 2.8192042e-05 0.00031270352 0.00010426631
0.0001449686 0.00037933767 0.00011928232 8.715955e-05 3.909581e-05 0.00020174937 8.0496786e-05 0.00010708197
0.00020756091 0.00011281263 0.0005048573 0.0004400722 0.00013560044 0.00037310706 0.00047058935 0.00025143594
9.8152406e-05 7.180057e-05 0.000322304 0.00012587635 0.0005023966 0.0001507277 8.175201e-05 8.092275e-06
0.00015162464 0.000516488 0.00018333482 9.618388e-05
00000000: 8f20 5538 e293 3938 6938 9935 8dc2 2036
00000010: d217 2438 fe7e 8937 1d0a e836 7330 0539
00000020: 0f5d 2939 37f0 c136 5b4e 8736 18ab 4536
00000030: 2f5f db36 42e8 8e39 7c98 5b35 d2a9 5a36
00000040: 2c22 8e37 7f1f 9d38 fc69 e238 798e 0937
00000050: 1f4a 4f37 35b5 2736 a1d7 ff37 296a 4c36
00000060: 1798 3536 8f01 7f37 78d4 3335 166d ea38
00000070: ff41 8d39 6cdc bb36 2888 9c37 6ed8 4539
00000080: 6208 5838 ea19 5038 f9b3 0339 45eb e636
00000090: 935a e626 3063 8f26 3fd3 4225 20cf 2926
000000a0: 8f8e 2827 e21a 6426 1d53 5d27 74ab 9a27
000000b0: 1af2 2f27 1ac0 d925 090d 5426 3160 4526
000000c0: 227d c726 2116 5127 812a 9726 b298 4c26
000000d0: 3e26 9026 68b5 ca26 1887 9c27 cf94 2227
000000e0: 9e27 d326 2b84 4227 fe19 9e26 9308 3e26
000000f0: ecaf 3d25 ccf9 1b28 bf47 8825 eb0c b626
00000100: e194 8927 83b6 ba27 2541 ac26 9d16 0527
00000110: 05bc 6926 6c5b 2127 e925 cc26 dceb 3526
00000120: 381d c038 ef3b c038 f7a6 7539 cc51 3e39
00000130: b2d1 5e38 f37d ec37 5bf2 a339 8da9 da38
00000140: b602 1839 d7e1 c639 3527 fa38 6dc9 b638
00000150: cefa 2338 af8c 5339 62d0 a838 3291 e038
00000160: b5a4 5939 d295 ec38 6658 043a 7eb9 e639
00000170: f72f 0e39 959d c339 6fb9 f639 29d3 8339
00000180: 2cd7 cd38 a393 9638 e9fa a839 adfd 0339
00000190: 44b3 033a a90c 1e39 4772 ab38 0ec4 0737
000001a0: 6efd 1e39 ec64 073a 913d 4039 54b6 c938
