SensorFormer/SensorFormer/result/ensemble/LCS16_11.pt (torch, 81844 bytes, 35 tensors)

self_attn.qkv_proj.weight f4 [108, 36]
000000 4b d8 5b be 57 c7 1c 3e 45 cd 58 3e e0 b0 10 3e
       -0.21469228 0.15310417 0.21172054 0.14129972
000010 a5 2a 1b be 36 30 16 3e 24 df f8 bd 7d fe de 3d
       -0.15152986 0.14666829 -0.12151936 0.108883835
000020 e5 23 67 bb 35 36 b7 bd 17 8d 24 be 9a 96 18 be
       -0.0035269198 -0.08945886 -0.16069447 -0.149012
000030 c0 1f 7a bd 1a cf 9f b9 ee 8c 88 3e 13 77 00 3e
       -0.061065435 -0.00030481146 0.2667002 0.12545423
000040 78 91 7f 3d 9d c5 6a 3e b6 8d 45 3d 8b f5 51 bd
       0.06239459 0.22926946 0.04823085 -0.05125956
000050 e3 bc 18 be 97 71 be bd e2 b6 b1 bd c3 6e 6e bd
       -0.14915805 -0.09299009 -0.0867746 -0.0582111
000060 b4 74 30 be 31 76 d6 bd 29 7f f0 bc 0c b8 9a bc
       -0.17232019 -0.10471762 -0.02935751 -0.018886589
000070 a9 84 3a bd ab 53 aa 3c 2c b9 cc bd a1 c0 16 be
       -0.04553667 0.02079185 -0.09996256 -0.1472192
000080 d4 67 0a be 90 76 1f 3e 3d ae e6 3d b0 a0 3d be
       -0.1351617 0.15572572 0.11263702 -0.18518329
000090 39 2a 52 be 4c 8d 0a 3d e3 82 c8 bb 7e 9f 05 3e
       -0.20523919 0.033826157 -0.0061191185 0.13049123
0000a0 d7 f3 ca bd 37 50 d7 3c d9 f9 67 bc b8 f6 03 be
       -0.0990979 0.026283367 -0.014158689 -0.12887084
0000b0 ab 1f ef bb 06 cb 2c 3e c4 0f 14 3e a2 40 94 be
       -0.0072974763 0.16874322 0.14459139 -0.2895556
0000c0 b3 d9 ac 3d dd 75 65 3e 2a d5 0e 3e f1 ca 41 3e
       0.0843996 0.22408243 0.13948503 0.18925072
0000d0 a3 5c bb 3d 59 51 36 3d 93 a7 b0 bd e9 30 13 3e
       0.091485284 0.044511173 -0.08625712 0.14374126
0000e0 d1 9a b1 3d 71 f2 15 be bb 55 0d 3e 2b a1 0e 3e
       0.08672107 -0.14643265 0.13802235 0.13928668
0000f0 f6 ea 16 3e 3d 8a d0 bd 0d e6 99 bd 18 6b de 3d
       0.14738068 -0.10182617 -0.07514582 0.1086027
000100 84 d1 0b 3e c1 1d 2b be 9b 8c 1c 3e 27 49 a7 3d
       0.13654143 -0.16710569 0.15288012 0.081682496
000110 33 b4 54 3d d2 28 89 bd e8 75 f5 bc 84 48 d2 3d
       0.051929664 -0.06697239 -0.029963449 0.102677375
000120 13 34 43 bd a8 30 35 3e 55 5e 27 be 50 6d fa 3b
       -0.047657084 0.17694342 -0.16344579 0.0076424256
000130 15 69 d3 bd fb 15 f6 3c 79 78 07 3e 32 63 b1 3c
       -0.10322777 0.030039778 0.1322955 0.021653745
000140 9a 88 db bc a5 42 e9 bd d0 68 20 3e 66 65 4e bd
       -0.026798535 -0.113896646 0.15664983 -0.05038967
000150 18 1f 5d 3d 0c 8f 76 3d bb d4 17 3e b9 bb 0f 3e
       0.05398473 0.060195014 0.14827244 0.14036454
000160 fe 78 b3 3d 92 d5 af bd 3a e3 0a 3c 21 9e 11 3e
       0.08763312 -0.08585657 0.008477027 0.14220478
000170 5f 39 17 be db 22 5b 3e 0e f1 3d be 62 15 36 bd
       -0.14767979 0.21400015 -0.18548986 -0.044453986
000180 16 45 1d be f4 7d f4 bd e0 57 b3 bd a0 58 d7 3d
       -0.15358385 -0.11938086 -0.08756995 0.10514951
000190 f1 69 f0 bd 8a 17 fb bd 74 a2 08 3d c5 3f 1e be
       -0.11738957 -0.12260349 0.033358052 -0.15454014
0001a0 1d 2a 92 bd 9c 1e 85 bd 04 5a 81 bd 5e a1 2b 3d
       -0.07136939 -0.06499979 -0.06315997 0.04190194
0001b0 3f 27 8f 3c 6b cf e6 bd d2 6c 3d 3e 20 13 eb 3d
       0.017474769 -0.112700306 0.18498543 0.11478257
0001c0 a9 53 a3 bd f5 7e 28 3d 4a 79 d3 bd c1 06 27 bc
       -0.07974941 0.0411367 -0.103258684 -0.010194481
0001d0 16 bd c6 bd 36 68 77 3c cd 24 6b 3e 39 aa df bd
       -0.09704034 0.015100529 0.22963257 -0.10921139
0001e0 18 a9 28 be 08 a8 44 3e 26 df 9a bd c5 82 5a 3e
       -0.16470754 0.19204724 -0.075620934 0.21338947
0001f0 c3 7a 98 3c 10 af 99 bc 7c 7d 3d bd 3a 4f 59 be
       0.018613225 -0.018760234 -0.04626225 -0.21221629
000200 ca dd 29 3e 6a 15 ec bd 4a e2 39 3c ea 32 d8 bd
       0.16588512 -0.11527522 0.011345455 -0.10556586
000210 a8 2c 0c 3e 16 f1 b3 3d 05 90 1a 3e d5 f5 b9 bd
       0.1368891 0.08786218 0.15094002 -0.09080092
000220 03 67 53 3d 71 12 29 be 92 15 cc 3d 0a 13 89 bd
       0.05161191 -0.16510941 0.09965052 -0.066930845
000230 7f 34 4c 3d 50 c4 b2 3d b1 e1 07 be 31 2f d0 3d
       0.04985475 0.0872885 -0.13269688 0.10165251
000240 ff e5 27 be d4 3a d9 3d 06 a4 8a 3d dd 1d e3 3d
       -0.1639633 0.10606924 0.06769566 0.1108968
000250 ad 16 67 bd f1 ad 31 3e 6e c6 d8 3d d9 9d 9d 3c
       -0.05641811 0.1735151 0.105847225 0.019240307
000260 aa e4 24 3c 2e 1f 74 be 8c d6 2c bd 8b 80 62 be
       0.010064283 -0.23840019 -0.042196795 -0.22119348
000270 bd d5 8e 3d da 06 08 3d 51 20 6e 3e 1f fe 0c 3e
       0.06974361 0.03320966 0.23254515 0.13768815
000280 c3 97 87 be d9 26 2d 3e 95 a2 05 3c e0 14 8b bd
       -0.26482973 0.1690935 0.008156438 -0.06791091
000290 80 43 b2 3d d4 0d 68 be 0f ac 0c 3d 84 28 ac 3d
       0.08704281 -0.22661525 0.034343775 0.08406165
0002a0 ca d2 e8 bd 4c 9f 67 3d 22 44 a5 3d 72 5a d8 bb
       -0.1136833 0.0565484 0.08069636 -0.006602579
0002b0 2e e9 49 be 52 a1 2b 3d 5d 1e 1c 3e 83 2f 94 bd
       -0.19717857 0.041901894 0.15245958 -0.07235625
0002c0 33 60 6d 3d 3f 1e c7 3d ef a6 22 be 9d 49 63 be
       0.05795307 0.09722566 -0.15883993 -0.2219605
0002d0 0f c9 ff 3d 02 63 1b bd 6f db 32 be 70 9b 77 be
       0.12489521 -0.037936218 -0.1746652 -0.24180388
0002e0 eb 82 a3 bd e0 a8 75 3d d9 77 77 bd 97 0e 31 be
       -0.07983955 0.059975505 -0.06041703 -0.17290722
0002f0 18 f0 07 bd 5d 09 cd 3b 0d 94 3f be 45 bc 58 3e
       -0.033187956 0.0062572197 -0.1870882 0.21165569
000300 c2 e5 32 3e a3 45 b8 3d c6 a7 a2 be 5f b5 95 be
       0.17470458 0.08997657 -0.31768626 -0.29239938
000310 97 37 dc bd b8 50 cb 3d 3c 73 62 bd ce 7d 66 3e
       -0.107527904 0.09927505 -0.055285677 0.22508928
000320 88 0d 22 bd d5 00 25 3d 6c 90 1f 3e 2b ea 9f bd
       -0.039563686 0.040283997 0.15582436 -0.07808336
000330 c7 1d d1 3d 08 c8 da 3d 17 fb 7d 3d 50 f3 68 bd
       0.10210758 0.10682684 0.062007036 -0.056872666
000340 24 7e 01 be ac 11 5c 3d a2 8f 1b be f0 cb 43 bd
       -0.12645775 0.05372779 -0.1519151 -0.04780191
000350 94 61 4a 3d 63 dc 05 3e 30 3f 27 3e f6 41 13 be
       0.049409464 0.13072352 0.16332698 -0.14380631
000360 c0 7b 9d bd e8 09 42 3b 71 6f 6f bd 75 83 d1 bd
       -0.07689619 0.0029607955 -0.05845589 -0.102301516
000370 5c 4d e6 bd f2 71 4c bd 50 dc 72 bd 8a 6a 16 be
       -0.11245224 -0.049913354 -0.059292138 -0.14689079
000380 2e 8e a6 3d 41 49 fd bd ca ce 1a be ae 34 09 3e
       0.081325874 -0.12367488 -0.15117946 0.13399002
000390 a6 e4 0d be b9 80 be 3d 4f 04 52 be 64 e5 7f be
       -0.13856754 0.09301896 -0.20509456 -0.2498985
0003a0 3b 5b 81 3e dd b4 b1 3c 10 e9 2c 3e 73 65 95 3e
       0.25264916 0.021692688 0.16885781 0.29178962
0003b0 e6 41 2f 3e e7 26 0f 3e 6c 22 c5 3d 11 db 13 be
       0.17114982 0.13979684 0.09625706 -0.14439036
0003c0 54 18 89 bd a4 7f 37 bd c3 3d 60 bc 52 a5 fb 3d
       -0.06694093 -0.044799462 -0.0136866 0.12287392
0003d0 7a 16 33 3d 1f 6b 4c be 07 47 0d 3d d9 2e 60 bc
       0.043722607 -0.19962738 0.034491565 -0.013683044
0003e0 6f 66 95 3d b7 32 d7 bd 6a 6f 17 3e ad 80 21 be
       0.07294928 -0.1050772 0.14788595 -0.15771742
0003f0 fa 06 81 3e f6 85 a4 3d 9c f8 92 be ea 51 97 be
       0.25200635 0.080333635 -0.287053 -0.29554683

self_attn.qkv_proj.bias f4 [108]
000000 3b 84 99 bc 68 f6 49 bc 41 40 8c bd e7 9b 8d bb
       -0.01873981 -0.012326814 -0.06848193 -0.0043215635
000010 4a 66 3e bd 39 a9 6b 3c 15 93 c8 bc de 07 65 3d
       -0.04648427 0.014383608 -0.024484197 0.055915706
000020 e4 b8 0c 3d f8 22 2e bc 02 2e 5d 3d 82 18 fe 3c
       0.034356013 -0.010628454 0.053998955 0.031017546
000030 45 d0 c9 3b 72 34 13 bc 8f 82 db bc b3 8c e2 3c
       0.006158861 -0.008984672 -0.026795654 0.027654981
000040 9c f5 60 bb 5b d0 60 bd b5 f9 b3 3b 04 57 72 bd
       -0.0034326082 -0.054886203 0.005492414 -0.059165016
000050 44 00 ac bd fd fb 9b 3c 1c 76 67 3d 36 9a 05 3d
       -0.08398488 0.019041056 0.056509122 0.03261777
000060 3a 7d 8f bd 3b 30 6e 3d 04 a8 4e 3c 97 0e 61 3c
       -0.07006307 0.058151465 0.0126133 0.013736389
000070 85 bb 59 bd d2 18 38 3d 44 d3 b2 3c d8 67 e2 3d
       -0.05315735 0.044945545 0.021829255 0.11054963
000080 fa 78 af 3d 60 0a 48 3d 44 33 86 3d ee c8 c8 bc
       0.08567996 0.04883802 0.06552747 -0.024509873
000090 32 00 f7 3c 20 05 b9 3c e6 3c 39 3b 24 3e 1a bc
       0.03015146 0.022585452 0.0028265058 -0.00941423
0000a0 5a 3d 40 3b 67 03 ea bc be e7 38 bc 10 b2 d1 b9
       0.0029333443 -0.028566075 -0.01128572 -0.00039996253
0000b0 01 0c 5a bb c6 29 9f bb d7 24 b1 3b da a6 56 bd
       -0.0033271315 -0.0048572747 0.005406003 -0.052405216
0000c0 4d e6 8b bc 8d fc f4 3c 0e ab 38 bb 5e ac 33 3c
       -0.01707759 0.029905582 -0.0028178128 0.0109663885
0000d0 18 d1 e3 bb 83 6e 00 3d c8 c1 9b bc b3 a3 96 3b
       -0.006952416 0.031355392 -0.0190133 0.004597151
0000e0 cc 81 fc bc 6a 4c f0 b8 f2 5b 95 bc 87 9f 18 bd
       -0.03082361 -0.00011458325 -0.01823232 -0.037261512
0000f0 dc d3 a1 bb 62 c1 c9 3b ee ab a3 3c 31 a8 e2 3b
       -0.0049385857 0.006157086 0.019979443 0.0069170226
000100 a6 91 26 3c 1f 40 91 bb d5 97 23 bd 56 6d d0 bb
       0.010166561 -0.0044326927 -0.03993972 -0.00636069
000110 c7 f9 47 3c 96 dd e1 3c 15 07 26 bc 9f cd be b8
       0.012205548 0.02757148 -0.010133524 -9.098206e-05
000120 29 5d 87 3d 81 56 33 bc ad 2e 26 bd c0 d4 ae 3d
       0.06609566 -0.010945917 -0.040571857 0.085366726
000130 11 e8 22 bd de bd 72 bc b4 9c 61 be 22 0b af bd
       -0.039772097 -0.014815776 -0.22032434 -0.08547045
000140 26 d7 e8 3b 69 f0 03 3c 4b 33 52 bc 83 ef 9a bd
       0.007105726 0.008052924 -0.012829612 -0.075652145
000150 93 8c f5 bd 95 c0 06 3d c5 84 a7 bd a2 d2 2e 3e
       -0.11989703 0.032898504 -0.08179621 0.17072538
000160 e6 0c a6 be 8d 60 9e 3d c3 d1 b4 3d bc 04 61 3e
       -0.32431716 0.07733259 0.088290714 0.21974462
000170 6c f6 c3 3d 49 20 61 3e ea 42 d6 bc 5e de 6d 3e
       0.095684856 0.21984972 -0.026154954 0.23229358
000180 15 2e f1 3d c3 15 4c 3d 24 12 1e 3e df 2a 76 bd
       0.117763676 0.04982544 0.15436608 -0.06009948
000190 f2 2b 4d be f7 c3 69 be d0 4a 92 3d 43 b7 3e 3d
       -0.20036295 -0.22828661 0.071431756 0.04656149
0001a0 9b 67 63 3e fc 56 3f 3e 70 63 82 be 16 b0 4a be
       0.22207491 0.18685526 -0.2546649 -0.19793734

self_attn.o_proj.weight f4 [36, 36]
000000 da aa 55 3e 96 33 ac bc 5b 57 17 3e 6d 06 d0 3d
       0.20865956 -0.021020692 0.14779417 0.101574756
000010 60 ee fc 3d ef 5f d2 bd 6b 21 9a 3d 61 e9 03 bd
       0.12350154 -0.10272204 0.07525905 -0.03220499
000020 fb 54 d5 3d 2b 33 65 bd c4 85 6c be 24 17 93 3e
       0.10416599 -0.055957 -0.23097903 0.28728592
000030 b5 ff 6d be 50 81 42 3e fe 5b 93 bd 29 dc 03 3d
       -0.23242076 0.18994641 -0.071952805 0.032192383
000040 48 22 72 3e 87 58 7a be 0d 17 04 be 45 8a a3 3e
       0.2364589 -0.24447833 -0.12899418 0.3194143
000050 db 08 33 be 3f db f7 3d 42 fc 8a 3e 6f cb 5a be
       -0.17483847 0.12102365 0.27145582 -0.21366666
000060 5d f0 63 be f5 c2 fa bd c4 08 b1 3d 0a 48 4b be
       -0.2225966 -0.12244216 0.0864425 -0.198517
000070 21 96 34 3e e6 85 39 be 73 fa 4d be 82 a6 0d 3a
       0.17635395 -0.18117484 -0.2011507 0.0005403535
000080 31 f5 aa bd e7 75 d6 3e 1d 02 50 3e 9e 5c c2 3d
       -0.08347548 0.41886827 0.20313306 0.094903216
000090 4c 41 9a 3e f7 d1 92 3d 7f 91 fe bb 23 18 b3 3e
       0.30127943 0.07168954 -0.0077688093 0.34979352
0000a0 e5 95 dc 3d 27 58 09 be f4 75 be 3b 37 92 c7 bc
       0.107707776 -0.13412534 0.005812401 -0.024361713
0000b0 63 5b 2f be 11 1a a7 3e 50 0a 09 3e 71 1c 87 be
       -0.17124705 0.32637075 0.1338284 -0.26388887
0000c0 3b 8f 8a be 1f 36 68 3e ad 1a 75 3d 90 30 ad 3e
       -0.270624 0.22676896 0.059839893 0.33826113
0000d0 4f f2 9b be 09 18 2e 3e 15 7c 6b 3e cd 81 2f 3e
       -0.30458304 0.17001356 0.22996552 0.17139359
0000e0 e5 a8 82 3e 57 07 8f 3e 0b 13 0d be 52 b4 e1 3d
       0.2551948 0.27935287 -0.13776796 0.110207215
0000f0 6b 8c 3b 3a f1 52 d2 bd 80 da 9f 3e 7f ca f4 3d
       0.0007154408 -0.10269726 0.3122139 0.119526856
000100 58 17 9e be 37 7e 92 be 37 a7 c5 bd dc 91 b3 3d
       -0.30877185 -0.2861192 -0.09651034 0.08768055
000110 a5 74 3d 3d f0 d3 5a 3e 2d c5 19 bd 1d d7 c3 be
       0.04625382 0.2136991 -0.037541557 -0.38250056
000120 7e 9e 3a 3e 64 61 ee bd 5e cb b9 3e 78 1b 00 3e
       0.18224522 -0.116396695 0.3628797 0.12510478
000130 50 ed 9b 3d d5 b1 48 be 4c ec 4b bd cb 3b 38 3b
       0.07613623 -0.19599088 -0.049785897 0.0028111811
000140 6d f2 eb 3d 06 a2 6f 3e d4 34 ba 3e 5f ad 70 3e
       0.115208484 0.23401651 0.3636843 0.23503636
000150 8d 36 19 be 16 7b 43 3e f5 0f f4 3d d5 21 52 be
       -0.14962216 0.19089922 0.11917106 -0.20520718
000160 e5 66 0c 3e c1 f3 8b be 0b 03 89 be 0d 43 35 be
       0.13711126 -0.27334407 -0.26760134 -0.17701359
000170 a8 1c 46 3d 26 a0 46 be cc 68 f0 bc 53 7c 66 3c
       0.048367172 -0.1939703 -0.029346846 0.014067727
000180 0c 6e 89 bd f7 a0 ff 3d 7e 57 70 be ff 7c 89 3e
       -0.06710443 0.124818735 -0.23470876 0.26853177
000190 0e 73 b2 ba 85 ff 96 3d e3 64 95 bc c9 eb 1f 3c
       -0.0013614611 0.07372955 -0.018236583 0.009760805
0001a0 2b 1b e1 3c 63 c6 cd be bc 66 8b 3e 6b 84 2a be
       0.027478775 -0.4019042 0.27226818 -0.16652076
0001b0 47 db 2f be 89 46 0e 3b 70 b3 02 3e 8a c6 33 be
       -0.17173491 0.0021709523 0.12763762 -0.17556205
0001c0 ef 0f 1b 3e 19 8d 2a 3e 41 c2 45 3e 59 89 b3 3e
       0.15142797 0.16655387 0.19312383 0.35065725
0001d0 06 13 78 3e c8 25 d3 bc 71 d8 1b 3e 30 ab 35 3e
       0.24226007 -0.025774851 0.15219285 0.17741084
0001e0 2f de fc 3b 07 53 4f be 39 a6 c2 3e 1c dc bb bd
       0.007716916 -0.20246516 0.38017443 -0.09172842
0001f0 dc 1a 87 3e 4e 42 ae 3d 2c ec 83 be bf 1e ad be
       0.2638768 0.0850874 -0.25766122 -0.3381252
000200 68 71 c1 be 9a 9c f1 bd 36 85 c6 3e 1a 76 4c be
       -0.37781835 -0.117974475 0.38773507 -0.19966927
000210 1a 1b 0e be ca 5e 52 3e 8f 3b 8b bb ee 50 b7 3d
       -0.13877526 0.20543972 -0.0042490433 0.08950983
000220 26 3d a8 3d a6 03 88 bc bf 12 8b 3d 86 31 07 be
       0.08214788 -0.016603302 0.06790685 -0.13202485
000230 5c 2a 38 be 96 3c 3c be a5 1c e1 3e fa 18 7e 3e
       -0.17984909 -0.18382487 0.43967167 0.24814215
000240 bb 37 d2 3e 5a 85 0c be 19 dc a6 bd d3 95 75 bd
       0.41058144 -0.13722745 -0.08147449 -0.059957337
000250 45 47 c0 3b 21 3a f3 bd 79 f1 4e be b1 03 13 be
       0.005867871 -0.118763216 -0.20209302 -0.14356877
000260 33 1f c1 be 0c fc ef 3d 48 97 41 be 73 dc 31 bc
       -0.37719116 0.11717996 -0.18905365 -0.010855782
000270 19 d1 3b be 77 da dd 3e 73 10 ce 3c 61 71 ee 3d
       -0.18341483 0.43330738 0.025154328 0.11642719
000280 3b b4 24 be 5c 64 72 3e 88 7a 86 bc 1d 21 bc 3e
       -0.16084377 0.23671097 -0.01641585 0.36744013
000290 70 2a b2 3e 8b f6 19 3e ed 39 b0 ba 64 ef ca 3e
       0.34798002 0.15035455 -0.0013444998 0.39635766
0002a0 6e 79 00 3e 00 68 c2 3d 93 8e 59 3e ec 9e bc 3d
       0.12546322 0.09492493 0.21245794 0.092099994
0002b0 f6 c0 cc be f0 a5 c4 be bb 20 6f 3d 7b 73 74 be
       -0.39990968 -0.3840785 0.058380824 -0.23872177
0002c0 56 78 db 3e 4f 35 0a 3d fc 00 8e bb e8 20 bc be
       0.42865247 0.033742245 -0.0043336134 -0.36743855
0002d0 b9 f6 fa bd 29 90 49 3e 27 e1 c3 bd 11 09 18 3e
       -0.1225409 0.19683899 -0.09564429 0.14847209
0002e0 79 22 13 3e 3e e4 15 3e 29 c7 de bd b5 51 19 3e
       0.14368619 0.14637849 -0.108778305 0.14972575
0002f0 72 77 39 be 19 cb 96 be a3 c2 be bd 12 bc 83 bd
       -0.18111971 -0.29451826 -0.09314468 -0.06432356
000300 57 fb 2f 3e 14 69 86 be d4 0b 20 bd 46 97 9c bc
       0.17185722 -0.26252043 -0.03907378 -0.019115102
000310 fe cd 4c be be af a1 be ed b4 14 3e ac 30 41 ba
       -0.20000455 -0.31579393 0.14522143 -0.00073696184
000320 12 00 95 be 77 50 91 be 78 89 bd 3e 21 23 26 be
       -0.29101616 -0.28381702 0.37018943 -0.16224338
000330 40 f0 d6 3d 08 9e ce bb b3 ac df bd 9c f8 1e be
       0.10495043 -0.00630546 -0.10921612 -0.15524524
000340 6b fd 38 3e e3 82 e8 bd 18 1c 45 3e 6f e5 ca bc
       0.18065421 -0.1135309 0.19248998 -0.024767606
000350 64 c4 3a 3e 2a 2e 26 3e df cc ee 3c f1 8a 33 3d
       0.1823898 0.16228548 0.029150425 0.043833677
000360 82 a2 f1 bd 3a 3f 86 be b3 fe 68 3e 77 d0 34 3e
       -0.11798574 -0.26220113 0.2275341 0.17657648
000370 df 34 c9 3d f0 c6 78 3e a7 fe 78 bd a6 d5 13 3e
       0.098245375 0.24294639 -0.06078973 0.14436969
000380 d8 c3 69 be 73 ae 7b 3e 40 32 07 3e 64 ea 8f be
       -0.22828615 0.24578266 0.13202763 -0.28108513
000390 8a 0c e9 3d 59 2d aa 3d 71 e5 c6 3d fc 5b 2d 3e
       0.11379345 0.08309431 0.09711731 0.1692962
0003a0 13 00 16 bd e5 13 b3 3e b1 a7 cb bd da e5 c1 3d
       -0.036621165 0.34976116 -0.09944094 0.09467669
0003b0 9c b8 19 be 18 cf b9 3c c2 d8 b9 bd df ec 4b 3e
       -0.15011829 0.022681758 -0.090745464 0.19914578
0003c0 e4 fb 24 be 5a 2f 80 be 68 eb a2 be d8 90 de bd
       -0.16111714 -0.25036126 -0.31820226 -0.108674705
0003d0 3c 9d 05 3e ee b4 fb bd 00 ee 8c be 64 c7 6e 3e
       0.13048261 -0.12290369 -0.2752533 0.23318249
0003e0 81 bb 9a 3e 58 c6 7f 3d 2e 32 fe bd 7d b5 8e 3b
       0.3022118 0.062445015 -0.12411915 0.004355131
0003f0 88 18 04 3c a5 49 8a bd 2c 42 04 3e 5e 71 a4 3d
       0.008062489 -0.06752328 0.12915868 0.080294356

self_attn.o_proj.bias f4 [36]
000000 a0 6f 50 3c 77 a9 90 3e 09 e2 02 be 25 b4 9d be
       0.012721926 0.2825429 -0.12781538 -0.30801502
000010 96 d9 9c 3e 71 46 be bc 5c 97 41 3d ac 13 28 bd
       0.30634755 -0.023226948 0.04726349 -0.041034386
000020 42 db 3a 3d 4f 6a 82 bd 89 41 f4 3b c4 a6 9d 3e
       0.045619257 -0.06367933 0.0074541015 0.30791295
000030 24 17 66 be b7 f5 99 be 22 b3 04 be 39 0d d0 bd
       -0.22469765 -0.30070278 -0.12958959 -0.10158772
000040 a1 8a be 3d 5c ef b7 3d ea a1 ca 3d e8 67 4d bd
       0.09303785 0.08981201 0.09894164 -0.05014792
000050 6b e5 b4 3c 97 44 90 bd 14 04 63 bc 07 69 59 3d
       0.022082051 -0.070443325 -0.013855953 0.053078678
000060 37 ba aa 3e e4 9d 2e 3c b4 86 9d 3e 6d f3 90 3e
       0.33345196 0.010657761 0.30766833 0.2831072
000070 a0 03 2a be 42 b0 92 be 1a 31 89 3e c2 3b 9b 3e
       -0.16602945 -0.286501 0.26795274 0.3031903
000080 3b 53 84 be 3f 5b 63 bd bd 14 96 be c7 99 92 bc
       -0.2584475 -0.05550694 -0.29312697 -0.017895592

fc.weight f4 [1, 18]
000000 58 e4 e9 bd e2 53 71 be 4f ef 61 3e 40 ea a2 bd
       -0.11420506 -0.23567155 0.22063945 -0.07954836
000010 56 d1 56 be 40 f6 2d be 81 97 6f 3d a6 68 14 3e
       -0.20978293 -0.16988468 0.058494095 0.14493045
000020 26 40 c7 3c 80 9b 16 3d 12 61 06 bd 38 97 20 3d
       0.02432258 0.03676939 -0.032807417 0.039206713
000030 df da a3 bc 93 28 41 3e d7 08 b5 3d 64 0e cf bd
       -0.020001827 0.18863134 0.08839577 -0.10110167
000040 bb 77 ab 3d d3 51 a9 bd
       0.08372446 -0.0826756

fc1.weight f4 [1, 36]
000000 93 3a 8b bf 2c fb 3a 3f 1b 70 94 3f ea ed 50 bf
       -1.087725 0.7303951 1.1596712 -0.8161303
000010 78 c1 3b 3f dd 19 8e bf 63 97 8b 3f 10 dd 93 3f
       0.73342085 -1.1101643 1.0905575 1.1551838
000020 48 1a 88 bf 3d 4e 8f 3f 30 24 a0 bf c8 37 2c 3f
       -1.063302 1.1195751 -1.2511044 0.67272615
000030 6c b2 38 bf e9 ac b5 be e6 15 67 bf 0d 25 a3 3f
       -0.7214725 -0.35483482 -0.9026779 1.2745682
000040 66 c0 6f 3f a0 d6 77 bf e4 5a a2 bf e8 f5 a1 3f
       0.9365295 -0.96811867 -1.2683988 1.265317
000050 be 24 99 bf bd 44 ab 3f 33 14 7d bf d9 6f 8f 3f
       -1.1964338 1.3380352 -0.98858947 1.1206008
000060 75 bc 44 3f 80 79 80 bf 6c ce 3c 3f 39 b8 45 3f
       0.7685006 -1.0037079 0.73752475 0.77234226
000070 08 0b 0e bf 01 3f 45 bf 10 31 52 3f d2 94 2f 3f
       -0.5548558 -0.7704926 0.82106113 0.68586457
000080 a1 91 28 bf 3d cc 89 bf a5 e3 41 bf 37 09 8e bf
       -0.6584721 -1.0765454 -0.75737983 -1.1096562

fc2.weight f4 [1, 9]
000000 2c 47 9c be 62 55 a5 be 5b c5 ae bd 16 75 f7 bc
       -0.3052305 -0.32291704 -0.08533736 -0.030207198
000010 a8 fa 7f 3e ae e9 5e be 2c 4b a5 be 56 b9 a8 3a
       0.24997962 -0.21768829 -0.32283914 0.0012872617
000020 e4 0d 9e be
       -0.30869973

fc3.weight f4 [1, 2]
000000 9b 81 02 3f c8 dc 15 bf
       0.5097901 -0.5854001

input_fc.weight f4 [18, 3]
000000 d8 39 ce be 55 4b ec 3e ef a2 f1 3d bd f4 7a 3e
       -0.40278506 0.46151224 0.11798655 0.24507423
000010 0c e3 c0 bb cf 85 6a be 00 1f 6c 3e e2 36 cf be
       -0.005886441 -0.22902606 0.230587 -0.4047156
000020 f9 c6 c9 3e e2 dc aa 3e 93 76 13 bf 79 8d 68 3e
       0.39409617 0.33371645 -0.57602805 0.22710218
000030 5d fd 34 be 71 32 b6 3e 09 dd a2 bd 60 ac ca 3d
       -0.17674775 0.3558536 -0.07952315 0.09896159
000040 d6 9d d9 bd 36 11 78 bc bd e1 4c 3e 61 ad 08 3d
       -0.10625808 -0.015140822 0.20007987 0.033368472
000050 39 ef 9e be 2e bf 15 3f f4 d3 84 3e 60 d0 6e be
       -0.31041887 0.5849484 0.25942957 -0.23321676
000060 bb cf 74 3d f4 11 d7 be a4 ad 8b be 69 f5 78 3e
       0.05976842 -0.42005885 -0.27280915 0.24312367
000070 cb 69 04 3f 32 54 ef be c4 e0 90 be 02 17 ce be
       0.5172393 -0.46743923 -0.28296483 -0.4025193
000080 f8 ad 83 3e 68 c6 25 bf 97 a9 32 3e 9e be 6b 3e
       0.25718665 -0.6475587 0.17447506 0.23021933
000090 89 c2 67 3e ef 6c 3d bd 7a a2 65 3d 3d e8 ec 3e
       0.22632803 -0.046246465 0.056063153 0.46270934
0000a0 8d 8d 8c be 55 53 5b 3e 2e 7c e6 3e 13 3c 2f be
       -0.27451745 0.21418507 0.45016617 -0.1711276
0000b0 0f 34 64 be cf 18 d1 3e 1f 73 85 be 9b e0 83 bc
       -0.22285484 0.4083924 -0.26064393 -0.016098311
0000c0 4c ee 5d be d4 eb 04 3f 46 45 97 be c8 15 83 3e
       -0.21672934 0.51922345 -0.2954504 0.25602555
0000d0 f7 af dc be d0 c9 a4 3d
       -0.43103 0.08046305

input_fc.bias f4 [18]
000000 2c a2 d4 3a 6b 76 79 be f6 c4 4a be c4 2b be bd
       0.0016222647 -0.24361579 -0.19801697 -0.092856914
000010 7b 0d be 3d 9e c2 a6 3e 2c 66 f7 be 29 6a b7 3e
       0.09279915 0.32570356 -0.48320138 0.3582318
000020 66 67 00 bf e6 42 52 be a9 4c e3 bd 50 45 45 be
       -0.50157773 -0.20533332 -0.11098606 -0.19264722
000030 2d bd 41 3e 81 97 9e 3e 31 c9 94 be 48 3b 53 be
       0.18919821 0.30974963 -0.29059747 -0.20628083
000040 f0 2a 69 3e a5 2f c6 3e
       0.22770286 0.38708225

norm.weight f4 [36]
000000 00 00 80 3f 00 00 80 3f 00 00 80 3f 00 00 80 3f
       1.0 1.0 1.0 1.0
000010 00 00 80 3f 00 00 80 3f 00 00 80 3f 00 00 80 3f
       1.0 1.0 1.0 1.0
000020 00 00 80 3f 00 00 80 3f 00 00 80 3f 00 00 80 3f
       1.0 1.0 1.0 1.0
000030 00 00 80 3f 00 00 80 3f 00 00 80 3f 00 00 80 3f
       1.0 1.0 1.0 1.0
000040 00 00 80 3f 00 00 80 3f 00 00 80 3f 00 00 80 3f
       1.0 1.0 1.0 1.0
000050 00 00 80 3f 00 00 80 3f 00 00 80 3f 00 00 80 3f
       1.0 1.0 1.0 1.0
000060 00 00 80 3f 00 00 80 3f 00 00 80 3f 00 00 80 3f
       1.0 1.0 1.0 1.0
000070 00 00 80 3f 00 00 80 3f 00 00 80 3f 00 00 80 3f
       1.0 1.0 1.0 1.0
000080 00 00 80 3f 00 00 80 3f 00 00 80 3f 00 00 80 3f
       1.0 1.0 1.0 1.0

norm.bias f4 [36]
000000 00 00 00 00 00 00 00 00 00 00 00 00 00 00 00 00
       0.0 0.0 0.0 0.0
000010 00 00 00 00 00 00 00 00 00 00 00 00 00 00 00 00
       0.0 0.0 0.0 0.0
000020 00 00 00 00 00 00 00 00 00 00 00 00 00 00 00 00
       0.0 0.0 0.0 0.0
000030 00 00 00 00 00 00 00 00 00 00 00 00 00 00 00 00
       0.0 0.0 0.0 0.0
000040 00 00 00 00 00 00 00 00 00 00 00 00 00 00 00 00
       0.0 0.0 0.0 0.0
000050 00 00 00 00 00 00 00 00 00 00 00 00 00 00 00 00
       0.0 0.0 0.0 0.0
000060 00 00 00 00 00 00 00 00 00 00 00 00 00 00 00 00
       0.0 0.0 0.0 0.0
000070 00 00 00 00 00 00 00 00 00 00 00 00 00 00 00 00
       0.0 0.0 0.0 0.0
000080 00 00 00 00 00 00 00 00 00 00 00 00 00 00 00 00
       0.0 0.0 0.0 0.0

norm1.weight f4 [9]
000000 00 00 80 3f 00 00 80 3f 00 00 80 3f 00 00 80 3f
       1.0 1.0 1.0 1.0
000010 00 00 80 3f 00 00 80 3f 00 00 80 3f 00 00 80 3f
       1.0 1.0 1.0 1.0
000020 00 00 80 3f
       1.0

norm1.bias f4 [9]
000000 00 00 00 00 00 00 00 00 00 00 00 00 00 00 00 00
       0.0 0.0 0.0 0.0
000010 00 00 00 00 00 00 00 00 00 00 00 00 00 00 00 00
       0.0 0.0 0.0 0.0
000020 00 00 00 00
       0.0

norm2.weight f4 [9]
000000 00 00 80 3f 00 00 80 3f 00 00 80 3f 00 00 80 3f
       1.0 1.0 1.0 1.0
000010 00 00 80 3f 00 00 80 3f 00 00 80 3f 00 00 80 3f
       1.0 1.0 1.0 1.0
000020 00 00 80 3f
       1.0

norm2.bias f4 [9]
000000 00 00 00 00 00 00 00 00 00 00 00 00 00 00 00 00
       0.0 0.0 0.0 0.0
000010 00 00 00 00 00 00 00 00 00 00 00 00 00 00 00 00
       0.0 0.0 0.0 0.0
000020 00 00 00 00
       0.0

m.running_mean f4 [12]
000000 ba 36 7a 40 11 d3 7b 40 87 bf 7a 40 f3 6e 78 40
       3.9095902 3.9347575 3.91794 3.8817718
000010 b7 41 77 40 33 1a 78 40 4f fd 79 40 a1 cf 7a 40
       3.863386 3.876599 3.9060857 3.9189227
000020 9f 16 79 40 15 ff 75 40 de d6 73 40 94 5b 74 40
       3.8920057 3.843694 3.8099895 3.8180895

m.running_var f4 [12]
000000 f7 10 fe 44 be 28 fe 44 ac 48 fe 44 f8 5c fe 44
       2032.5302 2033.2732 2034.271 2034.9053
000010 c2 62 fe 44 d4 6b fe 44 54 74 fe 44 58 8a fe 44
       2035.0862 2035.3696 2035.6353 2036.3232
000020 21 a6 fe 44 8c ae fe 44 b8 a5 fe 44 21 8f fe 44
       2037.1915 2037.4546 2037.1787 2036.4728

linear_net.0.weight f4 [9, 18]
000000 97 c3 70 3e c4 27 8e 3d 7d c1 6f 3d f7 69 66 3e
       0.23512112 0.069411784 0.058534134 0.2250136
000010 f0 b9 00 be 57 cf 10 3e c2 85 0a be 98 74 89 3d
       -0.1257093 0.14141594 -0.13527587 0.067116916
000020 ef 30 6e be 38 5c fa bc 58 88 5a 3e d5 c1 60 3e
       -0.23260854 -0.030561551 0.21341074 0.21948941
000030 1a 91 42 bd 81 30 e9 bd 73 d6 cc bc b2 bc 1d 3e
       -0.04750166 -0.113862045 -0.025004601 0.15404013
000040 0d e2 73 3d 60 9f a5 bd 23 67 d2 bd 21 cd 1d 3e
       0.05954175 -0.08087039 -0.10273578 0.15410282
000050 86 4a 1f be 42 cb c0 bd cc a3 11 bd ee a4 61 3e
       -0.15555772 -0.09413768 -0.0355566 0.22035572
000060 1e 68 39 3e bb c3 36 3e 4c 68 23 be 42 84 a6 3d
       0.18106124 0.17848103 -0.15957755 0.08130695
000070 9a ba 84 bc 03 ea ef 3d 81 a8 1f 3e 9f d9 3c be
       -0.01620226 0.11714556 0.15591623 -0.18442391
000080 93 0d 43 be 84 2d dd 3c f1 38 6e be a6 10 2e 3e
       -0.19048147 0.026999243 -0.23263909 0.16998538
000090 bd b7 2e be d8 42 0c be 2b fd 89 3a d1 8e 09 3e
       -0.17062278 -0.13697374 0.001052772 0.13433386
0000a0 01 bb 52 3e d8 42 32 3d 78 e4 4d 3e 59 37 cb 3d
       0.20579149 0.04352078 0.20106685 0.09922666
0000b0 c0 c7 6c 3e ec f3 6d bd 02 3e 75 bd 42 56 95 bd
       0.23123074 -0.05809395 -0.05987359 -0.07291843
0000c0 45 f6 23 bd 1a 26 4c be a9 45 90 3d c7 20 2d 3e
       -0.040029783 -0.1993641 0.070445366 0.16907035
0000d0 71 ce f8 3d 68 4a 18 be b2 c2 5a 3e d3 c7 1d ba
       0.121487506 -0.14872134 0.21363333 -0.0006018851
0000e0 25 79 e9 bb c8 5d 51 be c6 35 d3 bd 8c ec 9b 3d
       -0.0071250373 -0.20445931 -0.10312991 0.07613477
0000f0 c1 2e ea 3c cc 47 1a be 18 e0 5f 3e e7 2d ca 3d
       0.028586747 -0.15066451 0.21862829 0.098720364
000100 52 45 05 3e b0 66 0c be 54 e9 c2 bd a3 f4 96 3d
       0.13014725 -0.13711047 -0.0951716 0.073708795
000110 65 74 62 be 01 0e e2 3d e2 2e 47 3c 71 43 1a 3e
       -0.22114713 0.11037827 0.012157174 0.1506479
000120 dd 37 39 3e 59 cf 3e 3d 68 d0 fb 3d 83 a1 b3 3b
       0.18087716 0.04658446 0.1229561 0.0054819
000130 f6 71 6b 3e 1d 4b d6 bc 93 b5 14 be 68 19 01 bd
       0.22992691 -0.026158864 -0.1452239 -0.03151837
000140 f7 dc 35 be f1 56 0d be 1b d4 52 3d 6c 76 3a 3e
       -0.17760073 -0.13802697 0.05147181 0.18209237
000150 8f a8 44 3e 93 d0 35 3e 17 2f 4e 3e 87 8a 57 3e
       0.19204925 0.17755346 0.20135151 0.21048938
000160 0a 2d 11 be a0 68 93 bd 48 b0 db 3d a1 9e bd bd
       -0.14177337 -0.0719769 0.10726982 -0.09258772
000170 dd b3 24 bd 8f 22 4c 3e 00 42 a8 bc a3 1a 60 bd
       -0.040210593 0.19935058 -0.020539284 -0.054712903
000180 52 79 c6 3d b6 21 6c 3e a7 0b d0 bd 89 88 fc bc
       0.09691109 0.23059735 -0.101584725 -0.030826824
000190 fa ba 56 be ca 4b e4 3c 2a 48 c7 3c bd 17 22 3e
       -0.20969763 0.02786817 0.024326403 0.15829368
0001a0 fc 2f 45 be 03 87 15 be c2 d5 3b 3e 92 8d d9 bd
       -0.19256586 -0.14602284 0.18343261 -0.106227055
0001b0 bd 52 7e 3c 2f 9f 4f 3e 40 9c 51 3e 64 dc 71 bc
       0.015522656 0.20275567 0.20469761 -0.014762018
0001c0 1b 26 64 be ee 0d 46 be fd bf 67 be 69 4a 67 bc
       -0.22280161 -0.19341251 -0.22631831 -0.014116862
0001d0 cd b6 3b be 1f bd 43 3e 07 83 51 be 41 52 8f bd
       -0.18331452 0.19115113 -0.20460139 -0.069981106
0001e0 fb d3 ce 3d 9d a6 cb bd a2 b3 34 3e 1d 9a 4e 3d
       0.10099026 -0.09943888 0.1764665 0.050439943
0001f0 25 d4 67 3e 93 a3 09 3d 86 6a 13 3e 27 d2 54 be
       0.2263952 0.033603262 0.14396104 -0.20783292
000200 c3 24 cd bd 21 e4 d7 3d a1 83 b7 bd aa 12 9f 3d
       -0.10016777 0.10541559 -0.08960653 0.07767232
000210 53 12 12 be c0 95 3f 3d f9 22 ec 3c 51 13 05 be
       -0.14264803 0.046773672 0.02882527 -0.1299565
000220 6d 54 bc bb 2e ba 3a 3e 1c 4b 32 be 01 f9 1f 3d
       -0.005747369 0.18235084 -0.17411464 0.039055828
000230 c0 30 03 3e fe 58 5e 3e 3e e5 5b be de 62 da 3d
       0.12811565 0.21713635 -0.21474168 0.10663389
000240 b0 79 65 3e 14 2c 25 3e c5 2d 50 be 3a 0b 0c bd
       0.22409701 0.16130096 -0.2032996 -0.034190394
000250 35 ab ec bc 11 c1 0a bd 7a 36 8b 3c b7 14 7b 3c
       -0.028890232 -0.03387553 0.01699375 0.015324763
000260 33 b2 ff 3d 02 25 3d be e5 31 2a be 70 df e9 bb
       0.12485161 -0.18471149 -0.16620596 -0.0071372315
000270 5a 64 63 be e5 ac 6c 3e b8 63 2c 3e e7 73 d5 bd
       -0.2220625 0.23112829 0.16834915 -0.10422497
000280 b8 ca 2b 3e 98 79 d8 bd
       0.1677655 -0.10570067

linear_net.0.bias f4 [9]
000000 3c c8 d3 ba 64 14 4e be 91 f8 05 3c 5e 6d a1 3d
       -0.0016157697 -0.20124966 0.008176939 0.07882188
000010 57 fb c7 bd a5 fc 05 3e f6 d8 17 bb 82 55 01 3e
       -0.09764736 0.13084657 -0.002317009 0.12630275
000020 4d 93 6d 3e
       0.23200722

linear_net.2.weight f4 [1, 9]
000000 b0 26 6e be eb ee 6e be 2c bf 80 3e a0 83 92 bd
       -0.23256946 -0.23333327 0.25145853 -0.07154012
000010 b8 d8 74 be 6b 6d 35 3d 93 d5 6a be 82 a5 a6 3e
       -0.23910797 0.044293802 -0.22933035 0.32548147
000020 bb 62 20 3e
       0.15662663

exp_avg f4 [108, 36]
000000 fa c4 1d 39 ea 1f 0e b7 5d 6a fc b8 48 19 39 b9
       0.00015046066 -8.47129e-06 -0.00012036108 -0.00017652393
000010 3e 3d e5 38 6b a0 08 b8 72 b2 c6 35 e0 55 99 38
       0.00010930978 -3.2574328e-05 1.4804084e-06 7.311604e-05
000020 43 f2 12 b9 a6 9a 1d 39 d7 70 f9 b8 88 cc 87 38
       -0.00014013895 0.00015030298 -0.00011894263 6.4753985e-05
000030 ae 53 79 b7 66 dd af b8 1a 37 84 b8 f6 36 b2 b8
       -1.486104e-05 -8.385889e-05 -6.304514e-05 -8.497939e-05
000040 c0 ac 24 39 9a d9 0a b9 4e ee 9d b6 6f 78 8b 36
       0.00015704613 -0.00013241768 -4.706707e-06 4.156543e-06
000050 62 f9 89 b7 13 6d e6 b7 e8 2e 5d 37 15 d2 15 b7
       -1.64478e-05 -2.7468928e-05 1.3183548e-05 -8.930006e-06
000060 92 1c d9 36 f2 5d b4 35 f0 e9 21 36 32 e4 40 36
       6.47043e-06 1.3438387e-06 2.412704e-06 2.8743057e-06
000070 f2 da 69 35 b7 65 4e 36 51 30 a8 34 45 25 50 36
       8.711787e-07 3.0755598e-06 3.1327593e-07 3.101611e-06
000080 68 cb f1 33 29 5f 50 36 6f cb 2d 33 b7 66 50 36
       1.12594364e-07 3.1049806e-06 4.0464723e-08 3.1054203e-06
000090 b2 b6 8d b9 2f 93 1c b8 80 4f 93 37 c8 2b 75 39
       -0.00027029734 -3.7330374e-05 1.7560786e-05 0.0002338133
0000a0 fd 4e 5b b9 2f 0b 32 38 78 86 55 37 b6 04 23 ba
       -0.00020914893 4.2448923e-05 1.2727098e-05 -0.00062186585
0000b0 ec 81 20 3a 62 5b f7 b9 4b 05 08 3a eb 51 3f 39
       0.00061228755 -0.00047179597 0.0005188777 0.00018245696
0000c0 ff 11 35 b9 ef 95 5d b9 9a 47 ab b7 22 d1 b5 b7
       -0.00017268209 -0.00021132057 -2.041813e-05 -2.1674266e-05
0000d0 19 ab 69 b9 86 d8 64 39 be a8 85 b6 34 d9 36 37
       -0.0002228435 0.00021824436 -3.983353e-06 1.0898617e-05
0000e0 07 1a 82 b7 f3 6e 0d b7 7d 55 0d b7 a5 d7 a4 b7
       -1.5509328e-05 -8.430087e-06 -8.424159e-06 -1.965074e-05
0000f0 44 d6 56 b6 23 2d b6 b7 97 89 9b b5 36 85 b8 b7
       -3.2013204e-06 -2.171711e-05 -1.1588444e-06 -2.199654e-05
000100 4d cc df b4 2a d3 b8 b7 96 e0 20 b4 41 dd b8 b7
       -4.1685635e-07 -2.203284e-05 -1.4982865e-07 -2.2037539e-05
000110 cd 44 67 b3 8d de b8 b7 4a 3a a6 b2 b7 de b8 b7
       -5.3846453e-08 -2.2038143e-05 -1.935145e-08 -2.2038219e-05
000120 93 fa 0b bb 44 4a 13 b9 ee ba 1c 3a 05 e0 04 3b
       -0.002135907 -0.00014046679 0.00059787824 0.0020275128
000130 b9 b0 d2 ba b8 17 c5 39 19 98 c1 38 ce 19 6f bb
       -0.0016074396 0.0003759244 9.2312875e-05 -0.0036483887
000140 6c 38 81 3b 08 3a 4f bb 92 ec 57 3b b8 0e 30 3a
       0.0039434936 -0.0031620283 0.0032947403 0.00067160605
000150 fc ec 62 ba 6b 9a 4c ba f9 d9 49 39 e3 87 8b 39
       -0.0008656529 -0.00078049925 0.00019250055 0.0002661339
000160 76 e3 f5 ba 7b 69 e6 3a 67 0c d7 35 89 26 89 37
       -0.0018759805 0.0017579043 1.6022358e-06 1.6349617e-05
000170 cb 10 4f b8 fc bd a9 37 0c ee a8 b8 ef c7 bf b8
       -4.9368286e-05 2.0234838e-05 -8.055204e-05 -9.14483e-05
000180 ca 58 0f b8 66 c1 06 b9 74 73 52 b7 92 5f 0c b9
       -3.4176548e-05 -0.00012851282 -1.2543856e-05 -0.00013387043
000190 eb ac 97 b6 05 1c 0d b9 26 1d da b5 67 34 0d b9
       -4.520281e-06 -0.00013457246 -1.6250749e-06 -0.00013466329
0001a0 78 c7 1c b5 8d 37 0d b9 18 60 61 b4 f4 37 0d b9
       -5.8404794e-07 -0.00013467502 -2.0989717e-07 -0.00013467652
0001b0 fa 96 61 3a c7 27 80 38 56 fe 9c b9 08 97 5e ba
       0.0008605566 6.110925e-05 -0.00029944134 -0.00084911333
0001c0 84 51 2b 3a c9 5f 21 b9 d1 e0 86 b7 d0 37 b8 3a
       0.0006535279 -0.00015389839 -1.6078733e-05 0.0014054719
0001d0 64 31 c7 ba fe 28 a7 3a a2 36 aa ba c9 08 72 b9
       -0.0015197215 0.0012753305 -0.0012986253 -0.00023082191
0001e0 e0 60 a4 39 fe 89 7b 39 40 4b bc b8 3e 6f 10 b9
       0.00031352695 0.00023988631 -8.978555e-05 -0.00013774351
0001f0 07 2c 4e 3a fd 1f 3d ba 12 5d b5 35 92 a1 16 b7
       0.0007864837 -0.00072145445 1.3512638e-06 -8.978315e-06
000200 5c ed bb 36 b5 53 b3 b7 5a b2 16 38 14 a1 e9 37
       5.6006666e-06 -2.1377442e-05 3.592889e-05 2.7850772e-05
000210 71 c7 84 37 a2 b0 45 38 f3 c7 c3 36 86 82 51 38
       1.5828498e-05 4.7132962e-05 5.83473e-06 4.9951042e-05
000220 28 2e 0d 36 86 0f 53 38 31 09 4b 35 ea 42 53 38
       2.1037504e-06 5.0320778e-05 7.563677e-07 5.036864e-05
000230 4c f1 91 34 8d 49 53 38 30 cc d1 33 68 4a 53 38
       2.718392e-07 5.037482e-05 9.7694624e-08 5.0375616e-05
000240 fa 5d e3 39 c5 e5 f5 b7 c4 f4 23 b9 b1 4e d5 b9
       0.00043366832 -2.931327e-05 -0.00015636074 -0.00040685156
000250 57 69 9d 39 03 8c ae b8 e1 5b 67 b8 ad 9b ef 39
       0.00030023858 -8.323046e-05 -5.516026e-05 0.0004570162
000260 88 a8 28 ba 17 63 f1 39 28 97 f5 b9 3d c2 16 38
       -0.00064338045 0.0004604093 -0.00046842662 3.5943685e-05
000270 85 cb b2 38 cc f7 80 37 f5 02 08 b9 37 91 0e b9
       8.52561e-05 1.5374178e-05 -0.00012971072 -0.00013596272
000280 36 47 bb 39 78 ac b3 b9 29 a4 aa b5 c4 c8 99 36
       0.00035720476 -0.0003427004 -1.2713764e-06 4.5831275e-06
000290 3d 8a 7a 36 66 fb be b6 ed 22 62 37 54 54 5f 37
       3.7333368e-06 -5.691708e-06 1.34787815e-05 1.331147e-05
0002a0 dd 11 c5 36 da 1a aa 37 4a 1b 11 36 94 9c b2 37
       5.873137e-06 2.0278083e-05 2.1622568e-06 2.1292166e-05
0002b0 46 3e 51 35 28 ba b3 37 e5 74 96 34 1f df b3 37
       7.7949187e-07 2.1425149e-05 2.802473e-07 2.1442362e-05
0002c0 e3 4b d8 33 e5 e3 b3 37 81 77 1b 33 80 e4 b3 37
       1.00720875e-07 2.1444584e-05 3.6197438e-08 2.1444866e-05
0002d0 a5 af a7 3a 40 f2 02 39 48 5b ae b9 6e 90 9f ba
       0.0012793435 0.00012488011 -0.00033255876 -0.0012173781
0002e0 23 9d 80 3a 6c e0 66 b9 c9 fb fa b7 4f 6a 1c 3b
       0.0009812455 -0.00022018113 -2.9919569e-05 0.0023867076
0002f0 44 25 22 bb 1f 88 04 3b 65 a6 0a bb 4f 85 09 ba
       -0.002474145 0.0020222736 -0.0021156308 -0.0005246
000300 61 d9 18 3a 7f 59 15 3a e0 73 56 b8 b8 0e d4 b8
       0.0005830732 0.0005697235 -5.1129493e-05 -0.00010111689
000310 3c 6a 95 3a cf 4d 8b ba e1 de af 33 ab 4a 25 b7
       0.0011399458 -0.0010628047 8.189614e-08 -9.852151e-06
000320 04 50 31 38 4a 60 53 36 3b 4f 39 38 4f d2 86 38
       4.227461e-05 3.1497498e-06 4.4181226e-05 6.428791e-05
000330 68 c8 98 37 c6 14 ac 38 4c 89 df 36 53 69 b1 38
       1.8213133e-05 8.2054685e-05 6.6619014e-06 8.459636e-05
000340 23 09 21 36 e7 1b b2 38 9e 8f 67 35 02 33 b2 38
       2.3996188e-06 8.4928986e-05 8.6263196e-07 8.497202e-05
000350 9a 71 a6 34 fb 35 b2 38 ad 44 ef 33 5e 36 b2 38
       3.1002565e-07 8.497756e-05 1.1141797e-07 8.497828e-05
000360 07 3f 1d ba 4a 46 b6 b8 6a b6 90 39 98 23 29 3a
       -0.00059984665 -8.691529e-05 0.0002760173 0.0006452142
000370 f2 ba fc b9 cb 6a e1 38 46 05 39 b8 5a c0 8b ba
       -0.0004820447 0.00010748728 -4.411235e-05 -0.0010662184
000380 c0 8e 8a 3a a5 17 84 ba c5 c2 81 3a 18 52 5f 39
       0.0010571107 -0.0010077847 0.0009899965 0.0002129752
000390 cc fa 68 b9 5d 51 19 b9 9e 15 b8 37 43 ce bb 38
       -0.00022218673 -0.00014621527 2.1944576e-05 8.955274e-05
0003a0 60 71 20 ba f8 93 0b 3a 19 8d 11 36 b6 9c 90 36
       -0.000612041 0.0005324478 2.1688813e-06 4.309778e-06
0003b0 e6 15 1c 37 6f d2 1a 38 6a b8 0c b8 6a 64 1b b7
       9.303423e-06 3.6912443e-05 -3.355035e-05 -9.262099e-06
0003c0 de 6f 80 b7 68 06 fa b7 f9 1e be b6 25 b5 09 b8
       -1.5310881e-05 -2.9805306e-05 -5.666047e-06 -3.283205e-05
0003d0 b0 2a 09 b6 f7 5f 0b b8 cd 46 45 b5 32 97 0b b8
       -2.0439438e-06 -3.3229557e-05 -7.349125e-07 -3.3280994e-05
0003e0 cb cd 8d b4 56 9e 0b b8 2d d9 cb b3 43 9f 0b b8
       -2.641303e-07 -3.3287644e-05 -9.492428e-08 -3.3288507e-05
0003f0 8e 2d 0c 3a 48 5f a6 38 ca 81 bd b8 44 8d 01 ba
       0.00053473643 7.933244e-05 -9.0363974e-05 -0.00049420097

exp_avg_sq f4 [108, 36]
000000 48 b9 a9 3b 80 f0 3b 3a ac 2e 66 3a f2 a8 5f 3b
       0.005179558 0.0007169321 0.00087807584 0.00341278
000010 92 6a 3c 3b 3d 1e c7 37 6f 98 4e 3a e5 80 0c 3d
       0.0028750044 2.373673e-05 0.0007880991 0.03430261
000020 1e 93 f3 3c 3e 4c a4 3c ed 9e bf 3c 8e e7 8d 3b
       0.029733237 0.020055886 0.023391211 0.004330582
000030 73 c3 67 3b 95 b6 b3 3b f8 4c 36 3a af 44 82 39
       0.00353643 0.005484412 0.0006954218 0.00024846705
000040 10 8f 52 3b ca 63 3a 3b 36 fa 68 37 cd 09 8f 36
       0.003212873 0.0028440827 1.3886534e-05 4.262873e-06
000050 e0 3b 9b 37 49 83 88 37 26 2d 73 37 8e 5f 0e 38
       1.8505321e-05 1.6273598e-05 1.4494441e-05 3.394443e-05
000060 60 e9 2b 36 cb cf 4b 38 43 01 b9 34 cb ab 56 38
       2.5616828e-06 4.8592494e-05 3.4459853e-07 5.118157e-05
000070 8a 29 40 33 ce 21 58 38 56 af c6 31 42 52 58 38
       4.4741263e-08 5.1529896e-05 5.782492e-09 5.157502e-05
000080 9c 4e 4d 30 93 58 58 38 39 22 d4 2e 50 59 58 38
       7.4690276e-10 5.1580904e-05 9.646723e-11 5.1581592e-05
000090 45 2f 94 3b 33 41 24 3a 15 25 4e 3a 20 3d 45 3b
       0.0045222365 0.0006265819 0.0007863802 0.0030096248
0000a0 2f 7f 25 3b c0 22 b6 37 e6 87 34 3a d5 8a f6 3c
       0.002525281 2.1712272e-05 0.00068867055 0.030095497
0000b0 3c 37 d5 3c 0d 46 90 3c d9 06 a8 3c dc 2e 79 3b
       0.026027314 0.017611528 0.020511078 0.0038022315
0000c0 f8 6c 4b 3b 42 c0 9d 3b 59 87 1e 3a f3 ea 63 39
       0.0031040292 0.0048141787 0.000604739 0.00021735932
0000d0 6b 39 3a 3b d1 cc 23 3b 63 36 49 37 e5 d3 7a 36
       0.0028415571 0.0024993906 1.19931965e-05 3.7376242e-06
0000e0 59 3b 85 37 a6 5f 72 37 67 fe 58 37 63 6a f5 37
       1.5882471e-05 1.4446594e-05 1.2933836e-05 2.9255816e-05
0000f0 3e 48 1a 36 c3 2f 31 38 7b 25 a6 34 30 e2 3a 38
       2.2989839e-06 4.224457e-05 3.094718e-07 4.455651e-05
000100 d9 96 2c 33 51 30 3c 38 0c 73 b2 31 c8 5b 3c 38
       4.0184066e-08 4.486769e-05 5.193561e-09 4.490817e-05
000110 bc 65 38 30 5f 61 3c 38 53 87 be 2e 15 62 3c 38
       6.7083383e-10 4.4913377e-05 8.664238e-11 4.491404e-05
000120 03 dc 01 39 0c 20 4c 37 f9 02 ae 37 4d 31 b9 38
       0.0001238436 1.2166809e-05 2.07438e-05 8.8306704e-05
000130 6c 82 9a 38 0d c9 a1 35 17 3f 73 37 0e 68 52 3a
       7.367585e-05 1.2053948e-06 1.4498618e-05 0.00080263696
000140 2c a8 38 3a 03 76 f2 39 d6 6d 11 3a 15 2a cd 38
       0.00070441025 0.00046245762 0.0005547678 9.783e-05
000150 06 88 a7 38 93 96 03 39 df 62 5b 37 02 3c ca 36
       7.988517e-05 0.00012549227 1.3076437e-05 6.027055e-06
000160 67 88 af 38 a6 e7 9e 38 b8 e1 4e 34 70 cf 9b 33
       8.370057e-05 7.577175e-05 1.9267361e-07 7.2554826e-08
000170 2a 33 b6 34 64 a9 eb 34 0a 67 da 34 d9 85 38 35
       3.3937368e-07 4.389541e-07 4.0680635e-07 6.8740115e-07
000180 35 73 a5 33 b6 03 90 35 ff 84 33 32 68 f6 99 35
       7.704367e-08 1.0729916e-06 1.0449411e-08 1.1471102e-06
000190 0b a9 ba 30 57 50 9b 35 97 05 41 2f 5c 7d 9b 35
       1.3581326e-09 1.1571782e-06 1.7555234e-10 1.1584884e-06
0001a0 8f 75 c7 2d 2b 83 9b 35 77 17 4e 2c e0 83 9b 35
       2.2675887e-11 1.1586575e-06 2.9287386e-12 1.1586781e-06
0001b0 80 27 88 39 e6 d7 34 38 2c 86 fb 37 a1 77 58 39
       0.0002596937 4.3116415e-05 2.998401e-05 0.0002064393
0001c0 1c 7c 2f 39 a6 0c b1 35 53 83 fc 37 61 fb 06 3b
       0.00016735535 1.3191209e-06 3.0101894e-05 0.002059661
0001d0 08 e7 cc 3a 54 36 a5 3a b8 44 b9 3a e6 7a 92 39
       0.0015632818 0.0012604692 0.001413486 0.00027938857
0001e0 dd 7b 52 39 26 06 98 39 ac 21 20 38 99 fc 8f 37
       0.00020073303 0.0002899628 3.8178332e-05 1.7164553e-05
0001f0 7f d5 50 39 c3 80 2b 39 39 b7 88 35 c7 5c 90 34
       0.0001991596 0.00016355798 1.0186114e-06 2.6889595e-07
000200 22 d3 5d 35 2a da 6f 35 49 ff 18 35 00 e0 e6 35
       8.2636154e-07 8.935191e-07 5.69959e-07 1.7201528e-06
000210 1f ac d6 33 ea 2d 1b 36 d5 cf 66 32 91 1e 22 36
       9.99646e-08 2.3123525e-06 1.34350175e-08 2.4157673e-06
000220 77 b6 ef 30 3c 0d 23 36 99 d8 77 2f 21 2c 23 36
       1.7441398e-09 2.4296596e-06 2.254147e-10 2.431458e-06
000230 a2 0d 00 2e 2d 30 23 36 9d 4f 84 2c b5 30 23 36
       2.911594e-11 2.4316935e-06 3.7605045e-12 2.4317244e-06
000240 c3 f0 81 3b 8c cc 1f 3a aa c9 1f 3a 49 9f 37 3b
       0.0039654686 0.00060958485 0.0006095419 0.0028018525
000250 27 4f 1a 3b 24 1d 9e 37 bb a8 13 3a 3f 24 ef 3c
       0.0023545714 1.8848637e-05 0.0005632748 0.029192088
000260 8d 94 c2 3c 97 1e 8d 3c a2 8d a2 3c ad 9b 7d 3b
       0.023752475 0.0172265 0.019842926 0.0038697526
000270 88 f5 41 3b 51 44 94 3b dc 5e 16 3a 3a 50 79 39
       0.002959581 0.0045247455 0.0005736181 0.00023776377
000280 28 92 2f 3b 77 e6 16 3b 9d d0 59 37 3c a3 76 36
       0.0026789997 0.0023025551 1.29827795e-05 3.6751871e-06
000290 eb 15 6b 37 6a aa 5b 37 2c 79 30 37 3b c2 e0 37
       1.4012195e-05 1.3093095e-05 1.051863e-05 2.6793326e-05
0002a0 d1 59 f9 35 7b 68 1d 38 56 2a 86 34 d2 58 25 38
       1.8578086e-06 3.7529022e-05 2.4990248e-07 3.9421786e-05
0002b0 eb 5a 0b 33 13 6a 26 38 b1 15 90 31 96 8d 26 38
       3.244615e-08 3.9676273e-05 4.1934176e-09 3.9709346e-05
0002c0 16 e3 14 30 3e 92 26 38 75 d6 99 2e ca 92 26 38
       5.4164795e-10 3.9713683e-05 6.99573e-11 3.9714192e-05
0002d0 e9 bd d5 3a 11 da 70 39 bb e6 aa 39 12 65 8d 3a
       0.0016307208 0.0002296942 0.00032596834 0.0010787568
0002e0 6c e5 71 3a dc c4 2f 37 90 e0 8b 39 f5 08 37 3c
       0.0009227607 1.0476648e-05 0.00026679458 0.011171569
0002f0 23 f0 1d 3c 40 0d d2 3b d9 d7 f7 3b 0d 8d bf 3a
       0.009639773 0.006410271 0.007563573 0.001461418
000300 79 28 9a 3a 4c 56 f5 3a 5f 50 77 39 51 56 c3 38
       0.0011761329 0.0018717735 0.00023585696 9.314402e-05
000310 ef 05 87 3a b4 89 6e 3a e8 eb 85 36 6a a8 b0 35
       0.0010301451 0.0009099499 3.991172e-06 1.3162037e-06
000320 23 19 c9 36 02 ba a3 36 82 b9 9d 36 13 86 36 37
       5.993193e-06 4.8794327e-06 4.7005606e-06 1.0879262e-05
000330 3f ae 5f 35 34 61 83 37 e6 d1 f0 33 0b 7a 8a 37
       8.3327535e-07 1.566168e-05 1.1214051e-07 1.6507713e-05
000340 93 26 7a 32 81 6e 8b 37 55 52 01 31 49 8e 8b 37
       1.4560686e-08 1.6621549e-05 1.881877e-09 1.6636348e-05
000350 c9 a1 85 2f 5b 92 8b 37 48 13 0a 2e ec 92 8b 37
       2.4307514e-10 1.6638243e-05 3.1394692e-11 1.6638507e-05
000360 45 ac 48 3a 85 16 be 38 fd 1d 08 39 c8 bb 08 3a
       0.00076550647 9.0641006e-05 0.00012981142 0.000521597
000370 61 a4 da 39 00 7e 8f 36 d7 b3 db 38 eb 87 94 3b
       0.00041702672 4.2764004e-06 0.000104762315 0.0045328042
000380 61 e7 85 3b 07 3a 31 3b ab 6d 4d 3b 5e 3b 0d 3a
       0.0040864204 0.0027042644 0.0031345885 0.00053875695
000390 3f 75 f1 39 ef 20 38 3a b5 0e bc 38 3f 02 05 38
       0.00046054457 0.00070239505 8.967278e-05 3.1711763e-05
0003a0 73 57 fc 39 2d d1 dd 39 50 4d cf 35 c1 9f 28 35
       0.0004813034 0.00042308253 1.5445203e-06 6.281735e-07
0003b0 7d 53 1c 36 3f fc 1b 36 3f b8 0e 36 bd 26 95 36
       2.3294408e-06 2.3243626e-06 2.1266894e-06 4.4450558e-06
0003c0 c9 f1 ca 34 74 cf dc 36 71 83 5a 33 e3 91 e9 36
       3.7801354e-07 6.5806616e-06 5.0876626e-08 6.9609246e-06
0003d0 40 fb e2 31 98 49 eb 36 e9 af 6a 30 99 82 eb 36
       6.6060295e-09 7.012113e-06 8.537869e-10 7.0187493e-06
0003e0 90 82 f2 2e f8 89 eb 36 d9 92 7a 2d f1 8a eb 36
       1.10280785e-10 7.0196074e-06 1.42434614e-11 7.0197207e-06
0003f0 95 6c 54 3c c0 8b 00 3b 4d d8 03 3b 6b 9a 13 3c
       0.012965341 0.0019614547 0.002011794 0.009008984

exp_avg f4 [108]
000000 bd 67 50 36 bf de b8 b7 04 38 0d b9 8a 4a 53 38
       3.10548e-06 -2.2038234e-05 -0.00013467675 5.037574e-05
000010 9a e4 b3 37 6d 36 b2 38 69 9f 0b b8 c9 c6 28 38
       2.1444914e-05 8.497839e-05 -3.3288645e-05 4.0239454e-05
000020 3a b4 5d b8 14 09 cc 37 e9 6e 28 b8 39 c3 47 38
       -5.2858355e-05 2.4322922e-05 -4.0157614e-05 4.7627113e-05
000030 6e e4 4b 37 89 57 4f b8 b5 dc 44 b8 88 ba ca b8
       1.2152928e-05 -4.943417e-05 -4.693559e-05 -9.666855e-05
000040 4e 23 c0 38 28 2f d6 b8 35 72 a4 38 92 0a 8a 38
       9.1618494e-05 -0.00010213099 7.841402e-05 6.582322e-05
000050 40 98 b3 b6 10 16 8b b7 87 23 fc 38 d8 9b 3a 38
       -5.35234e-06 -1.6580365e-05 0.00012022914 4.4490997e-05
000060 25 80 f5 b8 07 20 43 b8 ab e9 fc b7 c8 5a dd 37
       -0.00011706379 -4.652145e-05 -3.0149551e-05 2.6387526e-05
000070 eb 6f d3 b8 e1 8a 38 b6 69 99 41 38 50 bd d0 38
       -0.000100821104 -2.7498975e-06 4.615766e-05 9.953475e-05
000080 04 a0 3f 38 3a 0e 10 38 47 23 86 38 a0 e4 88 b7
       4.5686975e-05 3.4345525e-05 6.396189e-05 -1.6318925e-05
000090 22 46 09 b2 55 56 ef b1 5c ed 90 b1 74 16 d1 b1
       -7.990396e-09 -6.9656303e-09 -4.2179362e-09 -6.085253e-09
0000a0 01 b8 8a b2 7f 93 d7 31 ff 9e 19 b1 fb f9 9a 32
       -1.614899e-08 6.274092e-09 -2.235481e-09 1.8041638e-08
0000b0 4e fa 68 32 02 97 1a b0 67 c2 0a 32 74 77 5e 31
       1.356109e-08 -5.623947e-10 8.076859e-09 3.2373153e-09
0000c0 5d 1f 4a 32 4c 7c 33 b2 00 5e de b1 aa ce 00 32
       1.1765079e-08 -1.0447433e-08 -6.471737e-09 7.497571e-09
0000d0 8f a1 12 b2 13 31 ea b1 4d d4 69 31 62 f3 83 b2
       -8.535053e-09 -6.8158754e-09 3.4026642e-09 -1.5361085e-08
0000e0 db 81 4c b2 2b a1 35 32 2c 43 ce 31 c4 eb 10 31
       -1.19038885e-08 1.0572232e-08 6.0030256e-09 2.1088775e-09
0000f0 8b 88 7e b1 43 d5 6d 32 16 62 53 30 50 01 07 b2
       -3.703948e-09 1.3843706e-08 7.690074e-10 -7.858333e-09
000100 81 c3 0d b2 d7 b4 b7 32 44 14 90 31 8c b6 17 32
       -8.251733e-09 2.138624e-08 4.1932555e-09 8.830863e-09
000110 e7 03 e9 31 e1 b6 87 32 81 2a 08 32 d1 93 ff b1
       6.781636e-09 1.5799232e-08 7.925906e-09 -7.4382815e-09
000120 96 99 5e 3b 14 90 16 bc 65 bd 89 3c b6 94 3e bc
       0.0033966056 -0.009189624 0.016813943 -0.011632135
000130 ae a0 c1 3b dd 94 1f 3a 8f ad 29 3c 22 86 04 3c
       0.005909047 0.0006087551 0.010356321 0.00808862
000140 41 14 38 bc 3f ca a8 3c 44 06 30 3c 8b fd c6 bb
       -0.011235298 0.020604251 0.010743681 -0.006072705
000150 86 36 c0 3b ad c6 51 3c 44 a7 f3 bb 58 fe df 39
       0.0058658747 0.012803716 -0.007435711 0.00042723375
000160 d9 e5 80 bb 95 42 10 3c b5 09 ab bc 72 4c 88 bc
       -0.00393365 0.008804937 -0.020878652 -0.016638014
000170 73 12 bf 3b 80 6f 59 bc a7 d3 b7 bc 35 39 e2 bb
       0.0058310567 -0.013271213 -0.02243979 -0.0069037923
000180 7a 66 e4 3b 71 88 07 bc 8a ee 95 bc aa ac 54 3c
       0.006970224 -0.008272276 -0.01830222 0.012980619
000190 d1 af 78 3c 83 2f a6 3b 3c 9e e7 bb f1 86 8b b4
       0.015178637 0.005071582 -0.0070684236 -2.598895e-07
0001a0 d7 b8 c8 b9 90 de a8 bc ce 31 97 3b 45 6a 0d bb
       -0.0003828469 -0.020613939 0.0046140915 -0.0021578234
