SensorFormer/SensorFormer/result/individual/LCS0_11.pt (torch, 81661 bytes, 35 tensors)

self_attn.qkv_proj.weight f4 [108, 36]
0	0x3db53400	0.08847809
1	0xbd3494aa	-0.04408709
2	0x3d35bd24	0.04436983
3	0x3caee3b0	0.021348804
4	0x3e179ee4	0.14806706
5	0x3e320286	0.17383775
6	0xbd351eca	-0.044218816
7	0xbc95c02a	-0.018280108
8	0x3d615a62	0.055017836
9	0x3e494bc8	0.19657815
10	0xbe4d2fcd	-0.20037766
11	0xbde82d77	-0.11336797
12	0xbd5bfe10	-0.05370909
13	0xbcaa1b56	-0.020764988
14	0xbe5f34fd	-0.21797557
15	0x3ddd0653	0.10792222
16	0x3e0b9ead	0.13634749
17	0xbe153a0b	-0.14572923
18	0x3d4cc256	0.04999002
19	0x3e69d8bd	0.22836585
20	0xbe2cc805	-0.16873176
21	0xbdd82998	-0.105548084
22	0xbc7183e0	-0.014740914
23	0xbe207e71	-0.15673234
24	0xbd96b6f8	-0.07359117
25	0x3de716ca	0.112836435
26	0x3e2cb546	0.16866025
27	0x3e068873	0.13137989
28	0xbe4c6f07	-0.19964229
29	0x3e3de0c4	0.18542773
30	0x3cd2eaf8	0.025746807
31	0xbdb4384e	-0.08799802
32	0x3dc81f73	0.097716235
33	0xbe352351	-0.17689253
34	0x3d46f2d2	0.048571415
35	0xbe22adbb	-0.15886585
36	0xbd06cfe9	-0.032913122
37	0xbe32ed08	-0.17473233
38	0xbd9ea1fc	-0.0774574
39	0x3d6a60b6	0.057221137
40	0xbd12bb1a	-0.035822965
41	0x3dc24f4c	0.09487781
42	0xbc31075a	-0.010804975
43	0xbe203da7	-0.15648519
44	0xbd7746e1	-0.06037033
45	0x3d876499	0.06610984
46	0x3cfcce33	0.030860042
47	0x3dc8abd2	0.09798397
48	0xbe1635bc	-0.14668936
49	0xbdc742a4	-0.097295076
50	0x3c7864e7	0.015160776
51	0x3e020b7e	0.12699696
52	0xbe2fbaf1	-0.17161156
53	0x3e0c5073	0.13702564
54	0xbe08f54a	-0.1337482
55	0xbe6965b0	-0.22792697
56	0xbdbce7ad	-0.09223876
57	0xbd16f776	-0.03685709
58	0xbd4ddf8b	-0.050262015
59	0x3e441cec	0.19151658
60	0xbd4b77a3	-0.04967464
61	0xbe29d1f3	-0.16583996
62	0xbdb11fb8	-0.08648628
63	0xbda99b20	-0.08281541
64	0x3cb9a185	0.022660026
65	0xbe2423c7	-0.16029273
66	0xbd9ee36b	-0.0775822
67	0x3e46a948	0.19400513
68	0x3e55f9dd	0.20896097
69	0x3dea0856	0.11427371
70	0x3e489758	0.19588983
71	0xbe0d8f44	-0.13824183
72	0x3e205c33	0.15660171
73	0xbdc5604b	-0.09637507
74	0xbdfa7cee	-0.1223086
75	0xbe187e65	-0.14891966
76	0xbd490b75	-0.049083192
77	0x3c0a32ce	0.008434964
78	0xbe2816cf	-0.16414951
79	0xbde4ccda	-0.11171885
80	0x3dce8b0a	0.10085113
81	0x3e3e19c8	0.18564522
82	0xbd1a2163	-0.037629496
83	0x3dcc1e21	0.09966684
84	0x3e352b6d	0.17692347
85	0xbe198013	-0.14990263
86	0xbdc77c82	-0.09740545
87	0xbe1db660	-0.15401602
88	0xbe213002	-0.1574097
89	0x3e2c8532	0.16847685
90	0x3d7008e6	0.058602236
91	0x3dd2f407	0.10300451
92	0x3e0b678c	0.13613719
93	0xbe1b5bb6	-0.15171704
94	0x3e120b3c	0.14262098
95	0x3e2f1235	0.17096789
96	0x3dfeae54	0.12435594
97	0x3d641ccd	0.05569153
98	0x3c1ae7f8	0.00945472
99	0xbd825ee9	-0.06365759
100	0xbdf19d8d	-0.117976286
101	0x3e31387e	0.17306706
102	0x3c0bdb90	0.0085362345
103	0x3e40a26c	0.18811959
104	0x3b4c8783	0.00312087
105	0xbda7b885	-0.08189491
106	0xbe5c41b0	-0.21509433
107	0xbde3cec5	-0.111234225
108	0x3db7f491	0.08982194
109	0xbe10fb1b	-0.14158289
110	0xbbbcc9e7	-0.0057613733
111	0xbd386241	-0.045015577
112	0x3e18b5d0	0.14913106
113	0x3c63d0f5	0.0139048
114	0x3dc897d3	0.09794583
115	0x3e31d6d6	0.1736711
116	0xbe2c80b2	-0.16845968
117	0xbe37aa3a	-0.1793603
118	0xbe1586c0	-0.14602184
119	0xbcc9be3d	-0.024626845
120	0x3d63ae48	0.05558613
121	0xbe3932a1	-0.1808572
122	0x3cea727c	0.028619044
123	0x3dc244f2	0.094858065
124	0x3dd78abd	0.10524509
125	0x3ddcc611	0.10779966
126	0x3dc91a6f	0.09819495
127	0x3d3c2525	0.04593386
128	0xbd490d8d	-0.04908519
129	0xbd1f1371	-0.0388369
130	0x3e6b5ab3	0.22983818
131	0x3d4434ae	0.0479018
132	0x3c29cdfc	0.010364052
133	0x3d85880a	0.06520088
134	0xbd2da5d5	-0.042394478
135	0xbdd05cdd	-0.10173962
136	0x3e0ed9b5	0.13950236
137	0x3e33fc26	0.17576656
138	0x3ddc5880	0.107590675
139	0x3d597b05	0.053095836
140	0x3e1be99d	0.15225835
141	0xbb208917	-0.0024495774
142	0x3da2120d	0.07913599
143	0x3e39feb4	0.18163568
144	0xbdcf9368	-0.101355374
145	0xbccd66cb	-0.02507343
146	0x3c746d7d	0.014918682
147	0x3c28fab6	0.01031368
148	0xbdb4a007	-0.08819585
149	0x3e03ff4f	0.12890361
150	0x3e1eaab1	0.15494801
151	0xbe2a11fd	-0.16608424
152	0x3dd81d8e	0.10552512
153	0x3dfac4d3	0.122445725
154	0xbe2550fc	-0.16144174
155	0x3ca3bfb8	0.01998888
156	0x3be0d265	0.0068610185
157	0xbc5b355e	-0.013379423
158	0x3cc7625a	0.02433889
159	0xbe385fb1	-0.18005253
160	0xbe545caf	-0.20738481
161	0xbdf7c93e	-0.12098931
162	0x3e1a1fe7	0.15051232
163	0xbd261f27	-0.040557053
164	0x3e31008c	0.17285365
165	0x3e2be1f7	0.16785417
166	0xbd78a379	-0.060702775
167	0xbc39c382	-0.011338117
168	0xbe272292	-0.16321781
169	0xbdda9a08	-0.106739104
170	0x3d59326b	0.053026598
171	0x3c8b4f2d	0.017005527
172	0xbe317aa6	-0.17331943
173	0x3e03d4d2	0.12874153
174	0xbd993695	-0.07481114
175	0x3d03a87e	0.03214311
176	0x3e2ee0d1	0.17077948
177	0xbe18fd97	-0.14940487
178	0xbe30cf5d	-0.17266603
179	0x3d8689ce	0.06569253
180	0xbda92318	-0.08258647
181	0xbdee49a5	-0.1163514
182	0x3d9fbc0d	0.0779954
183	0xbe2a8fcc	-0.16656417
184	0xbe09fa7a	-0.13474455
185	0x3cd11cc1	0.025526406
186	0xbd955f83	-0.07293608
187	0x3d4fc574	0.050725415
188	0xbe237be5	-0.15965231
189	0x3e335bb2	0.17515448
190	0xbe56c870	-0.20974898
191	0x3cd6cc3c	0.026220433
192	0x3dcbd7a0	0.099532366
193	0x3e1f0ae1	0.15531494
194	0xbe472433	-0.19447403
195	0x3db749df	0.08949637
196	0xbe3a3bad	-0.18186827
197	0x3e3dc82a	0.18533388
198	0x3db17fbd	0.08666942
199	0x3e3939db	0.18088476
200	0x3e099f95	0.13439782
201	0x3d128e20	0.035780072
202	0x3d832406	0.06403355
203	0xbe07e2ce	-0.13270113
204	0x3e357112	0.17718914
205	0x3d9a019b	0.075198375
206	0xbdfb7fe5	-0.12280253
207	0x3da938a8	0.082627594
208	0x3df2a519	0.11847896
209	0x3dff7aa3	0.12474563
210	0x3e09e2d4	0.13465434
211	0xbe0e8479	-0.13917722
212	0xbe5104a6	-0.2041193
213	0x3dfda32c	0.12384638
214	0xba852701	-0.0010158719
215	0x3e3f5e27	0.1868826
216	0xbe09a439	-0.13441552
217	0xbd3e3cbf	-0.04644465
218	0xbe3a15c5	-0.18172367
219	0xbd988147	-0.07446533
220	0x3e166869	0.14688267
221	0x3dd33c76	0.103142664
222	0x3e2a6ba7	0.16642629
223	0x3da619b2	0.0811037
224	0x3c072841	0.008249343
225	0xbae66798	-0.0017578481
226	0x3e3e7820	0.18600512
227	0xbda6c9d7	-0.08143967
228	0xbe338420	-0.1753087
229	0x3d9f21a3	0.077700876
230	0xbe23cd2d	-0.15996237
231	0x3e439a8d	0.19101925
232	0xbbedc9fc	-0.0072567444
233	0xbbaf72bb	-0.005354253
234	0xbd86633c	-0.06561896
235	0xbe17b720	-0.1481595
236	0x3c8de7b8	0.017322406
237	0x3d1f8a45	0.038950223
238	0x3ba6c095	0.0050888755
239	0xbe10ebf8	-0.14152515
240	0x3cb5af60	0.022178352
241	0x3c321920	0.010870248
242	0x3e2cc61f	0.16872452
243	0x3d4a7bd0	0.049434483
244	0x3e1edba2	0.15513471
245	0x3d448bbb	0.04798482
246	0x3e30bbbd	0.17259116
247	0x3d39e746	0.045386575
248	0xbd6f9726	-0.058493756
249	0xbd77fb59	-0.06054244
250	0x3ce34bc6	0.027746093
251	0x3e55f6d1	0.20894934
252	0x3c9ff2ed	0.019525016
253	0xbe4eda29	-0.20200409
254	0xbdcda240	-0.10040712
255	0xbe16ce16	-0.14727053

self_attn.qkv_proj.bias f4 [108]
0	0xbc617794	-0.01376142
1	0x3c7df84f	0.015501096
2	0xbc44067a	-0.011964435
3	0x3bfdc83e	0.007744818
4	0x3c472c90	0.012156621
5	0xbc45ac5e	-0.012065021
6	0x3c420f25	0.011844431
7	0x3c7c00b8	0.015381031
8	0xbc0b2452	-0.008492546
9	0x394dee21	0.00019639033
10	0xbc61202c	-0.0137405805
11	0xbc9e4601	-0.01932049
12	0x3c6f14a1	0.014592321
13	0x3c7fff72	0.015624868
14	0xbc43fcf1	-0.011962161
15	0xbc5fd122	-0.013660701
16	0x3c7a6e5d	0.015285102
17	0xbc59c6db	-0.01329204
18	0x3c4d24ad	0.012520951
19	0xbc1f223c	-0.009712752
20	0xbc69f1b2	-0.014278816
21	0x3bfb101a	0.0076618316
22	0x3c4500e5	0.012024139
23	0xbc507d81	-0.012725235
24	0xbc770af0	-0.015078291
25	0xbc70ffc1	-0.014709414
26	0x3c590fe5	0.013248418
27	0x3bdb744b	0.006697213
28	0xbc956500	-0.018236637
29	0xbc26bb64	-0.010176513
30	0x3c6f17f0	0.0145931095
31	0xbc770ef1	-0.015079246
32	0x3c4b6e3e	0.0124164205
33	0x3b6c88d5	0.00360923
34	0xbc7443f3	-0.0149087785
35	0x3c541a44	0.012945715
36	0x3cac3fd1	0.021026524
37	0xbcaed51d	-0.021341855
38	0x3c0fcab7	0.008776358
39	0xbc6fc304	-0.014633898
40	0x3c108067	0.008819676
41	0xbc08e9b0	-0.008356497
42	0xbca49c28	-0.020093992
43	0xbc97d8e6	-0.018536042
44	0xbb56d3ff	-0.0032780168
45	0x3ccf4121	0.02529961
46	0xbcb16bfe	-0.02165794
47	0xbc6b9ebf	-0.01438111
48	0xbcc6a2ec	-0.02424761
49	0xbcb592e0	-0.022164762
50	0xbc12f2f9	-0.008969062
51	0xbbbcdd03	-0.0057636513
52	0x3c1d9104	0.009617094
53	0x3cb950b8	0.022621498
54	0xbcba3b4f	-0.022733359
55	0xba921ea9	-0.0011148053
56	0x3cc10c14	0.02356533
57	0xbcb21ea6	-0.02174313
58	0xbcc693b5	-0.024240354
59	0x3ca40e1b	0.020026257
60	0x3cbefd27	0.023314072
61	0x3c1ba272	0.009499179
62	0x3c84de77	0.01621936
63	0xbc96ce95	-0.018409053
64	0x3c957c30	0.018247694
65	0x3c47bd16	0.012191078
66	0xbc7c047f	-0.015381931
67	0x3cab7d47	0.02093376
68	0xbc9af6d0	-0.018916517
69	0xbcab3612	-0.020899806
70	0x3c929fe3	0.017898506
71	0x3c3ba07b	0.011451836
72	0x3d8e45dc	0.06946918
73	0xbdae2e35	-0.08504907
74	0x3d2a4db6	0.041578017
75	0x3bebb10e	0.0071927374
76	0xbd178f39	-0.037001822
77	0x3d8dd38d	0.06925116
78	0x3d99e59c	0.07514498
79	0xbd9ae753	-0.07563653
80	0x3d33b348	0.043872148
81	0xbd6af998	-0.057366937
82	0xbd84eb9c	-0.064902514
83	0xbd65e674	-0.05612798
84	0xbdb9cfd9	-0.09072847
85	0x3b84c07d	0.0040512667
86	0xbd8c7ab2	-0.0685934
87	0x3d1b650a	0.037938155
88	0xbdb54a68	-0.088520825
89	0xbd048ca6	-0.032360695
90	0xbd8f2d79	-0.06991095
91	0xbda29168	-0.0793789
92	0xbb2da048	-0.002649324
93	0xbe19dfdf	-0.15026806
94	0xbd2fe180	-0.042939663
95	0xbdf422f2	-0.11920728
96	0xbcb9a604	-0.02266217
97	0xbd0e8a3a	-0.034799792
98	0x3d418aec	0.047251627
99	0xbdec50bc	-0.11538836
100	0x3bb14e9e	0.005410983
101	0x3d9822eb	0.07428535
102	0xbd60f295	-0.054918844
103	0x3dad8f75	0.08474628
104	0x3d7a6c8e	0.061138682
105	0x3cbdce76	0.023169737
106	0x3d40a9a5	0.047036786
107	0x3e009085	0.1255513

self_attn.o_proj.weight f4 [36, 36]
0	0xbe8512ec	-0.25991
1	0xbe03aa44	-0.1285792
2	0x3d16eb45	0.036845464
3	0xbe58dc00	-0.21177673
4	0xbdaea301	-0.08527184
5	0x3e19ec50	0.15031552
6	0xbea364d8	-0.31912875
7	0x3e8ea29d	0.2785844
8	0xbe637e17	-0.22216068
9	0x3e0289d8	0.12747896
10	0x3e7816ab	0.24227397
11	0x3d308d8e	0.043103747
12	0x3cace2e4	0.021104284
13	0xbe33cbf2	-0.17558268
14	0x3daf0a18	0.08546847
15	0x3d303de1	0.043027762
16	0x3a225c39	0.0006193552
17	0xbd9b1c4a	-0.07573755
18	0x3d5eb0a1	0.054367665
19	0x3dc733b3	0.09726658
20	0x3de9f32d	0.11423335
21	0xbe68b573	-0.22725467
22	0xbe2cd264	-0.16877133
23	0xbc641ba2	-0.013922604
24	0x3de73e1e	0.11291145
25	0xbe862245	-0.2619802
26	0xbdbd46c8	-0.09242016
27	0x3e958307	0.29201528
28	0xbda9581f	-0.08268761
29	0x3d49e5cf	0.04929143
30	0xbdca3561	-0.098734625
31	0xbd86d4fc	-0.06583592
32	0x3d60fda5	0.054929394
33	0xbe24a0b1	-0.16076924
34	0x3d6682ba	0.056277014
35	0xbe29cdb5	-0.16582377
36	0x3defab70	0.11702621
37	0xbe9e1c30	-0.3088088
38	0xbd148147	-0.0362561
39	0xbe88591c	-0.26630485
40	0xbe559cce	-0.20860597
41	0xbdf6c28f	-0.12048828
42	0x3e6173bd	0.22016807
43	0xbe85451f	-0.26029298
44	0x3e7367dc	0.23770088
45	0x3d705353	0.058673214
46	0xbde8aa2e	-0.11360584
47	0x3da20ef6	0.0791301
48	0x3d43e3ad	0.04782455
49	0xbe8e6009	-0.27807644
50	0xbdf7b446	-0.12094931
51	0x3e2e1eb5	0.17003901
52	0x3da8f037	0.08248942
53	0x3e183740	0.14864826
54	0x3c2fa54c	0.010720562
55	0xbe928b91	-0.28622106
56	0x3c297ca9	0.010344663
57	0x3e42bda5	0.19017656
58	0x3de27f51	0.1105944
59	0xbe3d2c2a	-0.18473879
60	0xbd2ea42d	-0.04263704
61	0xbe4c5942	-0.19955924
62	0x3e39d448	0.18147385
63	0x3dcb13e1	0.09915901
64	0xbc4ec46a	-0.012620071
65	0x3ea7a082	0.32739645
66	0x3dcca1a6	0.099917695
67	0x3d077c0b	0.03307728
68	0x3d53d296	0.051714502
69	0xbe4ab7b0	-0.19796634
70	0xbe6b6c19	-0.22990455
71	0x3e38929a	0.18024674
72	0xbeb4d744	-0.35320485
73	0x3d5429a2	0.051797517
74	0x3d922e37	0.07137721
75	0xbde1f1d2	-0.11032452
76	0xbd8a4131	-0.067507155
77	0x3e4ee671	0.20205094
78	0x3e2c9882	0.16855052
79	0x3e04dfbd	0.12975974
80	0x3e3b2f82	0.18279842
81	0xbcda95e5	-0.026682803
82	0x3d36a639	0.044592116
83	0x3d560f2c	0.052260563
84	0x3e9f0db7	0.3106515
85	0x3ea2b05b	0.31775174
86	0x3e938bf0	0.288177
87	0xbd5f8541	-0.05457044
88	0x3de78c14	0.11306015
89	0x3e63a5c2	0.222312
90	0x3cf68c47	0.030096186
91	0xbd1d2b54	-0.0383714
92	0x3d330519	0.043706033
93	0x3dab8af9	0.08376116
94	0xbb9f8edc	-0.004869325
95	0x3e6cd038	0.23126304
96	0xbe27ec51	-0.16398741
97	0xbe89c866	-0.26910704
98	0xbc5423a2	-0.012947949
99	0x3e5aba00	0.21360016
100	0x3c690a9b	0.01422372
101	0x3d1e869a	0.038702585
102	0x3e9eb54e	0.309977
103	0xbe565715	-0.20931657
104	0xbea701c0	-0.32618523
105	0xbd09da87	-0.03365567
106	0xbe54e72a	-0.20791307
107	0x3d78c821	0.060737733
108	0xbd515567	-0.051106837
109	0xbd8ad294	-0.06778446
110	0x3e0c3ae8	0.13694346
111	0xbe326a48	-0.17423356
112	0xbe92b0ba	-0.28650457
113	0x3e006ad5	0.12540753
114	0x3c05bf44	0.008163277
115	0xbe4c264f	-0.19936489
116	0xbe3ab4be	-0.1823301
117	0xbc280b38	-0.010256581
118	0xbe27971b	-0.16366236
119	0x3d9ae551	0.0756327
120	0xbded0f1a	-0.11575146
121	0xbdba7de8	-0.09106046
122	0x3e5ab056	0.2135633
123	0x3c85c39f	0.016328631
124	0xbeabb1f7	-0.33534214
125	0x3e438e8f	0.1909735
126	0xbc218f00	-0.009860754
127	0xbe83a313	-0.25710353
128	0x3c746d7d	0.014918682
129	0x3dcb8b02	0.09938623
130	0xbe2f563d	-0.17122741
131	0xbe84b548	-0.25919557
132	0x3d7cd6f0	0.061728418
133	0x3ca164e0	0.019701421
134	0x3d791e51	0.060819928
135	0x3d1b7478	0.03795287
136	0x3d7e0684	0.062017933
137	0x3e38ba28	0.18039763
138	0x3e448969	0.19193043
139	0x3ea3710e	0.3192219
140	0x3e45947c	0.19294924
141	0x3e103fb0	0.14086795
142	0x3c29a0f4	0.010353316
143	0x3e2a98dc	0.16659874
144	0x3d831ffc	0.06402585
145	0xbe49bf61	-0.19701912
146	0xbea8bc7e	-0.32956308
147	0x3e05fdbe	0.13085076
148	0x3e115432	0.14192274
149	0xbea34f70	-0.31896544
150	0x3dd4979a	0.10380478
151	0x3e6cdc9e	0.23131034
152	0xbe39a5d1	-0.1812966
153	0x3e3a6c40	0.18205357
154	0xbe28afd0	-0.16473317
155	0x3e839850	0.25702143
156	0x3e3995a6	0.18123493
157	0x3e8f07ef	0.2793574
158	0x3db05997	0.08610838
159	0xbe0a8d40	-0.13530445
160	0xbdb8c39f	-0.09021687
161	0xbe2c254f	-0.16811107
162	0xbe05fa28	-0.13083708
163	0xba822d41	-0.00099317
164	0x3e912da2	0.28355128
165	0x3e35b440	0.17744541
166	0xbdd6b34c	-0.10483417
167	0x3ddfb384	0.10922912
168	0x3e885c8f	0.26633117
169	0x3c8250ed	0.015907729
170	0x3a34ff07	0.0006904457
171	0x3d236a73	0.03989644
172	0xbda4357a	-0.08018012
173	0xbe3ae386	-0.18250856
174	0xbb1c44e4	-0.0023844773
175	0xbea42319	-0.32058027
176	0xbe472584	-0.19447905
177	0x3e777ea1	0.24169399
178	0x3df671cd	0.120334245
179	0xbdff6f59	-0.1247241
180	0xbae73bb6	-0.0017641697
181	0x3dca553c	0.098795384
182	0xbdd8bb60	-0.10582614
183	0xbdceb185	-0.10092453
184	0xbe75fb2c	-0.24021596
185	0xbe5f656b	-0.21816032
186	0xbe669b9c	-0.22520298
187	0x3c8226f7	0.01588772
188	0xbe811011	-0.2520757
189	0x3e459dc0	0.19298458
190	0x3d8fbd2a	0.07018502
191	0x3e17827a	0.14795867
192	0x3de5e48b	0.11225232
193	0xbe59e0e6	-0.21277198
194	0x3e41fb9a	0.18943635
195	0xbe2856e0	-0.1643939
196	0xbe0e0da9	-0.13872398
197	0x3e28859e	0.16457221
198	0x3e9edf03	0.3102952
199	0xbe21c079	-0.15796079
200	0xbdcb7c0b	-0.09935769
201	0x3e8f98b6	0.28046197
202	0xbe37b12f	-0.17938684
203	0x3c6d4a2b	0.014483015
204	0xbd146ec5	-0.03623845
205	0x3e2ccf58	0.1687597
206	0xbe3824ea	-0.17982832
207	0x3e9e3ac4	0.3090421
208	0x3d000f4d	0.031264592
209	0xbeb69910	-0.35663652
210	0x3e1c129c	0.15241474
211	0xbe9e7f7b	-0.30956635
212	0xbe73e1bc	-0.2381658
213	0xbe44ce51	-0.19219328
214	0x3e5d9465	0.2163864
215	0xbe4349a6	-0.19071063
216	0x3e152d4c	0.1456806
217	0xbe205804	-0.15658575
218	0x3e537c4b	0.20652883
219	0x3e1cc360	0.15308905
220	0xbb9248f1	-0.0044642617
221	0xbe094787	-0.13406192
222	0xbe0f87b7	-0.14016615
223	0xbe8730f6	-0.26404542
224	0x3c298347	0.01034624
225	0x3e0664b1	0.13124348
226	0xbdf9f129	-0.12204201
227	0xbdfcae5d	-0.12337945
228	0xbeab45fc	-0.3345183
229	0xbc464f1d	-0.012103823
230	0xbe7f22a0	-0.24915552
231	0xbdbde669	-0.09272463
232	0xbe258602	-0.16164401
233	0x3e537044	0.20648295
234	0x3dd1def4	0.10247603
235	0xbe638dcf	-0.22222064
236	0xbe98db24	-0.2985469
237	0xbc299460	-0.010350317
238	0xbe7de35b	-0.2479376
239	0x3dcd205e	0.10015939
240	0xbeb1ecf5	-0.34751096
241	0xbd7c3e41	-0.061582807
242	0x3d510c7e	0.051037304
243	0x3e113cb7	0.14183317
244	0x3d85f45f	0.06540751
245	0x3e4ba0a9	0.19885506
246	0xbe4214c8	-0.1895324
247	0x3d533dec	0.051572725
248	0xbd382b1a	-0.04496298
249	0x3c2b308a	0.010448584
250	0x3e99ec7c	0.30063236
251	0xbdc4fb5a	-0.09618254
252	0x3e6151db	0.22003882
253	0x3e498b25	0.19681986
254	0x3e5f7127	0.21820508
255	0xbde94a12	-0.11391081

self_attn.o_proj.bias f4 [36]
0	0xbd13f68f	-0.03612381
1	0x3d569c82	0.05239535
2	0xbd831c8c	-0.06401929
3	0x3d338a63	0.043833148
4	0xbd8cc7fb	-0.06874081
5	0xbd8b987c	-0.068161935
6	0x3d931253	0.071812294
7	0xbd782c59	-0.06058917
8	0x3daf7596	0.085673496
9	0x3d960a62	0.07326199
10	0x3dd8ed5c	0.10592148
11	0xbd8f9bae	-0.070121154
12	0xbd4d0439	-0.050052855
13	0xbbaaa082	-0.0052071223
14	0xbc8ae531	-0.01695499
15	0xb9873828	-0.00025791046
16	0x3b90abf2	0.0044150287
17	0x3c054d3b	0.008136089
18	0x3d552cf9	0.052044842
19	0x3d5140e5	0.05108728
20	0x3ce91cfe	0.028456207
21	0xbd8ba2bd	-0.06818149
22	0xbc83f467	-0.016107751
23	0xbd579b99	-0.052638624
24	0xbd608d31	-0.05482215
25	0xbd33810a	-0.043824233
26	0x3d2eedce	0.042707257
27	0xbd8e77ff	-0.06956481
28	0x3c69480a	0.014238367
29	0x3cb9178e	0.02259424
30	0x3d3de110	0.046357214
31	0x3d5f9231	0.05458278
32	0x3d36657c	0.044530377
33	0xbc29aba1	-0.010355861
34	0x3d6e5b4f	0.058192547
35	0xbcd5bd62	-0.026091281

fc.weight f4 [1, 18]
0	0x3e30c049	0.17260851
1	0xbe307948	-0.17233765
2	0x3e4f225d	0.20227952
3	0x3e34cc1a	0.17655984
4	0xbc6e9149	-0.014561006
5	0x3e04e1a2	0.12976697
6	0x3c12f671	0.008969889
7	0x3e658893	0.2241538
8	0x3d0a68db	0.033791404
9	0x3e6f6448	0.23378098
10	0x3d66f1d1	0.056382958
11	0xbd3fe235	-0.046846587
12	0x3d86e1ad	0.06586013
13	0x3de20889	0.11036784
14	0x3e3bbb1e	0.18333098
15	0x3c0dcb17	0.008654377
16	0xbe47f4e2	-0.19527009
17	0x3d8acae5	0.0677698

fc1.weight f4 [1, 36]
0	0xbf2b13c2	-0.66827023
1	0x3f307ea2	0.68943226
2	0xbf23e8a1	-0.6402684
3	0x3f3228d4	0.6959355
4	0xbf2ce2f6	-0.67533815
5	0xbf382104	-0.7192538
6	0x3f2dc7bf	0.67882913
7	0xbf2dc1d2	-0.6787387
8	0x3eeb4f6e	0.45959038
9	0x3eb89345	0.36049858
10	0x3f31b8c7	0.6942257
11	0xbf2ee0cb	-0.68311757
12	0xbf24f097	-0.6442961
13	0xbf2876d6	-0.6580633
14	0x3e099828	0.13436949
15	0x3f162924	0.58656526
16	0x3f29da8a	0.6634909
17	0x3ef93395	0.48672166
18	0x3f340290	0.7031641
19	0x3f2c11b3	0.67214507
20	0x3f2ca215	0.6743482
21	0xbf403eac	-0.7509563
22	0x3f250589	0.6446157
23	0xbf3a312b	-0.72731274
24	0xbf3b9485	-0.732735
25	0xbf355658	-0.70834875
26	0x3f39cf67	0.72582096
27	0xbf31f17f	-0.6950912
28	0x3f31de51	0.6947985
29	0x3f36763e	0.71274173
30	0x3f38d395	0.7219785
31	0x3f3115fb	0.69174165
32	0x3f2dfcd5	0.67963916
33	0xbf2ce3f4	-0.6753533
34	0x3f27f416	0.6560682
35	0xbf2f9a8c	-0.68595195

fc2.weight f4 [1, 9]
0	0xbe9b5be3	-0.30343542
1	0x3e37164e	0.17879602
2	0xbe473e48	-0.19457352
3	0x3db6386b	0.088974796
4	0xbe88aaf8	-0.2669294
5	0x3d908646	0.070568606
6	0xbc08f0ab	-0.008358161
7	0x3e8502e8	0.2597878
8	0x3e7ed196	0.24884638

fc3.weight f4 [1, 2]
0	0x3f2fa109	0.68605095
1	0x3f34968d	0.7054222

input_fc.weight f4 [18, 3]
0	0xbecdc79f	-0.4019136
1	0xbe196ce5	-0.14982946
2	0xbe93543e	-0.2877521
3	0xbe563fbb	-0.20922749
4	0xbe5cb102	-0.21551898
5	0x3d3fb45a	0.046802856
6	0x3e338673	0.17531757
7	0xbed9cc87	-0.42538854
8	0x3d1e2fdc	0.03861986
9	0xbeb92ce2	-0.36167055
10	0xbe8b7a2d	-0.2724165
11	0xbde6dcd5	-0.11272589
12	0x3b4d59dd	0.003133408
13	0xbed3474b	-0.4126533
14	0x3eac9f92	0.33715492
15	0x3bd97138	0.006635811
16	0x3d9089c0	0.07057524
17	0x3ebfe9b9	0.37483004
18	0x3e58ada7	0.21159993
19	0xbed7e456	-0.42166394
20	0xbefd92e6	-0.49526137
21	0xbefd5fec	-0.49487245
22	0xbe6d1b75	-0.23155005
23	0x3e9c824b	0.30568156
24	0x3ca9e400	0.020738602
25	0xbf0865c9	-0.5328031
26	0xbf0c4519	-0.54792935
27	0xbe8e9e45	-0.27855125
28	0x3de32314	0.11090675
29	0x3c7dbb8d	0.01548661
30	0x3eb46ff8	0.35241675
31	0x3eef7c21	0.4677439
32	0xbe63d6a2	-0.22249845
33	0xbd45ab65	-0.048259158
34	0x3dedbf69	0.11608774
35	0x3e92a327	0.286401
36	0xbe6dcfb1	-0.23223759
37	0x3e7c9662	0.24666741
38	0x3e63acf3	0.22233944
39	0xbd1492dc	-0.03627287
40	0xbeac0a01	-0.33601382
41	0xbc0a4500	-0.008439302
42	0x3f0c223b	0.5473973
43	0x3e827052	0.2547632
44	0x3d18c2cf	0.03729516
45	0x3efc42a6	0.492696
46	0xbeb018b4	-0.34393847
47	0x3e90ec66	0.28305358
48	0x3c6b5eef	0.014365896
49	0xbe035f7f	-0.12829398
50	0xbde1d020	-0.11026025
51	0x3c2d5543	0.01057941
52	0x3f0e539c	0.5559633
53	0xbe2b4f9c	-0.16729587

input_fc.bias f4 [18]
0	0xbefdb9b7	-0.49555752
1	0x3edb74e5	0.4286262
2	0xbd1b8b6c	-0.03797476
3	0x3eaa164c	0.33220136
4	0x3f19ac5b	0.6002862
5	0x3e8f4c7f	0.2798805
6	0xbeae79b0	-0.34077215
7	0x3def1750	0.116743684
8	0x3ec6b841	0.3881245
9	0xbeffdeb9	-0.4997461
10	0xbebebec4	-0.37254918
11	0x3ef8e931	0.4861541
12	0xbef5d663	-0.48015127
13	0x3ef923d6	0.48660153
14	0x3bccd626	0.0062511144
15	0xbee7bb8f	-0.45260283
16	0x3ecd7a43	0.4013234
17	0x3ed47063	0.41491994

norm.weight f4 [36]
0	0x3f800000	1.0
1	0x3f800000	1.0
2	0x3f800000	1.0
3	0x3f800000	1.0
4	0x3f800000	1.0
5	0x3f800000	1.0
6	0x3f800000	1.0
7	0x3f800000	1.0
8	0x3f800000	1.0
9	0x3f800000	1.0
10	0x3f800000	1.0
11	0x3f800000	1.0
12	0x3f800000	1.0
13	0x3f800000	1.0
14	0x3f800000	1.0
15	0x3f800000	1.0
16	0x3f800000	1.0
17	0x3f800000	1.0
18	0x3f800000	1.0
19	0x3f800000	1.0
20	0x3f800000	1.0
21	0x3f800000	1.0
22	0x3f800000	1.0
23	0x3f800000	1.0
24	0x3f800000	1.0
25	0x3f800000	1.0
26	0x3f800000	1.0
27	0x3f800000	1.0
28	0x3f800000	1.0
29	0x3f800000	1.0
30	0x3f800000	1.0
31	0x3f800000	1.0
32	0x3f800000	1.0
33	0x3f800000	1.0
34	0x3f800000	1.0
35	0x3f800000	1.0

norm.bias f4 [36]
0	0x00000000	0.0
1	0x00000000	0.0
2	0x00000000	0.0
3	0x00000000	0.0
4	0x00000000	0.0
5	0x00000000	0.0
6	0x00000000	0.0
7	0x00000000	0.0
8	0x00000000	0.0
9	0x00000000	0.0
10	0x00000000	0.0
11	0x00000000	0.0
12	0x00000000	0.0
13	0x00000000	0.0
14	0x00000000	0.0
15	0x00000000	0.0
16	0x00000000	0.0
17	0x00000000	0.0
18	0x00000000	0.0
19	0x00000000	0.0
20	0x00000000	0.0
21	0x00000000	0.0
22	0x00000000	0.0
23	0x00000000	0.0
24	0x00000000	0.0
25	0x00000000	0.0
26	0x00000000	0.0
27	0x00000000	0.0
28	0x00000000	0.0
29	0x00000000	0.0
30	0x00000000	0.0
31	0x00000000	0.0
32	0x00000000	0.0
33	0x00000000	0.0
34	0x00000000	0.0
35	0x00000000	0.0

norm1.weight f4 [9]
0	0x3f800000	1.0
1	0x3f800000	1.0
2	0x3f800000	1.0
3	0x3f800000	1.0
4	0x3f800000	1.0
5	0x3f800000	1.0
6	0x3f800000	1.0
7	0x3f800000	1.0
8	0x3f800000	1.0

norm1.bias f4 [9]
0	0x00000000	0.0
1	0x00000000	0.0
2	0x00000000	0.0
3	0x00000000	0.0
4	0x00000000	0.0
5	0x00000000	0.0
6	0x00000000	0.0
7	0x00000000	0.0
8	0x00000000	0.0

norm2.weight f4 [9]
0	0x3f800000	1.0
1	0x3f800000	1.0
2	0x3f800000	1.0
3	0x3f800000	1.0
4	0x3f800000	1.0
5	0x3f800000	1.0
6	0x3f800000	1.0
7	0x3f800000	1.0
8	0x3f800000	1.0

norm2.bias f4 [9]
0	0x00000000	0.0
1	0x00000000	0.0
2	0x00000000	0.0
3	0x00000000	0.0
4	0x00000000	0.0
5	0x00000000	0.0
6	0x00000000	0.0
7	0x00000000	0.0
8	0x00000000	0.0

m.running_mean f4 [12]
0	0xc11b8356	-9.719564
1	0xc11b1a46	-9.693914
2	0xc11b5dae	-9.710371
3	0xc11be7ca	-9.744089
4	0xc11c2cd9	-9.760949
5	0xc11bef16	-9.745871
6	0xc11b7c75	-9.717885
7	0xc11b5a91	-9.709611
8	0xc11bd146	-9.738592
9	0xc11c9572	-9.786486
10	0xc11d1627	-9.817908
11	0xc11cf2ab	-9.809245

m.running_var f4 [12]
0	0x4502fb7b	2095.7175
1	0x45031bcd	2097.7375
2	0x45031fb3	2097.9812
3	0x450309f1	2096.6213
4	0x45030a6c	2096.6514
5	0x450331f3	2099.1218
6	0x4503742a	2103.2603
7	0x45039b31	2105.6995
8	0x450395ae	2105.355
9	0x45036201	2102.1252
10	0x4503344a	2099.268
11	0x45032b90	2098.7227

linear_net.0.weight f4 [9, 18]
0	0x3d89f084	0.06735328
1	0xbe39e75a	-0.1815466
2	0x3de4c2e5	0.11169986
3	0xbcf98925	-0.030460903
4	0x3dd642a8	0.104619324
5	0xbde89430	-0.113563895
6	0xbd7b76cc	-0.06139259
7	0xbe616585	-0.22011383
8	0x3d960bb1	0.07326449
9	0xbd71066f	-0.058844026
10	0x3bd151f7	0.006387945
11	0xbdc15bec	-0.09441361
12	0xbbb6196e	-0.0055572307
13	0x3d3585da	0.044317104
14	0x3e3c64d4	0.18397838
15	0x3d022edb	0.031782966
16	0x3e07f740	0.13277912
17	0xbdc4ee72	-0.09615792
18	0x3e03fa76	0.12888512
19	0xbdf5ab2f	-0.11995541
20	0xbe19dfc5	-0.15026768
21	0x3cfba56f	0.030718533
22	0x3e52587f	0.20541571
23	0x3e1c7cc2	0.15281966
24	0x3c9deb5b	0.019277265
25	0xbd3f38ae	-0.046684913
26	0x3e64a1de	0.22327372
27	0xbce32785	-0.027728805
28	0xbd9ea1e5	-0.07745723
29	0x3df233e9	0.11826307
30	0x3d86aa6e	0.06575476
31	0xbe45eea2	-0.19329312
32	0x3ddd0f82	0.107939735
33	0x3d5c30e0	0.05375755
34	0xbe233353	-0.15937547
35	0xbd8df9ce	-0.06932412
36	0xbdd273de	-0.10276006
37	0xbddd8953	-0.10817208
38	0x3d0fc49d	0.035099614
39	0x3da9e3d7	0.0829541
40	0x3dd01a07	0.10161214
41	0xbe4a2012	-0.19738796
42	0xbdeb1651	-0.11478866
43	0x3dd833db	0.10556766
44	0xbe10fe08	-0.14159405
45	0xbd83571b	-0.064130984
46	0x3d72b124	0.059250966
47	0x3df98d9c	0.12185213
48	0x3de3cb42	0.11122753
49	0x3dde20ff	0.10846137
50	0xbdec0d3a	-0.1152596
51	0xbe1144a0	-0.14186335
52	0xbdc5ac68	-0.096520245
53	0x3cbd9b49	0.023145335
54	0xbe55bb21	-0.20872165
55	0x3de02437	0.109444074
56	0xbd534a04	-0.05158426
57	0x3e392383	0.18079953
58	0x3e12cd02	0.14336017
59	0xbe0e4d3c	-0.1389665
60	0x3ce5e105	0.0280614
61	0xbd9cbdf4	-0.07653418
62	0xbe698707	-0.22805415
63	0x3e1ac4d6	0.1511415
64	0x3e17b49c	0.14814991
65	0xbc2f6091	-0.010704176
66	0x3dc9dcc3	0.0985656
67	0xbc2f0d7b	-0.010684366
68	0x3d167d5c	0.036740646
69	0x3d86dcc5	0.06585077
70	0x3a517370	0.0007989919
71	0x3e48df71	0.19616486
72	0x3d830cdc	0.06398937
73	0xbdb48e7f	-0.088162415
74	0x3e1932fe	0.14960858
75	0x3e1dcfd7	0.15411316
76	0x3dac7332	0.08420409
77	0xbe4e791a	-0.20163384
78	0xbddfc8dd	-0.109269835
79	0x3aa90cd2	0.0012897498
80	0x3d4f9293	0.050676893
81	0xbdd60e58	-0.104519546
82	0xbe2ff887	-0.1718465
83	0xbe334277	-0.17505823
84	0xbdd92913	-0.106035374
85	0x3e4d8a78	0.20072353
86	0x3e625128	0.22101271
87	0x3e6c9e7b	0.2310733
88	0xbe5e653a	-0.21718302
89	0x3d23c0bd	0.03997873
90	0x3d0b5c92	0.03402383
91	0xbe280a3a	-0.16410151
92	0x3de2226f	0.11041724
93	0x3df0bff1	0.1175536
94	0x3e1c8a06	0.15287027
95	0x3bada8bf	0.005299657
96	0x3e208817	0.15676914
97	0xbe122792	-0.14272907
98	0x3d614d86	0.055005573
99	0xbe207a65	-0.1567169
100	0xbda8fb9a	-0.08251114
101	0xbd5e7b73	-0.05431695
102	0xbe2769e9	-0.16348995
103	0xbc6c9ee4	-0.014442179
104	0xbddd4bf0	-0.108054996
105	0x3e6550c0	0.22394085
106	0x3d5b40c8	0.053528577
107	0x3e53e4d0	0.20692754
108	0xbd9f6045	-0.07782034
109	0xbdc86ad0	-0.09785998
110	0x3e45c5ff	0.19313811
111	0xbcb01f9a	-0.021499444
112	0x3e6d6438	0.23182762
113	0x3e607b52	0.21922043
114	0x3e2872d7	0.16450058
115	0xbe7048de	-0.23465297
116	0xbe60a999	-0.21939696
117	0x3e45819b	0.19287722
118	0xbe5b2c48	-0.2140361
119	0x3d6a1f85	0.057158966
120	0x3e301dc7	0.17198859
121	0x3e3cf481	0.18452646
122	0x3dc90a9b	0.09816476
123	0x3d1edacd	0.038782883
124	0x3c0ec696	0.008714339
125	0xbd3e91c6	-0.04652574
126	0x3c887bae	0.016660538
127	0x3dca3711	0.09873784
128	0x3e3f1615	0.18660767
129	0xbdb4761a	-0.088115886
130	0xbe64ee29	-0.22356476
131	0xbdabf05e	-0.08395456
132	0xbd755e01	-0.059904102
133	0xbdc575a6	-0.0964158
134	0xbe37f1fc	-0.17963403
135	0xbc0f567b	-0.008748646
136	0x3d83caa1	0.06435133
137	0xbdf797ba	-0.120894864
138	0xbe70ad62	-0.2350364
139	0x3cd09fb7	0.025466783
140	0x3e19fca7	0.15037785
141	0xbd7f80f0	-0.062378824
142	0xbdcfd6cc	-0.10148391
143	0x3e1dbb4a	0.15403476
144	0xbdeaa645	-0.11457495
145	0x3cc554f2	0.024088357
146	0x3df07f02	0.11742975
147	0x3e4204c4	0.1894713
148	0x3d6d09e7	0.05787077
149	0x3e2ceaa3	0.16886382
150	0xbd04321a	-0.032274343
151	0x3e6faa12	0.2340472
152	0xbe0245e3	-0.12721972
153	0x3dfa9c41	0.12236834
154	0xbd99299e	-0.07478641
155	0x3e386bd5	0.18009885
156	0x3d8a340f	0.06748211
157	0x3da1f2e5	0.079076566
158	0xbc71341a	-0.014721895
159	0xbb32c6c8	-0.0027279127
160	0x3d27989e	0.04091703
161	0xbe4dd710	-0.20101571

linear_net.0.bias f4 [9]
0	0x3d553a49	0.05205754
1	0x3e7114f3	0.23543148
2	0x3d3178d9	0.04332814
3	0xbd1f1f09	-0.038847957
4	0xbdb98664	-0.09058836
5	0x3e355a4e	0.1771023
6	0x3b37e895	0.0028062214
7	0x3e4ffc6f	0.2031114
8	0x3b6fa85b	0.0036568854

linear_net.2.weight f4 [1, 9]
0	0xbe8db6a4	-0.27678406
1	0xbe8ce8f7	-0.27521488
2	0x3ddf8e5b	0.10915824
3	0xbe48d473	-0.19612293
4	0xbe9690e0	-0.29407406
5	0x3d2067d6	0.039161526
6	0x3e6385c3	0.22218995
7	0xbe169f86	-0.14709291
8	0x3ea4a184	0.32154477

exp_avg f4 [108, 36]
0	0xb8a4b497	-7.853767e-05
1	0xb835288a	-4.3191518e-05
2	0xb792bb1c	-1.7491686e-05
3	0xb89d5252	-7.501677e-05
4	0xb7b6cd93	-2.1791819e-05
5	0x37d70c5f	2.5635758e-05
6	0xb820a0b9	-3.8296657e-05
7	0xb890493b	-6.880095e-05
8	0xb898db40	-7.288763e-05
9	0xb7cc01ee	-2.4319594e-05
10	0x38a18604	7.7020406e-05
11	0x37a64b50	1.9823812e-05
12	0x368ae737	4.1396374e-06
13	0xb8171fb3	-3.6030728e-05
14	0x38c467e7	9.3653616e-05
15	0x3825158f	3.9359144e-05
16	0xb7766455	-1.4686103e-05
17	0x3849c036	4.8101145e-05
18	0xb51707a9	-5.626303e-07
19	0xb51f2796	-5.928972e-07
20	0xb4fc5019	-4.6996936e-07
21	0xb530e652	-6.590027e-07
22	0x35ea05b3	1.7436017e-06
23	0x35b36e55	1.336865e-06
24	0x3558c55e	8.075348e-07
25	0x36224a7b	2.4183234e-06
26	0x34a0ba07	2.9937675e-07
27	0x362d214c	2.579839e-06
28	0x33e7f8f0	1.0802057e-07
29	0x362e8e51	2.601086e-06
30	0x3326d1ad	3.8840586e-08
31	0x362ebd92	2.6038365e-06
32	0x326fd294	1.3959511e-08
33	0x362ec3ad	2.6041919e-06
34	0x31ac6081	5.01683e-09
35	0x362ec475	2.6042374e-06
36	0x3909b79d	0.0001313374
37	0x388c587e	6.692203e-05
38	0x37a05af5	1.9115841e-05
39	0x38fd693c	0.000120835815
40	0x37ca19fd	2.4092378e-05
41	0xb83e6ab4	-4.5398905e-05
42	0x3878db86	5.9332255e-05
43	0x38dff2d1	0.00010678697
44	0x38f2a9d3	0.000115710915
45	0x3834f8d5	4.3147087e-05
46	0xb8f393b7	-0.00011614657
47	0xb80b7dc8	-3.3257325e-05
48	0xb65afc82	-3.263151e-06
49	0x385a778a	5.208658e-05
50	0xb91f1d1b	-0.00015174264
51	0xb8a32c3b	-7.780684e-05
52	0x37bc676e	2.245951e-05
53	0xb889dc1b	-6.573667e-05
54	0xb64271e3	-2.8974544e-06
55	0xb655db64	-3.1867175e-06
56	0xb6c79892	-5.9484237e-06
57	0xb654dee4	-3.1720201e-06
58	0xb4493605	-1.8739236e-07
59	0xb6bfd3b2	-5.716888e-06
60	0x34635e19	2.1175255e-07
61	0xb69c9e08	-4.6675596e-06
62	0x33c2d375	9.072293e-08
63	0xb696abd7	-4.490353e-06
64	0x330efe80	3.3293418e-08
65	0xb695e0ce	-4.4667167e-06
66	0x324e1bba	1.1997082e-08
67	0xb695c67a	-4.4636517e-06
68	0x319431b0	4.3130157e-09
69	0xb695c314	-4.463256e-06
70	0x30d50acf	1.5500862e-09
71	0xb695c2a3	-4.4632047e-06
72	0x3864787e	5.4471653e-05
73	0x37df582b	2.6624728e-05
74	0x36d7a33e	6.426503e-06
75	0x384e3820	4.9166498e-05
76	0x3700073c	7.631079e-06
77	0xb7a54210	-1.9700296e-05
78	0x37cea56d	2.4634146e-05
79	0x3830ad26	4.2122927e-05
80	0x3847e4ee	4.7658505e-05
81	0x37974baf	1.8035846e-05
82	0xb83efb17	-4.5533376e-05
83	0xb76e38a7	-1.4199096e-05
84	0xb5a168ce	-1.2025937e-06
85	0x37a964fb	2.0193393e-05
86	0xb881624a	-6.169507e-05
87	0xb80f1d11	-3.4120927e-05
88	0x37183950	9.07325e-06
89	0xb7cf1d38	-2.4689929e-05
90	0xb570ec31	-8.975067e-07
91	0xb64ac6ce	-3.0216065e-06
92	0xb69e5eb5	-4.7197923e-06
93	0xb60dca0e	-2.1128249e-06
94	0x3502a3fe	4.8667414e-07
95	0xb65ef6fb	-3.322434e-06
96	0x34f10080	4.4890112e-07
97	0xb6101725	-2.1471144e-06
98	0x343c7dd4	1.755464e-07
99	0xb6034cce	-1.9565227e-06
100	0x3388eb1f	6.375762e-08
101	0xb60199fd	-1.931213e-06
102	0x32c5175c	2.2944441e-08
103	0xb601619f	-1.927932e-06
104	0x320dafc9	8.247249e-09
105	0xb6015a57	-1.9275083e-06
106	0x314baecc	2.9639748e-09
107	0xb6015968	-1.927454e-06
108	0x38b232e2	8.497179e-05
109	0x3840d473	4.5974226e-05
110	0x378a6bb1	1.650103e-05
111	0x38a8b40c	8.0444006e-05
112	0x37b4d0b1	2.1554852e-05
113	0xb7e67659	-2.7473247e-05
114	0x38238326	3.898437e-05
115	0x389b5535	7.406847e-05
116	0x389fec1c	7.6256896e-05
117	0x37e52adc	2.7318885e-05
118	0xb8ab1a7c	-8.1588485e-05
119	0xb7ae362d	-2.0767644e-05
120	0xb63c513c	-2.8061468e-06
121	0x381c267f	3.722915e-05
122	0xb8d3e937	-0.00010104704
123	0xb83e3983	-4.5353092e-05
124	0x377e10fa	1.5143532e-05
125	0xb84e4b95	-4.918462e-05
126	0xb64d9cdd	-3.0638687e-06
127	0x359cbc5c	1.1677726e-06
128	0x35639489	8.4780237e-07
129	0x35603197	8.3518665e-07
130	0xb5f48185	-1.8217112e-06
131	0xb5c9e8ed	-1.5043457e-06
132	0xb5612115	-8.386717e-07
133	0xb631800f	-2.6449595e-06
134	0xb4a6c339	-3.1061953e-07
135	0xb63cc8a3	-2.813097e-06
136	0xb3f0a736	-1.12062864e-07
137	0xb63e43fd	-2.835178e-06
138	0xb32d0f10	-4.02934e-08
139	0xb63e7517	-2.8380362e-06
140	0xb278cadf	-1.44816275e-08
141	0xb63e7b71	-2.8384059e-06
142	0xb1b2d300	-5.2044697e-09
143	0xb63e7c41	-2.8384532e-06
144	0xb8c08896	-9.1807146e-05
145	0xb849e0bc	-4.8131435e-05
146	0xb7727e61	-1.4453749e-05
147	0xb8b36022	-8.553291e-05
148	0xb7a7d4b0	-2.0006992e-05
149	0x37fa5208	2.9840521e-05
150	0xb824fced	-3.9336202e-05
151	0xb8a48f76	-7.846851e-05
152	0xb8a61e5c	-7.921152e-05
153	0xb800d372	-3.0714502e-05
154	0x38b1f681	8.4859326e-05
155	0x37b724d7	2.1832455e-05
156	0x3575f876	9.163117e-07
157	0xb81c6427	-3.7286572e-05
158	0x38e2f1a2	0.000108215274
159	0x385e99d4	5.3072188e-05
160	0xb77efa7a	-1.5197898e-05
161	0x384c284d	4.8674923e-05
162	0x36833449	3.910191e-06
163	0x361f3873	2.3725704e-06
164	0xb38b30bd	-6.481557e-08
165	0x35d2ea7f	1.5714467e-06
166	0x356d039f	8.829465e-07
167	0x3639fba4	2.7713622e-06
168	0x34d07319	3.8826764e-07
169	0x3659b4b5	3.2440705e-06
170	0x341998e1	1.4304852e-07
171	0x365e4c70	3.312507e-06
172	0x335d817f	5.157335e-08
173	0x365ee680	3.3214747e-06
174	0x329f469c	1.8542146e-08
175	0x365efa71	3.3226354e-06
176	0x31e4f9a1	6.664053e-09
177	0x365efd02	3.3227848e-06
178	0x3124947b	2.3949542e-09
179	0x365efd59	3.3228046e-06
180	0xb92d19d6	-0.0001650819
181	0xb8b29de9	-8.5171145e-05
182	0xb7cc1381	-2.4327777e-05
183	0xb920194b	-0.00015268211
184	0xb8083b6c	-3.2480268e-05
185	0x38680580	5.5318233e-05
186	0xb8972dd6	-7.208779e-05
187	0xb9103556	-0.0001375278
188	0xb9164e2d	-0.00014334237
189	0xb8669994	-5.4979304e-05
190	0x391c0440	0.00014878903
191	0x38297490	4.0401297e-05
192	0x362a9392	2.5417871e-06
193	0xb88a3a64	-6.591229e-05
194	0x3949eae1	0.00019256353
195	0x38cc1a9c	9.7324344e-05
196	0xb7e8421a	-2.7687336e-05
197	0x38b0c38a	8.428756e-05
198	0x36f6e915	7.3585056e-06
199	0x3620bead	2.3952846e-06
200	0x3669e305	3.4851848e-06
201	0x362a3401	2.5362244e-06
202	0x35a6122c	1.2373253e-06
203	0x36c1edb5	5.779521e-06
204	0x34c0c73c	3.590775e-07
205	0x36c073df	5.735535e-06
206	0x34056d81	1.2426428e-07
207	0x36bfae12	5.712508e-06
208	0x333ed493	4.4431157e-08
209	0x36bf91ce	5.7092175e-06
210	0x32891229	1.5957157e-08
211	0x36bf8e1b	5.708787e-06
212	0x31c506af	5.7342144e-09
213	0x36bf8da0	5.708731e-06
214	0x310d9d0b	2.060747e-09
215	0x36bf8d91	5.708724e-06
216	0x38e89e2d	0.000110920846
217	0x386aebca	5.6009543e-05
218	0x376e648f	1.4209319e-05
219	0x38d4f77c	0.00010155045
220	0x379e7b82	1.889258e-05
221	0xb81f5417	-3.798687e-05
222	0x38490df4	4.793513e-05
223	0x38bd16a8	9.016442e-05
224	0x38c836b6	9.546934e-05
225	0x381c7cf6	3.7309677e-05
226	0xb8cb4276	-9.6921736e-05
227	0xb7e6109b	-2.742587e-05
228	0xb5ade675	-1.2956576e-06
229	0x3832d0ef	4.263309e-05
230	0xb9064e0c	-0.0001280831
231	0xb88e6ad2	-6.7909845e-05
232	0x3799dbb2	1.8341325e-05
233	0xb85fc0da	-5.334695e-05
234	0xb6bba2d3	-5.5919895e-06
235	0xb60d2cc1	-2.1036687e-06
236	0xb68be344	-4.16898e-06
237	0xb634e76f	-2.6956802e-06
238	0xb3ca271d	-9.413473e-08
239	0xb69f2402	-4.742761e-06
240	0x344620ba	1.8452093e-07
241	0xb6840234	-3.934163e-06
242	0x33a72115	7.782561e-08
243	0xb67ec249	-3.7962038e-06
244	0x32f4ead7	2.8512131e-08
245	0xb67d85cc	-3.7777818e-06
246	0x323078ac	1.0271986e-08
247	0xb67d5cbd	-3.7753919e-06
248	0x317dc33d	3.6927326e-09
249	0xb67d5773	-3.775084e-06
250	0x30b6670d	1.3271532e-09
251	0xb67d56bf	-3.775043e-06
252	0xb907b02b	-0.00012940231
253	0xb88f5cc7	-6.8360525e-05
254	0xb7b29a12	-2.1290998e-05
255	0xb8fdcb57	-0.00012101855

exp_avg_sq f4 [108, 36]
0	0x343b76fb	1.7459017e-07
1	0x33875878	6.30252e-08
2	0x31a89cff	4.907292e-09
3	0x3443c8cd	1.8233841e-07
4	0x31b1727f	5.1643947e-09
5	0x33e32cf9	1.0578692e-07
6	0x3497af85	2.825365e-07
7	0x331b828f	3.6207492e-08
8	0x348f1596	2.6651531e-07
9	0x32f7f8c8	2.8867717e-08
10	0x33564a61	4.9893405e-08
11	0x33c075df	8.962137e-08
12	0x3270c884	1.4015431e-08
13	0x330813d7	3.168301e-08
14	0x34192439	1.4262413e-07
15	0x331947d2	3.568841e-08
16	0x3144bd26	2.8629272e-09
17	0x326f6b04	1.39359635e-08
18	0x2efe05c1	1.1551605e-10
19	0x2f1f4056	1.4483822e-10
20	0x2f5ea388	2.024888e-10
21	0x2f812063	2.3487975e-10
22	0x2f998b44	2.7929492e-10
23	0x2fbbd187	3.416398e-10
24	0x2e6384e0	5.173184e-11
25	0x302559b9	6.0154154e-10
26	0x2cf62765	6.996114e-12
27	0x3032d714	6.5061667e-10
28	0x2b7fd97c	9.089602e-13
29	0x3034ab3b	6.572695e-10
30	0x2a044753	1.1748701e-13
31	0x3034e813	6.5813416e-10
32	0x2888b064	1.517553e-14
33	0x3034eff1	6.5824596e-10
34	0x270d3bf8	1.960019e-15
35	0x3034f0f7	6.582605e-10
36	0x34efc0bf	4.465746e-07
37	0x3415a0f1	1.3935257e-07
38	0x32167d48	8.759635e-09
39	0x34e55d61	4.2722516e-07
40	0x322f73c3	1.0212662e-08
41	0x345c3f78	2.0512186e-07
42	0x3508a4a5	5.090354e-07
43	0x340dde5f	1.3212546e-07
44	0x3515ca55	5.580126e-07
45	0x339699bb	7.012883e-08
46	0x342ae82e	1.591695e-07
47	0x3431f0b3	1.6571975e-07
48	0x32ca6a0d	2.3564121e-08
49	0x33917e3d	6.775051e-08
50	0x34e138d3	4.195086e-07
51	0x341667c1	1.4007584e-07
52	0x32207178	9.3390256e-09
53	0x332610cc	3.8665164e-08
54	0x2fe1ef2b	4.10972e-10
55	0x2faebf9b	3.178656e-10
56	0x2fd17ffa	3.810781e-10
57	0x2fa5a22b	3.0128552e-10
58	0x2ffbde94	4.5814785e-10
59	0x303f4e7e	6.959694e-10
60	0x2eb5d48d	8.268684e-11
61	0x30a0ef48	1.170954e-09
62	0x2d441d3d	1.1147802e-11
63	0x30aca4c0	1.2561472e-09
64	0x2bcbc22f	1.4477914e-12
65	0x30ae3874	1.2676211e-09
66	0x2a52aebf	1.8712374e-13
67	0x30ae6d04	1.269115e-09
68	0x28d9b458	2.4170051e-14
69	0x30ae73be	1.2693062e-09
70	0x2760f1bd	3.1217291e-15
71	0x30ae748c	1.2693291e-09
72	0x34269330	1.5513501e-07
73	0x3328a5ce	3.9266347e-08
74	0x31275cd8	2.4354474e-09
75	0x340d01ed	1.3132349e-07
76	0x313dbb6b	2.7609655e-09
77	0x33211be2	3.7511093e-08
78	0x3392dd1f	6.8388765e-08
79	0x33929b89	6.8269465e-08
80	0x3417745f	1.4105306e-07
81	0x32bda2ed	2.2076586e-08
82	0x33a52389	7.689875e-08
83	0x32d76694	2.5075941e-08
84	0x3137fe0b	2.6774412e-09
85	0x329d98cf	1.8346695e-08
86	0x343e54be	1.7725958e-07
87	0x33907f25	6.72865e-08
88	0x31a98636	4.9338054e-09
89	0x32a5c7b8	1.929935e-08
90	0x2faf1a82	3.185115e-10
91	0x2f49a850	1.834064e-10
92	0x2f197d72	1.3959836e-10
93	0x2fb09dd2	3.2126352e-10
94	0x2eecedfc	1.0774312e-10
95	0x2f3fb54a	1.7435756e-10
96	0x2dbacff1	2.1238096e-11
97	0x2f73bd68	2.2168012e-10
98	0x2c4babe0	2.8943445e-12
99	0x2f80f92f	2.346012e-10
100	0x2ad3e6f8	3.7641396e-13
101	0x2f81f81d	2.3641258e-10
102	0x295b2443	4.865922e-14
103	0x2f82196c	2.3664926e-10
104	0x27e273c1	6.28531e-15
105	0x2f821db3	2.3667965e-10
106	0x2669fba3	8.1179145e-16
107	0x2f821e42	2.3668362e-10
108	0x33e6495a	1.0723552e-07
109	0x32d01650	2.4224533e-08
110	0x309c550c	1.1374666e-09
111	0x33b71c3c	8.5267374e-08
112	0x30a5b412	1.2056509e-09
113	0x32cdb5b2	2.3947766e-08
114	0x33388aa0	4.2966917e-08
115	0x334d91d7	4.7862923e-08
116	0x33d6b8d7	9.998774e-08
117	0x326ab2b8	1.3661229e-08
118	0x33663ace	5.360453e-08
119	0x32850355	1.5484753e-08
120	0x31140a2c	2.1542617e-09
121	0x32558471	1.24283455e-08
122	0x34039a46	1.225645e-07
123	0x334884ae	4.66868e-08
124	0x317eeb3f	3.7095587e-09
125	0x3265fa61	1.3386484e-08
126	0x2f2674d5	1.5139119e-10
127	0x2f131f14	1.3380613e-10
128	0x2f129fc8	1.3335388e-10
129	0x2fc998ba	3.6670206e-10
130	0x2ebaa167	8.4869715e-11
131	0x2f26340f	1.5116107e-10
132	0x2d951d53	1.6952361e-11
133	0x2f2d345b	1.5752859e-10
134	0x2c22d4bc	2.3139676e-12
135	0x2f33e6e4	1.6361984e-10
136	0x2aa97239	3.0099688e-13
137	0x2f34e3cf	1.6451839e-10
138	0x292f3d5f	3.8911037e-14
139	0x2f35051e	1.6463672e-10
140	0x27b51604	5.026146e-15
141	0x2f350964	1.646519e-10
142	0x263b1bb3	6.49162e-16
143	0x2f3509eb	1.6465378e-10
144	0x351242be	5.448636e-07
145	0x33fb8929	1.17130476e-07
146	0x317a2388	3.6399985e-09
147	0x34e57a8f	4.2743747e-07
148	0x3197139f	4.396909e-09
149	0x33f923c5	1.16014725e-07
150	0x34371bae	1.7053273e-07
151	0x346d7724	2.2115688e-07
152	0x34f72c1b	4.6039426e-07
153	0x339c5b9b	7.280979e-08
154	0x3483a25c	2.4518783e-07
155	0x33945d7a	6.90879e-08
156	0x31995482	4.4624935e-09
157	0x33646d4f	5.3184802e-08
158	0x35245887	6.1223585e-07
159	0x348e41c3	2.649741e-07
160	0x329ccf21	1.8254982e-08
161	0x3362c38e	5.279758e-08
162	0x30222024	5.898093e-10
163	0x3009a18a	5.006987e-10
164	0x2fb66fd4	3.3185066e-10
165	0x3041ce9b	7.0506595e-10
166	0x2f5c807c	2.005453e-10
167	0x301ed33e	5.778026e-10
168	0x2e2b2094	3.8909834e-11
169	0x303b838a	6.821713e-10
170	0x2cba46b4	5.2942876e-12
171	0x304291d5	7.078403e-10
172	0x2b41c40d	6.883945e-13
173	0x30438d0e	7.114104e-10
174	0x29c86168	8.8986815e-14
175	0x3043adca	7.1187556e-10
176	0x284f107c	1.1494383e-14
177	0x3043b1fb	7.119351e-10
178	0x26d5f338	1.4845769e-15
179	0x3043b299	7.119439e-10
180	0x34e25e86	4.2164555e-07
181	0x3405ce3c	1.2461618e-07
182	0x320e4e2c	8.283262e-09
183	0x34d2360f	3.915488e-07
184	0x321b6496	9.045058e-09
185	0x34314786	1.651043e-07
186	0x34cbc7d5	3.7957093e-07
187	0x34167da3	1.4015545e-07
188	0x34fc5513	4.7000557e-07
189	0x338e139a	6.615956e-08
190	0x34309a53	1.644742e-07
191	0x34092c40	1.2775217e-07
192	0x328a3afa	1.6092134e-08
193	0x3377d7dc	5.7705492e-08
194	0x34e1fb1b	4.209222e-07
195	0x342332de	1.5199063e-07
196	0x322c7d8a	1.0040262e-08
197	0x332abf5f	3.975526e-08
198	0x2ffe9008	4.630467e-10
199	0x2fc3a56e	3.5587838e-10
200	0x2fadfb0f	3.1646905e-10
201	0x2f918a5e	2.6473662e-10
202	0x2fc07c7f	3.5013056e-10
203	0x301ab2e4	5.627909e-10
204	0x2e8d48c8	6.424866e-11
205	0x307d8bfb	9.223979e-10
206	0x2d18b61b	8.680635e-12
207	0x3087ce45	9.881168e-10
208	0x2b9eb527	1.1276855e-12
209	0x30890690	9.969927e-10
210	0x2a241b38	1.457557e-13
211	0x30892f1b	9.98145e-10
212	0x28a993db	1.8826891e-14
213	0x30893464	9.982952e-10
214	0x272f377b	2.4316205e-15
215	0x3089350c	9.983139e-10
216	0x34987e8e	2.8404287e-07
217	0x33d46294	9.8899505e-08
218	0x320908e3	7.97647e-09
219	0x349bc184	2.90118e-07
220	0x32103a78	8.395197e-09
221	0x341963a7	1.4285489e-07
222	0x34c17563	3.6034461e-07
223	0x33ae152e	8.106359e-08
224	0x34c591b1	3.6800114e-07
225	0x33511b4b	4.8686427e-08
226	0x33d7a48f	1.0041651e-07
227	0x33fc14f0	1.1738473e-07
228	0x328db715	1.6497816e-08
229	0x33462e95	4.6142834e-08
230	0x348c9c1d	2.619062e-07
231	0x33a7e6e8	7.818545e-08
232	0x31b2d2aa	5.2044316e-09
233	0x32e3df7d	2.6527909e-08
234	0x2f95ec29	2.7270744e-10
235	0x2f8ad1d1	2.5251137e-10
236	0x2f95e0ca	2.7262664e-10
237	0x2f6b04cc	2.137483e-10
238	0x2fb3d41f	3.2710631e-10
239	0x30004167	4.665907e-10
240	0x2e82ea3f	5.953326e-11
241	0x305aa1f9	7.9538115e-10
242	0x2d0d58e0	8.034656e-12
243	0x306b1461	8.552146e-10
244	0x2b92e05c	1.0436196e-12
245	0x306d4c89	8.632886e-10
246	0x2a17deb1	1.3488756e-13
247	0x306d967a	8.643394e-10
248	0x289ceef2	1.7423105e-14
249	0x306d9ff8	8.6447427e-10
250	0x272226d8	2.2503073e-15
251	0x306da121	8.6449076e-10
252	0x3507d095	5.0594946e-07
253	0x3402ab91	1.2169609e-07
254	0x31adc7be	5.0576707e-09
255	0x34e13dc6	4.1954462e-07

exp_avg f4 [108]
0	0x362ec494	2.6042444e-06
1	0xb695c292	-4.463197e-06
2	0xb6015943	-1.9274455e-06
3	0xb63e7c60	-2.8384602e-06
4	0x365efd66	3.3228075e-06
5	0x36bf8d8e	5.7087227e-06
6	0xb67d56a8	-3.7750378e-06
7	0x36992cf0	4.5649867e-06
8	0x36c27473	5.795207e-06
9	0xb6908146	-4.306584e-06
10	0xb6b74f9a	-5.463092e-06
11	0xb675cfc5	-3.6628783e-06
12	0xb62c148b	-2.5641955e-06
13	0x3564d480	8.5245847e-07
14	0x36a4b470	4.9085866e-06
15	0xb6569e86	-3.1980758e-06
16	0x36a08a47	4.784469e-06
17	0x366bc55f	3.5132614e-06
18	0x35b316c2	1.3343163e-06
19	0xb590cc39	-1.0788273e-06
20	0xb54f8feb	-7.732294e-07
21	0xb6820b7a	-3.875638e-06
22	0x365a2f00	3.251189e-06
23	0x36e40f09	6.79668e-06
24	0x35a30d88	1.2148384e-06
25	0xb5e887dd	-1.7324888e-06
26	0xb4fb626f	-4.6824013e-07
27	0xb67bc401	-3.7516004e-06
28	0x35c25206	1.4477998e-06
29	0x361e2e71	2.3570867e-06
30	0x369a1f24	4.593183e-06
31	0xb611be7f	-2.1717567e-06
32	0xb6918f6f	-4.3380346e-06
33	0x361fe3ff	2.3825557e-06
34	0x35ac946a	1.2858193e-06
35	0xb64d844a	-3.0624383e-06
36	0x331673ac	3.50298e-08
37	0xb3049336	-3.0867533e-08
38	0xb1efd7d0	-6.9803505e-09
39	0xb1a3a366	-4.7625006e-09
40	0x320bf6b0	8.146955e-09
41	0xb1f56cf7	-7.1428263e-09
42	0xb1f95b4f	-7.2572344e-09
43	0xb2b1f16e	-2.0715301e-08
44	0xb13a53e9	-2.711426e-09
45	0x33001fff	2.9831423e-08
46	0xb220c9c2	-9.3591e-09
47	0xb1867646	-3.9133594e-09
48	0xb28dd479	-1.6511182e-08
49	0xb2ee0ca3	-2.7712593e-08
50	0xb185e5d1	-3.8969366e-09
51	0x307805ff	9.0230395e-10
52	0x318a6d66	4.0287658e-09
53	0x3209e969	8.027521e-09
54	0xb28517a4	-1.5493988e-08
55	0xb1f841d7	-7.225235e-09
56	0x326b81c5	1.37083065e-08
57	0xb302c8f5	-3.0450753e-08
58	0xb3121b2a	-3.401798e-08
59	0x322b9d58	9.989286e-09
60	0x330d01c1	3.2830716e-08
61	0x310d7986	2.0587279e-09
62	0x32035621	7.644787e-09
63	0xb225b95c	-9.64641e-09
64	0x32131499	8.5612095e-09
65	0x324b9713	1.18505055e-08
66	0xb1a04621	-4.6645856e-09
67	0x32cf19d0	2.410971e-08
68	0xb2574eed	-1.2532593e-08
69	0xb30113f5	-3.0053304e-08
70	0x32ddf51c	2.5839249e-08
71	0x31a30b55	4.7452127e-09
72	0x3746ee0c	1.1857144e-05
73	0x3693f457	4.4093863e-06
74	0xb67b5eee	-3.745717e-06
75	0xb78051f4	-1.5296951e-05
76	0xb7c3be07	-2.33343e-05
77	0x3768a8d4	1.3867586e-05
78	0x36bf6cf4	5.7049274e-06
79	0xb732bcd9	-1.0653596e-05
80	0x37f308a9	2.897189e-05
81	0xb7edf062	-2.8364539e-05
82	0xb74d2742	-1.2228093e-05
83	0xb7ddd26b	-2.6443236e-05
84	0xb8270a97	-3.9825765e-05
85	0xb7857bf5	-1.5912558e-05
86	0x37abf2db	2.0497877e-05
87	0xb7a54cf0	-1.970536e-05
88	0xb69f328d	-4.744454e-06
89	0x37b29f81	2.1293528e-05
90	0xb6abb1cb	-5.116895e-06
91	0xb790fd70	-1.7284154e-05
92	0x36288632	2.5112063e-06
93	0x37c939bb	2.398795e-05
94	0x36c849af	5.9690424e-06
95	0x37c5c425	2.3575567e-05
96	0xb83aad4b	-4.4507247e-05
97	0x370a138a	8.22999e-06
98	0x37cad971	2.418153e-05
99	0x37945514	1.7682592e-05
100	0xb7ad6d61	-2.067414e-05
101	0x37bff8cf	2.2884835e-05
102	0xb7709a09	-1.4340979e-05
103	0x370a32eb	8.237296e-06
104	0x3819b866	3.6649777e-05
105	0xb8208a8a	-3.8275997e-05
106	0xb7233700	-9.728363e-06
107	0x36fdebe4	7.567449e-06

exp_avg_sq f4 [108]
0	0x3034f123	6.5826294e-10
1	0x30ae74b4	1.2693335e-09
2	0x2f821e59	2.3668426e-10
3	0x2f3509fd	1.6465403e-10
4	0x3043b2ac	7.1194495e-10
5	0x30893527	9.983169e-10
6	0x306da168	8.644947e-10
7	0x30658b83	8.350797e-10
8	0x2fb37ffe	3.2650854e-10
9	0x2f24d213	1.4990346e-10
10	0x30904655	1.0497369e-09
11	0x2f363b2f	1.657383e-10
12	0x310e90cf	2.0746034e-09
13	0x2feca245	4.304345e-10
14	0x2f94e3d3	2.7082922e-10
15	0x2f7bf07f	2.2913758e-10
16	0x2f7e3e35	2.3123266e-10
17	0x30356bff	6.600089e-10
18	0x304b351f	7.392646e-10
19	0x2fca654f	3.681557e-10
20	0x2f1db4f0	1.4343349e-10
21	0x2e9dc4f8	7.174522e-11
22	0x2fa9c005	3.087736e-10
23	0x30372279	6.6624e-10
24	0x30aaf7ca	1.2439554e-09
25	0x2eb3a3b5	8.169058e-11
26	0x3004c4b5	4.830086e-10
27	0x301e8b86	5.767834e-10
28	0x2f04bfc0	1.2073453e-10
29	0x2f5046b0	1.8942603e-10
30	0x308e1db5	1.0340303e-09
31	0x2fa6cc62	3.0340447e-10
32	0x30f9a462	1.8163855e-09
33	0x2e86580c	6.109255e-11
34	0x2f820871	2.365286e-10
35	0x30bce346	1.3743395e-09
36	0x282e92a5	9.690739e-15
37	0x280af4a3	7.713586e-15
38	0x2602d718	4.5394317e-16
39	0x2649cab7	7.0010614e-16
40	0x2603410f	4.5537926e-16
41	0x260da2c5	4.9139796e-16
42	0x2673f337	8.463718e-16
43	0x278cb710	3.9056283e-15
44	0x24b50d4b	7.8518756e-17
45	0x2838854e	1.0242958e-14
46	0x26b47391	1.2521333e-15
47	0x25829bc4	2.2656956e-16
48	0x2762416b	3.1399264e-15
49	0x2802c760	7.259682e-15
50	0x24fe6027	1.1031783e-16
51	0x24a42ad4	7.1196216e-17
52	0x2594dda6	2.5824102e-16
53	0x26a9ffc9	1.1796061e-15
54	0x277babf2	3.492646e-15
55	0x25a5103f	2.8633946e-16
56	0x275a49dd	3.0293619e-15
57	0x28215d6b	8.957552e-15
58	0x28324e38	9.897946e-15
59	0x26e9b068	1.6215438e-15
60	0x2837be87	1.0199855e-14
61	0x257e5fdf	2.206347e-16
62	0x2645c3e8	6.861361e-16
63	0x26ad1331	1.2009488e-15
64	0x2663a8a7	7.898501e-16
65	0x26badb78	1.296583e-15
66	0x26010a70	4.477001e-16
67	0x27e81089	6.4410863e-15
68	0x26e24a7f	1.5702092e-15
69	0x2817ebf0	8.433345e-15
70	0x27abe339	4.770839e-15
71	0x258495a4	2.299975e-16
72	0x3291c477	1.6969564e-08
73	0x328bfe0f	1.6297262e-08
74	0x321f91d3	9.288175e-09
75	0x32186b7d	8.8720045e-09
76	0x33213853	3.753696e-08
77	0x32a17b18	1.8798843e-08
78	0x32225280	9.448399e-09
79	0x32816f8b	1.50683e-08
80	0x334030f3	4.4748003e-08
81	0x33444340	4.569597e-08
82	0x31ed55d7	6.9073667e-09
83	0x32f3feb5	2.840475e-08
84	0x3373fbd8	5.6806897e-08
85	0x32c8f102	2.3392662e-08
86	0x3326a2c2	3.8797914e-08
87	0x32cf159f	2.4107804e-08
88	0x3225610a	9.626328e-09
89	0x32aa02d3	1.9791889e-08
90	0x32274e55	9.73849e-09
91	0x31c06d35	5.600351e-09
92	0x328ad933	1.6164085e-08
93	0x321d424d	9.153678e-09
94	0x326245fd	1.3170845e-08
95	0x3234a4c2	1.05148406e-08
96	0x31fe8711	7.407728e-09
97	0x3350c96e	4.8611973e-08
98	0x3314b211	3.4620886e-08
99	0x316ceeeb	3.447833e-09
100	0x31bba13d	5.460747e-09
101	0x33b30ad6	8.337308e-08
102	0x334bc6cb	4.7445422e-08
103	0x33620bfe	5.2630632e-08
104	0x3308cd6a	3.185179e-08
105	0x31b25f7d	5.1913376e-09
106	0x31f402f9	7.1016726e-09
107	0x315cd762	3.2136644e-09
