SensorFormer/SensorFormer/result/individual/LCS0_8.pt (torch, 81350 bytes, 35 tensors)

self_attn.qkv_proj.weight f4 [108, 36]
000000 1a 69 47 3e 20 c3 70 3e 74 93 60 3d 47 5c 2f 3e
       0.19473687 0.23511934 0.054828122 0.17125045
000010 1d 92 d0 3d d3 d9 c9 3c b8 1d 0a be c7 a3 fb 3d
       0.10184119 0.02464 -0.134879 0.122870974
000020 20 a3 21 3c 5d 05 de bd ea ef 17 bc 71 6a 03 be
       0.009865552 -0.10840867 -0.009273509 -0.12833573
000030 5b 4d cf bb dd e7 46 bd 9a 56 95 3d a9 cb 47 3e
       -0.00632636 -0.048560966 0.072919086 0.19511284
000040 8d c2 e6 bc f4 cf 2e 3e df 7b be bd d4 b9 04 3e
       -0.02816894 0.17071515 -0.0930097 0.12961513
000050 84 c0 c6 3c 35 8c 1e be 63 6c 23 be f6 00 15 3d
       0.02426172 -0.15483172 -0.15959315 0.03637787
000060 a9 5a 02 bc 33 e9 1b 3e fd 36 af bd 72 70 1c be
       -0.007956185 0.15225677 -0.0855541 -0.1527727
000070 2b eb 12 3e 2a a1 01 3e 93 cf 58 3d 73 7c f8 bd
       0.14347522 0.12659135 0.052932333 -0.12133112
000080 7d ed 68 3d 4e 29 09 3d 9e 89 30 3e fc 70 f2 3d
       0.05686711 0.033486657 0.17239997 0.11837956
000090 9f 82 d2 3d 95 48 91 3e 22 19 c2 3d d9 7a 08 3c
       0.1027882 0.28375688 0.0947745 0.00833007
0000a0 5b 31 35 3e a4 95 a5 bd ee ef 14 bd 11 d4 fa 3d
       0.17694609 -0.08085182 -0.036361627 0.1224748
0000b0 41 16 2f 3e 17 ad a2 bc c8 cd 88 3c 95 a8 10 3e
       0.17098333 -0.019857926 0.016699687 0.14126809
0000c0 1d 85 6a 3e f2 52 e4 bd 9c 2f fa 3d 5f 06 61 bd
       0.22902341 -0.11148633 0.12216112 -0.054937717
0000d0 c1 5a 46 be b5 b9 f5 bc 78 5a b2 3d 50 3f 9d 3d
       -0.19370557 -0.029995779 0.08708662 0.076780915
0000e0 4d 1f c3 3c d3 dc f8 3d fc 61 e5 bd 50 ff 03 3e
       0.023818636 0.12151494 -0.1120033 0.12890363
0000f0 4d 01 41 bc 8c 97 54 bd a2 55 19 3e 36 3a 2e 3d
       -0.011780095 -0.05190234 0.14974073 0.042535983
000100 75 ab 05 3d b3 a3 a7 3d 9d 39 9d 3d 4f 39 05 be
       0.032634217 0.0818552 0.076770045 -0.13010143
000110 9e ff 5d 3d 23 35 b1 bd 17 9d 61 3d 72 fa 58 be
       0.054198854 -0.08652713 0.055081453 -0.21189287
000120 f5 1b 09 be aa e2 1e be 3c 9b c2 3d 63 03 89 bd
       -0.13389571 -0.15516153 0.09502265 -0.06690099
000130 e0 65 11 3e 5e e9 82 3c 74 9b 40 be b7 f2 c0 bd
       0.14199018 0.015980419 -0.188093 -0.09421294
000140 fd 3e 66 bd 4f c6 15 be b5 fe b3 bd c9 ba 0c be
       -0.056212414 -0.1462643 -0.08788816 -0.13743128
000150 f8 fa bf bc 10 2f 0d 3b 6e dd 0e 3e 2a 59 19 3d
       -0.0234351 0.0021542944 0.13951656 0.03743855
000160 13 01 4e 3e c3 2e 99 bd 61 b9 22 be 57 0d 99 bc
       0.20117597 -0.07479622 -0.15891029 -0.018683119
000170 48 94 23 bd d7 98 fb 3d e8 79 64 bc a8 dc 84 bc
       -0.039936334 0.12285011 -0.01394508 -0.016218498
000180 d5 9d 53 3d c6 e0 fc bc 4e 63 6f be 5f a6 d5 bd
       0.051664192 -0.0308689 -0.23377725 -0.104321234
000190 07 01 9d bc 12 48 3f 3d 86 02 1a be 57 0d 28 3e
       -0.019165529 0.04669959 -0.15040025 0.16411339
0001a0 27 e7 a9 3d 75 7b fd bd f6 5c 45 be 28 88 41 3e
       0.08296042 -0.12377063 -0.19273743 0.18899596
0001b0 5d 98 b5 3d 5e 35 a0 3d 79 e4 6c 3d 6f f5 2d 3e
       0.088669516 0.07822679 0.057835076 0.16988157
0001c0 5e c6 59 bd ab 13 83 bd d1 10 dc 3d 84 4a d1 bd
       -0.053167693 -0.06400236 0.10745395 -0.10219291
0001d0 6a 11 5e bd 63 e8 ff bd 83 21 1b 3e e9 89 3a be
       -0.054215826 -0.12495496 0.15149502 -0.18216671
0001e0 47 24 e0 bd 03 42 42 3d 5a a5 c1 bd ef 31 32 be
       -0.10944419 0.047426235 -0.094553664 -0.1740186
0001f0 12 36 89 3e ab aa 16 be c2 f3 ab 3d 5a 1a d5 3d
       0.26799065 -0.14713542 0.083961025 0.10405417
000200 24 a8 e3 3d 90 3d 00 3e 90 4d 59 3d e9 8d 50 3e
       0.11116055 0.12523484 0.053052485 0.20366634
000210 0c 93 e1 bd 58 b5 1e 3d 97 9a 3a 3e 6d 27 b2 3d
       -0.11014375 0.03874716 0.18223034 0.08698926
000220 99 60 bb 3d 4b 84 ca 3d 8f 14 20 3c 62 4f 29 3e
       0.09149284 0.09888514 0.009770527 0.16534188
000230 92 68 cd bd 01 92 42 3d 66 52 51 3e 2f ad 40 3d
       -0.10029711 0.04750252 0.20441589 0.04704016
000240 85 13 0d 3c 33 fd 2e be 5d b1 3f bd bc 54 13 3e
       0.008610611 -0.17088775 -0.046800006 0.14387792
000250 54 33 d7 3c 6c 18 a8 bc a7 8a 23 3e 90 62 9f bc
       0.026269592 -0.020519458 0.1597086 -0.019456178
000260 69 fc 1a be fc f2 1d be 51 0d 1e bd 61 2d c2 3d
       -0.1513535 -0.15424722 -0.03858692 0.094813116
000270 0e fd da 3d 61 4d 2a bd c8 48 fe bd 15 b4 5f 3e
       0.106927976 -0.0415777 -0.12416226 0.2184604
000280 90 e7 c2 bc 97 4f 92 bc 3c c1 0f be dd fa 21 3e
       -0.023792058 -0.017860217 -0.14038557 0.15818353
000290 1b 3f 84 bc 59 38 81 3c 52 a6 14 be 78 2e 05 be
       -0.016143372 0.015773939 -0.14516571 -0.13006008
0002a0 48 d6 51 3e 84 5b 06 be 30 4f 0a be ed 6d 05 3e
       0.20491898 -0.13120848 -0.1350677 0.13030215
0002b0 11 84 36 3e f1 7c 53 be 18 92 42 3e a3 a0 6a bd
       0.17823817 -0.2065313 0.19001043 -0.0572821
0002c0 b7 b3 64 3d 50 38 9d ba b7 52 0c 3d 7c ba 86 bd
       0.055835452 -0.0011994932 0.03425857 -0.06578538
0002d0 a6 e3 6e bd ff ce 1c bd 19 21 59 3e c8 af ac bc
       -0.05832257 -0.038283344 0.21204032 -0.021079913
0002e0 d3 d8 77 3d 89 ce 0c be e0 85 db 3d 48 d8 74 3d
       0.060509514 -0.13750662 0.10718894 0.059776574
0002f0 14 6c 49 3e 1d d9 0a 3e 61 1d 26 be 6b 06 9a 3d
       0.19670135 0.13559385 -0.16222145 0.075207554
000300 ac e8 98 bd 11 d6 15 3e 9e 5c f1 bd ef e7 d3 3d
       -0.07466254 0.14632441 -0.117852435 0.10346972
000310 ee 7c 3a 3e 08 39 26 be 4c a2 9f 3d 9c fa 8a 3d
       0.1821172 -0.16232693 0.077946275 0.06786081
000320 44 13 57 be f3 fc 8f 3d 9f 03 0f 3e 61 87 03 bd
       -0.21003443 0.07030668 0.13966225 -0.03211153
000330 98 66 2c be b9 1a 10 be d9 99 80 bc bf a3 66 3e
       -0.16836011 -0.14072694 -0.01569836 0.22523402
000340 00 48 1d 3e 7b d1 96 bd 97 9e 09 be d0 41 2f be
       0.15359497 -0.07364174 -0.13439403 -0.17114949
000350 b6 9a 05 be b3 9f 23 3e db 84 36 3e 94 d9 de bd
       -0.13047299 0.15978889 0.17824118 -0.108813435
000360 80 88 d9 3d 2e e6 43 bd b1 76 33 3e 34 2f 29 bd
       0.106217384 -0.04782694 0.17525746 -0.041304782
000370 43 20 a6 bd f3 70 2b be 0c 93 5e 3d 35 99 0c bd
       -0.08111622 -0.16742305 0.054339454 -0.034325797
000380 5d c0 36 3e da 98 d6 3b 65 cd 51 3e 22 99 e2 bc
       0.17846818 0.006548983 0.20488508 -0.02766091
000390 56 e7 a5 3c 49 34 25 be cb 85 8a bc 95 39 22 be
       0.020251911 -0.16133226 -0.0169095 -0.15842278
0003a0 2e 8d d4 bd 59 9b 08 be de 16 ed bd 5d 02 53 bd
       -0.103784904 -0.1334051 -0.11576627 -0.051515926
0003b0 77 cc 1c be 43 cc 27 be 39 9c f5 bd cb 15 95 3d
       -0.15312372 -0.16386513 -0.11992688 0.07279547
0003c0 8f b9 3a bd 3f 3b 59 bd 6b 16 02 bd da 0a 0a 3e
       -0.04558712 -0.053035017 -0.03175966 0.13480702
0003d0 21 16 18 be 9f 73 01 3d 52 0a b7 3c b2 e3 02 bc
       -0.14852192 0.031604405 0.022343788 -0.007988857
0003e0 28 1d 8e 3d 23 4e a7 bd 61 b5 4b be 73 51 64 bd
       0.06939155 -0.081692 -0.1989341 -0.05574174
0003f0 d2 bb 20 3e 25 64 05 3e b5 3b d6 bd 53 85 31 bd
       0.15696648 0.13026483 -0.10460607 -0.04334004

self_attn.qkv_proj.bias f4 [108]
000000 24 aa d7 bb 52 91 61 bc 6d 58 84 bb d4 5e 3e 3d
       -0.0065815616 -0.013767557 -0.0040388615 0.046477154
000010 22 68 9b bc 2b 00 ca 3c 2e 9d 79 3c 8a 60 c6 3c
       -0.018970553 0.024658283 0.015235228 0.024215955
000020 22 3e ac 3c 2b 25 2b bd 4a 9b e4 bc 6b cc 03 3d
       0.021025721 -0.041783493 -0.027906079 0.03217737
000030 8b 3b 07 3c 48 f1 42 3d c5 7b 37 3d 0c 8b a7 3c
       0.008253942 0.047593385 0.04479577 0.020452045
000040 73 28 8d bd 14 6a 71 3b 46 fc 38 bd 44 1d a5 bc
       -0.06892481 0.003683691 -0.04516246 -0.020155556
000050 02 d5 f2 bc fc fb a3 bd c4 13 ab 3c 80 2a ab bc
       -0.029642586 -0.080070466 0.020883448 -0.020894289
000060 e6 a7 8a 3c 36 eb 75 3c 2d 59 33 3d a7 44 12 3a
       0.016925763 0.015009692 0.043786217 0.0005579688
000070 e4 09 92 bd 4f 40 29 bb 19 4b 0e bd 0d d5 f8 bc
       -0.07130793 -0.0025825684 -0.034739587 -0.030375028
000080 4d ed f3 bb 27 a2 db bb f9 dc 46 3d 30 37 2a 3d
       -0.00744406 -0.0067026797 0.04855058 0.041556537
000090 7e 6b 5d bc 22 f2 8e bc 5c c2 2f bc ba 1c 22 bc
       -0.013514398 -0.017449442 -0.010727491 -0.009894544
0000a0 5e 32 32 bc a0 45 a6 3a 56 1e 14 bc c8 2b 29 bc
       -0.010876266 0.0012685545 -0.009040436 -0.01032538
0000b0 d6 79 32 3c d9 45 01 bc 63 86 7f bc 33 fa a7 bc
       0.010893306 -0.007890188 -0.015596005 -0.020505046
0000c0 c9 f4 82 bc 5b 32 8f 3c b7 ee 43 bc b3 18 0a 3c
       -0.015985863 0.017480066 -0.0119587695 0.00842874
0000d0 3b ad 81 bc e9 33 16 bc 12 33 55 bc 1c 20 4c 3c
       -0.015829673 -0.00916765 -0.013012664 0.012458827
0000e0 fd fa ea 3b 78 50 cc bb d8 23 6a bc ba 7b a2 3a
       0.0071710334 -0.0062351786 -0.014290772 0.0012396493
0000f0 13 9a 2e bc 98 b8 58 bc 8a a1 81 bb 40 25 27 bc
       -0.010656851 -0.013227604 -0.0039560245 -0.010201752
000100 a6 8f 72 3c b6 d9 02 bc 29 9a 80 bc 2e a8 5c bc
       0.014804756 -0.007986477 -0.01569851 -0.013467832
000110 ac a2 6d 3c 14 47 1f bc a4 eb 6a 3a d7 47 12 3a
       0.014504116 -0.009721536 0.0008961505 0.0005580163
000120 60 cd 2c bd f5 3d c7 bc 4a 12 86 3c 12 ff e0 bc
       -0.04218805 -0.024321536 0.016366143 -0.027465377
000130 3d 7d 0c 3a c8 32 16 bd c3 76 53 3b 6b e1 01 bd
       0.0005359238 -0.036669523 0.0032266832 -0.031709116
000140 3f c2 ea 3b ae a9 02 bd 1e 03 0d bc 26 f1 46 bc
       0.007164269 -0.0319001 -0.0086067 -0.012142455
000150 74 82 d2 bc 4c 0b c2 bc 5f e4 c7 3c b0 c0 c4 3c
       -0.02569697 -0.023687027 0.024400888 0.024017662
000160 c3 c2 da 3c 03 45 f7 bc 01 35 1f 3c 5e 1f ca 3c
       0.026704198 -0.030184275 0.009717227 0.02467316
000170 1c 17 cb bc 8e 5a fb bb 8e 9b f8 3c ba 45 b4 3b
       -0.024791293 -0.007670707 0.030347612 0.005501476
000180 07 cc cc 3c 03 ac f0 3c 66 f6 38 3b cc e9 5f 3b
       0.024999632 0.029378897 0.0028223037 0.0034166453
000190 36 47 5c bd e9 e3 7f 3c 94 88 58 bc ba 78 11 3d
       -0.05377885 0.015618303 -0.0132161565 0.035515524
0001a0 19 11 75 3c ad 35 03 3d be 49 7a bc b0 b7 ec 3c
       0.01495769 0.03203361 -0.015276371 0.028896183

self_attn.o_proj.weight f4 [36, 36]
000000 f9 95 bb bd fa d8 90 3e cd e1 8d be 66 e6 82 bd
       -0.091594644 0.2829054 -0.27711335 -0.06391601
000010 ce e9 8b be 4f 20 84 3d 8f bf 35 3e 79 61 09 be
       -0.27326816 0.06451475 0.17748855 -0.13416089
000020 f8 dc 80 be d5 a4 35 3e 3b 57 99 bd 0e 6f 6c be
       -0.25168586 0.1773866 -0.07487341 -0.23089239
000030 74 af 61 be fc d6 fa bc 78 7d ed 3d c1 d6 8f be
       -0.22039586 -0.03062009 0.11596197 -0.28093532
000040 ad b5 4f be 91 93 7d 3e bc d9 5f bd 56 fc 20 be
       -0.20284148 0.24763323 -0.054651007 -0.15721259
000050 09 8b a5 bc 37 51 52 3e 3f c3 25 bd 04 79 3c be
       -0.020207899 0.20538794 -0.040469404 -0.18405539
000060 94 f7 8f 3e 7a ae 42 be 86 e0 46 be 04 7d 29 be
       0.28118575 -0.1901187 -0.19421586 -0.16551596
000070 3e db d7 3d 80 e5 94 3e d3 cc a6 bc f6 de b8 3d
       0.10539864 0.29081345 -0.02036134 0.090269014
000080 15 db 91 be 6f 98 51 be 0d 26 89 3e bf 62 5a 3e
       -0.2848746 -0.20468305 0.26786843 0.21326731
000090 6d d5 7a 3e 6f 01 f0 bd 16 8d 13 be 98 8d 4d 3d
       0.24495478 -0.117190234 -0.14409289 0.050183862
0000a0 50 f2 2c be 50 37 a0 3d f6 97 2c bd 54 8b 9f 3d
       -0.1688931 0.0782305 -0.04213711 0.077902466
0000b0 7a d3 3e be e7 03 46 be 00 eb e4 bd db 2b 57 bc
       -0.1863536 -0.19337426 -0.11177635 -0.013133015
0000c0 d2 1c e2 bd c2 1a 6c 3e ff 8d 62 be 49 6d 81 3d
       -0.11040653 0.23057082 -0.2212448 0.063196726
0000d0 3a 5d 87 3d 16 b8 3e 3e 6b 32 29 be 72 ed f3 3b
       0.066095784 0.1862491 -0.16523139 0.007444077
0000e0 a3 ec 10 be d0 c3 2e bd 01 5d 20 3e 21 11 8f be
       -0.1415277 -0.04266721 0.15660478 -0.27942756
0000f0 f7 a5 79 3e 30 bb 40 be 4d 6e 17 3e 57 d3 81 3b
       0.24379717 -0.18821406 0.1478817 0.0039619613
000100 15 71 01 3e 66 e7 0b be 8c a5 79 3d 97 be 54 be
       0.12640794 -0.1366249 0.060948893 -0.2077583
000110 48 0d 83 bd 4c cc 97 be 89 50 a9 3e cf 3e 64 3d
       -0.063990176 -0.29648054 0.33069256 0.05572396
000120 66 40 30 bd 3d 64 41 3e da a1 f4 bd 93 cf 07 be
       -0.043030165 0.18885894 -0.11944933 -0.13262777
000130 17 f5 ee bd a8 80 4d be fc e2 d5 3d 6e ac c3 bd
       -0.11667841 -0.2006861 0.104436845 -0.09554373
000140 8d e7 1a be 64 75 70 3e ba 01 56 be 6a 3b 74 be
       -0.15127392 0.23482281 -0.20899096 -0.2385079
000150 2c 48 9d be af ad 63 3d cf a4 6e 3e 23 5a a8 3d
       -0.30719125 0.05558556 0.23305057 0.08220317
000160 5e bf 4a be 7a 4b 4a 3e a1 2c 05 bd 80 19 8d 3e
       -0.19799563 0.19755355 -0.032513265 0.27558517
000170 6a d4 99 be 61 c4 4a 3e d7 3d 15 3e a7 03 3f be
       -0.30044872 0.19801475 0.14574371 -0.18653737
000180 df ab dc 3d 5c 00 b5 bd d1 dd a4 bc c6 c2 27 3e
       0.10774969 -0.08837959 -0.020125302 0.16382894
000190 ee 94 a5 3e 08 84 73 3d 22 20 db 3d 14 6e 8e 3e
       0.32340187 0.059452087 0.10699488 0.27818358
0001a0 87 b9 13 3e da 02 85 3e e8 c6 21 be 38 94 73 3c
       0.14426242 0.25978738 -0.15798533 0.014866881
0001b0 39 f1 32 be 68 6d 29 be 01 6a b7 bd 86 41 20 be
       -0.17474832 -0.16545641 -0.089557655 -0.15649995
0001c0 67 a6 3e be 02 e9 60 bc 47 da 17 3e 2c 55 1f 3d
       -0.18618165 -0.013727428 0.1482936 0.038899586
0001d0 f1 84 13 be 64 c0 61 bd 80 1e 90 bd 07 30 a1 3e
       -0.14406182 -0.05511512 -0.070370674 0.31481954
0001e0 de 55 81 3d 1c d2 f6 bd 06 2c 11 be 10 77 c3 3d
       0.06315206 -0.12051794 -0.1417695 0.09544194
0001f0 cc b6 b0 bd a7 8a 69 3e c5 34 4c 3e 2a 58 71 be
       -0.08628616 0.22806798 0.19942005 -0.23568788
000200 5c bf 7c 3e dd 0a 4e be eb 76 0d be bd c3 52 3e
       0.24682373 -0.20121332 -0.13814895 0.2058248
000210 77 08 44 3d fd 17 8a 3e 40 5a b7 bd d0 60 87 be
       0.047859635 0.26971427 -0.08952761 -0.2644105
000220 ce fd 1a be 4e 79 55 bd 86 53 92 be 00 b6 b2 bd
       -0.15135881 -0.05211764 -0.28579348 -0.0872612
000230 e4 2d 67 3e 52 55 98 3d ad 39 91 3d a9 73 89 bd
       0.225761 0.074381486 0.07091079 -0.067115135
000240 2d 72 1f 3e 8d 26 92 bd 9a ca 10 3e 06 58 4f be
       0.15570898 -0.07136259 0.14139786 -0.20248422
000250 24 b7 b4 3e ae be 73 bd 4f 03 9a 3e 92 28 b8 3d
       0.35295975 -0.05950802 0.3008065 0.08992113
000260 32 72 a6 be df a3 81 3d cf 61 95 3e 19 fa df bd
       -0.32509 0.06330084 0.29176185 -0.10936374
000270 51 ca 8f be 6c d2 9d be d4 09 89 3e 0c f6 27 be
       -0.28084043 -0.30824602 0.2676531 -0.16402453
000280 56 de cc bd 4d a2 83 3d 71 9a 45 3c 14 3b 93 3d
       -0.10003345 0.06427441 0.0120607475 0.07189003
000290 3d 24 2e bd 2c 6f a4 3d 35 f8 f3 bd 50 b5 f8 bb
       -0.04251503 0.08029017 -0.11912576 -0.0075899735
0002a0 9e 13 98 3e bf d4 a5 3c 2b a7 b3 3d d9 02 81 3e
       0.29702467 0.020243047 0.08772119 0.25197485
0002b0 2d e6 0c 3e 54 dd 40 be 33 e3 14 bd ab 47 04 bd
       0.1375968 -0.1883443 -0.036349487 -0.03229491
0002c0 49 19 4f bd 79 73 3a be b4 8e 3d bd 03 a6 84 bc
       -0.050561223 -0.18208112 -0.04627867 -0.016192442
0002d0 be e3 83 3e 91 d4 bd 3e 23 a4 95 3e d3 5f 66 3e
       0.2575969 0.37076238 0.2922679 0.22497492
0002e0 09 98 5c 3e 41 98 a4 3d 9e 6e 06 bd bd 85 84 3e
       0.21542372 0.08036853 -0.032820337 0.25883284
0002f0 f4 0c 9c 3e 1d d9 50 3d f0 e5 3c 3e 54 56 89 bc
       0.30478632 0.050988305 0.18447089 -0.016764797
000300 66 c0 b5 3e 65 db 10 be 30 14 26 3e 53 bb 21 3d
       0.3549835 -0.14146192 0.16218638 0.039485287
000310 1e 2a 07 be 1d 1c 0b 3e a9 67 69 3e 9e 52 49 be
       -0.1319966 0.13584943 0.2279345 -0.19660422
000320 31 23 9e 3e 1b 2e 76 3e 2f c8 95 bd 00 be 0c bd
       0.30886224 0.24041025 -0.073135726 -0.034360886
000330 ec 20 54 be 8e 5d 21 bd a3 b3 31 3d 1c 2f 2a be
       -0.20715684 -0.03939586 0.043384206 -0.16619533
000340 65 e4 7e be 69 e8 80 be d6 37 38 be 7a 8a 9e be
       -0.24891813 -0.25177315 -0.1799005 -0.30965024
000350 a0 39 3b bd d4 4a 5d be dd 10 03 be 67 b7 6b be
       -0.045709252 -0.21610576 -0.12799402 -0.23019181
000360 6f 7c e6 bd e0 fa 71 3e 17 09 a3 3d 62 47 26 3e
       -0.112542026 0.23630857 0.07960718 0.16238168
000370 09 23 33 3e 7f 11 28 be d8 a1 19 3e c6 af 29 3e
       0.17493834 -0.16412924 0.15003145 0.16570958
000380 e1 f0 68 3e 08 bf 84 3e e2 33 48 3e aa d5 8e 3e
       0.22748138 0.25926995 0.19551042 0.27897388
000390 71 fa 49 3e b4 43 b0 3d 7a 16 93 3e 5c e9 de bc
       0.19724442 0.08606663 0.28728086 -0.027210884
0003a0 89 95 1a be cf d6 27 3d 1d d1 85 be 4c 69 8f be
       -0.15096106 0.04097634 -0.26136103 -0.28010023
0003b0 d6 c5 32 3e 60 27 bf 3d 2a 82 f8 3a a2 1a 8c 3e
       0.17458281 0.09333682 0.001895969 0.2736407
0003c0 0b 9e 6c be 35 c5 0f 3d 81 8f 83 be e5 c8 54 3e
       -0.23107164 0.03510018 -0.25695422 0.2077976
0003d0 d5 9e e3 bd f3 59 37 3e 02 28 50 be 66 a1 82 bc
       -0.11114279 0.17905407 -0.20327762 -0.015946101
0003e0 2a cd b6 bd 5f 7c a9 bc c4 40 0c be 9c 03 bb bd
       -0.08925851 -0.020689188 -0.13696581 -0.09131548
0003f0 0b 12 38 3e 3a 6f 6b 3d c0 bb 20 be 3a 3a 0e 3e
       0.17975633 0.05747912 -0.15696621 0.13889399

self_attn.o_proj.bias f4 [36]
000000 06 80 ea bb 2f aa 50 bc 75 dd 3a 3c 43 4f ad bc
       -0.007156375 -0.012735887 0.0114053385 -0.021155959
000010 68 df 77 3c 1d a2 9f bd 32 70 30 ba 3c da 00 bd
       0.015128948 -0.077945925 -0.00067305856 -0.031458125
000020 af 26 96 bd f1 54 17 bb d4 30 93 bd 33 84 85 3b
       -0.07331597 -0.00230914 -0.071870476 0.0040745973
000030 bc a7 15 ba b2 c6 31 bd 46 81 69 3d c1 e7 00 3d
       -0.00057088933 -0.04340238 0.05700805 0.031471018
000040 70 27 05 3d d7 7e 97 bd 2b e2 16 3d a6 5b 4c bc
       0.032508314 -0.0739724 0.036836784 -0.012473023
000050 05 68 a2 3d 53 77 cb 3c bd 4e 15 bd 7e 3a cc bc
       0.079299964 0.024837172 -0.036452044 -0.024930235
000060 6e 68 36 bd 91 44 59 3d 8a 04 cb 3c ec da 63 39
       -0.044533186 0.053043906 0.024782438 0.00021729962
000070 e2 74 15 3d 2d f7 8b 3d c7 25 42 bc bc 2d bd 3c
       0.03648842 0.068342544 -0.011849827 0.023093097
000080 23 0e 5e bd ec ab 95 3c 68 9e 8b 3d 4c 0c ed bc
       -0.0542127 0.018270455 0.06817323 -0.028936528

fc.weight f4 [1, 18]
000000 f5 fe 2b 3e 68 88 ea bd 73 7f 16 3d 38 9c 68 3e
       0.16796477 -0.11451799 0.03674264 0.22715843
000010 f2 9d 33 3e 5b 88 e0 bc 33 e3 3a 3d ff 18 41 be
       0.1754072 -0.02740877 0.04562683 -0.18857192
000020 b8 75 32 3e f8 54 06 be f6 b9 0e be e4 f5 0c 3e
       0.17427719 -0.1311835 -0.13938126 0.13765675
000030 9f 73 4a 3e 24 75 ff 3d ad db 8c bc 97 a8 cc bd
       0.19770668 0.12473515 -0.017194593 -0.099930935
000040 6a 93 d7 3d b2 07 46 3e
       0.10526164 0.19338873

fc1.weight f4 [1, 36]
000000 f4 3e 20 bf e8 d9 d2 be 2a 7f 1d 3f ae 13 07 3f
       -0.6259606 -0.41181874 0.6152216 0.52764404
000010 4f f9 22 3f 9d 80 97 be f5 74 0e bf 46 de 10 bf
       0.63661665 -0.29590312 -0.5564721 -0.5658916
000020 29 fd e3 3e 5d d9 11 3f 0a f0 d0 be bf 19 13 bf
       0.44529083 0.56972295 -0.40808135 -0.5746116
000030 2f 46 21 bf e2 de 01 bf f4 80 17 3f 14 b3 09 bf
       -0.62997717 -0.5073072 0.5918114 -0.53788877
000040 45 82 10 3f dd 8e 13 3f d5 d0 04 bf 79 19 0c bf
       0.56448776 0.5763987 -0.5188115 -0.5472637
000050 50 54 1f 3f 6f af 22 3f ad 79 1b bf 73 74 20 bf
       0.62238026 0.6354894 -0.6073254 -0.6267769
000060 5e e7 0e bf b4 93 22 3f 6b e4 27 3f 51 07 0f bf
       -0.5582179 0.6350663 0.65582913 -0.5587054
000070 cb c2 29 3f d3 04 1e 3f 7c bb 14 bf cc 73 14 bf
       0.66312855 0.6172611 -0.5809858 -0.5798919
000080 70 8f 14 bf ec 8a 24 3f 4a 74 28 3f 8c 9c 18 3f
       -0.5803137 0.6427448 0.65802443 0.5961387

fc2.weight f4 [1, 9]
000000 c0 b4 fe 3c 2b c3 6a 3c 22 b5 8d 3e 50 b9 1f 3e
       0.031092048 0.014328758 0.27677256 0.15598035
000010 3b 1f 95 3d e0 71 f1 bd 06 23 86 3d 20 90 1f 3e
       0.07281347 -0.11789298 0.06549649 0.15582323
000020 16 40 fd 3c
       0.030914348

fc3.weight f4 [1, 2]
000000 e9 08 e0 3e 73 f2 d2 bd
       0.43756798 -0.1030015

input_fc.weight f4 [18, 3]
000000 dd 7d 00 bf ff 73 e2 be 8d 70 80 3e 33 e6 93 3e
       -0.5019205 -0.44229123 0.2508587 0.28886566
000010 82 a4 0a bf f4 b4 e4 3e 43 bf 45 be 2a 03 1a be
       -0.5415727 0.44669306 -0.19311242 -0.1504027
000020 bc 6d 9d 3e 63 97 10 3f c2 dd 32 3e 67 ab 52 3c
       0.30747783 0.56481 0.17467406 0.012858248
000030 50 20 6e be 2f bd a1 be 4b 11 11 3f be e5 9b 3e
       -0.23254514 -0.31589648 0.5666701 0.30448717
000040 6c 2c b0 3d d0 ec b3 3e fa e9 de 3e e1 4d 8b be
       0.08602223 0.3514161 0.43537885 -0.27207854
000050 4b a1 06 be 10 62 bf 3e f6 8f ad bc 23 5d 9d bd
       -0.13147466 0.37379503 -0.02118681 -0.0768378
000060 4b 54 dc 3e 0f ab 03 3e a5 f9 d9 3e 74 ee 07 3e
       0.4303306 0.12858222 0.42573276 0.13274556
000070 06 4a da 3e 0b 53 89 3c c1 ff 8f 3d 23 de 5c be
       0.426346 0.01676323 0.07031203 -0.21569113
000080 78 64 d5 3e 37 ce d4 bc 70 8b 69 3d 47 60 ac bd
       0.41678214 -0.025977237 0.057017744 -0.08416801
000090 de 3f 71 be f8 d8 b5 be b3 ab 96 3d 48 f9 90 be
       -0.2355952 -0.35517097 0.07356968 -0.28315187
0000a0 ba de ca 3e 75 11 fc 3b f9 a0 d5 be 2c 76 eb 3c
       0.39623052 0.0076925107 -0.41724375 0.028742872
0000b0 3b 64 9a 3d b2 21 49 bd e3 a4 19 bf 56 f8 73 3c
       0.07538649 -0.0491044 -0.6001722 0.014890751
0000c0 29 37 18 bf 1a bf e8 3e 3d 35 00 be 43 f1 24 3f
       -0.5945917 0.454583 -0.12520309 0.64430636
0000d0 3c f0 83 3e c4 b8 cb 3e
       0.25769222 0.39789402

input_fc.bias f4 [18]
000000 8d 0f 09 3f 80 fe 38 be b5 70 d1 3e 19 93 33 be
       0.53539354 -0.18065834 0.409063 -0.17536582
000010 3f e8 32 3e bd a7 11 be af 44 e6 3e f0 26 00 3f
       0.17471407 -0.14224143 0.44974276 0.50059414
000020 9f 65 57 be fc 59 a1 3e b3 98 14 be 37 36 77 3d
       -0.21034859 0.31513965 -0.14511375 0.060354438
000030 fd 67 84 3e ff 3a c0 bc 17 47 d3 3c bd 96 a5 be
       0.25860587 -0.023465632 0.025790734 -0.32341567
000040 62 96 03 3f fc b1 e0 3e
       0.5140134 0.4388579

norm.weight f4 [36]
000000 00 00 80 3f 00 00 80 3f 00 00 80 3f 00 00 80 3f
       1.0 1.0 1.0 1.0
000010 00 00 80 3f 00 00 80 3f 00 00 80 3f 00 00 80 3f
       1.0 1.0 1.0 1.0
000020 00 00 80 3f 00 00 80 3f 00 00 80 3f 00 00 80 3f
       1.0 1.0 1.0 1.0
000030 00 00 80 3f 00 00 80 3f 00 00 80 3f 00 00 80 3f
       1.0 1.0 1.0 1.0
000040 00 00 80 3f 00 00 80 3f 00 00 80 3f 00 00 80 3f
       1.0 1.0 1.0 1.0
000050 00 00 80 3f 00 00 80 3f 00 00 80 3f 00 00 80 3f
       1.0 1.0 1.0 1.0
000060 00 00 80 3f 00 00 80 3f 00 00 80 3f 00 00 80 3f
       1.0 1.0 1.0 1.0
000070 00 00 80 3f 00 00 80 3f 00 00 80 3f 00 00 80 3f
       1.0 1.0 1.0 1.0
000080 00 00 80 3f 00 00 80 3f 00 00 80 3f 00 00 80 3f
       1.0 1.0 1.0 1.0

norm.bias f4 [36]
000000 00 00 00 00 00 00 00 00 00 00 00 00 00 00 00 00
       0.0 0.0 0.0 0.0
000010 00 00 00 00 00 00 00 00 00 00 00 00 00 00 00 00
       0.0 0.0 0.0 0.0
000020 00 00 00 00 00 00 00 00 00 00 00 00 00 00 00 00
       0.0 0.0 0.0 0.0
000030 00 00 00 00 00 00 00 00 00 00 00 00 00 00 00 00
       0.0 0.0 0.0 0.0
000040 00 00 00 00 00 00 00 00 00 00 00 00 00 00 00 00
       0.0 0.0 0.0 0.0
000050 00 00 00 00 00 00 00 00 00 00 00 00 00 00 00 00
       0.0 0.0 0.0 0.0
000060 00 00 00 00 00 00 00 00 00 00 00 00 00 00 00 00
       0.0 0.0 0.0 0.0
000070 00 00 00 00 00 00 00 00 00 00 00 00 00 00 00 00
       0.0 0.0 0.0 0.0
000080 00 00 00 00 00 00 00 00 00 00 00 00 00 00 00 00
       0.0 0.0 0.0 0.0

norm1.weight f4 [9]
000000 00 00 80 3f 00 00 80 3f 00 00 80 3f 00 00 80 3f
       1.0 1.0 1.0 1.0
000010 00 00 80 3f 00 00 80 3f 00 00 80 3f 00 00 80 3f
       1.0 1.0 1.0 1.0
000020 00 00 80 3f
       1.0

norm1.bias f4 [9]
000000 00 00 00 00 00 00 00 00 00 00 00 00 00 00 00 00
       0.0 0.0 0.0 0.0
000010 00 00 00 00 00 00 00 00 00 00 00 00 00 00 00 00
       0.0 0.0 0.0 0.0
000020 00 00 00 00
       0.0

norm2.weight f4 [9]
000000 00 00 80 3f 00 00 80 3f 00 00 80 3f 00 00 80 3f
       1.0 1.0 1.0 1.0
000010 00 00 80 3f 00 00 80 3f 00 00 80 3f 00 00 80 3f
       1.0 1.0 1.0 1.0
000020 00 00 80 3f
       1.0

norm2.bias f4 [9]
000000 00 00 00 00 00 00 00 00 00 00 00 00 00 00 00 00
       0.0 0.0 0.0 0.0
000010 00 00 00 00 00 00 00 00 00 00 00 00 00 00 00 00
       0.0 0.0 0.0 0.0
000020 00 00 00 00
       0.0

m.running_mean f4 [12]
000000 4c a7 6f 40 85 bd 71 40 39 25 71 40 4f 69 6f 40
       3.744586 3.7771924 3.767897 3.7408025
000010 8a bd 6e 40 5b 14 70 40 67 44 72 40 26 48 73 40
       3.7303185 3.7512424 3.785425 3.8012786
000020 37 b9 71 40 34 14 6f 40 a5 60 6d 40 08 66 6e 40
       3.7769296 3.735608 3.7090237 3.7249775

m.running_var f4 [12]
000000 bb a7 da 43 71 a1 da 43 13 4f db 43 e2 10 dc 43
       437.3104 437.26126 438.61777 440.1319
000010 76 0d dc 43 e4 52 db 43 f8 1b da 43 67 8d d9 43
       440.10516 438.64758 436.2185 435.1047
000020 07 19 da 43 65 b5 da 43 e6 22 db 43 33 a6 da 43
       436.19553 437.41714 438.27264 437.29843

linear_net.0.weight f4 [9, 18]
000000 ca cd e8 bd ef 39 67 3e b8 33 f8 3d 1f b2 3e 3e
       -0.11367376 0.22580694 0.121192396 0.18622635
000010 fd e4 6f 3e 54 14 de bb af 7d 96 3d c8 83 16 bc
       0.23427196 -0.0067773256 0.07348191 -0.009186693
000020 6d ca 10 3e df c4 27 be 46 72 3d 3e ff a2 16 3e
       0.1413972 -0.16383694 0.18500623 0.14710616
000030 ed cf 15 be 09 df 0f be 31 f2 8e 3d 51 7a 35 be
       -0.14630099 -0.14049925 0.06979788 -0.17722441
000040 52 71 4a be 14 64 05 3e c1 96 81 bd 41 79 20 be
       -0.19769791 0.13026458 -0.06327582 -0.15671255
000050 98 90 68 be e6 80 ae 3d 78 25 76 3c 29 37 42 3e
       -0.22711408 0.08520679 0.015023582 0.18966354
000060 fa 95 eb bd 8e 6f b9 3d 5b d7 3a 3e e6 c9 06 bd
       -0.11503215 0.090544805 0.18246214 -0.03290739
000070 bd d8 4f be d7 fd 2f be 8c 3e 34 3e 27 c9 5d be
       -0.20297523 -0.17186676 0.17601985 -0.21658765
000080 fb 87 4b 3e 56 9f b5 bd a7 2d 20 bd 3f 52 f4 bd
       0.19876091 -0.088682815 -0.039106037 -0.1192975
000090 15 3d a2 bd 98 3b 5e be 7d 49 ab 3d 7e bc 21 3d
       -0.07921807 -0.2170242 0.08363626 0.0394864
0000a0 4d ac 1a 3e 14 27 dd bd 09 c1 6a 3d 27 5a 48 be
       0.1510479 -0.10798469 0.057313 -0.1956564
0000b0 49 b3 b6 3c 59 65 06 3e 89 b9 ff bc fe 4c 31 be
       0.022302287 0.13124599 -0.0312164 -0.17314526
0000c0 1e ae e8 3d d0 b8 0f 3e b6 a8 0a 3e b9 7e be bd
       0.11361335 0.14035344 0.1354092 -0.09301514
0000d0 e3 59 30 be 45 bb 44 bd cc 95 4d be 78 00 98 bd
       -0.17221789 -0.048030157 -0.20076674 -0.074219644
0000e0 72 43 a2 bd dc 82 49 be 09 d3 07 3c 10 44 cb bd
       -0.079230204 -0.19678825 0.008290061 -0.09925091
0000f0 83 78 05 3e 93 6e 1a be d8 fa 60 3e 11 12 07 be
       0.13034253 -0.15081243 0.2197069 -0.13190486
000100 66 58 c7 3d 5f d2 5e 3e 79 6d 61 3e 89 66 61 3e
       0.097336575 0.21759938 0.22014417 0.2201177
000110 54 dd a1 bd 3e 9a 3e be b2 b0 00 bd 3d 83 63 3d
       -0.07903543 -0.18613526 -0.03141851 0.05554508
000120 f5 04 01 bc 06 8e 2d be f4 b1 b3 bd ac a4 d9 3d
       -0.007874717 -0.16948709 -0.08774176 0.10627112
000130 6b 6b 56 3e a8 af 7a bd 2d 41 37 3e e0 d6 86 3d
       0.20939414 -0.061202675 0.17895956 0.06583953
000140 5d c4 27 3e d2 51 47 3e 23 7e 4a 3e d3 d2 be 3c
       0.163835 0.19464806 0.1977468 0.023293888
000150 94 a5 c2 bd dc 70 e0 3d 70 74 23 3e 27 fe bf bd
       -0.09504238 0.10959026 0.15962386 -0.093746476
000160 5b ff 70 3e c6 1b d9 bc d3 5d 04 3d 4a 02 94 3d
       0.2353491 -0.026502501 0.03231604 0.07226999
000170 07 02 0f be b0 bc b9 bd fa b9 e2 3c b6 75 0f bc
       -0.13965617 -0.090691924 0.027676571 -0.008756092
000180 5e b3 1c be 0f db ee 3c fd 31 87 3d 92 dc 48 3d
       -0.15302798 0.02915719 0.066013314 0.049038477
000190 95 45 54 be 08 78 2a 3e dd 23 e1 3c 2c 2f 27 3e
       -0.20729668 0.16647351 0.027482921 0.16326588
0001a0 c1 38 47 bd c9 ae 1b be b5 5c 1a 3e d6 9d 9a 3d
       -0.04863811 -0.15203394 0.15074427 0.07549636
0001b0 42 6e 6c 3e 83 79 7d 3d ab e0 2b be ed b1 e6 3d
       0.23088935 0.06188346 -0.16784923 0.112644054
0001c0 c5 4c 9b bd 9f 0f 11 3e bf 94 21 bd b8 00 97 3d
       -0.07583002 0.14166115 -0.039448496 0.07373184
0001d0 4c b5 25 3e 0c 95 ce 3d e3 0a 07 be 49 14 d8 3d
       0.1618244 0.10087022 -0.13187747 0.10550744
0001e0 ae 87 a1 3d b6 ab e0 3d ed 47 88 3d b9 b8 95 3b
       0.07887207 0.10970251 0.06654344 0.00456914
0001f0 76 d7 98 bd 9b bf 3d 3e d9 f8 29 bd 53 f0 4e be
       -0.07462971 0.18530123 -0.041497085 -0.20208864
000200 82 8a e0 3d 6d 65 49 3e 2a bf d5 3c bf ce 3f be
       0.10963918 0.19667597 0.02609213 -0.18731211
000210 82 05 04 be ae 25 97 3d ac 96 0e be 09 31 ac 3c
       -0.12892726 0.07380234 -0.13924664 0.021019476
000220 98 49 1d 3e 3d 41 5e be 87 52 c3 bc ae 63 2a be
       0.15360105 -0.21704574 -0.023843063 -0.16639587
000230 17 5d 2f bd 62 9f 94 bd a9 a3 a4 bd 75 a7 2a be
       -0.042813387 -0.07256962 -0.08039028 -0.16665442
000240 43 34 c0 bd ee f8 eb 3d ce d0 51 3d 43 c3 c1 3d
       -0.09384968 0.11522089 0.051224522 0.09461071
000250 cf a0 6c 3e 2c 3f 71 3e 7a 9c 0b bd ad 59 a2 3c
       0.23108219 0.23559254 -0.034084775 0.019818151
000260 f9 a1 66 3d 8b b0 1a be a6 85 38 3d 60 6b 6f 3e
       0.056306813 -0.15106408 0.045049332 0.23380804
000270 bb 50 8d 3d 0e 5c bb 3c 9b a0 f5 bd 04 c9 4c bc
       0.06900164 0.022871044 -0.11993524 -0.012499098
000280 61 24 a3 3d a7 2b 21 3e
       0.07965923 0.15739308

linear_net.0.bias f4 [9]
000000 28 bb f0 3d ea 4f 5d 3e bf 4d 51 be 90 35 35 3d
       0.11754447 0.21612516 -0.20439814 0.044240534
000010 89 8a 92 3d 38 9d b1 3d 09 a2 6f 3e b8 3c 5a 3e
       0.0715533 0.08672565 0.23401655 0.21312225
000020 21 d5 32 be
       -0.17464115

linear_net.2.weight f4 [1, 9]
000000 8e 16 5c be 00 80 82 b8 bb 93 17 be 34 d6 84 3e
       -0.21492979 -6.222725e-05 -0.14802448 0.25944674
000010 bb 00 89 bd b6 05 5e 3d d8 76 3f be f6 3b 24 bd
       -0.066895925 0.054204665 -0.18697679 -0.040096246
000020 f8 de 75 3e
       0.24010837

exp_avg f4 [108, 36]
000000 9a ab b4 3a 15 54 cf 39 88 6b 81 39 71 39 96 ba
       0.0013784051 0.00039544763 0.00024684914 -0.0011461211
000010 ac 85 e3 39 3e 8d 79 ba 73 f7 2f 39 20 ab c6 b9
       0.00043396407 -0.0009519643 0.00016781483 -0.00037893
000020 e4 b4 a8 ba da ee 9a ba ec 96 d9 b7 8c 9d ee b6
       -0.0012871292 -0.0011820451 -2.5938694e-05 -7.1112936e-06
000030 aa ee 87 3a d2 62 0c ba 6e 86 d2 39 0b 66 bb 3a
       0.001037081 -0.00053553015 0.0004015448 0.0014297379
000040 87 02 11 b9 d5 d0 f3 ba f8 8e fc b6 c4 e0 92 b8
       -0.00013829219 -0.0018601666 -7.526829e-06 -7.0036884e-05
000050 a9 12 b2 b7 00 c4 97 b6 39 56 66 b7 dd 37 09 b8
       -2.1227943e-05 -4.522968e-06 -1.3729144e-05 -3.2715372e-05
000060 7d 16 ac b6 dc 77 19 b8 79 79 f8 b5 6b 88 1b b8
       -5.1286174e-06 -3.658967e-05 -1.8512793e-06 -3.708193e-05
000070 c0 b1 32 b5 82 cc 1b b8 b6 72 80 b4 4c d5 1b b8
       -6.656883e-07 -3.7145343e-05 -2.392532e-07 -3.7153528e-05
000080 32 a6 b8 b3 71 d6 1b b8 17 b8 04 b3 96 d6 1b b8
       -8.5983984e-08 -3.7154594e-05 -3.0901074e-08 -3.715473e-05
000090 ae 31 5f 3b 03 8d 6e 3a 87 9a 0d 3a 65 94 3c bb
       0.003405671 0.0009099992 0.00054017495 -0.0028774973
0000a0 6b d2 75 3a 2f 3c 23 bb bf 2d ff 39 0d c5 71 ba
       0.0009377363 -0.0024907698 0.00048671474 -0.0009222783
0000b0 1b ce 5b bb 54 6e 44 bb 52 ad 31 b9 09 d7 93 b4
       -0.0033539596 -0.0029972987 -0.00016944602 -2.7537342e-07
0000c0 c9 25 2a 3b 79 39 b5 ba 86 50 7f 3a 25 b0 6d 3b
       0.0025962463 -0.0013826332 0.0009739477 0.003626832
0000d0 4f a8 be b9 01 fe 9c bb ea f5 1b b8 56 47 10 36
       -0.00036365024 -0.004791022 -3.7183905e-05 2.1499195e-06
0000e0 d1 d2 07 b8 ae 57 08 38 7f 44 8f b8 75 fb 80 b8
       -3.2382846e-05 3.2506585e-05 -6.83153e-05 -6.150353e-05
0000f0 0f c0 f5 b7 97 d4 c5 b8 83 9e 34 b7 dd d0 cf b8
       -2.929571e-05 -9.43329e-05 -1.0765742e-05 -9.909433e-05
000100 18 32 82 b6 f2 1f d1 b8 a8 3a bb b5 4f 4b d1 b8
       -3.8801336e-06 -9.971847e-05 -1.3949657e-06 -9.979924e-05
000110 68 94 06 b5 eb 50 d1 b8 84 76 41 b4 a2 51 d1 b8
       -5.013485e-07 -9.980969e-05 -1.8017641e-07 -9.981102e-05
000120 27 f1 e4 bb dc 0c d2 ba da 61 71 ba cb cb c6 3b
       -0.0069867554 -0.0016025561 -0.00092080014 0.0060667745
000130 60 a3 d1 ba 46 36 b3 3b d9 36 8e ba f5 b0 f9 3a
       -0.0015994124 0.0054691164 -0.0010850086 0.001904993
000140 70 52 f0 3b ac f3 ce 3b a0 dc 25 3a cb b7 6f b8
       0.007334046 0.006315669 0.0006327126 -5.715321e-05
000150 f3 22 b1 bb 5f b7 3d 3b fe 9c 03 bb 72 5e f9 bb
       -0.0054057776 0.002894841 -0.0020082588 -0.0076101357
000160 e0 62 2d 3a 0d 99 29 3c 4a 09 2d 38 f6 c9 8e b8
       0.000661416 0.010351432 4.1255065e-05 -6.808706e-05
000170 92 e8 12 38 61 e9 cf 37 80 a9 f0 38 b9 f8 23 39
       3.502571e-05 2.4784998e-05 0.000114756636 0.00015637548
000180 31 21 54 38 c5 e4 61 39 39 6c 9c 37 dd 0a 6b 39
       5.057565e-05 0.00021542895 1.8647044e-05 0.00022415393
000190 72 9a e1 36 90 3e 6c 39 6a 39 22 36 63 66 6c 39
       6.7235023e-06 0.0002253002 2.41733e-06 0.00022544856
0001a0 da 36 69 35 89 6b 6c 39 7d a0 a7 34 32 6c 6c 39
       8.6879083e-07 0.00022546774 3.1222945e-07 0.0002254702
0001b0 f3 2b 2e bb fe 06 1e ba 76 ba b4 b9 07 90 17 3b
       -0.0026576489 -0.00060282636 -0.000344712 0.0023126618
0001c0 37 3f 1e ba d2 ce 08 3b 6a 37 d8 b9 67 4a 3e 3a
       -0.00060366414 0.0020875228 -0.00041240017 0.00072590116
0001d0 97 6d 37 3b df bd 1d 3b d7 fe 80 39 75 e8 c4 b7
       0.0027988905 0.002406947 0.00024603933 -2.3473267e-05
0001e0 56 f0 06 bb c8 3e 90 3a 5c a2 48 ba dd ec 3d bb
       -0.0020590029 0.0011005038 -0.0007653588 -0.0028980293
0001f0 1b 42 81 39 40 68 81 3b 58 d9 3b 37 40 2e 6d b6
       0.0002465405 0.003949195 1.1196673e-05 -3.5342673e-06
000200 a1 c2 bf 37 31 14 b5 37 a1 11 1b 38 44 86 8b 38
       2.2859605e-05 2.1586284e-05 3.6971298e-05 6.6530454e-05
000210 5a a4 84 37 d6 22 af 38 db ef c2 36 e2 56 b4 38
       1.5812158e-05 8.351139e-05 5.8095734e-06 8.599252e-05
000220 55 83 0c 36 a5 05 b5 38 be 10 4a 35 44 1c b5 38
       2.093807e-06 8.631804e-05 7.5275227e-07 8.6360174e-05
000230 73 3e 91 34 30 1f b5 38 0d cb d0 33 90 1f b5 38
       2.7053792e-07 8.636562e-05 9.7226895e-08 8.6366315e-05
000240 f5 bd 9b 3a b9 04 7b 39 94 25 16 39 37 6c 89 ba
       0.0011882173 0.00023938985 0.00014319114 -0.0010484521
000250 3d bf 7a 39 a1 cc 7c ba 05 28 42 39 0b 72 ac b9
       0.000239131 -0.0009643529 0.0001851619 -0.00032891365
000260 0b 27 a9 ba 1b cb 8d ba 2c 16 10 b9 47 f1 7f 37
       -0.0012905312 -0.0010817976 -0.0001374117 1.5255361e-05
000270 76 db 71 3a 0f 78 00 ba d9 c4 b5 39 32 73 aa 3a
       0.00092261226 -0.00049007026 0.00034669673 0.0013004302
000280 cc 5f c7 b8 d4 11 ed ba 07 78 94 b7 de b8 fd 37
       -9.506903e-05 -0.0018086978 -1.7698867e-05 3.0246036e-05
000290 87 54 82 36 b1 78 a4 36 2a 40 d2 b7 6e 35 bb b7
       3.884142e-06 4.901631e-06 -2.506383e-05 -2.2317017e-05
0002a0 9c 88 40 b7 ef c0 1b b8 88 92 8e b6 b5 04 25 b8
       -1.1475899e-05 -3.7134563e-05 -4.2489883e-06 -3.934345e-05
0002b0 bd bc cd b5 a3 3c 26 b8 0c f3 13 b5 04 65 26 b8
       -1.532862e-06 -3.9633956e-05 -5.5115447e-07 -3.9671562e-05
0002c0 cd b1 54 b4 3c 6a 26 b8 d0 e0 98 b3 e7 6a 26 b8
       -1.9808722e-07 -3.9676423e-05 -7.118945e-08 -3.9677045e-05
0002d0 55 cd 02 bc 4a 91 e4 ba f9 8d 83 ba 46 d9 e4 3b
       -0.007983525 -0.0017438319 -0.0010036818 0.006983909
0002e0 58 d4 e5 ba b4 b1 cf 3b 1b 24 a2 ba 12 a4 0f 3b
       -0.0017534597 0.0063383225 -0.0012370379 0.0021917862
0002f0 94 27 0b 3c f2 97 ed 3b 13 c1 50 3a 99 97 ad b8
       0.008493323 0.0072507793 0.00079633406 -8.27752e-05
000300 91 01 cb bb 8e 35 58 3b 82 77 17 bb b4 de 0e bc
       -0.006195255 0.0032990905 -0.0023112004 -0.008720089
000310 38 95 37 3a 14 fc 43 3c e5 49 91 37 e1 f4 2e 36
       0.00070031313 0.011961956 1.7319757e-05 2.6070559e-06
000320 bc ed 6b 38 4d 72 a1 38 f6 86 e0 38 e4 c5 54 39
       5.6249773e-05 7.6983684e-05 0.00010706291 0.00020291616
000330 dd 23 42 38 7a 2c 85 39 cd d7 8e 37 e9 1b 89 39
       4.6286605e-05 0.00025400874 1.702821e-05 0.0002615147
000340 c6 f5 cd 36 2c a0 89 39 16 18 14 36 4a b1 89 39
       6.138088e-06 0.00026250014 2.2067738e-06 0.00026262767
000350 51 e6 54 35 80 b3 89 39 7f 06 99 34 cb b3 89 39
       7.931131e-07 0.00026264414 2.8503197e-07 0.00026264632
000360 29 c3 06 3c 10 25 f9 3a 45 c4 8e 3a 48 d6 e9 bb
       0.008225241 0.0019008238 0.0010892233 -0.00713614
000370 16 b3 f9 3a d1 54 d2 bb e8 a1 a6 3a bd f6 12 bb
       0.0019050564 -0.0064188023 0.0012713047 -0.00224249
000380 f1 0d 0d bc e6 83 f3 bb 92 b9 3e ba 5d cd 88 38
       -0.008609281 -0.007431495 -0.0007275577 6.523237e-05
000390 bc 84 d0 3b 92 13 5f bb 69 f8 1a 3b 6d af 12 3c
       0.0063634794 -0.0034038764 0.00236466 0.008952958
0003a0 62 5d 4c ba e7 3c 47 bc af 25 bd b7 86 40 11 38
       -0.00077958975 -0.012160516 -2.2548104e-05 3.4630786e-05
0003b0 be 26 89 b8 94 c8 f1 b7 cf 14 0b b9 ab e2 46 b9
       -6.539885e-05 -2.882284e-05 -0.00013263825 -0.00018967192
0003c0 e0 d2 70 b8 2a 0d 85 b9 1e 37 b1 b7 ab fb 89 b9
       -5.741685e-05 -0.00025377545 -2.112571e-05 -0.00026318184
0003d0 44 86 ff b6 67 a1 8a b9 c4 bb 37 b6 d7 b6 8a b9
       -7.615223e-06 -0.00026441665 -2.737842e-06 -0.00026457637
0003e0 43 11 84 b5 9e b9 8a b9 fc d9 bd b4 f9 b9 8a b9
       -9.83979e-07 -0.00026459707 -3.5362598e-07 -0.00026459972
0003f0 69 48 98 bc d2 e6 82 bb a2 c0 15 bb 4b 90 85 3c
       -0.018589215 -0.003994801 -0.0022850414 0.016304156

exp_avg_sq f4 [108, 36]
000000 d8 20 22 38 c7 71 32 36 ad 15 4d 35 52 ba 0f 38
       3.8654398e-05 2.6590294e-06 7.6399994e-07 3.426738e-05
000010 5d bf 1e 36 34 36 28 38 6a 59 8a 36 b3 60 29 36
       2.3655223e-06 4.0104802e-05 4.1231297e-06 2.5239249e-06
000020 1d e9 92 38 d9 b7 35 38 7a ca 87 36 49 c2 00 34
       7.005243e-05 4.3324984e-05 4.046885e-06 1.199161e-07
000030 f8 46 f5 37 40 6b 3f 37 15 cb 37 36 60 20 7e 38
       2.9239323e-05 1.1409458e-05 2.7387334e-06 6.058847e-05
000040 0d af 18 36 14 58 03 39 c3 2e b8 32 47 a5 1c 33
       2.2751658e-06 0.00012525945 2.1441684e-08 3.64719e-08
000050 f6 c5 10 33 7b a9 8a 33 b2 fb 29 33 03 a2 55 33
       3.3707657e-08 6.456954e-08 3.9577294e-08 4.9740276e-08
000060 30 9b fe 31 57 6e ac 33 aa e9 89 30 b6 b9 b9 33
       7.4100157e-09 8.029445e-08 1.0034473e-09 8.6485144e-08
000070 98 5e 0f 2f 4d 8a bb 33 7d 40 94 2d ac c6 bb 33
       1.303938e-10 8.733023e-08 1.685429e-11 8.744004e-08
000080 f6 31 19 2c 7e ce bb 33 1d 4a 9e 2a 85 cf bb 33
       2.1770342e-12 8.745427e-08 2.8117864e-13 8.745614e-08
000090 3a 15 ab 37 39 fc e5 35 96 82 17 35 9e 1a 9c 37
       2.0394673e-05 1.7135236e-06 5.644191e-07 1.8609044e-05
0000a0 ec 12 fc 35 90 78 b9 37 a7 c4 0f 36 d4 63 c8 35
       1.878097e-06 2.210986e-05 2.1423127e-06 1.4930215e-06
0000b0 05 53 21 38 0f 5d bc 37 9f 18 36 36 6b bb bc 33
       3.846271e-05 2.245468e-05 2.7134445e-06 8.788523e-08
0000c0 6a 64 80 37 fe bc be 36 70 6e dc 35 80 50 02 38
       1.5305548e-05 5.684443e-06 1.6423419e-06 3.1069387e-05
0000d0 6e 6e ad 35 62 a2 8e 38 88 2c bd 32 28 fe 00 33
       1.2921644e-06 6.801334e-05 2.2022746e-08 3.0033476e-08
0000e0 49 17 ed 32 4c 71 09 33 94 36 a5 32 f6 61 f9 32
       2.760102e-08 3.200084e-08 1.9233347e-08 2.9031963e-08
0000f0 0c 82 76 31 ab 50 38 33 a5 92 05 30 7d a2 44 33
       3.5871635e-09 4.2914206e-08 4.859351e-10 4.578259e-08
000100 97 dd 8a 2e 36 52 46 33 85 98 0f 2d 66 8a 46 33
       6.314876e-11 4.6175238e-08 8.162475e-12 4.622634e-08
000110 67 62 94 2b a4 91 46 33 81 51 19 2a 93 92 46 33
       1.0543345e-12 4.6232927e-08 1.3617407e-13 4.6233776e-08
000120 20 c6 78 38 2e b3 84 36 66 32 72 35 06 0b 57 38
       5.9312326e-05 3.954766e-06 9.0225365e-07 5.127026e-05
000130 fd c7 18 36 af f8 76 38 47 12 ff 36 d3 f7 7e 36
       2.2766174e-06 5.8882575e-05 7.60172e-06 3.7993202e-06
000140 8a a9 d7 38 b2 84 8d 38 cf e9 9d 36 a4 18 0d 34
       0.00010283578 6.74812e-05 4.7061835e-06 1.3140613e-07
000150 09 a6 3c 38 cd 50 a0 37 dc 1a 8b 36 28 ab c8 38
       4.4977325e-05 1.9111112e-05 4.1456497e-06 9.5686235e-05
000160 6f e2 a8 36 34 53 43 39 a5 ad 19 33 f9 6b 63 33
       5.0331505e-06 0.00018627645 3.5781017e-08 5.2950757e-08
000170 cd bd 51 33 92 0e 8b 33 7f 42 58 33 2b db a4 33
       4.8834227e-08 6.475342e-08 5.0351897e-08 7.6767115e-08
000180 c3 3b 22 32 03 34 02 34 52 d6 af 30 3b 83 0b 34
       9.443229e-09 1.2126115e-07 1.2793839e-09 1.2993125e-07
000190 57 ce 36 2f 5a c7 0c 34 88 08 bd 2d 81 f1 0c 34
       1.662611e-10 1.311104e-07 2.1490601e-11 1.3126375e-07
0001a0 27 56 43 2c ef f6 0c 34 0d d5 c9 2a ac f7 0c 34
       2.775899e-12 1.312835e-07 3.5852606e-13 1.3128619e-07
0001b0 88 a5 72 37 d3 f8 67 35 b7 0a 1f 34 a5 68 53 37
       1.4462865e-05 8.641629e-07 1.4811927e-07 1.26009445e-05
0001c0 eb e6 c5 34 73 4d 6e 37 cb 6a de 35 9e fd 7b 35
       3.6862124e-07 1.4203938e-05 1.657137e-06 9.387385e-07
0001d0 85 9a d0 37 17 56 88 37 69 ec 8e 35 a8 00 fe 32
       2.4867486e-05 1.6252552e-05 1.0648629e-06 2.956979e-08
0001e0 03 5a 38 37 31 03 95 36 7e 06 89 35 d1 bb bf 37
       1.0988212e-05 4.4409176e-06 1.0209185e-06 2.2856433e-05
0001f0 69 1c 92 35 1d 57 3d 38 b3 d9 cf 31 0c 2c 35 32
       1.0886116e-06 4.5142242e-05 6.0492424e-09 1.0545602e-08
000200 ff 2e 2c 32 1a d8 51 32 ea d7 5c 32 c0 44 8e 32
       1.0022403e-08 1.2214537e-08 1.2854779e-08 1.656224e-08
000210 a4 17 28 31 25 f6 f4 32 5f 76 b6 2f 50 7a 04 33
       2.4460656e-09 2.8517272e-08 3.3189715e-10 3.0844888e-08
000220 cb ba 3d 2e 5a d6 05 33 9a 32 c4 2c a4 03 06 33
       4.313953e-11 3.1161427e-08 5.576273e-12 3.1202617e-08
000230 88 bd 4a 2b 70 09 06 33 8a 7b d1 29 31 0a 06 33
       7.2027844e-13 3.120789e-08 9.302895e-14 3.1208575e-08
000240 69 b9 7b 37 78 24 eb 35 31 95 62 34 29 ce 42 37
       1.5003935e-05 1.7519478e-06 2.1102166e-07 1.16113015e-05
000250 04 4b 14 35 da 73 5e 37 14 f0 27 36 2c 94 3a 35
       5.524346e-07 1.3259205e-05 2.5024683e-06 6.950602e-07
000260 d0 95 c2 37 bf 84 94 37 00 2a 53 35 b0 42 af 32
       2.3196364e-05 1.770479e-05 7.8664743e-07 2.0403007e-08
000270 fa bc 45 37 06 b3 c6 36 d0 77 47 35 c3 90 d8 37
       1.1786115e-05 5.921701e-06 7.4307627e-07 2.5816616e-05
000280 91 06 0b 36 c9 83 32 38 87 01 0f 32 93 6c 29 32
       2.0716436e-06 4.256124e-05 8.324043e-09 9.861782e-09
000290 83 47 27 32 38 16 91 32 07 8d 74 32 24 b1 8a 32
       9.736939e-09 1.6890326e-08 1.4234735e-08 1.6145869e-08
0002a0 16 e5 38 31 d0 0a f4 32 91 81 c8 2f 78 6e 04 33
       2.6905744e-09 2.8410255e-08 3.647185e-10 3.0834116e-08
0002b0 55 77 50 2e 65 d9 05 33 a8 91 d7 2c 94 08 06 33
       4.7399713e-11 3.1164195e-08 6.1268386e-12 3.1207108e-08
0002c0 f5 c1 5e 2b b1 0e 06 33 39 2a e6 29 7b 0f 06 33
       7.9139413e-13 3.1212668e-08 1.0221376e-13 3.1213386e-08
0002d0 37 30 26 39 34 aa fb 36 90 66 21 36 c5 cd 10 39
       0.00015848955 7.500197e-06 2.4050569e-06 0.00013809565
0002e0 0d ca c8 36 0f da 17 39 65 e4 3c 37 26 ca 49 37
       5.9839863e-06 0.00014481715 1.12588505e-05 1.20276e-05
0002f0 15 cd 85 39 20 2f 28 39 67 2e 3b 37 73 5b ae 34
       0.00025520535 0.00016039284 1.11568725e-05 3.2476564e-07
000300 34 33 ee 38 42 ef 1c 38 d3 1e 5e 37 9f 5d 67 39
       0.00011358262 3.7416125e-05 1.3239408e-05 0.00022064753
000310 90 4b d6 36 49 b3 f4 39 89 17 84 33 17 13 f6 33
       6.3864936e-06 0.00046672884 6.15101e-08 1.145874e-07
000320 54 ad eb 33 5f 61 e5 33 cb c3 e5 33 ae 5f 35 34
       1.09745685e-07 1.0681355e-07 1.0699258e-07 1.6891747e-07
000330 7e a4 a9 32 0f a8 91 34 b6 85 37 31 e3 f7 9b 34
       1.9748992e-08 2.7130633e-07 2.670601e-09 2.905136e-07
000340 18 c0 be 2f 70 5d 9d 34 ef 3d 45 2e f5 8b 9d 34
       3.469729e-10 2.9311514e-07 4.4847622e-11 2.934536e-07
000350 84 d1 cb 2c ed 91 9d 34 8f 98 52 2b b4 92 9d 34
       5.792868e-12 2.9349704e-07 7.4818705e-13 2.935027e-07
000360 b4 84 eb 38 f4 cc fe 36 43 6b 02 36 c7 41 c2 38
       0.00011230391 7.5936496e-06 1.9433944e-06 9.262893e-05
000370 98 93 a5 36 87 b0 c5 38 db a2 19 37 f6 39 04 37
       4.9345654e-06 9.426573e-05 9.157428e-06 7.881308e-06
000380 c7 88 2e 39 2d 99 ec 38 48 fa d0 36 7e 2d 42 34
       0.00016644887 0.00011281888 6.2280196e-06 1.8084208e-07
000390 c3 0f a8 38 0e d6 ef 37 af 92 11 37 4d 34 25 39
       8.0138e-05 2.8590697e-05 8.676826e-06 0.0001575511
0003a0 2b 10 d7 36 77 8d a1 39 11 44 5e 33 75 3c a6 33
       6.4093815e-06 0.00030813713 5.175031e-08 7.7409744e-08
0003b0 ae c4 a7 33 92 61 b6 33 7a bd a7 33 97 8c e3 33
       7.812319e-08 8.4927834e-08 7.811009e-08 1.05960844e-07
0003c0 db 29 78 32 f0 79 3c 34 a6 42 06 31 c7 c9 4a 34
       1.4445017e-08 1.7553225e-07 1.9537452e-09 1.8886122e-07
0003d0 31 8d 8b 2f 2e bb 4c 34 19 4d 10 2e db fb 4c 34
       2.5384275e-10 1.9067076e-07 3.2810286e-11 1.9090605e-07
0003e0 c6 1c 95 2c 32 04 4d 34 18 12 1a 2b 45 05 4d 34
       4.238029e-12 1.9093639e-07 5.47369e-13 1.909403e-07
0003f0 61 4b 19 3a 27 d2 ed 37 f8 56 18 37 f2 dd 03 3a
       0.0005847719 2.8350461e-05 9.080155e-06 0.0005030326

exp_avg f4 [108]
000000 9a d6 1b b8 bf 51 d1 b8 4b 6c 6c 39 9f 1f b5 38
       -3.7154743e-05 -9.981123e-05 0.00022547056 8.6366425e-05
000010 02 6b 26 b8 d5 b3 89 39 08 ba 8a b9 f4 cc 21 3a
       -3.9677143e-05 0.00026264662 -0.00026460015 0.0006172203
000020 55 98 16 3a db 26 f9 b8 0d 91 17 b9 da b1 df 39
       0.0005744745 -0.000118804826 -0.00014454518 0.00042666384
000030 bc 8f d1 39 9f bb 19 b9 da d3 e5 b8 b4 1f 04 b9
       0.00039970677 -0.00014661111 -0.00010959031 -0.00012600311
000040 fd 17 a2 36 f9 52 ec 39 df d8 f7 38 50 ab f6 39
       4.830769e-06 0.00045075247 0.00011818273 0.00047048414
000050 53 3b a5 b8 f6 c9 71 b9 68 44 1b 3a 04 62 4d 39
       -7.878863e-05 -0.00023058787 0.0005922974 0.00019586837
000060 bc 51 f3 b9 27 f2 06 39 40 54 3f b9 11 45 38 39
       -0.0004640947 0.00012869445 -0.00018246565 0.00017573337
000070 13 34 ab b9 56 27 14 3a 28 99 57 b9 e8 37 69 b8
       -0.0003265446 0.00056516135 -0.00020561053 -5.5603596e-05
000080 59 97 a5 38 9f 49 57 38 7d 5d 13 3a 8c df 78 b9
       7.896004e-05 5.132856e-05 0.0005621536 -0.00023734401
000090 ce 77 a6 b1 72 d3 51 b2 41 1e 18 b2 99 b3 d8 b0
       -4.844856e-09 -1.2213478e-08 -8.854443e-09 -1.5767113e-09
0000a0 bf dd 94 b2 b8 97 93 30 98 08 f1 b1 29 6e b3 af
       -1.7330306e-08 1.0738779e-09 -7.015e-09 -3.2638184e-10
0000b0 3b 28 57 32 cd 8d 38 b2 30 75 dc b2 de 3c 66 b1
       1.25237944e-08 -1.0742451e-08 -2.5664662e-08 -3.3504004e-09
0000c0 79 6d 8f b2 66 74 17 33 51 c9 ad b1 88 29 65 31
       -1.6697173e-08 3.526329e-08 -5.0578497e-09 3.3347494e-09
0000d0 2c e8 f3 b2 ec fe db b1 f0 eb ce b2 1a a4 d3 31
       -2.8394503e-08 -6.40272e-09 -2.4088848e-08 6.1595644e-09
0000e0 bb b5 89 30 39 98 57 b2 cb 10 a6 b2 bc fb 4e b0
       1.0019713e-09 -1.25492585e-08 -1.933258e-08 -7.53001e-10
0000f0 cc cb 1d b2 fb 35 8f b2 c1 5c 92 b1 7d 92 09 b2
       -9.184941e-09 -1.6671938e-08 -4.259704e-09 -8.007757e-09
000100 2b 70 c3 b0 6b 84 7c b1 67 47 b9 b2 c6 72 c7 b2
       -1.4219997e-09 -3.6746097e-09 -2.1569305e-08 -2.3218842e-08
000110 c5 9d e1 31 e0 19 90 30 a1 dd b5 31 7e 12 4b 30
       6.566298e-09 1.0484733e-09 5.2929896e-09 7.387725e-10
000120 37 2a 91 bb fb 05 9a 3a 90 b8 99 bb 55 05 4a bb
       -0.004430081 0.001175105 -0.004691191 -0.0030825932
000130 11 a4 56 bb d3 09 70 3b b6 1f 63 b7 6f ad 76 ba
       -0.00327516 0.003662695 -1.3537638e-05 -0.0009409999
000140 55 0e 2a bb 51 fb 27 b9 08 1c 3c bb 37 e4 24 bb
       -0.0025948484 -0.00016019984 -0.0028703231 -0.002516044
000150 ea 9b 88 bb 65 c3 9b 3a e0 bc ed 3a d7 14 88 bb
       -0.004168977 0.0011883794 0.0018137954 -0.004152875
000160 32 2f 88 ba 3f e1 11 3b 42 cc 44 39 d2 03 a3 b9
       -0.0010390042 0.0022259501 0.00018768109 -0.0003109263
000170 e2 40 3e bb e0 fc bb 3a e2 d7 8c bb ad 73 df ba
       -0.0029030372 0.001434233 -0.004298196 -0.0017048024
000180 32 13 74 3b ae c1 80 bb 4a a7 60 ba 1c 24 6d ba
       0.0037242887 -0.0039293384 -0.000856985 -0.0009046213
000190 a1 d1 af 3b 20 1f 2c 3b 5d 44 8d 3b 2d a6 dc 3a
       0.005365566 0.002626367 0.004311128 0.0016834192
0001a0 e1 e0 ab bb 4f f6 d0 ba 63 fe ae 3b 40 fe 07 3b
       -0.0052453135 -0.0015942546 0.005340384 0.002075091
