SensorFormer/SensorFormer/result/individual/LCS16_9.pt (torch, 81661 bytes, 35 tensors)

self_attn.qkv_proj.weight f4 [108, 36]
-0.13928476 -0.065282926 -0.045401786 -0.043916836 -0.089116946 0.19285302 0.009680603 0.14163859
0.11151975 0.06371621 -0.14011748 0.0044839443 0.09987382 0.1654936 0.05620012 -0.17835665
-0.10620335 0.058906663 -0.071726106 0.14460745 0.16278738 -0.15596125 -0.1292899 0.09436909
-0.14511168 -0.05039155 -0.123344 -0.025102656 0.059077147 -0.17108332 -0.17751649 0.17588028
-0.14051424 0.0069980808 -0.022970626 -0.05445435 0.08030776 -0.17539907 0.021049121 0.035361588
-0.012938543 -0.039704327 0.13204916 -0.06953219 0.10982647 0.18119146 -0.2122499 -0.07111988
-0.14389275 -0.07704757 0.03121636 0.13503684 -0.16801012 -0.019169055 -0.0778044 0.079900295
0.0760144 0.049482584 -0.06968034 -0.14195988 0.05921756 0.117966466 0.19682203 0.21028581
0.02140329 0.20034006 -0.0001032625 -0.043923102 0.114158146 0.15133196 -0.16259329 0.057394
-0.059178196 -0.16967663 -0.090146266 -0.093077 -0.16818967 0.15228792 -0.037990157 -0.15277946
0.04149489 -0.19105954 -0.09411658 -0.12151659 0.1667296 0.107233375 -0.07658836 -0.0009019029
-0.1408742 -0.14997903 -0.04261731 0.16191724 0.17680934 -0.03864661 -0.09067615 -0.10074092
0.01922985 -0.08456033 -0.12662682 0.038533527 -0.08985804 -0.18537688 0.06776865 0.06307802
-0.06352338 -0.12633355 -0.074184366 0.14042087 0.11480997 -0.09412848 0.08771914 -0.15605658
-0.019424396 0.04890857 0.20671694 0.079713516 -0.04661556 -0.10558086 0.038279124 0.17297062
0.100525714 0.12929864 0.18450527 0.054993466 -0.06425006 -0.012467369 -0.104172006 0.06793789
-0.1723567 -0.09770732 0.16530055 -0.16218221 0.036209527 0.11194238 -0.027707886 0.014396403
-0.053451736 -0.014537796 -0.156347 0.17838754 0.00019093826 0.17963323 0.05866642 -0.007086079
0.065322466 -0.030339796 -0.2080287 -0.11895524 0.1558839 0.09334676 -0.12832257 0.09917998
-0.024741381 -0.02746039 0.056068916 -0.0890533 -0.15674551 0.10476782 -0.21809022 0.093748815
-0.12063153 -0.12486686 0.020801168 0.0814038 -0.06976377 -0.021372654 0.22402258 -0.10630737
0.071022116 -0.03158616 -0.02691172 0.041279003 0.16435848 -0.051001918 0.038682636 0.0068088965
0.06977494 -0.11784889 -0.06519685 -0.069170445 0.12840575 -0.13766666 -0.017583093 0.14792962
0.06003065 0.16480187 -0.011738835 0.07033291 0.009939947 -0.15812673 0.11959916 -0.00050106394
0.025685726 0.21165313 0.11255723 -0.12674096 0.10870498 0.18387394 -0.08810697 0.07394377
0.03487322 0.1575781 -0.21460369 -0.03762311 0.17251532 -0.14813845 0.13015257 0.14812905
-0.18754756 -0.12821525 0.18074496 -0.078600794 0.09014451 -0.21536826 -0.041489772 -0.21871182
-0.18740758 -0.09463156 -0.14543031 0.12645605 -0.1837271 -0.026669327 0.08275218 -0.08521584
-0.006862284 0.13808109 0.017505527 0.030535849 -0.1569584 0.2023588 -0.06446155 -0.07295757
-0.044491485 -0.20429002 0.09843994 -0.21553999 -0.16793092 -0.085818194 -0.13746466 -0.06549342
0.004152131 -0.14757404 -0.0077972 -0.016328663 0.08021152 -0.03274405 -0.15666562 -0.07955988
-0.04998746 -0.1504953 0.09827325 0.08098912 0.115487196 -0.08758216 0.18835455 0.13568172
00000000: aaa0 0ebe 0eb3 85bd 39f7 39bd 24e2 33bd
00000010: f282 b6bd 437b 453e 649b 1e3c b509 113e
00000020: 7764 e43d a57d 823d f57a 0fbe 0dee 923b
00000030: a58a cc3d 2777 293e 1932 663d 20a3 36be
00000040: 2481 d9bd 1d48 713d 23e5 92bd fa13 143e
00000050: bcb1 263e 4eb4 1fbe 9264 04be 9544 c13d
00000060: 2898 14be 5f67 4ebd c79b fcbd 16a4 cdbc
00000070: e1fa 713d 7730 2fbe e2c6 35be f619 343e
00000080: f7e2 0fbe 2850 e53b e52c bcbc 860b 5fbd
00000090: 6578 a43d d09b 33be 356f ac3c 50d7 103d
000000a0: 2ffc 53bc 01a1 22bd e537 073e e566 8ebd
000000b0: b3ec e03d 418a 393e 0a58 59be 4da7 91bd
000000c0: 9f58 13be 1ecb 9dbd 74b9 ff3c 1947 0a3e
000000d0: d80a 2cbe 6c08 9dbc ea57 9fbd c4a2 a33d
000000e0: 70ad 9b3d 40ae 4a3d 91b4 8ebd ee5d 11be
000000f0: 1d8e 723d 6798 f13d b78b 493e 2a55 573e
00000100: f455 af3c f225 4d3e a28e d8b8 b6e8 33bd
00000110: bfcb e93d c4f6 1a3e db7e 26be f915 6b3d
00000120: d664 72bd b6bf 2dbe 9b9e b8bd 279f bebd
00000130: ea39 2cbe 5df1 1b3e 919b 1bbd 3872 1cbe
00000140: 8cf6 293d 1da5 43be 32c0 c0bd b1dd f8bd
00000150: 2abb 2a3e 2c9d db3d 5cda 9cbd ae6d 6cba
00000160: 5441 10be 1a94 19be 7d8f 2ebd a2cd 253e
00000170: 820d 353e e84b 1ebd 6bb4 b9bd 4151 cebd
00000180: eb87 9d3c f72d adbd 76aa 01be 55d5 1d3d
00000190: 7e07 b8bd 70d3 3dbe 4aca 8a3d 0d2f 813d
000001a0: 8c18 82bd 955d 01be f9ed 97bd 7dca 0f3e
000001b0: 7d21 eb3d 6fc6 c0bd 18a6 b33d 4ccd 1fbe
000001c0: e91f 9fbc 5a54 483d 9bad 533e d740 a33d
000001d0: f5ef 3ebd c73a d8bd 92ca 1c3d 361f 313e
000001e0: 6de0 cd3d dd66 043e f3ee 3c3e d440 613d
000001f0: 8995 83bd f043 4cbc 2258 d5bd 0523 8b3d
00000200: 467e 30be c61a c8bd 8c44 293e 1813 26be
00000210: 7150 143d 0c42 e53d a6fb e2bc e4de 6b3c
00000220: 35f0 5abd f02f 6ebc 6e19 20be 39ab 363e
00000230: 9936 4839 c6f1 373e 334c 703d 5732 e8bb
00000240: c9c7 853d 2a8b f8bc 7a05 55be ce9e f3bd
00000250: 07a0 1f3e 962c bf3d fe66 03be e01e cb3d
00000260: 70ae cabc 9df4 e0bc 85a8 653d 9461 b6bd
00000270: e581 20be 8390 d63d 0b53 5fbe 61ff bf3d
00000280: aa0d f7bd 32ba ffbd 3667 aa3c 09b7 a63d
00000290: 4fe0 8ebd b415 afbc 2d66 653e aeb7 d9bd
000002a0: 0b74 913d 7d60 01bd f875 dcbc 2c14 293d
000002b0: 974d 283e 63e7 50bd af71 1e3d 2a1d df3b
000002c0: 2ae6 8e3d c25a f1bd ed85 85bd 3ca9 8dbd
000002d0: cc7c 033e 7df8 0cbe 6b0a 90bc dd7a 173e
000002e0: b3e2 753d d2c1 283e 3e54 40bc b30a 903d
000002f0: 29db 223c f9eb 21be 68f0 f43d d559 03ba
00000300: df6a d23c 99bb 583e 6884 e63d 62c8 01be
00000310: b7a0 de3d 7349 3c3e 6d71 b4bd d56f 973d
00000320: 39d7 0e3d 275c 213e 12c1 5bbe b11a 1abd
00000330: dba7 303e 9bb1 17be b746 053e 24af 173e
00000340: 780c 40be dc4a 03be 3515 393e 74f9 a0bd
00000350: af9d b83d 7f89 5cbe 2ef1 29bd fef5 5fbe
00000360: c6e7 3fbe 31ce c1bd afeb 14be b27d 013e
00000370: f522 3cbe a279 dabc fa79 a93d a485 aebd
00000380: 03dd e0bb 2165 0d3e c067 8f3c 5126 fa3c
00000390: b4b9 20be 2537 4f3e 6b04 84bd c76a 95bd
000003a0: b43c 36bd 6731 51be e19a c93d 84b6 5cbe
000003b0: 15f6 2bbe 73c1 afbd 89c3 0cbe 6a21 86bd
000003c0: 990e 883b a61d 17be a87f ffbb b0c3 85bc
000003d0: f045 a43d a01e 06bd f46c 20be 4af0 a2bd
000003e0: a7bf 4cbd 711b 1abe 7c43 c93d a0dd a53d
000003f0: 8d84 ec3d 475e b3bd 04e0 403e 26f0 0a3e

self_attn.qkv_proj.bias f4 [108]
0.00040755182 0.0076508233 0.008057832 0.010664473 0.02887607 -0.018489331 0.006497601 -0.023637554
0.025620896 1.1226038e-05 0.012802541 0.009973482 0.038859524 0.0162939 0.0006307616 0.017599463
-0.036204297 0.012968788 -0.008152774 -0.019429008 0.0045364816 0.00874785 -0.016811643 -0.013450342
-0.014997085 0.007431712 -0.0103585785 -0.020395886 -0.015967796 0.019080045 0.009044792 -0.027318873
0.019252628 0.015175226 0.001369483 0.008362027 0.0072205565 -0.014173617 -0.007141941 -0.008697704
0.002487738 0.016334364 -0.017012084 0.016578881 -0.015917428 0.010298303 -0.0111432485 0.012333228
-0.017574623 -0.015766902 0.015368127 -0.011458254 0.011493551 -0.011921567 0.011199266 0.011996028
-0.00065999903 0.012219741 -0.009444877 0.012446055 0.015713776 -0.017402207 -0.007115902 -0.008795262
-0.002619266 -0.015777567 -0.0085015 0.012036209 -0.004567242 -0.006068396 0.00301667 0.0067143883
-0.05432971 0.014585111 0.026386552 -0.025251186 -0.051679935 -0.041651197 0.0006969715 0.039413128
0.010210633 -0.05773427 -0.046956286 0.037619766 -0.01372626 -0.037218858 0.031127885 -0.020917704
-0.020627048 0.017215824 -0.0057656113 -0.05990086 -0.05431054 0.018014833 0.026624432 -0.06864301
0.032357447 -0.026670642 0.005513801 0.04436318 -0.046915557 0.028347949 0.038240425 0.05957784
0.030423507 -0.021538686 -0.015821636 -0.013536064
00000000: aeac d539 c2b3 fa3b ff04 043c 0bba 2e3c
00000010: 828d ec3c f076 97bc d4e9 d43b 8ba3 c1bc
00000020: eae2 d13c 7757 3c37 c0c1 513c d167 233c
00000030: 2a2b 1f3d c97a 853c b259 253a c02c 903c
00000040: f54a 14bd 0a7b 543c 3693 05bc 9529 9fbc
00000050: c4a6 943b 2453 0f3c 92b8 89bc d35e 5cbc
00000060: 55b6 75bc b885 f33b 07b7 29bc 4615 a7bc
00000070: e5ce 82bc c14d 9c3c 9b30 143c d4cb dfbc
00000080: b0b7 9d3c 83a1 783c 3980 b33a e200 093c
00000090: 6b9a ec3b 7538 68bc f206 eabb d180 0ebc
000000a0: 5109 233b a5cf 853c ed5c 8bbc 6fd0 873c
000000b0: 4465 82bc 37ba 283c 2c92 36bc 4f11 4a3c
000000c0: a8f8 8fbc 9729 81bc 99ca 7b3c 67bb 3bbc
000000d0: 724f 3c3c ad52 43bc 207d 373c fd8a 443c
000000e0: c903 2dba 4f35 483c afbe 1abc 8aea 4b3c
000000f0: 2dba 803c 138f 8ebc 832c e9bb 011a 10bc
00000100: fea7 2bbb f53f 81bc e049 0bbc 8533 453c
00000110: cea8 95bb 65d9 c6bb 53b3 453b 5f04 dc3b
00000120: d488 5ebd 64f6 6e3c 9c28 d83c 93db cebc
00000130: 57ae 53bd 729a 2abd f7b4 363a a96f 213d
00000140: 804a 273c c57a 6cbd 3c55 40bd 2f17 1a3d
00000150: 1be4 60bc cd72 18bd e8ff fe3c 9b5b abbc
00000160: 0efa a8bc 3308 8d3c 74ed bcbb 9b5a 75bd
00000170: bb74 5ebd d893 933c 7b1b da3c b594 8cbd
00000180: 3e89 043d 647c dabc 1dad b43b 2ab6 353d
00000190: 872a 40bd f539 e83c fea1 1c3d e507 743d
000001a0: b83a f93c e671 b0bc 609c 81bc 5ec6 5dbc

self_attn.o_proj.weight f4 [36, 36]
0.05825141 0.045338113 0.10840801 -0.22568573 -0.22569343 0.18875894 -0.21813954 0.20491515
-0.07345789 -0.064922184 0.025257358 0.059205692 -0.064514466 -0.19916297 0.2566084 -0.14368103
-0.23778911 0.22393885 0.193964 0.018965954 0.09104288 0.22667584 -0.066179834 -0.14586924
0.009155547 -0.16847216 0.06721336 -0.077687666 0.016266974 0.20818746 0.08568542 0.21659009
0.10518378 -0.01588113 -0.14984253 -0.06631657 0.26591814 -0.13426293 -0.14042507 -0.11420898
0.05794412 -0.034292586 -0.29227868 0.0013656225 -0.118191026 0.16557017 0.19789903 -0.026618011
-0.22240663 0.26451978 -0.22054619 0.27848792 0.19426645 0.17999196 0.023977455 0.121910594
-0.10217789 0.010713521 -0.034504883 0.30341455 -0.22192405 -0.16646846 0.20998144 0.093675025
-0.18542689 0.19130486 -0.086274266 -0.23466319 0.24540786 -0.060731 -0.1477748 -0.13581158
-0.109073535 0.12512398 -0.23364857 -0.006330352 -0.07527738 0.33671546 0.16411483 -0.20044944
-0.2705654 0.28028294 0.3307943 0.14624622 0.19530702 -0.15880114 -0.063809335 -0.06710014
0.29772067 -0.10491205 0.005389582 -0.20458008 -0.11742807 -0.08702633 0.18464093 0.064788744
-0.21311265 0.012991552 0.024038909 0.10143221 0.30855298 0.08753744 0.20256042 0.12249442
-0.03860397 0.10699733 0.090413146 0.21288812 -0.22582684 -0.16829835 0.26918486 0.15812242
0.29389668 0.26500785 0.032526642 -0.20853624 0.1959219 -0.13570756 0.13022576 -0.011298993
0.23375778 0.285461 -0.04615541 -0.08094622 0.08230363 -0.029329006 0.21424596 -0.21928929
0.26534703 -0.04677406 -0.08308605 -0.20378973 0.09646135 0.23365045 0.15680948 -0.27428597
0.24380367 -0.29150328 0.17080696 -0.2083623 0.15946193 0.07150136 0.0029289105 -0.17535722
0.114304096 0.03761941 -0.20656657 0.020463223 -0.055059697 0.18768701 0.20566957 0.23110117
-0.3185805 0.06715573 0.2795966 -0.07054781 0.185838 0.03937785 -0.21388647 0.29849756
-0.103325285 0.24834938 -0.24977893 -0.07267592 0.24048673 0.17922327 -0.008015521 0.20011202
-0.19816287 0.08956997 -0.18258165 0.18388128 0.15235896 0.23880322 0.04494919 -0.09184174
0.1161273 -0.11177413 0.2270983 -0.18135986 -0.22942635 0.10330147 -0.040420413 0.061662707
-0.25113592 0.0009343518 -0.10261359 0.18379179 -0.13211125 0.039197367 -0.19476146 -0.30195132
-0.21721326 0.23536992 0.24076372 -0.010455723 0.3163489 -0.17985952 0.15894969 0.07567952
-0.013851883 -0.13678803 -0.22585408 0.30082157 -0.27119887 -0.1463378 -0.015171784 0.2250555
-0.17460178 -0.24874696 -0.11925242 0.22251438 -0.03784162 0.113131784 0.16629754 -0.13695273
-0.009120177 0.21000598 -0.09037656 0.066304095 -0.18187258 0.1290256 -0.123641044 -0.044116136
0.0512229 -0.01544994 0.14382902 0.21841589 -0.16811824 -0.3158939 0.2332184 0.11832281
-0.2128353 0.24806799 0.15763281 0.074456446 -0.23778133 -0.14002603 0.064722486 -0.09012411
0.2101561 -0.15828118 -0.045691792 0.1869873 -0.13613144 -0.1964735 0.11042531 -0.17278843
0.045108594 0.15090199 0.043618627 0.14033411 -0.08972855 -0.2886853 0.26779452 -0.094820924
00000000: 0899 6e3d 75b4 393d 0505 de3d 291a 67be
00000010: 2e1c 67be 064a 413e f95f 5fbe 47d5 513e
00000020: 1771 96bd ecf5 84bd 85e8 ce3c ab81 723d
00000030: 2920 84bd 61f1 4bbe 2d62 833e 1f21 13be
00000040: fd7e 73be 3a50 653e 809e 463e 7d5e 9b3c
00000050: b174 ba3d b61d 683e 4b89 87bd bf5e 15be
00000060: 2601 163c f783 2cbe 28a7 893d b61a 9fbd
00000070: 5142 853c 182f 553e d67b af3d cbc9 5d3e
00000080: 986a d73d 2519 82bc 5270 19be fbd0 87bd
00000090: 6c26 883e 397c 09be 97cb 0fbe 66e6 e9bd
000000a0: d056 6d3d 6276 0cbd 8da5 95be b0fe b23a
000000b0: 230e f2bd 3a8b 293e 0ba6 4a3e 040e dabc
000000c0: 90be 63be 236f 873e dcd6 61be f895 8e3e
000000d0: c9ed 463e d04f 383e 5e6c c43c 43ac f93d
000000e0: a442 d1bd c487 2f3c fe54 0dbd 2759 9b3e
000000f0: 0f40 63be b576 2abe 6005 573e b1d8 bf3d
00000100: 8ce0 3dbe 6ce5 433e 90b0 b0bd 8c4b 70be
00000110: 334c 7b3e 12c1 78bd 4752 17be 3112 0bbe
00000120: f261 dfbd 8020 003e 9241 6fbe d76e cfbb
00000130: 072b 9abd f865 ac3e b80d 283e 9e42 4dbe
00000140: 8c87 8abe 3f81 8f3e df5d a93e 92c1 153e
00000150: 90fe 473e c49c 22be 78ae 82bd cc6b 89bd
00000160: d86e 983e 21dc d6bd 179b b03b 717d 51be
00000170: 217e f0bd dc3a b2bd 8312 3d3e f6af 843d
00000180: 343a 5abe 85da 543c 3fed c43c b1bb cf3d
00000190: a8fa 9d3e d446 b33d 006c 4f3e 5bde fa3d
000001a0: 321f 1ebd 6b21 db3d 872a b93d 58ff 593e
000001b0: 273f 67be 6756 2cbe 99d2 893e d8ea 213e
000001c0: a079 963e 1caf 873e a83a 053d 868a 55be
000001d0: c09f 483e ecf6 0abe e759 053e 691f 39bc
000001e0: 335e 6f3e f227 923e 750d 3dbd 22c7 a5bd
000001f0: ce8e a83d 6243 f0bc 4b63 5b3e 5f8d 60be
00000200: 91db 873e 2896 3fbd 0529 aabd 41ae 50be
00000210: 878d c53d 1042 6f3e aa92 203e 366f 8cbe
00000220: aba7 793e eb3f 95be 05e8 2e3e ed5c 55be
00000230: fd49 233e 4e6f 923d f7f2 3f3b d890 33be
00000240: 4418 ea3d cf16 1a3d 3086 53be 7da2 a73c
00000250: 4786 61bd 0631 403e 0b9b 523e c9a5 6c3e
00000260: fc1c a3be f288 893d 4927 8f3e 5f7b 90bd
00000270: 514c 3e3e ab4a 213d 0e05 5bbe acd4 983e
00000280: 359c d3bd 4d4f 7e3e 0cc6 7fbe 1dd7 94bd
00000290: 2742 763e 4e86 373e 8853 03bc 2aea 4c3e
000002a0: 35eb 4abe 7670 b73d aff6 3abe 604b 3c3e
000002b0: fd03 1c3e d588 743e a41c 383d 8617 bcbd
000002c0: 26d4 ed3d d6e9 e4bd 758c 683e 66b6 39be
000002d0: beee 6abe b98f d33d e08f 25bd 0992 7c3d
000002e0: e394 80be 4aef 743a 1327 d2bd ea33 3c3e
000002f0: 2c48 07be 6b8d 203d 8c6f 47be 5d99 9abe
00000300: 276d 5ebe d004 713e c48a 763e 7b4e 2bbc
00000310: 7cf8 a13e 182d 38be b5c3 223e ddfd 9a3d
00000320: 02f3 62bc 2912 0cbe 4b46 67be 4905 9a3e
00000330: 94da 8abe 94d9 15be 1393 78bc f374 663e
00000340: cfca 32be 86b7 7ebe 9d3a f4bd cfda 633e
00000350: d1ff 1abd a3b1 e73d e749 2a3e 563d 0cbe
00000360: cb6c 15bc cf0b 573e 5917 b9bd 71ca 873d
00000370: ce3c 3abe 491f 043e 8437 fdbd 1fb3 34bd
00000380: 1bcf 513d bf21 7dbc ea47 133e 6aa8 5f3e
00000390: 3027 2cbe d8bc a1be ced0 6e3e 3b53 f23d
000003a0: 7ff1 59be 8905 7e3e 7f6a 213e 9f7c 983d
000003b0: f37c 73be fc62 0fbe 398d 843d fd92 b8bd
000003c0: 2933 573e 7614 22be 5127 3bbd 9979 3f3e
000003d0: 0a66 0bbe 5930 49be aa26 e23d 73ef 30be
000003e0: cac3 383d 0d86 1a3e 72a9 323d bfb3 0f3e
000003f0: 9ac3 b7bd 8fce 93be 5d1c 893e 7931 c2bd

self_attn.o_proj.bias f4 [36]
0.042486854 -0.016098583 -0.020218572 -0.04687827 -0.05031287 -0.012347001 0.041468255 0.02504251
-0.02429561 -0.025554344 -0.02523723 -0.04947532 -0.011296882 -0.04766615 0.030301401 0.04612751
0.048914433 0.04153686 0.032532115 -0.03561202 0.008261504 -0.016050048 0.021720031 0.04765803
0.032717615 0.05771427 -0.018478468 0.034710433 -0.008098366 0.035872307 -0.014792044 -0.048136823
-0.04768924 -0.03628019 -0.008743387 -0.03124894
00000000: b206 2e3d 2de1 83bc 6ba1 a5bc 6e03 40bd
00000010: de14 4ebd 134b 4abc 9eda 293d f325 cd3c
00000020: 9607 c7bc 5857 d1bc 4fbe cebc a2a6 4abd
00000030: 8f16 39bc 953d 43bd a53a f83c 33f0 3c3d
00000040: 805a 483d 8e22 2a3d 6540 053d e9dd 11bd
00000050: 425b 073c 647b 83bc 35ee b13c 1135 433d
00000060: e802 063d cc65 6c3d 2860 97bc 872c 0e3d
00000070: 02af 04bc d7ee 123d 545a 72bc 1e2b 45bd
00000080: cb55 43bd 899a 14bd 6c40 0fbc c7fd ffbc

fc.weight f4 [1, 18]
-0.025101257 -0.1982359 0.13315165 -0.20773019 -0.22499104 0.09683938 0.21969935 -0.016329346
0.18033889 -0.21562806 -0.062296443 0.06647216 0.13554005 0.0127626555 0.16904157 0.07709946
0.18406114 -0.05776397
00000000: 27a1 cdbc 5afe 4abe e858 083e 39b7 54be
00000010: 0d64 66be ba53 c63d def8 603e 1fc5 85bc
00000020: c2aa 383e 9acd 5cbe 8e2a 7fbd 8e22 883d
00000030: 03cb 0a3e 751a 513c 3c19 2d3e 52e6 9d3d
00000040: 867a 3c3e ea99 6cbd

fc1.weight f4 [1, 36]
0.37959126 -0.39158976 -0.2583734 -0.3822277 -0.31495085 -0.35173714 0.44448298 0.37336847
0.35754186 -0.3338487 -0.42450163 -0.22354953 -0.32555574 -0.41286516 0.27324823 0.279258
-0.17818514 0.3187492 0.3661225 -0.36217365 0.3388695 -0.29846698 0.39857802 0.36879358
0.44454557 0.4529825 -0.42057964 0.45009828 0.33669057 0.4573423 0.06499643 -0.1681811
-0.42903686 -0.41369605 0.2997997 -0.37810144
00000000: c959 c23e 747e c8be 8549 84be 59b3 c3be
00000010: 3d41 a1be e416 b4be 4693 e33e 272a bf3e
00000020: ba0f b73e 38ee aabe 4758 d9be 2bea 64be
00000030: 3eaf a6be 1063 d3be 31e7 8b3e e8fa 8e3e
00000040: 2a76 36be 1833 a33e 6974 bb3e d36e b9be
00000050: 4e80 ad3e aad0 98be 6b12 cc3e 83d2 bc3e
00000060: 7a9b e33e 52ed e73e 3756 d7be 4873 e63e
00000070: b562 ac3e c528 ea3e d91c 853d ab37 2cbe
00000080: b8aa dbbe f8cf d3be 597f 993e 8396 c1be

fc2.weight f4 [1, 9]
-0.14936094 0.13139367 0.108816504 -0.267766 -0.12299204 -0.21645975 -0.10585924 0.052962266
-0.035726868
00000000: 13f2 18be 108c 063e 30db de3d a018 89be
00000010: 40e3 fbbd a0a7 5dbe bbcc d8bd f6ee 583d
00000020: 5656 12bd

fc3.weight f4 [1, 2]
0.16702534 0.20080023
00000000: b108 2b3e 939e 4d3e

input_fc.weight f4 [18, 3]
0.52020806 0.04118741 -0.15992303 -0.003497164 0.23426405 -0.1837718 0.3151599 -0.3792594
-0.06678617 -0.44251502 0.22037777 -0.39558214 -0.19025625 -0.42900556 0.15676546 0.16929522
-0.3746887 -0.271978 0.5431179 0.543341 0.090124406 0.17745312 -0.5009373 0.2934325
-0.028088387 0.5231362 0.4324491 -0.14456806 -0.061838627 -0.2327868 -0.08795633 -0.16900137
0.088577636 0.32120016 0.5703695 0.099048845 0.15293747 -0.5954504 0.28406784 -0.5370582
-0.20492433 0.33067727 -0.29382986 -0.41193545 0.22402732 -0.41754568 -0.0668898 -0.4659709
-0.25277042 -0.5057401 -0.42732257 -0.32859153 -0.32946238 -0.4365091
00000000: 5b2c 053f 21b4 283d ddc2 23be ad30 65bb
00000010: eae2 6f3e ad2e 3cbe a35c a13e 4a2e c2be
00000020: 30c7 88bd 5491 e2be b6aa 613e be89 cabe
00000030: 89d2 42be 9ea6 dbbe 2087 203e ba5b 2d3e
00000040: 33d7 bfbe b340 8bbe c609 0b3f 6518 0b3f
00000050: 2593 b83d 45b6 353e 6d3d 00bf c93c 963e
00000060: 9e19 e6bc 41ec 053f f869 dd3e a609 14be
00000070: 804a 7dbd aa5f 6ebe 7322 b4bd b20e 2dbe
00000080: 3168 b53d 5974 a43e bc03 123f 1fda ca3d
00000090: a49b 1c3e 706f 18bf 5771 913e a57c 09bf
000000a0: afd7 51be 884e a93e de70 96be 34e9 d2be
000000b0: 6b67 653e 8cc8 d5be 85fd 88bd bd93 eebe
000000c0: 206b 81be 2f78 01bf 06ca dabe 263d a8be
000000d0: 4baf a8be 1f7e dfbe

input_fc.bias f4 [18]
0.5578823 -0.55607307 0.17837377 -0.35078675 -0.30171487 0.122399844 -0.34443194 0.39852092
0.14486401 0.0702674 -0.058081366 -0.13733518 0.30916023 0.09358248 -0.21106182 0.33325553
-0.1761548 -0.4342268
00000000: 60d1 0e3f ce5a 0ebf 9da7 363e 529a b3be
00000010: 5f7a 9abe c5ac fa3d 6259 b0be ef0a cc3e
00000020: 3b57 143e 5be8 8f3d bae6 6dbd 98a1 0cbe
00000030: 404a 9e3e 2ca8 bf3d 9720 58be 78a0 aa3e
00000040: ed61 34be fa52 debe

norm.weight f4 [36]
1.0 1.0 1.0 1.0 1.0 1.0 1.0 1.0
1.0 1.0 1.0 1.0 1.0 1.0 1.0 1.0
1.0 1.0 1.0 1.0 1.0 1.0 1.0 1.0
1.0 1.0 1.0 1.0 1.0 1.0 1.0 1.0
1.0 1.0 1.0 1.0
00000000: 0000 803f 0000 803f 0000 803f 0000 803f
00000010: 0000 803f 0000 803f 0000 803f 0000 803f
00000020: 0000 803f 0000 803f 0000 803f 0000 803f
00000030: 0000 803f 0000 803f 0000 803f 0000 803f
00000040: 0000 803f 0000 803f 0000 803f 0000 803f
00000050: 0000 803f 0000 803f 0000 803f 0000 803f
00000060: 0000 803f 0000 803f 0000 803f 0000 803f
00000070: 0000 803f 0000 803f 0000 803f 0000 803f
00000080: 0000 803f 0000 803f 0000 803f 0000 803f

norm.bias f4 [36]
0.0 0.0 0.0 0.0 0.0 0.0 0.0 0.0
0.0 0.0 0.0 0.0 0.0 0.0 0.0 0.0
0.0 0.0 0.0 0.0 0.0 0.0 0.0 0.0
0.0 0.0 0.0 0.0 0.0 0.0 0.0 0.0
0.0 0.0 0.0 0.0
00000000: 0000 0000 0000 0000 0000 0000 0000 0000
00000010: 0000 0000 0000 0000 0000 0000 0000 0000
00000020: 0000 0000 0000 0000 0000 0000 0000 0000
00000030: 0000 0000 0000 0000 0000 0000 0000 0000
00000040: 0000 0000 0000 0000 0000 0000 0000 0000
00000050: 0000 0000 0000 0000 0000 0000 0000 0000
00000060: 0000 0000 0000 0000 0000 0000 0000 0000
00000070: 0000 0000 0000 0000 0000 0000 0000 0000
00000080: 0000 0000 0000 0000 0000 0000 0000 0000

norm1.weight f4 [9]
1.0 1.0 1.0 1.0 1.0 1.0 1.0 1.0
1.0
00000000: 0000 803f 0000 803f 0000 803f 0000 803f
00000010: 0000 803f 0000 803f 0000 803f 0000 803f
00000020: 0000 803f

norm1.bias f4 [9]
0.0 0.0 0.0 0.0 0.0 0.0 0.0 0.0
0.0
00000000: 0000 0000 0000 0000 0000 0000 0000 0000
00000010: 0000 0000 0000 0000 0000 0000 0000 0000
00000020: 0000 0000

norm2.weight f4 [9]
1.0 1.0 1.0 1.0 1.0 1.0 1.0 1.0
1.0
00000000: 0000 803f 0000 803f 0000 803f 0000 803f
00000010: 0000 803f 0000 803f 0000 803f 0000 803f
00000020: 0000 803f

norm2.bias f4 [9]
0.0 0.0 0.0 0.0 0.0 0.0 0.0 0.0
0.0
00000000: 0000 0000 0000 0000 0000 0000 0000 0000
00000010: 0000 0000 0000 0000 0000 0000 0000 0000
00000020: 0000 0000

m.running_mean f4 [12]
-4.5586104 -4.534816 -4.551443 -4.586738 -4.6058483 -4.5940566 -4.567721 -4.560704
-4.5897818 -4.638129 -4.670797 -4.6634574
00000000: 23e0 91c0 361d 91c0 6ca5 91c0 8fc6 92c0
00000010: 1c63 93c0 8302 93c0 c52a 92c0 4af1 91c0
00000020: 7edf 92c0 8e6b 94c0 2b77 95c0 0b3b 95c0

m.running_var f4 [12]
1608.853 1612.9362 1616.5449 1617.4183 1615.6808 1613.8849 1614.1746 1616.756
1619.2262 1618.8744 1615.4514 1611.0581
00000000: 4c1b c944 f59d c944 7011 ca44 632d ca44
00000010: c9f5 c944 51bc c944 96c5 c944 3118 ca44
00000020: 3d67 ca44 fb5b ca44 72ee c944 dc61 c944

linear_net.0.weight f4 [9, 18]
-0.111524045 0.13827541 -0.15326224 -0.087663844 0.13868076 -0.03508548 -0.22996633 0.04262634
-0.13590369 -0.22452351 -0.18582903 -0.23011887 0.030001251 0.21766756 0.20837136 0.13750966
0.009403074 0.14164086 0.1603943 0.13409132 0.045930512 0.10410462 0.19172756 -0.16768456
-0.14479797 -0.03145234 0.2193862 0.007862944 -0.09481526 0.052570608 0.054932404 -0.012081563
0.21646555 0.21826482 0.10222325 0.044739835 0.06260321 0.06143083 0.05203481 0.051534414
0.030393526 -0.1346403 -0.17424333 0.10006022 -0.0924424 -0.052456953 0.091464706 -0.21335378
0.04390145 0.0006802501 0.015189781 -0.21343195 0.05971801 -0.1597771 0.1916873 -0.06859361
-0.0054266597 -0.0855581 -0.1504041 0.1733381 0.051848605 -0.15249607 0.21867886 0.040211804
0.024449753 0.19043647 -0.16403927 0.030704653 -0.17484081 -0.056081776 0.02066651 0.08089152
0.17584941 -0.12807897 -0.08086216 -0.16148703 -0.08496127 0.18291375 0.23537868 0.056622494
-0.091495946 -0.21073003 0.073367074 -0.053597275 0.11175906 0.10849549 -0.15662482 0.017951157
0.22948268 0.04129846 -0.1446221 -0.13920867 0.11497672 0.17644939 -0.14950064 -0.21658894
-0.234978 -0.048009783 -0.029283687 -0.08308891 0.15575932 0.044169392 0.1347503 0.14129366
0.14320828 -0.14066626 0.20753393 0.22644055 -0.087993436 -0.10997936 0.15730003 0.007130797
0.13008344 0.09339604 -0.10616033 0.07947564 -0.1182819 0.018302832 0.00276902 0.20105165
-0.14723715 -0.120864995 -0.105504856 -0.080974236 -0.00086586486 -0.13107282 0.10830445 0.008603802
0.11100896 -0.08853322 -0.14716022 -0.1848272 0.10310898 0.20823455 0.08542172 0.19999918
0.08315287 -0.08102223 -0.20894921 -0.13893464 0.20031692 -0.04536066 0.15262441 -0.1559693
0.008919257 -0.18473703 -0.20578587 0.075772196 0.021012593 0.07309312 0.09359536 0.024515472
0.106455244 -0.09220913 0.0037400553 0.04205924 0.08811681 0.17330463 0.08498446 -0.19238283
0.07664859 0.09212346
00000000: b866 e4bd 1298 0d3e c7f0 1cbe 1a89 b3bd
00000010: 5402 0e3e cbb5 0fbd 4b7c 6bbe f598 2e3d
00000020: 562a 0bbe 7ee9 65be f749 3ebe 48a4 6bbe
00000030: 2fc5 f53c 3fe4 5e3e 4d5f 553e 55cf 0c3e
00000040: 5a0f 1a3c 4d0a 113e 673e 243e 3c4f 093e
00000050: a221 3c3d ce34 d53d 3b54 443e 80b5 2bbe
00000060: eb45 14be 2bd4 00bd c7a6 603e 94d3 003c
00000070: 812e c2bd 4754 573d cd00 613d bff1 45bc
00000080: 25a9 5d3e d080 5f3e 6c5a d13d 1e41 373d
00000090: 1d36 803d e59e 7b3d 7422 553d c015 533d
000000a0: d8fb f83c 26df 09be d86c 32be 5fec cc3d
000000b0: 7152 bdbd 1add 56bd d951 bb3d 6a79 5abe
000000c0: 02d2 333d d052 323a 8fde 783c e88d 5abe
000000d0: df9a 743d 9c9c 23be ad49 443e ce7a 8cbd
000000e0: 1fd2 b1bb 1639 afbd 8803 1abe 8b7f 313e
000000f0: 345f 543d ee27 1cbe 5aed 5f3e 22b5 243d
00000100: d94a c83c c701 433e e9f9 27be 5388 fb3c
00000110: 7809 33be 01b6 65bd d04c a93c 74aa a53d
00000120: de11 343e 2227 03be 0f9b a5bd db5c 25be
00000130: 2d00 aebd be4d 3b3e 1c07 713e fdec 673d
00000140: 3a62 bbbd 9dc9 57be 7a41 963d d188 5bbd
00000150: efe1 e43d e232 de3d 4262 20be 4e0e 933c
00000160: 82fd 6a3e 9328 293d d117 14be b88c 0ebe
00000170: ea78 eb3d 26af 343e b216 19be 7ec9 5dbe
00000180: 139e 70be e8a5 44bd 58e4 efbc 852a aabd
00000190: 5f7f 1f3e f7ea 343d fcfb 093e 49af 103e
000001a0: 31a5 123e d10a 10be c683 543e 08e0 673e
000001b0: e735 b4bd dc3c e1bd 4213 213e 76a9 e93b
000001c0: 9834 053e 6c46 bf3d 966a d9bd 20c4 a23d
000001d0: c83d f2bd d2ef 953c 7278 353b 7ce0 4d3e
000001e0: 56c5 16be 1188 f7bd ee12 d8bd d2d5 a5bd
000001f0: 35fb 62ba f437 06be b9ce dd3d f6f6 0c3c
00000200: aa58 e33d e850 b5bd 2bb1 16be 5743 3dbe
00000210: cd2a d33d 703b 553e 95f1 ae3d 96cc 4c3e
00000220: 0d4c aa3d fcee a5bd c8f6 55be e244 0ebe
00000230: e11f 4d3e 19cc 39bd 9349 1c3e 6bb6 1fbe
00000240: 1322 123c b42b 3dbe 88b9 52be 742e 9b3d
00000250: 9a22 ac3c d8b1 953d edae bf3d acd4 c83c
00000260: 3505 da3d 24d8 bcbd b71b 753b 4f46 2c3d
00000270: 9676 b43d c576 313e 550c ae3d 0100 45be
00000280: f0f9 9c3d 39ab bc3d

linear_net.0.bias f4 [9]
0.18032725 0.07218617 -0.0012318119 0.05953914 0.18225002 -0.22960083 0.2355772 0.063245
-0.13980551
00000000: b5a7 383e 58d6 933d c074 a1ba 50df 733d
00000010: c09f 3a3e 7b1c 6bbe 263b 713e 9886 813d
00000020: 2d29 0fbe

linear_net.2.weight f4 [1, 9]
0.27271366 -0.1279993 0.11473175 -0.17474413 0.08881831 0.1807586 -0.21623838 -0.15693629
0.057187002
00000000: 20a1 8b3e 4012 03be 7bf8 ea3d 20f0 32be
00000010: 60e6 b53d c818 393e 986d 5dbe e8b3 20be
00000020: eb3c 6a3d

exp_avg f4 [108, 36]
4.523338e-06 3.218936e-06 -3.916387e-06 -1.1608025e-06 -8.267556e-06 -5.644783e-06 1.3592371e-05 -5.9243666e-06
9.7907005e-06 -2.8655754e-06 -3.2777373e-06 1.2355477e-05 -7.759389e-06 -6.745216e-06 -8.56576e-06 -5.7816983e-06
-1.1748546e-05 -9.4990955e-06 -1.0437627e-06 3.7537925e-06 2.572356e-06 -7.2989036e-07 2.2617589e-07 5.795627e-07
-1.347734e-08 2.5807793e-07 -9.765261e-09 2.0270043e-07 -3.741175e-09 1.9530135e-07 -1.3552873e-09 1.9434192e-07
-4.875639e-10 1.942176e-07 -1.7524475e-10 1.9420209e-07 -2.3639875e-06 1.0327743e-07 2.372789e-06 5.956308e-06
3.888205e-06 5.9465747e-06 -1.0447295e-05 3.7491755e-08 -1.0560649e-05 4.5304564e-06 1.2881467e-06 -9.337642e-06
1.3488075e-06 1.8056738e-06 3.5872488e-06 9.344848e-06 1.2367556e-05 1.1319105e-05 -1.5568978e-06 3.3495608e-06
2.5711602e-06 -2.374896e-07 -2.2727932e-07 3.3026302e-07 -2.1203003e-07 -2.4108286e-07 -8.288823e-08 -3.3243683e-07
-3.0102928e-08 -3.4454715e-07 -1.0833063e-08 -3.4611642e-07 -3.893878e-09 -3.4631915e-07 -1.3994184e-09 -3.4634536e-07
8.536785e-06 4.688191e-06 -4.976713e-08 1.0421875e-06 -9.163392e-06 1.5863851e-07 1.257697e-05 -6.759917e-06
1.8581968e-06 -2.894088e-07 -4.0734744e-06 1.0128823e-05 -8.188429e-06 -1.2474375e-05 -1.0832522e-05 -1.4843037e-06
-5.2137366e-06 -3.884644e-06 -1.1773062e-06 8.240591e-06 4.1927556e-06 -1.5472733e-06 1.6559545e-07 6.984711e-07
-1.2324466e-07 4.813394e-08 -5.3790092e-08 -6.259189e-08 -1.9778355e-08 -7.736839e-08 -7.128778e-09 -7.9285336e-08
-2.5629145e-09 -7.953354e-08 -9.211088e-10 -7.956536e-08 -6.5076e-06 -4.114714e-06 3.8356247e-06 1.3689813e-06
1.0251294e-05 5.7142693e-06 -1.6597714e-05 7.1230816e-06 -1.04669925e-05 3.128398e-06 4.1545495e-06 -1.4764802e-05
9.300377e-06 9.471272e-06 1.0898589e-05 6.5520508e-06 1.3267797e-05 1.0769802e-05 1.6725602e-06 -5.2530204e-06
-3.7185453e-06 4.144248e-07 -2.3076334e-08 -9.546019e-07 1.5226865e-07 -3.2123e-07 6.3006645e-08 -2.1697247e-07
2.3033124e-08 -2.0310794e-07 8.295797e-09 -2.0131031e-07 2.9821947e-09 -2.0107808e-07 1.0717844e-09 -2.0104798e-07
5.7656575e-06 2.3932967e-06 -2.7813676e-06 -4.1494973e-06 -8.098819e-06 -5.704841e-06 1.5283182e-05 -3.9214606e-06
1.0778582e-05 -4.0635045e-06 -3.1887428e-06 1.3386036e-05 -5.8522883e-06 -7.2984035e-06 -8.492712e-06 -8.629285e-06
-1.36999e-05 -1.18845155e-05 -2.5715468e-07 1.5748507e-06 9.02233e-07 5.0908668e-08 3.079151e-08 4.549049e-07
-2.7189131e-08 3.1247893e-07 -1.1754597e-08 2.885834e-07 -4.3177417e-09 2.8539918e-07 -1.5560552e-09 2.8498627e-07
-5.594195e-10 2.8493295e-07 -2.0105388e-10 2.849261e-07 -3.4292032e-06 -3.0183098e-06 -1.9067782e-06 -5.4977695e-06
2.5788618e-06 -4.9428445e-06 6.4763987e-07 4.187589e-06 7.433306e-06 -3.5127227e-06 1.510503e-06 1.2543169e-06
4.0256623e-06 6.341926e-06 3.8510307e-06 -6.697037e-06 -6.801714e-06 -6.779909e-06 2.9678115e-06 -8.133238e-06
-5.6335934e-06 7.263592e-07 2.522918e-07 -1.0109491e-06 3.5969907e-07 1.0903895e-07 1.4311748e-07 2.9070878e-07
5.208504e-08 3.148306e-07 1.8748684e-08 3.179564e-07 6.739332e-09 3.183602e-07 2.4220572e-09 3.1841233e-07
2.412341e-06 6.3842276e-07 -1.7515569e-06 -3.3294534e-06 -3.7184798e-06 -3.895512e-06 8.167522e-06 -1.170198e-06
7.04207e-06 -2.8342074e-06 -1.3653602e-06 7.243225e-06 -2.1980907e-06 -2.635402e-06 -3.7063946e-06 -5.894817e-06
-8.492636e-06 -7.5680036e-06 5.186014e-07 -8.609657e-07 -8.930731e-07 1.1395807e-08 1.3636489e-07 -6.616056e-08
9.836302e-08 1.6423012e-07 3.7873622e-08 2.0046896e-07 1.3729673e-08 2.0526426e-07 4.9397033e-09 2.0588544e-07
1.7754931e-09 2.0596573e-07 6.3809114e-10 2.0597605e-07 -4.0987942e-07 -4.014423e-07 9.3003655e-06 8.507642e-06
00000000: 2dc7 9736 e604 5836 8269 83b6 dfcc 9bb5
00000010: e2b4 0ab7 5168 bdb6 ca0a 6437 ecc9 c6b6
00000020: bd42 2437 364e 40b6 19f7 5bb6 5f4a 4f37
00000030: 522e 02b7 f754 e2b6 a9b5 0fb7 6900 c2b6
00000040: 9f1b 45b7 4e5e 1fb7 6a17 8cb5 aae9 7b36
00000050: bda0 2c36 afed 43b5 c1da 7234 3f93 1b35
00000060: f889 67b2 f68d 8a34 12c4 27b2 dfa5 5934
00000070: b98b 80b1 07b4 5134 ef44 bab0 4dac 5034
00000080: 4205 06b0 218a 5034 03af 40af dd85 5034
00000090: ffa4 1eb6 5ec9 dd33 343c 1f36 4cdc c736
000000a0: 6d77 8236 b088 c736 ca46 2fb7 9f06 2133
000000b0: a42d 31b7 5304 9836 62e4 ac35 dea8 1cb7
000000c0: ac08 b535 7b5a f235 77bc 7036 d1c7 1c37
000000d0: 407e 4f37 30e7 3d37 9af6 d0b5 04c9 6036
000000e0: 328c 2c36 a500 7fb4 100a 74b4 014f b134
000000f0: 5faa 63b4 2d6e 81b4 4900 b2b3 c579 b2b4
00000100: 854a 01b3 33fa b8b4 511c 3ab2 e1d1 b9b4
00000110: eaca 85b1 beed b9b4 a855 c0b0 58f1 b9b4
00000120: 3639 0f37 414f 9d36 8abf 55b3 4ae1 8b35
00000130: 78bc 19b7 3956 2a34 ad01 5337 3fd3 e2b6
00000140: 2867 f935 0b60 9bb4 e1ae 88b6 f7ee 2937
00000150: 0961 09b7 0849 51b7 54bd 35b7 4938 c7b5
00000160: a8f1 aeb6 d658 82b6 ef03 9eb5 1241 0a37
00000170: 7faf 8c36 e8ab cfb5 88ce 3134 927e 3b35
00000180: 3c55 04b4 d4bb 4e33 d506 67b3 416a 86b3
00000190: 10e5 a9b2 b925 a6b3 65f1 f4b1 9343 aab3
000001a0: 451f 30b1 07cc aab3 4531 7db0 85dd aab3
000001b0: dc5b dab6 2011 8ab6 c4b3 8036 d7bd b735
000001c0: f9fc 2b37 33bd bf36 523b 8bb7 ce02 ef36
000001d0: 649b 2fb7 78f1 5136 4f67 8b36 57b6 77b7
000001e0: d108 1c37 cee6 1e37 15d9 3637 b0d9 db36
000001f0: c198 5e37 f3af 3437 bb7c e035 1a43 b0b6
00000200: 1f8c 79b6 1c7e de34 6539 c6b2 df1f 80b5
00000210: 4a7f 2334 8475 acb4 454e 8733 f0f8 68b4
00000220: 60da c532 e315 5ab4 4d85 0e32 c227 58b4
00000230: 53ef 4c31 ece7 57b4 104e 9330 a6df 57b4
00000240: 9f76 c136 869c 2036 88a7 3ab6 e93b 8bb6
00000250: 2ae0 07b7 366c bfb6 6234 8037 1795 83b6
00000260: a8d5 3437 3d59 88b6 2ffe 55b6 9694 6037
00000270: c65e c4b6 cfe4 f4b6 ec7b 0eb7 7fc6 10b7
00000280: 9fd8 65b7 9b63 47b7 120f 8ab4 755f d335
00000290: fb30 7235 aca6 5a33 a03f 0433 a739 f434
000002a0: 888d e9b2 c7c2 a734 44f1 49b2 9aee 9a34
000002b0: 425b 94b1 f738 9934 d3dc d5b0 3700 9934
000002c0: a6c5 19b0 e3f8 9834 a30f 5daf f2f7 9834
000002d0: 4321 66b6 2b8e 4ab6 66ec ffb5 7b79 b8b6
000002e0: 8210 2d36 b6da a5b6 79d9 2d35 1e83 8c36
000002f0: 9d6b f936 1ebc 6bb6 7dbc ca35 005a a835
00000300: 2d14 8736 bbcc d436 1a38 8136 1cb7 e0b6
00000310: 473a e4b6 fa7e e3b6 9d2a 4736 fe73 08b7
00000320: 3308 bdb6 06fb 4235 b972 8734 f2af 87b5
00000330: aa1c c134 cc28 ea33 d5ab 1934 b612 9c34
00000340: 1bb4 5f33 fd05 a934 cb0c a132 98b3 aa34
00000350: cb8f e731 18eb aa34 4871 2631 42f2 aa34
00000360: b4e3 2136 1460 2b35 0917 ebb5 936f 5fb6
00000370: ff8a 79b6 31b6 82b6 3d07 0937 b20f 9db5
00000380: ec4a ec36 5033 3eb6 6b41 b7b5 d40a f336
00000390: e982 13b6 dddb 30b6 60bb 78b6 18cc c5b6
000003a0: 987b 0eb7 a8f0 fdb6 0436 0b35 1d1d 67b5
000003b0: 84bb 6fb5 4ac7 4332 b26b 1234 2714 8eb3
000003c0: a43b d333 3b57 3034 7daa 2233 7d40 5734
000003d0: bedf 6b32 9c66 5c34 17ba a931 5c11 5d34
000003e0: 9c05 f430 6e27 5d34 ac65 2f30 442a 5d34
000003f0: 660d dcb4 cf85 d7b4 c408 1c37 0bbc 0e37

exp_avg_sq f4 [108, 36]
2.9060228e-08 4.207578e-09 9.529638e-09 2.1872664e-08 5.722543e-08 3.7603204e-08 2.180121e-07 1.2434788e-08
1.2505677e-07 1.5712274e-08 8.227397e-09 1.8050795e-07 2.6770477e-08 4.3543004e-08 6.1566126e-08 8.543186e-08
1.856137e-07 1.562353e-07 1.0460193e-10 4.270386e-11 4.0219283e-11 1.1146728e-10 4.512349e-11 5.0154766e-11
8.024493e-12 7.7488814e-11 1.0796298e-12 8.312836e-11 1.4017634e-13 8.3898485e-11 1.8116795e-14 8.399864e-11
2.3400765e-15 8.40116e-11 3.0223618e-16 8.401322e-11 1.2716578e-08 2.227021e-09 6.480226e-09 1.0495437e-08
2.844526e-08 2.2135113e-08 1.07341265e-07 6.8227877e-09 6.905756e-08 8.107743e-09 3.9924646e-09 9.0813295e-08
1.457264e-08 1.9154989e-08 2.918049e-08 4.275786e-08 9.729978e-08 8.05938e-08 5.3702726e-11 2.2487592e-11
2.074469e-11 6.106498e-11 2.6914734e-11 2.6049241e-11 4.8093166e-12 4.36674e-11 6.4737343e-13 4.7239917e-11
8.405839e-14 4.772696e-11 1.0864051e-14 4.779026e-11 1.403271e-15 4.7798498e-11 1.8124143e-16 4.7799563e-11
3.1082678e-08 4.6709063e-09 1.6094601e-08 2.6453888e-08 6.602181e-08 5.4393517e-08 2.557141e-07 1.5485814e-08
1.6828453e-07 2.0173852e-08 9.225487e-09 2.1536931e-07 3.3067614e-08 4.6024383e-08 6.893778e-08 1.05311436e-07
2.3586979e-07 1.9495812e-07 1.3051439e-10 7.03103e-11 5.3660097e-11 1.2178468e-10 6.478938e-11 5.9205314e-11
1.19548555e-11 1.06661714e-10 1.6159947e-12 1.1635264e-10 2.099434e-13 1.1767601e-10 2.7135837e-14 1.1784806e-10
3.5050685e-15 1.1787042e-10 4.527029e-16 1.1787314e-10 4.2301732e-08 5.8823595e-09 1.137771e-08 3.2616352e-08
7.858854e-08 4.8969472e-08 3.011813e-07 1.5408434e-08 1.6663674e-07 2.1510646e-08 1.127471e-08 2.476478e-07
3.447405e-08 6.2102885e-08 8.4069875e-08 1.1980276e-07 2.5220226e-07 2.1553794e-07 1.9439618e-10 4.492671e-11
3.6389825e-11 1.7191075e-10 7.501301e-11 5.4985454e-11 1.3333077e-11 1.0360565e-10 1.7926831e-12 1.134104e-10
2.327358e-13 1.1474544e-10 3.0079095e-14 1.149191e-10 3.885194e-15 1.149415e-10 5.0179825e-16 1.1494435e-10
3.0107717e-08 9.412449e-09 1.9170852e-08 1.5754074e-08 8.317564e-08 5.742963e-08 2.733333e-07 2.5845386e-08
1.7230637e-07 1.6503265e-08 1.1848139e-08 2.3731091e-07 5.1320402e-08 5.2260102e-08 8.185734e-08 8.984537e-08
2.3673455e-07 1.8982635e-07 4.7375718e-11 1.5779142e-11 3.4365084e-11 6.5885485e-11 3.34039e-11 6.723778e-11
5.962218e-12 9.44786e-11 8.0270854e-13 9.960794e-11 1.0423094e-13 1.003024e-10 1.3471265e-14 1.00392715e-10
1.740036e-15 1.0040437e-10 2.2473685e-16 1.0040588e-10 2.2265128e-08 6.431889e-09 1.8146952e-08 1.486665e-08
6.552051e-08 5.274553e-08 2.2634275e-07 2.0731113e-08 1.5542017e-07 1.5629903e-08 9.207475e-09 1.9797407e-07
4.1027914e-08 3.7598294e-08 6.478808e-08 8.03655e-08 2.0868167e-07 1.6612745e-07 4.1976946e-11 4.3556197e-11
5.528896e-11 7.0978855e-11 3.429643e-11 6.713439e-11 6.28079e-12 9.0623994e-11 8.490277e-13 9.54479e-11
1.10304086e-13 9.610762e-11 1.4257177e-14 9.619349e-11 1.8415665e-15 9.620466e-11 2.3785024e-16 9.620605e-11
2.0163597e-09 4.7523496e-10 1.4606995e-09 1.5632253e-09 5.144268e-09 4.372394e-09 1.8515916e-08 1.4410373e-09
1.2899139e-08 1.3732018e-09 7.1240525e-10 1.597459e-08 2.9839426e-09 3.1747236e-09 5.0582685e-09 7.0833157e-09
1.737275e-08 1.4035091e-08 7.213916e-12 3.4617977e-12 3.7947076e-12 9.199193e-12 4.520819e-12 4.8120796e-12
8.155743e-13 8.051151e-12 1.09935e-13 8.698056e-12 1.4277144e-14 8.786162e-12 1.8452803e-15 8.7976145e-12
2.383488e-16 8.799088e-12 3.078428e-17 8.79929e-12 2.1313808e-08 4.8416156e-09 1.2106051e-08 1.5101463e-08
00000000: 1ea0 f932 3f92 9031 cbb7 2332 7fe2 bb32
00000010: 07c8 7533 2981 2133 b616 6a34 c7a0 5532
00000020: 5847 0634 a8f7 8632 7a58 0d32 a6d1 4134
00000030: e7f4 e532 0a04 3b33 5636 8433 a976 b733
00000040: 1b4d 4734 a2c1 2734 a705 e62e 46d0 3b2e
00000050: e3e2 302e 801e f52e 8874 462e 3f95 5c2e
00000060: 1b2b 0d2d 5366 aa2e c3f1 972b 1bcd b62e
00000070: 14d3 1d2a a67e b82e 7c2e a328 08b7 b82e
00000080: cb9e 2827 54be b82e 303a ae25 3dbf b82e
00000090: 1a78 5a32 2b0a 1931 aca8 de31 6c4f 3432
000000a0: ca57 f432 a123 be32 7c83 e633 e06d ea31
000000b0: cc4c 9433 3b4a 0b32 172e 8931 2305 c333
000000c0: 265b 7a32 448a a432 93a8 fa32 c4a4 3733
000000d0: 1ff3 d033 e912 ad33 e52f 6c2e 8ecd c52d
000000e0: e478 b62d 8748 862e 98be ec2d ad21 e52d
000000f0: 7936 a92c 1f0d 402e 2c38 362b 6bc3 4f2e
00000100: 5d48 bd29 c8e7 512e 98b5 4328 0d2f 522e
00000110: 903b ca26 5338 522e 07f5 5025 8639 522e
00000120: c47f 0533 ba7d a031 6740 8a32 b73c e332
00000130: e0c7 8d33 4e9e 6933 1449 8934 aa05 8532
00000140: b3b1 3434 c54a ad32 1f7e 1e32 4440 6734
00000150: 3a06 0e33 58ac 4533 f20a 9433 9327 e233
00000160: 6543 7d34 ae55 5134 8980 0f2f 2e9d 9a2e
00000170: e6ff 6b2e 57e7 052f 2e79 8e2e a131 822e
00000180: e24f 522d 358d ea2e 586e e32b b7dc ff2e
00000190: 1160 6c2a da62 012f fb6a f428 4893 012f
000001a0: 1a91 7c27 9399 012f 947b 0226 579a 012f
000001b0: 3faf 3533 c81d ca31 b377 4332 0f16 0c33
000001c0: 82c4 a833 8152 5233 0bb2 a134 815b 8432
000001d0: c2ec 3234 69c6 b832 b3b2 4132 74f4 8434
000001e0: 9e10 1433 6c5d 8533 e789 b433 22a3 0034
000001f0: 6a66 8734 9e6e 6734 a9bd 552f fb96 452e
00000200: 4d0b 202e 9304 3d2f 92f4 a42e 1ed4 712e
00000210: d78e 6a2d ccd4 e32e 374c fc2b 6164 f92e
00000220: c304 832a f153 fc2e d676 0729 b4b5 fc2e
00000230: 97fa 8b27 50c2 fc2e 2da2 1026 ebc3 fc2e
00000240: c94f 0133 63b4 2132 26ad a432 9353 8732
00000250: 4b9e b233 8ca8 7633 a5be 9234 9b02 de32
00000260: 3703 3934 10c3 8d32 ab8c 4b32 87cf 7e34
00000270: 616b 5c33 9774 6033 8cc9 af33 04f1 c033
00000280: 1931 7e34 12d3 4b34 515c 502e 78cb 8a2d
00000290: a523 172e 3be2 902e 73e9 122e 81db 932e
000002a0: e3c6 d12c b9c2 cf2e 3ff1 612b 490a db2e
000002b0: 0cb5 ea29 3b91 dc2e 3fad 7228 13c4 dc2e
000002c0: ffc3 fa26 a3ca dc2e 4e8d 8125 7ccb dc2e
000002d0: 8941 bf32 7eff dc31 92e1 9b32 3868 7f32
000002e0: 48b4 8c33 538a 6233 9f08 7334 3314 b232
000002f0: 92e1 2634 8542 8632 e72e 1e32 b392 5434
00000300: ab36 3033 c37b 2133 a021 8b33 6795 ac33
00000310: fb11 6034 c460 3234 d79d 382e eb8f 3f2e
00000320: d629 732e 8b15 9c2e 59d6 162e 4da1 932e
00000330: 54fc dc2c c648 c72e e5fa 6e2b 64e4 d12e
00000340: fa61 f829 c857 d32e d06a 8028 1f88 d32e
00000350: e8b2 0427 698e d32e 801c 8925 318f d32e
00000360: 2d90 0a31 b0a1 0230 cbc1 c830 1ad9 d630
00000370: 76c1 b031 fc3b 9631 ee0c 9f32 fe0d c630
00000380: 039b 5d32 3ebb bc30 10d3 4330 7f38 8932
00000390: 130e 4d31 542a 5a31 00cd ad31 8161 f331
000003a0: 153b 9532 fc1e 7132 2ed1 fd2c 349a 732c
000003b0: b083 852c 7bd5 212d eb0f 9f2c 5c4f a92c
000003c0: 5290 652b 29a3 0d2d 368d f729 9004 192d
000003d0: da98 8028 5b91 1a2d 6af7 0427 efc4 1a2d
000003e0: 1366 8925 92cb 1a2d aaf7 0d24 7bcc 1a2d
000003f0: 8f15 b732 4d5b a631 fafa 4f32 78b8 8132

exp_avg f4 [108]
1.9419927e-07 -3.463491e-07 -7.9569816e-08 -2.010437e-07 2.8492508e-07 3.1842043e-07 2.0597764e-07 -7.450453e-07
-7.7048776e-07 -9.7394526e-08 -1.5260625e-07 -5.2915806e-07 4.4128572e-07 -1.9862827e-07 -1.9750088e-08 -6.3741516e-07
-2.8599877e-07 -8.708516e-07 1.9412129e-08 1.5118728e-07 -4.909551e-07 -1.1400689e-07 5.339141e-07 1.7300025e-07
-1.6568953e-07 2.716303e-07 6.523979e-07 6.2366655e-07 2.7920817e-07 -1.4710469e-07 -3.0404917e-07 6.642921e-07
-6.0524894e-07 3.611716e-07 3.679854e-07 -1.03566194e-07 -5.266155e-10 -3.1786724e-09 -2.133677e-09 -1.404647e-09
-6.420348e-10 4.1027617e-09 -4.8509166e-09 4.3866653e-09 -3.863869e-09 1.6147794e-09 -2.5095972e-09 1.7047491e-09
-3.4969199e-09 -4.8139723e-09 3.3948515e-09 -2.9436287e-09 1.6890372e-09 -1.7968963e-09 1.5728212e-09 2.4900795e-09
1.1457552e-09 2.5810853e-09 -5.464885e-10 2.9097762e-09 2.5091937e-09 -5.792657e-09 -3.1994038e-10 -5.378323e-10
3.5274464e-10 -5.2877787e-09 -8.3435187e-10 2.2135926e-09 -4.398727e-10 -1.0542183e-09 1.6658039e-09 6.73138e-10
0.00010507496 -4.3838692e-05 2.4592875e-05 -3.5768215e-05 -1.2016848e-05 -4.85397e-06 5.8724043e-05 3.4190003e-07
2.9045323e-05 3.1457585e-05 7.1075636e-05 -9.041214e-05 1.0501678e-05 -4.0221403e-05 -0.00011490653 1.18946145e-05
3.949833e-05 -7.726199e-06 -0.00012903166 0.00010253925 8.7170374e-05 -4.5651115e-05 -2.120619e-05 0.00014050346
9.34017e-05 0.0001002445 1.47029e-05 -4.450885e-05 1.20642235e-05 -1.7878863e-05 -3.3218304e-05 -8.7729226e-05
-9.157556e-05 -9.487707e-05 2.067349e-05 -0.00011542871
00000000: 1785 5034 dcf1 b9b4 f8df aab3 79de 57b4
00000010: cef7 9834 5ff3 aa34 b42a 5d34 20ff 47b5
00000020: 84d3 4eb5 3527 d1b3 16dc 23b4 770b 0eb5
00000030: d9e9 ec34 8646 55b4 e7a6 a9b2 d61a 2bb5
00000040: 5f8b 99b4 77c4 69b5 b9bf a632 0b56 2234
00000050: 2dca 03b5 f3d3 f4b3 4c52 0f35 f2c1 3934
00000060: 64e8 31b4 96d4 9134 7120 2f35 0a6a 2735
00000070: 14e6 9534 d4f3 1db4 333c a3b4 ce51 3235
00000080: 6478 22b5 0ce7 c134 878f c534 1e68 deb3
00000090: 45c1 10b0 cc6f 5ab1 0ba0 12b1 9f0d c1b0
000000a0: 2f7b 30b0 46f8 8c31 1dad a6b1 84b9 9631
000000b0: f3c2 84b1 00ef dd30 4d75 2cb1 874c ea30
000000c0: 774e 70b1 2668 a5b1 dc4a 6931 dd48 4ab1
000000d0: b723 e830 abf6 f6b0 ba2a d830 f11d 2b31
000000e0: ad78 9d30 ef5e 3131 b637 16b0 53f5 4731
000000f0: 346e 2c31 c008 c7b1 9be3 afaf 95d6 13b0
00000100: 65ec c12f cbaf b5b1 4b58 65b0 ef1d 1831
00000110: 94d2 f1af 02e4 90b0 44f2 e430 e007 3930
00000120: b15b dc38 70df 37b8 cc4c ce37 d405 16b8
00000130: f89b 49b7 49df a2b6 764e 7638 628e b734
00000140: 5ba6 f337 53f1 0338 710e 9538 a69b bdb8
00000150: 5d30 3037 67b3 28b8 f9f9 f0b8 fb8e 4737
00000160: 02ab 2538 c69f 01b7 ac4c 07b9 570a d738
00000170: 3dcf b638 8379 3fb8 f2e3 b1b7 1c54 1339
00000180: a8e0 c338 5b3a d238 7aac 7637 04af 3ab8
00000190: 7267 4a37 91fa 95b7 e253 0bb8 45fb b7b8
000001a0: 410c c0b8 bdf8 c6b8 fb6b ad37 5112 f2b8

exp_avg_sq f4 [108]
8.4013484e-11 4.779973e-11 1.1787357e-10 1.1494481e-10 1.00406135e-10 9.620625e-11 8.799314e-12 7.791572e-11
2.066653e-10 8.0965096e-11 1.5516355e-10 3.8000803e-10 4.3109943e-11 5.7732364e-11 7.4978426e-11 1.6510834e-10
1.5768511e-11 1.02514115e-10 1.5631842e-10 6.434712e-11 3.5102515e-11 1.5735485e-10 5.1064947e-11 3.9077106e-11
2.7955565e-11 2.8744418e-11 9.2720616e-11 3.120146e-10 2.8769013e-11 1.8024646e-10 8.9942366e-11 1.6536533e-10
6.5995404e-11 1.2144491e-10 2.6317573e-11 3.5223064e-11 2.5742574e-17 6.5578217e-16 1.8472089e-16 4.0385578e-16
1.2892335e-16 8.500043e-16 1.4079587e-15 1.5609979e-15 5.6223903e-16 2.4678985e-16 2.3590312e-16 5.603397e-16
5.415738e-16 2.3573736e-15 7.2939087e-16 6.7718124e-16 8.8247704e-17 3.2859587e-16 1.2957669e-16 1.3856886e-16
5.0814512e-17 8.930377e-16 2.3462964e-16 1.2018161e-15 4.8308645e-16 2.8983075e-15 1.5316909e-16 5.798707e-16
6.5537354e-17 2.3584601e-15 2.2596627e-17 1.9194207e-16 3.3101796e-17 5.648966e-17 6.51795e-17 6.710484e-17
1.6834808e-07 7.167653e-08 2.2507723e-07 1.0204227e-07 1.3457091e-07 3.551087e-07 8.799332e-08 6.9163406e-07
1.474123e-07 1.02953074e-07 5.980501e-07 4.4043176e-07 1.5824622e-07 7.453439e-07 6.036376e-07 1.5891285e-07
2.9328484e-07 1.2594029e-07 1.6320952e-07 2.2946854e-07 1.2234607e-07 1.2275537e-07 1.9401078e-07 1.9032004e-07
3.9779215e-07 1.359375e-07 4.3496158e-07 7.933796e-07 4.2735977e-07 4.3571042e-08 1.6775671e-07 2.1007116e-07
4.46387e-07 3.4927945e-07 2.6311963e-07 3.999952e-07
00000000: 63bf b82e b639 522e 769a 012f 2dc4 fc2e
00000010: a1cb dc2e 4e8f d32e 96cc 1a2d a756 ab2e
00000020: 1c3b 632f 4c0b b22e a89a 2a2f 60e9 d02f
00000030: 7b99 3d2e dde8 7d2e 1ae1 a42e de89 352f
00000040: 88b3 8a2d 516e e12e b9df 2b2f 3580 8d2e
00000050: eb61 1a2e 7403 2d2f 0596 602e e9dc 2b2e
00000060: 56e6 f52d add6 fc2d 11e5 cb2e 2788 ab2f
00000070: 0f0e fd2d de2e 462f 0dc9 c52e 34d2 352f
00000080: 1c20 912e b487 052f e87d e72d a5e9 1a2e
00000090: ef6e ed23 2f04 3d26 fcf7 5425 98ce e825
000000a0: 75a3 1425 3fff 7426 82e8 ca26 a8f6 e026
000000b0: eb0d 2226 c143 8e25 28fd 8725 c681 2126
000000c0: 1819 1c26 dedd 2927 8c3b 5226 282f 4326
000000d0: 407c cb24 316c bd25 4a64 1525 4fc2 1f25
000000e0: 3057 6a24 47b3 8026 3941 8725 3033 ad26
000000f0: 7d3d 0b26 56d8 5027 8997 3025 e822 2726
00000100: 6d1e 9724 e9f1 2927 c76a d023 4d4b 5d25
00000110: b4a7 1824 9c41 8224 304b 9624 b5bb 9a24
00000120: 2bc3 3434 97ec 9933 c2ac 7134 5522 db33
00000130: 927e 1034 c5a5 be34 d7f6 bc33 bba8 3935
00000140: 6248 1e34 0d17 dd33 b189 2035 7b74 ec34
00000150: 64ea 2934 a513 4835 a909 2235 a2a1 2a34
00000160: c374 9d34 343a 0734 b13e 2f34 d563 7634
00000170: 3b5e 0334 bdce 0334 4751 5034 c65a 4c34
00000180: 2390 d534 37f6 1134 aa84 e934 a2f8 5435
00000190: e16f e534 de22 3b33 9d20 3434 ec8f 6134
000001a0: f6a6 ef34 9a84 bb34 e342 8d34 ecbe d634
