SensorFormer/SensorFormer/result/individual/LCS12_11.pt (torch, 81844 bytes, 35 tensors)

self_attn.qkv_proj.weight f4 [108, 36]
0.20793416 0.20724665 0.25493458 0.18791057 0.07654148 -0.09729462 0.028921422 -0.020895068
-0.24497697 -0.08975776 -0.17008339 0.063992985 -0.16036421 0.08573495 0.116854064 0.063539244
-0.14408833 0.21616757 0.011746422 -0.02483543 -0.1680529 -0.024119247 0.08901351 -0.0689163
0.14662687 -0.06011594 0.11643452 -0.014214335 0.21019633 0.016969072 -0.0798673 -0.10271617
0.122667305 -0.08480614 0.090567775 0.05052103 0.06929855 0.12523146 -0.029679392 0.04704069
-0.07618552 0.01030539 -0.06363784 0.09170218 0.11748069 0.13757008 0.23009817 -0.037237205
0.09423344 0.048342608 -0.08332134 0.20687267 -0.18951464 0.03160655 -4.038393e-05 -0.05440876
-0.22387247 -0.036966987 0.06519154 0.08488423 -0.09308047 0.012287951 -0.0034467296 0.116565175
0.16842349 -0.19695714 -0.061685275 -0.087222695 0.011903711 0.16650702 0.022926254 0.08403587
-0.1433092 0.04945806 0.17187116 0.1645723 -0.14559983 -0.0490527 0.13258989 0.14447893
0.06351811 -0.119431704 -0.084593795 -0.051937185 0.20383784 -0.005085451 -0.05861355 -0.20069024
-0.039748747 0.20144415 0.14744991 0.14057894 0.021615872 0.11589495 -0.016626835 -0.12886639
0.0008874835 -0.08586891 -0.036222238 0.0047985986 -0.04264104 -0.11055994 0.103587985 0.10434198
-0.07671789 0.016597 0.20946002 0.039383717 0.069732174 -0.12020409 -0.052379135 -0.12038496
-0.009586963 -0.15488116 -0.15158263 -0.18788071 0.16348036 -0.17822476 0.039891474 -0.0082174735
-0.10166202 0.015618766 -0.01418523 -0.06549445 0.084369585 -0.08492933 -0.063325524 -0.0748486
0.138211 -0.103918925 0.19563714 0.15675858 0.027185317 0.048572715 0.025794826 0.0763312
-0.06318942 -0.07993154 0.12574184 0.2057872 0.20410493 0.14515994 -0.1351132 0.079008095
0.03967369 0.19298571 0.21434028 0.12110232 0.038775858 0.01694256 -0.07002992 -0.051084954
-0.1124556 0.12121741 -0.09804924 -0.010460657 -0.20067902 0.0673241 0.17820583 0.18959478
-0.21118869 0.19120336 0.0769721 0.076333925 0.025451334 0.11933335 0.1119868 -0.054296803
-0.12774092 0.021830807 -0.01924941 0.04646298 0.0017906651 -0.014116927 0.11735899 -0.01276014
-0.19298723 -0.032448173 -0.11829905 0.15732071 -0.15402807 0.23176813 -0.0030079249 -0.20556079
0.05169394 0.13065156 -0.14834589 -0.09381058 0.17034258 -0.20341109 -0.14001478 -0.007010635
-0.12375259 0.048178148 -0.097283885 -0.13199306 -0.1668738 0.047414392 0.1804393 0.16296586
-0.1896885 0.14329238 0.08169575 -0.08024547 0.16203293 0.07788995 0.0758277 0.04374345
-0.123925164 -0.15124314 0.16971119 -0.091389045 0.16024932 -0.13266915 -0.16216187 -0.077241205
-0.10210625 -0.14824793 -0.05163804 -0.13200626 -0.25457585 -0.14371245 0.11857454 -0.17716396
0.11158754 -0.054564457 -0.058806874 0.130845 0.21989042 0.012795119 -0.23278467 -0.040270373
-0.094444126 0.17493849 -0.0036525875 0.019196095 0.0785337 0.14009812 0.038268868 -0.053204358
0.013494949 -0.062034566 -0.0527397 0.074177645 0.18157466 -0.13390176 -0.116684146 0.1327656
0.2292816 0.10979475 0.05725773 0.021408167 -0.19229187 -0.06179947 -0.20368493 -0.078102425
00000000: b1ec 543e 7738 543e c986 823e a16b 403e
00000010: c8c1 9c3d 6742 c7bd 9eec ec3c 222c abbc
00000020: 3edb 7abe ebd2 b7bd 572a 2ebe c10e 833d
00000030: 8436 24be ce95 af3d 2f51 ef3d dd20 823d
00000040: e48b 13be 085b 5d3e 1174 403c ac73 cbbc
00000050: 0f16 2cbe ba95 c5bc b74c b63d fd23 8dbd
00000060: 5b25 163e 223c 76bd 3975 ee3d 3ee3 68bc
00000070: b53d 573e b902 8b3c 7891 a3bd db5c d2bd
00000080: ff38 fb3d d7ae adbd 997b b93d 24ef 4e3d
00000090: 66ec 8d3d ad3c 003e 3222 f3bc bdad 403d
000000a0: 2707 9cbd f0d7 283c 8e54 82bd 5ace bb3d
000000b0: b799 f03d 2cdf 0c3e db9e 6b3e 0a86 18bd
000000c0: 76fd c03d e602 463d 61a4 aabd 6ed6 533e
000000d0: 2010 42be df75 013d ea61 29b8 b8db 5ebd
000000e0: d33e 65be b26a 17bd 2483 853d c8d7 ad3d
000000f0: f9a0 bebd 6753 493c 87e2 61bb b9b9 ee3d
00000100: 3577 2c3e 22af 49be b3a9 7cbd d0a1 b2bd
00000110: c807 433c d180 2a3e d7cf bb3c 001b ac3d
00000120: a6bf 12be 8994 4a3d fefe 2f3e a485 283e
00000130: 1f18 15be 7ceb 48bd a5c5 073e 49f2 133e
00000140: c815 823d 9c98 f4bd 833f adbd 16bc 54bd
00000150: deba 503e dba3 a6bb c314 70bd be81 4dbe
00000160: 95cf 22bd 6047 4e3e 1cfd 163e edf3 0f3e
00000170: c513 b13c 555a ed3d 0035 88bc 8df5 03be
00000180: 02a6 683a 0adc afbd c55d 14bd 903d 9d3b
00000190: 5fa8 2ebd 406d e2bd f025 d43d 3fb1 d53d
000001a0: 451e 9dbd 6ff6 873c b07c 563e d250 213d
000001b0: becf 8e3d 902d f6bd 818b 56bd 648c f6bd
000001c0: a312 1dbc 2b99 1ebe 7a38 1bbe cd63 40be
000001d0: 6567 273e 8d80 36be 3e65 233d 95a2 06bc
000001e0: 2d34 d0bd dae5 7f3c 2b69 68bc f421 86bd
000001f0: f6c9 ac3d 6eef adbd d0b0 81bd 394a 99bd
00000200: 2f87 0d3e 72d3 d4bd 1a55 483e 5285 203e
00000210: beb3 de3c 2ff4 463d ac4f d33c 8853 9c3d
00000220: 7469 81bd 26b3 a3bd 78c2 003e e1b9 523e
00000230: e200 513e cfa4 143e 1d5b 0abe ffce a13d
00000240: e180 223d 0c9e 453e 057c 5b3e 7e04 f83d
00000250: 6fd3 1e3d 20cb 8a3c d96b 8fbd 753e 51bd
00000260: 1f4f e6bd d540 f83d 0ace c8bd 2d63 2bbc
00000270: cd7e 4dbe 38e1 893d 977b 363e 2225 423e
00000280: d941 58be d0ca 433e 8ca3 9d3d f654 9c3d
00000290: 517f d03c 0b65 f43d 5659 e53d 5366 5ebd
000002a0: 84ce 02be 85d6 b23c f0b0 9dbc f74f 3e3d
000002b0: c0b4 ea3a af4a 67bc e959 f03d e80f 51bc
000002c0: 729e 45be 60e8 04bd c646 f2bd ae18 213e
000002d0: 89b9 1dbe a054 6d3e 9b20 45bb 877e 52be
000002e0: 06bd 533d 86c9 053e fce7 17be c31f c0bd
000002f0: 496e 2e3e ff4a 50be 0960 0fbe 78b9 e5bb
00000300: ff71 fdbd 7356 453d c63c c7bd 3029 07be
00000310: f7e0 2abe 9835 423d 14c5 383e 86e0 263e
00000320: b43d 42be 3dbb 123e 1a50 a73d bd57 a4bd
00000330: f6eb 253e c484 9f3d 8e4b 9b3d 552c 333d
00000340: 7acc fdbd 7bdf 1abe c5c8 2d3e 2e2a bbbd
00000350: 6618 243e 6cda 07be c30d 26be a330 9ebd
00000360: 151d d1bd 4ece 17be 6982 53bd a62c 07be
00000370: c457 82be 5b29 13be 35d7 f23d 786a 35be
00000380: 0288 e43d fb7e 5fbd 7adf 70bd 3bfc 053e
00000390: f42a 613e 9ea2 513c 1b5f 6ebe 8cf2 24bd
000003a0: ec6b c1bd 1323 333e 4060 6fbb 2141 9d3c
000003b0: 47d6 a03d e275 0f3e d1bf 1c3d d0ec 59bd
000003c0: eb19 5d3c f517 7ebd 9505 58bd 73ea 973d
000003d0: b5ee 393e 8b1d 09be 19f8 eebd b5f3 073e
000003e0: ccc8 6a3e 12dc e03d 1587 6a3d 2e60 af3c
000003f0: 29e8 44be 7121 7dbd c892 50be 2af4 9fbd

self_attn.qkv_proj.bias f4 [108]
0.0057825726 -0.027135912 0.045016743 0.024216868 -0.02694889 -0.03783867 0.056526553 0.011254756
-0.018212203 -0.013980781 0.0008354605 0.015251415 -0.005035372 0.03485207 0.020317618 0.031446777
-0.035512116 0.023977235 -0.086889446 -0.03383226 -0.006594315 0.006414648 0.015434562 0.032135904
0.0026331195 -0.04584324 0.0077629597 0.012969188 -0.039002687 0.00866074 0.027111558 0.009364185
0.0017977082 0.0006183835 0.04088284 -0.000545749 0.006309889 -0.041254245 0.038069863 -0.029174143
-0.03349453 -0.03076978 0.037019663 -0.013774976 -0.03834701 -0.023550946 -0.0246454 -0.03329633
0.03024335 0.04146756 -0.02006679 0.031174587 -0.038019028 0.021667618 -0.000458763 -0.040142596
-0.028112272 0.03372382 0.0052658124 0.007586795 -0.034904465 -0.029766735 0.025192166 -0.016433908
-0.033332225 -0.024143022 0.03971269 0.037449677 0.025523799 -0.026415108 0.04211985 0.030080583
-0.012265925 0.0051011066 0.08802124 0.100823686 -0.041508477 0.004811023 -0.06982027 0.009066448
-0.14577106 0.06840388 0.010202787 0.012302656 0.060369037 -0.0677075 -0.0070448476 -0.0063892948
-0.044077057 0.108098626 -0.08640398 0.02999683 -0.09389059 -0.05509142 0.06810198 0.047902014
0.05708729 0.037383992 0.11011223 0.08217865 0.0046002944 -0.02971717 0.05307108 0.025239103
-0.08252905 -0.006941637 -0.03009641 0.12491187
00000000: bc7b bd3b 224c debc 7a63 383d 7462 c63c
00000010: ebc3 dcbc b9fc 1abd 6388 673d de65 383c
00000020: c231 95bc a50f 65bc ce02 5b3a 12e1 793c
00000030: c3ff a4bb 0bc1 0e3d 2271 a63c 56ce 003d
00000040: 2775 11bd e86b c43c 18f3 b1bd b293 0abd
00000050: 2015 d8bb f831 d23b 3fe1 7c3c f0a0 033d
00000060: 6a90 2c3b 1fc6 3bbd 6d60 fe3b b87c 543c
00000070: 48c1 1fbd c7e5 0d3c 0f19 de3c 3d6c 193c
00000080: 14a1 eb3a 041b 223a c474 273d 9810 0fba
00000090: 2fc3 ce3b 36fa 28bd 25ef 1b3d 9dfe eebc
000000a0: 8f31 09bd e810 fcbc eea1 173d 70b0 61bc
000000b0: c111 1dbd eaed c0bc 26e5 c9bc bc61 08bd
000000c0: e7c0 f73c e3d9 293d 1c63 a4bc d961 ff3c
000000d0: d7b9 1bbd 4a80 b13c 2186 f0b9 906c 24bd
000000e0: b54b e6bc fd21 0a3d d68c ac3b a69a f83b
000000f0: fcf7 0ebd 5ed9 f3bc cd5f ce3c 67a0 86bc
00000100: 5f87 08bd 96c7 c5bc c6a9 223d d564 193d
00000110: 4917 d13c 7f64 d8bc dd85 2c3d 8e6b f63c
00000120: 05f7 48bc 2f27 a73b 7b44 b43d a67c ce3d
00000130: cb04 2abd c9a5 9d3b eefd 8ebd 708b 143c
00000140: 0245 15be 5517 8c3d 9729 273c 1491 493c
00000150: 8645 773d 3baa 8abd 77d8 e6bb 4a5d d1bb
00000160: 258a 34bd d062 dd3d 92f4 b0bd e9bb f53c
00000170: b649 c0bd 8aa7 61bd 0d79 8b3d e734 443d
00000180: 5dd4 693d f51f 193d 8582 e13d 484d a83d
00000190: 11be 963b 6c71 f3bc 1061 593d 3cc2 ce3c
000001a0: fe04 a9bd ac76 e3bb bf8c f6bc cbd1 ff3d

self_attn.o_proj.weight f4 [36, 36]
0.27396888 0.029411841 -0.16820864 -0.23872729 -0.17644042 -0.123799205 0.27815658 0.19276942
0.025618142 0.094278105 0.19200145 -0.32849658 -0.3249477 0.33848098 0.2488509 -0.22262356
-0.061402526 -0.38025755 0.30375642 -0.060543355 0.34915778 -0.16783527 -0.17889863 0.26847684
-0.28565118 0.007822649 -0.28355214 -0.02725065 0.06738831 -0.15865776 -0.42488417 -0.052442066
0.2396105 0.22709577 0.205518 -0.39954352 -0.07555426 -0.020312516 0.40631044 0.1916086
-0.22943035 -0.18269138 -0.2795833 -0.016853312 -0.3255488 0.09152115 0.2586226 0.18297036
0.008580753 -0.23234469 -0.17975621 -0.17313762 -0.15256272 0.37613606 -0.21623541 0.22154386
-0.17491028 -0.24557301 0.16335468 0.033550702 0.20158769 0.09203468 0.20165639 0.42946354
-0.113743536 -0.07936668 0.059193343 0.33712867 -0.13331705 0.035042766 -0.20282584 0.056873776
-0.03692808 0.29507726 0.051214937 -0.0522249 0.033241358 0.34069747 0.03717501 -0.20944658
0.30021703 -0.1551877 0.07983484 -0.25326055 -0.17321122 0.08935871 0.10326527 0.27184165
0.17575018 -0.0039369417 -0.028297685 -0.09785151 0.117086194 -0.14413765 0.001424023 0.11131176
-0.16699739 0.12387506 -0.032921925 -0.32180482 0.24780475 -0.19566771 0.030535229 0.017931106
0.19884226 0.21024032 0.21649574 0.1603351 -0.17080393 0.10584086 -0.16373347 -0.24748048
0.035983063 0.10757408 -0.17677201 0.16241471 0.3650655 -0.38453227 0.14286706 0.09492118
-0.044720802 0.2263219 -0.14950174 -0.13486695 0.23869957 -0.07106932 0.06188645 0.30958205
0.3417361 0.09417151 -0.14772347 -0.077958755 0.14069198 -0.06721518 -0.22885996 -0.33141235
-0.14795336 -0.24342655 -0.268509 0.027727393 -0.01217885 -0.083681114 -0.18418531 0.08886744
0.30565578 0.08947 -0.041934945 -0.18372476 0.12522501 -0.019493876 0.2943755 -0.047067344
-0.03825093 -0.2217619 -0.21801816 0.20301259 -0.3438442 -0.0780281 -0.05490502 0.26861483
0.18706664 -0.30807924 0.21605575 0.07769215 0.013625849 0.24892762 0.19164388 -0.10692927
-0.094722666 0.033968735 -0.3496618 -0.21540457 0.00586633 -0.0247138 -0.038254295 -0.04417577
0.23711842 0.18384682 0.006776966 -0.2192431 -0.10105597 0.36893922 -0.15427934 0.03897017
-0.03508955 0.30038717 0.21670341 0.027021376 0.33575627 -0.38008815 0.21655414 -0.0014486724
-0.13403365 -0.09071063 0.09877623 -0.11821575 0.0719766 -0.18670803 0.31068978 -0.2244396
-0.097656436 0.2295412 -0.18647136 -0.24434775 0.036083896 -0.31079948 -0.16103205 -0.044585392
-0.25647944 0.13232887 -0.055572968 -0.13474731 0.18349355 0.117046416 0.22771461 -0.31549746
-0.2685182 -0.14399768 -0.035122596 0.15783581 -0.1919017 0.06684378 0.13508767 -0.30713883
-0.13386354 -0.06360742 0.01800846 -0.116290756 0.39947045 0.14324735 -0.16619736 0.0702995
-0.085215345 0.14212272 0.17546509 -0.23839346 -0.28130695 -0.19321743 -0.18704566 -0.25938386
-0.07656861 0.2720109 0.35506853 0.095169246 -0.1126007 0.07190029 -0.1411803 0.17985204
-0.042165004 -0.30667293 -0.18432504 0.073476985 -0.39266896 -0.045681898 -0.092846476 -0.18879195
00000000: a645 8c3e 1af1 f03c e33e 2cbe ed74 74be
00000010: ccac 34be 708a fdbd 8a6a 8e3e 5965 453e
00000020: 23dd d13c e114 c13d 079c 443e b430 a8be
00000030: 8c5f a6be 614d ad3e c5d2 7e3e 6ef7 63be
00000040: 3781 7bbd 1eb1 c2be f685 9b3e 4ffc 77bd
00000050: cfc4 b23e 02dd 2bbe 3431 37be cc75 893e
00000060: df40 92be 912a 003c bf2d 91be c13c dfbc
00000070: e202 8a3d 2e77 22be 6b8a d9be 7ecd 56bd
00000080: 745c 753e cb8b 683e 5073 523e f890 ccbe
00000090: 31bc 9abd 6f66 a6bc ec07 d03e 0b35 443e
000000a0: caef 6abe 7313 3bbe 8b25 8fbe f50f 8abc
000000b0: 55ae a6be 716f bb3d 2e6a 843e 955c 3b3e
000000c0: 4996 0c3c c4eb 6dbe 0312 38be fd4a 31be
000000d0: 6739 1cbe e894 c03e d16c 5dbe 65dc 623e
000000e0: ae1b 33be 7e77 7bbe 7346 273e 766c 093d
000000f0: 016d 4e3e ae7c bc3d 037f 4e3e a5e2 db3e
00000100: 5ff2 e8bd ff8a a2bd b874 723d 219c ac3e
00000110: 4484 08be 0189 0f3d 94b1 4fbe 7af4 683d
00000120: e641 17bd 5e14 973e c1c6 513d c7e9 55bd
00000130: 1728 083d e66f ae3e d344 183d 2a79 56be
00000140: 0cb6 993e 86e9 1ebe 7380 a33d 5eab 81be
00000150: 485e 31be b301 b73d be7c d33d d42e 8b3e
00000160: dbf7 333e 7601 81bb 8cd0 e7bc 5f66 c8bd
00000170: e3ca ef3d d298 13be 48a6 ba3a 6cf7 e33d
00000180: 5d01 2bbe 35b2 fd3d 24d9 06bd 9ac3 a4be
00000190: 87c0 7d3e 1e5d 48be 0425 fa3c 41e4 923c
000001a0: 4e9d 4b3e 3d49 573e 0fb1 5d3e e22e 243e
000001b0: 3ae7 2ebe 18c3 d83d bfa9 27be 866b 7dbe
000001c0: fa62 133d cd4f dc3d b903 35be 0b50 263e
000001d0: dde9 ba3e 6ae1 c4be be4b 123e 0966 c23d
000001e0: 292d 37bd eec0 673e fc16 19be 901a 0abe
000001f0: a96d 743e cb8c 91bd a57c 7d3d 8a81 9e3e
00000200: 09f8 ae3e fedc c03d d244 17be d7a8 9fbd
00000210: 8f11 103e 1da8 89bd 445a 6abe e1ae a9be
00000220: 1681 17be cf44 79be 037a 89be 8f24 e33c
00000230: cd89 47bc 0161 abbd 139b 3cbe 2200 b63d
00000240: ea7e 9c3e 0c3c b73d fac3 2bbd 5822 3cbe
00000250: fc3a 003e 9fb1 9fbc 63b8 963e b0c9 40bd
00000260: 02ad 1cbd 8d15 63be 2740 5fbe 88e2 4f3e
00000270: 590c b0be 32cd 9fbd 16e4 60bd e287 893e
00000280: 668e 3f3e 90bc 9dbe b83d 5d3e 101d 9f3d
00000290: f43e 5f3c e2e6 7e3e 4b3e 443e bcfd dabd
000002a0: f5fd c1bd cd22 0b3d df06 b3be 0493 5cbe
000002b0: 583a c03b 9874 cabc 89b0 1cbd a7f1 34bd
000002c0: 2ccf 723e 5742 3c3e 5011 de3b 4381 60be
000002d0: 6ff6 cebd 9ae5 bc3e 67fb 1dbe 2f9f 1f3d
000002e0: 0fba 0fbd 59cc 993e 80e7 5d3e ef5b dd3c
000002f0: 3fe8 ab3e ea9a c2be 5ec0 5d3e 61e1 bdba
00000300: 1e40 09be 7fc6 b9bd 314b ca3d 191b f2bd
00000310: 7868 933d 6430 3fbe bb12 9f3e 7fd3 65be
00000320: 1900 c8bd d90c 6b3e 59f2 3ebe 4c36 7abe
00000330: b5cc 133d 1c21 9fbe 96e5 24be 2c9f 36bd
00000340: 4651 83be 3881 073e 7ba0 63bd 33fb 09be
00000350: bce5 3b3e 08b6 ef3d 052e 693e e288 a1be
00000360: 387b 89be 2174 13be b6dc 0fbd b69f 213e
00000370: e181 44be 64e5 883d 6c54 0a3e 4d41 9dbe
00000380: 8613 09be 9b44 82bd 7a86 933c d929 eebd
00000390: 6487 cc3e 6faf 123e a42f 2abe 2ff9 8f3d
000003a0: 6285 aebd 9e88 113e 1fad 333e 6a1d 74be
000003b0: 7707 90be cada 45be e688 3fbe f6cd 84be
000003c0: 01d0 9cbd 0345 8b3e 8bcb b53e 18e8 c23d
000003d0: 329b e6bd 7640 933d 9291 10be 222b 383e
000003e0: 36b5 2cbd 3c04 9dbe b4bf 3cbe 1a7b 963d
000003f0: e80b c9be f11c 3bbd 4b26 bebd ad52 41be

self_attn.o_proj.bias f4 [36]
-0.12601773 0.22163025 -0.1399624 -0.11647165 -0.17243364 -0.16008738 0.16644976 0.13499333
0.014578967 -0.16602223 -0.029434735 -0.03366545 0.00025882936 0.012437884 -0.05275933 0.07832555
0.12336728 -0.019199023 -0.067083895 -0.0061530266 0.07104258 -0.15193982 0.012187437 -0.053554095
0.12464474 -0.016642254 0.05023724 0.16459966 0.036508445 0.102861576 -0.04947033 -0.137425
-0.086887926 -0.0011229716 0.0014330714 0.049924094
00000000: cb0a 01be 0af3 623e 4e52 0fbe b088 eebd
00000010: 7292 30be f2ed 23be ce71 2a3e b13b 0a3e
00000020: 9fdc 6e3c bb01 2abe 1d21 f1bc c8e4 09bd
00000030: 7db3 8739 44c8 4b3c 2b1a 58bd 2569 a03d
00000040: fca7 fc3d 4547 9dbc 4863 89bd 549f c9bb
00000050: c67e 913d 1d96 1bbe d1ad 473c 8a5b 5bbd
00000060: be45 ff3d 5655 88bc 90c5 4d3d d08c 283e
00000070: e189 153d 17a9 d23d 67a1 4abd 24b9 0cbe
00000080: 4cf2 b1bd ad30 93ba e6d5 bb3a 357d 4c3d

fc.weight f4 [1, 18]
-0.08874721 0.001302731 0.19319963 -0.04951159 -0.13092846 -0.22672167 -0.05187847 -0.13886668
0.111418426 -0.04246194 0.22184764 0.072015 0.13027489 -0.15226184 -0.19681935 -0.1418827
-0.20659459 0.011187094
00000000: 19c1 b5bd 66c0 aa3a 20d6 453e aacc 4abd
00000010: 1c12 06be ba29 68be 857e 54bd 1133 0ebe
00000020: 582f e43d 92ec 2dbd 072c 633e 9a7c 933d
00000030: c866 053e 87ea 1bbe 038b 49be b349 11be
00000040: 888d 53be 134a 373c

fc1.weight f4 [1, 36]
-0.9565477 0.9898418 -1.2231367 1.1498014 -1.1067693 -1.1267482 1.0722995 0.7803062
-1.3254545 -0.97853863 -0.9850642 1.2544682 1.2320508 -1.3308965 -0.945083 1.1592385
1.0633395 -1.2900121 -1.2959174 -1.2233429 1.21935 -1.1515372 1.2289208 -1.2737627
1.1041197 -1.3236231 1.2009733 1.108814 1.1338615 1.1106908 -1.3420722 -1.1436721
-1.2557535 -1.2528228 -1.3233125 1.2504588
00000000: 4fe0 74bf 4666 7d3f be8f 9cbf b12c 933f
00000010: 9eaa 8dbf 4939 90bf 1c41 893f 26c2 473f
00000020: 7ea8 a9bf 8281 7abf 2b2d 7cbf 6a92 a03f
00000030: d7b3 9d3f d15a aabf f6f0 71bf ed61 943f
00000040: 821b 883f 1e1f a5bf 9fe0 a5bf 8096 9cbf
00000050: a913 9c3f 9265 93bf 474d 9d3f a80a a3bf
00000060: cb53 8d3f 7b6c a9bf 7eb9 993f 9eed 8d3f
00000070: 6022 913f 1e2b 8e3f 06c9 abbf d963 92bf
00000080: 88bc a0bf 7f5c a0bf 4e62 a9bf 090f a03f

fc2.weight f4 [1, 9]
0.2901786 -0.18099675 0.21429989 0.25394028 -0.22418687 0.03536622 0.033139825 -0.21029787
-0.029527824
00000000: 4a92 943e 3657 39be 6e71 5b3e 7604 823e
00000010: 3e91 65be 2bdc 103d a0bd 073d 5358 57be
00000020: 56e4 f1bc

fc3.weight f4 [1, 2]
-0.27737573 -0.56866574
00000000: 3104 8ebe 1494 11bf

input_fc.weight f4 [18, 3]
0.40477747 -0.5675242 0.18313137 -0.35857475 -0.218772 0.5568098 0.04176431 -0.3092256
0.35250926 0.25305983 0.32206944 0.08738315 0.3063549 -0.060708508 -0.5960597 -0.02682683
0.30449256 -0.24947983 -0.014359821 0.021088362 0.3889535 -0.1542518 -0.3952519 0.50631267
-0.27792948 0.35777834 -0.42154375 0.5049561 -0.0072781323 -0.5139075 0.03400272 -0.4630189
-0.3938527 0.38317513 -0.3294495 0.31218195 0.42535058 0.04963358 -0.37068146 -0.51236576
0.20018205 0.35899025 0.13798694 -0.31322426 -0.42370206 0.0905056 -0.5124168 -0.26983246
-0.0077976855 0.2374971 0.23223391 -0.033370726 -0.0866016 0.28696862
00000000: fe3e cf3e 4449 11bf ca86 3b3e 1c97 b7be
00000010: c405 60be 168b 0e3f 0e11 2b3d d152 9ebe
00000020: 187c b43e 0f91 813e 49e6 a43e f0f5 b23d
00000030: 8dda 9c3e 7ca9 78bd 5e97 18bf f1c3 dbbc
00000040: 73e6 9b3e a477 7fbe 7445 6bbc 80c1 ac3c
00000050: ea24 c73e 2ff4 1dbe 755e cabe b59d 013f
00000060: c64c 8ebe b92e b73e 95d4 d7be ce44 013f
00000070: 667d eebb 718f 03bf 7046 0b3d d010 edbe
00000080: 10a7 c9be 882f c43e 9bad a8be 50d6 9f3e
00000090: 8dc7 d93e 954c 4b3d f6c9 bdbe 672a 03bf
000000a0: 86fc 4c3e 92cd b73e 734c 0d3e ee5e a0be
000000b0: 7aef d8be 005b b93d bf2d 03bf 7b27 8abe
000000c0: ba83 ffbb 7132 733e bace 6d3e beaf 08bd
000000d0: 2e5c b1bd 8ded 923e

input_fc.bias f4 [18]
0.23002768 0.014836923 0.30023164 -0.60321456 -0.48661432 0.23513332 0.46858758 0.34418523
-0.23384224 -0.2597885 -0.1800335 0.4914554 0.29581422 -0.0065873526 0.16853513 -0.38940597
0.5078589 -0.39074785
00000000: 608c 6b3e 9116 733c f6b7 993e 456c 1abf
00000010: 8325 f9be cac6 703e b6ea ef3e 0c39 b03e
00000020: 5774 6fbe 0003 85be b45a 38be 0ba0 fb3e
00000030: f674 973e b8da d7bb 7994 2c3e 3860 c7be
00000040: 0a03 023f 1a10 c8be

norm.weight f4 [36]
1.0 1.0 1.0 1.0 1.0 1.0 1.0 1.0
1.0 1.0 1.0 1.0 1.0 1.0 1.0 1.0
1.0 1.0 1.0 1.0 1.0 1.0 1.0 1.0
1.0 1.0 1.0 1.0 1.0 1.0 1.0 1.0
1.0 1.0 1.0 1.0
00000000: 0000 803f 0000 803f 0000 803f 0000 803f
00000010: 0000 803f 0000 803f 0000 803f 0000 803f
00000020: 0000 803f 0000 803f 0000 803f 0000 803f
00000030: 0000 803f 0000 803f 0000 803f 0000 803f
00000040: 0000 803f 0000 803f 0000 803f 0000 803f
00000050: 0000 803f 0000 803f 0000 803f 0000 803f
00000060: 0000 803f 0000 803f 0000 803f 0000 803f
00000070: 0000 803f 0000 803f 0000 803f 0000 803f
00000080: 0000 803f 0000 803f 0000 803f 0000 803f

norm.bias f4 [36]
0.0 0.0 0.0 0.0 0.0 0.0 0.0 0.0
0.0 0.0 0.0 0.0 0.0 0.0 0.0 0.0
0.0 0.0 0.0 0.0 0.0 0.0 0.0 0.0
0.0 0.0 0.0 0.0 0.0 0.0 0.0 0.0
0.0 0.0 0.0 0.0
00000000: 0000 0000 0000 0000 0000 0000 0000 0000
00000010: 0000 0000 0000 0000 0000 0000 0000 0000
00000020: 0000 0000 0000 0000 0000 0000 0000 0000
00000030: 0000 0000 0000 0000 0000 0000 0000 0000
00000040: 0000 0000 0000 0000 0000 0000 0000 0000
00000050: 0000 0000 0000 0000 0000 0000 0000 0000
00000060: 0000 0000 0000 0000 0000 0000 0000 0000
00000070: 0000 0000 0000 0000 0000 0000 0000 0000
00000080: 0000 0000 0000 0000 0000 0000 0000 0000

norm1.weight f4 [9]
1.0 1.0 1.0 1.0 1.0 1.0 1.0 1.0
1.0
00000000: 0000 803f 0000 803f 0000 803f 0000 803f
00000010: 0000 803f 0000 803f 0000 803f 0000 803f
00000020: 0000 803f

norm1.bias f4 [9]
0.0 0.0 0.0 0.0 0.0 0.0 0.0 0.0
0.0
00000000: 0000 0000 0000 0000 0000 0000 0000 0000
00000010: 0000 0000 0000 0000 0000 0000 0000 0000
00000020: 0000 0000

norm2.weight f4 [9]
1.0 1.0 1.0 1.0 1.0 1.0 1.0 1.0
1.0
00000000: 0000 803f 0000 803f 0000 803f 0000 803f
00000010: 0000 803f 0000 803f 0000 803f 0000 803f
00000020: 0000 803f

norm2.bias f4 [9]
0.0 0.0 0.0 0.0 0.0 0.0 0.0 0.0
0.0
00000000: 0000 0000 0000 0000 0000 0000 0000 0000
00000010: 0000 0000 0000 0000 0000 0000 0000 0000
00000020: 0000 0000

m.running_mean f4 [12]
-9.190921 -9.167164 -9.18187 -9.213572 -9.227403 -9.209529 -9.178464 -9.167264
-9.1932535 -9.238657 -9.268831 -9.259842
00000000: 030e 13c1 b4ac 12c1 f1e8 12c1 ca6a 13c1
00000010: 71a3 13c1 3b5a 13c1 fdda 12c1 1dad 12c1
00000020: 9117 13c1 8ad1 13c1 224d 14c1 5028 14c1

m.running_var f4 [12]
1970.3778 1972.2789 1974.8956 1977.9503 1980.2313 1981.2115 1981.1223 1981.2369
1982.1528 1983.5242 1984.7476 1984.5605
00000000: 174c f644 ed88 f644 a9dc f644 693e f744
00000010: 6787 f744 c5a6 f744 eaa3 f744 95a7 f744
00000020: e4c4 f744 c6f0 f744 ec17 f844 f011 f844

linear_net.0.weight f4 [9, 18]
-0.059559792 0.08539407 0.10310218 -0.19997132 -0.21183234 -0.1056862 -0.113480166 0.019016096
0.19915901 0.053584576 0.13852686 0.08591955 -0.03497941 -0.22811015 0.111239865 -0.21327828
0.22823483 0.14064412 0.15170325 0.20137298 -0.10800858 0.14611399 0.12963106 -0.23095027
-0.1532618 -0.061046787 0.108962245 -0.16822335 -0.12777379 0.20137775 -0.11140188 -0.11305499
0.13056155 -0.03161958 -0.14991704 -0.12103027 0.12045519 0.23420048 -0.044431575 0.0093393205
0.21492518 0.05958241 0.16769248 -0.055709675 -0.1296858 0.01676818 0.21268672 -0.01694382
-0.17669512 0.08373688 0.074662946 0.18822445 0.18259206 0.08829394 0.15369767 -0.14664075
-0.23047414 -0.096884534 -0.17899477 0.019548804 -0.032818235 0.05462302 0.063002095 -0.029272053
0.20854114 0.05824703 0.07767088 0.04814558 0.08302606 -0.18906163 -0.18685864 0.027607534
0.2118195 0.06150824 0.042465 -0.2325349 0.025184035 0.077065766 0.11221525 -0.19279343
-0.18737686 -0.016699903 0.019913908 -0.14491053 -0.04633824 0.084646575 0.0611181 -0.118564144
-0.10923159 -0.23483384 -0.014919423 -0.21035153 0.13348755 -0.124641694 0.18367516 -0.21176569
-0.014238526 -0.038725536 0.07985788 -0.22935115 0.10876081 -0.1502381 0.022599898 -0.22151273
-0.034107 -0.1851365 -0.095039375 0.18028247 0.19185568 -0.15421133 0.0636738 -0.025767712
-0.03872295 -0.014007814 -0.08494641 0.12510441 0.16515183 -0.13048212 -0.07424477 -0.16147526
0.0030925109 -0.18697399 -0.19246411 0.15187027 0.06170807 -0.17895105 -0.19071396 -0.043154888
-0.018194878 0.08461278 0.17215155 -0.021218605 0.059129052 -0.11901792 -0.21112107 -0.122458965
-0.061305992 0.20736112 -0.09501372 0.07807681 -0.1367189 0.053924702 -0.1266365 0.1229203
-0.115222655 -0.03445547 -0.046457067 -0.1755349 -0.16708523 0.20578098 0.09053449 0.0056878296
0.23021162 0.03657512 0.05764208 -0.0393497 -0.15679754 -0.13163899 -0.041369494 0.16693197
-0.014466343 -0.0063760313
00000000: f8f4 73bd 16e3 ae3d 3c27 d33d 48c5 4cbe
00000010: 94ea 58be 0272 d8bd 4a68 e8bd a5c7 9b3c
00000020: 57f0 4b3e 807b 5b3d fcd9 0d3e 97f6 af3d
00000030: 9246 0fbd b595 69be bad1 e33d 9f65 5abe
00000040: 64b6 693e 0305 103e 1958 1b3e b834 4e3e
00000050: 9a33 ddbd e89e 153e 01be 043e 3a7e 6cbe
00000060: a9f0 1cbe 320c 7abd 9927 df3d be42 2cbe
00000070: 22d7 02be f835 4e3e ab26 e4bd 6089 e7bd
00000080: edb1 053e 8883 01bd da83 19be b8de f7bd
00000090: 36b1 f63d 40d2 6f3e e2fd 35bd f303 193c
000000a0: 5915 5c3e af0c 743d 94b7 2b3e d42f 64bd
000000b0: 5bcc 04be 6c5d 893c 8cca 593e c4cd 8abc
000000c0: 91ef 34be 3e7e ab3d e3e8 983d e9bd 403e
000000d0: 6af9 3a3e 74d3 b43d ec62 1d3e fe28 16be
000000e0: 6a01 6cbe 666b c6bd 684a 37be d024 a03c
000000f0: 6a6c 06bd 63bc 5f3d 3e07 813d f2cb efbc
00000100: cf8b 553e 7094 6e3d e911 9f3d 4d34 453d
00000110: 9109 aa3d 5f99 41be df57 3fbe 3229 e23c
00000120: 36e7 583e 10f0 7b3d c8ef 2d3d a11d 6ebe
00000130: c04e ce3c a8d4 9d3d 1cd1 e53d a46b 45be
00000140: b8df 3fbe 3cce 88bc 7e22 a33c 6d63 14be
00000150: 2bcd 3dbd 2f5b ad3d f956 7a3d c2d1 f2bd
00000160: d0b4 dfbd 4878 70be 9870 74bc 6466 57be
00000170: f6b0 083e 2544 ffbd 5715 3c3e 1bd9 58be
00000180: b548 69bc ab9e 1ebd 878c a33d 07db 6abe
00000190: fdbd de3d 04d8 19be 6c23 b93c 3cd4 62be
000001a0: c8b3 0bbd 6c94 3dbe 01a4 c2bd f89b 383e
000001b0: d175 443e 93e9 1dbe 6967 823d cf16 d3bc
000001c0: f59b 1ebd 0881 65bc 62f8 adbd 5f1b 003e
000001d0: 901d 293e 1b9d 05be a40d 98bd c559 25be
000001e0: b9ab 4a3b 1c76 3fbe 5015 45be e183 1b3e
000001f0: 9ac1 7c3d f23e 37be 854a 43be 2ec3 30bd
00000200: 6d0d 95bc 7749 ad3d 7f48 303e a4d2 adbc
00000210: 4e31 723d abbf f3bd 1f30 58be c4cb fabd
00000220: fe1b 7bbd 7956 543e 8e96 c2bd bce6 9f3d
00000230: 0a00 0cbe 26e0 5c3d 00ad 01be a3bd fb3d
00000240: dbf9 ebbd 2e21 0dbd c449 3ebd 6cbf 33be
00000250: 6418 2bbe 40b8 523e 266a b93d f960 ba3b
00000260: 98bc 6b3e cbcf 153d 1a1a 6c3d 272d 21bd
00000270: 898f 20be 5fcc 06be 0f73 29bd 37f0 2a3e
00000280: 3e04 6dbc 07ee d0bb

linear_net.0.bias f4 [9]
-0.045924865 0.0022910465 -0.16648537 -0.039255742 -0.017715754 0.09493179 -0.114461824 -0.08479519
-0.23438562
00000000: b61b 3cbd 6225 163b 247b 2abe a1ca 20bd
00000010: a120 91bc 996b c23d f66a eabd 1aa9 adbd
00000020: c902 70be

linear_net.2.weight f4 [1, 9]
0.11883569 -0.06205408 0.04677558 -0.0441581 0.17985737 -0.16171269 -0.038095713 0.18773791
0.29773805
00000000: 2060 f33d 6b2c 7ebd c097 3f3d 20df 34bd
00000010: 882c 383e 0398 25be 400a 1cbd 5e3e 403e
00000020: 1f71 983e

exp_avg f4 [108, 36]
0.015246311 0.015077255 0.010434844 -0.024326239 0.001415662 -0.0120332055 -0.0052981186 0.01865593
-0.0053985147 -0.008000837 0.027245345 0.002075955 -0.010618572 0.00026908016 0.016781718 0.026842508
-0.014811892 0.0024271857 -8.0523605e-06 2.14337e-05 -0.00020705187 0.00010264549 -0.0003491442 -0.0003928634
-0.00014798388 -0.0005540305 -5.4306158e-05 -0.0005772695 -1.956926e-05 -0.00058031344 -7.035277e-06 -0.00058070733
-2.5284605e-06 -0.0005807582 -9.0868673e-07 -0.0005807648 -0.0051809317 -0.005035821 -0.0034341041 0.008658456
-0.00080874114 0.0040856097 0.0021132848 -0.0062889894 0.0015932475 0.0025996594 -0.009831031 -0.0004603674
0.0035978728 2.481114e-05 -0.006140616 -0.009605988 0.005364786 -0.0006741438 9.647744e-06 -4.296719e-06
8.929425e-05 -2.2553e-05 0.00012291955 0.00015452865 5.141067e-05 0.00020827819 1.8836061e-05 0.00021597905
6.786192e-06 0.00021698693 2.4396159e-06 0.00021711735 8.7678853e-07 0.00021713418 3.1510314e-07 0.00021713636
0.007400779 0.0071910615 0.004901386 -0.012427256 0.0011966472 -0.005838663 -0.003057271 0.008983657
-0.002242208 -0.0037018512 0.014124003 0.00062437146 -0.0051450273 -4.7979443e-05 0.00883086 0.013790596
-0.007710399 0.0009546127 -5.501555e-06 8.462016e-06 -0.00012196649 3.670658e-05 -0.00018122092 -0.0002205598
-7.628489e-05 -0.00030171347 -2.79718e-05 -0.00031338623 -1.0078613e-05 -0.0003149147 -3.6232782e-06 -0.0003151125
-1.3021947e-06 -0.00031513805 -4.6798715e-07 -0.00031514137 -0.0042118994 -0.004194131 -0.0028248348 0.007185122
-0.0006408369 0.0033621045 0.0017515346 -0.005199925 0.0012622749 0.0022025518 -0.008120155 -0.00031662523
0.003021192 -4.2507232e-05 -0.005059783 -0.007923038 0.004434273 -0.00055972894 -1.5743353e-06 -8.82661e-06
5.5101624e-05 -4.0078485e-05 0.00011287457 0.000117627606 4.8353188e-05 0.00017189936 1.77669e-05 0.00017976337
6.403356e-06 0.00018079412 2.3020966e-06 0.0001809275 8.2737e-07 0.00018094471 2.9734315e-07 0.00018094694
-0.0010836525 -0.0014317068 -0.0007819251 0.0025391113 -0.00020091466 0.0010218638 0.00069625006 -0.0016547623
0.00012438872 0.00088663906 -0.002769704 0.00022882945 0.0011472964 -0.00022718834 -0.0017054604 -0.0026369009
0.0015294593 -9.837103e-05 -1.4383802e-06 -4.2459064e-06 2.0970527e-05 -1.859644e-05 4.197487e-05 4.1142524e-05
1.7930583e-05 6.120232e-05 6.5860786e-06 6.4101936e-05 2.3735754e-06 6.448189e-05 8.5332897e-07 6.4531036e-05
3.0668485e-07 6.453739e-05 1.10217464e-07 6.453822e-05 -0.00018079905 -0.0002978545 -0.00010976145 0.0007490202
-0.00016785154 0.00021011611 0.00029504733 -0.00033854382 -0.0001226405 0.00018305128 -0.00085368543 0.00020903954
0.00028285073 -4.7924106e-05 -0.00055345654 -0.000777644 0.00048082785 4.3997563e-05 -4.894572e-06 -1.9294991e-06
6.1717456e-06 -9.047965e-06 1.7193086e-05 1.4427228e-05 7.4739914e-06 2.3146255e-05 2.751058e-06 2.4418456e-05
9.917292e-07 2.458534e-05 3.5655088e-07 2.4606936e-05 1.281443e-07 2.460972e-05 4.605298e-08 2.4610088e-05
0.007982073 0.0080295075 0.005386302 -0.013588571 0.0011058731 -0.0063965893 -0.0032554704 0.009919133
-0.0024457024 -0.004268582 0.015297375 0.00063342 -0.0057855574 0.00015722922 0.009501629 0.014941242
-0.008349227 0.0010889684 -1.0288475e-05 1.1023877e-05 -0.00012379637 5.0586008e-05 -0.00019768301 -0.00023100222
-8.350101e-05 -0.00032101257 -3.0629988e-05 -0.00033396995 -1.1036954e-05 -0.00033566687 -3.9678293e-06 -0.0003358864
-1.4260266e-06 -0.00033591472 -5.124903e-07 -0.00033591845 -0.012808675 -0.012455763 -0.008628278 0.020701084
00000000: aacb 793c 9706 773c e8f6 2a3c d247 c7bc
00000010: bc8d b93a ec26 45bc d79b adbb 52d4 983c
00000020: 06e6 b0bb f115 03bc a131 df3c bf0c 083b
00000030: 85f9 2dbc 5413 8d39 d079 893c d2e4 db3c
00000040: 94ad 72bc 6b11 1f3b a018 07b7 85cc b337
00000050: 101c 59b9 6143 d738 570d b7b9 3cf9 cdb9
00000060: 1f2c 1bb9 5c3c 11ba cbc6 63b8 e653 17ba
00000070: aa28 a4b7 2d20 18ba 9210 ecb6 9c3a 18ba
00000080: 9fae 29b6 063e 18ba 7aec 73b5 773e 18ba
00000090: cec4 a9bb 8703 a5bb b50e 61bb 32dc 0d3c
000000a0: b301 54ba 94e0 853b 097f 0a3b de13 cebb
000000b0: 84d4 d03a 0c5f 2a3b 5512 21bc 775d f1b9
000000c0: 4aca 6b3b 8421 d037 3837 c9bb 6f62 1dbc
000000d0: 16cb af3b 06b9 30ba bfdc 2137 892c 90b6
000000e0: 7c43 bb38 3330 bdb7 f7e3 0039 f808 2239
000000f0: c9a1 5738 4065 5a39 2202 9e37 6f78 6239
00000100: f2b4 e336 fc86 6339 48b8 2336 ffa9 6339
00000110: 735c 6b35 83ae 6339 722b a934 19af 6339
00000120: 3c82 f23b ffa2 eb3b ce9b a03b b19b 4bbc
00000130: d1d8 9c3a 4152 bfbb 7f5c 48bb 3030 133c
00000140: 02f2 12bb c29a 72bb 5d68 673c dcac 233a
00000150: 9e97 a8bb 893d 49b8 50af 103c f4f1 613c
00000160: 84a7 fcbb f93e 7a3a ff99 b8b6 15f8 0d37
00000170: 43c8 ffb8 64f5 1938 1f06 3eb9 1246 67b9
00000180: 23fb 9fb8 4c2f 9eb9 fca4 eab7 fd4d a4b9
00000190: 5017 29b7 231b a5b9 7227 73b6 af35 a5b9
000001a0: 12c7 aeb5 1d39 a5b9 aa3f fbb4 8f39 a5b9
000001b0: f903 8abb ec6e 89bb dd20 39bb 2c71 eb3b
000001c0: d6fd 27ba c156 5c3b c093 e53a 2264 aabb
000001d0: eb72 a53a b058 103b 660a 05bc b800 a6b9
000001e0: 31ff 453b cb49 32b8 89cc a5bb a1cf 01bc
000001f0: 614d 913b c6ba 12ba c04d d3b5 0016 14b7
00000200: eb1c 6738 f219 28b8 13b7 ec38 d7ae f638
00000210: d7ce 4a38 e23f 3439 210a 9537 dd7e 3c39
00000220: 69dc d636 8d93 3d39 b87d 1a36 5bb7 3d39
00000230: 6f18 5e35 fabb 3d39 88a2 9f34 93bc 3d39
00000240: 5809 8eba 1ca8 bbba 1bfa 4cba 3867 263b
00000250: 9eac 52b9 0ff0 853a 8d84 363a 9ce4 d8ba
00000260: 586e 0239 576d 683a ec83 35bb f0f1 6f39
00000270: e160 963a 6839 6eb9 c189 dfba dbcf 2cbb
00000280: 2378 c83a 8b4c ceb8 5e0e c1b5 0f78 8eb6
00000290: dde9 af37 8dff 9bb7 2c0e 3038 7390 2c38
000002a0: a269 9637 bf59 8038 fcfd dc36 776e 8638
000002b0: b749 1f36 733a 8738 5210 6535 d654 8738
000002c0: 72a6 a434 3f58 8738 b1b0 ec33 b158 8738
000002d0: e094 3db9 5b29 9cb9 bb2f e6b8 e559 443a
000002e0: 4e01 30b9 9d52 5c39 95b0 9a39 957e b1b9
000002f0: 0f99 00b9 74f1 3f39 dcc9 5fba a031 5b39
00000300: 954b 9439 1e02 49b8 d715 11ba ceda 4bba
00000310: 9f17 fc39 068a 3838 0e3c a4b6 8b7c 01b6
00000320: e416 cf36 b7cc 17b7 df39 9037 790c 7237
00000330: 19c9 fa36 342a c237 d19e 3836 3cd6 cc37
00000340: 8e1b 8535 9e3c ce37 fb6b bf34 fe6a ce37
00000350: 0998 0934 f970 ce37 c9cb 4533 c371 ce37
00000360: 3ec7 023c 328e 033c 937f b03b 99a2 5ebc
00000370: f2f2 903a 7b9a d1bb bb59 55bb dc83 223c
00000380: 1448 20bb 76df 8bbb d7a1 7a3c 190c 263a
00000390: c694 bdbb e6dd 2439 b8ac 1b3c 1ccc 743c
000003a0: 32cb 08bc b7bb 8e3a aa9c 2cb7 31f3 3837
000003b0: 56cf 01b9 502c 5438 2149 4fb9 3039 72b9
000003c0: 431d afb8 944d a8b9 b378 00b8 b018 afb9
000003d0: 5b2b 39b7 72fc afb9 6523 85b6 e919 b0b9
000003e0: e765 bfb5 b61d b0b9 1192 09b5 361e b0b9
000003f0: 7adb 51bc 4213 4cbc 9f5d 0dbc 5295 a93c

exp_avg_sq f4 [108, 36]
0.0012428398 0.0022083127 0.0005000231 0.028357925 0.0034769399 0.0007208028 0.0075588804 0.0021348353
0.0066343816 0.0017152675 0.036947098 0.009447823 0.0037295853 0.001057458 0.016533075 0.026968803
0.012057659 0.00096704566 1.8404842e-06 1.9447089e-06 6.57667e-06 9.596974e-06 1.6818743e-05 1.8312088e-05
3.1032366e-06 3.6321897e-05 4.1929582e-07 3.960273e-05 5.446979e-08 4.004537e-05 7.0403288e-09 4.0102856e-05
9.0938135e-10 4.0110266e-05 1.1745252e-10 4.011124e-05 7.79227e-05 0.00012774699 3.0402674e-05 0.0013584305
0.00015684578 5.1749503e-05 0.00033889277 0.0001406946 0.00028595625 8.407771e-05 0.0017786683 0.00040665327
0.00018069248 4.7974012e-05 0.00078654167 0.0013247577 0.00057229726 4.0718278e-05 7.553107e-08 1.09220736e-07
3.5177254e-07 5.1737163e-07 8.9327807e-07 8.181534e-07 1.644414e-07 1.7305621e-06 2.2212115e-08 1.8981975e-06
2.885417e-09 1.920836e-06 3.729442e-10 1.9237764e-06 4.8172237e-11 1.924158e-06 6.2217566e-12 1.9242061e-06
0.00013131226 0.0002691764 5.188816e-05 0.0017286647 0.00016723212 0.000119852615 0.00032893114 0.0003109254
0.00021781746 0.00014937352 0.0022532868 0.00032598298 0.0002675866 7.2579394e-05 0.00095469214 0.0017754902
0.0006926304 2.4453142e-05 2.597767e-07 3.7537657e-07 7.536989e-07 5.4302484e-07 9.382798e-07 1.3758519e-06
1.6279417e-07 2.3688547e-06 2.1836778e-08 2.5398326e-06 2.8341371e-09 2.562745e-06 3.6627398e-10 2.565719e-06
4.7309913e-11 2.566103e-06 6.110374e-12 2.5661482e-06 0.00010079393 0.00015786315 2.3593017e-05 0.0015218023
0.00021144596 7.522876e-05 0.0003550209 0.0001987192 0.00021431601 0.00010951313 0.0021111981 0.0003273904
0.00019357978 7.6543525e-05 0.00095307437 0.001628511 0.0006590835 3.831243e-05 2.0684487e-07 1.8776844e-07
5.158999e-07 6.9202105e-07 9.289403e-07 1.0685717e-06 1.663108e-07 1.9952984e-06 2.2389939e-08 2.1617996e-06
2.9072813e-09 2.1842238e-06 3.757496e-10 2.1871344e-06 4.8534298e-11 2.1875137e-06 6.268514e-12 2.18756e-06
0.00043184057 0.00058102375 0.0001722891 0.008824622 0.0011495277 0.00017924256 0.0024618425 0.00053585035
0.002336899 0.0005135171 0.011524643 0.003258447 0.0011322091 0.0003571135 0.0051922984 0.008291508
0.0037625027 0.00032943106 4.795309e-07 5.4239587e-07 1.9813424e-06 3.002227e-06 5.3963618e-06 5.7863454e-06
1.0022892e-06 1.1598226e-05 1.3553073e-07 1.26622745e-05 1.760824e-08 1.280592e-05 2.275931e-09 1.28245865e-05
2.9397665e-10 1.2826994e-05 3.796901e-11 1.282731e-05 0.00036779267 0.00011990348 9.022092e-05 0.0024495253
0.0006945187 0.0001319295 0.0006981542 0.00024992911 0.00064114743 0.00016603475 0.0040414175 0.00074106257
0.00018057317 0.00023277322 0.001972728 0.003027081 0.0011348169 9.086148e-05 3.1426208e-07 3.439196e-07
1.1555636e-06 1.0518349e-06 1.9140384e-06 2.4698347e-06 3.5069888e-07 4.507663e-06 4.7356963e-08 4.876681e-06
6.1515975e-09 4.9264377e-06 7.9509893e-10 4.9329155e-06 1.02701014e-10 4.9337496e-06 1.3264483e-11 4.933855e-06
0.00010489427 0.00018192678 3.930681e-05 0.0020089163 0.00023094707 6.578843e-05 0.00050922006 0.00019104281
0.00043559514 0.00013354716 0.0026056436 0.0006285645 0.00027493906 8.093383e-05 0.0011554265 0.0019223931
0.0008432405 6.4097665e-05 9.449651e-08 1.1374869e-07 4.1318572e-07 7.269403e-07 1.2500236e-06 1.1492297e-06
2.3237304e-07 2.449088e-06 3.1423504e-08 2.689223e-06 4.082588e-09 2.7216697e-06 5.2769006e-10 2.7258855e-06
6.8160484e-11 2.7264289e-06 8.803374e-12 2.7265028e-06 0.0012977313 0.002572341 0.0004551089 0.031024555
00000000: c9e6 a23a 57b9 103b fb13 033a e14e e83c
00000010: 5fdd 633b 42f4 3c3a 7cb0 f73b 98e8 0b3b
00000020: 3a65 d93b d4d2 e03a d755 173d 0bcb 1a3c
00000030: 0f6c 743b 679a 8a3a 5f70 873c aeed dc3c
00000040: 7d8d 453c 5681 7d3a 8e06 f735 d881 0236
00000050: 2aad dc36 b102 2137 fa15 8d37 e99c 9937
00000060: 3341 5036 5758 1838 941b e134 1c1b 2638
00000070: 2bf2 6933 63f6 2738 63e7 f131 1d34 2838
00000080: 06f8 7930 123c 2838 f223 012f 1e3d 2838
00000090: 6e6a a338 d2f3 0539 3f09 ff37 5d0d b23a
000000a0: f876 2439 9b0d 5938 6bad b139 6b87 1339
000000b0: 66ec 9539 e052 b038 3422 e93a 1434 d539
000000c0: 4578 3d39 b437 4938 eb2f 4e3a 7ea3 ad3a
000000d0: 3806 163a ebc8 2a38 a533 a233 bc8c ea33
000000e0: 40db bc34 82e1 0a35 9ac9 6f35 139f 5b35
000000f0: 4f91 3034 a945 e835 f5cc be32 92c5 fe35
00000100: cb48 4631 b6e7 0036 3b07 cd2f 3a1a 0136
00000110: 1edd 532e c820 0136 9ae8 da2c 9c21 0136
00000120: deb0 0939 3f20 8d39 7da2 5938 5d94 e23a
00000130: 085b 2f39 6259 fb38 6474 ac39 b303 a339
00000140: ee65 6439 26a1 1c39 e1ab 133b b2e8 aa39
00000150: de4a 8c39 c435 9838 4e44 7a3a 91b7 e83a
00000160: a491 353a b920 cd37 7077 8b34 5d87 c934
00000170: cb51 4a35 62c4 1135 19de 7b35 e9a9 b835
00000180: 85cc 2e34 9df8 1e36 9593 bb32 fe71 2a36
00000190: abc2 4231 a0fb 2b36 7b5c c92f b72e 2c36
000001a0: 3a12 502e 5035 2c36 5bfd d62c 1736 2c36
000001b0: 5461 d338 1188 2539 9ee9 c537 3677 c73a
000001c0: 98b7 5d39 22c4 9d38 1922 ba39 475f 5039
000001d0: 04ba 6039 6aaa e538 075c 0a3b 98a5 ab39
000001e0: adfb 4a39 fe85 a038 bdd7 793a c373 d53a
000001f0: 58c6 2c3a a9b1 2038 1619 5e34 659d 4934
00000200: 5f7c 0a35 53c3 3935 4b5c 7935 d86b 8f35
00000210: 2a93 3234 f7e6 0536 ff53 c032 6f13 1136
00000220: 6fc9 4731 ae94 1236 0e92 ce2f afc6 1236
00000230: c374 552e 33cd 1236 c18d dc2c ffcd 1236
00000240: a968 e239 d84f 183a 81a8 3439 2695 103c
00000250: c0ab 963a 0ff3 3b39 dd56 213b 4f78 0c3a
00000260: a926 193b 8d9d 063a dbd1 3c3c ab8b 553b
00000270: a266 943a f63a bb39 2824 aa3b 1bd9 073c
00000280: 5294 763b 7db7 ac39 1db9 0035 2999 1135
00000290: 34f7 0436 de79 4936 6512 b536 5428 c236
000002a0: 6586 8635 0096 4237 6786 1134 0e70 5437
000002b0: ee40 9732 02d9 5637 9a66 1c31 2e29 5737
000002c0: 899d a12f 8533 5737 4efd 262e e034 5737
000002d0: 4cd4 c039 b174 fb38 fd34 bd38 3788 203b
000002e0: 5c10 363a 8e56 0a39 5604 373a eb08 8339
000002f0: ad12 283a 9d19 2e39 de6d 843b de43 423a
00000300: 3e58 3d39 9614 7439 e248 013b fe61 463b
00000310: 23be 943a e38c be38 dab7 a834 f3a3 b834
00000320: dd18 9b35 c62c 8d35 ee72 0036 70bf 2536
00000330: b047 bc34 8840 9736 8865 4b33 5fa2 a336
00000340: 065e d331 c74d a536 1d8e 5a30 6c85 a536
00000350: 88d7 e12e 968c a536 ec59 692d 7e8d a536
00000360: affa db38 99c3 3e39 5edd 2438 06a8 033b
00000370: 622a 7239 e5f7 8938 2e7d 053a aa52 4839
00000380: 9760 e439 cb08 0c39 72c3 2a3b 40c6 243a
00000390: b225 9039 05bb a938 ae71 973a cff8 fb3a
000003a0: e90c 5d3a 2c6c 8638 01ee ca33 0146 f433
000003b0: d0d3 dd34 f522 4335 7cc6 a735 3b3f 9a35
000003c0: 3782 7934 035b 2436 82f6 0633 8078 3436
000003d0: d346 8c31 eea5 3636 e30c 1130 5bee 3636
000003e0: f1e2 952e b1f7 3636 dfde 1a2d f6f8 3636
000003f0: a318 aa3a b894 283b af9b ee39 3527 fe3c

exp_avg f4 [108]
-0.0005807658 0.00021713671 -0.0003151419 0.00018094726 6.453833e-05 2.4610135e-05 -0.000335919 0.00050823373
5.8979233e-05 0.0002651823 -0.00013563444 -3.4300894e-05 0.000593545 0.00016102658 0.00034776027 -0.0003119934
0.00023419513 -0.00011299915 0.00011969325 0.00024083923 5.1712093e-05 -0.00018658953 6.866351e-05 -0.0005291503
6.511564e-05 0.0003033075 -6.250154e-05 0.0004031057 0.00041174458 0.0003539456 -0.0003640136 0.00015352946
-0.0003000863 0.00039177397 0.0002487043 -9.124095e-05 -9.543852e-09 -2.445783e-08 2.2521428e-08 -1.1646457e-09
-1.8118113e-08 9.916655e-10 2.076002e-08 5.6658607e-09 -4.3892644e-08 -1.4868707e-09 -9.374614e-09 -2.700782e-09
8.307681e-09 2.0421112e-08 1.3105818e-10 3.4268723e-08 -1.2141278e-08 8.803054e-09 -2.80716e-10 -2.0910027e-08
-8.182621e-09 1.9911145e-08 1.569257e-08 -4.7565725e-09 -2.0434719e-08 -1.5918763e-08 2.5775247e-08 -7.731009e-10
-1.923101e-08 6.561554e-09 2.6816851e-08 1.1600174e-08 -1.7711058e-09 2.018675e-09 1.5134118e-08 -1.4233739e-09
-0.014247338 -0.01553909 -0.009681866 -0.0035479318 -0.007922556 -0.014437707 0.00603672 0.00021229083
-0.00036708388 -0.012829062 0.014592586 0.009653192 0.009668971 -0.003953744 -0.013210965 -0.018127874
0.01006629 -0.007878666 0.0071771205 0.018997844 0.011692358 -0.0034756518 -0.012673048 0.010384647
0.01618522 0.0059105 -0.011579315 0.00088100345 -4.1799063e-05 -0.013250052 -0.013280184 0.007976205
0.0026556493 -0.014540528 0.011277377 -0.003003302
00000000: 883e 18ba 31af 6339 a139 a5b9 a9bc 3d39
00000010: c158 8738 dd71 ce37 491e b0b9 fd3a 053a
00000020: 7860 7738 2a08 8b39 1839 0eb9 4ede 0fb8
00000030: 2198 1b3a 3ed9 2839 9853 b639 0c93 a3b9
00000040: 4792 7539 f5f9 ecb8 d303 fb38 ca89 7c39
00000050: 70e5 5838 3fa7 43b9 71ff 8f38 adb6 0aba
00000060: b18e 8838 3e05 9f39 4213 83b8 ee57 d339
00000070: 6cdf d739 c691 b939 14d9 beb9 c0fc 2039
00000080: e754 9db9 0367 cd39 8764 8239 9d58 bfb8
00000090: 4ef6 23b2 5617 d2b2 2575 c132 5411 a0b0
000000a0: 27a2 9bb2 214b 8830 c453 b232 70ad c231
000000b0: 7984 3cb3 9d5a ccb0 fd0d 21b2 a998 39b1
000000c0: 91b9 0e32 806a af32 9919 102f dc2e 1333
000000d0: e895 50b2 3e3c 1732 4453 9aaf a39d b3b2
000000e0: 8c93 0cb2 1209 ab32 54cc 8632 416f a3b1
000000f0: 6c88 afb2 bbbd 88b2 5e68 dd32 2482 54b0
00000100: 7031 a5b2 0a74 e131 e15a e632 1b4a 4732
00000110: 3f6b f3b0 e8b8 0a31 4700 8232 84a0 c3b0
00000120: ab6d 69bc ab97 7ebc b0a0 1ebc 6b84 68bb
00000130: 9ccd 01bc 228c 6cbc adcf c53b 639a 5e39
00000140: 2a75 c0b9 fc30 52bc be15 6f3c 6c28 1e3c
00000150: 9b6a 1e3c 698e 81bb ce72 58bc e880 94bc
00000160: 15ed 243c 8515 01bc 0d2e eb3b 5ea1 9b3c
00000170: 4e91 3f3c c3c7 63bb 9ea2 4fbc 5e24 2a3c
00000180: de96 843c deac c13b 2bb7 3dbc 24f3 663a
00000190: 6751 2fb8 bf16 59bc 2195 59bc a1ae 023c
000001a0: 670a 2e3b 653b 6ebc bfc4 383c 0cd3 44bb

exp_avg_sq f4 [108]
4.011138e-05 1.9242134e-06 2.5661545e-06 2.1875676e-06 1.2827353e-05 4.9338746e-06 2.7265128e-06 4.352752e-05
1.4513943e-05 4.982238e-06 1.884183e-05 3.6931833e-06 2.0218306e-05 1.8181565e-05 1.315115e-05 1.9031794e-06
8.7529713e-07 1.6228723e-06 2.2421466e-06 4.823607e-06 2.8755123e-06 7.03948e-06 9.568428e-06 1.4653874e-05
1.6285718e-05 2.5631543e-05 1.3685516e-05 1.0705538e-05 1.3005179e-05 1.5616215e-05 3.7951213e-06 2.9334678e-05
5.7033835e-06 3.0414218e-05 1.4082257e-05 1.3895345e-06 1.197435e-15 9.989034e-15 8.715826e-15 2.3655468e-15
4.9239016e-15 4.946046e-15 4.8092053e-15 8.487331e-16 4.5775704e-14 1.7531485e-15 7.245627e-16 5.9507457e-15
1.4960103e-15 6.99465e-15 1.0500731e-15 1.7000936e-14 1.2207366e-14 7.5739113e-16 8.6453117e-16 5.2023684e-15
1.0247607e-15 9.78435e-15 1.985489e-15 6.391574e-16 7.8907125e-15 2.1479966e-15 6.056927e-15 6.042018e-16
5.160479e-15 7.2560045e-16 2.5328252e-14 9.705052e-15 1.0023681e-15 3.714249e-16 4.290411e-15 1.1648262e-15
0.00074088975 0.00083293155 0.00065980566 0.00025449658 0.00021206778 0.00068658387 0.00027733113 2.2450255e-05
0.00021921523 0.000984346 0.00073793693 0.0004014849 0.0004808761 0.00017826687 0.00077438337 0.0012628799
0.00045470503 0.00048040165 0.00046443017 0.001301028 0.00092218793 0.00012203039 0.00055486255 0.00036090633
0.0009956978 0.0001883205 0.00092058623 0.00012737594 1.7969473e-05 0.00059553416 0.0008063511 0.00021000531
0.00011665488 0.0007741222 0.0005592423 0.0003636366
00000000: 443d 2838 bc21 0136 3336 2c36 20ce 1236
00000010: 1035 5737 a98d a536 22f9 3636 5291 3638
00000020: e980 7337 192d a736 860e 9e37 68d8 7736
00000030: 7b9a a937 9d84 9837 c2a3 5c37 bf70 ff35
00000040: f6f5 6a35 78d1 d935 c977 1636 78da a136
00000050: edf8 4036 ac34 ec36 1688 2037 e9d9 7537
00000060: 509d 8837 5203 d737 d89a 6537 f09b 3337
00000070: d230 5a37 91ff 8237 b0af 7e36 be13 f637
00000080: b15f bf36 0922 ff37 d542 6c37 0b80 ba35
00000090: 8e91 ac26 4af2 3328 a702 1d28 a374 2a27
000000a0: fa66 b127 3933 b227 1745 ad27 73a1 7426
000000b0: cb27 4e29 c3a7 fc26 4ad7 5026 f165 d627
000000c0: 0a99 d726 4202 fc27 dc54 9726 7d21 9928
000000d0: 8ae8 5b28 9a4d 5a26 242f 7926 616f bb27
000000e0: ffae 9326 5a42 3028 cf11 0f27 7e39 3826
000000f0: 7d25 0e28 8bc7 1a27 4b39 da27 3926 2e26
00000100: 05ed b927 dd23 5126 f922 e428 a7d4 2e28
00000110: db74 9026 a41c d625 0f94 9a27 80de a726
00000120: 4538 423a 1759 5a3a cff6 2c3a f46d 8539
00000130: 835e 5e39 ddfb 333a c166 9139 8e53 bc37
00000140: 24dd 6539 2c05 813a 1c72 413a 647e d239
00000150: 191e fc39 26ed 3a39 fdff 4a3a 3887 a53a
00000160: 7a65 ee39 6bde fb39 c37e f339 4187 aa3a
00000170: fcbe 713a 91ea ff38 3274 113a 0738 bd39
00000180: 1382 823a e677 4539 7f53 713a 3890 0539
00000190: 26bd 9637 9f1d 1c3a 4e61 533a df34 5c39
000001a0: 9da4 f438 76ee 4a3a 1e9a 123a 7aa6 be39
