SensorFormer/SensorFormer/result/individual/LCS12_8.pt (torch, 81661 bytes, 35 tensors)

self_attn.qkv_proj.weight f4 [108, 36]
00000000: 3dd0 0ebe 27a1 d83d 9563 f33d e3d3 263d
00000010: 9201 b2bd fd4b 0f3e a742 4dbe 8635 f53d
00000020: 36bb 3ebd 09b2 6dbd 7e93 4abe 19d3 1f3c
00000030: c6c2 91bd 726b 3abd 151b c63d 11f6 e0bd
00000040: 9783 193e 09dc 193e 27da e83d 7dbc ba3d
00000050: c88d e5bd 5257 75bd aa59 8fbd 8154 143b
00000060: b4cb 24be a3f2 7abd a1aa 23bc 5b0b e53c
00000070: e2aa ddbc 14b9 8e3d 2100 adbd 25bb dcbd
00000080: 8fbc f8bd a342 593e 3024 103e 5d6a 17be
00000090: 2d68 1dbe ca3b 0bbc 5998 7cbd 0fb2 943d
000000a0: 3a3f 7bbd 6878 673d 64ea 8cbd 277e 0abe
000000b0: 22b4 1fbd 888b 463e 909e 0d3e a4a0 34be
000000c0: 8da2 b13d 16b1 563e 7f4b a63b ccce 853c
000000d0: a928 0f3e 67c5 2bbc 9a96 15bd 47a3 8b3e
000000e0: 33d9 043e bf8f febd 09c8 263e 010c 4b3e
000000f0: 49e6 2f3e fa56 8cbd c1b6 81bd 972c 1c3e
00000100: a115 243e 2227 0ebe 8cd0 353e b5c5 fd3d
00000110: 2199 913d 0e8a 07bd 4a2f 75bc ed95 153e
00000120: b430 a2bc 194a 483e 0cc2 02be 2072 913b
00000130: 8166 b6bd a16f c93d 60e7 cd3d 4ad2 7f3d
00000140: 83b9 8dbd 8afb c5bd 0895 063e 4de6 c3bd
00000150: d3d1 e83d 9da7 fd3d b5ea 1c3e 1b0a 403e
00000160: 4729 bf3d 58b3 d7bd 5ab3 16bd 440c 5d3d
00000170: c86b 06be f49a e93d e574 f0bd 98ae f7bc
00000180: eb00 a9bd 3569 b1bd 900c 50bc d67b 1c3e
00000190: 6908 35bd ce0f b3bd 0b70 eb3d 8410 f8bd
000001a0: b48e 893b 818b d9bc bce4 4b3c d7d7 b03d
000001b0: 01e5 c73d 4d74 a5bd 7cb7 0d3e 197d 6c3c
000001c0: 67a6 e0bb 90bb 663d 0415 27be 1277 183d
000001d0: 0a69 25be 59b8 c43d 718e 343e e7d8 d3bc
000001e0: a878 12be a90b 4f3e f1ee 2bbe 263a e63d
000001f0: 0f11 f23d b0b5 ddbd e95d d7bc 2b33 03bc
00000200: 5a8f 633e bb0e fbbd 48ad 723d 7f52 39bd
00000210: 1474 443e cd13 1e3e 2da9 533e a1ad 0ebd
00000220: ba76 d03d 0a32 e8bd c627 1c3e 15cb 1ebc
00000230: bb75 cc3d 6fdc 1c3e 08d4 bebd 6f65 2c3e
00000240: 2c56 8fbd 6b75 333d 5a33 b3bd 1b2d 38bc
00000250: 07d5 dd3c 533c ef3d 1dd8 173d bb67 ed3c
00000260: f8e0 26bd 7c5f 4fbe 8489 a9bd 693a 10bc
00000270: d273 853d cb53 e3bc 7c56 ee3c efaa 28be
00000280: 4156 30be 29bf 8f3d 0934 b23d a7cc 0d3d
00000290: c3c2 0d3e 3622 6abe 106f a83d c02c 1f3e
000002a0: 01a3 98bd d265 f63d bbd6 053e fff4 583d
000002b0: a1b1 26be 6239 d53d a269 533e 33b8 87bc
000002c0: 6755 da3d 806f 263e c8ce fabd bbc3 32be
000002d0: d3ca 803d 7100 1d3d cfd4 c6bd c3a3 3ebe
000002e0: 4feb 03be ad0a b53d 77c9 9738 9609 32be
000002f0: 4825 eebb ee45 13b7 36e0 44be cf79 863d
00000300: ecbc 483e 2da1 083e 8258 10be 848a 9abd
00000310: 156e 28be 9507 2b3e 4c08 cabd 160b 783e
00000320: cec0 8cbd 27fa b53d 4a94 ed3d 0b41 ebbd
00000330: 235d 713d 8962 963d 5a9a 873c 23f9 ccbd
00000340: 31dc 3abe 9b66 883c 085e 56be 6387 b9bd
00000350: 42ee 5b3b fc9c c83d 33b0 fd3d 9597 44be
00000360: 08a8 0ebe 70f5 d33c 776c 80bd 3310 f0bc
00000370: c9cb 29be d477 b0bd 253f d03c d1d9 24be
00000380: 071f f23d 9580 2ebe ea55 09be 5689 e03c
00000390: 09ee 19be 98b9 f13d 8239 92bd 6aa8 fcbd
000003a0: 82a0 523e 6232 a73d 7c5e 3a3e 56ba bd3d
000003b0: 347e ee3d 9f6f 3a3e 9ea7 813d 56cd 44be
000003c0: e1e6 d8bd ece7 acbd 83e5 49bd f085 be3d
000003d0: b75a 3a3c f776 7dbe 54cf d03a 757b 51bd
000003e0: 2875 2c3d f235 17be 26ba f73d 1525 50be
000003f0: 1cf8 3d3e ff91 173e c211 06be a401 39be
-0.13946624 0.10577612 0.11884228 0.040729415 -0.08691706 0.13993831 -0.20044957 0.119730994
-0.046565257 -0.058031116 -0.19782826 0.009754919 -0.07117228 -0.045512624 0.09673134 -0.109844334
0.14991604 0.15025343 0.11369734 0.091179825 -0.11208683 -0.05989773 -0.06999524 0.0022633376
-0.16093332 -0.061266553 -0.009989412 0.027959516 -0.027059022 0.069688946 -0.0844729 -0.107778825
-0.1214534 0.21216826 0.14076304 -0.14786668 -0.15371771 -0.008498142 -0.061668728 0.072605245
-0.061339594 0.056511313 -0.06880644 -0.13524686 -0.038990147 0.19389164 0.13830018 -0.17639405
0.08673582 0.2096599 0.005074918 0.01633396 0.13980354 -0.010484076 -0.036520578 0.27273008
0.1297348 -0.12429761 0.16287245 0.19828798 0.1717769 -0.06852527 -0.06333686 0.15251385
0.16023876 -0.13882115 0.17755336 0.12391225 0.07109285 -0.033090644 -0.014964888 0.14607973
-0.019798614 0.19559516 -0.12769336 0.0044386536 -0.0890627 0.09835745 0.10053897 0.062456407
-0.06920149 -0.09667118 0.13142788 -0.09565411 0.11368146 0.12385485 0.15323909 0.18753855
0.09334045 -0.10532254 -0.036792137 0.053966776 -0.13127053 0.11406508 -0.11741046 -0.03023462
-0.08252128 -0.08662645 -0.012698308 0.15281615 -0.044197474 -0.08743249 0.1149598 -0.12112525
0.0041979197 -0.026555778 0.012444671 0.08634918 0.09760476 -0.08078823 0.13839525 0.0144341225
-0.006855774 0.056331217 -0.1631661 0.03722293 -0.1615335 0.09605474 0.17632462 -0.025860263
-0.14303839 0.20219292 -0.16790368 0.1124156 0.1181966 -0.1082567 -0.026289897 -0.008007805
0.22222653 -0.12258669 0.059247285 -0.04524469 0.19184905 0.15437241 0.20670004 -0.034833554
0.10178895 -0.11337669 0.15249547 -0.009691973 0.09983393 0.15318464 -0.093177855 0.16835569
-0.06998858 0.04381315 -0.08750029 -0.011241223 0.027079118 0.11681428 0.037071336 0.028980127
-0.04074189 -0.20251268 -0.08278182 -0.008802989 0.065162316 -0.027749917 0.029093973 -0.16471456
-0.17220403 0.07018883 0.08701331 0.034619 0.13843827 -0.22864613 0.082243085 0.15544415
-0.074529655 0.120311394 0.13070194 0.05296802 -0.16278698 0.104113355 0.20645764 -0.016567325
0.106608205 0.16253471 -0.12246472 -0.17457478 0.06288686 0.0383305 -0.09708559 -0.18617158
-0.12882732 0.08839927 7.237767e-05 -0.17386469 -0.007267628 -8.778165e-06 -0.19226155 0.06566202
0.19603318 0.13342734 -0.14096263 -0.07545951 -0.16448243 0.16702111 -0.09864864 0.24222979
-0.06872712 0.088856034 0.116005495 -0.11487015 0.058926713 0.07343013 0.016553093 -0.100084566
-0.18248059 0.016650489 -0.20934308 -0.09059026 0.003355876 0.097955674 0.12387123 -0.19198449
-0.13931286 0.02587387 -0.06270688 -0.0293046 -0.16581644 -0.086166054 0.025420735 -0.16098715
0.11822324 -0.17041238 -0.1341168 0.027409237 -0.1503221 0.11802977 -0.07139875 -0.1233681
0.20569041 0.08163907 0.18200105 0.092640564 0.11645165 0.18206643 0.063307986 -0.19218954
-0.10590912 -0.08442673 -0.049291145 0.0930289 0.011374167 -0.24752413 0.0015930929 -0.05114313
0.042103916 -0.14766672 0.12096052 -0.20326646 0.18551677 0.14801787 -0.13092712 -0.18067032

self_attn.qkv_proj.bias f4 [108]
00000000: b1a5 e43c ecb3 c93c c3ac f7bc 4a24 673d
00000010: 4a30 303c 7b1a ccbc 8b19 80bd 24a2 d73c
00000020: 305c 383a 9694 1a3d 3683 363b afbd 693d
00000030: 1f25 d3bc 3839 d83c 5da3 c4bd 9145 babc
00000040: c550 2e3d 3bf6 58bc cbb8 18bd 2e91 41bb
00000050: 1516 24bd 593a b03d eca9 173c 555e 5c3d
00000060: 2934 6cbc 1409 e23d 0275 843b e22f 833d
00000070: f77b dcbb 178b 0e3d 3f56 20bd 6441 7e3d
00000080: 6ea0 553d 7bc2 233b dc9f 033d 0115 b03c
00000090: 0baf 283c 191e e53b 325c fbba d7ab 6dbc
000000a0: 539b 453c 01f8 83bc 627e 3d3c e756 8e3b
000000b0: e593 003c 8ee2 a7bb 1dab 603c 66b2 63bc
000000c0: c14b 18bc 5023 db3b a763 2b3c 08c8 793c
000000d0: b812 2ebc 3243 ef3b bdf3 143c b37b 523c
000000e0: 25b1 4ebc 869c 63bc 9830 adb9 a43a 98bc
000000f0: c5c9 5cbb b577 87bc c7c5 223c 4f62 d3b9
00000100: 4e6d 3dbc ed2f 8dbc 6a92 a1bc a228 523c
00000110: 88bc 3d3c f27a 013c 959b 0c3c 005d 813b
00000120: 2b79 8e3c 81d8 a6bb d109 103d 0657 063d
00000130: 8671 373c da83 28bd 5a1c 08be dd95 adba
00000140: 71bb 8e3c 2db2 7c3c 8f02 263d 72d9 57bd
00000150: 14d2 7abd 9de1 363c 2947 debc a53b 893d
00000160: 6ab1 6abe 3f77 7a3d c0a0 ce3c 7c42 043e
00000170: 1de0 323d 2447 093e aa0b f1bc 80c9 153e
00000180: 0afe 883d 501d 453c bee2 ba3d 1ec0 1bbd
00000190: 31a5 edbd 7901 06be 61cc 9abd f2db 2c3d
000001a0: b90f 033e e8c3 c53d daa5 16be 4c4a d0bd
0.02791104 0.024621926 -0.030233746 0.056431092 0.0107537005 -0.02491497 -0.06254872 0.026322432
0.000703278 0.03773936 0.0027849204 0.057065662 -0.025774537 0.026394472 -0.096014716 -0.02273825
0.042557497 -0.0132423 -0.037285607 -0.0029535997 -0.04006012 0.08604879 0.009256821 0.0538009
-0.014416733 0.11036888 0.0040422687 0.06405617 -0.006728645 0.034800615 -0.03914475 0.06207408
0.05215495 0.0024987746 0.032134876 0.02149439 0.01029564 0.0069921133 -0.0019177257 -0.014506302
0.012060958 -0.016109468 0.011565777 0.0043438557 0.007847761 -0.005123443 0.013712672 -0.013897514
-0.009295405 0.006687559 0.010460771 0.015245445 -0.01062458 0.0073017115 0.009091315 0.012846875
-0.012615477 -0.013892299 -0.00033033337 -0.01858265 -0.00336896 -0.016536573 0.009934849 -0.00040318302
-0.011561705 -0.017234767 -0.019723136 0.01282707 0.011580594 0.007902848 0.0085820155 0.003947854
0.017391762 -0.0050917272 0.03516561 0.032797836 0.0111965 -0.04114137 -0.13292065 -0.0013243515
0.017423363 0.01542334 0.040529784 -0.052697606 -0.061235502 0.011162189 -0.027133541 0.067008294
-0.2291924 0.06114888 0.025223136 0.12915987 0.043670762 0.13406044 -0.029424507 0.14627647
0.06689079 0.012030914 0.09125279 -0.038025014 -0.116037734 -0.130865 -0.075585134 0.042201944
0.12798966 0.09656507 -0.14711705 -0.10170421

self_attn.o_proj.weight f4 [36, 36]
00000000: cd99 513e f2cc 8ebc bcfc 363e 8413 213d
00000010: d4cb 333e 1c48 efbd 047a 0d3e 22fa 3d3c
00000020: 2e12 b73d 0dc0 75bd 4ab0 37be a06a a23e
00000030: 0af7 55be d7d1 593e cef7 81bd a7a8 bd3b
00000040: f904 8e3e 8923 84be 6f19 4bbe 5dd0 8f3e
00000050: 93af 3ebe 1d8a ad3d afea 923e cb1a 8abe
00000060: 1fa5 80be f20e 4cbe 6746 a83c cb72 66be
00000070: 666c 7d3e 5c76 1fbe 814a 7abe e71e 9e3c
00000080: 3993 febd 9a0a bd3e 60e4 833e 80ef ec3d
00000090: 60d7 963e 2a84 9d3d 752d a2bc 4bdb aa3e
000000a0: 1e25 403e 925c 31be f390 1c3d 82e4 d5bc
000000b0: 57fe 50be 678a 9b3e 49f9 3b3e 7dd1 83be
000000c0: c31e 94be 9240 473e 03a2 d23d e9e9 ad3e
000000d0: 0631 8bbe 54c3 223e f7f7 5e3e b3f3 293e
000000e0: e0f6 6e3e c1cf 843e 0c7c e9bd 2dfa a03d
000000f0: 6afe fbbc 7f09 1cbe 347e a43e 4d8d da3d
00000100: c8be 96be 6b57 8dbe 8d21 b6bd 1471 493e
00000110: 24aa d33b 6e43 533e 8891 42bc d5bb b8be
00000120: 1aa6 573e 5fa0 0abe 6d1d c43e 6526 483e
00000130: 5b99 5a3d 47e9 57be 5c1c ebbd deca 0cbd
00000140: 0f61 083e f0cb 873e 124e ab3e c27e 6b3e
00000150: 369b 21be f8c5 4f3e 2691 d33d be36 3bbe
00000160: 711e d93d 1322 8fbe 77d1 70be a2a1 0bbe
00000170: c50a 763d 1869 22be b40c 3dbd f8a6 823d
00000180: 5885 44bd b383 313e 442e 4ebe d233 a23e
00000190: 8458 8abd 08b7 0e3d b1fc 063c ee47 c4bb
000001a0: 2842 9b3d 49b4 babe e571 713e 7798 4cbe
000001b0: 5202 14be f71a 23bc 9db1 063e dfb0 17be
000001c0: 6d44 fb3d aaa2 f03d 6476 073e 4fc9 b23e
000001d0: 24cd 693e 6f72 093d 8b92 213e e4e4 273e
000001e0: a9cb d13c 7aa2 1bbe fc0f b53e 0597 46bd
000001f0: 96c1 2b3e f35b 013e 078b 6fbe d141 a1be
00000200: 1b2a afbe e0ef 2ebd 7050 bd3e 2f65 f2bd
00000210: ac7d ddbd e887 643e 19ac 0d3c c69c f33d
00000220: b2ac 903b 7d73 e1bd 57ff 523d 762e 3cbe
00000230: f432 a6bd 6cb3 1fbe eb94 c03e 810e 383e
00000240: 81a3 c53e 27e5 dfbd 5bff d0bd a2bb e2bd
00000250: c44b 803d 8227 d8bd b05e f1bd ca50 05be
00000260: 6e10 bbbe d9ed 843d be60 37be f7e6 013d
00000270: 6222 72be fbf2 cc3e 0afe a43d fd77 813d
00000280: 0cea 85bd bcee 503e f1fe 55bd cfb4 af3e
00000290: ec24 a03e 8b80 613d 056e 323d 140c 9d3e
000002a0: fcb0 a83d ed37 ea3d 471e 653e 80aa 633d
000002b0: 6351 a0be ea62 9dbe 8b96 c43c a77d 4ebe
000002c0: 8c9d ae3e f4c2 e0b8 ac44 c13d 6ae8 9fbe
000002d0: 96bb 18be 873b 5f3e b6ac 9fbd 423e e23d
000002e0: 0e89 263e 49f6 0d3e 3dce 9fbd f4e8 3e3e
000002f0: 00a5 4bbe 906e 9cbe 57fa 78bd cd8e 3ebd
00000300: dc46 513e 5187 89be c12b 1dbd 4a3e 3cbd
00000310: 5dbe 4abe c652 adbe cfb1 e43d d041 26bd
00000320: 045f a0be 875b a4be e67d c33e 4c03 48be
00000330: bc2d c43d 473e 80bd 571b 2fbe be83 30be
00000340: 740e 6b3e fa36 c9bd a696 1b3e c7d9 ddbc
00000350: e553 2c3e ddcf ed3d 5f36 9a3d 5524 5b3d
00000360: 5faa e9bd 70a3 8cbe 7060 4f3e 346d 7e3e
00000370: 4e21 d23d c881 743e 5d1c ebbd 9925 eb3d
00000380: 1596 66be bdd5 7b3e 265d da3d c92a 9bbe
00000390: 7ef4 c83d f1f3 8b3d 1c3c e13d 4762 493e
000003a0: 02fe 67bd 9004 ba3e 0033 39bd 883d 1d3e
000003b0: 17cb 26be 65e5 6b3d 905d 9ebd b322 7a3e
000003c0: d142 2dbe d98d 5abe 3fc1 86be 73e5 edbd
000003d0: 4a42 ab3d a6d0 21be e91d 80be edbf 823e
000003e0: b294 b23e 31c2 0f3e 42c7 32be 7af3 683b
000003f0: c35c fd3c b8d5 a7bd e538 f13d ec58 203e
0.20468827 -0.01743171 0.17869848 0.039325252 0.17558223 -0.11683676 0.13816077 0.011595281
0.089390144 -0.059997607 -0.17938343 0.31721973 -0.20895019 0.21271454 -0.06346093 0.005787927
0.2773817 -0.2580836 -0.19833921 0.28088656 -0.18621664 0.08473609 0.28694674 -0.26973566
-0.25125977 -0.19927576 0.020541383 -0.22504728 0.24748382 -0.15572494 -0.24442483 0.019301845
-0.12430424 0.3692215 0.25760174 0.115691185 0.29461193 0.07691224 -0.019797066 0.33370432
0.18764159 -0.17320469 0.03822417 -0.026109938 -0.20409523 0.3037903 0.18356813 -0.25745764
-0.2892972 0.19458225 0.102848075 0.33967522 -0.2718584 0.15894824 0.21774279 0.1659687
0.23336363 0.25939754 -0.11400613 0.07860217 -0.030760963 -0.15237997 0.32127535 0.10671482
-0.2944243 -0.27605757 -0.08893118 0.19672042 0.0064594913 0.20631191 -0.011875518 -0.36080804
0.21059456 -0.13537739 0.383037 0.19545896 0.053368907 -0.21085082 -0.114800185 -0.034373157
0.13318275 0.2652278 0.33458 0.22997573 -0.15781865 0.20290363 0.10330419 -0.18282601
0.10601509 -0.27955684 -0.23517404 -0.13635877 0.060068864 -0.15860403 -0.046154693 0.06379503
-0.04797873 0.17335396 -0.20134836 0.3168016 -0.06755164 0.03484252 0.008238957 -0.00599002
0.07580978 -0.36465672 0.23578604 -0.19980036 -0.1445401 -0.009955159 0.13153692 -0.14813565
0.122689106 0.11749776 0.13228756 0.3491921 0.22832161 0.033556398 0.15778558 0.16395909
0.025609808 -0.15198699 0.35363758 -0.048483867 0.16773066 0.12632732 -0.23392878 -0.31495526
-0.3421181 -0.04270923 0.3697543 -0.118357055 -0.10814986 0.22317469 0.008646988 0.118951365
0.004415118 -0.11008356 0.051513042 -0.18377098 -0.08115187 -0.15595788 0.37613615 0.17974283
0.38601306 -0.10932379 -0.10204955 -0.11070944 0.06264451 -0.105544105 -0.11785638 -0.130191
-0.36535972 0.06490678 -0.17907998 0.031714406 -0.23645929 0.4002913 0.080562666 0.06321714
-0.065387815 0.2040357 -0.052245084 0.34317634 0.3127817 0.05505423 0.043561954 0.30673277
0.08236882 0.11436448 0.22374831 0.055582523 -0.31312093 -0.30739528 0.023997566 -0.2016512
0.34104574 -0.00010717465 0.09436926 -0.31232005 -0.14915308 0.21800052 -0.07796614 0.11047031
0.1626322 0.13863482 -0.07803009 0.18643552 -0.19887161 -0.30553102 -0.060785618 -0.046522904
0.20437187 -0.2686105 -0.038371805 -0.04595784 -0.1979918 -0.33852214 0.11166727 -0.040590107
-0.3132249 -0.3210108 0.3818199 -0.19532508 0.09579036 -0.062618785 -0.17100273 -0.17237756
0.22954732 -0.09824939 0.15194187 -0.027081383 0.16828878 0.116119124 0.07529902 0.053501446
-0.11409449 -0.27468443 0.20251632 0.24846345 0.102602586 0.23877633 -0.11480019 0.114817806
-0.22518189 0.24593253 0.10662298 -0.3030608 0.09812258 0.068336375 0.10997793 0.19666396
-0.056638725 0.36331606 -0.045214653 0.15355504 -0.1628841 0.057591815 -0.077326894 0.24427299
-0.1692002 -0.21343173 -0.2631931 -0.116160296 0.08362253 -0.1580225 -0.2502282 0.25537053
0.3487907 0.14038922 -0.17458823 0.0035545514 0.030928021 -0.081950605 0.1177843 0.15658921

self_attn.o_proj.bias f4 [36]
00000000: db4e a5bc 03be 503e dcdf a0bd d83a 19be
00000010: e1d5 1f3e 30f7 52bd a5da a13d 215c 2c3c
00000020: 72f2 413c c6b5 00bd e27d e8bc 0481 203e
00000030: 638b f9bd 5057 33be f882 a4bd 19dc 38bd
00000040: b445 7a3d cf29 953d 84b3 613d 66a7 1ebc
00000050: dcc2 58bc b6a2 f1bc b7cd f1bc eb36 913d
00000060: bf08 483e cad9 a53b 2a42 353e d876 333e
00000070: 4e00 39bd a085 36be cecb 003e 9462 1f3e
00000080: 5741 08be 6c25 a7bd 99de 21be 04e8 31bd
-0.020179203 0.20384984 -0.07855198 -0.14963853 0.15608932 -0.051505268 0.07903031 0.010520012
0.011837589 -0.031423353 -0.028380338 0.15674216 -0.12184789 -0.17513776 -0.08032793 -0.045131776
0.06110163 0.07283365 0.05510284 -0.009683466 -0.013230052 -0.029496532 -0.029517038 0.07090553
0.19534586 0.005061363 0.17701021 0.17525804 -0.045166306 -0.17824411 0.12577745 0.15564948
-0.13306175 -0.081614345 -0.1580757 -0.043434158

fc.weight f4 [1, 18]
00000000: 58e4 e9bd e253 71be 4fef 613e 40ea a2bd
00000010: 56d1 56be 40f6 2dbe 8197 6f3d a668 143e
00000020: 2640 c73c 809b 163d 1261 06bd 3897 203d
00000030: dfda a3bc 9328 413e d708 b53d 640e cfbd
00000040: bb77 ab3d d351 a9bd
-0.11420506 -0.23567155 0.22063945 -0.07954836 -0.20978293 -0.16988468 0.058494095 0.14493045
0.02432258 0.03676939 -0.032807417 0.039206713 -0.020001827 0.18863134 0.08839577 -0.10110167
0.08372446 -0.0826756

fc1.weight f4 [1, 36]
00000000: 154d dabe 564f d63e fcd4 e13e 3237 0bbf
00000010: 6f92 fb3e b74c 06bf fbe7 f83e a4b2 cc3e
00000020: 5a66 cdbe a209 b23e 585e 07bf 392f 023f
00000030: 1fca d9be b71d 80be 66f9 09bf 96d4 163f
00000040: 2a5d 073f ebf1 6ebe bd4a 06bf 787c 0b3f
00000050: 144d 06bf 55ee 203f b551 e7be f374 063f
00000060: b782 053f aacf e8be 4621 063f 6b18 fb3e
00000070: 6f67 acbe a4fd f2be 3eef 093f e642 e03e
00000080: 3a31 bebe 60d6 ebbe 8963 05bf 6002 11bf
-0.42636934 0.41857404 0.44107807 -0.54381096 0.49135157 -0.5246081 0.48614487 0.39980042
-0.4011715 0.34772974 -0.5287833 0.50853306 -0.4253702 -0.2502267 -0.53896177 0.5891813
0.5287653 -0.23334472 -0.5245779 0.544868 -0.5246136 0.62863666 -0.45179525 0.525222
0.5215258 -0.45470935 0.5239452 0.49042067 -0.33672664 -0.47459137 0.5388068 0.4380104
-0.37146932 -0.46061993 -0.52105004 -0.5664425

fc2.weight f4 [1, 9]
00000000: 2c47 9cbe 6255 a5be 5bc5 aebd 1675 f7bc
00000010: a8fa 7f3e aee9 5ebe 2c4b a5be 56b9 a83a
00000020: e40d 9ebe
-0.3052305 -0.32291704 -0.08533736 -0.030207198 0.24997962 -0.21768829 -0.32283914 0.0012872617
-0.30869973

fc3.weight f4 [1, 2]
00000000: 9b81 023f c8dc 15bf
0.5097901 -0.5854001

input_fc.weight f4 [18, 3]
00000000: 43bb c0be eb48 f43e 80f5 953d 9f58 863e
00000010: 1064 533d f240 1fbe 72b4 6e3e 2519 c4be
00000020: 81d8 d13e 6417 973e bfc9 10bf 5157 863e
00000030: fdd0 05be 6299 ba3e 5303 e0bd 0127 243e
00000040: a63b 80bc d23e 4abc ad80 2b3e ca18 2f3d
00000050: b14c 89be 1544 183f 56dc b13e 1ac1 5bbe
00000060: 2441 c43c ae07 f7be b061 6ebe 172f 853e
00000070: de96 1c3f b1fc f0be 1c80 93be fcc8 f8be
00000080: 2f91 9b3e b072 2abf 9957 003e 6065 433e
00000090: 4000 9e3e 9d33 4f3d 811b 8c3d 4222 043f
000000a0: 81aa 42be 3289 843e c582 e93e 8c97 0bbe
000000b0: 7c9c 36be ab9f cb3e 0e8e 62be 6167 c33c
000000c0: 5283 3bbe 1cc5 083f 2c51 9dbe f8b8 763e
000000d0: 4ca0 dabe 6659 ff3d
-0.3764287 0.47711882 0.07322216 0.26239488 0.0516091 -0.15552118 0.23311022 -0.38300434
0.40985492 0.29510033 -0.5655784 0.26238492 -0.13068004 0.36445147 -0.10938134 0.16030504
-0.015653443 -0.012344079 0.16748305 0.04274825 -0.26816323 0.59478885 0.34738415 -0.21460381
0.023956843 -0.48248047 -0.23279452 0.2601249 0.61167705 -0.47067788 -0.28808677 -0.4859084
0.30384204 -0.6658125 0.12533416 0.1908164 0.30859566 0.05058633 0.068411835 0.51614773
-0.19010355 0.25885922 0.45607582 -0.1363203 -0.17833132 0.39770254 -0.22124502 0.023853006
-0.18311813 0.53425765 -0.30725992 0.24093997 -0.42700422 0.12468223

input_fc.bias f4 [18]
00000000: e841 90bd f68d 15be 4929 4dbe ebb7 4cbd
00000010: d4ca 5a3d 03df be3e 6824 ddbe 9358 e13e
00000020: 5ebd f3be 7a92 27be a483 e4bd 021b 92be
00000030: 7438 6d3e b71b c73e a030 62be e297 18be
00000040: a469 6c3e 6163 f13e
-0.070438206 -0.14604935 -0.2003528 -0.049980085 0.05341609 0.3727952 -0.43191838 0.4401289
-0.47605413 -0.1636447 -0.11157921 -0.2853623 0.23166066 0.38888332 -0.22088861 -0.14901689
0.23087174 0.47146133

norm.weight f4 [36]
00000000: 0000 803f 0000 803f 0000 803f 0000 803f
00000010: 0000 803f 0000 803f 0000 803f 0000 803f
00000020: 0000 803f 0000 803f 0000 803f 0000 803f
00000030: 0000 803f 0000 803f 0000 803f 0000 803f
00000040: 0000 803f 0000 803f 0000 803f 0000 803f
00000050: 0000 803f 0000 803f 0000 803f 0000 803f
00000060: 0000 803f 0000 803f 0000 803f 0000 803f
00000070: 0000 803f 0000 803f 0000 803f 0000 803f
00000080: 0000 803f 0000 803f 0000 803f 0000 803f
1.0 1.0 1.0 1.0 1.0 1.0 1.0 1.0
1.0 1.0 1.0 1.0 1.0 1.0 1.0 1.0
1.0 1.0 1.0 1.0 1.0 1.0 1.0 1.0
1.0 1.0 1.0 1.0 1.0 1.0 1.0 1.0
1.0 1.0 1.0 1.0

norm.bias f4 [36]
00000000: 0000 0000 0000 0000 0000 0000 0000 0000
00000010: 0000 0000 0000 0000 0000 0000 0000 0000
00000020: 0000 0000 0000 0000 0000 0000 0000 0000
00000030: 0000 0000 0000 0000 0000 0000 0000 0000
00000040: 0000 0000 0000 0000 0000 0000 0000 0000
00000050: 0000 0000 0000 0000 0000 0000 0000 0000
00000060: 0000 0000 0000 0000 0000 0000 0000 0000
00000070: 0000 0000 0000 0000 0000 0000 0000 0000
00000080: 0000 0000 0000 0000 0000 0000 0000 0000
0.0 0.0 0.0 0.0 0.0 0.0 0.0 0.0
0.0 0.0 0.0 0.0 0.0 0.0 0.0 0.0
0.0 0.0 0.0 0.0 0.0 0.0 0.0 0.0
0.0 0.0 0.0 0.0 0.0 0.0 0.0 0.0
0.0 0.0 0.0 0.0

norm1.weight f4 [9]
00000000: 0000 803f 0000 803f 0000 803f 0000 803f
00000010: 0000 803f 0000 803f 0000 803f 0000 803f
00000020: 0000 803f
1.0 1.0 1.0 1.0 1.0 1.0 1.0 1.0
1.0

norm1.bias f4 [9]
00000000: 0000 0000 0000 0000 0000 0000 0000 0000
00000010: 0000 0000 0000 0000 0000 0000 0000 0000
00000020: 0000 0000
0.0 0.0 0.0 0.0 0.0 0.0 0.0 0.0
0.0

norm2.weight f4 [9]
00000000: 0000 803f 0000 803f 0000 803f 0000 803f
00000010: 0000 803f 0000 803f 0000 803f 0000 803f
00000020: 0000 803f
1.0 1.0 1.0 1.0 1.0 1.0 1.0 1.0
1.0

norm2.bias f4 [9]
00000000: 0000 0000 0000 0000 0000 0000 0000 0000
00000010: 0000 0000 0000 0000 0000 0000 0000 0000
00000020: 0000 0000
0.0 0.0 0.0 0.0 0.0 0.0 0.0 0.0
0.0

m.running_mean f4 [12]
00000000: 607d 5040 91a2 5240 972a 5140 d44e 4c40
00000010: 2c97 4a40 8a93 4b40 08c7 4c40 e037 4d40
00000020: 8204 4b40 337e 4740 a553 4540 5f52 4540
3.2576523 3.2911723 3.2682245 3.1923113 3.1654768 3.18088 3.199648 3.2065353
3.1721501 3.1170776 3.0832303 3.0831525

m.running_var f4 [12]
00000000: 6e6e c644 0919 c644 fad1 c544 c1f9 c544
00000010: 8917 c644 4523 c644 601d c644 a3e0 c544
00000020: e4b5 c544 c4be c544 7aee c544 123a c644
1587.4509 1584.7823 1582.5618 1583.8048 1584.7355 1585.1022 1584.918 1583.0199
1581.6841 1581.9614 1583.4524 1585.8147

linear_net.0.weight f4 [9, 18]
00000000: 97c3 703e c427 8e3d 7dc1 6f3d f769 663e
00000010: f0b9 00be 57cf 103e c285 0abe 9874 893d
00000020: ef30 6ebe 385c fabc 5888 5a3e d5c1 603e
00000030: 1a91 42bd 8130 e9bd 73d6 ccbc b2bc 1d3e
00000040: 0de2 733d 609f a5bd 2367 d2bd 21cd 1d3e
00000050: 864a 1fbe 42cb c0bd cca3 11bd eea4 613e
00000060: 1e68 393e bbc3 363e 4c68 23be 4284 a63d
00000070: 9aba 84bc 03ea ef3d 81a8 1f3e 9fd9 3cbe
00000080: 930d 43be 842d dd3c f138 6ebe a610 2e3e
00000090: bdb7 2ebe d842 0cbe 2bfd 893a d18e 093e
000000a0: 01bb 523e d842 323d 78e4 4d3e 5937 cb3d
000000b0: c0c7 6c3e ecf3 6dbd 023e 75bd 4256 95bd
000000c0: 45f6 23bd 1a26 4cbe a945 903d c720 2d3e
000000d0: 71ce f83d 684a 18be b2c2 5a3e d3c7 1dba
000000e0: 2579 e9bb c85d 51be c635 d3bd 8cec 9b3d
000000f0: c12e ea3c cc47 1abe 18e0 5f3e e72d ca3d
00000100: 5245 053e b066 0cbe 54e9 c2bd a3f4 963d
00000110: 6574 62be 010e e23d e22e 473c 7143 1a3e
00000120: dd37 393e 59cf 3e3d 68d0 fb3d 83a1 b33b
00000130: f671 6b3e 1d4b d6bc 93b5 14be 6819 01bd
00000140: f7dc 35be f156 0dbe 1bd4 523d 6c76 3a3e
00000150: 8fa8 443e 93d0 353e 172f 4e3e 878a 573e
00000160: 0a2d 11be a068 93bd 48b0 db3d a19e bdbd
00000170: ddb3 24bd 8f22 4c3e 0042 a8bc a31a 60bd
00000180: 5279 c63d b621 6c3e a70b d0bd 8988 fcbc
00000190: faba 56be ca4b e43c 2a48 c73c bd17 223e
000001a0: fc2f 45be 0387 15be c2d5 3b3e 928d d9bd
000001b0: bd52 7e3c 2f9f 4f3e 409c 513e 64dc 71bc
000001c0: 1b26 64be ee0d 46be fdbf 67be 694a 67bc
000001d0: cdb6 3bbe 1fbd 433e 0783 51be 4152 8fbd
000001e0: fbd3 ce3d 9da6 cbbd a2b3 343e 1d9a 4e3d
000001f0: 25d4 673e 93a3 093d 866a 133e 27d2 54be
00000200: c324 cdbd 21e4 d73d a183 b7bd aa12 9f3d
00000210: 5312 12be c095 3f3d f922 ec3c 5113 05be
00000220: 6d54 bcbb 2eba 3a3e 1c4b 32be 01f9 1f3d
00000230: c030 033e fe58 5e3e 3ee5 5bbe de62 da3d
00000240: b079 653e 142c 253e c52d 50be 3a0b 0cbd
00000250: 35ab ecbc 11c1 0abd 7a36 8b3c b714 7b3c
00000260: 33b2 ff3d 0225 3dbe e531 2abe 70df e9bb
00000270: 5a64 63be e5ac 6c3e b863 2c3e e773 d5bd
00000280: b8ca 2b3e 9879 d8bd
0.23512112 0.069411784 0.058534134 0.2250136 -0.1257093 0.14141594 -0.13527587 0.067116916
-0.23260854 -0.030561551 0.21341074 0.21948941 -0.04750166 -0.113862045 -0.025004601 0.15404013
0.05954175 -0.08087039 -0.10273578 0.15410282 -0.15555772 -0.09413768 -0.0355566 0.22035572
0.18106124 0.17848103 -0.15957755 0.08130695 -0.01620226 0.11714556 0.15591623 -0.18442391
-0.19048147 0.026999243 -0.23263909 0.16998538 -0.17062278 -0.13697374 0.001052772 0.13433386
0.20579149 0.04352078 0.20106685 0.09922666 0.23123074 -0.05809395 -0.05987359 -0.07291843
-0.040029783 -0.1993641 0.070445366 0.16907035 0.121487506 -0.14872134 0.21363333 -0.0006018851
-0.0071250373 -0.20445931 -0.10312991 0.07613477 0.028586747 -0.15066451 0.21862829 0.098720364
0.13014725 -0.13711047 -0.0951716 0.073708795 -0.22114713 0.11037827 0.012157174 0.1506479
0.18087716 0.04658446 0.1229561 0.0054819 0.22992691 -0.026158864 -0.1452239 -0.03151837
-0.17760073 -0.13802697 0.05147181 0.18209237 0.19204925 0.17755346 0.20135151 0.21048938
-0.14177337 -0.0719769 0.10726982 -0.09258772 -0.040210593 0.19935058 -0.020539284 -0.054712903
0.09691109 0.23059735 -0.101584725 -0.030826824 -0.20969763 0.02786817 0.024326403 0.15829368
-0.19256586 -0.14602284 0.18343261 -0.106227055 0.015522656 0.20275567 0.20469761 -0.014762018
-0.22280161 -0.19341251 -0.22631831 -0.014116862 -0.18331452 0.19115113 -0.20460139 -0.069981106
0.10099026 -0.09943888 0.1764665 0.050439943 0.2263952 0.033603262 0.14396104 -0.20783292
-0.10016777 0.10541559 -0.08960653 0.07767232 -0.14264803 0.046773672 0.02882527 -0.1299565
-0.005747369 0.18235084 -0.17411464 0.039055828 0.12811565 0.21713635 -0.21474168 0.10663389
0.22409701 0.16130096 -0.2032996 -0.034190394 -0.028890232 -0.03387553 0.01699375 0.015324763
0.12485161 -0.18471149 -0.16620596 -0.0071372315 -0.2220625 0.23112829 0.16834915 -0.10422497
0.1677655 -0.10570067

linear_net.0.bias f4 [9]
00000000: 3cc8 d3ba 6414 4ebe 91f8 053c 5e6d a13d
00000010: 57fb c7bd a5fc 053e f6d8 17bb 8255 013e
00000020: 4d93 6d3e
-0.0016157697 -0.20124966 0.008176939 0.07882188 -0.09764736 0.13084657 -0.002317009 0.12630275
0.23200722

linear_net.2.weight f4 [1, 9]
00000000: b026 6ebe ebee 6ebe 2cbf 803e a083 92bd
00000010: b8d8 74be 6b6d 353d 93d5 6abe 82a5 a63e
00000020: bb62 203e
-0.23256946 -0.23333327 0.25145853 -0.07154012 -0.23910797 0.044293802 -0.22933035 0.32548147
0.15662663

exp_avg f4 [108, 36]
00000000: f965 cc38 181f cab3 d0b2 a938 54d8 0bb7
00000010: 9942 1638 fe9f b937 d6bf 86b8 2e59 f338
00000020: 9806 6ab9 620e 0d38 345c 90b8 3ef6 48b6
00000030: aa13 c538 8f03 0d39 9202 08b8 b30d 5b37
00000040: 04cf 3637 2ee6 d0b7 c9da 01b7 7efe ebb6
00000050: fb92 2a37 3eb3 9836 cbf3 6e36 05f1 1337
00000060: 29e0 a835 f1e7 1937 682c f234 dd9b 1a37
00000070: 8802 2e34 cdb2 1a37 2d22 7a33 c5b5 1a37
00000080: 20c9 b332 27b6 1a37 1d39 0132 34b6 1a37
00000090: e6ae 70ba 715e c7b8 b461 4db9 3293 023a
000000a0: 434c 08ba 1d0b 19b9 6904 a339 8f00 95ba
000000b0: 29f8 e33a 4602 53ba c76c 6d3a 6926 8838
000000c0: bb93 2dba 0e38 40ba e436 5d39 1ad2 2538
000000d0: ccb1 fcb9 d6fb fc39 c630 8eb7 8db8 9036
000000e0: 1f30 9fb7 fbec bdb7 c81f beb7 658c 47b8
000000f0: 6fff 20b7 f308 70b8 2e5c 6cb6 ecfa 75b8
00000100: 4759 aab5 bdc2 76b8 77f7 f4b4 98dc 76b8
00000110: af14 30b4 f1df 76b8 411f 7db3 5fe0 76b8
00000120: 6f76 e9ba a914 00b9 c07b 11ba 4f53 5b3a
00000130: 4278 78ba a577 93b9 710c 3a3a f147 0abb
00000140: 284c 613b 5fef b0ba 06ec d33a a416 8838
00000150: 268f abba 0e07 c9ba 9618 f639 058d 6b38
00000160: 363e 4fba 9308 623a 2ffd f1b6 e6aa 1b38
00000170: c566 2db8 ff49 02b8 61e5 68b8 1bf1 c0b8
00000180: 1445 c7b7 75ec f4b8 ca74 12b7 9496 fcb8
00000190: 0424 53b6 5198 fdb8 04d1 97b5 aab9 fdb8
000001a0: 2240 dab4 fdbd fdb8 0ddf 1cb4 89be fdb8
000001b0: eacb 9d38 dff1 cd36 caec db37 db28 0db8
000001c0: 305b 2638 cc88 5737 e017 01b8 3794 c338
000001d0: fe51 1cb9 d59d 7238 22f8 92b8 7d94 b3b6
000001e0: 5422 7438 6e29 9238 d68e 9cb7 3603 bab4
000001f0: 1495 0838 2b02 14b8 f4ba 98b5 b0c1 3ab6
00000200: 2698 3137 1458 0537 9741 e2b4 6859 0237
00000210: 264b 1bb5 d0a1 bf36 1c94 76b4 05e5 b436
00000220: 896c b3b3 c179 b336 c62a 01b3 ad4a b336
00000230: fbb7 39b2 9b44 b336 c57d 85b1 d343 b336
00000240: 2977 0b39 4776 d037 fecb 5637 0860 afb8
00000250: d8ef aa38 219e d337 f283 09b8 2fde 4339
00000260: 5c81 85b9 e9c6 1839 197e 21b9 786d c1b7
00000270: 7bdd d438 3b1e dd38 9b4c a8b7 7ad2 26b6
00000280: 0b16 b738 5e79 9fb8 4ffc 65b6 2925 d2b5
00000290: 4267 3c37 23db 3e37 21a1 2fb3 63bc 2f37
000002a0: 3b59 cdb4 717a 1037 6b70 27b4 09b7 0b37
000002b0: 4b6b 74b3 4c16 0b37 8a06 b0b2 7801 0b37
000002c0: ed1a fdb1 cafe 0a37 bded 35b1 6ffe 0a37
000002d0: 89ef b9b8 7163 8ab8 373b a438 99ba fd38
000002e0: eedc b8b8 ee4e ffb7 e250 2ab8 1c6d 65b9
000002f0: 29b8 2d39 2090 79b9 b0ec 5939 f818 9c38
00000300: 584f aab8 6e9e 3cb8 d818 10b8 0765 a2b6
00000310: dbe4 17b9 526e b638 93e7 b3b6 5617 4db7
00000320: dab8 84b7 cd1a d1b7 526a 2237 08fc 56b7
00000330: 8e2d a536 3018 9ab6 173f f735 aa43 61b6
00000340: 9ba1 3235 2559 56b6 a17a 8034 5bef 54b6
00000350: 2eb5 b833 8ec0 54b6 33c3 0433 8eba 54b6
00000360: 6a7b a0b9 c154 09b7 96e1 03b9 2661 ff38
00000370: fe18 20b9 344b 45b8 48d7 1339 4ffc b2b9
00000380: 98f8 1c3a 72a0 49b9 e54c 8339 7da8 0db6
00000390: a49a 6db9 ef6c 92b9 7586 c238 fedf 0537
000003a0: a826 e4b8 26d5 0e39 1801 dab5 66a8 0337
000003b0: 79ac 65b6 3d0a 4c36 3241 61b7 8850 64b7
000003c0: ae7d c6b6 3a18 adb7 745a 12b6 04c4 b5b7
000003d0: 0314 53b5 7fe7 b6b7 8bc7 97b4 390d b7b7
000003e0: e132 dab3 1912 b7b7 90d5 1cb3 ba12 b7b7
000003f0: a301 cdb8 7f8d 17b8 1caf f7b7 0b41 4838
9.746472e-05 -9.412014e-08 8.0918544e-05 -8.335413e-06 3.582481e-05 2.212822e-05 -6.42535e-05 0.00011603754
-0.00022318435 3.3630415e-05 -6.883629e-05 -2.9945654e-06 9.397355e-05 0.00013448134 -3.242732e-05 1.3056607e-05
1.0896245e-05 -2.4902718e-05 -7.739939e-06 -7.0331726e-06 1.0167011e-05 4.5508195e-06 3.560667e-06 8.8179995e-06
1.2582215e-06 9.173514e-06 4.5108322e-07 9.215405e-06 1.6205934e-07 9.220746e-06 5.8238744e-08 9.221437e-06
2.0929804e-08 9.221526e-06 7.521774e-09 9.221538e-06 -0.00091813353 -9.5066505e-05 -0.00019586721 0.000498104
-0.0005199352 -0.00014595357 0.00031093069 -0.0011367964 0.0017392683 -0.000804935 0.00090570416 6.49214e-05
-0.000662144 -0.00073325715 0.00021096651 3.9534738e-05 -0.00048197655 0.00048252818 -1.6950431e-05 4.313019e-06
-1.8976685e-05 -2.2640908e-05 -2.2664564e-05 -4.757605e-05 -9.596216e-06 -5.7228794e-05 -3.5220396e-06 -5.864624e-05
-1.269197e-06 -5.8832335e-05 -4.5628596e-07 -5.8856414e-05 -1.6398802e-07 -5.8859532e-05 -5.8934578e-08 -5.8859932e-05
-0.0017811785 -0.00012214728 -0.0005549751 0.0008366601 -0.0009478369 -0.00028127167 0.0007097191 -0.002110001
0.0034377668 -0.0013499073 0.0016168363 6.4892025e-05 -0.0013088926 -0.0015337185 0.00046939094 5.61597e-05
-0.00079056935 0.00086224935 -7.211834e-06 3.711404e-05 -4.1342126e-05 -3.106333e-05 -5.5526736e-05 -9.200183e-05
-2.3754816e-05 -0.0001167887 -8.72947e-06 -0.00012044344 -3.1462414e-06 -0.00012092351 -1.1311208e-06 -0.00012098563
-4.0652327e-07 -0.00012099368 -1.4609778e-07 -0.0001209947 7.524325e-05 6.1376336e-06 2.6217098e-05 -3.365507e-05
3.966241e-05 1.2846849e-05 -3.0778232e-05 9.325932e-05 -0.00014907864 5.784429e-05 -7.008041e-05 -5.351902e-06
5.8206104e-05 6.9695394e-05 -1.8663162e-05 -3.4647536e-07 3.2563767e-05 -3.528797e-05 -1.1379293e-06 -2.78289e-06
1.0585447e-05 7.947925e-06 -4.2143503e-07 7.76942e-06 -5.7851355e-07 5.711081e-06 -2.2964417e-07 5.3910794e-06
-8.3550795e-08 5.3487897e-06 -3.0074055e-08 5.343309e-06 -1.081025e-08 5.3426024e-06 -3.885108e-09 5.3425115e-06
0.00013300464 2.485061e-05 1.280289e-05 -8.3625375e-05 8.150906e-05 2.5226795e-05 -3.278623e-05 0.00018679419
-0.00025464117 0.0001456995 -0.00015401132 -2.3058368e-05 0.00010150202 0.00010543732 -2.0062833e-05 -2.485844e-06
8.730226e-05 -7.604317e-05 -3.4270522e-06 -1.5657034e-06 1.1229715e-05 1.1375904e-05 -4.089191e-08 1.0474675e-05
-3.824915e-07 8.611577e-06 -1.5593984e-07 8.327662e-06 -5.690826e-08 8.290237e-06 -2.049207e-08 8.285388e-06
-7.36633e-09 8.284764e-06 -2.6474105e-09 8.284681e-06 -8.866104e-05 -6.598875e-05 7.831159e-05 0.000120987366
-8.814955e-05 -3.0435123e-05 -4.0606486e-05 -0.00021879788 0.0001656717 -0.00023800181 0.00020782906 7.4433105e-05
-8.1210106e-05 -4.4970242e-05 -3.4355413e-05 -4.8397374e-06 -0.00014485737 8.698985e-05 -5.3615745e-06 -1.22243855e-05
-1.5821704e-05 -2.4927222e-05 9.680707e-06 -1.2814075e-05 4.9226865e-06 -4.5923734e-06 1.8421296e-06 -3.3566998e-06
6.6545334e-07 -3.1940374e-06 2.3931082e-07 -3.1729785e-06 8.601124e-08 -3.1702543e-06 3.0911178e-08 -3.169905e-06
-0.0003060953 -8.18557e-06 -0.00012577171 0.00012177443 -0.000152681 -4.70385e-05 0.00014099211 -0.0003413879
0.0005987971 -0.00019228624 0.00025043558 -2.110871e-06 -0.0002265969 -0.00027928452 9.2756854e-05 7.97957e-06
-0.000108790875 0.0001362158 -1.6242584e-06 7.847417e-06 -3.4224051e-06 3.0404328e-06 -1.34262245e-05 -1.3608609e-05
-5.915491e-06 -2.0634488e-05 -2.1808346e-06 -2.1668158e-05 -7.8632746e-07 -2.180389e-05 -2.8271128e-07 -2.1821457e-05
-1.0160671e-07 -2.1823727e-05 -3.6515814e-08 -2.182402e-05 -9.7754666e-05 -3.6132984e-05 -2.9526236e-05 4.774429e-05

exp_avg_sq f4 [108, 36]
00000000: 94a9 7137 0a79 4935 2e6d 0936 b4b5 0937
00000010: 76ef c336 bef1 8f34 e515 0936 89a8 a337
00000020: 93aa 2338 29ed 9137 1e72 8537 394c fe35
00000030: 427a b336 f8bb b436 0558 0436 ea78 5535
00000040: 8f5a ce36 34dc e836 9e68 c131 1408 e030
00000050: be2f 6f32 cd98 f131 4123 7732 0f63 9932
00000060: 754a 2a31 3a00 0b33 349e b62f 26c6 1533
00000070: c198 3d2e 0638 1733 4505 c42c 0b68 1733
00000080: 728d 4a2b 316e 1733 8c49 d129 0a6f 1733
00000090: 3a9c 3538 1b35 2836 6a5b 6136 50a7 dd37
000000a0: d86f a137 68ae 9b35 795d 8236 ef83 a438
000000b0: ae89 0639 44d8 8738 319b 7e38 c415 c636
000000c0: fd6c a337 f5e7 9537 b051 8836 8188 f135
000000d0: 959f c037 5a00 ad37 8db6 d832 eecb b731
000000e0: 32cd 7c33 6252 9832 8f91 3d33 4f52 8333
000000f0: ada1 fe31 55d7 df33 0a24 8830 0d86 ef33
00000100: c74a 0d2f 599f f133 8912 922d fbe4 f133
00000110: 5af0 162c 18ee f133 2cf5 9b2a 58ef f133
00000120: b300 cd37 7ea3 4135 eb1d d236 bc18 bf36
00000130: 85da d436 d4b8 9834 f756 ee36 c835 ba37
00000140: c138 a538 b9a6 2837 8191 5c37 1eb0 fe35
00000150: 7736 2337 88aa 8037 0570 9236 d5ed 3d35
00000160: 8e1c 7936 61f5 c636 a774 3231 6f63 b130
00000170: 3262 9632 0b31 0232 3eeb 1a33 c6c3 4c33
00000180: 1c1a de31 6c2c c433 2c3f 6f30 1a69 d433
00000190: ac87 f82e a096 d633 0f7c 802d f5de d633
000001a0: 76c4 042c 43e8 d633 a12e 892a 79e9 d633
000001b0: d05e 4236 939b dd33 5f4d 0635 05df a035
000001c0: 3534 8635 8113 5533 21ec 0935 dde3 6b36
000001d0: 8541 1137 71de 2236 7243 2a36 462b 9034
000001e0: 1fb8 9f35 b0ea c235 af2e d334 c43f 0134
000001f0: b328 7335 8259 9135 01d5 9e30 044d 9a2f
00000200: 09d5 6031 1cc9 8730 9463 6731 4258 a131
00000210: d50d 1f30 2976 0f32 9681 aa2e f523 1a32
00000220: 8103 312d d991 1b32 8402 b72b 47c1 1b32
00000230: 991b 3d2a 7dc7 1b32 5965 c328 3bc8 1b32
00000240: 4af3 7a37 2961 1935 e1d0 4936 8bd9 c236
00000250: 7b1d a136 da04 1834 9538 6936 e35e 6237
00000260: dd66 2d38 d388 2837 efea 2937 504c c635
00000270: 1700 a236 b1b2 d336 b7b1 3136 efb2 4235
00000280: 16b8 7236 57c1 b636 2929 0331 6e7e 8130
00000290: bb7d 0c32 8a30 a831 ef51 9132 7423 b832
000002a0: a4ce 4f31 138f 3133 89c8 df2f ba67 4033
000002b0: 4475 682e 9665 4233 c259 f02c d4a7 4233
000002c0: ab5c 782b 60b0 4233 684f 002a 7bb1 4233
000002d0: 8be2 c238 4502 7436 f317 4137 2fcf 4638
000002e0: 7a97 1438 80cc c035 bf3a 6837 6224 f338
000002f0: 7f76 8639 df63 c938 e558 c038 aa2a 1437
00000300: 0e73 0b38 8b98 1038 7a5b 4837 a61b 8f36
00000310: 5a9c 1438 ee4e 2938 d48f 1f33 356b 1c32
00000320: 0c71 d233 7076 1233 3caf cf33 cc15 0a34
00000330: febf 8e32 2525 7734 4f0c 1931 c6e7 8434
00000340: 4fe4 9e2f c727 8634 5546 242e 4751 8634
00000350: a6bf a92c b056 8634 9d64 2f2b 6a57 8634
00000360: 5d7c 0337 fa7f 5c34 5797 7d35 2117 7936
00000370: 87dd 4036 b654 0534 02da 9035 2a8d 2237
00000380: 293e bf37 5fa9 f636 6595 f936 eca7 e634
00000390: 28dd 4936 16d0 5a36 f11a 5f35 903b 9134
000003a0: 3d8b 4936 0c5a 5136 560a b531 7576 8830
000003b0: a885 5132 67d6 2631 e26e 1732 e59f 5c32
000003c0: 4202 cb30 a3ea ba32 800a 592f a0cb c732
000003d0: 833f e12d 6584 c932 1bde 682c 79bd c932
000003e0: 3ca0 f02a f1c4 c932 88a0 7829 e8c5 c932
000003f0: 9ddd cf37 ae2d 9835 43e3 e936 5a2d 9a36
1.4404202e-05 7.505447e-07 2.0478142e-06 8.208142e-06 5.83933e-06 2.6811716e-07 2.0427335e-06 1.9509594e-05
3.9021088e-05 1.7395783e-05 1.5907975e-05 1.8946658e-06 5.3488484e-06 5.3863005e-06 1.9720767e-06 7.9524636e-07
6.149821e-06 6.939774e-06 5.628933e-09 1.6300441e-09 1.3922486e-08 7.0313946e-09 1.4385308e-08 1.785659e-08
2.478058e-09 3.2363666e-08 3.3218017e-10 3.487198e-08 4.3109297e-11 3.520838e-08 5.57124e-12 3.5252054e-08
7.196111e-13 3.5257646e-08 9.294223e-14 3.5258417e-08 4.329926e-05 2.5064862e-06 3.3580823e-06 2.6423164e-05
1.9244777e-05 1.1599159e-06 3.8851836e-06 7.844704e-05 0.00012830526 6.477584e-05 6.0702852e-05 5.9033937e-06
1.9481866e-05 1.7870198e-05 4.0626255e-06 1.7995627e-06 2.2962495e-05 2.062337e-05 2.5228724e-08 5.349185e-09
5.8859946e-08 1.7732592e-08 4.4137376e-08 6.115135e-08 7.4107533e-09 1.04234154e-07 9.905545e-10 1.11536885e-07
1.2850442e-10 1.1251422e-07 1.660651e-11 1.1264088e-07 2.1449704e-12 1.1265746e-07 2.7703653e-13 1.12659734e-07
2.443823e-05 7.2136015e-07 6.2619706e-06 5.695123e-06 6.3435314e-06 2.8446686e-07 7.1030768e-06 2.2197972e-05
7.878384e-05 1.00523985e-05 1.31469e-05 1.8975732e-06 9.728238e-06 1.5338199e-05 4.36418e-06 7.075408e-07
3.7120512e-06 5.9294257e-06 2.5968718e-09 1.2906706e-09 1.7506952e-08 7.578147e-09 3.606987e-08 4.7675506e-08
6.4640187e-09 9.1350415e-08 8.7037466e-10 9.891137e-08 1.13018345e-10 9.99255e-08 1.4607008e-11 1.0005707e-07
1.8867386e-12 1.00074e-07 2.4368444e-13 1.000762e-07 2.896344e-06 1.0319413e-07 5.003148e-07 1.1985836e-06
9.998972e-07 4.9610666e-08 5.138009e-07 3.5150363e-06 8.657928e-06 2.426936e-06 2.5371232e-06 2.6853576e-07
1.190001e-06 1.4522429e-06 3.933578e-07 1.2037259e-07 9.058378e-07 1.0829392e-06 1.1556552e-09 2.806716e-10
3.2717387e-09 9.879702e-10 3.3671528e-09 4.6957505e-09 5.786352e-10 8.350562e-09 7.753724e-11 8.9721555e-09
1.0062063e-11 9.055349e-09 1.300363e-12 9.066134e-09 1.6796147e-13 9.067546e-09 2.1693302e-14 9.067715e-09
1.4957806e-05 5.713833e-07 3.0072918e-06 5.806976e-06 4.801606e-06 1.4157868e-07 3.475264e-06 1.3492742e-05
4.1342213e-05 1.0045437e-05 1.0127885e-05 1.477436e-06 4.8279867e-06 6.3090924e-06 2.64785e-06 7.2531014e-07
3.6167962e-06 5.4465304e-06 1.9086406e-09 9.421919e-10 8.17766e-09 4.8949618e-09 1.691748e-08 2.1436541e-08
3.0239926e-09 4.134115e-08 4.0705952e-10 4.4797822e-08 5.2854846e-11 4.5261537e-08 6.8311754e-12 4.5321784e-08
8.82359e-13 4.5329557e-08 1.1396233e-13 4.5330562e-08 9.292838e-05 3.6360154e-06 1.1509273e-05 4.7399833e-05
3.5427023e-05 1.4364632e-06 1.38419555e-05 0.0001159392 0.00025646758 9.603029e-05 9.171831e-05 8.831421e-06
3.3247336e-05 3.4474342e-05 1.19422275e-05 4.264951e-06 3.5431563e-05 4.036625e-05 3.7150883e-08 9.104771e-09
9.79945e-08 3.4100992e-08 9.6710636e-08 1.2860181e-07 1.6618284e-08 2.301718e-07 2.2271427e-09 2.4755553e-07
2.8902256e-10 2.4988387e-07 3.735175e-11 2.5018582e-07 4.824546e-12 2.5022518e-07 6.231212e-13 2.5023047e-07
7.837164e-06 2.0535654e-07 9.4470073e-07 3.7117354e-06 2.8739175e-06 1.2417408e-07 1.0792285e-06 9.68882e-06
2.279792e-05 7.3510887e-06 7.43817e-06 4.2963018e-07 3.0080064e-06 3.2605653e-06 8.311318e-07 2.7051692e-07
3.0032381e-06 3.119584e-06 5.2689684e-09 9.92897e-10 1.2195791e-08 2.4278053e-09 8.814569e-09 1.2842041e-08
1.4770836e-09 2.175995e-08 1.9739765e-10 2.3259247e-08 2.5607743e-11 2.3459686e-08 3.3092476e-12 2.3485642e-08
4.274375e-13 2.3489038e-08 5.52063e-14 2.3489477e-08 2.477952e-05 1.1338177e-06 6.970398e-06 4.5948373e-06

exp_avg f4 [108]
00000000: 31b6 1a37 6fe0 76b8 a1be fdb8 b943 b336
00000010: 64fe 0a37 91b9 54b6 d112 b7b7 fa89 09b7
00000020: 397f 1a36 3f9e 89b8 d683 a6b8 76d6 22b7
00000030: b47c b6b7 1598 80b8 209a 09b8 aec6 49b8
00000040: 99d3 c138 510e fab8 9315 64b8 a698 b938
00000050: 74c4 b135 36e8 6eb6 f09c ad38 0ed0 8a37
00000060: a8fe 70b8 ae3f b037 b124 a8b8 d2f7 3538
00000070: c4f5 22b8 f183 98b8 7887 1d38 fc5b 8e38
00000080: b640 9b36 e210 4838 3da6 8a38 d9e4 0838
00000090: 1d76 5aaf 44a7 6b2f e891 dab0 8ba3 d931
000000a0: a72b b730 6a75 ea30 fb9c 21b1 529c 54b1
000000b0: d8ae 5bb1 bb5c c3af f573 0cb1 174a 4231
000000c0: 7742 14ae cebd d530 f4d5 60b0 fc33 93b1
000000d0: 8625 af31 956c 01b1 afca 35b1 04e6 a72f
000000e0: e466 5b31 c0c3 3231 0a04 a930 7d27 e731
000000f0: bae2 e9b0 c41f fb31 343f 4eb1 7c23 0831
00000100: e8ba 4231 cbf9 ea30 197f a131 4e10 0d30
00000110: 1c41 27b1 30c8 7fb1 c952 eaaf 1e6f 2930
00000120: 1287 1eb9 bcda edb9 5c00 fb3a b6e2 8bba
00000130: d81b 5f38 f19e c0b8 cd2d ba3a d3ca 4e3a
00000140: 9c16 67b9 995c b73a e27b 6a39 4a5f ceb7
00000150: 3dcc 8b3a 4603 b939 a26d 1bba 5ea9 bbb9
00000160: f96a 573a 90b0 1c38 6703 11bb 8886 1abb
00000170: 8442 a5b9 e2f8 09bb ddf7 deba 5328 aaba
00000180: 4edf 2639 97c7 a9b9 8631 00bb 4056 b73a
00000190: afdd 123b f94e 883a 424b b4b9 f665 fbb9
000001a0: fc1b 48ba 7741 13bb 480b 603a 28b5 af39
9.221535e-06 -5.885999e-05 -0.000120994875 5.3424997e-06 8.284671e-06 -3.1698476e-06 -2.1824062e-05 -8.1979615e-06
2.3021842e-06 -6.562145e-05 -7.940053e-05 -9.7058855e-06 -2.175416e-05 -6.131843e-05 -3.2806885e-05 -4.810717e-05
9.24237e-05 -0.000119235956 -5.437953e-05 8.8499204e-05 1.3244703e-06 -3.5599928e-06 8.278515e-05 1.6547765e-05
-5.7457626e-05 2.1010488e-05 -8.0176986e-05 4.3384563e-05 -3.8852697e-05 -7.272501e-05 3.7557882e-05 6.788221e-05
4.6268933e-06 4.769944e-05 6.611317e-05 3.2638058e-05 -1.9868947e-10 2.143255e-10 -1.5903057e-09 6.334124e-09
1.3327409e-09 1.7059112e-09 -2.3517817e-09 -3.0938918e-09 -3.1968082e-09 -3.5536182e-10 -2.0438595e-09 2.827283e-09
-3.3710337e-11 1.5551735e-09 -8.179477e-10 -4.284173e-09 5.0974363e-09 -1.8833692e-09 -2.6454179e-09 3.054056e-10
3.192718e-09 2.601368e-09 1.2297516e-09 6.727474e-09 -1.7017421e-09 7.308673e-09 -3.0012872e-09 1.9810775e-09
2.833696e-09 1.7096736e-09 4.700166e-09 5.131867e-10 -2.4338709e-09 -3.7221177e-09 -4.2623174e-10 6.163975e-10
-0.00015118372 -0.00045367132 0.0019149887 -0.0010672424 5.3193275e-05 -9.1848786e-05 0.0014204324 0.00078884995
-0.000220383 0.0013989388 0.00022362129 -2.4601486e-05 0.0010665726 0.0003528839 -0.00059291173 -0.00035793608
0.0008217539 3.7357735e-05 -0.0022127272 -0.0023578722 -0.0003152081 -0.0021052887 -0.0017011125 -0.0012981988
0.00015914181 -0.00032382898 -0.0019560768 0.0013987496 0.0022409966 0.0010399512 -0.00034388347 -0.00047950418
-0.00076335645 -0.002246944 0.0008546603 0.00033513573

exp_avg_sq f4 [108]
00000000: 246f 1733 81ef f133 abe9 d633 53c8 1b32
00000010: a3b1 4233 8157 8634 08c6 c932 a956 d433
00000020: 951e 0334 40c9 1534 3a99 3c34 9065 2733
00000030: 0f68 5533 c8b5 9234 75ac 7032 109a 9933
00000040: b553 9733 c71f d633 631c 5334 16ff 9033
00000050: 45f4 4433 eff5 d832 1c07 c333 0fbc 9f33
00000060: 4dea e232 fe63 6633 7e87 0134 7381 7f32
00000070: b48d 6533 c4c4 5434 9440 9833 ef51 5533
00000080: 4ad3 4733 1305 0c33 5cc4 1233 1193 2534
00000090: 7212 1a25 dd80 6524 9ce8 1225 e3cf c526
000000a0: c7fb 6724 0d1d 0825 99f2 b426 0a0d bc25
000000b0: f563 ef24 744f 3525 1668 0c26 4941 4526
000000c0: 8565 1425 703c 7b25 689b 4c27 abcb 1926
000000d0: 5eae f725 3043 c624 a45b bb26 99e9 ba24
000000e0: f9e8 3025 41ec 8127 c067 3c25 aa5d 0427
000000f0: 521e 2924 806f d527 7fb2 e024 ddaa 6025
00000100: 0874 5426 9ddb 1427 c097 8d25 4b63 5b25
00000110: cb99 4f25 1228 3d25 aa30 8e24 ea18 5a24
00000120: 4784 4b37 287c 4338 c8a6 1b39 a6e4 3f38
00000130: adb5 bb35 70c2 5235 ea50 6b38 047c 8837
00000140: b3b5 1a38 5d8a 4739 cbc7 c835 a7c5 c237
00000150: 77db cc37 1f41 4838 7857 6838 44de ad36
00000160: 5a3c b337 d992 b237 3692 6139 1efb 2a39
00000170: 4eb0 6c37 c244 1839 3f6e 9739 bcb3 4538
00000180: 9b20 0e38 9057 4436 20aa 1539 ad65 1639
00000190: b41c 1339 cd55 c637 665b 5636 ff26 9236
000001a0: bde2 5137 4b3e 3039 49a6 5f37 dc33 bc36
3.525851e-08 1.12660025e-07 1.00076555e-07 9.067736e-09 4.5330705e-08 2.5023112e-07 2.3489534e-08 9.887783e-08
1.2211451e-07 1.394992e-07 1.7564608e-07 3.8975088e-08 4.9687568e-08 2.7326882e-07 1.4009051e-08 7.1526415e-08
7.046712e-08 9.970932e-08 1.9661233e-07 6.7519224e-08 4.5856968e-08 2.5257547e-08 9.081688e-08 7.438222e-08
2.641641e-08 5.364199e-08 1.2063353e-07 1.4872387e-08 5.3447096e-08 1.9815621e-07 7.089798e-08 4.9667445e-08
4.6525464e-08 3.2600905e-08 3.4171862e-08 1.5420325e-07 1.336362e-16 4.976561e-17 1.2742292e-16 1.3725969e-15
5.0303404e-17 1.1805962e-16 1.2555765e-15 3.2621637e-16 1.0381906e-16 1.5726167e-16 4.871332e-16 6.8436583e-16
1.287135e-16 2.1791257e-16 2.8394933e-15 5.335856e-16 4.2965826e-16 8.598263e-17 1.3000571e-15 8.106037e-17
1.5344501e-16 3.606084e-15 1.6341553e-16 1.8369455e-15 3.6671716e-17 5.9240265e-15 9.74469e-17 1.9486794e-16
7.3709527e-16 2.0658179e-15 2.456243e-16 1.9028864e-16 1.8006495e-16 1.6406713e-16 6.1665124e-17 4.7292318e-17
1.2130541e-05 4.6607252e-05 0.00014844083 4.5750894e-05 1.398546e-06 7.851404e-07 5.6103723e-05 1.6270213e-05
3.688568e-05 0.00019029663 1.4959309e-06 2.3218641e-05 2.4420891e-05 4.7744365e-05 5.5394572e-05 5.181677e-06
2.1366566e-05 2.1287635e-05 0.0002151214 0.00016306012 1.4107745e-05 0.00014521464 0.00028883104 4.713585e-05
3.3885804e-05 2.9257244e-06 0.00014273124 0.00014342992 0.00014029705 2.3643393e-05 3.1941686e-06 4.355679e-06
1.2510162e-05 0.00016807874 1.3330552e-05 5.608874e-06
