SensorFormer/SensorFormer/result/individual/LCS11_8.pt (torch, 81661 bytes, 35 tensors)

self_attn.qkv_proj.weight f4 [108, 36]
0	0xbdbd5425	-0.09244565
1	0x3e4435c5	0.19161136
2	0x3ddc3a5e	0.1075332
3	0xbc620ed3	-0.01379748
4	0xbdf5cbb7	-0.12001746
5	0x3de3a6d1	0.11115802
6	0x3df71b1e	0.12065719
7	0x3e19b5a2	0.15010694
8	0x3dc159cc	0.094409555
9	0xbc923c26	-0.017850947
10	0xbe2a1b96	-0.16612086
11	0xbd74093b	-0.059579115
12	0xbdee0433	-0.11621895
13	0x3de7d0e1	0.11319137
14	0xbe219270	-0.15778518
15	0x3e1eb882	0.15500072
16	0xbde1c0c2	-0.11023094
17	0xbe2366c4	-0.1595717
18	0x3e08ed43	0.13371758
19	0xbdcdd323	-0.10050037
20	0x3e2ce237	0.16883169
21	0x3e0e8404	0.13917547
22	0xbbd3e956	-0.006467025
23	0x3e5779d4	0.21042567
24	0x3cb72b90	0.02235964
25	0xbd593daf	-0.05303734
26	0x3d4a4041	0.049377684
27	0x3e075dae	0.1321933
28	0x3e0b6251	0.13611723
29	0x3d054a77	0.03254172
30	0x3dd96848	0.10615593
31	0x3e22cdf6	0.1589888
32	0xbc590c63	-0.013247582
33	0xbd763df8	-0.06011769
34	0xbe3f8859	-0.18704356
35	0x3e418d9b	0.18901674
36	0x3b6ca8a6	0.0036111264
37	0x3d9ac22f	0.07556569
38	0x3e029cde	0.12755153
39	0x3d70a426	0.058750294
40	0xbe748ba1	-0.23881389
41	0x3e330d9f	0.17485665
42	0xbdf77119	-0.120821185
43	0x3d8d6055	0.069031395
44	0x3d56dc2b	0.052456062
45	0x3e57812a	0.21045366
46	0xbd068331	-0.032839958
47	0x3c539caf	0.012915774
48	0xbcc5bebe	-0.024138805
49	0xbdf648ef	-0.1202563
50	0xbe5f32c1	-0.21796705
51	0xbe1ac85e	-0.15115497
52	0x3e74755c	0.23872894
53	0x3cd18948	0.025578156
54	0x3d411096	0.04713496
55	0xbdb2574d	-0.087080576
56	0xbd6a5def	-0.05721849
57	0x3d6beb53	0.05759747
58	0x3da1ef13	0.07906928
59	0x3e0a80a4	0.13525635
60	0xbdb509fc	-0.08839795
61	0x3ddf4ccf	0.10903322
62	0x3e747a52	0.23874786
63	0x3cb07ce1	0.021543922
64	0x3e389c01	0.18028261
65	0xbc2b4285	-0.010452871
66	0xbe01e6e6	-0.12685737
67	0xbd99c289	-0.07507808
68	0x3b960ec2	0.004579396
69	0x3e683eb4	0.2268017
70	0x3e77e854	0.2420972
71	0x3dee38e6	0.11631946
72	0x3c269b0d	0.010168803
73	0xbd745f42	-0.059661157
74	0xbe53dfaa	-0.2069079
75	0xbcef1869	-0.029186444
76	0x3e24d3bf	0.160964
77	0xbe2dccf3	-0.16972713
78	0x3d94fdb6	0.07274954
79	0x3dfc172c	0.12309107
80	0xbd9ce992	-0.076617375
81	0xbe7878cc	-0.2426483
82	0xbca66989	-0.020313995
83	0xbe760077	-0.24023615
84	0xbb3eaa58	-0.0029093232
85	0xbcd0c9b9	-0.025486814
86	0xbe279b03	-0.16367726
87	0x3e7a9d9b	0.24474184
88	0x3d4055f7	0.046956982
89	0xbe15fd5e	-0.14647433
90	0x3e2e31f4	0.17011243
91	0xbd4e0872	-0.050301023
92	0xbe02ac07	-0.12760936
93	0xbe4d3469	-0.20039524
94	0x3dc2d265	0.09512786
95	0xbe0ebee1	-0.13940002
96	0x3d2affd1	0.04174787
97	0xbd5cb401	-0.053882603
98	0x3d8ee341	0.06976939
99	0xbcb72ce1	-0.022360267
100	0x3e039aae	0.12851974
101	0xbdf11999	-0.117724605
102	0x3db86c2c	0.09005007
103	0xbd629428	-0.055317074
104	0xbe138cae	-0.14409134
105	0xbe135466	-0.14387664
106	0xbe1334bb	-0.14375584
107	0xbe44ab28	-0.19205916
108	0x3d638cf3	0.05555434
109	0x3d42daa5	0.047571797
110	0xbd4ec0ad	-0.05047672
111	0x3dcbe577	0.09955876
112	0x3dbdbc6e	0.09264456
113	0xbcbb2903	-0.022846704
114	0x3dacbc80	0.08434391
115	0x3e843640	0.2582264
116	0x3e7877a0	0.24264383
117	0x3df2eb4e	0.11861287
118	0xbe3a20a3	-0.18176512
119	0xbe5363b5	-0.20643504
120	0xbc6ba0bd	-0.014381585
121	0x3e82ad3c	0.25522792
122	0xbe0f250b	-0.13978975
123	0x3df84235	0.12122003
124	0x3e1ab971	0.15109803
125	0x3d4a1cca	0.04934386
126	0xbe400873	-0.18753223
127	0x3e0ac842	0.13552955
128	0xbca4fc28	-0.020139769
129	0x3e7ec8e0	0.24881315
130	0x3de868c7	0.1134811
131	0x3dc929e8	0.09822446
132	0x3e2be029	0.16784729
133	0xbcc259d6	-0.023724478
134	0x3d2b061e	0.04175388
135	0xbe3a1340	-0.18171406
136	0x3de5cc5b	0.11220618
137	0xbe5790ea	-0.21051374
138	0xbd9b6772	-0.0758809
139	0xbce77a2a	-0.028256495
140	0x3c2358be	0.009969888
141	0xbe30e8a1	-0.17276241
142	0x3dc22e72	0.09481515
143	0x3dc38cc5	0.09548334
144	0x3c8970cf	0.016777424
145	0xbdf44406	-0.11927037
146	0xbe116d2d	-0.14201804
147	0xbe71ca7c	-0.23612398
148	0xbe082454	-0.13295108
149	0xbe1b2e8c	-0.15154475
150	0xbd603541	-0.054738287
151	0x3d82f43c	0.0639424
152	0x3e861f31	0.26195672
153	0x3d80d198	0.06289977
154	0xbe3c2f8d	-0.18377514
155	0xbe1be297	-0.15223156
156	0x3e337eef	0.1752889
157	0xbce8a2a1	-0.02839786
158	0xbc34df45	-0.01103956
159	0xbcc0870e	-0.0235019
160	0xbe3e90af	-0.1860988
161	0xbd826757	-0.06367367
162	0xbdd2d0d0	-0.10293734
163	0xbd17ce40	-0.03706193
164	0xbe3d41c9	-0.18482126
165	0xbe468ff3	-0.1939085
166	0xbcb28853	-0.02179352
167	0xbd90ed4d	-0.070765115
168	0xbe1fde01	-0.15612032
169	0xbd55af9c	-0.052169427
170	0x3ca35a3a	0.019940484
171	0x3db9ae23	0.09066417
172	0xbe277769	-0.16354145
173	0x3dd3d992	0.103442326
174	0xbe16d916	-0.14731249
175	0x3d3fce53	0.046827625
176	0x3dbbcbb1	0.091697104
177	0x3c23af84	0.009990577
178	0xbe449f79	-0.19201459
179	0xbde37a81	-0.1110735
180	0xbca13f23	-0.019683426
181	0x3d675186	0.05647423
182	0x3e3d5d52	0.1849263
183	0x3e40d9d3	0.18833093
184	0xbc2bea39	-0.010492855
185	0x3e58a765	0.21157606
186	0x3e433ad1	0.19065405
187	0x3dd5e1c2	0.104434505
188	0xbc6a64a6	-0.014306223
189	0xbccd7b5e	-0.02508324
190	0xbcd2434e	-0.025666859
191	0xbdc0d22a	-0.094150856
192	0xbd683caa	-0.05669848
193	0xbe4f888d	-0.20266934
194	0x3dc40b6c	0.09572491
195	0xbe168415	-0.14698823
196	0x3e836d1a	0.25669175
197	0x3c53df9f	0.012931733
198	0xbdc7ce21	-0.09756113
199	0xbd1c10d4	-0.038101986
200	0x3ea0da85	0.31416717
201	0x3e8510e1	0.2598944
202	0xbe16494b	-0.14676397
203	0xbd7b4482	-0.06134463
204	0x3e29a365	0.16566236
205	0x3e006b28	0.12540877
206	0xba3a0daf	-0.0007097376
207	0xbe0153f6	-0.12629685
208	0xbc7e9536	-0.015538504
209	0x3bb08b28	0.0053876825
210	0x3cb4f4e4	0.02208943
211	0x3e20bb5e	0.15696475
212	0xbb2ffc54	-0.002685328
213	0x3de3c6e8	0.11121923
214	0x3e16a7d4	0.14712459
215	0x3cf76b8b	0.030202648
216	0x3dc02657	0.09382313
217	0xbdce5434	-0.10074654
218	0xbdb80dbf	-0.08986997
219	0x3cdfc180	0.027313948
220	0x3df794b7	0.12088912
221	0x3e30cdca	0.17266002
222	0xbe0c1047	-0.13678084
223	0xbddd2c36	-0.10799448
224	0x3e620793	0.22073202
225	0xbaad39de	-0.0013216098
226	0x3d1d326f	0.038378175
227	0xbd9fda4d	-0.078053094
228	0x3dc2c262	0.09509732
229	0x3e268d15	0.16264756
230	0xbe2d23fb	-0.16908257
231	0x3e33b979	0.17551221
232	0x3e2b95f6	0.16756424
233	0xbdfc18b4	-0.12309399
234	0xbde50883	-0.11183264
235	0x3e0e0166	0.13867721
236	0xbe378bbc	-0.17924398
237	0xbdfd003a	-0.12353559
238	0xbd28976d	-0.041160036
239	0x3dd757b2	0.105147734
240	0xbe17273e	-0.14761063
241	0xbe2d0d4a	-0.168996
242	0x3dff4266	0.12463836
243	0xbe4dc46e	-0.20094463
244	0x3e3f6bc9	0.1869346
245	0xbdbd9100	-0.09256172
246	0x3d101db1	0.035184566
247	0xbd5dd454	-0.05415757
248	0x3d4b446d	0.049625803
249	0xbdf75570	-0.12076843
250	0xbcb6f37e	-0.022332903
251	0xbca872ad	-0.020562494
252	0x3dd9e3c3	0.10639145
253	0xbda53089	-0.08065898
254	0xbdbb390c	-0.0914174
255	0xbe21cc6b	-0.15800636

self_attn.qkv_proj.bias f4 [108]
0	0x3d21464a	0.039373673
1	0x3d6448c4	0.055733457
2	0xbd22f47b	-0.039783936
3	0xbcb5305c	-0.022117786
4	0xbcb01a7c	-0.021497004
5	0x3d8f3f10	0.0699445
6	0xbc82164c	-0.015879773
7	0x3d5d818f	0.054078635
8	0xbd3d3cb5	-0.046200473
9	0x3ce11907	0.027477754
10	0x3bf4c82e	0.0074701523
11	0xbb4c25cb	-0.0031150456
12	0x3d0fbe34	0.0350935
13	0xbac7153b	-0.0015188822
14	0xbd1826b9	-0.037146304
15	0xbcc7f3c3	-0.024408227
16	0xbc5981d0	-0.013275579
17	0xbc393b79	-0.011305683
18	0xbb496745	-0.003073172
19	0x3ce0f302	0.027459625
20	0xbcc87ae8	-0.024472669
21	0xbc34192c	-0.01099233
22	0xbc311140	-0.010807335
23	0xbc82c246	-0.015961777
24	0xbc20c52f	-0.009812637
25	0x3adca0c2	0.0016832578
26	0x3c9175fc	0.017756455
27	0xbc24f329	-0.0100677395
28	0xbd2debb6	-0.04246112
29	0x3b92e588	0.0044829287
30	0xbd4f7031	-0.050644103
31	0xbbdbbda7	-0.006705958
32	0xbd488576	-0.048955403
33	0xbd6659a5	-0.056237835
34	0xbde68946	-0.112566516
35	0x3d021330	0.03175658
36	0x3b361642	0.0027784263
37	0xbc3220fe	-0.010872124
38	0x3c1792ea	0.009251336
39	0xbc76a40e	-0.015053762
40	0x3c3b74eb	0.01144145
41	0xbacf6759	-0.0015823647
42	0xbb129582	-0.0022366946
43	0x3b3b6f22	0.0028600176
44	0x3c130a0d	0.008974564
45	0x3bb7185e	0.0055876216
46	0x3c5356b3	0.012899089
47	0x3be01730	0.0068387017
48	0xbc1eb858	-0.009687506
49	0x3bd8f413	0.006620893
50	0x3c6d2133	0.014473247
51	0xbb1a3ae1	-0.002353363
52	0xbc49f95b	-0.012327517
53	0xbb6d425c	-0.0036202883
54	0x3babf3fb	0.0052475906
55	0x3c0f77de	0.008756606
56	0x3c2f5a37	0.010702661
57	0x3c25b89a	0.010114813
58	0x3bd4dd79	0.006496128
59	0x3c0d148a	0.008610854
60	0x3b9f82e6	0.004867899
61	0x3c25fdc2	0.010131301
62	0x3bf5d158	0.0075017624
63	0xbbe9ff3a	-0.007141021
64	0x3b7ca694	0.0038551437
65	0xbc08833d	-0.008332071
66	0x3c2ba70a	0.010476837
67	0x3b97c719	0.0046318886
68	0x3ba2b109	0.004964952
69	0x3c415957	0.011801085
70	0x3c4d3e1c	0.012527015
71	0xbc19c1d6	-0.009384593
72	0x3d4f3cbb	0.050595026
73	0xbd6b179d	-0.057395566
74	0xbd67f29c	-0.056627855
75	0x3c05c0f4	0.008163679
76	0xbd07a20f	-0.033113535
77	0x3d37418c	0.044740245
78	0xbc9ab4eb	-0.018885097
79	0xbd0ce5be	-0.034398787
80	0x3cb16d0d	0.021658445
81	0xbc8f65c5	-0.017504582
82	0xbd77ddc7	-0.060514238
83	0x3c3fd387	0.011708147
84	0x3d6f94ca	0.058491506
85	0x3ce5c277	0.02804683
86	0xbd52edc7	-0.051496293
87	0x3d56141c	0.05226527
88	0x3ba70d33	0.005098009
89	0x3d4b672a	0.04965893
90	0x3d288e53	0.041151356
91	0xbc2c8d8d	-0.010531795
92	0x3d0aa25f	0.033846255
93	0x3ce19af5	0.02753971
94	0xbc97c54f	-0.018526701
95	0x3b3a188a	0.0028395974
96	0xbc4096b0	-0.011754677
97	0x3ba583c3	0.0050511076
98	0xbd3498be	-0.04409098
99	0xbd1dca27	-0.038522866
100	0xb9d81f41	-0.00041222016
101	0x3cb10b1c	0.021611743
102	0x3bf64aa9	0.0075162244
103	0xbc2040e2	-0.009781094
104	0x3d571019	0.052505586
105	0xbcc9cdfd	-0.024634356
106	0x3cc7ffb5	0.024413923
107	0x3d30dc8d	0.043179084

self_attn.o_proj.weight f4 [36, 36]
0	0x3e70e1b5	0.235236
1	0x3ac6e51c	0.0015174481
2	0xbe516ce2	-0.20451692
3	0xbdc84a3c	-0.09779784
4	0xbb89549e	-0.0041909954
5	0x3e0c8e21	0.13726093
6	0x3eaa7198	0.3328979
7	0x3e542453	0.20716982
8	0x3def429f	0.11682629
9	0x3d4f034b	0.05054025
10	0x3e83dd9e	0.25755018
11	0x3c8b27d1	0.01698676
12	0x3e88e548	0.26737428
13	0xbea851c1	-0.32874873
14	0x3de8a90d	0.11360369
15	0xbd89dfe3	-0.06732156
16	0xbda893c4	-0.08231309
17	0x3e428411	0.18995692
18	0xbe445655	-0.19173558
19	0xbde193d8	-0.11014527
20	0xbea3537a	-0.31899625
21	0x3dc89f57	0.09796017
22	0xbed853fe	-0.4225158
23	0xbdde26f8	-0.108472764
24	0x3e1a7ec8	0.15087426
25	0x3e1fd9b0	0.15610385
26	0x3da19603	0.078899406
27	0x3e927b64	0.28609765
28	0x3e307543	0.17232232
29	0xbbc8111e	-0.006105556
30	0xbe8ed67a	-0.27898008
31	0x3e4c5688	0.19954884
32	0xbb7e6e5a	-0.00388231
33	0xbca7ef4d	-0.02049985
34	0xbe8c7657	-0.27434036
35	0xbe1e05f1	-0.15431954
36	0x3e81bc8c	0.25339162
37	0x3d5eb0f3	0.05436797
38	0x3da7ffc1	0.08203078
39	0x3d745602	0.059652336
40	0x3e3c88da	0.1841158
41	0x3e251748	0.16122162
42	0x3e4e25ad	0.2013156
43	0x3d6a3415	0.057178576
44	0xbc9f0efc	-0.019416325
45	0xbe97c164	-0.29639733
46	0xbe25d0bf	-0.16192912
47	0xbe7564fe	-0.23964307
48	0x3dd62071	0.104554065
49	0x3e5ae26d	0.21375437
50	0x3cc92541	0.024553897
51	0x3d9c5eee	0.07635294
52	0x3e168319	0.14698447
53	0xbe33ba99	-0.1755165
54	0xbe3127c2	-0.17300323
55	0xbb448ac9	-0.002998995
56	0x3e19df63	0.15026622
57	0xbe23004a	-0.15918079
58	0x3e69af2a	0.22820726
59	0xbe0473ff	-0.12934874
60	0xbe343819	-0.17599525
61	0xbe5b67d5	-0.21426328
62	0xbe8e99cf	-0.27851722
63	0xbdea68ae	-0.11445747
64	0x3d83c899	0.06434745
65	0x3e6effa0	0.233397
66	0xbc333f8a	-0.010940442
67	0x3e69a3c9	0.22816385
68	0x3e139db4	0.14415628
69	0x3e55ebb8	0.20890701
70	0x3e8ce19c	0.27515876
71	0x3e6e17d5	0.23251279
72	0xbe064c30	-0.13115
73	0xbe5c26e2	-0.21499208
74	0x3e67a96b	0.22623222
75	0xbe594664	-0.21218258
76	0x3e214856	0.1575025
77	0xbe9f858a	-0.3115657
78	0xbd73a516	-0.05948361
79	0x3ebd0413	0.3691717
80	0xbea930f0	-0.3304515
81	0x3e864fbe	0.26232713
82	0x3e74c6d1	0.23903967
83	0xbe5d6f5d	-0.21624513
84	0xbdf9e04e	-0.12200986
85	0xbe92f984	-0.2870599
86	0x3e4241ec	0.1897046
87	0x3eaa5279	0.33266047
88	0x3df13f73	0.1177968
89	0xbe80755b	-0.25089535
90	0xbe622fd9	-0.22088565
91	0x3c9e2594	0.019305028
92	0x3e60b452	0.21943787
93	0x3df4d11b	0.11953946
94	0x3da31164	0.079623014
95	0x3b7c5445	0.0038502377
96	0xbe24e93a	-0.16104594
97	0xbd119a60	-0.035547614
98	0x3e9adc36	0.30246133
99	0xbe157f7e	-0.14599416
100	0x3c4821db	0.012215103
101	0x3debc25e	0.11511682
102	0xbe185397	-0.14875637
103	0x3eb5100e	0.3536381
104	0xbe857611	-0.2606664
105	0x3e9ac3ad	0.30227414
106	0xbd312beb	-0.043254774
107	0xbdbc6367	-0.09198647
108	0x3e5ecaf2	0.21757105
109	0xbecaeba7	-0.39632913
110	0x3e7e2f98	0.24822843
111	0x3e4be67b	0.1991214
112	0x3e00be09	0.12572493
113	0x3dddfe45	0.10839514
114	0x3dfcebf9	0.12349696
115	0xbe516b2f	-0.20451044
116	0xbe4dec29	-0.20109619
117	0x3dc43d77	0.09582036
118	0x3e8e310a	0.2777179
119	0x3e2fb28e	0.17157957
120	0x3c8bc942	0.01706374
121	0xbe45de18	-0.19323003
122	0xbe48a08d	-0.19592495
123	0x3e2fcc0d	0.17167683
124	0x3e0edf9b	0.13952486
125	0xbd938ea1	-0.07204939
126	0x3de8df7c	0.11370751
127	0x3d2591c7	0.040422227
128	0x3a27c66d	0.0006400112
129	0x3e529ad5	0.20566876
130	0xbe4adbfe	-0.19810483
131	0xbe7ca97b	-0.24674027
132	0x3e2fdd9a	0.17174378
133	0xbe121a2f	-0.14267801
134	0x3c2ae06b	0.010429482
135	0xbca35964	-0.019940086
136	0x3e1c1cc6	0.15245351
137	0x3b8d7002	0.004316331
138	0xbe5ae5bf	-0.21376704
139	0x3d91424a	0.07092722
140	0xbe364354	-0.17799121
141	0xbdc892ba	-0.09793611
142	0xbd8a7c13	-0.067619465
143	0xbe972be6	-0.2952568
144	0x3e1c23ea	0.15248075
145	0xbd90147d	-0.07035158
146	0xbe981b5d	-0.29708377
147	0x3e082b16	0.13297686
148	0xbe5ac5fb	-0.21364586
149	0x3dc52b94	0.096274525
150	0xbe988d30	-0.29795218
151	0xbd89992d	-0.06718669
152	0x3d6b022f	0.05737513
153	0x3d1caf6a	0.038253225
154	0x3da8a0e2	0.08233811
155	0x3e5f6c26	0.21818599
156	0x3dc27ca8	0.094964325
157	0x3e48c4ec	0.1960637
158	0x3e04066a	0.12893072
159	0x3df51433	0.11966743
160	0x3dd023d5	0.101630844
161	0x3e78250f	0.24232887
162	0xbde2ad21	-0.11068178
163	0xbe5335ee	-0.20626041
164	0x3e3d986a	0.18515173
165	0x3e126535	0.1429642
166	0xbdac7f06	-0.08422665
167	0xbe4eaa0c	-0.20182055
168	0xbe57ff85	-0.21093567
169	0xbe4b6240	-0.19861698
170	0xbcab938a	-0.020944376
171	0x3e2387e5	0.15969808
172	0x3e45468f	0.19265197
173	0x3d8c0dfa	0.06838603
174	0x3e853247	0.2601492
175	0x3da83166	0.08212547
176	0xbd86e286	-0.06586175
177	0xbd8f5c58	-0.07000035
178	0x3e44a7ec	0.19204682
179	0x3e606b5a	0.21915951
180	0x3e7f763f	0.24947451
181	0x3ddbe64e	0.107372865
182	0x3e499dee	0.19689152
183	0x3def78ae	0.1169294
184	0xbc892771	-0.01674244
185	0xbe540277	-0.20704065
186	0x3e39c788	0.18142521
187	0xbe62b34c	-0.22138709
188	0xbe1f7060	-0.15570211
189	0x3e0ac61f	0.1355214
190	0xbc22f10d	-0.009945166
191	0x3e8f9448	0.28042817
192	0x3e8e39b4	0.277784
193	0xbdf71cba	-0.12066026
194	0xbd7d5734	-0.06185074
195	0xbe549969	-0.20761646
196	0xbaa62569	-0.0012675944
197	0xbe899d56	-0.2687785
198	0xbe8df499	-0.27725676
199	0x3ca6d039	0.02036296
200	0xbcce0188	-0.025147215
201	0xbe42510a	-0.18976226
202	0xbe9a96da	-0.30193216
203	0xbec269ec	-0.37971437
204	0x3d756e07	0.059919383
205	0x3e721bfe	0.2364349
206	0x3dc8ce06	0.09804921
207	0x3e0d09b8	0.13773239
208	0x3bc325cc	0.0059554335
209	0x3e9bfc0c	0.30465734
210	0x3e368ed2	0.17827919
211	0x3db251b5	0.08706991
212	0xbdd5af25	-0.10433797
213	0x3d89f3bc	0.06735942
214	0xbe80b378	-0.25136924
215	0xbe832f98	-0.2562225
216	0xbe4d3c93	-0.20042638
217	0xbe9f4bd0	-0.31112528
218	0x3e9d2652	0.306933
219	0xbdfa21cb	-0.12213477
220	0x3e09fae3	0.13474612
221	0x3dfda937	0.12385791
222	0x3e127010	0.14300561
223	0xbcad06ad	-0.021121347
224	0x3d0548d6	0.032540165
225	0x3d9889cf	0.0744816
226	0xbe95a94a	-0.2923072
227	0x3dc983f7	0.098396234
228	0xbdb9d8be	-0.090745434
229	0xbebb977f	-0.3663902
230	0xbe838d04	-0.25693524
231	0xbe1e6115	-0.15466721
232	0xbe8c6ea3	-0.2742816
233	0x3d93a58d	0.07209311
234	0x3d8cbc6a	0.06871875
235	0xbd005aca	-0.031336583
236	0x3d6cde0b	0.057828944
237	0x3dde3011	0.10849012
238	0x3d36c513	0.04462154
239	0x3d8cb789	0.06870944
240	0x3e02f528	0.12788832
241	0xbdfef19a	-0.124484256
242	0x3cfe38d0	0.03103295
243	0xbdcda7e7	-0.100417905
244	0x3dab8e19	0.08376712
245	0x3e8480cf	0.25879523
246	0xbd1e4d77	-0.038648095
247	0x3e693bc7	0.2277671
248	0x3d46b883	0.048515808
249	0x3d9b2fc3	0.07577469
250	0x3e0d2644	0.13784128
251	0xbd8df01b	-0.06930562
252	0x3e34c7c6	0.17654333
253	0x3e1b9b81	0.15196039
254	0x3deb52cb	0.11490401
255	0xbda9761c	-0.08274481

self_attn.o_proj.bias f4 [36]
0	0xbd50b09a	-0.05094967
1	0x3c58910a	0.013218174
2	0xbd96b3ab	-0.07358488
3	0xbcfda9b2	-0.030964706
4	0x3d161bff	0.036647793
5	0xbd39466e	-0.045233183
6	0xbc6e1b8a	-0.014532933
7	0xbd95befa	-0.073118165
8	0x3d6d0835	0.057869155
9	0xbd047fb8	-0.032348365
10	0xbc8cca45	-0.017186293
11	0xbd8892c1	-0.06668616
12	0x3d5206f8	0.051276177
13	0x3c560a1c	0.013063934
14	0xbc943e11	-0.018096002
15	0xbcc571ca	-0.02410211
16	0xbcd1fcae	-0.025633182
17	0xbd6f49b0	-0.058419883
18	0x3d1853b5	0.037189204
19	0x3d02cde7	0.031934645
20	0x3c4e3ecf	0.012588217
21	0xbb3a8c7b	-0.002846508
22	0x3d80b3a3	0.06284263
23	0x3d7912eb	0.060809057
24	0xbbdae674	-0.006680304
25	0x3c16388f	0.009168758
26	0x3d846a86	0.0646563
27	0xbcd9a6a5	-0.02656872
28	0x3d67f41c	0.056629285
29	0x3d973950	0.07383978
30	0xbd6d08c5	-0.05786969
31	0xbc00f9a9	-0.007872024
32	0xbd42bf5f	-0.047545787
33	0xbcd98171	-0.02655098
34	0x3d89a518	0.06720942
35	0xbd82c0c5	-0.06384424

fc.weight f4 [1, 18]
0	0x3e1185a4	0.14211136
1	0x3d8ea337	0.069647245
2	0xbd0c9561	-0.034322146
3	0xbe49af6c	-0.19695824
4	0xbd7912bc	-0.060808882
5	0x3e3e8dcb	0.18608777
6	0xbde8dc98	-0.113702
7	0xbe4724eb	-0.19447677
8	0x3dc04499	0.09388084
9	0x3e61c6a7	0.22048436
10	0xbe290f0f	-0.1650965
11	0x3db89086	0.09011941
12	0xbe46a520	-0.19398928
13	0xbd6fcc4d	-0.058544446
14	0xbe636920	-0.22208071
15	0xbe251125	-0.16119821
16	0x3e17262a	0.14760652
17	0x3e2b56c3	0.16732316

fc1.weight f4 [1, 36]
0	0xbef8127b	-0.484516
1	0x3ee86dd1	0.45396283
2	0xbed7dea1	-0.4216204
3	0xbef21686	-0.4728281
4	0x3ee21923	0.44159803
5	0xbf01ca73	-0.5069954
6	0xbeb4c671	-0.3530765
7	0xbf02309f	-0.5085544
8	0x3ed7299d	0.42023936
9	0x3ec4fda5	0.38474765
10	0xbf069e3e	-0.5258521
11	0xbee66a8b	-0.4500316
12	0x3ebdb109	0.3704913
13	0x3f087ec7	0.53318447
14	0xbef859d3	-0.4850603
15	0xbec1d3a1	-0.37856773
16	0x3edf1b65	0.43575588
17	0xbf07c62e	-0.53036773
18	0x3f104339	0.56352574
19	0x3efce5e8	0.49394155
20	0x3ee60b87	0.4493067
21	0xbedec257	-0.43507645
22	0x3ee12b2d	0.43978253
23	0x3eda5205	0.426407
24	0xbec37cd5	-0.38181177
25	0xbec9d9e9	-0.39424065
26	0x3ee9c7fd	0.4566039
27	0xbec2019b	-0.3789185
28	0x3eece8c9	0.4627135
29	0x3ee9abfe	0.45639032
30	0xbf0096fd	-0.5023039
31	0xbef43c82	-0.47702414
32	0xbef47959	-0.4774883
33	0xbeda8f75	-0.42687574
34	0x3ed81496	0.42203206
35	0xbed491da	-0.41517526

fc2.weight f4 [1, 9]
0	0x3daf51b6	0.08560507
1	0x3e0d051b	0.13771479
2	0xbe93c32c	-0.28859842
3	0xbe6ab743	-0.22921471
4	0xbe2803c0	-0.1640768
5	0x3c8f4e56	0.017493408
6	0xbe491dd3	-0.19640283
7	0xbdfd6ceb	-0.1237429
8	0xbe2b6818	-0.16738927

fc3.weight f4 [1, 2]
0	0x3eee44c7	0.46536848
1	0xbf0e9039	-0.55688816

input_fc.weight f4 [18, 3]
0	0xbe596860	-0.21231222
1	0xbc451228	-0.012028255
2	0x3e82ed77	0.25571796
3	0x3e93ce07	0.28868124
4	0x3c893725	0.016749928
5	0x3e7f3877	0.24923883
6	0x3f0216a4	0.50815797
7	0x3ecc1947	0.39863035
8	0xbb41ce0e	-0.002957228
9	0xbf05d7f8	-0.5228267
10	0x3e2c115e	0.168035
11	0x3e85e301	0.26149753
12	0x3e86f0e8	0.26355672
13	0xbefa6b46	-0.48909968
14	0xbd0f22b0	-0.03494519
15	0x3d36cc2a	0.0446283
16	0xbe0ac958	-0.13553369
17	0x3e92744c	0.28604352
18	0x3e13ed93	0.14446096
19	0x3f006f33	0.50169677
20	0xbec467b5	-0.38360372
21	0x3cd5077a	0.026004542
22	0xbef0dc7f	-0.47043225
23	0x3e7a4350	0.2443974
24	0x3f1ab803	0.6043703
25	0xbee7e57e	-0.45292276
26	0xbd9ccf5c	-0.07656738
27	0x3ed803a1	0.4219027
28	0x3e907a25	0.2821819
29	0x3e3dcbb3	0.18534736
30	0xbec4e49e	-0.3845567
31	0x3de533f0	0.11191547
32	0xbe37295f	-0.17886876
33	0xbd90542b	-0.07047304
34	0x3dc7f76d	0.097639896
35	0x3ee3c1fd	0.4448394
36	0x3e32c246	0.17456922
37	0x3ef32f66	0.474971
38	0xbe05bb9b	-0.13059847
39	0xbd7e4bf5	-0.062084157
40	0xbf02a6ed	-0.5103596
41	0x3f06935b	0.52568597
42	0xbebdbdae	-0.37058777
43	0x3e12986d	0.14315958
44	0xbe89f8c6	-0.26947612
45	0x3e88facb	0.2675384
46	0xbf207beb	-0.62689084
47	0xbdfaa78d	-0.12238989
48	0xbe0de0f3	-0.13855343
49	0x3e0e9ab4	0.13926202
50	0x3ed5ee9d	0.4178361
51	0xbe6a1a18	-0.22861516
52	0x3e5c51de	0.21515605
53	0x3db1056d	0.08643613

input_fc.bias f4 [18]
0	0xbe7928a6	-0.24331912
1	0xbda01a05	-0.07817463
2	0xbdfff3d6	-0.1249768
3	0xbe44c494	-0.19215614
4	0xbd830a2b	-0.06398424
5	0xbf11d80d	-0.5697029
6	0xbf021a1b	-0.50821084
7	0x3ed7295b	0.4202374
8	0x3ea72eff	0.32653043
9	0xbe97e4a0	-0.29666615
10	0x3ef9b28a	0.48769027
11	0xbec9a5ba	-0.39384252
12	0x3f127ab9	0.5721851
13	0xbe5fb904	-0.21847922
14	0xbeab9f21	-0.33519843
15	0x3ec22c02	0.379242
16	0x3e96c28a	0.29445297
17	0xbeec9eeb	-0.46214995

norm.weight f4 [36]
0	0x3f800000	1.0
1	0x3f800000	1.0
2	0x3f800000	1.0
3	0x3f800000	1.0
4	0x3f800000	1.0
5	0x3f800000	1.0
6	0x3f800000	1.0
7	0x3f800000	1.0
8	0x3f800000	1.0
9	0x3f800000	1.0
10	0x3f800000	1.0
11	0x3f800000	1.0
12	0x3f800000	1.0
13	0x3f800000	1.0
14	0x3f800000	1.0
15	0x3f800000	1.0
16	0x3f800000	1.0
17	0x3f800000	1.0
18	0x3f800000	1.0
19	0x3f800000	1.0
20	0x3f800000	1.0
21	0x3f800000	1.0
22	0x3f800000	1.0
23	0x3f800000	1.0
24	0x3f800000	1.0
25	0x3f800000	1.0
26	0x3f800000	1.0
27	0x3f800000	1.0
28	0x3f800000	1.0
29	0x3f800000	1.0
30	0x3f800000	1.0
31	0x3f800000	1.0
32	0x3f800000	1.0
33	0x3f800000	1.0
34	0x3f800000	1.0
35	0x3f800000	1.0

norm.bias f4 [36]
0	0x00000000	0.0
1	0x00000000	0.0
2	0x00000000	0.0
3	0x00000000	0.0
4	0x00000000	0.0
5	0x00000000	0.0
6	0x00000000	0.0
7	0x00000000	0.0
8	0x00000000	0.0
9	0x00000000	0.0
10	0x00000000	0.0
11	0x00000000	0.0
12	0x00000000	0.0
13	0x00000000	0.0
14	0x00000000	0.0
15	0x00000000	0.0
16	0x00000000	0.0
17	0x00000000	0.0
18	0x00000000	0.0
19	0x00000000	0.0
20	0x00000000	0.0
21	0x00000000	0.0
22	0x00000000	0.0
23	0x00000000	0.0
24	0x00000000	0.0
25	0x00000000	0.0
26	0x00000000	0.0
27	0x00000000	0.0
28	0x00000000	0.0
29	0x00000000	0.0
30	0x00000000	0.0
31	0x00000000	0.0
32	0x00000000	0.0
33	0x00000000	0.0
34	0x00000000	0.0
35	0x00000000	0.0

norm1.weight f4 [9]
0	0x3f800000	1.0
1	0x3f800000	1.0
2	0x3f800000	1.0
3	0x3f800000	1.0
4	0x3f800000	1.0
5	0x3f800000	1.0
6	0x3f800000	1.0
7	0x3f800000	1.0
8	0x3f800000	1.0

norm1.bias f4 [9]
0	0x00000000	0.0
1	0x00000000	0.0
2	0x00000000	0.0
3	0x00000000	0.0
4	0x00000000	0.0
5	0x00000000	0.0
6	0x00000000	0.0
7	0x00000000	0.0
8	0x00000000	0.0

norm2.weight f4 [9]
0	0x3f800000	1.0
1	0x3f800000	1.0
2	0x3f800000	1.0
3	0x3f800000	1.0
4	0x3f800000	1.0
5	0x3f800000	1.0
6	0x3f800000	1.0
7	0x3f800000	1.0
8	0x3f800000	1.0

norm2.bias f4 [9]
0	0x00000000	0.0
1	0x00000000	0.0
2	0x00000000	0.0
3	0x00000000	0.0
4	0x00000000	0.0
5	0x00000000	0.0
6	0x00000000	0.0
7	0x00000000	0.0
8	0x00000000	0.0

m.running_mean f4 [12]
0	0x3fc85ec4	1.565392
1	0x3fcb83c5	1.5899588
2	0x3fc983f5	1.5743395
3	0x3fc514ff	1.5397032
4	0x3fc2cc70	1.5218639
5	0x3fc48bb8	1.5355139
6	0x3fc7fd52	1.5624182
7	0x3fc90250	1.5703831
8	0x3fc573ed	1.5426003
9	0x3fbf5011	1.4946309
10	0x3fbb402c	1.4628959
11	0x3fbc390c	1.4704909

m.running_var f4 [12]
0	0x43f17c8d	482.97305
1	0x43f2233d	484.2753
2	0x43f1d614	483.6725
3	0x43f11d55	482.22916
4	0x43f104d5	482.03775
5	0x43f1d879	483.6912
6	0x43f2ec6f	485.84714
7	0x43f35c58	486.72144
8	0x43f2a8ee	485.31976
9	0x43f14b8b	482.59018
10	0x43f0441b	480.53207
11	0x43f03a60	480.45605

linear_net.0.weight f4 [9, 18]
0	0xbdbdfa19	-0.09276218
1	0x3d8fda90	0.07024109
2	0x3d59870c	0.053107306
3	0x3d82c7ae	0.06385742
4	0x3e4d6593	0.20058279
5	0x3e6814eb	0.2266423
6	0x3e34a85d	0.1764235
7	0xbd982641	-0.07429171
8	0x3d8f1ed7	0.06988304
9	0x3e4f0c30	0.20219493
10	0x3df83c19	0.12120838
11	0xbda1460d	-0.07874689
12	0x3de6c6a4	0.112683564
13	0x3e6abeb3	0.22924308
14	0xbc365d50	-0.011130646
15	0xbcd00fb4	-0.025398113
16	0x3e23344c	0.15937918
17	0x3db0661c	0.08613226
18	0xbe2cac77	-0.16862665
19	0xbd68e720	-0.056861043
20	0xbd557d76	-0.052121602
21	0xbd1342e6	-0.03595247
22	0xbb812399	-0.003941011
23	0x3d119611	0.035543505
24	0x3e1442ec	0.14478654
25	0x3e091614	0.13387328
26	0x3e5cc4f0	0.215595
27	0x3e0f96f8	0.14022434
28	0x3d4061df	0.046968337
29	0x3e0630c4	0.1310454
30	0xbe1525e7	-0.1456524
31	0x3d188dcd	0.037244607
32	0xbe2c2723	-0.16811804
33	0x3d64bbcf	0.05584317
34	0xbde573cd	-0.11203728
35	0xbcec6945	-0.02885879
36	0xbdbbe83d	-0.09175155
37	0xbdfc3ce3	-0.12316301
38	0x3e682b2b	0.22672717
39	0xbe13b538	-0.14424598
40	0xbd9df271	-0.07712258
41	0xbc2c89c7	-0.010530896
42	0x3d8b4714	0.068006665
43	0xbd220a3e	-0.03956055
44	0xbdce83df	-0.10083746
45	0xbe4711c5	-0.19440372
46	0xbd3be753	-0.045874905
47	0x3e6f9e3a	0.23400202
48	0xbe240590	-0.16017747
49	0xbda55468	-0.0807274
50	0xbb79db77	-0.0038125196
51	0xbae62423	-0.0017558377
52	0xbde15642	-0.110027805
53	0x3ddbec5f	0.107384436
54	0x3e6348aa	0.22195688
55	0x3e060ec6	0.13091573
56	0xbe1bf3e9	-0.15229763
57	0x3d8e2e34	0.06942406
58	0x3b5a5414	0.0033314275
59	0x3dc71741	0.09721232
60	0xbd5eca87	-0.054392364
61	0xbdfd2a36	-0.12361567
62	0xbcad2ab4	-0.021138526
63	0xbe0601e2	-0.13086656
64	0xbd35db34	-0.0443985
65	0x3d89a581	0.067210205
66	0x3e4d8b51	0.20072676
67	0x3e54c362	0.20777658
68	0xbe611b4a	-0.21983066
69	0xbdf8c1e4	-0.12146357
70	0xbdc602e9	-0.09668524
71	0x3dc46256	0.095890686
72	0x3d9a7009	0.075409
73	0x3e66b660	0.22530508
74	0xbe6586ff	-0.22414778
75	0xbddd8d58	-0.10817975
76	0xbe05248b	-0.13002221
77	0xbd2f7a6f	-0.04284137
78	0xbc39b19c	-0.011333849
79	0xbc35ce7a	-0.011096591
80	0x3e374a5e	0.17899463
81	0x3cfd4d95	0.030920783
82	0xbd20aafd	-0.039225567
83	0xbdaf3c36	-0.08556406
84	0xbd9134ad	-0.07090125
85	0xbd659427	-0.056049492
86	0x390fa18e	0.00013697727
87	0xbe59f0be	-0.21283242
88	0x3dce1d57	0.1006419
89	0x3e33ac9b	0.17546313
90	0xbdadd3ac	-0.08487639
91	0x3e294010	0.16528344
92	0x3e06453e	0.13112351
93	0x3e0d0dcd	0.13774796
94	0xbd8cc48c	-0.06873426
95	0x3e6b50a9	0.22979988
96	0xbd6a522b	-0.057207268
97	0xbe5e2777	-0.21694742
98	0xbd2cae6e	-0.042158537
99	0x3e1de166	0.15418014
100	0xbdc5896b	-0.09645351
101	0x3c0ed533	0.008717823
102	0xbe679b60	-0.22617865
103	0x3cabe15f	0.020981489
104	0xbe15cbf4	-0.14628583
105	0xbdde52a8	-0.10855609
106	0x3e317b05	0.17332084
107	0xbd401006	-0.04689028
108	0x3e20b07d	0.15692325
109	0x3e10b84f	0.14132808
110	0xbe475119	-0.1946453
111	0xbc088b97	-0.008334062
112	0x3d8d1fbc	0.068908185
113	0x3d56bb92	0.052424975
114	0x3e18fb8b	0.14939706
115	0x3dfd0790	0.12354958
116	0xbe5025e1	-0.2032695
117	0x3d718def	0.05897325
118	0x3e61e87f	0.22061346
119	0xbe4cfef2	-0.20019129
120	0x3e57c5f2	0.21071604
121	0xbd4ecde1	-0.05048931
122	0xbe53a1c3	-0.20667176
123	0x3cfa47d4	0.030551828
124	0xbcfdacbf	-0.03096616
125	0x3e296455	0.1654218
126	0x3d03d95c	0.032189712
127	0xbd3a9f51	-0.045562092
128	0xbe20dc49	-0.15709032
129	0x3b4d3afa	0.003131567
130	0x3d9d5477	0.07682126
131	0xbd90d470	-0.07071769
132	0x3d81955b	0.063273154
133	0xbdefca6e	-0.11708532
134	0xbde07909	-0.109605856
135	0xbe39ecbe	-0.18156716
136	0xbe68b45d	-0.22725053
137	0x3c36ee81	0.011165262
138	0x3e15b92e	0.14621422
139	0xbdb4968a	-0.088177755
140	0x3e28e2b4	0.1649273
141	0x3d9d1fe3	0.076720975
142	0x3d3fe481	0.046848778
143	0x3d87f3ae	0.06638275
144	0x3e12e021	0.14343311
145	0xbe4ade50	-0.19811368
146	0x3e62ee42	0.221612
147	0xbd951d56	-0.07280986
148	0xbe68f497	-0.22749554
149	0xbe2e2c96	-0.17009196
150	0x3ded63e5	0.11591319
151	0xbd6870fb	-0.05674837
152	0x3e114da0	0.14189768
153	0xbe05905b	-0.13043348
154	0x3e460a0e	0.19339773
155	0x3e6df660	0.23238516
156	0xbe458968	-0.19290698
157	0x3e628d39	0.22124185
158	0x3be766d0	0.0070618168
159	0x3e24ada4	0.16081864
160	0x3dc42a9b	0.09578439
161	0x3e19e982	0.15030482

linear_net.0.bias f4 [9]
0	0xbd7c8989	-0.0616546
1	0x3e429c4c	0.19004935
2	0x3e18fc7d	0.14940067
3	0xbc9f2c80	-0.019430399
4	0x3e5c39f1	0.21506478
5	0x3e0fc5a7	0.14040242
6	0xbd022b78	-0.031779736
7	0x3d94ddb6	0.072688505
8	0xbd5748ef	-0.05255979

linear_net.2.weight f4 [1, 9]
0	0x3e2cc118	0.16870534
1	0xbe6dfa7b	-0.23240082
2	0xbd52f356	-0.051501594
3	0xbc9e8e16	-0.019354861
4	0xbc0ab6d6	-0.008466443
5	0xbcdc6c96	-0.026907247
6	0xbe407bf0	-0.18797278
7	0xba97a6ab	-0.0011570057
8	0x3e8cb212	0.27479607

exp_avg f4 [108, 36]
0	0xb88d2474	-6.730194e-05
1	0xb946ea54	-0.00018970045
2	0xb99350d6	-0.00028098252
3	0xb8a02abc	-7.6373544e-05
4	0x392f409e	0.00016713372
5	0xb8a6f599	-7.961243e-05
6	0xb8702bae	-5.726114e-05
7	0x389a4e17	7.3578376e-05
8	0x38b97a29	8.8442415e-05
9	0xb99d5ca6	-0.00030014402
10	0x38f6226c	0.00011736606
11	0xb97410f5	-0.0002327597
12	0xb94867b9	-0.00019112126
13	0xb786e1c2	-1.6079171e-05
14	0x392349e1	0.00015572413
15	0x3988ea15	0.00026114346
16	0xb973c037	-0.00023245891
17	0xb89f32bb	-7.59116e-05
18	0x36b53fa3	5.4016286e-06
19	0x3766261d	1.3717942e-05
20	0xb77b1677	-1.4965996e-05
21	0xb61c6d10	-2.3309294e-06
22	0xb6dd2b36	-6.5913437e-06
23	0xb753d2d7	-1.262567e-05
24	0xb61ecc78	-2.3662851e-06
25	0xb7669667	-1.3744087e-05
26	0xb5641749	-8.4970503e-07
27	0xb768d562	-1.387796e-05
28	0xb4a3ec8f	-3.0533235e-07
29	0xb7691ecc	-1.3895053e-05
30	0xb3eba437	-1.0972911e-07
31	0xb7692844	-1.3897257e-05
32	0xb3295eb4	-3.943451e-08
33	0xb769297c	-1.3897541e-05
34	0xb2737938	-1.41720236e-08
35	0xb76929a5	-1.3897578e-05
36	0xb84a456a	-4.82252e-05
37	0xb93eff53	-0.00018214928
38	0xb971626e	-0.00023020219
39	0xb79a879e	-1.8421382e-05
40	0x389cd5ef	7.478508e-05
41	0xb8be985d	-9.088286e-05
42	0xb3066772	-3.129339e-08
43	0x3706e21a	8.039666e-06
44	0xb7070dc5	-8.049833e-06
45	0xb9862282	-0.00025584182
46	0x391248e6	0.00013950802
47	0xb9480c78	-0.00019078131
48	0xb8f9137f	-0.00011876877
49	0xb895a141	-7.1349095e-05
50	0x3936e6cd	0.00017442853
51	0x3914beb6	0.00014185425
52	0xb93cb787	-0.00017997446
53	0xb7f513a3	-2.921542e-05
54	0xb67a59fc	-3.730528e-06
55	0xb6d54fc8	-6.3571824e-06
56	0xb78f7370	-1.7100683e-05
57	0xb72d2afb	-1.0321611e-05
58	0x34240746	1.5276336e-07
59	0xb769b93c	-1.39310105e-05
60	0x35573406	8.0169445e-07
61	0xb734614e	-1.0751492e-05
62	0x34af5fab	3.2665898e-07
63	0xb72bc2d8	-1.023776e-05
64	0x33ffffac	1.1920869e-07
65	0xb72a9dfe	-1.0169575e-05
66	0x33385d52	4.2925713e-08
67	0xb72a7807	-1.0160736e-05
68	0x32848c48	1.5430615e-08
69	0xb72a731f	-1.0159593e-05
70	0x31be8c21	5.5456586e-09
71	0xb72a727d	-1.0159446e-05
72	0xb813f034	-3.5271238e-05
73	0xb9121f57	-0.0001393532
74	0xb93eaf40	-0.00018185098
75	0xb766cbc3	-1.375651e-05
76	0x3881fab5	6.197897e-05
77	0xb88c9546	-6.7035246e-05
78	0xb6f56fa1	-7.3145643e-06
79	0x374c5ab3	1.2180465e-05
80	0xb63cfe5b	-2.8162237e-06
81	0xb950ed98	-0.00019924936
82	0x38dda67b	0.000105691106
83	0xb9185056	-0.00014525777
84	0xb8cbb8a8	-9.714189e-05
85	0xb8442d89	-4.677245e-05
86	0x390a39af	0.00013182194
87	0x38f0035e	0.00011444719
88	0xb9102e23	-0.00013750097
89	0xb7c7f91e	-2.3838653e-05
90	0xb6b39c20	-5.352791e-06
91	0xb6f0fb1d	-7.181791e-06
92	0xb7cb0b44	-2.4204732e-05
93	0xb73a91b3	-1.1120387e-05
94	0x36141ed0	2.2071654e-06
95	0xb7757e4f	-1.46325465e-05
96	0x360a2077	2.05825e-06
97	0xb716683e	-8.9649675e-06
98	0x35581003	8.048957e-07
99	0xb7073af4	-8.060353e-06
100	0x349cf1b3	2.9233124e-07
101	0xb70537e7	-7.9404335e-06
102	0x33e1eaeb	1.052011e-07
103	0xb704f52c	-7.924897e-06
104	0x332268df	3.7813944e-08
105	0xb704ec91	-7.922893e-06
106	0x32697928	1.3589933e-08
107	0xb704eb74	-7.922634e-06
108	0xb893f5eb	-7.055312e-05
109	0xb94ed1e7	-0.00019723886
110	0xb98b652c	-0.00026587525
111	0xb88d0804	-6.724897e-05
112	0x3912273f	0.00013938265
113	0xb8c4313d	-9.35518e-05
114	0xb7d006df	-2.4798732e-05
115	0x3836edc4	4.3613618e-05
116	0x387becf2	6.0063736e-05
117	0xb99a1aba	-0.00029393082
118	0x3909ad72	0.00013129952
119	0xb977a713	-0.00023617996
120	0xb92c8ca3	-0.0001645559
121	0xb85dee52	-5.291246e-05
122	0x39350b79	0.00017265779
123	0x396f161f	0.00022801057
124	0xb97351a0	-0.00023204694
125	0xb88615ca	-6.3936764e-05
126	0x36672f1f	3.444911e-06
127	0x370d10f7	8.408205e-06
128	0xb7c5f041	-2.3596107e-05
129	0xb6a2eb01	-4.8553343e-06
130	0xb69e3d31	-4.7158906e-06
131	0xb780cdee	-1.5354683e-05
132	0xb5994996	-1.1420805e-06
133	0xb768686e	-1.3852592e-05
134	0xb4ccd3bd	-3.815202e-07
135	0xb763bfa3	-1.3574873e-05
136	0xb411c231	-1.3574824e-07
137	0xb7631f22	-1.3537503e-05
138	0xb351425a	-4.872195e-08
139	0xb7630a49	-1.3532649e-05
140	0xb29661e7	-1.7506819e-08
141	0xb76307a1	-1.3532031e-05
142	0xb1d82c94	-6.2914953e-09
143	0xb7630742	-1.3531944e-05
144	0xb8dcece4	-0.00010534542
145	0xb9832e04	-0.0002502055
146	0xb995a4f3	-0.0002854239
147	0xb8c16bba	-9.223023e-05
148	0x391029f2	0.00013748536
149	0xb914650c	-0.00014152023
150	0x3811d97d	3.4773246e-05
151	0x35d4656b	1.5824747e-06
152	0x38569027	5.115583e-05
153	0xb9b2f731	-0.00034134978
154	0x3936970f	0.00017413146
155	0xb9a1aedb	-0.0003083859
156	0xb92002cb	-0.0001525983
157	0xb910252b	-0.00013746756
158	0x39741eef	0.00023281177
159	0x397bb2ec	0.00024003879
160	0xb99cfee4	-0.00029944547
161	0xb8919d87	-6.9434805e-05
162	0x36e4ff68	6.8246627e-06
163	0x378b99fc	1.6641796e-05
164	0xb8193e89	-3.6536283e-05
165	0xb7665f8b	-1.3731314e-05
166	0xb6229009	-2.422372e-06
167	0xb7be4d14	-2.2685657e-05
168	0x34d65662	3.9923458e-07
169	0xb793ac30	-1.7603947e-05
170	0x34606d5c	2.090141e-07
171	0xb78cb157	-1.677188e-05
172	0x33a7ee34	7.8198724e-08
173	0xb78bc3d5	-1.6661283e-05
174	0x32f2a2f6	2.8246614e-08
175	0xb78ba50e	-1.664695e-05
176	0x322e8341	1.0157977e-08
177	0xb78ba112	-1.6645095e-05
178	0x317ae318	3.6508876e-09
179	0xb78ba08f	-1.6644857e-05
180	0x381cfcc8	3.742872e-05
181	0x3904b044	0.00012654165
182	0x39245a79	0.00015673962
183	0x37a0a0e5	1.9148409e-05
184	0xb866e3be	-5.5048375e-05
185	0x38878c4f	6.463436e-05
186	0xb675e671	-3.664198e-06
187	0xb69616e2	-4.4730123e-06
188	0x3232ffe8	1.041915e-08
189	0x39393b79	0.0001766513
190	0xb8c7cb33	-9.526908e-05
191	0x390fa519	0.00013699046
192	0x38ab695a	8.173539e-05
193	0x38613a6c	5.369859e-05
194	0xb8fd27e7	-0.000120714125
195	0xb8d72e9b	-0.0001026068
196	0x39087337	0.00013012892
197	0x37c0ce60	2.2984284e-05
198	0x354361c6	7.278544e-07
199	0x35f585a0	1.8292812e-06
200	0x37de312c	2.648736e-05
201	0x3757a55b	1.2853498e-05
202	0xb62f3c1d	-2.6112023e-06
203	0x377814a7	1.478676e-05
204	0xb618c963	-2.2766988e-06
205	0x371028b2	8.592544e-06
206	0xb56e113e	-8.8687e-07
207	0x36ff7fdb	7.6144765e-06
208	0xb4acd8d5	-3.2195263e-07
209	0x36fb2792	7.4849895e-06
210	0xb3f8cb6b	-1.15854014e-07
211	0x36fa9777	7.4682134e-06
212	0xb332daad	-4.164274e-08
213	0x36fa84de	7.4660484e-06
214	0xb2808e76	-1.4965945e-08
215	0x36fa8273	7.465767e-06
216	0xb92cfda1	-0.00016497682
217	0xb9eca901	-0.00045139345
218	0xba0bc969	-0.00053324417
219	0xb90195ab	-0.00012358154
220	0x396b7b3c	0.00022457255
221	0xb980c3e8	-0.00024560024
222	0x38316d81	4.2302072e-05
223	0x36f021b1	7.1564796e-06
224	0x3859e0a5	5.194605e-05
225	0xba22de88	-0.00062129693
226	0x39aab19a	0.0003255725
227	0xba0a16ac	-0.00052676606
228	0xb99281d4	-0.0002794402
229	0xb96b7938	-0.00022456504
230	0x39de9d2b	0.0004246024
231	0x39d3015e	0.00040246075
232	0xba04d076	-0.00050664635
233	0xb8de5943	-0.00010602411
234	0xb570ab7f	-8.9656527e-07
235	0x3730ab4e	1.05303025e-05
236	0xb877be90	-5.9066864e-05
237	0xb7cbb510	-2.42838e-05
238	0xb605d0a9	-1.994e-06
239	0xb825bdc9	-3.9515817e-05
240	0x35db4591	1.6337018e-06
241	0xb7fb652a	-2.996864e-05
242	0x353e41f2	7.087648e-07
243	0xb7ee49a0	-2.8406095e-05
244	0x348bd2be	2.6044103e-07
245	0xb7ec8b9e	-2.8198407e-05
246	0x33c99263	9.3864195e-08
247	0xb7ec51cd	-2.8171484e-05
248	0x3310ef6a	3.374536e-08
249	0xb7ec4a55	-2.8168006e-05
250	0x32505b9f	1.2128026e-08
251	0xb7ec4962	-2.8167564e-05
252	0xb8e3b582	-0.00010858012
253	0xb9a66294	-0.00031735434
254	0xb9c4c59c	-0.00037531264
255	0xb894d68d	-7.097153e-05

exp_avg_sq f4 [108, 36]
0	0x368eb5a1	4.253074e-06
1	0x37952411	1.7778979e-05
2	0x38575dc0	5.1347306e-05
3	0x372f597e	1.0451649e-05
4	0x380e4555	3.392001e-05
5	0x362f2b79	2.6102337e-06
6	0x3706a4d0	8.025396e-06
7	0x372d040c	1.0312546e-05
8	0x37a2126f	1.9320489e-05
9	0x38642a38	5.4398755e-05
10	0x368a7fe5	4.1276094e-06
11	0x381876fd	3.635044e-05
12	0x380fc94b	3.4281325e-05
13	0x362ffd74	2.6224561e-06
14	0x370dfb00	8.462695e-06
15	0x38955156	7.120024e-05
16	0x3828152b	4.0074035e-05
17	0x370dd6fd	8.454311e-06
18	0x31270aa6	2.4307751e-09
19	0x3192d649	4.2735206e-09
20	0x32b5d7e1	2.1169344e-08
21	0x32e4d962	2.6641548e-08
22	0x3349815c	4.691661e-08
23	0x3375a3d8	5.7192523e-08
24	0x3212dd28	8.548604e-09
25	0x33e55291	1.0678662e-07
26	0x309e8452	1.1533621e-09
27	0x33f8800d	1.1571692e-07
28	0x2f24b5cc	1.49803e-10
29	0x33fb1586	1.16920134e-07
30	0x2daa4f12	1.9361877e-11
31	0x33fb6b77	1.1707646e-07
32	0x2c2ffc70	2.5009127e-12
33	0x33fb7699	1.1709671e-07
34	0x2ab5d691	3.2300944e-13
35	0x33fb77fa	1.1709922e-07
36	0x35c8a41b	1.4948922e-06
37	0x369a65cf	4.6014097e-06
38	0x3730f33f	1.0547053e-05
39	0x365699eb	3.1978077e-06
40	0x37009c95	7.665852e-06
41	0x357ecab7	9.491736e-07
42	0x3579dde0	9.30826e-07
43	0x35d89928	1.6137828e-06
44	0x369be965	4.6465307e-06
45	0x37523497	1.252922e-05
46	0x35937621	1.0986734e-06
47	0x372bb5e9	1.02347485e-05
48	0x36e37737	6.7790056e-06
49	0x34aa3f2b	3.1710928e-07
50	0x36233e9a	2.4325332e-06
51	0x3789c925	1.6425338e-05
52	0x373b4850	1.1162905e-05
53	0x360edc58	2.1287906e-06
54	0x30455bef	7.179883e-10
55	0x3087c74f	9.87919e-10
56	0x31c15aff	5.6273843e-09
57	0x31e52de8	6.669996e-09
58	0x324db6fd	1.1974177e-08
59	0x328b85e8	1.6242623e-08
60	0x311672e7	2.1893187e-09
61	0x32fc806b	2.9395059e-08
62	0x2fa274c5	2.9550598e-10
63	0x330860b7	3.175293e-08
64	0x2e28cff9	3.8383494e-11
65	0x3309bdd9	3.2070464e-08
66	0x2cae8d41	4.9610598e-12
67	0x3309eb33	3.211171e-08
68	0x2b345ef7	6.4080636e-13
69	0x3309f110	3.2117043e-08
70	0x29ba5e5e	8.2764294e-14
71	0x3309f1d7	3.211775e-08
72	0x3495576f	2.781703e-07
73	0x35b36346	1.3365432e-06
74	0x368301aa	3.904298e-06
75	0x35364578	6.7901374e-07
76	0x361ffb8e	2.383927e-06
77	0x3458be1d	2.018573e-07
78	0x352da3d9	6.468595e-07
79	0x354f85e1	7.730833e-07
80	0x35b16d0a	1.3219262e-06
81	0x36890e3f	4.0845766e-06
82	0x34b9160c	3.4474976e-07
83	0x362fcbc3	2.6195637e-06
84	0x362e3972	2.5961458e-06
85	0x347ca1fe	2.3528261e-07
86	0x353282f8	6.650075e-07
87	0x36a8e305	5.0332187e-06
88	0x3642e471	2.9041223e-06
89	0x351e484b	5.8964787e-07
90	0x2fc5633d	3.5904604e-10
91	0x2fd73335	3.9144657e-10
92	0x30f4c666	1.7809725e-09
93	0x30b87d96	1.3423456e-09
94	0x31527117	3.0623306e-09
95	0x31881478	3.960448e-09
96	0x30197bbd	5.583692e-10
97	0x31fd845a	7.3783157e-09
98	0x2ea5b3c8	7.535267e-11
99	0x32093f4e	7.988843e-09
100	0x2d2c2e8e	9.787405e-12
101	0x320aa8de	8.071053e-09
102	0x2bb2090e	1.2650174e-12
103	0x320ad7c4	8.081717e-09
104	0x2a37f873	1.6339863e-13
105	0x320adde5	8.08311e-09
106	0x28be1686	2.1104005e-14
107	0x320adea9	8.083284e-09
108	0x361cf306	2.338727e-06
109	0x372842e1	1.0029152e-05
110	0x37eb10c2	2.8021987e-05
111	0x36bc97b4	5.620497e-06
112	0x3797e7e4	1.8108585e-05
113	0x35cbe46c	1.5191158e-06
114	0x368a6a45	4.125092e-06
115	0x36b4c5dd	5.3874523e-06
116	0x372ba483	1.0230698e-05
117	0x37fb8214	2.9982104e-05
118	0x36286853	2.5094675e-06
119	0x37a7b9ca	1.9994466e-05
120	0x3798fd8c	1.8237879e-05
121	0x35b97c54	1.3819758e-06
122	0x36a8b0fc	5.027394e-06
123	0x38203333	3.8194656e-05
124	0x37b731bd	2.1838461e-05
125	0x36968a96	4.486482e-06
126	0x31141bc9	2.1552629e-09
127	0x3153eaa3	3.0837917e-09
128	0x326271b6	1.3180786e-08
129	0x3289ea46	1.6055434e-08
130	0x32e5caae	2.6751277e-08
131	0x3309bb09	3.2067906e-08
132	0x31a74c65	4.8690247e-09
133	0x3380171e	5.9646695e-08
134	0x30348f72	6.5687467e-10
135	0x338acce5	6.463396e-08
136	0x2ebb9ceb	8.53165e-11
137	0x338c3e85	6.53063e-08
138	0x2d41fd6c	1.1027051e-11
139	0x338c6e8a	6.539365e-08
140	0x2bc874f8	1.424332e-12
141	0x338c74ba	6.5404905e-08
142	0x2a4f1f5c	1.8396173e-13
143	0x338c7584	6.540634e-08
144	0x368d493d	4.2106535e-06
145	0x37949fa4	1.7717313e-05
146	0x38371723	4.3652148e-05
147	0x371a6e12	9.204743e-06
148	0x37de54b5	2.6503907e-05
149	0x36538af7	3.1522338e-06
150	0x36a30844	4.858741e-06
151	0x36e586ba	6.840416e-06
152	0x377b6b72	1.4985782e-05
153	0x384d1046	4.8890965e-05
154	0x36b13440	5.2810938e-06
155	0x380ea85c	3.4012235e-05
156	0x37de6ab3	2.6514148e-05
157	0x35efeadb	1.787524e-06
158	0x372a3485	1.0145018e-05
159	0x386f66c9	5.7077767e-05
160	0x38194fbc	3.65523e-05
161	0x36e35a66	6.775651e-06
162	0x31c334bf	5.6812435e-09
163	0x320c0147	8.149363e-09
164	0x32c38bd9	2.2764583e-08
165	0x32ea3c58	2.7268626e-08
166	0x333d7713	4.411329e-08
167	0x336b4841	5.4780916e-08
168	0x320a3277	8.044132e-09
169	0x33d92358	1.0111279e-07
170	0x309530de	1.0855066e-09
171	0x33eb1da5	1.09484326e-07
172	0x2f1b05fd	1.4099295e-10
173	0x33ed8a0c	1.1061283e-07
174	0x2da04b1e	1.8223253e-11
175	0x33eddaa3	1.1075942e-07
176	0x2c25a31d	2.3538456e-12
177	0x33ede503	1.10778295e-07
178	0x2aab2514	3.040143e-13
179	0x33ede665	1.1078081e-07
180	0x3569d0a0	8.7102853e-07
181	0x36633089	3.3853887e-06
182	0x370eca4f	8.510963e-06
183	0x360615f6	1.998034e-06
184	0x36bea2e8	5.681406e-06
185	0x35247f9e	6.128047e-07
186	0x358a36d8	1.0297763e-06
187	0x35c82f47	1.4914921e-06
188	0x3661476f	3.3569193e-06
189	0x37202ed0	9.547643e-06
190	0x3572f1ec	9.050407e-07
191	0x36e84ea9	6.923296e-06
192	0x36b5e166	5.42046e-06
193	0x34d37475	3.9386546e-07
194	0x35f5135a	1.8259555e-06
195	0x374a8579	1.2071215e-05
196	0x36fc2cb4	7.5153894e-06
197	0x35c42c61	1.4616054e-06
198	0x30b88424	1.3425319e-09
199	0x30cfc930	1.5118413e-09
200	0x31b6978c	5.314126e-09
201	0x31b5e8c3	5.2942553e-09
202	0x320debfe	8.260939e-09
203	0x324b9f0e	1.185232e-08
204	0x30cd75cb	1.4949192e-09
205	0x32b0c794	2.0579854e-08
206	0x2f5da0c7	2.0156952e-10
207	0x32be3447	2.2142684e-08
208	0x2de644fb	2.6178606e-11
209	0x32c0032a	2.235318e-08
210	0x2c6e182e	3.3835257e-12
211	0x32c03f46	2.2380515e-08
212	0x2af60801	4.3703932e-13
213	0x32c0470b	2.2384048e-08
214	0x297e3654	5.6446452e-14
215	0x32c04807	2.2384496e-08
216	0x368b589c	4.1528383e-06
217	0x37869655	1.6044049e-05
218	0x381d2751	3.7468333e-05
219	0x370ebe9f	8.508242e-06
220	0x37bbf996	2.240836e-05
221	0x364dc2fe	3.066088e-06
222	0x366b5a79	3.507039e-06
223	0x36ac2aaf	5.1309685e-06
224	0x37518be1	1.2489939e-05
225	0x38346aff	4.3014992e-05
226	0x36a15ff0	4.8093425e-06
227	0x3802c1c1	3.1174863e-05
228	0x37baf8c8	2.2288776e-05
229	0x35accf8d	1.2875404e-06
230	0x371d5947	9.378716e-06
231	0x384cfc46	4.8872338e-05
232	0x380c408b	3.343871e-05
233	0x36c7c518	5.953607e-06
234	0x31b7b7ba	5.3468883e-09
235	0x31ac19d7	5.0087965e-09
236	0x329d2330	1.8293207e-08
237	0x32b06d97	2.0538932e-08
238	0x332ce02c	4.0250754e-08
239	0x334a60e2	4.7119904e-08
240	0x31fc059d	7.3348034e-09
241	0x33c2b04a	9.065896e-08
242	0x30880324	9.896195e-10
243	0x33d378c0	9.8474175e-08
244	0x2f0d5398	1.2853574e-10
245	0x33d5bb73	9.952682e-08
246	0x2d922169	1.6613115e-11
247	0x33d6068a	9.966341e-08
248	0x2c17007c	2.145866e-12
249	0x33d61048	9.968113e-08
250	0x2a9c05e8	2.7715265e-13
251	0x33d61192	9.9683476e-08
252	0x36654480	3.4163531e-06
253	0x374b6a24	1.2124456e-05
254	0x37f5368e	2.923168e-05
255	0x36fb06ad	7.48116e-06

exp_avg f4 [108]
0	0xb76929ac	-1.3897585e-05
1	0xb72a7266	-1.0159425e-05
2	0xb704eb4a	-7.922596e-06
3	0xb7630735	-1.3531932e-05
4	0xb78ba07c	-1.6644823e-05
5	0x36fa821b	7.465727e-06
6	0xb7ec493c	-2.8167495e-05
7	0xb7a0b09b	-1.9155725e-05
8	0xb75e44ee	-1.324828e-05
9	0xb70ac218	-8.270632e-06
10	0x36747136	3.642473e-06
11	0x3694de23	4.436604e-06
12	0xb4cd37d1	-3.8224837e-07
13	0x3633a0c3	2.6766654e-06
14	0x364db21a	3.065105e-06
15	0x3756257d	1.2764122e-05
16	0x35d1182b	1.5578747e-06
17	0xb726a821	-9.933517e-06
18	0x37241992	9.781115e-06
19	0x36bcb50e	5.623914e-06
20	0x37caed92	2.4190904e-05
21	0x36d9b65b	6.488333e-06
22	0x35d2dd1c	1.571057e-06
23	0xb65722ad	-3.205768e-06
24	0x368457b7	3.944118e-06
25	0xb69357df	-4.391171e-06
26	0xb71703c2	-9.001176e-06
27	0xb7d81b65	-2.5761963e-05
28	0x367e9557	3.7935877e-06
29	0x36b997ab	5.531086e-06
30	0x379bcea9	1.8573674e-05
31	0x371a62b9	9.202101e-06
32	0xb762e730	-1.3524477e-05
33	0x36227963	2.4210538e-06
34	0xb610a28a	-2.1552282e-06
35	0xb64a3070	-3.012854e-06
36	0x318c5cec	4.0851003e-09
37	0x32b4036b	2.0956312e-08
38	0xb28cc804	-1.6389102e-08
39	0x32018944	7.539999e-09
40	0xb233d5a5	-1.04677484e-08
41	0x31ca11eb	5.881011e-09
42	0x3169d702	3.402818e-09
43	0x318e799b	4.146569e-09
44	0xb2163a30	-8.744379e-09
45	0x2fd9bbf1	3.960561e-10
46	0xb1b33d01	-5.216521e-09
47	0xb1ea2d80	-6.815469e-09
48	0x31b2468f	5.1885034e-09
49	0xb0c1b19f	-1.4093081e-09
50	0xb29bd918	-1.8143098e-08
51	0xb1678721	-3.3691736e-09
52	0x30ae2650	1.2671055e-09
53	0x319028fb	4.1956105e-09
54	0xb11106ef	-2.1104218e-09
55	0x3198d842	4.448368e-09
56	0xb292e6f2	-1.7101659e-08
57	0xb2087b32	-7.944253e-09
58	0xb19b5032	-4.520211e-09
59	0xb15a9445	-3.1807457e-09
60	0xb1973b89	-4.4014468e-09
61	0xb20195df	-7.542865e-09
62	0x2dd72a63	2.4461494e-11
63	0x311b3681	2.258645e-09
64	0xb1815511	-3.764065e-09
65	0x31a9cf0a	4.942085e-09
66	0xb24a5200	-1.1776592e-08
67	0xaf6915ee	-2.1199018e-10
68	0xb1d59d7d	-6.2170202e-09
69	0xb29f8a9f	-1.8573074e-08
70	0xb2bb1101	-2.1777398e-08
71	0x32632f07	1.3223832e-08
72	0x39c4bc0e	0.00037524145
73	0xba3f7ae0	-0.00073043816
74	0x399a3025	0.0002940904
75	0xb914dac8	-0.00014195882
76	0x39f80645	0.00047306917
77	0x3998bca8	0.0002913226
78	0x3994ff29	0.0002841887
79	0x3a01b364	0.0004947691
80	0x39016bdf	0.00012342584
81	0x39e4a528	0.000436106
82	0x38dc70eb	0.0001051145
83	0xba34691c	-0.00068821176
84	0x399b97c2	0.00029676972
85	0xba6a120c	-0.0008929081
86	0xb9ac7ce5	-0.0003289945
87	0x39a7c61a	0.0003200032
88	0xb7b86259	-2.1980306e-05
89	0x38556fe3	5.088736e-05
90	0xb982789b	-0.0002488539
91	0x37b120a3	2.1115242e-05
92	0xb9913fad	-0.00027703997
93	0x39d0ca42	0.00039823545
94	0xba15420b	-0.000569374
95	0x39bdafc4	0.00036179845
96	0xb8a9fea9	-8.105982e-05
97	0x3900bb2e	0.00012276761
98	0xb9f6dd4b	-0.00047085652
99	0x386b1d0f	5.605543e-05
100	0xb9890393	-0.0002613334
101	0xb8bc7e4b	-8.9880625e-05
102	0xb91e4224	-0.00015092694
103	0xb90d92e5	-0.0001350153
104	0x39a4aa95	0.0003140761
105	0x38b8ee70	8.818216e-05
106	0x39bd7c67	0.00036141576
107	0xb9db7526	-0.00041858217

exp_avg_sq f4 [108]
0	0x33fb7832	1.1709962e-07
1	0x3309f1f4	3.2117853e-08
2	0x320adebf	8.083304e-09
3	0x338c75a2	6.540655e-08
4	0x33ede69c	1.107812e-07
5	0x32c0482e	2.2384565e-08
6	0x33d611c0	9.96838e-08
7	0x33af35ac	8.1588354e-08
8	0x32bedddb	2.22198e-08
9	0x32340d71	1.0480435e-08
10	0x32e46009	2.6586365e-08
11	0x32acfe20	2.0138998e-08
12	0x3216631a	8.753682e-09
13	0x3292c824	1.708765e-08
14	0x318a0703	4.0171257e-09
15	0x331475c4	3.4566042e-08
16	0x32c53c11	2.2961133e-08
17	0x33b83d36	8.579302e-08
18	0x336d18fe	5.5203593e-08
19	0x3226b782	9.704197e-09
20	0x34493d3d	1.8741862e-07
21	0x330104bd	3.0039462e-08
22	0x32723095	1.40973e-08
23	0x32fab3ec	2.918565e-08
24	0x31e34bfc	6.615208e-09
25	0x32b18771	2.0667104e-08
26	0x330f334a	3.334143e-08
27	0x33e385b5	1.05948324e-07
28	0x32beb74c	2.2202265e-08
29	0x3259a781	1.2669148e-08
30	0x34318ea4	1.6536302e-07
31	0x328a9bb5	1.6136122e-08
32	0x322a558a	9.914752e-09
33	0x32fd51c9	2.9490268e-08
34	0x327cc338	1.4712718e-08
35	0x3257cdc4	1.2561433e-08
36	0x259e7758	2.7489501e-16
37	0x281b79e1	8.630657e-15
38	0x2804af19	7.36544e-15
39	0x25b2fa11	3.104753e-16
40	0x26d05c99	1.4457998e-15
41	0x269b6059	1.0781401e-15
42	0x264bb7eb	7.067903e-16
43	0x25848698	2.2989554e-16
44	0x26cba45c	1.4130504e-15
45	0x25f9be6b	4.3323647e-16
46	0x260c7d7e	4.874233e-16
47	0x26d9df7c	1.5117975e-15
48	0x265b345b	7.6051843e-16
49	0x24bdd496	8.232582e-17
50	0x277d50cb	3.5154601e-15
51	0x25eaa547	4.0704526e-16
52	0x258e0153	2.463397e-16
53	0x25456425	1.7120957e-16
54	0x2691bc55	1.0112444e-15
55	0x257a2350	2.1696008e-16
56	0x279e406e	4.3923664e-15
57	0x262782e0	5.8117133e-16
58	0x24886d45	5.916571e-17
59	0x26ec7206	1.6406696e-15
60	0x269837c4	1.0562234e-15
61	0x26f1c347	1.6775664e-15
62	0x25ec06a5	4.0943977e-16
63	0x26affafa	1.2211092e-15
64	0x271ba878	2.1601898e-15
65	0x275ebdc0	3.0911553e-15
66	0x2634452a	6.254378e-16
67	0x2517620a	1.3130379e-16
68	0x26f59745	1.7041292e-15
69	0x27c94e17	5.5873372e-15
70	0x27ce8343	5.73188e-15
71	0x2785dac9	3.7152123e-15
72	0x37b98a1c	2.211803e-05
73	0x3a12f7f2	0.0005606405
74	0x381547a2	3.559108e-05
75	0x37397903	1.10550345e-05
76	0x372aed9d	1.0188113e-05
77	0x374e3e91	1.2293124e-05
78	0x39a5a187	0.000315916
79	0x37b9958b	2.2123355e-05
80	0x368d256c	4.206484e-06
81	0x396a8e4e	0.00022368992
82	0x383edf12	4.550728e-05
83	0x38e72c80	0.00011023227
84	0x370e5f67	8.486072e-06
85	0x3a4d30f2	0.0007827423
86	0x3930c4a1	0.00016857918
87	0x37bc02c5	2.2412636e-05
88	0x3790c444	1.7257531e-05
89	0x375461cf	1.26589575e-05
90	0x37f18fc6	2.8796389e-05
91	0x38132f60	3.5091653e-05
92	0x395dc1cb	0.00021148396
93	0x376dd210	1.417521e-05
94	0x39b71212	0.00034917943
95	0x386d9a23	5.6648754e-05
96	0x38c2e8b9	9.293989e-05
97	0x3730a223	1.0528168e-05
98	0x38855211	6.35722e-05
99	0x389b4487	7.40374e-05
100	0x36e8817a	6.929212e-06
101	0x365128bf	3.1167144e-06
102	0x3787ef96	1.620482e-05
103	0x3689e8eb	4.1100334e-06
104	0x37b9b128	2.2136213e-05
105	0x37959dbf	1.783564e-05
106	0x393db7b9	0.00018092887
107	0x391651f0	0.00014335639
