SensorFormer/SensorFormer/result/individual/LCS10_8.pt (torch, 81661 bytes, 35 tensors)

self_attn.qkv_proj.weight f4 [108, 36]
-0.14497417 -0.19833617 -0.106592715 -0.073488 -0.123079896 0.10741759 -0.10866383 0.17613965
0.031321943 0.17262031 -0.08060954 -0.016790112 0.15983629 -0.04087742 0.02924656 0.04270555
0.18192638 -0.14981395 -0.16331173 -0.1908319 -0.054620583 0.043095402 0.1263545 -0.18257466
0.038444504 -0.14597334 0.062916666 0.01866146 0.011269293 -0.0022102022 0.06090142 0.1693587
-0.04270628 0.16464844 0.084885135 -0.035050564 0.15166838 -0.17160763 -0.016701216 -0.13403553
0.16425027 -0.12907074 -0.019630771 0.048850235 -0.054745488 -0.19399637 0.13168836 0.009407118
-0.10237363 -0.1270027 -0.2186386 -0.11082961 -0.036798995 0.1591752 0.0641036 0.17372906
0.08493783 0.086702295 -0.027444804 -0.025953567 0.018759213 0.2176995 -0.13176857 0.18485294
0.02216618 0.06600358 -0.121981554 0.22410159 0.13453153 0.17360148 -0.11941916 0.075037904
-0.17214835 -0.01237232 0.15182483 -0.05244304 0.024990993 -0.030231249 -0.025814455 0.044827312
0.009243883 0.10096323 0.026327522 -0.1709766 -0.010329746 -0.05996573 0.104874164 -0.14370154
0.15835163 -0.17683928 -0.08803096 -0.1017299 0.13333833 0.061118774 0.12628883 0.11305982
0.10852458 -0.06143876 0.08647242 0.08294938 -0.04632336 0.054491624 -0.016473804 -0.079732634
-0.06299059 -0.08223311 0.12444709 0.079754926 0.03460874 -0.065057434 0.07829217 -0.062052652
0.10391707 -0.17790413 0.052232426 0.012879359 -0.069368 0.16349313 -0.04015864 0.0152818365
0.19197291 -0.04721688 0.06747413 0.1697118 0.015490056 -0.14176506 0.17727068 0.16212435
0.18343396 -0.074107066 -0.14975387 0.076796986 0.13368379 0.20572682 -0.07231208 0.10097351
0.08965135 -0.042214468 -0.10872894 -0.08804465 -0.13326326 -0.0045301896 0.18855272 -0.13822117
0.073615566 0.16240174 -0.14560513 0.18041441 -0.18337217 0.060000073 -0.073009685 -0.13672923
-0.09397583 -0.20521455 0.10589903 0.0023017542 -0.20439644 6.0714367e-05 -0.07369059 0.16596264
-0.04394295 -0.18984282 -0.12611449 -0.032222793 -0.12708642 -0.0722064 -0.16859621 -0.040746465
0.16670941 -0.17127432 -0.16621003 -0.015858179 0.101160906 0.159036 -0.047936227 -0.07971032
-0.1141173 0.1993226 0.12143084 -0.15244341 0.12278462 -0.00951952 0.06873978 -0.019962588
0.037526816 0.029160365 -0.08151403 -0.036711495 0.085817076 -0.10767963 -0.07985233 -0.09718507
0.024903167 -0.137235 0.096288145 0.0038204715 0.11713117 0.17628874 -0.07571113 -0.07689356
-0.13156457 0.08603725 0.031904384 -0.109408334 -0.069260545 0.17861626 0.11563299 -0.021714522
0.06478185 -0.21910802 -0.030632632 -0.13191344 -0.061418258 -0.055564865 0.05310318 0.044708963
-0.05376974 -0.09968633 0.037568208 0.19242832 0.10386543 -0.1802661 -0.10377628 -0.11836077
0.071515486 0.13182974 0.1988769 0.18623202 -0.16656035 -0.06771742 -0.030000279 -0.08991188
-0.007411549 -0.04909691 -0.093170926 -0.115915395 0.09610432 -0.006032353 0.17372827 -0.10818844
-0.12302058 0.16867341 0.014601913 -0.13308288 0.15605381 -0.061986964 -0.081791215 0.117517486
0.117364526 0.0719216 -0.1931839 0.0015251125 0.08075726 -0.0197975 0.15071921 0.1651492
00000000: 1c74 14be a318 4bbe 484d dabd e080 96bd
00000010: 5011 fcbd c1fd db3d 248b debd f45d 343e
00000020: 704b 003d 61c3 303e 9d16 a5bd 6b8b 89bc
00000030: 20ac 233e 156f 27bd 7b96 ef3c 04ec 2e3d
00000040: e94a 3a3e d468 19be 313b 27be 7069 43be
00000050: d5b9 5fbd ce84 303d 1363 013e daf4 3abe
00000060: fc77 1d3d 097a 15be 74da 803d ebdf 983c
00000070: d7a2 383c 0ad9 10bb c473 793d 5e6c 2d3e
00000080: c8ec 2ebd 9a99 283e 42d8 ad3d 2e91 0fbd
00000090: f54e 1b3e e9b9 2fbe fdd0 88bc 9c40 09be
000000a0: 3931 283e 1f2b 04be b6d0 a0bc 2f17 483d
000000b0: ce3c 60bd fca6 46be 50d9 063e 5020 1a3c
000000c0: 44a9 d1bd ff0c 02be cce2 5fbe a2fa e2bd
000000d0: 8bba 16bd d3fe 223e c048 833d 08e6 313e
000000e0: e3f3 ad3d f990 b13d edd3 e0bc 939c d4bc
000000f0: ecac 993c 9eec 5e3e 57ee 06be 174a 3d3e
00000100: d995 b53c e32c 873d 77d1 f9bd e37a 653e
00000110: a2c2 093e 96c4 313e 0892 f4bd 79ad 993d
00000120: a847 30be 45b5 4abc f877 1b3e 83ce 56bd
00000130: e9b9 cc3c 86a7 f7bc d678 d3bc d89c 373d
00000140: a873 173c cfc5 ce3d d1ac d73c 7d14 2fbe
00000150: 183e 29bc a09e 75bd 44c8 d63d 7f26 13be
00000160: ee26 223e 5b15 35be 9349 b4bd c457 d0bd
00000170: d889 083e ae57 7a3d dc51 013e e88b e73d
00000180: 2342 de3d 36a7 7bbd 7418 b13d 5de1 a93d
00000190: 90bd 3dbd 9c32 5f3d 12f4 86bc dd4a a3bd
000001a0: 3601 81bd d569 a8bd 1ede fe3d 8d56 a33d
000001b0: e5c1 0d3d d53c 85bd a557 a03d ec2a 7ebd
000001c0: 79d2 d43d 802c 36be abf1 553d f203 533c
000001d0: cf10 8ebd be6a 273e 637d 24bd ab60 7a3c
000001e0: 8c94 443e 7d66 41bd e02f 8a3d eec8 2d3e
000001f0: 01ca 7d3c dc2a 11be 7286 353e ed03 263e
00000200: 1dd6 3b3e 72c5 97bd 1459 19be bd47 9d3d
00000210: 67e4 083e 0daa 523e 5b18 94bd 33cb ce3d
00000220: 219b b73d 14e9 2cbd 47ad debd c150 b4bd
00000230: 2a76 08be fc71 94bb f713 413e da89 0dbe
00000240: c2c3 963d a44c 263e 8319 15be 8ebe 383e
00000250: eac5 3bbe a3c2 753d 1a86 95bd bf02 0cbe
00000260: 6676 c0bd c323 52be 97e1 d83d 07d9 163b
00000270: 4d4d 51be 8ea7 7e38 18eb 96bd 1cf2 293e
00000280: 86fd 33bd 2866 42be 2824 01be 0cfc 03bd
00000290: f122 02be f3e0 93bd 7ca4 2cbe c4e5 26bd
000002a0: dfb5 2a3e 8962 2fbe f632 2abe 03e9 81bc
000002b0: 732d cf3d 55da 223e c758 44bd 2a3f a3bd
000002c0: 55b6 e9bd 391b 4c3e bbb0 f83d 201a 1cbe
000002d0: 8176 fb3d c3f7 1bbc 71c7 8c3d 9588 a3bc
000002e0: b8b5 193d b8e1 ee3c d4f0 a6bd cb5e 16bd
000002f0: ddc0 af3d 2387 dcbd 9e89 a3bd f708 c7bd
00000300: ba01 cc3c 5587 0cbe b832 c53d e060 7a3b
00000310: 78e2 ef3d 0985 343e 700e 9bbd 5f7a 9dbd
00000320: ddb8 06be 4c34 b03d 2cae 023d 7a11 e0bd
00000330: 79d8 8dbd 2ee7 363e fdd0 ec3d a7e2 b1bc
00000340: 59ac 843d da5d 60be 49f1 fabc 5114 07be
00000350: b691 7bbd fc97 63bd b882 593d bf20 373d
00000360: a93d 5cbd 5928 ccbd 1fe1 193d ee0b 453e
00000370: 66b7 d43d ad97 38be a988 d4bd 2267 f2bd
00000380: b676 923d 60fe 063e 63a6 4b3e 9bb3 3e3e
00000390: cc8e 2abe 6eaf 8abd 25c3 f5bc b823 b8bd
000003a0: 94dc f2bb d719 49bd 66d0 bebd 0d65 edbd
000003b0: 57d2 c43d 0bab c5bb d3e5 313e e791 ddbd
000003c0: 37f2 fbbd b9b8 2c3e dd3c 6f3c e146 08be
000003d0: 92cc 1f3e 0be6 7dbd 2782 a7bd 02ad f03d
000003e0: d05c f03d a24b 933d 00d2 45be 49e6 c73a
000003f0: 1064 a53d 5e2e a2bc 2356 1a3e df1c 293e

self_attn.qkv_proj.bias f4 [108]
-0.015630458 0.027842397 0.0019717517 0.006550501 0.01787982 -0.016890213 0.0049182735 -0.002154762
0.03710704 -0.010116101 -0.017403021 0.014875078 0.0072439867 -0.033573613 0.02188574 -0.01222208
0.019224005 0.011799028 0.014619091 0.018489901 0.0021654433 -0.015170795 0.018202644 -0.0049068443
-0.023363795 -0.019356247 -0.00974291 0.01032787 -0.017083367 0.010422094 -0.011737596 0.016555889
0.0060029845 0.016040977 -0.018408695 0.01977761 -0.00894213 -0.0075663207 0.0056397635 -0.015422885
0.015141893 -0.0107803345 -0.0064886734 -0.012151855 0.00782164 -0.01158454 -0.0106137125 0.004673515
0.002491105 -0.016397526 0.0058591845 -0.015470138 0.014884366 0.008191267 0.01016337 0.015067731
0.014309651 -0.012622948 0.0127918115 -0.011402017 0.009173162 0.0056489557 0.002349351 -0.0060788644
-0.010518833 0.013048227 -0.011145328 -0.009253474 -0.009911904 -0.0049344585 0.0050287135 0.011256423
-0.06314122 -0.061848316 0.017997172 0.03307477 -0.03741288 -0.017051816 -0.048605297 0.063300915
0.034850817 -0.043355044 0.026215991 0.029457217 -0.036624268 0.00034933633 -0.039882015 0.04613267
-0.061804324 -0.029389407 -0.059469134 0.04878132 -0.01930812 0.032647833 -0.04262531 0.040672187
-0.021777917 0.053574853 -0.034154326 0.044796746 0.032210544 0.05797636 -0.0435996 0.0238565
-0.0141003 0.037810687 -0.012766995 0.042682983
00000000: 720b 80bc bd15 e43c 8138 013b 96a5 d63b
00000010: b378 923c 585d 8abc 7829 a13b e836 0dbb
00000020: 8dfd 173d 01be 25bc c890 8ebc 99b6 733c
00000030: f75e ed3b 7c84 09bd b949 b33c 1e3f 48bc
00000040: a97b 9d3c b650 413c e984 6f3c 2278 973c
00000050: 1cea 0d3b ed8e 78bc b61d 953c 98c9 a0bb
00000060: 6e65 bfbc fe90 9ebc baa0 1fbc 3a36 293c
00000070: 6bf2 8bbc 6ec1 2a3c 0c4f 40bc 37a0 873c
00000080: afb4 c43b 5e68 833c d5cd 96bc a804 a23c
00000090: 0382 12bc e6ee f7bb c4cd b83b 45b0 7cbc
000000a0: b415 783c 00a0 30bc f09e d4bb 9318 47bc
000000b0: 5626 003c 15cd 3dbc 23e5 2dbc 4924 993b
000000c0: cf41 233b 1b54 86bc 67fe bf3b 7676 7dbc
000000d0: 8edd 733c aa34 063c 4384 263c a5de 763c
000000e0: 0773 6a3c 7bd0 4ebc bf94 513c 87cf 3abc
000000f0: 084b 163c e01a b93b 92f7 193b 3631 c7bb
00000100: 2f57 2cbc 3bc8 553c e59a 36bc e29b 17bc
00000110: 8a65 22bc 3db1 a1bb e8c7 a43b dc6c 383c
00000120: 2f50 81bd a954 7dbd ce6e 933c 6979 073d
00000130: 403e 19bd 40b0 8bbc 5916 47bd e9a3 813d
00000140: bbbf 0e3d 0f95 31bd ebc2 d63c 4350 f13c
00000150: 5403 16bd 2127 b739 535b 23bd 9cf5 3c3d
00000160: 8826 7dbd 0ec2 f0bc e895 73bd ecce 473d
00000170: 102c 9ebc bcb9 053d e197 2ebd e197 263d
00000180: 9a67 b2bc 4e71 5b3d 68e5 0bbd cb7c 373d
00000190: 34ef 033d 9f78 6d3d 7f95 32bd b56e c33c
000001a0: f204 67bc 61df 1a3d a82c 51bc 5ad4 2e3d

self_attn.o_proj.weight f4 [36, 36]
0.26306558 0.0032330938 -0.0048785126 0.20631784 0.24547496 -0.113682255 -0.103271455 -0.19747433
-0.21243243 0.15149245 0.15919212 0.2530116 -0.02960321 0.20607989 0.32457176 0.12059145
-0.1964087 0.27487147 0.09490783 0.15224515 -0.06942785 -0.22431071 -0.04913994 -0.054056786
-0.22985485 0.027244166 -0.10437849 -0.20643698 -0.2662768 -0.07135629 0.080226906 0.14824569
0.21415865 0.21755818 0.060926385 0.23160116 0.19996795 0.25606677 -0.15073286 -0.16327584
0.0041292557 0.0715819 0.20854078 -0.1926533 -0.11525293 0.04897382 -0.13729635 -0.09731248
0.11843975 0.07230208 -0.056498043 0.1394911 -0.09945672 -0.11814566 0.1436872 -0.3243129
-0.004079285 -0.1941701 0.105749406 -0.25903076 -0.11581715 -0.26790428 0.07345145 -0.26924774
-0.036852036 0.09794854 -0.06024309 -0.1196695 -0.014832961 -0.009470087 0.009875776 -0.21147923
-0.049218144 -0.107896835 -0.18572134 0.10686865 0.22432342 -0.008629381 -0.09392138 -0.22058463
0.09261927 -0.15652668 -0.11753819 -0.2737037 0.16904648 0.030677358 -0.15026172 -0.10115131
0.07416779 -0.15765463 -0.01082471 -0.15156002 -0.1616242 -0.14081791 0.0013378462 -0.17650694
0.22088626 0.015216862 -0.038072895 0.023201047 0.11280001 -0.07008054 0.18536608 -0.19400568
-0.049861725 0.023062747 -0.0029857024 -0.13797015 -0.05419161 0.23060502 -0.00549046 -0.16615374
0.09937898 -0.30169082 -0.04272862 0.21091487 -0.073277965 -0.08034422 -0.1967493 0.028826125
0.21741281 -0.07150296 0.2922576 0.22719137 0.14754395 0.13796331 -0.043780148 0.09226274
0.22436821 -0.13645497 0.26991224 -0.15449584 0.1392211 -0.20934755 -0.15521155 0.1565753
-0.112537004 -0.20739324 -0.06212736 -0.1861618 -0.20793518 -0.15623882 0.2958781 0.10016218
0.12245075 -0.113475226 -0.05034776 -0.06597189 0.16310783 -0.091665104 0.15557402 -0.19014901
0.25280532 -0.3012968 -0.2847918 0.08602944 0.2211178 0.22465333 -0.16331497 -0.0016993905
-0.15377156 -0.120801024 0.055475015 0.29075453 0.2155085 -0.1290449 -0.106342435 -0.070244044
-0.18103527 0.056482837 -0.20671599 -0.18695906 0.28362492 0.100575544 -0.2888753 0.0367093
-0.17270605 0.14670724 0.2244912 -0.02376469 -0.0921591 0.052997097 0.26175514 -0.2191497
-0.10843781 -0.049344473 0.2506549 0.18303306 -0.05081389 -0.18367468 -0.12615038 0.034564458
0.19949655 -0.2632882 0.2873259 -0.1658645 -0.06344921 0.27811024 -0.20871423 -0.1555022
0.2566217 -0.08963553 -0.035952054 0.07738107 0.16583504 -0.31166965 -0.10939296 0.06883763
-0.21144386 -0.20017473 -0.13012747 0.17404318 0.18737106 -0.0651198 0.079974845 -0.17987314
-0.07146564 -0.010835523 0.2526463 -0.10218132 0.23916382 0.07160266 -0.05204877 -0.1762348
-0.038647056 -0.1441477 0.104531564 0.11446617 0.016880069 0.21223997 0.2882089 0.103139825
0.03417798 -0.26510283 -0.09697129 0.2333742 -0.20320344 -0.24805768 0.2419357 0.03954696
-0.20664431 -0.13367063 0.24861494 -0.21622023 -0.23599337 0.00019432933 0.2454882 0.2056093
-0.17430528 -0.13194165 -0.056583673 -0.2682074 -0.27385336 -0.021504553 0.13501674 0.17490277
00000000: 88b0 863e 50e2 533b eedb 9fbb fc44 533e
00000010: ca5d 7b3e 3ed2 e8bd fc7f d3bd b636 4abe
00000020: e387 59be d620 1b3e 4203 233e bd8a 813e
00000030: 6e82 f2bc 9b06 533e 452e a63e a6f8 f63d
00000040: 5d1f 49be f4bb 8c3e 095f c23d 27e6 1b3e
00000050: 3030 8ebd b5b1 65be f646 49bd a66a 5dbd
00000060: 125f 6bbe 282f df3c 64c4 d5bd 3764 53be
00000070: 6f55 88be 3f23 92bd 014e a43d b8cd 173e
00000080: 684c 5b3e 92c7 5e3e f28d 793d db28 6d3e
00000090: 66c4 4c3e 2f1b 833e b759 1abe c831 27be
000000a0: b54e 873b 8899 923d b78b 553e e846 45be
000000b0: ba09 ecbd c698 483d 6a97 0cbe c44b c7bd
000000c0: 8a90 f23d 1d13 943d 7e6a 67bd c1d6 0e3e
000000d0: f7af cbbd 5af6 f1bd bd22 133e 570c a6be
000000e0: 86ab 85bb 87d4 46be 2593 d83d ae9f 84be
000000f0: 8b31 edbd c02a 89be b76d 963d d7da 89be
00000100: 29f2 16bd 3e99 c83d 75c1 76bd 4815 f5bd
00000110: f305 73bc 6c28 1bbc 02ce 213c 038e 58be
00000120: f798 49bd 04f9 dcbd bc2d 3ebe f3dd da3d
00000130: 0ab5 653e 3f62 0dbc da59 c0bd f0e0 61be
00000140: 2caf bd3d 8848 20be ddb7 f0bd e422 8cbe
00000150: 851a 2d3e 154f fb3c 35de 19be 6b28 cfbd
00000160: 48e5 973d 3770 21be 205a 31bc 8d32 1bbe
00000170: d080 25be 9232 10be ab5a af3a 3cbe 34be
00000180: 0230 623e 2550 793c 53f2 1bbd 1f10 be3c
00000190: b103 e73d 6386 8fbd 9bd0 3d3e 6da9 46be
000001a0: cf3b 4cbd 16ee bc3c c6ab 43bb 0c48 0dbe
000001b0: 06f8 5dbd b923 6c3e 51e9 b3bb 3524 2abe
000001c0: 3587 cb3d 3877 9abe 3504 2fbd 11fa 573e
000001d0: c212 96bd 838b a4bd a678 49be c424 ec3c
000001e0: 77a1 5e3e 2570 92bd caa2 953e dba4 683e
000001f0: c315 173e 4146 0d3e d052 33bd 3ff4 bc3d
00000200: c8c0 653e daba 0bbe f031 8a3e 2834 1ebe
00000210: fa8f 0e3e 345f 56be c7ef 1ebe 4755 203e
00000220: cd79 e6bd e55e 54be 4279 7ebd 33a1 3ebe
00000230: f6ec 54be 12fd 1fbe 567d 973e d421 cd3d
00000240: 75c7 fa3d b365 e8bd 7439 4ebd 451c 87bd
00000250: bd05 273e eaba bbbd cc4e 1f3e 6cb6 42be
00000260: b36f 813e 9343 9abe 3bd0 91be 3430 b03d
00000270: b46c 623e 860b 663e 0a3c 27be 15be deba
00000280: 4b76 1dbe 8766 f7bd c539 633d c7dd 943e
00000290: 43ae 5c3e 5924 04be 10ca d9bd 1cdc 8fbd
000002a0: 4f61 39be 8c5a 673d 5bad 53be 3272 3fbe
000002b0: 4937 913e 8dfa cd3d 77e7 93be 7e5c 163d
000002c0: dbd9 30be 6c3a 163e 05e1 653e 2bae c2bc
000002d0: e9bd bcbd 7c13 593d c504 863e c768 60be
000002e0: a414 debd 6e1d 4abd d755 803e 056d 3b3e
000002f0: 3a22 50bd 3715 3cbe 912d 01be 7693 0d3d
00000300: d348 4c3e b6cd 86be 611c 933e 62d8 29be
00000310: a9f1 81bd 7764 8e3e 2fb9 55be f83b 1fbe
00000320: eb63 833e d592 b7bd 7642 13bd f779 9e3d
00000330: a9d0 293e 2a93 9fbe 6b09 e0bd befa 8c3d
00000340: bd84 58be 9bfa 4cbe 2340 05be 6038 323e
00000350: 33de 3f3e 885d 85bd dac9 a33d aa30 38be
00000360: 945c 92bd 7a87 31bc db5a 813e 7144 d1bd
00000370: 5ce7 743e 6aa4 923d 1731 55bd e576 34be
00000380: 604c 1ebd 749b 13be a514 d63d 3d6d ea3d
00000390: 1248 8a3c 6f55 593e 1e90 933e f93a d33d
000003a0: 36fe 0b3d 8fbb 87be e298 c6bd a5f9 6e3e
000003b0: 9014 50be d502 7ebe febd 773e fefb 213d
000003c0: 919a 53be f4e0 08be ea94 7e3e d668 5dbe
000003d0: 3fa8 71be e2c4 4b39 4261 7b3e 3f8b 523e
000003e0: 157d 32be b61b 07be 48c4 67bd 7b52 89be
000003f0: 8236 8cbe 512a b0bc d441 0a3e b619 333e

self_attn.o_proj.bias f4 [36]
-0.027509596 -0.05081615 -0.040262308 -0.026486458 0.05127752 -0.041964307 -0.01088154 -0.007979632
-0.039362278 -0.032305814 0.0062916484 -0.016586365 0.011146798 0.007402686 0.04458051 -0.020420149
-0.029901406 0.029900223 0.044049963 0.041069727 0.03698804 0.046585627 -0.029576544 -0.048185617
-0.037173294 0.058552884 0.044088773 0.030409936 -0.06477741 0.033823434 -0.027119623 -0.04632904
0.02391965 -0.035659082 0.033651292 0.036167063
00000000: ce5b e1bc 9824 50bd 17ea 24bd 21fa d8bc
00000010: 6008 523d c4e2 2bbd 7d48 32bc 01bd 02bc
00000020: 573a 21bd 1a53 04bd 2c2a ce3b 21e0 87bc
00000030: 0fa1 363c 3b92 f23b 0e9a 363d 2848 a7bc
00000040: cbf3 f4bc 50f1 f43c bc6d 343d bb38 283d
00000050: c580 173d 92d0 3e3d 824a f2bc 485e 45bd
00000060: 0643 18bd 26d5 6f3d 6e96 343d 421e f93c
00000070: 05aa 84bd 718a 0a3d f929 debc 85c3 3dbd
00000080: 24f3 c33c 420f 12bd f0d5 093d ea23 143d

fc.weight f4 [1, 18]
-0.19845425 0.18929361 -0.02269279 -0.051391423 0.1905539 -0.09859064 -0.13111527 -0.033871766
-0.15479846 -0.119014606 -0.09154894 0.22748113 -0.052811127 -0.2107994 -0.042846207 -0.097909376
-0.16507207 -0.08357751
00000000: 9737 4bbe 2fd6 413e 3be6 b9bc d07f 52bd
00000010: 9020 433e e4e9 c9bd 1543 06be 1fbd 0abd
00000020: 7d83 1ebe eebd f3bd 037e bbbd d0f0 683e
00000030: 7b50 58bd ccdb 57be 817f 2fbd b684 c8bd
00000040: a708 29be b02a abbd

fc1.weight f4 [1, 36]
-0.3403933 -0.2534543 -0.35210404 -0.42532852 0.082552046 0.17781027 -0.3438225 0.26833513
-0.3669795 -0.37983945 -0.33936957 -0.22628307 -0.32844824 0.31216523 0.2998807 -0.40975595
-0.3925534 0.34004316 0.33161795 0.39334017 0.3108702 0.20298363 -0.36352172 -0.36760917
-0.40211397 0.3680333 0.43087712 0.31462613 -0.3449034 0.304629 -0.42316255 -0.35604236
0.40343785 -0.31805915 0.29583195 0.43677086
00000000: 0848 aebe c3c4 81be fb46 b4be a9c4 d9be
00000010: 0c11 a93d e513 363e 8109 b0be 3963 893e
00000020: bde4 bbbe 517a c2be d9c1 adbe c0b6 67be
00000030: 5e2a a8be 1fd4 9f3e f789 993e 88cb d1be
00000040: c2fc c8be 231a ae3e d4c9 a93e e263 c93e
00000050: 612a 9f3e f1da 4f3e 851f babe 4537 bcbe
00000060: e2e1 cdbe dc6e bc3e ed9b dc3e ad16 a13e
00000070: 2e97 b0be 55f8 9b3e c3a8 d8be 2f4b b6be
00000080: 688f ce3e a6d8 a2be 4977 973e 6ea0 df3e

fc2.weight f4 [1, 9]
-0.049797535 -0.32292813 0.30390272 0.15602677 0.0041662455 0.28074205 0.13336734 -0.025852323
0.27510744
00000000: 80f8 4bbd d656 a5be 2399 9b3e 7bc5 1f3e
00000010: 0085 883b 6cbd 8f3e 7391 083e 40c8 d3bc
00000020: e2da 8c3e

fc3.weight f4 [1, 2]
0.3498952 0.0022132995
00000000: 7725 b33e 010d 113b

input_fc.weight f4 [18, 3]
-0.19371939 0.08429702 -0.6413471 0.32960424 0.048499834 0.30223367 -0.3812519 -0.071575694
0.05279331 -0.120275185 -0.21337502 0.23111516 0.20216788 -0.50963783 0.09910088 0.34097403
0.42258403 0.38294256 0.28747463 -0.047508217 -0.54927194 -0.33900043 0.09120081 -0.21144964
-0.2493897 -0.11521329 0.25042972 -0.21984085 -0.3009753 -0.0121646505 0.53883994 -0.34299275
0.49944767 0.1719492 0.035587292 -0.56526524 -0.2449516 -0.08035919 -0.6250458 0.23181394
-0.22207509 0.5585308 -0.15818326 -0.51830715 0.44602168 -0.054127853 -0.15200081 -0.27231106
-0.27372095 0.063162796 -0.3192642 -0.5109332 0.09768418 -0.19303094
00000000: 605e 46be eba3 ac3d 532f 24bf e3c1 a83e
00000010: c3a7 463d 5fbe 9a3e 7333 c3be 4796 92bd
00000020: cc3d 583d d652 f6bd fb7e 5abe 74a9 6c3e
00000030: 1905 4f3e a077 02bf 67f5 ca3d 2694 ae3e
00000040: ef5c d83e 0c11 c43e e02f 933e fa97 42bd
00000050: 169d 0cbf 7791 adbe 7ec7 ba3d 4186 58be
00000060: 0360 7fbe f2f4 ebbd 5338 803e f61d 61be
00000070: 6f19 9abe 3e4e 47bc 6af1 093f bf9c afbe
00000080: 9bb7 ff3e 7313 303e fbc3 113d 39b5 10bf
00000090: 98d4 7abe 5c93 a4bd 0003 20bf a260 6d3e
000000a0: a767 63be e0fb 0e3f cbfa 21be c7af 04bf
000000b0: f45c e43e 2bb5 5dbd 1aa6 1bbe 5b6c 8bbe
000000c0: 2725 8cbe 7f5b 813d 9976 a3be 85cc 02bf
000000d0: a50e c83d e7a9 45be

input_fc.bias f4 [18]
0.4071631 -0.3480577 -0.0060199094 0.39088857 0.5152372 -0.056044858 0.22399591 0.12840036
-0.1704642 0.16848537 -0.4930516 -0.45327327 0.21375868 0.15751465 -0.2869829 0.26940465
-0.54967177 0.0008227477
00000000: af77 d03e 9e34 b2be a942 c5bb 8c22 c83e
00000010: 96e6 033f 4b8f 65bd 2f5f 653e 627b 033e
00000020: 2b8e 2ebe 6e87 2c3e 4271 fcbe 6f13 e8be
00000030: 8ee3 5a3e 854b 213e 6cef 92be 68ef 893e
00000040: 4ab7 0cbf aaad 573a

norm.weight f4 [36]
1.0 1.0 1.0 1.0 1.0 1.0 1.0 1.0
1.0 1.0 1.0 1.0 1.0 1.0 1.0 1.0
1.0 1.0 1.0 1.0 1.0 1.0 1.0 1.0
1.0 1.0 1.0 1.0 1.0 1.0 1.0 1.0
1.0 1.0 1.0 1.0
00000000: 0000 803f 0000 803f 0000 803f 0000 803f
00000010: 0000 803f 0000 803f 0000 803f 0000 803f
00000020: 0000 803f 0000 803f 0000 803f 0000 803f
00000030: 0000 803f 0000 803f 0000 803f 0000 803f
00000040: 0000 803f 0000 803f 0000 803f 0000 803f
00000050: 0000 803f 0000 803f 0000 803f 0000 803f
00000060: 0000 803f 0000 803f 0000 803f 0000 803f
00000070: 0000 803f 0000 803f 0000 803f 0000 803f
00000080: 0000 803f 0000 803f 0000 803f 0000 803f

norm.bias f4 [36]
0.0 0.0 0.0 0.0 0.0 0.0 0.0 0.0
0.0 0.0 0.0 0.0 0.0 0.0 0.0 0.0
0.0 0.0 0.0 0.0 0.0 0.0 0.0 0.0
0.0 0.0 0.0 0.0 0.0 0.0 0.0 0.0
0.0 0.0 0.0 0.0
00000000: 0000 0000 0000 0000 0000 0000 0000 0000
00000010: 0000 0000 0000 0000 0000 0000 0000 0000
00000020: 0000 0000 0000 0000 0000 0000 0000 0000
00000030: 0000 0000 0000 0000 0000 0000 0000 0000
00000040: 0000 0000 0000 0000 0000 0000 0000 0000
00000050: 0000 0000 0000 0000 0000 0000 0000 0000
00000060: 0000 0000 0000 0000 0000 0000 0000 0000
00000070: 0000 0000 0000 0000 0000 0000 0000 0000
00000080: 0000 0000 0000 0000 0000 0000 0000 0000

norm1.weight f4 [9]
1.0 1.0 1.0 1.0 1.0 1.0 1.0 1.0
1.0
00000000: 0000 803f 0000 803f 0000 803f 0000 803f
00000010: 0000 803f 0000 803f 0000 803f 0000 803f
00000020: 0000 803f

norm1.bias f4 [9]
0.0 0.0 0.0 0.0 0.0 0.0 0.0 0.0
0.0
00000000: 0000 0000 0000 0000 0000 0000 0000 0000
00000010: 0000 0000 0000 0000 0000 0000 0000 0000
00000020: 0000 0000

norm2.weight f4 [9]
1.0 1.0 1.0 1.0 1.0 1.0 1.0 1.0
1.0
00000000: 0000 803f 0000 803f 0000 803f 0000 803f
00000010: 0000 803f 0000 803f 0000 803f 0000 803f
00000020: 0000 803f

norm2.bias f4 [9]
0.0 0.0 0.0 0.0 0.0 0.0 0.0 0.0
0.0
00000000: 0000 0000 0000 0000 0000 0000 0000 0000
00000010: 0000 0000 0000 0000 0000 0000 0000 0000
00000020: 0000 0000

m.running_mean f4 [12]
-4.065658 -4.0396876 -4.0540457 -4.086992 -4.1040835 -4.089732 -4.061248 -4.051701
-4.078051 -4.1229086 -4.151425 -4.140349
00000000: df19 82c0 1f45 81c0 beba 81c0 a3c8 82c0
00000010: a754 83c0 16df 82c0 bef5 81c0 89a7 81c0
00000020: 657f 82c0 deee 83c0 79d8 84c0 bd7d 84c0

m.running_var f4 [12]
964.0854 964.9372 962.95447 959.99805 958.63837 959.77057 961.8591 962.38586
960.2163 956.66864 954.5113 955.37286
00000000: 7705 7144 fb3b 7144 16bd 7044 e0ff 6f44
00000010: dba8 6f44 51f1 6f44 fb76 7044 b298 7044
00000020: d80d 7044 cb2a 6f44 b9a0 6e44 ddd7 6e44

linear_net.0.weight f4 [9, 18]
0.14623897 -0.010076047 -0.001494724 0.028992059 0.08632571 -0.094056316 -0.1280943 0.21568158
0.15801382 -0.11467666 0.16694622 0.048545472 0.12846686 -0.014567946 0.05819707 0.218642
-0.13935676 0.071705304 0.10660051 -0.15137589 -0.052359425 0.15564929 0.07502755 -0.21996802
-0.01665177 -0.12819886 0.098307215 -0.03620715 0.08357406 -0.034269717 0.08988653 0.19076996
-0.16867343 -0.12040374 -0.1607979 -0.10363337 -0.18309598 0.09214029 -0.0750677 -0.17808552
-0.08907731 -0.07988806 0.16344829 -0.1506048 0.02727019 0.19253217 -0.0812349 0.105311655
-0.18557633 0.22154075 -0.016878014 0.14232297 0.026378054 0.19375432 0.09030125 0.10518592
-0.11006793 0.058459815 -0.12473542 0.21344316 0.1654163 -0.1888836 0.18078119 0.13709696
-0.1331068 -0.053766735 0.0039970386 0.045232195 -0.055739656 -0.17840444 0.14687388 0.15798794
-0.12305301 0.094798125 0.024964394 0.16147228 -0.0067899134 0.01733778 0.043367982 0.19711079
-0.11001308 0.08429372 -0.21835308 -0.10668592 -0.19714275 0.16234688 -0.16804272 -0.077040985
-0.046481766 0.14176627 -0.21905155 0.15887143 -0.22345385 0.16697676 0.10308619 -0.2320395
0.050800525 -0.086956196 0.18730347 0.10051523 -0.00234314 0.08994539 0.05862798 -0.16415183
0.01093899 0.02505307 0.16280909 -0.17948781 0.018265462 -0.23013593 -0.10895163 0.03608335
-0.20941266 -0.098468214 -0.21047139 -0.013503485 0.19007164 -0.048583657 0.03914622 -0.11325249
0.21425244 0.021226615 0.11017897 0.22231701 0.05673483 -0.18123847 0.07564494 0.02659545
-0.10330932 -0.052134667 0.20322438 0.16231935 -0.012412331 -0.12417493 -0.08091181 0.0026943919
0.17645495 -0.043848205 -0.1961726 0.18001004 0.21836212 -0.06111442 -0.086817674 0.21632679
-0.23302706 0.014917428 0.031192208 -0.17496449 -0.18903005 0.11916811 -0.12838902 0.22716002
-0.21554682 -0.105123706 0.23271334 -0.08227172 -0.03568714 0.15335864 -0.2126828 0.01413167
-0.1711965 -0.04185238
00000000: abbf 153e 0116 25bc 9dea c3ba c180 ed3c
00000010: 89cb b03d 99a0 c0bd 272b 03be a2db 5c3e
00000020: 60ce 213e 99db eabd f3f3 2a3e 9ed7 463d
00000030: d18c 033e 65ae 6ebc 0d60 6e3d b0e3 5f3e
00000040: 8ab3 0ebe 3bda 923d 5e51 da3d 4802 1bbe
00000050: d676 56bd 8762 1f3e 0ba8 993d 4c3f 61be
00000060: 4b69 88bc 9046 03be 4b55 c93d f34d 14bd
00000070: e028 ab3d 675e 0cbd 6e16 b83d 3359 433e
00000080: bab8 2cbe 3c96 f6bd 34a8 24be bb3d d4bd
00000090: 837d 3bbe 0cb4 bc3d 18bd 99bd 0d5c 36be
000000a0: 2a6e b6bd 5a9c a3bd fd5e 273e 2538 1abe
000000b0: bc65 df3c 2727 453e 7c5e a6bd a3ad d73d
000000c0: b907 3ebe 94db 623e c343 8abc 1dbd 113e
000000d0: ca16 d83c 8867 463e ddef b83d b76b d73d
000000e0: 4b6b e1bd 8f73 6f3d 4975 ffbd d890 5a3e
000000f0: e462 293e b46a 41be b41e 393e 2563 0c3e
00000100: 264d 08be 823a 5cbd 97f9 823b 6545 393d
00000110: 444f 64bd a7af 36be 1b66 163e 97c7 213e
00000120: 3703 fcbd 8525 c23d 2182 cc3c fd58 253e
00000130: ec7d debb f607 8e3c a0a2 313d 69d7 493e
00000140: 8a4e e1bd 30a2 ac3d f397 5fbe 267e dabd
00000150: cadf 49be 433e 263e 6413 2cbe aac7 9dbd
00000160: aa63 3ebd 2d2b 113e 0d4f 60be 31af 223e
00000170: 16d1 64be f5fb 2a3e da1e d33d c39b 6dbe
00000180: 3614 503d 1716 b2bd 7bcc 3f3e eeda cd3d
00000190: 5e8f 19bb 4a35 b83d e523 703d 6b17 28be
000001a0: 7339 333c 193c cd3c 6db7 263e a7cb 37be
000001b0: 73a1 953c c1a8 6bbe 0822 dfbd 23cc 133d
000001c0: 4670 56be b4a9 c9bd d085 57be b93d 5dbc
000001d0: 24a2 423e a8ff 46bd c957 203d ecf0 e7bd
000001e0: fe64 5b3e 70e3 ad3c 83a5 e13d 12a7 633e
000001f0: c862 683d 9496 39be bceb 9a3d b3de d93c
00000200: d693 d3bd 298b 55bd 0d1a 503e 0b37 263e
00000210: 175d 4bbc 6d4f febd 17b5 a5bd 6594 303b
00000220: 9bb0 343e 2d9a 33bd 78e1 48be 8d54 383e
00000230: 529a 5f3e 1d53 7abd 77cd b1bd c584 5d3e
00000240: a59e 6ebe 3a68 743c cd86 ff3c e429 33be
00000250: 1891 41be 690e f43d 6978 03be a39c 683e
00000260: 4eb8 5cbe 194b d7bd 684c 6e3e 137e a8bd
00000270: ae2c 12bd 0c0a 1d3e 85c9 59be 8588 673c
00000280: 234e 2fbe 676d 2bbd

linear_net.0.bias f4 [9]
-0.03219654 -0.04566611 -0.1088389 0.037302267 -0.011545596 0.098180436 0.048923165 0.13049105
-0.07439365
00000000: 85e0 03bd 630c 3bbd eee6 debd 43ca 183d
00000010: bd29 3dbc d312 c93d a863 483d 729f 053e
00000020: b35b 98bd

linear_net.2.weight f4 [1, 9]
-0.19242871 0.3233294 0.08664875 -0.050519984 0.02800405 0.29392987 -0.09531014 -0.106282115
0.1962758
00000000: 080c 45be 6e8b a53e e674 b13d 0bee 4ebd
00000010: c068 e53c fa7d 963e f631 c3bd 70aa d9bd
00000020: 86fc 483e

exp_avg f4 [108, 36]
-9.105552e-06 8.079818e-06 -4.140699e-06 -1.6916823e-06 -6.2286904e-06 1.6520593e-05 -5.920488e-06 -4.2791694e-06
-1.0032278e-06 -7.877104e-06 5.3314225e-06 -5.8723745e-06 -1.2537526e-05 5.8791848e-06 -5.0733306e-06 -7.121222e-06
-6.078651e-06 -5.5229666e-06 -6.0782224e-07 -5.437144e-07 -7.390619e-07 -4.804329e-07 5.1148436e-07 -1.2526532e-07
2.6627436e-07 3.0733753e-07 9.991495e-08 3.739135e-07 3.610596e-08 3.8270252e-07 1.2985038e-08 3.8384078e-07
4.6670086e-09 3.8398792e-07 1.6772556e-09 3.8400685e-07 -2.351898e-06 2.18587e-06 -1.2225897e-06 -5.041921e-07
-1.3872817e-06 4.268703e-06 -1.2991513e-06 -1.2888542e-06 -3.8831712e-07 -2.0312996e-06 1.6320979e-06 -1.3737427e-06
-3.223015e-06 1.5922872e-06 -1.330601e-06 -1.7809983e-06 -1.639927e-06 -1.688839e-06 -1.6681909e-07 1.5301407e-07
1.3407747e-08 2.6937073e-07 -6.735427e-08 1.4235107e-07 -2.9292053e-08 1.0425633e-07 -1.0775727e-08 9.886285e-08
-3.884218e-09 9.815809e-08 -1.3964561e-09 9.806689e-08 -5.018851e-10 9.8055125e-08 -1.8036936e-10 9.805359e-08
5.3466656e-06 -5.6016656e-06 3.6721729e-06 1.9803497e-06 4.562978e-06 -1.1566489e-05 2.5968175e-06 3.0459667e-06
1.6727128e-06 6.0397465e-06 -3.3882463e-06 2.6348953e-06 7.949513e-06 -3.2023127e-06 5.0147405e-06 4.619854e-06
3.9868105e-06 4.232002e-06 5.516762e-07 7.663714e-07 9.647017e-07 9.374761e-07 -6.5174186e-07 4.1704965e-07
-3.3779077e-07 -1.343014e-07 -1.2668633e-07 -2.1878455e-07 -4.5777313e-08 -2.2993179e-07 -1.6463078e-08 -2.3137552e-07
-5.917059e-09 -2.3156203e-07 -2.1265054e-09 -2.3158599e-07 2.6250797e-05 -2.4021288e-05 1.3142825e-05 5.3446397e-06
1.6455739e-05 -4.7666395e-05 1.5331205e-05 1.35660775e-05 3.874987e-06 2.2829005e-05 -1.7222892e-05 1.575941e-05
3.605675e-05 -1.7439595e-05 1.4856284e-05 2.0123076e-05 1.8080973e-05 1.7758886e-05 3.4694264e-07 -1.8641026e-07
4.805157e-07 -5.300259e-07 -3.6975638e-07 -7.1542945e-07 -1.9196919e-07 -1.0185818e-06 -7.2020676e-08 -1.0655132e-06
-2.6025358e-08 -1.0717131e-06 -9.359657e-09 -1.0725162e-06 -3.3639938e-09 -1.07262e-06 -1.2089708e-09 -1.0726333e-06
-1.4558566e-05 1.3187512e-05 -7.094914e-06 -2.8031159e-06 -8.853456e-06 2.6063191e-05 -8.5946085e-06 -7.50677e-06
-1.9805668e-06 -1.2365806e-05 9.592818e-06 -8.860644e-06 -1.9869563e-05 9.748046e-06 -7.843974e-06 -1.1051354e-05
-9.960186e-06 -9.769212e-06 -6.4407175e-07 5.2907143e-07 3.786436e-09 9.666386e-07 -9.515946e-08 6.447713e-07
-3.58007e-08 6.0193577e-07 -1.29081155e-08 5.9682156e-07 -4.6406785e-09 5.961693e-07 -1.6678542e-09 5.9608516e-07
-5.993991e-10 5.9607447e-07 -2.1541292e-10 5.9607305e-07 1.3865256e-05 -1.2226337e-05 6.3859334e-06 2.0801833e-06
7.0508654e-06 -2.3373568e-05 8.028016e-06 7.2389894e-06 1.5124554e-06 1.0783566e-05 -9.812246e-06 8.465028e-06
1.843125e-05 -9.704085e-06 5.9899235e-06 9.987735e-06 9.459671e-06 9.333526e-06 -8.162475e-07 -6.059998e-07
1.6317384e-07 -1.1442153e-06 2.6951477e-07 -6.91007e-07 1.13955046e-07 -5.6135536e-07 4.1807276e-08 -5.427951e-07
1.5064769e-08 -5.40366e-07 5.415859e-09 -5.4005176e-07 1.9464457e-09 -5.40011e-07 6.995202e-10 -5.400057e-07
-5.4391805e-08 -9.697884e-07 1.4316178e-06 1.1821346e-06 9.967702e-07 -2.1023282e-06 -1.0696205e-06 6.6002286e-07
1.2728214e-06 1.5881207e-06 -2.8008782e-07 -9.65784e-07 6.102401e-07 3.2593434e-07 2.375341e-06 4.7434708e-07
4.345322e-07 1.1923884e-06 7.2649914e-07 -1.3853061e-07 -5.0463336e-07 4.817704e-08 -6.5349473e-09 -1.1206562e-07
1.9056081e-08 -2.7180745e-08 7.956776e-09 -1.3202447e-08 2.911687e-09 -1.1343253e-08 1.0488338e-09 -1.1102248e-08
3.7704376e-10 -1.1071115e-08 1.3550766e-10 -1.1067124e-08 -3.1831656e-05 2.7880262e-05 -1.4253509e-05 -4.818128e-06
00000000: 0cc4 18b7 8e8e 0737 55f0 8ab6 c30d e3b5
00000010: 0b00 d1b6 b495 8a37 9ba8 c6b6 c995 8fb6
00000020: a5a6 86b5 e727 04b7 92e4 b236 500b c5b6
00000030: 4458 52b7 d045 c536 943b aab6 d5f2 eeb6
00000040: 37f7 cbb6 ec51 b9b6 3a29 23b5 c5f3 11b5
00000050: f263 46b5 19f7 00b5 f04c 0935 ab80 06b4
00000060: 78f4 8e34 2600 a534 d390 d633 48be c834
00000070: ec12 1b33 3c76 cd34 cd14 5f32 ad12 ce34
00000080: 715b a031 e626 ce34 2f85 e630 8029 ce34
00000090: 4dd5 1db6 f6b0 1236 dd17 a4b5 d157 07b5
000000a0: a332 bab5 e13b 8f36 805e aeb5 b1fc acb5
000000b0: e679 d0b4 7651 08b6 750e db35 7161 b8b5
000000c0: fa4a 58b6 92b6 d535 1a97 b2b5 a30a efb5
000000d0: 761b dcb5 11ac e2b5 e21e 33b4 304c 2434
000000e0: e557 6632 089e 9034 67a4 90b3 2ad9 1834
000000f0: e89d fbb2 86e3 df33 2620 39b2 6d4e d433
00000100: f175 85b1 fbca d233 6eed bfb0 d898 d233
00000110: 06f5 09b0 6092 d233 7651 46af 8891 d233
00000120: 8267 b336 f1f5 bbb6 736f 7636 26e6 0436
00000130: af1b 9936 b10d 42b7 fc44 2e36 4f69 4c36
00000140: f981 e035 07a9 ca36 a161 63b6 28d3 3036
00000150: e65e 0537 50e7 56b6 4b44 a836 3e04 9b36
00000160: 71c6 8536 9f00 8e36 e616 1435 a4b8 4d35
00000170: e67a 8135 dea6 7b35 5cf3 2eb5 dee6 df34
00000180: 9c59 b5b4 7d34 10b4 4607 08b4 0aeb 6ab4
00000190: b09c 44b3 2be3 76b4 b16a 8db2 0570 78b4
000001a0: 004f cbb1 49a3 78b4 e121 12b1 dfa9 78b4
000001b0: 2835 dc37 5381 c9b7 0180 5c37 1b56 b336
000001c0: 6e0a 8a37 67ed 47b8 839b 8037 dc99 6337
000001d0: e305 8236 ea80 bf37 e179 90b7 1333 8437
000001e0: a43b 1738 3f4b 92b7 413f 7937 facd a837
000001f0: 98ac 9737 ebf8 9437 6f43 ba34 1028 48b4
00000200: cafc 0035 1a47 0eb5 ee82 c6b4 f00b 40b5
00000210: 1720 4eb4 34b6 88b5 c9a9 9ab3 c102 8fb5
00000220: 5e8e dfb2 c8d7 8fb5 35cc 20b2 60f3 8fb5
00000230: 012c 67b1 f1f6 8fb5 e128 a6b0 66f7 8fb5
00000240: 9140 74b7 ef3f 5d37 d910 eeb6 2a1d 3cb6
00000250: 4e89 14b7 47a2 da37 9031 10b7 aae2 fbb6
00000260: e1e9 04b6 bb76 4fb7 d7f0 2037 2da8 14b7
00000270: 90ad a6b7 8a8b 2337 9d99 03b7 3469 39b7
00000280: ac1a 27b7 72e6 23b7 46e4 2cb5 8305 0e35
00000290: d819 8231 73bd 8135 775a ccb3 5914 2d35
000002a0: 49c3 19b3 b694 2135 7ec2 5db2 4435 2035
000002b0: d773 9fb1 7108 2035 673a e5b0 a902 2035
000002c0: f6c2 24b0 ed01 2035 59d9 6caf d401 2035
000002d0: d29e 6837 b81f 4db7 c046 d636 4799 0b36
000002e0: 7996 ec36 5b12 c4b7 11b0 0637 72e6 f236
000002f0: 92ff ca35 10eb 3437 479f 24b7 0505 0e37
00000300: cf9c 9a37 bace 22b7 0dfd c836 ff90 2737
00000310: fab4 1e37 3097 1c37 1a1c 5bb5 fdab 22b5
00000320: e234 2f34 f092 99b5 d4b1 9034 a47d 39b5
00000330: 73b7 f433 0cb0 16b5 968f 3333 98b4 11b5
00000340: c767 8132 ab0d 11b5 6616 ba31 13f8 10b5
00000350: 3cc2 0531 46f5 10b5 5c48 4030 e9f4 10b5
00000360: 6c9c 69b3 ad29 82b5 0326 c035 d6a9 9e35
00000370: c3c8 8535 b915 0db6 e18f 8fb5 6d2c 3135
00000380: cfd5 aa35 6927 d535 fa5e 96b4 16a0 81b5
00000390: 61cf 2335 13fc ae34 0c68 1f36 c4a9 fe34
000003a0: a749 e934 270a a035 a404 4335 01bf 14b4
000003b0: 2476 07b5 37eb 4e33 018a e0b1 baa8 f0b3
000003c0: c4b0 a332 177b e9b2 45b2 0832 fad0 62b2
000003d0: f016 4831 27e0 42b2 8f26 9030 34bc 3eb2
000003e0: 3148 cf2f 4733 3eb2 04fe 142f ba21 3eb2
000003f0: fb82 05b8 68e0 e937 5b22 6fb7 68ab a1b6

exp_avg_sq f4 [108, 36]
7.3697024e-08 7.134185e-08 9.7071755e-09 8.1965634e-10 3.8275513e-08 2.5175328e-07 3.840542e-08 1.6457737e-08
6.6521516e-10 4.834615e-08 3.09901e-08 3.656887e-08 1.4308506e-07 3.4282692e-08 1.2923424e-08 4.4303757e-08
3.3016704e-08 2.4549204e-08 1.9918211e-11 1.625415e-11 2.773478e-11 5.9558525e-11 6.42494e-11 7.399096e-11
1.1632622e-11 1.3756503e-10 1.5680985e-12 1.4914424e-10 2.0364736e-13 1.5070577e-10 2.6320788e-14 1.509087e-10
3.399776e-15 1.5093482e-10 4.3910283e-16 1.5093826e-10 5.3641642e-09 5.0434137e-09 6.975297e-10 4.4861385e-11
2.190442e-09 1.6784995e-08 2.6741915e-09 1.2491163e-09 6.761635e-11 3.158142e-09 2.6868314e-09 2.6803657e-09
1.00563256e-08 2.6701574e-09 6.7587064e-10 2.9790577e-09 2.431527e-09 1.932006e-09 3.7933268e-12 2.5010651e-12
1.5429603e-12 7.558793e-12 2.642034e-12 7.649759e-12 4.788268e-13 1.0030893e-11 6.4565534e-14 1.0474689e-11
8.3854026e-15 1.0534709e-11 1.0837947e-15 1.0542498e-11 1.3999042e-16 1.05435e-11 1.8080643e-17 1.0543638e-11
1.4332194e-07 1.1015566e-07 1.7032013e-08 1.3951118e-09 6.6566756e-08 4.2645357e-07 8.009822e-08 2.60883e-08
4.6374085e-10 8.803412e-08 5.1007074e-08 7.4164994e-08 2.6767242e-07 6.452207e-08 2.4709577e-08 8.542626e-08
6.076753e-08 3.834699e-08 3.1527548e-11 1.5890622e-11 5.033244e-11 7.9506984e-11 8.774785e-11 1.5445838e-10
1.5555737e-11 2.5190375e-10 2.0917324e-12 2.6887456e-10 2.71565e-13 2.711522e-10 3.5097572e-14 2.7144775e-10
4.5334097e-15 2.7148597e-10 5.855189e-16 2.71491e-10 8.946936e-08 1.0531162e-07 1.312824e-08 9.1303237e-10
4.7346802e-08 3.3771988e-07 4.1373383e-08 2.46593e-08 1.2967661e-09 6.064001e-08 4.7911257e-08 4.1624013e-08
1.7924837e-07 4.4499142e-08 1.3997978e-08 5.2838544e-08 4.3136456e-08 3.759697e-08 4.5155442e-11 3.1026362e-11
3.1387396e-11 1.08485346e-10 8.034705e-11 1.0444552e-10 1.4743191e-11 1.7929376e-10 1.9905815e-12 1.9331713e-10
2.5856772e-13 1.9521464e-10 3.3419905e-14 1.9546086e-10 4.316772e-15 1.9549293e-10 5.5753826e-16 1.9549709e-10
4.260456e-08 3.2872375e-08 4.8882516e-09 3.0311442e-10 1.5477907e-08 1.1723172e-07 2.2532417e-08 8.4310265e-09
3.1988223e-10 2.3137058e-08 1.881459e-08 2.1954891e-08 7.715021e-08 2.0853376e-08 5.095034e-09 2.3423853e-08
1.8437214e-08 1.2604881e-08 2.7332322e-11 1.6671194e-11 1.3884756e-11 5.1693604e-11 1.0748191e-11 6.5854495e-11
1.9545672e-12 7.6587334e-11 2.6389475e-13 7.8539016e-11 3.42792e-14 7.880266e-11 4.43061e-15 7.883684e-11
5.7229e-16 7.884133e-11 7.391506e-17 7.884189e-11 8.908544e-08 6.97104e-08 1.0244589e-08 6.8774886e-10
3.8490505e-08 2.5995794e-07 4.8855707e-08 1.6840978e-08 3.8498896e-10 5.219313e-08 3.451816e-08 4.6018908e-08
1.6451e-07 4.142581e-08 1.3056549e-08 5.1459864e-08 3.8008167e-08 2.4812884e-08 3.259186e-11 2.0282742e-11
2.5376331e-11 8.4826146e-11 4.3002733e-11 1.1373828e-10 7.5575015e-12 1.591792e-10 1.0150456e-12 1.6710332e-10
1.3176103e-13 1.6816643e-10 1.702868e-14 1.6830454e-10 2.199526e-15 1.683225e-10 2.8408283e-16 1.683248e-10
1.0215122e-07 8.246267e-08 1.1653169e-08 9.084091e-10 4.3010722e-08 2.988305e-07 5.5391624e-08 1.982979e-08
7.9967866e-10 5.896437e-08 4.23108e-08 5.3441507e-08 1.8867895e-07 4.8641738e-08 1.4527306e-08 5.8150956e-08
4.3919865e-08 2.9633314e-08 4.461327e-11 4.098785e-11 2.8696129e-11 1.0002855e-10 4.074866e-11 1.4178847e-10
7.295628e-12 1.871253e-10 9.824047e-13 1.9508582e-10 1.2756664e-13 1.9615516e-10 1.6487373e-14 1.9629416e-10
2.1296155e-15 1.9631213e-10 2.7505386e-16 1.9631444e-10 2.2687526e-07 1.7651523e-07 2.8650176e-08 2.3094282e-09
00000000: 5e43 9e33 9934 9933 9cc4 2632 304e 6130
00000010: 5f64 2433 b528 8734 35f3 2433 f25e 8d32
00000020: 5bda 3630 27a5 4f33 fa19 0533 e60f 1d33
00000030: eca2 1934 383e 1333 d205 5e32 7f48 3e33
00000040: 40ce 0d33 45e0 d232 d333 af2d 18f9 8e2d
00000050: 2cf5 f32d 78f8 822e 3249 8d2e 35b5 a22e
00000060: aca4 4c2d 1d41 172f b4b0 dc2b 5ffc 232f
00000070: 5b49 652a e7b3 252f 9b13 ed28 06ed 252f
00000080: ccfa 7427 60f4 252f 2420 fd25 58f5 252f
00000090: b04f b831 564a ad31 4abc 3f30 6e4d 452e
000000a0: aa86 1631 982e 9032 e0c4 3731 5fad ab30
000000b0: 9fb0 942e 9f06 5931 3da3 3831 7e31 3831
000000c0: 30c4 2c32 e87d 3731 2bc8 3930 23b8 4c31
000000d0: e017 2731 36c4 0431 4077 852c 2fff 2f2c
000000e0: 0127 d92b c7f9 042d a7ea 392c 7493 062d
000000f0: 1bc7 062b 2077 302d 7f63 9129 ce45 382d
00000100: d80e 1728 1d54 392d f830 9c26 3177 392d
00000110: e165 2125 b47b 392d b6c3 a623 537c 392d
00000120: 09e4 1934 b78e ec33 cb4d 9232 22be bf30
00000130: 76f3 8e33 55f3 e434 7602 ac33 c718 e032
00000140: b9f1 fe2f 450d bd33 df12 5b33 a344 9f33
00000150: 9eb4 8f34 628f 8a33 ef40 d432 9573 b733
00000160: 4e7f 8233 f6b2 2433 dda8 0a2e 80c6 8b2d
00000170: 4a5d 5d2e 74d6 ae2e a6f5 c02e 2bd4 292f
00000180: 68d4 882d 4d7c 8a2f 4d31 132c bbd0 932f
00000190: a4e0 982a 4811 952f bf10 1e29 e03a 952f
000001a0: 5355 a327 4140 952f abc3 2826 f640 952f
000001b0: 4d22 c033 ad27 e233 9c8a 6132 f1f8 7a30
000001c0: 5c5a 4b33 de4f b534 84b2 3133 60d2 d332
000001d0: e739 b230 3339 8233 fcc6 4d33 16c6 3233
000001e0: 6b77 4034 531f 3f33 c27b 7032 98f0 6233
000001f0: 0945 3933 4e7a 2133 8298 462e 9474 082e
00000200: 110b 0a2e d28f ee2e 5eaf b02e 9aad e52e
00000210: b7ae 812d b522 452f 2113 0c2c ef8d 542f
00000220: 898f 912a 09a4 562f 8782 1629 57e9 562f
00000230: 3287 9b27 5ef2 562f 10b3 2026 8af3 562f
00000240: 36fc 3633 8f2f 0d33 84f5 a731 90a3 a62f
00000250: 47f4 8432 d2c0 fb33 4f8d c132 0cd8 1032
00000260: 6cdb af2f eebe c632 b99d a132 5197 bc32
00000270: c7ad a533 0f21 b332 6510 af31 9935 c932
00000280: dd5f 9e32 da8c 5832 eb6a f02d 31a4 922d
00000290: 6243 742d d359 632e 8d15 3d2d c9d0 902e
000002a0: 5a8a 092c d66a a82e 3e8f 942a 89b5 ac2e
000002b0: 3a61 1a29 f449 ad2e 2aa1 9f27 325d ad2e
000002c0: 8cf3 2426 b95f ad2e c06f aa24 0a60 ad2e
000002d0: 3d4f bf33 b3b3 9533 2e00 3032 060c 3d30
000002e0: c250 2533 5990 8b34 6bd5 5133 b4a9 9032
000002f0: 61a6 d32f f42a 6033 1e41 1433 53a6 4533
00000300: 2aa4 3034 29ec 3133 4f4f 6032 b804 5d33
00000310: 6c3e 2333 1c24 d532 2c57 0f2e ad68 b22d
00000320: 6b36 df2d e088 ba2e c620 3d2e f61c fa2e
00000330: f6f3 042d f604 2f2f dfda 8e2b 67bb 372f
00000340: 8859 142a a4e6 382f 7661 9928 840d 392f
00000350: 187e 1e27 9212 392f 3ac3 a325 3813 392f
00000360: 3a5e db33 5516 b133 2e33 4832 9cb3 7930
00000370: caba 3833 f46e a034 bce7 6d33 2b56 aa32
00000380: 62d0 5b30 0340 7d33 37b9 3533 8f87 6533
00000390: ad97 4a34 28ea 5033 c493 7932 a7c1 7933
000003a0: 67a2 3c33 598c fe32 1436 442e 3744 342e
000003b0: f069 fc2d 11f7 db2e ea36 332e e8e5 1b2f
000003c0: 9658 002d 17bf 4d2f dc42 8a2b c77f 562f
000003d0: 95a0 0f2a c5ac 572f 4b81 9428 e5d3 572f
000003e0: 7974 1927 f4d8 572f c98e 9e25 9ad9 572f
000003f0: ff9a 7334 2388 3d34 671a f632 e4b3 1e31

exp_avg f4 [108]
3.840097e-07 9.805335e-08 -2.3158975e-07 -1.0726354e-06 5.960728e-07 -5.40005e-07 -1.106651e-08 1.2559774e-06
-3.214488e-07 6.041948e-07 8.9738313e-07 -1.3709284e-07 2.5054483e-08 1.4355983e-06 -8.381582e-07 6.802073e-07
-2.3214633e-07 -1.1519024e-06 -8.812643e-07 -5.7510584e-07 -7.412336e-07 -4.6035208e-07 -7.853329e-08 3.2220177e-07
-2.639089e-07 7.401118e-08 5.567588e-07 -7.8533225e-07 -6.701059e-07 -3.9001227e-07 -1.8594568e-07 -1.0013756e-07
-1.2306099e-06 -8.207978e-07 1.1736902e-06 4.3478047e-07 -2.1414395e-09 1.7443105e-10 -1.2419957e-09 -6.790895e-09
8.7294625e-09 -3.8975134e-09 -1.5669438e-09 -2.8050098e-09 1.1449798e-09 -4.0536535e-10 -1.1895234e-09 -5.292687e-10
-7.916743e-10 -2.8378504e-09 1.6081179e-09 -8.91439e-09 4.904312e-09 3.3387408e-09 9.857334e-10 4.161038e-09
4.782303e-09 -3.9146992e-09 1.8645685e-09 -4.018584e-09 -9.320148e-10 2.0825597e-09 1.2381142e-10 -1.268142e-09
-5.1842136e-10 6.511319e-09 -3.1501253e-09 -8.368946e-10 -2.0836473e-09 -3.003556e-09 1.3686452e-09 4.1108277e-09
0.00013951716 0.00013195763 0.0001164265 -7.386328e-06 -5.731376e-06 -2.1266803e-07 4.5462424e-05 1.01134565e-05
-0.00011632266 4.7595536e-06 3.0287925e-05 -0.00013755044 0.000101231686 4.7785037e-05 0.00011164162 -0.00024091739
4.138762e-05 -0.00013081406 4.2410436e-05 -0.00020329277 3.8717485e-06 -3.5473367e-06 -3.3025153e-05 3.6059308e-05
-0.000105525854 -0.00013626405 3.4455038e-06 7.54901e-05 -9.325735e-05 -0.00014934085 4.7889735e-05 4.6679597e-05
1.810924e-05 -0.00019678572 -0.00023417253 -1.5171877e-06
00000000: e429 ce34 6691 d233 e8aa 78b4 79f7 8fb5
00000010: d001 2035 dcf4 10b5 071f 3eb2 0e93 a835
00000020: 9693 acb4 f32f 2235 b3e3 7035 cb33 13b4
00000030: 6437 d732 c8ae c035 cbfd 60b5 7d97 3635
00000040: e643 79b4 119b 9ab5 0690 6cb5 f960 1ab5
00000050: 2ff9 46b5 4f26 f7b4 22a6 a8b3 13fb ac34
00000060: 5daf 8db4 14f0 9e33 2c74 1535 9fcf 52b5
00000070: 54e1 33b5 e162 d1b4 5ca8 47b4 350b d7b3
00000080: 6f2b a5b5 cc54 5cb5 b087 9d35 c66b e934
00000090: 9a28 13b1 fac9 3f2f d7b2 aab0 5855 e9b1
000000a0: 95f8 1532 e4ea 85b1 ef5b d7b0 41c2 40b1
000000b0: 655d 9d30 1ada deaf a27c a3b0 f97b 11b0
000000c0: 209d 59b0 fe03 43b1 9e04 dd30 e725 19b2
000000d0: c982 a831 c06f 6531 697a 8730 e1f8 8e31
000000e0: 9551 a431 0f82 86b1 d621 0031 d713 8ab1
000000f0: 5b18 80b0 c71c 0f31 d121 082f c84a aeb0
00000100: a980 0eb0 2bba df31 9779 58b1 390b 66b0
00000110: e92f 0fb1 1e67 4eb1 ec1a bc30 393f 8d31
00000120: 5a4b 1239 1b5e 0a39 002a f438 13d8 f7b6
00000130: 2550 c0b6 be59 64b4 e8ae 3e38 f7ac 2937
00000140: 41f2 f3b8 41b4 9f36 d312 fe37 6a3b 10b9
00000150: 594c d438 cb6c 4838 2321 ea38 c59e 7cb9
00000160: 9e97 2d38 222b 09b9 dce1 3138 fd2a 55b9
00000170: 11ea 8136 c80e 6eb6 7d84 0ab8 633e 1738
00000180: c34d ddb8 1ae2 0eb9 4e39 6736 7050 9e38
00000190: 2993 c3b8 6198 1cb9 36dd 4838 d6c9 4338
000001a0: 4ce9 9737 4458 4eb9 368c 75b9 2ca2 cbb5

exp_avg_sq f4 [108]
1.5093882e-10 1.054365e-11 2.7149188e-10 1.954976e-10 7.884202e-11 1.6832515e-10 1.9631487e-10 4.266265e-10
9.136302e-11 7.348281e-10 5.8357164e-10 4.5371143e-10 1.6592247e-10 4.4359676e-11 4.0820184e-11 4.2866855e-10
1.0263884e-10 3.3128775e-10 2.761996e-10 2.463407e-10 3.517588e-11 2.1770866e-10 5.206676e-10 7.6621084e-11
2.4453978e-10 2.923738e-10 1.01058266e-10 7.308087e-11 9.548952e-11 1.4476527e-10 4.322916e-10 3.850471e-10
1.1543174e-10 6.0506766e-11 4.4064852e-10 7.0951044e-11 8.8822595e-17 7.6902e-17 3.253937e-17 1.837494e-15
1.6501382e-15 1.6444165e-16 4.148358e-17 2.5152993e-16 4.3422237e-17 1.7050023e-16 1.0720576e-16 1.217613e-17
6.4047635e-18 7.001437e-16 2.782956e-17 2.3715809e-15 9.819995e-16 9.073386e-17 8.431132e-17 9.587064e-16
8.7092626e-16 2.613223e-16 2.4907316e-16 2.3300262e-16 1.05558047e-16 4.0394105e-17 1.3868404e-17 4.2540893e-17
1.0393205e-16 5.87076e-16 1.901767e-16 1.0890164e-16 1.2167413e-16 4.082216e-17 2.0290608e-17 2.264224e-16
2.3908655e-07 2.1058545e-07 4.2826684e-07 7.824731e-07 8.72543e-08 3.2008863e-08 6.946554e-08 2.0620173e-07
1.5131961e-06 2.7179055e-07 6.684229e-07 2.0192896e-07 5.098788e-07 1.04494006e-07 1.2967984e-06 4.78548e-07
1.8567025e-07 1.8974742e-07 6.33528e-08 2.4302992e-06 5.6705616e-08 6.422644e-07 7.992509e-07 1.3820443e-06
4.0777593e-07 9.2603244e-07 1.1407119e-07 1.1953458e-07 5.8930056e-07 3.8074327e-07 3.5636538e-07 6.349879e-07
9.184641e-08 8.061182e-07 4.4457255e-07 8.138637e-07
00000000: 80f5 252f 617c 392d 1641 952f aff3 562f
00000010: 1d60 ad2e 5113 392f b9d9 572f 588a ea2f
00000020: cfe8 c82e eefc 4930 3469 2030 356e f92f
00000030: 066f 362f 8e18 432e 7187 332e bca9 eb2f
00000040: 88b4 e12e 9b20 b62f a3d7 972f 5f6d 872f
00000050: 85b4 1a2e 8a5f 6f2f ba1e 0f30 d67d a82e
00000060: ea6f 862f f4bb a02f bf3a de2e dfb4 a02e
00000070: d2fb d12e cd2b 1f2f a2a7 ed2f 90ae d32f
00000080: 4bd6 fd2e 480e 852e c43f f22f e305 9c2e
00000090: 9bcf cc24 ee52 b124 b50f 1624 c867 0427
000000a0: 5bcf ed26 9c96 3d25 2b4f 3f24 44ff 9025
000000b0: ee3f 4824 c992 4425 1c33 f724 269c 6023
000000c0: 484b ec22 7dcd 4926 5857 0024 f2e3 2a27
000000d0: 6385 8d26 d137 d124 9e68 c224 062a 8a26
000000e0: 0407 7b26 5da4 9625 b694 8f25 1e51 8625
000000f0: 7966 f324 f148 3a24 b0d3 7f23 6c2f 4424
00000100: a7a6 ef24 9036 2926 4142 5b25 2f1c fb24
00000110: dd47 0c25 4d42 3c24 d825 bb23 0c86 8225
00000120: ce5b 8034 4a1d 6234 8cec e534 240b 5235
00000130: 8f60 bb33 1e7a 0933 162d 9533 4d68 5d34
00000140: 0619 cb35 9cea 9134 ac6d 3335 cfd1 5834
00000150: 9bde 0835 3066 e033 a70d ae35 9175 0035
00000160: a65c 4734 60bd 4b34 920c 8833 3918 2336
00000170: 7c8c 7333 1368 2c35 1b8c 5635 ae7e b935
00000180: 4cec da34 7794 7835 4df7 f433 6a59 0034
00000190: 6d30 1e35 f568 cc34 7c52 bf34 0974 2a35
000001a0: 193d c533 0564 5835 96ad ee34 4a78 5a35
