SensorFormer/SensorFormer/result/individual/LCS10_10.pt (torch, 81844 bytes, 35 tensors)

self_attn.qkv_proj.weight f4 [108, 36]
-0.026468208 -0.21838363 0.008121538 0.08760082 -0.028317988 -0.13854048 0.21329589 0.07202569
-0.1079895 -0.05729134 0.15009384 0.0778589 0.110106975 0.19284166 -0.053751245 -0.1500527
0.042536374 -0.0010316436 -0.03932132 -0.011961211 0.10570302 -0.039456937 -0.09537714 0.041747715
-0.15129843 -0.0030514481 0.13558625 -0.098886214 -0.061879985 -0.09112734 -0.17561506 -0.0043026186
-0.11173104 -0.18472786 -0.14142297 0.046729986 -0.15520382 0.08142365 0.06135674 0.019725597
0.05094682 -0.035164136 -0.09498228 0.10531916 0.12973395 -0.013417855 -0.06989611 -0.106206186
0.19637845 0.087684646 -0.013639785 0.08475996 -0.08127249 -0.19133526 -0.06748586 0.25373888
0.018474137 -0.12839848 -0.0492898 -0.11190581 0.11540243 0.042985614 -0.030360552 -0.15340666
0.028700797 -0.05302462 -0.015419075 -0.06711017 -0.15078385 -0.08564262 -0.034798376 0.11168214
-0.07928522 -0.09242611 -0.15966912 0.033209268 -0.07948975 0.11087728 0.08099347 -0.054636035
-0.052693654 -0.032670032 -0.079531886 -0.04290477 0.22576067 -0.06503135 -0.08755776 0.16125505
-0.078977354 0.013462507 -0.15217964 -0.05373544 -0.15161365 0.08121896 0.037271228 0.044724993
-0.0098667815 -0.16452028 -0.08693618 0.06034623 0.1706254 0.10437622 -0.21735357 -0.25815374
-0.04338508 -0.06880065 0.17624225 -0.144761 0.10621878 0.076172076 0.23155986 -0.030182298
0.13381115 -0.049101386 0.028310204 -0.0060481904 -0.120305434 -0.1940212 0.009162079 -0.029123982
0.02882823 -0.02938599 0.18717131 -0.062363565 -0.14551692 0.047091544 0.19039086 0.08636903
0.19802947 -0.08999554 -0.11010645 0.11847838 0.100119986 -0.053057194 0.013010369 -0.009068183
-0.15653147 -0.00069587305 -0.18835022 -0.0024468522 -0.17769377 -0.16707028 -0.021538582 -0.17054263
0.0886791 -0.072962545 -0.18153627 -0.118458785 -0.045071177 -0.03736497 0.0037933274 -0.059078705
0.19423348 -0.046795573 -0.16189568 -0.051950954 -0.17766082 0.1981701 -0.040465288 0.18905614
-0.054975033 0.1861747 -0.18272936 -0.00043010208 -0.0073716384 -0.043657836 0.17132236 -0.086781375
0.057564173 -0.21794908 0.11169583 -0.005139369 0.03147116 -0.18779413 -0.004712985 0.03631022
-0.012582873 -0.021988252 0.097038016 0.13205004 -0.22435462 0.12800846 0.0021998272 0.08588298
0.017904432 0.037447263 -0.063800395 -0.17652194 -0.017713241 0.04886047 -0.085094586 0.082735784
-0.04095785 -0.04355472 -0.100571364 -0.09379164 -0.103334546 0.07611114 -0.089873575 -0.005709504
0.05879399 -0.19879273 0.19848983 -0.0028922798 0.17415707 0.18153594 0.001203918 -0.05264642
0.19177511 -0.019092388 0.06626017 -0.0702126 0.11051639 -0.09397493 0.06681017 -0.061995197
-0.056807555 0.072175495 -0.05716989 0.08207733 -0.055725917 0.13293664 -0.05728163 0.20007269
-0.08805083 -0.08058187 -0.09857758 0.13664748 -0.009322783 0.099365346 -0.22126171 -0.060051054
0.02059995 0.10425508 0.047152698 -0.03981001 -0.15929945 0.035285655 -0.096772194 0.09915631
0.108934395 -0.14957814 0.08141062 0.07700251 -0.20645292 0.1365576 -0.008512073 -0.101199105
0.03223664 0.074932106 -0.06536911 -0.056787547 -0.03123931 -0.1405249 -0.12557001 -0.16727532
00000000: dbd3 d8bc f59f 5fbe 3310 053c 0f68 b33d
00000010: 20fb e7bc 8edd 0dbe 3d6a 5a3e 3482 933d
00000020: 9929 ddbd 53aa 6abd 33b2 193e 7d74 9f3d
00000030: c47f e13d 4978 453e 442a 5cbd 6aa7 19be
00000040: 9f3a 2e3d 3738 87ba 640f 21bd f5f8 43bc
00000050: d37a d83d 999d 21bd 1755 c3bd a7ff 2a3d
00000060: faed 1abe cefa 47bb 1fd7 0a3e db84 cabd
00000070: de75 7dbd f9a0 babd 6fd4 33be fbfc 8cbb
00000080: 3ed3 e4bd 4d29 3dbe 2fd1 10be f167 3f3d
00000090: c0ed 1ebe 71c1 a63d 3451 7b3d 9397 a13c
000000a0: 9dad 503d 4508 10bd 1286 c2bd 92b1 d73d
000000b0: fad8 043e 90d6 5bbc b125 8fbd a182 d9bd
000000c0: 6f17 493e 0294 b33d 6879 5fbc a196 ad3d
000000d0: 3172 a6bd 64ed 43be 0736 8abd 10ea 813e
000000e0: 1357 973c e47a 03be 1ae4 49bd e02e e5bd
000000f0: 1c58 ec3d af11 303d b1b6 f8bc a316 1dbe
00000100: ef1d eb3c 5830 59bd 4aa0 7cbc 0f71 89bd
00000110: 1567 1abe 6665 afbd be88 0ebd 9bb9 e43d
00000120: 4a60 a2bd e649 bdbd 4d80 23be 7106 083d
00000130: 86cb a2bd a113 e33d e8df a53d 09ca 5fbd
00000140: 4dd5 57bd 03d1 05bd 9de1 a2bd e9bc 2fbd
00000150: ce2d 673e 282f 85bd 7c51 b3bd 0b20 253e
00000160: e1be a1bd d991 5c3c fbd4 1bbe b119 5cbd
00000170: 9c40 1bbe 2056 a63d b7a9 183d 8e31 373d
00000180: 48a8 21bc 0178 28be 990b b2bd 9c2d 773d
00000190: 6db8 2e3e 33c3 d53d ef91 5ebe ba2c 84be
000001a0: 8eb4 31bd 5be7 8cbd d978 343e 3a3c 14be
000001b0: 3b89 d93d 1b00 9c3d 071e 6d3e de40 f7bc
000001c0: ca05 093e 891e 49bd cdea e73c e62f c6bb
000001d0: b262 f6bd 7ead 46be 8b1c 163c 6b95 eebc
000001e0: 2e29 ec3c e3ba f0bc d6a9 3f3e f070 7fbd
000001f0: 6302 15be 10e3 403d d2f5 423e 3fe2 b03d
00000200: 3dc8 4a3e 954f b8bd 7e7f e1bd cba4 f23d
00000210: b50b cd3d 8052 59bd 7129 553c b792 14bc
00000220: c949 20be 406b 36ba e1de 40be 5e5b 20bb
00000230: 5bf5 35be 7914 2bbe ae71 b0bc baa2 2ebe
00000240: 639d b53d 636d 95bd a5e4 39be 859a f2bd
00000250: 8e9c 38bd 030c 19bd 7999 783b 83fc 71bd
00000260: 24e5 463e b7ac 3fbd fbc7 25be 86ca 54bd
00000270: b8ec 35be 1aed 4a3e eebe 25bd ef97 413e
00000280: 802d 61bd 95a4 3e3e 681d 3bbe 537f e1b9
00000290: c98d f1bb 8fd2 32bd 216f 2f3e 6fba b1bd
000002a0: 69c8 6b3d 0b2e 5fbe c9c0 e43d 2768 a8bb
000002b0: e7e7 003d 1b4d 40be 626f 9abb 06ba 143d
000002c0: 6528 4ebc b520 b4bc debb c63d 2038 073e
000002d0: 38bd 65be a614 033e fa2a 103b 6ae3 af3d
000002e0: 51ac 923c 4d62 193d c8a9 82bd 2bc2 34be
000002f0: 5c1b 91bc eb21 483d 1246 aebd 6171 a93d
00000300: 6bc3 27bd 6f66 32bd 5cf8 cdbd d515 c0bd
00000310: 10a1 d3bd 28e0 9b3d a30f b8bd ca16 bbbb
00000320: f8d1 703d 5290 4bbe eb40 4b3e 678c 3dbb
00000330: 3b56 323e 8fe4 393e c9cc 9d3a c6a3 57bd
00000340: b260 443e a467 9cbc 69b3 873d a0cb 8fbd
00000350: 6b56 e23d ee75 c0bd c5d3 883d adee 7dbd
00000360: 0aaf 68bd bfd0 933d f92a 6abd 2918 a83d
00000370: dc40 64bd 8b20 083e 24a0 6abd dbdf 4c3e
00000380: fe53 b4bd 1c08 a5bd 0be3 c9bd 51ed 0b3e
00000390: 96be 18bc 0f80 cb3d 6e92 62be 18f8 75bd
000003a0: 3ac1 a83c b083 d53d 3023 413d d20f 23bd
000003b0: 651f 23be b187 103d 8030 c6bd 7712 cb3d
000003c0: ff18 df3d 032b 19be 9cba a63d 7eb3 9d3d
000003d0: 6568 53be c1d5 0b3e 3976 0bbc 7a41 cfbd
000003e0: 910a 043d 0176 993d 3de0 85bd 0f9a 68bd
000003f0: 95e9 ffbc c2e5 0fbe 6d95 00be 394a 2bbe

self_attn.qkv_proj.bias f4 [108]
-0.05376609 -0.006449171 -0.05845836 0.031624265 -0.015495632 0.031717177 -0.026867917 0.035639185
0.05360325 0.042556703 -0.012653254 -0.043782335 -0.024047581 0.0073956004 -0.062252093 -0.03512187
0.039804235 0.031228786 -0.011382433 -0.030620744 -0.001271875 0.0049557956 0.017658923 -0.019638477
-0.056784052 0.034806367 0.007989886 -0.059717145 0.00804828 0.0010588024 -0.024625275 0.014920017
-0.015893165 -0.036557954 0.050854247 -0.020706423 0.015135642 -0.017411435 0.005163572 -0.014520009
-0.0003156302 0.009453133 0.01628703 -0.003757756 -0.014632992 0.012003717 -0.008580953 0.009995236
-0.012955677 -0.015913406 -0.011539203 0.012829382 -0.008608793 -0.003080198 0.013702803 0.017829105
-0.011328818 0.011087331 0.0003666683 0.01366325 -0.01999831 -0.013817384 0.01653871 -0.0072576944
-0.015378929 0.012863866 -0.016720373 -0.0046100453 -0.013830278 0.007756944 -0.0031293007 0.0026847504
-0.10331797 -0.02069832 0.00904527 0.03899998 -0.049749024 -0.08535552 0.008747478 0.076152645
-0.03956426 -0.05576542 0.046521157 0.03809955 -0.03526337 0.0067186286 0.04962445 -0.039996307
-0.057007868 0.015062202 0.06066804 -0.03442866 0.03023391 -0.064061806 0.01480545 0.06068209
0.0460442 0.08232069 -0.0057714814 0.076746896 -0.098359585 0.030129202 -0.06916496 -0.048077226
-0.046448857 0.040199507 0.02809828 -0.12801766
00000000: d539 5cbd 9153 d3bb 0972 6fbd 7288 013d
00000010: 64e1 7dbc dfe9 013d 1b1a dcbc 65fa 113d
00000020: 158f 5b3d f04f 2e3d 984f 4fbc 1b55 33bd
00000030: 6fff c4bc cb56 f23b 0dfc 7ebd f3db 0fbd
00000040: c409 233d 83d3 ff3c 627d 3abc 5bd8 fabc
00000050: 0bb5 a6ba 3a64 a23b 72a9 903c dfe0 a0bc
00000060: 6596 68bd 1f91 0e3d 03e8 023c f799 74bd
00000070: efdc 033c 83c7 8a3a f2ba c9bc 1673 743c
00000080: 6232 82bc cbbd 15bd 8b4c 503d 84a0 a9bc
00000090: 7cfb 773c 6da2 8ebc 2e33 a93b 55e5 6dbc
000000a0: 2b7b a5b9 50e1 1a3c 616c 853c af44 76bb
000000b0: 38bf 6fbc 3dab 443c 2097 0cbc 0fc3 233c
000000c0: 0c44 54bc d55c 82bc ed0e 3dbc 5432 523c
000000d0: e50b 0dbc 26dd 49bb b981 603c 580e 923c
000000e0: 829c 39bc a3a7 353c 633d c039 d3db 5f3c
000000f0: 7fd3 a3bc 4f62 62bc 307c 873c f4d1 edbb
00000100: e7f7 7bbc f7c2 523c 2af9 88bc dd0f 97bb
00000110: 6498 62bc f62d fe3b f414 4dbb a3f2 2f3b
00000120: 5f98 d3bd 868f a9bc 9d32 143c 71be 1f3d
00000130: a2c5 4bbd e0ce aebd 9551 0f3c ebf5 9b3d
00000140: 220e 22bd 486a 64bd f88c 3e3d 460e 1c3d
00000150: 5370 10bd f127 dc3b 0243 4b3d 2bd3 23bd
00000160: 1581 69bd 74c7 763c 0d7f 783d 1105 0dbd
00000170: 1bad f73c d632 83bd 8f92 723c c98d 783d
00000180: d898 3c3d c097 a83d b21e bdbb 7a2d 9d3d
00000190: c070 c9bd 84d1 f63c 5ca6 8dbd a0ec 44bd
000001a0: 2841 3ebd 3da8 243d 5d2e e63c 1017 03be

self_attn.o_proj.weight f4 [36, 36]
0.17118624 0.02970676 -0.0007616603 0.16916893 -0.18551706 -0.294411 0.0028876013 0.060817033
-0.0686318 -0.20126006 -0.15342705 0.08687717 -0.0054981564 0.11539434 0.19376856 0.016907303
0.019709883 0.3403703 0.28941384 -0.088278994 -0.20375651 -0.25734425 0.22225593 -0.19239423
-0.16699421 0.32803583 0.105265245 0.28699514 -0.26397958 0.15774313 -0.30721903 -0.2598866
0.019256853 0.35154715 -0.020477634 -0.07504382 0.15438546 0.011419468 -0.3175934 -0.022884728
0.06600416 0.06330877 0.13925155 -0.2530868 0.048839245 0.14407958 -0.025377797 -0.04117576
-0.029246336 -0.2344862 -0.14071932 0.0116606075 0.10212959 -0.23987113 0.019841695 -0.24694403
-0.16895472 0.3130546 -0.022999302 -0.006509625 -0.028096514 -0.33274418 0.22651812 0.002040264
-0.19710103 -0.036297437 0.23932506 -0.011833169 0.067681946 -0.040918585 -0.12012499 0.027973346
0.15747243 0.055563718 0.20378461 -0.1217963 -0.25861198 -0.11706272 0.1280926 0.12905753
0.079845876 -0.061872497 0.09739772 0.0800315 -0.0092583345 0.18053998 -0.025859596 -0.039649624
0.0060868766 -0.106335625 0.23273513 -0.08027439 -0.11690856 0.22295487 0.22249015 -0.1567571
0.09271886 -0.29463044 -0.2042176 -0.04070373 0.20185156 -0.2052074 0.0029901722 0.013328662
0.2592439 0.019538969 0.0781577 -0.16288862 0.2752264 -0.13666691 -0.27691436 0.14076316
0.044018995 -0.251916 -0.006661198 0.19310345 -0.1286961 0.23054618 -0.12880953 -0.0016654995
0.24295676 0.23197708 0.020961432 0.03434448 -0.14717692 -0.067329735 -0.033060227 0.0822744
-0.2635874 0.15734893 0.1912849 0.0015489991 -0.10361047 -0.075140156 -0.10792191 -0.122456945
-0.067486085 -0.012781654 -0.12806804 -0.031395394 0.2901719 0.076070145 0.25042787 -0.18940854
0.0028157935 0.072246544 -0.039151814 0.16568494 -0.023412641 -0.01604741 -0.23225066 -0.05291869
-0.07282376 0.14682196 -0.19166644 -0.024252327 0.20581122 0.005650683 0.13762195 0.131288
0.2813454 -0.28371602 -0.35535523 0.1682163 0.17307466 0.24690789 -0.0013013358 0.08873499
-0.31270382 0.045646705 0.32619375 -0.013851685 0.27268958 -0.32786214 0.18764941 -0.013042928
0.18034777 0.13847293 0.045276027 0.33184662 0.15172148 0.10231096 0.25674292 0.1269148
-0.039558113 -0.2656467 -0.03989634 0.25385004 0.11057724 -0.12895149 -0.26149744 -0.10749639
0.18317252 -0.07446144 0.1654035 0.18867993 0.003485243 -0.04990798 -0.0064597544 0.09614032
0.071067505 -0.074342564 -0.25741836 -0.1417651 0.112842605 0.08151597 0.1132026 -0.012937458
-0.19373198 0.028939817 -0.004652509 0.15170427 -0.12795216 0.05689121 0.10748621 -0.2630482
-0.35591364 0.16111349 -0.10523882 -0.091376245 -0.10175595 -0.2677413 -0.07596715 0.3344678
-0.035165884 -0.041579586 0.0095236115 0.10485896 0.02524072 -0.20672965 0.011874878 -0.09226101
-0.030533968 -0.16893898 -0.07252663 -0.013899148 -0.05728558 -0.028882476 0.124890886 0.21208495
0.10958555 0.025538675 0.0039421194 0.056368466 -0.34929985 -0.19694808 -0.2984824 -0.27881682
-0.006035536 -0.16955836 0.052309826 0.07427143 -0.16100611 -0.09282119 -0.011023003 -0.20935877
00000000: 724b 2f3e 975b f33c 28aa 47ba 9f3a 2d3e
00000010: 2ff8 3dbe 0abd 96be e93d 3d3b 481b 793d
00000020: d48e 8cbd 1e17 4ebe fb1b 1dbe a8ec b13d
00000030: e129 b4bb de53 ec3d 446b 463e 2f81 8a3c
00000040: 9f76 a13c 0445 ae3e 0d2e 943e 9ecb b4bd
00000050: 8ca5 50be a0c2 83be 0f97 633e fe02 45be
00000060: 8800 2bbe 50f4 a73e 4e95 d73d 07f1 923e
00000070: 5528 87be 6a87 213e d04b 9dbe db0f 85be
00000080: 8cc0 9d3c fdfd b33e b6c0 a7bc 93b0 99bd
00000090: 3917 1e3e b818 3b3c 9a9b a2be c178 bbbc
000000a0: 302d 873d 07a8 813d f597 0e3e 9894 81be
000000b0: a90b 483d 9989 133e 19e5 cfbc eaa7 28bd
000000c0: 0396 efbc 271d 70be ba18 10be 220c 3f3c
000000d0: 5229 d13d c7a0 75be 0d8b a23c e5de 7cbe
000000e0: 7702 2dbe b148 a03e 0869 bcbc b14e d5bb
000000f0: a92a e6bc 725d aabe 5ef4 673e f3b5 053b
00000100: dad4 49be 9fac 14bd a111 753e e8df 41bc
00000110: d59c 8a3d 3f9a 27bd 1704 f6bd 5c28 e53c
00000120: 7440 213e c896 633d eaac 503e 5770 f9bd
00000130: ca68 84be 94be efbd b52a 033e a827 043e
00000140: 3c86 a33d 046e 7dbd 7578 c73d 8ee7 a33d
00000150: 45b0 17bc 79df 383e 81d7 d3bc a567 22bd
00000160: 6c74 c73b 7ec6 d9bd 1e52 6e3e e666 a4bd
00000170: c16d efbd 484e 643e 75d4 633e ef84 20be
00000180: 63e3 bd3d cdd9 96be 6b1e 51be f4b8 26bd
00000190: 2db2 4e3e e321 52be c4f6 433b 7660 5a3c
000001a0: 9ebb 843e 3010 a03c 2511 a03d 46cc 26be
000001b0: 7aea 8c3e 69f2 0bbe b8c7 8dbe 3824 103e
000001c0: 434d 343d 22fb 80be 2e46 dabb e9bc 453e
000001d0: e9c8 03be 4c14 6c3e a5e6 03be e44c daba
000001e0: a8c9 783e 668b 6d3e 4fb7 ab3c ccac 0c3d
000001f0: 8cb5 16be 2ce4 89bd 296a 07bd 7b7f a83d
00000200: edf4 86be 1420 213e 30e0 433e c907 cb3a
00000210: ba31 d4bd 15e3 99bd 2a06 ddbd b5ca fabd
00000220: 2536 8abd 246a 51bc 4524 03be 7598 00bd
00000230: 6991 943e aaca 9b3d 1538 803e 50f4 41be
00000240: 2d89 383b fff5 933d a75d 20bd 50a9 293e
00000250: decb bfbc dc75 83bc 1ed3 6dbe 45c1 58bd
00000260: a024 95bd 7f58 163e 3544 44be d1ac c6bc
00000270: 2dc0 523e 5d29 b93b c5ec 0c3e 5d70 063e
00000280: 810c 903e 3a43 91be 1ff1 b5be e540 2c3e
00000290: 7c3a 313e 6cd5 7c3e 9591 aaba b1ba b53d
000002a0: b71a a0be 0af8 3a3d de02 a73e 2ef2 62bc
000002b0: f89d 8b3e 8cdd a7be 2b27 403e 01b2 55bc
000002c0: 16ad 383e d9cb 0d3e 5b73 393d cde7 a93e
000002d0: e05c 1b3e 6988 d13d cf73 833e f4f5 013e
000002e0: b007 22bd d802 88be 586a 23bd a2f8 813e
000002f0: 5276 e23d dc0b 04be fee2 85be 1127 dcbd
00000300: 9491 3b3e 3d7f 98bd 895f 293e 5035 413e
00000310: ad68 643b 4f6c 4cbd 59ac d3bb 37e5 c43d
00000320: d78b 913d ea40 98bd 57cc 83be df2a 11be
00000330: 061a e73d d8f1 a63d c4d6 e73d a2f7 53bc
00000340: ad61 46be 3213 ed3c 1374 98bb 5d58 1b3e
00000350: e405 03be c206 693d bb21 dc3d 41ae 86be
00000360: 503a b6be effa 243e 7387 d7bd 7823 bbbd
00000370: 6c65 d0bd 6315 89be aa94 9bbd 5d3f ab3e
00000380: 1a0a 10bd 5b4f 2abd ec08 1c3c 4bc0 d63d
00000390: a0c5 ce3c f0b0 53be d98e 423c 57f3 bcbd
000003a0: 5f22 fabc 57fe 2cbe d788 94bd 41b9 63bc
000003b0: 49a4 6abd f19a ecbc cbc6 ff3d cc2c 593e
000003c0: 646e e03d 7c36 d13c e52c 813b 9fe2 663d
000003d0: 6ed7 b2be c2ac 49be afd2 98be 14c1 8ebe
000003e0: bfc5 c5bb b5a0 2dbe d442 563d 9f1b 983d
000003f0: c9de 24be 0919 bebd d399 34bc 2562 56be

self_attn.o_proj.bias f4 [36]
0.066628814 -0.03901702 -0.028775701 -0.004160912 -0.07594833 0.07904526 0.076110594 0.07247541
0.008060307 0.013677146 -0.006152013 0.03522455 0.053275287 0.039504115 -0.035089508 0.036240086
0.031874426 -0.035538707 -0.055682853 -0.04296 0.04765308 -0.07843277 0.04247354 0.023933224
0.05061488 -0.041096836 0.07124612 -0.05215758 -0.038197264 -0.04190364 0.03843367 0.08135436
-0.0560265 0.043213215 -0.044792566 -0.0705263
00000000: b074 883d 50d0 1fbd 05bb ebbc 4258 88bb
00000010: cc8a 9bbd 7be2 a13d dfdf 9b3d fd6d 943d
00000020: 610f 043c 1c16 603c d396 c9bb 9e47 103d
00000030: 3037 5a3d 11cf 213d 04ba 0fbd 7c70 143d
00000040: c28e 023d 0991 11bd b413 64bd d3f6 2fbd
00000050: e02f 433d 5ca1 a0bd bcf8 2d3d 9c0f c43c
00000060: 8c51 4f3d 2855 28bd 7ce9 913d 30a3 55bd
00000070: bc74 1cbd 27a3 2bbd a06c 1d3d 1d9d a63d
00000080: 0b7c 65bd 5700 313d 6978 37bd 1870 90bd

fc.weight f4 [1, 18]
-0.12330468 -0.16924508 -0.015544292 -0.1809653 -0.12263691 -0.14117941 0.17620833 0.106625624
-0.16516814 -0.17279801 -0.183003 -0.09515261 0.15746894 0.22419642 -0.025566475 0.046890393
-0.2037307 -0.06742484
00000000: 2a87 fcbd 954e 2dbe 7cad 7ebc f84e 39be
00000010: 0f29 fbbd 5691 10be f56f 343e 895e da3d
00000020: d621 29be f6f1 30be 2365 3bbe 5fdf c2bd
00000030: 8a3f 213e bf93 653e c970 d1bc 2410 403d
00000040: c89e 50be 0916 8abd

fc1.weight f4 [1, 36]
0.41889068 -0.46783826 0.33401307 -0.4310032 -0.022385512 0.36829928 0.25260967 0.3993429
0.4159508 0.43158793 -0.27573878 -0.17855634 0.41392326 0.4333347 0.32989728 0.46719235
0.4567649 -0.38122794 -0.45071617 -0.5045271 0.51811886 -0.4235624 0.4812137 0.46398595
0.45712128 -0.5135587 0.44127944 -0.524063 -0.44120649 -0.46597618 0.4818172 0.437866
-0.50925684 -0.2939899 -0.472148 -0.42037496
00000000: d778 d63e 7f88 efbe c303 ab3e 74ac dcbe
00000010: d261 b7bc b991 bc3e 0e56 813e ac76 cc3e
00000020: 81f7 d43e 18f9 dc3e a22d 8dbe 79d7 36be
00000030: c0ed d33e 0cde dd3e 4ce8 a83e d633 ef3e
00000040: 17dd e93e 4f30 c3be 45c4 e6be b028 01bf
00000050: 70a3 043f 2cdd d8be a461 f63e 918f ed3e
00000060: cd0b ea3e 9578 03bf 61ef e13e fe28 06bf
00000070: d1e5 e1be 6e94 eebe beb0 f63e f92f e03e
00000080: a85e 02bf d885 96be 62bd f1be 633b d7be

fc2.weight f4 [1, 9]
0.048810482 -0.32065555 0.12796283 0.2232986 -0.1061279 -0.29919237 0.20753333 0.048941255
0.12041744
00000000: 80ed 473d f72c a4be b008 033e 63a8 643e
00000010: 9659 d9bd be2f 99be 9e83 543e a076 483d
00000020: 6b9d f63d

fc3.weight f4 [1, 2]
0.63827085 0.20959695
00000000: b865 233f 95a0 563e

input_fc.weight f4 [18, 3]
-0.23723271 0.1938546 -0.45266104 0.06781928 0.16101114 0.008774323 0.4689333 0.5138523
-0.118948385 -0.5022782 -0.46453902 -0.39878932 0.52982336 0.40305147 0.49869803 -0.38160288
-0.16729254 0.5331123 -0.36627883 -0.12416345 -0.3905855 -0.43746105 -0.22144993 -0.18336357
0.13874565 -0.3389529 0.10333555 -0.19095682 -0.25353834 0.40657848 0.085763425 -0.56097764
-0.5812456 -0.087050855 -0.4863885 -0.49783197 0.2884683 -0.2659951 -0.21751648 0.24915025
-0.084937155 -0.44785318 0.5773141 -0.22144964 0.48949978 0.3886089 -0.4304273 0.18422665
-0.22771277 0.22405478 0.4471633 -0.23295908 0.12575012 -0.19520624
00000000: 22ed 72be d281 463e 30c3 e7be d6e4 8a3d
00000010: 1be0 243e 2ec2 0f3c 0718 f03e d38b 033f
00000020: 369b f3bd 4e95 00bf 0fd8 edbe 1d2e ccbe
00000030: 81a2 073f c35c ce3e 5955 ff3e 7461 c3be
00000040: bc4e 2bbe 0c7a 083f e688 bbbe 6849 febd
00000050: d3fa c7be e5fa dfbe c5c3 62be a9c3 3bbe
00000060: 5713 0e3e 3c8b adbe 97a1 d33d 2f8a 43be
00000070: c7cf 81be 0e2b d03e bca4 af3d 3b9c 0fbf
00000080: 83cc 14bf b847 b2bd ea07 f9be d5e3 febe
00000090: 1eb2 933e 8230 88be a4bc 5ebe 3e21 7f3e
000000a0: 88f3 adbd 034d e5be dbca 133f b2c3 62be
000000b0: b79f fa3e bff7 c63e f860 dcbe e9a5 3c3e
000000c0: 892d 69be 9e6e 653e 97f2 e43e d38c 6ebe
000000d0: a4c4 003e 25e4 47be

input_fc.bias f4 [18]
-0.10048198 -0.24063426 0.5711533 0.40897995 -0.47015518 0.420057 -0.46254432 -0.47069788
0.068403475 0.54798627 -0.21248001 0.15367548 -0.14627948 0.2528623 0.59012973 0.12942928
0.07113953 0.27786687
00000000: 7fc9 cdbd d468 76be 1a37 123f d265 d13e
00000010: 2eb8 f0be b611 d73e 9cd2 ecbe 50ff f0be
00000020: 1f17 8c3d d448 0c3f 5c94 59be 1b5d 1d3e
00000030: 4aca 15be 2b77 813e be12 173f 1c89 043e
00000040: 9ab1 913d 9144 8e3e

norm.weight f4 [36]
1.0 1.0 1.0 1.0 1.0 1.0 1.0 1.0
1.0 1.0 1.0 1.0 1.0 1.0 1.0 1.0
1.0 1.0 1.0 1.0 1.0 1.0 1.0 1.0
1.0 1.0 1.0 1.0 1.0 1.0 1.0 1.0
1.0 1.0 1.0 1.0
00000000: 0000 803f 0000 803f 0000 803f 0000 803f
00000010: 0000 803f 0000 803f 0000 803f 0000 803f
00000020: 0000 803f 0000 803f 0000 803f 0000 803f
00000030: 0000 803f 0000 803f 0000 803f 0000 803f
00000040: 0000 803f 0000 803f 0000 803f 0000 803f
00000050: 0000 803f 0000 803f 0000 803f 0000 803f
00000060: 0000 803f 0000 803f 0000 803f 0000 803f
00000070: 0000 803f 0000 803f 0000 803f 0000 803f
00000080: 0000 803f 0000 803f 0000 803f 0000 803f

norm.bias f4 [36]
0.0 0.0 0.0 0.0 0.0 0.0 0.0 0.0
0.0 0.0 0.0 0.0 0.0 0.0 0.0 0.0
0.0 0.0 0.0 0.0 0.0 0.0 0.0 0.0
0.0 0.0 0.0 0.0 0.0 0.0 0.0 0.0
0.0 0.0 0.0 0.0
00000000: 0000 0000 0000 0000 0000 0000 0000 0000
00000010: 0000 0000 0000 0000 0000 0000 0000 0000
00000020: 0000 0000 0000 0000 0000 0000 0000 0000
00000030: 0000 0000 0000 0000 0000 0000 0000 0000
00000040: 0000 0000 0000 0000 0000 0000 0000 0000
00000050: 0000 0000 0000 0000 0000 0000 0000 0000
00000060: 0000 0000 0000 0000 0000 0000 0000 0000
00000070: 0000 0000 0000 0000 0000 0000 0000 0000
00000080: 0000 0000 0000 0000 0000 0000 0000 0000

norm1.weight f4 [9]
1.0 1.0 1.0 1.0 1.0 1.0 1.0 1.0
1.0
00000000: 0000 803f 0000 803f 0000 803f 0000 803f
00000010: 0000 803f 0000 803f 0000 803f 0000 803f
00000020: 0000 803f

norm1.bias f4 [9]
0.0 0.0 0.0 0.0 0.0 0.0 0.0 0.0
0.0
00000000: 0000 0000 0000 0000 0000 0000 0000 0000
00000010: 0000 0000 0000 0000 0000 0000 0000 0000
00000020: 0000 0000

norm2.weight f4 [9]
1.0 1.0 1.0 1.0 1.0 1.0 1.0 1.0
1.0
00000000: 0000 803f 0000 803f 0000 803f 0000 803f
00000010: 0000 803f 0000 803f 0000 803f 0000 803f
00000020: 0000 803f

norm2.bias f4 [9]
0.0 0.0 0.0 0.0 0.0 0.0 0.0 0.0
0.0
00000000: 0000 0000 0000 0000 0000 0000 0000 0000
00000010: 0000 0000 0000 0000 0000 0000 0000 0000
00000020: 0000 0000

m.running_mean f4 [12]
-4.200212 -4.180963 -4.202685 -4.2423425 -4.265707 -4.2574644 -4.2350473 -4.231492
-4.2640996 -4.3166943 -4.3534675 -4.350988
00000000: 2368 86c0 73ca 85c0 657c 86c0 45c1 87c0
00000010: ac80 88c0 263d 88c0 8285 87c0 6268 87c0
00000020: 8173 88c0 5c22 8ac0 9b4f 8bc0 4b3b 8bc0

m.running_var f4 [12]
2794.2747 2795.2603 2800.3938 2807.1033 2810.4465 2809.041 2805.335 2803.3975
2805.066 2808.5972 2809.792 2806.4084
00000000: 65a4 2e45 2ab4 2e45 4d06 2f45 a771 2f45
00000010: 25a7 2f45 a890 2f45 5c55 2f45 5c36 2f45
00000020: 0e51 2f45 8e89 2f45 ac9c 2f45 8966 2f45

linear_net.0.weight f4 [9, 18]
0.077494934 0.014402449 0.0729354 0.10956762 -0.20139119 0.14368777 0.018383162 0.16468313
0.1199807 -0.052800983 -0.18729354 -0.048607763 -0.030891309 0.050831206 0.06814837 0.22581743
-0.14631756 0.023564668 0.08037407 -0.080279574 -0.10773232 0.023187734 -0.12450637 0.19028057
-0.22835028 0.14285047 -0.21423426 -0.020521946 0.17447303 -0.1192297 -0.045675326 -0.11379031
-0.03461313 -0.028277023 0.23088317 -0.05688265 -0.232236 -0.14638859 -0.21187662 -0.07472223
-0.23112169 -0.0659388 0.018567879 0.046902727 -0.13587369 -0.09917142 -0.08640056 -0.22217177
0.10886888 0.23182169 -0.054720994 0.01607093 0.20557864 -0.007385589 0.13063562 -0.1444658
0.08184331 0.104521655 -0.12746438 -0.10674437 0.09055765 0.15912773 -0.21345435 -0.058202438
-0.19761303 0.2331587 0.04842729 0.07413712 0.08556878 0.054968257 -0.20873308 0.028495232
0.08133682 0.09097656 0.007214051 0.031965576 0.04259723 -0.20683867 -0.123817414 -0.09830117
-0.23284487 0.102572 -0.21668206 0.07843127 0.2152296 -0.23439911 0.061481744 -0.032933153
-0.007677807 -0.043671582 0.09379663 0.21830182 -0.088208996 -0.08722768 -0.185344 0.017605329
-0.09739024 0.055345133 -0.20636505 -0.14397824 -0.040594466 -0.1470097 0.048145246 0.06707365
-0.08215362 -0.0901815 0.06729433 -0.23321551 -0.16118366 0.09644772 -0.07221146 -0.02601621
0.0034217902 0.1177135 -0.19902244 0.119623065 -0.16688387 0.22309723 0.02018275 0.0036875682
-0.105711065 0.16792022 0.16718444 0.18493144 -0.16836412 0.13196282 0.1941356 0.010346855
-0.14664443 -0.17120427 -0.16671942 -0.061324928 0.08417782 -0.17943251 0.121874526 -0.04413562
0.23218648 0.11560951 -0.19113801 -0.15992476 -0.19962981 -0.12244637 -0.028705629 -0.19373985
0.09265299 -0.05961416 0.22734553 0.18796745 0.004311342 0.0661433 -0.17708917 0.09993361
0.0678838 0.2142503 0.08040239 -0.234807 -0.015532715 0.036493972 -0.22349696 -0.18636814
0.13745026 -0.19841813
00000000: aab5 9e3d 40f8 6b3c 285f 953d fd64 e03d
00000010: 7e39 4ebe e322 133e 4998 963c b2a2 283e
00000020: 71b8 f53d d845 58bd e1c9 3fbe ef18 47bd
00000030: c50f fdbc 6234 503d 5f91 8b3d af3c 673e
00000040: 45d4 15be b10a c13c 299b a43d 9e69 a4bd
00000050: c3a2 dcbd 34f4 bd3c 32fd febd e9d8 423e
00000060: a8d4 69be 6547 123e 3a60 5bbe a41d a8bc
00000070: 0fa9 323e b32e f4bd 0d16 3bbd e50a e9bd
00000080: 7fc6 0dbd 37a5 e7bc a36c 6c3e c8fd 68bd
00000090: 46cf 6dbe e4e6 15be 2ff6 58be f807 99bd
000000a0: 2aab 6cbe ec0a 87bd aa1b 983c 131d 403d
000000b0: 7922 0bbe 631a cbbd c7f2 b0bd ff80 63be
000000c0: a6f6 de3d aa62 6d3e 1f23 60bd 2fa7 833c
000000d0: 3583 523e d002 f2bb 58c5 053e d8ee 13be
000000e0: 779d a73d 730f d63d 0686 02be cb9c dabd
000000f0: 4a76 b93d 61f2 223e c793 5abe ae65 6ebd
00000100: 125b 4abe 27c1 6e3e b25b 463d 34d5 973d
00000110: af3e af3d 6526 613d 20be 55be d56e e93c
00000120: eb93 a63d eb51 ba3d d963 ec3b 56ee 023d
00000130: 6f7a 2e3d 84cd 53be fc93 fdbd 2052 c9bd
00000140: e36e 6ebe 4511 d23d e7e1 5dbe 93a0 a03d
00000150: 2665 5c3e 5206 70be 48d4 7b3d eae4 06bd
00000160: 1d96 fbbb f9e0 32bd 7318 c03d 838a 5f3e
00000170: eba6 b4bd 6da4 b2bd d1ca 3dbe 0d39 903c
00000180: 8974 c7bd 94b1 623d 5c51 53be 086f 13be
00000190: 6246 26bd b689 16be f333 453d e95d 893d
000001a0: 2840 a8bd 14b1 b8bd 9cd1 893d 0cd0 6ebe
000001b0: 540d 25be 6286 c53d 9ae3 93bd f21f d5bc
000001c0: 1d40 603b c713 f13d 8acc 4bbe f0fc f43d
000001d0: 9be3 2abe 9a73 643e 4b56 a53c 21ab 713b
000001e0: 0b7f d8bd 47f3 2b3e 6632 2b3e ab5e 3d3e
000001f0: a567 2cbe 4321 073e 7ccb 463e db85 293c
00000200: f529 16be 2c50 2fbe 7fb8 2abe d92f 7bbd
00000210: 6c65 ac3d 28bd 37be 5a99 f93d 8dc7 34bd
00000220: 4bc2 6d3e aec4 ec3d afb9 43be 51c3 23be
00000230: c26b 4cbe 2ac5 fabd 1128 ebbc bd63 46be
00000240: dac0 bd3d fa2d 74bd 44cd 683e 8a7a 403e
00000250: 2846 8d3b 2376 873d dd56 35be fea9 cc3d
00000260: a906 8b3d 6e64 5b3e 02aa a43d 3f71 70be
00000270: ee7c 7ebc b47a 153d 63dc 64be 4ad7 3ebe
00000280: c3bf 0c3e 1f2e 4bbe

linear_net.0.bias f4 [9]
-0.21834077 -0.0685462 0.0941172 0.0012572967 0.030045534 0.14913388 0.13441043 0.0006901125
-0.0066533857
00000000: b994 5fbe f361 8cbd 85c0 c03d e0cb a43a
00000010: 0d22 f63c 8db6 183e e3a2 093e aae8 343a
00000020: a504 dabb

linear_net.2.weight f4 [1, 9]
0.18579742 -0.1802957 0.15812778 -0.027759194 0.2492733 0.07435417 -0.282724 0.04848858
0.2114842
00000000: ae41 3e3e 709f 38be 40ec 213e 4067 e3bc
00000010: 8041 7f3e 0047 983d 33c1 90be f69b 463d
00000020: 508f 583e

exp_avg f4 [108, 36]
-2.739149e-06 -1.662966e-06 -1.1553198e-05 4.4329354e-06 -3.297523e-06 1.5755773e-05 9.2527483e-07 6.0568327e-06
-1.8747635e-07 1.0391909e-05 -9.300291e-06 -4.8049433e-06 -8.164525e-06 -1.1148717e-05 -2.6387545e-06 -3.4061827e-06
1.0607931e-05 1.0356177e-06 4.000827e-06 6.1067644e-09 -1.678625e-07 7.230459e-06 -2.8139075e-06 2.161586e-06
-1.2242966e-06 6.0349134e-07 -4.5055313e-07 3.8047727e-07 -1.624149e-07 3.512915e-07 -5.83919e-08 3.4751628e-07
-2.098602e-08 3.470287e-07 -7.5420346e-09 3.4696538e-07 -1.6517928e-05 1.3111378e-05 4.4686098e-05 -6.553803e-05
6.689838e-05 3.3587748e-06 -3.9384202e-05 -3.8759594e-05 -1.3504347e-05 -2.3281873e-06 -6.371487e-05 -5.936894e-05
-1.9774807e-05 -1.9236959e-05 2.7678052e-05 -7.9563015e-06 2.9763123e-05 -7.476457e-06 -2.3030125e-06 -3.2816858e-06
2.878758e-06 -6.149508e-06 3.781638e-06 -9.6573835e-08 1.565096e-06 1.5390261e-06 5.726485e-07 1.7706008e-06
2.062757e-07 1.8008645e-06 7.415382e-08 1.8047791e-06 2.6650522e-08 1.8052851e-06 9.577748e-09 1.80535e-06
-2.48803e-06 -7.1647526e-07 -4.1307035e-06 6.2215963e-07 1.05887345e-07 5.8970254e-06 -9.0333964e-07 1.351393e-06
9.701615e-07 4.3268947e-06 -3.117714e-06 -1.8743228e-06 -2.1818742e-06 -3.9771344e-06 1.463903e-06 6.4899405e-07
3.6158924e-06 -6.8277154e-07 6.7116184e-07 2.4073577e-06 8.4411744e-07 -4.0933992e-07 1.0509545e-07 2.6237157e-07
2.0415647e-09 1.6042945e-07 -1.1545184e-09 1.4154962e-07 -5.040046e-10 1.3900845e-07 -1.852696e-10 1.386787e-07
-6.677406e-11 1.3863561e-07 -2.4006292e-11 1.3863045e-07 -3.209408e-05 2.099727e-05 6.1110426e-05 -0.000109367415
0.0001132598 3.2227814e-05 -6.7717934e-05 -5.8316855e-05 -2.616585e-05 1.2375736e-05 -0.0001309183 -0.000114960014
-5.0502927e-05 -5.3482352e-05 4.196755e-05 -2.2786651e-05 7.182274e-05 -1.0271026e-05 -7.256487e-07 -7.321279e-06
6.8821064e-06 -7.1346756e-07 2.815644e-06 3.3648053e-06 1.0030002e-06 3.7683203e-06 3.598192e-07 3.8157123e-06
1.2928113e-07 3.821746e-06 4.645979e-08 3.822522e-06 1.6696713e-08 3.8226244e-06 6.000485e-09 3.8226376e-06
-2.9250093e-06 3.3499243e-06 1.2279772e-05 -1.565695e-05 1.5689095e-05 -1.9138301e-06 -8.937413e-06 -9.727118e-06
-3.396625e-06 -2.442138e-06 -1.3288188e-05 -1.2923546e-05 -3.4387383e-06 -2.6070861e-06 6.170699e-06 -1.807097e-06
5.186845e-06 -1.6086966e-06 -2.7061485e-06 -1.6376097e-06 1.913952e-06 -4.404113e-06 2.1346461e-06 -6.547329e-07
8.66569e-07 2.2144405e-07 3.1628903e-07 3.4344225e-07 1.138955e-07 3.5935207e-07 4.094249e-08 3.6140977e-07
1.4714458e-08 3.6167515e-07 5.2881233e-09 3.6170988e-07 -3.747555e-06 2.2545125e-06 6.120348e-06 -1.2047345e-05
1.2558411e-05 4.683855e-06 -7.5712833e-06 -6.108562e-06 -2.9828213e-06 2.0607804e-06 -1.5415284e-05 -1.3303268e-05
-6.263256e-06 -6.7815367e-06 4.5121237e-06 -2.8322559e-06 8.825026e-06 -1.0927845e-06 -3.6302927e-07 3.345253e-07
1.1451708e-06 -4.4690645e-07 3.8987704e-07 4.335343e-07 1.2398705e-07 4.5010665e-07 4.3676245e-08 4.4910502e-07
1.565464e-08 4.48919e-07 5.6240417e-09 4.4889393e-07 2.0210844e-09 4.4889077e-07 7.2633594e-10 4.488902e-07
3.95524e-05 -2.4415895e-05 -7.302787e-05 0.00012934928 -0.0001342568 -3.4761346e-05 8.092966e-05 7.0364404e-05
2.8314224e-05 -1.347481e-05 0.00014943148 0.00013250961 5.5517725e-05 5.977272e-05 -5.3659915e-05 2.2222102e-05
-8.079944e-05 1.4071493e-05 -2.0399602e-06 3.148332e-06 -5.4668976e-06 2.7766114e-07 -2.7176868e-06 -3.7172615e-06
-1.0055307e-06 -4.2895444e-06 -3.626326e-07 -4.363288e-06 -1.3038158e-07 -4.3728073e-06 -4.685942e-08 -4.3740365e-06
-1.6840527e-08 -4.3741943e-06 -6.0521774e-09 -4.374215e-06 3.0961524e-05 -1.8281242e-05 -5.0543786e-05 9.789186e-05
00000000: 39d2 37b6 1433 dfb5 9cd4 41b7 a0be 9436
00000010: 044b 5db6 442b 8437 6760 7835 cc3b cb36
00000020: 1b4d 49b4 e958 2e37 7208 1cb7 263a a1b6
00000030: 5efa 08b7 600b 3bb7 7515 31b6 c695 64b6
00000040: b7f8 3137 8eff 8a35 d83e 8636 abd3 d131
00000050: b13d 34b4 2b9d f236 90d6 3cb6 c40f 1136
00000060: 8352 a4b5 9cff 2135 8de3 f1b4 6644 cc34
00000070: 4564 2eb4 2399 bc34 93ca 7ab3 4692 ba34
00000080: bf44 b4b2 434f ba34 3892 01b2 8f46 ba34
00000090: fb8f 8ab7 f1f8 5b37 556d 3b38 7671 89b8
000000a0: cb4b 8c38 5067 6136 7730 25b8 cc91 22b8
000000b0: bb90 62b7 f43d 1cb6 a99e 85b8 ea02 79b8
000000c0: 13e2 a5b7 0e5f a1b7 2a2e e837 0e7c 05b7
000000d0: d2ab f937 47de fab6 748d 1ab6 ef3a 5cb6
000000e0: b030 4136 df57 ceb6 0cc8 7d36 0764 cfb3
000000f0: 4a10 d235 8990 ce35 1bb8 1935 61a5 ed35
00000100: a27c 5d34 3cb5 f135 7e3e 9f33 bd3b f235
00000110: 1eed e432 204d f235 628b 2432 5b4f f235
00000120: 08f8 26b6 ce53 40b5 799a 8ab6 7c02 2735
00000130: 2f64 e333 10df c536 077d 72b5 8361 b535
00000140: 7f36 8235 be2f 9136 eb39 51b6 3e91 fbb5
00000150: 506c 12b6 5373 85b6 537b c435 8836 2e35
00000160: 8fa8 7236 b447 37b5 e429 3435 178e 2136
00000170: 4f97 6235 40c3 dbb4 d6b0 e133 13dc 8c34
00000180: 964b 0c31 8342 2c34 01ad 9eb0 ddfc 1734
00000190: 2c8a 0ab0 5a42 1534 c2b4 4baf b6e7 1434
000001a0: 74d6 92ae dedb 1434 5d29 d3ad 73da 1434
000001b0: c29c 06b8 4b23 b037 6928 8038 2f5c e5b8
000001c0: e485 ed38 5a2c 0738 ca03 8eb8 3f99 74b8
000001d0: bc7e dbb7 62a1 4f37 1d47 09b9 b016 f1b8
000001e0: 1bd3 53b8 3d52 60b8 5006 3038 f625 bfb7
000001f0: 8a9f 9638 b951 2cb7 33ca 42b5 4fa9 f5b6
00000200: d8ec e636 1e85 3fb5 65f4 3c36 eace 6136
00000210: d39e 8635 40e3 7c36 2d2d c134 b808 8036
00000220: 87d0 0a34 8c3c 8036 148b 4733 3743 8036
00000230: 766c 8f32 1844 8036 d32c ce31 3544 8036
00000240: 474b 44b6 43cf 6036 3805 4e37 0b57 83b7
00000250: 139c 8337 5a6f 00b6 e6f1 15b7 a731 23b7
00000260: 93f1 63b6 9de3 23b6 55f0 5eb7 35d2 58b7
00000270: 13c5 66b6 66f5 2eb6 e70d cf36 618b f2b5
00000280: a90a ae36 65ea d7b5 479b 35b6 d7cb dbb5
00000290: 7271 0036 0bc7 93b6 f140 0f36 e7c0 2fb5
000002a0: 2b9e 6835 14c6 6d34 6fce a934 5862 b834
000002b0: b796 f433 f9ec c034 bed8 2f33 c807 c234
000002c0: dfca 7c32 412c c234 d3b2 b531 0731 c234
000002d0: 817e 7bb6 3b4c 1736 645d cd36 f41e 4ab7
000002e0: f7b1 5237 022a 9d36 d40c feb6 26f8 ccb6
000002f0: 7b2c 48b6 f04b 0a36 1250 81b7 1a31 5fb7
00000300: f628 d2b6 f58c e3b6 d966 9736 c911 3eb6
00000310: 330f 1437 caab 92b5 5de6 c2b4 cf98 b334
00000320: c5b3 9935 5bee efb4 4b50 d134 80c0 e834
00000330: 4d21 0534 30a6 f134 8a96 3b33 861c f134
00000340: eb78 8632 f502 f134 983d c131 83ff f034
00000350: 4be3 0a31 14ff f034 59a7 4730 00ff f034
00000360: 11e5 2538 bcd0 ccb7 8a26 99b8 efa1 0739
00000370: 49c7 0cb9 b6cc 11b8 c8b8 a938 9a90 9338
00000380: 5584 ed37 de11 62b7 b5b0 1c39 47f2 0a39
00000390: b4db 6838 78b4 7a38 e510 61b8 9a69 ba37
000003a0: de72 a9b8 9a14 6c37 40e6 08b6 ef47 5336
000003b0: 4b70 b7b6 7511 9534 8161 36b6 1176 79b6
000003c0: c6f5 86b5 e8ee 8fb6 d8af c2b4 5c68 92b6
000003d0: 04ff 0bb4 21ba 92b6 7a42 49b3 b0c4 92b6
000003e0: b6a8 90b2 0bc6 92b6 84f3 cfb1 39c6 92b6
000003f0: afdc 0138 ab5a 99b7 fafe 53b8 4b4b cd38

exp_avg_sq f4 [108, 36]
1.9367356e-08 1.2958343e-08 1.2495153e-07 2.7119054e-07 2.7717226e-07 7.316501e-09 9.51253e-08 9.707624e-08
2.0453971e-08 3.1396212e-09 2.9763356e-07 2.3844152e-07 3.9603325e-08 3.4904367e-08 4.5357286e-08 1.9230434e-08
7.5268886e-08 3.7030732e-09 4.5276578e-11 5.2899622e-11 1.3194083e-10 2.4815536e-10 8.752989e-11 1.7555885e-10
1.65839e-11 2.1296778e-10 2.2502575e-12 2.2255482e-10 2.9248866e-13 2.2389232e-10 3.7807455e-14 2.2406661e-10
4.883549e-15 2.2408925e-10 6.30742e-16 2.2409205e-10 1.7040986e-08 8.965676e-09 9.196127e-08 1.908731e-07
1.9891246e-07 5.6813625e-09 7.138105e-08 7.360185e-08 1.06471765e-08 2.9872054e-09 1.7621308e-07 1.4800943e-07
1.991732e-08 1.9820257e-08 3.9643027e-08 7.962993e-09 4.148961e-08 3.5907404e-09 3.7637525e-11 4.991912e-11
7.1466826e-11 1.4440044e-10 6.44819e-11 8.001874e-11 1.17698256e-11 1.2104562e-10 1.5896272e-12 1.2969359e-10
2.0649664e-13 1.3087861e-10 2.6689984e-14 1.3103288e-10 3.4474747e-15 1.3105268e-10 4.452641e-16 1.3105521e-10
8.574579e-09 5.9523058e-09 5.9466498e-08 1.2601109e-07 1.2889227e-07 3.3476457e-09 4.425906e-08 4.6266702e-08
8.76925e-09 1.3668386e-09 1.321623e-07 1.0683906e-07 1.703949e-08 1.5020708e-08 2.1527374e-08 7.774876e-09
3.2828858e-08 1.7183481e-09 2.8649142e-11 2.536597e-11 5.3478194e-11 9.0736224e-11 3.91486e-11 6.8412366e-11
7.2156057e-12 9.119574e-11 9.758679e-13 9.615781e-11 1.2679033e-13 9.68402e-11 1.6388202e-14 9.692895e-11
2.116826e-15 9.6940435e-11 2.7340217e-16 9.694193e-11 2.0565558e-08 2.3657085e-08 2.2618211e-07 4.569503e-07
4.6166633e-07 9.886621e-09 1.5093086e-07 1.5613792e-07 4.1178843e-08 5.234112e-09 5.2273407e-07 4.1012532e-07
7.2992215e-08 5.8581666e-08 4.705607e-08 4.1180563e-08 1.2925668e-07 2.9423222e-09 8.1860324e-11 1.356698e-10
2.3567231e-10 2.7412078e-10 1.1736206e-10 2.6934754e-10 2.1285959e-11 3.317746e-10 2.8753755e-12 3.4544687e-10
3.7353253e-13 3.4733033e-10 4.8279838e-14 3.4757575e-10 6.2361797e-15 3.4760722e-10 8.05444e-16 3.4761172e-10
1.5987123e-08 1.8540309e-08 1.8669202e-07 3.264441e-07 3.2322492e-07 8.820358e-09 1.0723263e-07 1.2944805e-07
2.4246411e-08 7.4934965e-09 2.9370563e-07 2.4811303e-07 3.4370107e-08 2.6336956e-08 4.396535e-08 1.7712482e-08
6.3010276e-08 2.8708407e-09 3.3732444e-11 5.0427783e-11 1.1356734e-10 1.1444272e-10 8.512225e-11 1.0991268e-10
1.6381247e-11 1.7358145e-10 2.226958e-12 1.870873e-10 2.8953006e-13 1.8894146e-10 3.7426235e-14 1.8918263e-10
4.834308e-15 1.8921405e-10 6.2438483e-16 1.8921796e-10 1.1100739e-08 1.1385949e-08 1.1602642e-07 2.0283645e-07
2.0287099e-07 4.142214e-09 6.888666e-08 8.2145895e-08 1.3135388e-08 4.6724984e-09 1.6679559e-07 1.4353353e-07
1.6796893e-08 1.36728495e-08 3.080089e-08 1.0594823e-08 3.2669803e-08 1.8541223e-09 9.450321e-12 1.4579015e-11
2.8190393e-11 4.0492835e-11 5.2878316e-11 4.1110237e-11 1.03006215e-11 9.11958e-11 1.4011101e-12 1.01170156e-10
1.821713e-13 1.02529825e-10 2.3548578e-14 1.02706635e-10 3.0417546e-15 1.0272945e-10 3.928631e-16 1.0273237e-10
1.750686e-08 1.6013164e-08 1.5598705e-07 3.2090426e-07 3.2336965e-07 7.0334045e-09 1.06806304e-07 1.1216595e-07
2.725736e-08 3.587711e-09 3.5906783e-07 2.8648375e-07 4.910549e-08 3.9612143e-08 4.295662e-08 2.5757451e-08
8.9163706e-08 3.2608023e-09 5.682944e-11 7.3740916e-11 1.829195e-10 1.9897861e-10 8.622678e-11 1.9682547e-10
1.5686326e-11 2.364002e-10 2.1199399e-12 2.455489e-10 2.754124e-13 2.468157e-10 3.5597942e-14 2.4698077e-10
4.5980976e-15 2.4700195e-10 5.938743e-16 2.4700472e-10 3.0792233e-08 2.4789056e-08 2.4156304e-07 5.0009606e-07
00000000: 445d a632 659f 5e32 6a2a 0634 2598 9134
00000010: 44ce 9434 a064 fb31 b047 cc33 3a78 d033
00000020: c2b2 af32 cdc0 5731 72ca 9f34 2703 8034
00000030: 5118 2a33 c2e9 1533 ddce 4233 2c30 a532
00000040: 82a3 a133 2779 7e31 e520 472e aea7 682e
00000050: 0b12 112f c36c 882f f37a c02e 6c07 412f
00000060: 9fdf 912d 1a29 6a2f 0959 1e2c 9db3 742f
00000070: 0fa8 a42a 162c 762f 0745 2a29 255d 762f
00000080: caf2 af27 8463 762f 8ccc 3526 4e64 762f
00000090: 8661 9232 7607 1a32 3e7c c533 ccf2 4c34
000000a0: a494 5534 cb35 c331 264a 9933 0c0f 9e33
000000b0: c7ea 3632 7947 4d31 1535 3d34 86ec 1e34
000000c0: a616 ab32 3541 aa32 f843 2a33 9dcd 0832
000000d0: 4f32 3233 f9c0 7631 1688 252e ef8b 5b2e
000000e0: 3f28 9d2e 1cc5 1e2f 15cc 8d2e 8cf6 af2e
000000f0: 950e 4f2d 5017 052f 5bb8 df2b 8099 0e2f
00000100: 9b7e 682a 0ee7 0f2f ea66 f028 7a12 102f
00000110: af6a 7827 0d18 102f b156 0026 c318 102f
00000120: 664f 1332 0985 cc31 1b68 7f33 aa4d 0734
00000130: a365 0a34 680c 6631 5a17 3e33 c7b6 4633
00000140: 92a7 1632 5cdb bb30 7fe8 0d34 656f e533
00000150: 3c5e 9232 e306 8132 32eb b832 4492 0532
00000160: b6ff 0c33 002b ec30 2200 fc2d 161f df2d
00000170: 1833 6b2e f487 c72e 682d 2c2e bd70 962e
00000180: 66e0 fd2c a38a c82e 5957 892b 0974 d32e
00000190: d3c0 0e2a 30f4 d42e 9f9c 9328 2626 d52e
000001a0: 8c88 1827 9d2c d52e 0a9b 9d25 742d d52e
000001b0: 24a8 b032 7b36 cb32 77dc 7234 c552 f534
000001c0: f0da f734 d2d9 2932 8f0f 2234 dda6 2734
000001d0: 9edc 3033 bcd7 b331 0352 0c35 322f dc34
000001e0: e5bf 9c33 399b 7b33 b21a 4a33 82de 3033
000001f0: cec9 0a34 e131 4a31 4403 b42e a72b 152f
00000200: ee8f 812f 12b3 962f 7c0a 012f 4c13 942f
00000210: b83b bb2d 2065 b62f 2956 4a2c 53e9 bd2f
00000220: b647 d22a 66f2 be2f dd6e 5929 f014 bf2f
00000230: 9bae e027 5e19 bf2f 4727 6826 001a bf2f
00000240: 0e54 8932 9242 9f32 8375 4834 2342 af34
00000250: b287 ad34 5888 1732 c347 e633 69fe 0a34
00000260: 6c46 d032 bfbc 0032 98ae 9d34 6534 8534
00000270: 559e 1333 943b e232 6ad4 3c33 2926 9832
00000280: 4450 8733 5d48 4531 5b5b 142e a3c8 5d2e
00000290: bbbc f92e 86a9 fb2e 912f bb2e 57b3 f12e
000002a0: 4a17 902d d6da 3e2f 4fb5 1c2c 65b4 4d2f
000002b0: aefd a22a 4bbe 4f2f 838d 2829 2d02 502f
000002c0: 9f2c ae27 050b 502f 78f7 3326 1f0c 502f
000002d0: 91b5 3e32 ef9b 4332 332a f933 42cb 5934
000002e0: c1d4 5934 4d53 8e31 d8ee 9333 2f68 b033
000002f0: 0caa 6132 bb8b a031 6c18 3334 321e 1a34
00000300: c248 9032 d4e5 6a32 f049 0433 8604 3632
00000310: d450 0c33 21d4 fe30 7640 262d 063d 802d
00000320: 1ff7 f72d e116 322e b18f 682e 03ce 342e
00000330: e035 352d ac8a c82e 5030 c52b bc79 de2e
00000340: 4d1b 4d2a 2977 e12e 531b d428 b2da e12e
00000350: 782e 5b27 8ae7 e12e 5c78 e225 2fe9 e12e
00000360: fe61 9632 528d 8932 657d 2734 bf48 ac34
00000370: 969b ad34 7baa f131 635d e533 e2df f033
00000380: 9223 ea32 ae8b 7631 e8c5 c034 07ce 9934
00000390: 0fe8 5233 0322 2a33 4e7f 3833 3c41 dd32
000003a0: 447a bf33 a414 6031 43f0 792e 7228 a22e
000003b0: 431f 492f 80c7 5a2f 5d9d bd2e 7269 582f
000003c0: 77fa 892d 5ff6 812f 712d 152c effd 862f
000003d0: 1c0b 9b2a 39b0 872f a251 2029 74c7 872f
000003e0: f7a9 a527 6fca 872f 302c 2b26 d3ca 872f
000003f0: 6b40 0433 b6ef d432 2cb0 8134 573e 0635

exp_avg f4 [108]
3.4695617e-07 1.8053596e-06 1.3862923e-07 3.82264e-06 3.6171477e-07 4.4889026e-07 -4.3742175e-06 -3.624571e-06
4.283786e-06 -1.0931429e-06 4.8674638e-06 3.9346246e-06 5.768456e-06 3.2036344e-06 4.2251318e-06 7.605075e-06
-3.2343353e-06 -2.172743e-06 -6.1822607e-07 -6.7211977e-07 9.397161e-06 -3.8568755e-06 -6.1175945e-07 4.4769204e-06
2.7015808e-06 3.321488e-06 -8.033428e-06 8.311989e-07 -2.4807507e-06 -9.762903e-07 -3.0061371e-06 -3.9057845e-06
1.7291615e-07 2.9505186e-06 2.8255179e-06 -2.0747898e-06 3.41762e-08 -4.6169415e-09 1.3245598e-08 -1.4921e-08
-8.863145e-10 -6.9414043e-09 1.5404469e-08 -4.503174e-09 -3.277375e-08 1.1286272e-08 -3.2680612e-12 3.4418843e-08
2.5333937e-09 -1.5541527e-08 1.8854672e-08 5.0450746e-09 -9.608472e-09 -2.014295e-08 2.2976222e-08 2.3291204e-08
-5.136939e-09 5.974095e-09 -6.998234e-09 3.500526e-08 -1.5286485e-08 -1.2444907e-08 1.5093033e-08 2.0859368e-08
-3.166451e-08 2.472613e-08 -1.1584969e-08 -1.1695637e-08 -1.7433273e-08 1.8663174e-08 -2.2672758e-08 3.016914e-09
-3.1875938e-05 -0.00012635578 4.8076647e-05 -0.00011452511 9.502466e-05 0.00029844616 -7.406511e-05 -7.163348e-05
-0.00019794202 -7.5382936e-06 -4.4025513e-05 7.857404e-05 -1.9454988e-05 4.5371555e-05 -2.7803728e-05 2.4261552e-05
7.2504976e-05 -0.00015526488 -0.00015234153 -6.413993e-05 6.64022e-05 0.0002285167 0.00017250229 2.158721e-05
8.027976e-05 -0.0002235513 8.294177e-05 -0.00014969225 0.00020306522 -8.430252e-06 0.00010678001 5.9982092e-05
-2.990929e-05 -4.4277185e-05 9.861615e-06 6.582175e-05
00000000: 4b45 ba34 af4f f235 1dda 1434 3a44 8036
00000010: b331 c234 02ff f034 3ec6 92b6 a83d 73b6
00000020: 71bd 8f36 1bb8 92b5 3253 a336 2b06 8436
00000030: a98e c136 05fe 5636 9bc5 8d36 192f ff36
00000040: 750d 59b6 71cf 11b6 2cf4 25b5 b86b 34b5
00000050: 80a8 1d37 4f6a 81b6 ca37 24b5 7438 9636
00000060: ce4c 3536 bbe6 5e36 4fc7 06b7 8e1f 5f35
00000070: f97a 26b6 1409 83b5 0bbd 49b6 6f0e 83b6
00000080: d4aa 3934 8601 4636 079e 3d36 9e3c 0bb6
00000090: 21c9 1233 0ca3 9eb1 c28e 6332 a02b 80b2
000000a0: d7a0 73b0 3d81 eeb1 c952 8432 56ba 9ab1
000000b0: 1fc3 0cb3 8de5 4132 28f8 65ac ebd3 1333
000000c0: ef17 2e31 2e80 85b2 ddf5 a132 f258 ad31
000000d0: 8212 25b2 d106 adb2 3f5d c532 e611 c832
000000e0: fe80 b0b1 b244 cd31 1e75 f0b1 b158 1633
000000f0: 564f 83b2 48cd 55b2 eea5 8132 3c2e b332
00000100: 7fff 07b3 5665 d432 3c07 47b2 f5ed 48b2
00000110: 2cc0 95b2 c150 a032 ecc1 c2b2 1d52 4f31
00000120: 87b2 05b8 5f7e 04b9 e8a5 4938 332d f0b8
00000130: fa47 c738 c478 9c39 6753 9bb8 ef39 96b8
00000140: a88e 4fb9 73f1 fcb6 09a8 38b8 1ec8 a438
00000150: 4533 a3b7 564d 3e38 0d3c e9b7 4985 cb37
00000160: d00d 9838 99ce 22b9 debd 1fb9 dd82 86b8
00000170: 6941 8b38 fc9d 6f39 bbe1 3439 2e16 b537
00000180: de5b a838 1869 6ab9 06f1 ad38 b5f6 1cb9
00000190: e8ed 5439 a86f 0db7 15ef df38 4895 7b38
000001a0: b6e5 fab7 44b6 39b8 5073 2537 c809 8a38

exp_avg_sq f4 [108]
2.2409259e-10 1.3105558e-10 9.694215e-11 3.4761227e-10 1.8921853e-10 1.0273296e-10 2.4700514e-10 3.9127931e-10
6.4236005e-10 2.487301e-10 2.407224e-10 2.7598746e-10 7.766296e-10 1.4539743e-10 2.775423e-10 7.838827e-10
2.353932e-10 1.748849e-10 1.0610048e-10 1.02612405e-10 7.537174e-10 4.1788328e-10 4.1086018e-10 1.5572696e-10
2.2600671e-10 1.6259258e-10 5.730317e-10 2.925523e-10 1.306402e-10 8.7678503e-10 1.2630787e-10 3.7118075e-10
3.9561e-10 1.6128922e-10 1.8546455e-10 2.0387451e-10 6.329548e-15 3.988259e-16 8.765763e-16 2.1089325e-15
5.8143547e-18 1.05843755e-16 1.9415672e-15 1.4498756e-16 6.2357706e-15 2.0744188e-15 4.914827e-16 5.285873e-15
6.995174e-17 1.8548438e-15 9.412234e-16 3.7390628e-16 5.6962156e-16 1.8764516e-15 4.7069752e-15 5.051355e-15
5.3335065e-16 4.5119714e-16 3.125245e-16 6.871175e-15 4.342337e-15 1.3823818e-15 3.4443945e-15 1.381082e-15
6.898813e-15 4.579614e-15 1.6514947e-15 1.0195562e-15 2.825554e-15 1.5625012e-15 2.9066054e-15 1.0097406e-16
2.1150758e-07 1.6312637e-07 6.731908e-07 5.2475434e-07 6.7238034e-07 2.3921623e-06 7.3640916e-07 1.448799e-07
2.3756204e-06 2.707941e-07 6.092251e-08 1.9017554e-06 8.8540327e-07 4.6455068e-07 3.3449467e-07 2.780672e-07
9.579203e-07 1.2449554e-07 3.7957423e-07 4.6791152e-07 9.131033e-07 4.534168e-07 5.300463e-07 3.5235774e-07
2.3624888e-07 1.5542133e-06 8.294209e-08 8.7338734e-08 1.2295725e-06 6.858929e-07 4.1580847e-07 3.7719454e-07
6.529069e-07 1.4491904e-07 2.9643718e-07 4.484387e-07
00000000: 7564 762f de18 102f 942d d52e 141a bf2f
00000010: 480c 502f 84e9 e12e e2ca 872f ab1b d72f
00000020: 1292 3030 a6bd 882f aa56 842f c8b9 972f
00000030: 737a 5530 bddd 1f2f 9b94 982f d778 5730
00000040: a668 812f b949 402f 4351 e92e a6a5 e12e
00000050: 262e 4f30 d8bb e52f 6edf e12f 3e39 2b2f
00000060: 3c7f 782f bec5 322f 8583 1d30 13d5 a02f
00000070: f2a3 0f2f 4302 7130 81e0 0a2f 0c0f cc2f
00000080: 287d d92f e156 312f a1eb 4b2f 9329 602f
00000090: c70b e427 51e8 e525 eaa7 7c26 f0f6 1727
000000a0: 0783 d622 200f f424 98e7 0b27 c628 2725
000000b0: d5aa e027 467a 1527 06a9 0d26 9371 be27
000000c0: 384c a124 d4a7 0527 04a5 8726 d48a d725
000000d0: a72e 2426 6c36 0727 2f96 a927 87fe b527
000000e0: 55ba 1926 790c 0226 7a28 b425 678f f727
000000f0: fd72 9c27 e338 c726 dd31 7827 ef08 c726
00000100: 528e f827 7cff a427 6601 ee26 fcee 9226
00000110: 469a 4b27 1f2e e126 6871 5127 91d4 e824
00000120: c31a 6334 d627 2f34 52b5 3435 d8dc 0c35
00000130: a07d 3435 0989 2036 a7ad 4535 4990 1b34
00000140: d96c 1f36 a861 9134 81d4 8233 d13f ff35
00000150: 73ac 6d35 5c67 f934 9994 b334 4449 9534
00000160: e491 8035 13ad 0534 49c8 cb34 4535 fb34
00000170: fb1b 7535 216d f334 8148 0e35 ae2b bd34
00000180: 99ab 7d34 5d9a d035 e51d b233 fa8e bb33
00000190: ca07 a535 341e 3835 483c df34 3981 ca34
000001a0: 6c43 2f35 0b9b 1b34 0426 9f34 f2c0 f034
