SensorFormer/SensorFormer/result/individual/LCS10_9.pt (torch, 81661 bytes, 35 tensors)

self_attn.qkv_proj.weight f4 [108, 36]
00000000: 6dd4 fd3d 6df6 8f3d cb46 303e 7e8a 0dbe
00000010: 72de 083d 3243 9ebd e6a1 b8bd b5ea 293e
00000020: de73 87bc 258c 503d 1692 5c3d 1543 f0bd
00000030: e7d2 353e 0285 023c df10 353e 7d36 3abe
00000040: d53f 44be 273c 2fbe 4e59 483e 9122 4c3e
00000050: d3c3 143e 788c 4abd d6ef a43d d468 31bd
00000060: a17a b8bd 50a6 2a3e 41b0 e93d 9db6 f13d
00000070: e8dc 023d aac6 50bd da52 053e ac02 943d
00000080: b8a3 40be 02fa e7bd 5f5d 103e e772 87bd
00000090: bc85 8abd fad3 cd3d 446b 373e 524a bd3d
000000a0: 18a5 b3bc a1ac 9c3d a25c c13d 27bd ddbd
000000b0: 770c 083e ae89 7cbd 7871 aabd 7bd5 1a3e
000000c0: 038a fe3d f114 26be 9130 4dbe f3a0 40bd
000000d0: 21c9 4dbd 7b1d 71bc ebe2 413e 2c14 15be
000000e0: ce7d 303e 8155 22be 34b4 66bd 0b04 773d
000000f0: 79f7 2fbe a88e 04be c8c8 4dbe 6b94 003c
00000100: d794 a9bd 51f5 32be 360f e9ba 3c4d 143d
00000110: fdce d93d bb52 45be b730 943b 9a16 20be
00000120: 3f4a ebbc 20b9 fd3d a97e 43bc dd08 40bb
00000130: 6fd8 ff3d 0c5a a7bb d5e9 013e 1922 143e
00000140: 0cc6 3f3e bf24 513b b1c1 84bd 7d85 06bd
00000150: 03ce afbc 8247 8a3d 57f0 f9bd cac2 41be
00000160: d34b 1b3e 32d7 3b3e 6e8b 283e 3674 383c
00000170: 85a6 dabc 5459 2ebe 9b05 1c3c 9eb9 0b3e
00000180: ee20 1cbe 0635 f23d 3011 173e 5ecc df3d
00000190: aad7 2cbe 2d05 cd3d a7d3 24be 3549 ecbd
000001a0: b339 b33d a51a ed3c c5ee 913c f31e 743d
000001b0: 5609 21be 840d 083e 1ad6 b7bd f5cd 10bd
000001c0: 286f 11be 997b 463e 2c32 fdbc 29cf 6c3d
000001d0: 4f4c 1a3e d149 48bd 9013 f9bd fee6 63bd
000001e0: c3d6 283e bcf0 883d e034 5e3b 7d65 2f3e
000001f0: d07c 863d 4945 b7bd 27b0 1a3d 73f3 e2bd
00000200: d8d9 303e 04ff 1cbe 0ba9 9bbc 1e43 babb
00000210: 901d 133e d5d0 2b3e 5308 443e 68c4 103e
00000220: 794b 4c3d a5e8 853d b8b2 f33d 9a17 35bd
00000230: 0c44 073d 4143 11bc b5cf f2bd 2111 ccbd
00000240: fc2b f53d d6d4 a2bc 8b98 42be 3d67 063d
00000250: ad26 35be b401 81bd 2b7d c9ba 5bce 723d
00000260: 98a9 adbc 0a68 af3d d85c 363e 84a6 aebc
00000270: 7fa7 44be e18e 6a3d 0227 dc3d be1b 0fbd
00000280: 442e 7ebd 5852 5cbd 9adb 12be 704c 1c3e
00000290: 490c 483e 13ba 3f3e 0a41 adbd ba66 0cbe
000002a0: f8bb 9f3b 6c26 1e3e d2b1 8b3d 6ce6 de3d
000002b0: 5584 373e 2685 2fbe 8caa 183e b36a 3abe
000002c0: 8597 75bd 0dde 293e a2e1 8fbd f955 17be
000002d0: 1acd 0abd 4002 27be 4573 0d3d 333d ae3b
000002e0: 3db3 20be 664b febc 73a3 3f3e cb14 083e
000002f0: a9fe 4c3e a3ba 5dbc b9d6 a13a 627d f8bd
00000300: 54f0 603d 4cbc 3fbd 6e95 a43d 0fec 423d
00000310: 8bfc d0bd d1dd 273d 9d45 8a3d 32d2 95bc
00000320: c12d 98bb f5b4 0b3e 4057 593d ce97 22be
00000330: 62bb 2c3e d715 e3bd 9986 f0bd 66ca 2cbe
00000340: 6fac 2d3d 79c5 edbb 6e26 803d f556 ec3c
00000350: 4954 b9bd 41f6 ee3c 33f7 75bb f28a 713d
00000360: 5316 c3bd 6653 9cbd 7fbf 883d d9f5 b13d
00000370: 3312 9e3b 1e36 0f3e cfd4 a9bd 61a5 39be
00000380: ed88 4d3b 6a9d 16be 50c2 253e 1c4e 813c
00000390: cdb5 343e 8a85 4b3e bb98 ba3d 2959 ffbd
000003a0: f287 be3d 3c70 cbbb b02e bbbc 2308 043e
000003b0: a1bb 22be f6c6 123d 1da2 093e 87cd 23bb
000003c0: 0900 c5bd 9ef1 083e 653d 41bd 19aa 873d
000003d0: 4051 df3d a43b 283e 1669 15be 97af 843c
000003e0: 0345 dcbd 695a 033e 97d2 c73c 79f4 fdbd
000003f0: 989e 023e adeb 18be cc55 52bc 54ea c93d
0.123940326 0.07029424 0.17214505 -0.13822362 0.033415265 -0.0772766 -0.09015255 0.1659344
-0.016534742 0.050914902 0.053850256 -0.11731545 0.17756234 0.007966282 0.17682217 -0.18184848
-0.19164975 -0.1711279 0.19565317 0.19935061 0.14527826 -0.049450368 0.080535576 -0.043312863
-0.090077646 0.16665006 0.11410571 0.11802409 0.031948954 -0.05097071 0.13019887 0.07227072
-0.18812454 -0.11326982 0.14098118 -0.06613713 -0.06763789 0.10050197 0.17912012 0.09242691
-0.021929309 0.07650114 0.094414964 -0.108270936 0.13286005 -0.06165474 -0.08322424 0.15120499
0.124286674 -0.16218926 -0.20038058 -0.047028493 -0.05024064 -0.014716501 0.18934219 -0.14558476
0.1723549 -0.1585293 -0.0563242 0.06030659 -0.17184247 -0.12945044 -0.20096123 0.007847886
-0.08280342 -0.17476393 -0.0017781022 0.03620647 0.10635183 -0.1926984 0.004522409 -0.15633622
-0.028721927 0.123888254 -0.011932054 -0.0029302158 0.12492453 -0.00510717 0.12686856 0.14466132
0.18727893 0.0031912772 -0.06482256 -0.032842148 -0.021460539 0.0675192 -0.12204044 -0.18921962
0.15165643 0.18343809 0.16459438 0.011258176 -0.02669073 -0.17026263 0.009522821 0.13645026
-0.15246937 0.1182652 0.1475265 0.10927652 -0.16879144 0.10010753 -0.16096364 -0.11537401
0.0875124 0.02894337 0.01781405 0.059599828 -0.15726218 0.13286406 -0.089763835 -0.035352666
-0.14202559 0.19383086 -0.030907713 0.05781475 0.15068172 -0.04889852 -0.121619344 -0.055640213
0.16488175 0.066865414 0.0033906028 0.17128558 0.06566775 -0.08948762 0.03776565 -0.110815905
0.17270601 -0.15331656 -0.019001504 -0.0056842705 0.14366746 0.16778882 0.191438 0.14137423
0.049876664 0.06538514 0.11899322 -0.04421196 0.03302388 -0.008866132 -0.11856023 -0.099642046
0.1197128 -0.019876879 -0.19003503 0.0328133 -0.17690535 -0.06299153 -0.0015372386 0.059278827
-0.021199033 0.08564766 0.17808855 -0.021319635 -0.1920452 0.057265166 0.10749628 -0.034938566
-0.06205584 -0.053789467 -0.14341584 0.15263534 0.19535936 0.18723325 -0.08459671 -0.13711062
0.0048747025 0.15444344 0.06821026 0.10883793 0.17921574 -0.17140636 0.14908808 -0.18204765
-0.059958953 0.16588612 -0.07025458 -0.1477889 -0.033887006 -0.16309452 0.034533758 0.005317354
-0.15693374 -0.031041812 0.18714695 0.13289182 0.2001902 -0.013533267 0.0012347318 -0.1213329
0.054916695 -0.046810433 0.08036314 0.047588404 -0.10204419 0.040983025 0.06751559 -0.018288705
-0.004644126 0.13643248 0.053061724 -0.15878221 0.16868356 -0.1108815 -0.117444225 -0.16874084
0.042400774 -0.0072562066 0.0625733 0.028850058 -0.09049279 0.029170157 -0.0037531375 0.0589704
-0.095257424 -0.076330945 0.0667715 0.0868947 0.004823947 0.13985488 -0.08292543 -0.18129493
0.0031362132 -0.14708486 0.16187406 0.015784316 0.17647476 0.1987516 0.09111162 -0.12468178
0.09303273 -0.0062084477 -0.02284941 0.12893729 -0.15891887 0.035834275 0.13440748 -0.002499433
-0.09619147 0.1337342 -0.04717769 0.066242404 0.10904169 0.16429001 -0.14590868 0.016197009
-0.107553504 0.12827457 0.02439241 -0.12400145 0.12755811 -0.14933653 -0.012837838 0.09859148

self_attn.qkv_proj.bias f4 [108]
00000000: 649f 323b ce2c 7e3b 42f0 02bb 8631 ab3b
00000010: 6ba8 10bb 38a6 dabb 4704 133c d440 2f39
00000020: d552 f53a 80b7 743c 5622 c8bb 9dd1 d3ba
00000030: 6388 be3b dca0 13bd 4156 903b 783c d73b
00000040: 4a03 123c 17b0 7b3a 4719 35bc de82 463b
00000050: 4157 9f3a 43e8 03bb a953 3a3c 3ad2 203b
00000060: 2f19 f13b 812f 3739 9837 df3a 1ff8 c83a
00000070: 5129 29b9 7462 793b e8ce 3abc 4895 243b
00000080: 56aa b6bb a55b 1ebb a45f edba fa7c b6b8
00000090: b509 8f3b f00f dc38 3106 b3ba eb54 003b
000000a0: bce6 39bb d2c0 9839 7c64 50bb 3eb3 453a
000000b0: 0826 343b 83d7 803b c413 2539 07a2 96ba
000000c0: 25af 803b a24b 70bb ff7b c03a ec93 07b9
000000d0: 04eb 7bbb 06b2 673b 45b5 553b 3185 973b
000000e0: c236 d4ba 1dad 0e3b ff17 8d3b 8638 df3a
000000f0: adff 313b d31f 57bb d679 3c39 1027 d83a
00000100: e21e 4c3b 1b07 93ba 15ce 5ebb cc60 23bb
00000110: ee74 26bb 655c e8ba bd49 b9b9 b355 473b
00000120: 58e5 b03b 473d 35bd 215f 1e3d 8f95 34bd
00000130: f0dc 47bd 42e2 6dbd bf08 4bbd 1c56 39bd
00000140: 276c 343d 8230 16bd 2ca4 2b3d 8aaf 973b
00000150: a0fd c9bc db14 4bbd aec7 313d 0a4b 3ebd
00000160: a737 e63b a197 ffbc 797d 6e3c f5d3 c1bc
00000170: 8c1c 32bd db8f 383d 86ce 04bd 5b3f 47b9
00000180: 4675 b2bc e235 e33c 06da 06bd 858a 29bd
00000190: 47aa a23c bbcc 473d 16e1 a3bc 2ae6 a33c
000001a0: 40d3 aa3c 0771 f73c cf1e 193d 3600 55bd
0.0027255649 0.003878403 -0.001997963 0.0052244095 -0.0022073041 -0.006672647 0.008973188 0.00016713451
0.0018716702 0.014936328 -0.006107609 -0.0016160492 0.0058145984 -0.03604208 0.0044048135 0.0065684877
0.008911917 0.00096011296 -0.01105339 0.0030290405 0.0012156741 -0.0020127452 0.011372485 0.0024539367
0.0073577384 0.00017469937 0.0017030118 0.0015332735 -0.00016132488 0.0038053067 -0.011401869 0.0025113393
-0.005574505 -0.002416351 -0.0018110168 -8.701715e-05 0.004365171 0.00010493386 -0.0013658461 0.0019581865
-0.0028366288 0.00029135362 -0.0031798175 0.0007541663 0.0027488489 0.003931941 0.0001574299 -0.001149238
0.003927129 -0.0036666174 0.0014685391 -0.00012929708 -0.003843964 0.0035353913 0.0032609266 0.004624032
-0.0016190636 0.0021770664 0.004305839 0.0017030395 0.0027160451 -0.0032825365 0.00017974465 0.0016491134
0.0031146337 -0.0011217328 -0.0033997346 -0.0024929522 -0.0025399285 -0.0017727731 -0.0003534089 0.003041607
0.0053984337 -0.04424789 0.03866494 -0.044087943 -0.048794687 -0.058077104 -0.049568888 -0.045248136
0.044048455 -0.036667354 0.041904613 0.00462908 -0.02465707 -0.049580436 0.04340332 -0.04645828
0.0070256772 -0.031200232 0.014556282 -0.02366064 -0.043484256 0.045059066 -0.03242352 -0.0001900172
-0.021784436 0.027735654 -0.032922767 -0.04139187 0.019856585 0.04877923 -0.02000479 0.020007212
0.020852685 0.030205263 0.037382897 -0.052002154

self_attn.o_proj.weight f4 [36, 36]
00000000: 71a7 a2bd 56da 69be 7e15 39be 56eb 233d
00000010: 8034 b4bd efd0 8a3d c82c 993d f6c1 c43d
00000020: a0e8 d13d 7da8 e33d d908 753e c35d e8bc
00000030: c20b c1bd b5c8 153e 4378 b63c 1820 37be
00000040: 7e01 643e 81e2 4d3e aa3a c9bd 48b9 143e
00000050: c0b2 59bd e954 333e 60cf 213d b4d1 363e
00000060: 9686 72be 5448 44be 6b72 0abc 09b8 8dbd
00000070: 7fec 1abe 4f27 eb3c 664e 7ebe a4c5 ca3d
00000080: 6c99 39be 595a 943e 9505 08bd 977f 613d
00000090: a98c 8ebd 609e 7fbe 2a21 a73e ec6d 0c3e
000000a0: e877 3ebe 32ac 28be d9a8 3abe b884 a5bc
000000b0: 2d7f 173d 8fad 2d3d 23fd d8bd eb5f 603e
000000c0: c4e1 76be 6783 4ebe 22aa 14bd 7795 04be
000000d0: 1715 49be 02eb 113e aea7 9d3e 322c 2a3e
000000e0: 9e24 dbbd 8bc3 0f3e ffef 98be 2e21 6fbe
000000f0: e8cc 0d3c b49f 6e3e 9217 53bd 52f1 3c3d
00000100: e94a 1d3e e7f8 a93d 8826 0e3c c5ce 0fbe
00000110: 07ac ba3d af2f 5cbe 5002 893e 2042 063e
00000120: 3534 fe3d e503 c53d 7a59 103e c9d6 733e
00000130: f645 1b3e 8f7d ce3c 3b8a 6abe 2424 3fbe
00000140: 3d87 083e 07b5 973d 398a 8b3e e636 c8bd
00000150: 770d 2bbe 79d5 d23d 0342 723e 2bac 503e
00000160: ce82 283e ef8c c03b a32f aebd 39e7 eabd
00000170: b7fa d6bd 243d 3f3e aa5f e43d 0fb6 2abd
00000180: b5ee 97bd a753 443c bdcd 2dbe cfb0 b33d
00000190: 79ab 333e 0550 333b 57ea 663e 2f84 ffbd
000001a0: 0072 693d e216 51bd 0a2f 473c dfdb 71be
000001b0: 00cc 6fbd e10e 013e 5c1b d53c 58d9 733d
000001c0: 0aa4 613e 5cbf 6e3e 6682 50be 1d5c 8f3e
000001d0: b0e1 53be d4e6 1cbe 3e7d 183d 0e5c 3f3e
000001e0: 6a29 3e3d 6923 c4bd 7a4e 503c 6efb 723e
000001f0: f892 f2bd c722 a13e 73e8 76bd 90dc a93d
00000200: 1153 4c3e 9a48 433e 45f0 40bd 71ab 6ebe
00000210: 38f0 243d 0cf3 82be 66cc db3d 1670 8fbd
00000220: ed7c 12bc fc29 94be 5b2c c43d d990 23bd
00000230: 64ea 57bc eb8b 5e3e 64b2 06be a14a 10be
00000240: 660a f6bc a352 24bd e58c 02be 3e54 4e3e
00000250: 71c3 4abd 1bfc 26bd fc47 8e3e 0d47 833e
00000260: 9f26 45bd fdf4 e03d 3cc1 923e df33 803e
00000270: 2e6f 833c 27a8 bfbd 9798 423d f22c 94be
00000280: 60ec 6d3e 48e5 8cbe d548 8c3e 0e33 17be
00000290: f1c2 693c 9439 a03e bae1 b23d e11f 923e
000002a0: 251b 50bd cdec 323e 5e4c 07be 1347 3c3e
000002b0: 5789 2c3e 9558 14bc 6ff5 883e 5f8b 7b3e
000002c0: c267 253e aea6 aabd 5753 903e eb36 803d
000002d0: 2a75 443c 211f 72be b01c a2bd a716 193c
000002e0: e297 82be 9663 a4bd 22db 2ebe 66dd 60be
000002f0: 095e 75be ae96 cebd 24de 6e3e be92 b5bd
00000300: 0d0a 76be 0741 1b3e 72ad 01bd 53a4 0a3e
00000310: 0d87 86be bf9a 123d 33d6 2abe 014c 9c3d
00000320: 07ad 633e 62f9 c9bc 22b3 be3c ccad 28be
00000330: 9883 42be 1b50 6bbe 20a2 093e 4c76 6f3e
00000340: fb5d 813e e6f9 16be 37c5 10be ad3f 443d
00000350: e657 babd eb5d 48be 7278 733e f000 b5bc
00000360: 08a0 0ebe af9a 493e 185b 14be ce16 fe3d
00000370: f753 41be 304a c03d 8b8a 7dbe cfa6 82be
00000380: 67e3 45bd 59e6 133e 2698 75bd 3e90 6dbe
00000390: 4ac9 943d f2af 85be 7a3f bc3c fa8a 013e
000003a0: d297 03be ba6f 6c3e c2cb 3fbe 89cf d2bc
000003b0: 589a 26be d1c7 cfbd 6aa1 86be 26a9 6b3c
000003c0: 3a5e 3f3d b6f0 323e 2aeb 733c 86f2 3e3e
000003d0: 9476 aa3b 97ce 4cbe 21e0 c53d 7710 32be
000003e0: 3bd2 3bbe bd90 103e 88c2 37bd e1ff 65be
000003f0: c87e 8a3d 556b 3c3e 7e8a 9a3e abb7 92bc
-0.07942093 -0.22837195 -0.18074605 0.040019356 -0.08799076 0.06778132 0.074792445 0.096073076
0.10249448 0.11116121 0.23929156 -0.028365022 -0.09426071 0.14627345 0.022274142 -0.17883337
0.22266194 0.20105936 -0.098256424 0.14523804 -0.053148985 0.1751286 0.03950441 0.17853433
-0.23684153 -0.19168216 -0.008450131 -0.069198675 -0.15129279 0.028705267 -0.24834594 0.09900978
-0.18124932 0.2897518 -0.03320845 0.05505332 -0.069604225 -0.24962759 0.3264249 0.13713807
-0.18600428 -0.16471937 -0.18228473 -0.020204887 0.03698652 0.042401846 -0.10595157 0.2191159
-0.2410956 -0.20167314 -0.036295064 -0.12947641 -0.19636951 0.14249805 0.30791992 0.16618422
-0.107003435 0.14039437 -0.29870602 -0.23352501 0.0086548105 0.2330311 -0.05153615 0.04612858
0.15360607 0.082994275 0.008676179 -0.1404372 0.09114843 -0.21502565 0.26759577 0.13111162
0.124123015 0.096198834 0.14096633 0.23812403 0.15163407 0.025206355 -0.22904293 -0.1866613
0.1333284 0.07407575 0.27253893 -0.09776096 -0.16704355 0.10294623 0.23657994 0.20378177
0.16456148 0.0058761756 -0.0850518 -0.114698835 -0.10497039 0.18675667 0.11151059 -0.04167753
-0.07418577 0.011982835 -0.16973014 0.08773958 0.1754588 0.0027360928 0.22550331 -0.12476384
0.056993484 -0.051047213 0.012157211 -0.2361903 -0.05854416 0.12603332 0.026014023 0.059533447
0.22035232 0.23315185 -0.20362243 0.27999964 -0.20691562 -0.15322429 0.037228815 0.1868746
0.046426214 -0.095770665 0.012714023 0.23728725 -0.11844438 0.31471846 -0.060280275 0.08294022
0.19953562 0.19070664 -0.04710414 -0.23307587 0.040268153 -0.25576055 0.10732345 -0.070038006
-0.008940917 -0.28938282 0.09578773 -0.03993306 -0.013178442 0.21733062 -0.13153988 -0.14090969
-0.030034255 -0.04011787 -0.1274906 0.20149323 -0.049502794 -0.04076777 0.27789295 0.25640145
-0.048132535 0.10984228 0.2866305 0.25039575 0.016044226 -0.093582444 0.047508802 -0.2894054
0.23234701 -0.27518678 0.27399316 -0.1476557 0.014267669 0.3129393 0.0873446 0.28539947
-0.050807137 0.17473145 -0.13212726 0.18386488 0.16849266 -0.009054323 0.2674975 0.24564885
0.16152862 -0.08332573 0.28188583 0.06260475 0.011990825 -0.23644687 -0.07915628 0.00934378
-0.25506502 -0.08026807 -0.1707578 -0.21959457 -0.23961653 -0.100873336 0.23326927 -0.088658795
-0.24027272 0.15161525 -0.03165955 0.13539247 -0.2627491 0.03579211 -0.16683273 0.07631684
0.22233973 -0.024655048 0.023278777 -0.16472548 -0.18995512 -0.22979777 0.13440752 0.2338497
0.25267014 -0.14743766 -0.14137731 0.04791229 -0.090987965 -0.19567077 0.23776415 -0.022095174
-0.13928235 0.19687913 -0.14487875 0.124066934 -0.18879686 0.0938915 -0.24759881 -0.2551789
-0.04831257 0.1444334 -0.059959553 -0.23199555 0.07264955 -0.26110798 0.022979487 0.12650672
-0.12850884 0.23089495 -0.18730071 -0.025733726 -0.16269815 -0.10145534 -0.26295024 0.01438359
0.04672072 0.17474636 0.01488761 0.18647203 0.005202124 -0.20000683 0.0966189 -0.17389093
-0.18341915 0.14117713 -0.044863254 -0.22460891 0.06762463 0.18400319 0.30183786 -0.017909845

self_attn.o_proj.bias f4 [36]
00000000: bc52 713d 1bdc 3a3d a68a e23c 5043 2abd
00000010: 1c3a a73c 3cea 6dbc c6c0 ac3c 323e 193d
00000020: 635c ce3c dd99 f53b e393 373c 6927 25bd
00000030: 24d5 0cbd a6b1 22bd a574 18bd fa8c 4f3c
00000040: f340 0f3d 9555 be3c 7fa3 ff3c c3ba 03bd
00000050: 4221 94bc 70de 113d e30a 403d 7f1b 1ebd
00000060: 2a68 2b3c b5b7 023d 043c 9fbc b7dd 28bd
00000070: 3672 923c be0d 733c 623b aa3c 3220 ac3c
00000080: 6b59 59bd 8890 333d 58b3 23bd 419d d4bc
0.058916792 0.045620065 0.027654003 -0.0415681 0.02041345 -0.014521178 0.021088015 0.03741283
0.025190538 0.0074951486 0.011204693 -0.040320788 -0.034382954 -0.0397202 -0.037220616 0.012667889
0.03497405 0.023234168 0.03120589 -0.03216053 -0.018082265 0.035612524 0.046885382 -0.03860044
0.010461846 0.031913478 -0.019437797 -0.04122707 0.017876726 0.014834819 0.020780269 0.021011446
-0.05306379 0.043839008 -0.039965957 -0.02595389

fc.weight f4 [1, 18]
00000000: eb2f eabd f057 23be 0f95 2dbe 8bbe 6c3e
00000010: a8a2 69bd 7cb4 16be 7e28 893d 2ca0 093e
00000020: c75d 443e 2a78 163e be82 163e 36c3 bebc
00000030: 7466 1e3d c54d 2b3e dc83 f2bc 2df1 b2bd
00000040: c169 48bd 4de8 8b3d
-0.11434921 -0.15951514 -0.16951393 0.23119561 -0.057039887 -0.14717287 0.066971764 0.13440007
0.19176398 0.14694276 0.14698312 -0.023286443 0.038671926 0.16728885 -0.029603891 -0.08737407
-0.04892898 0.06831417

fc1.weight f4 [1, 36]
00000000: 3c2a 853e 677b bd3e 1541 bbbd 439c 1ebd
00000010: baa6 813e 3e4f a5be 240a 57be e47b 6fbe
00000020: 1f06 b43e b612 733e 20f3 82be 385d 83be
00000030: 0162 0d3e 0b8d a6be fcf0 ca3d 5537 60be
00000040: 39c1 933e 9483 2abe e475 973e ad17 493e
00000050: edc8 12be 70f8 b83e 400a 823e 0a2d 8abe
00000060: 7365 3bbe 6e6e ad3e 29af b6be 5b1d 97be
00000070: d778 773e 617d af3e f930 883e 2dc9 843e
00000080: 2860 98be b7cd ac3e 6cf7 77be 61cf 7cbe
0.26008785 0.3700821 -0.09143273 -0.03872324 0.25322515 -0.3228702 -0.20999962 -0.23387104
0.3516092 0.23737606 -0.25576115 -0.25657058 0.13806917 -0.32529482 0.09909245 -0.21896107
0.28858355 -0.16651756 0.2958213 0.19637938 -0.1433446 0.36127043 0.25398445 -0.26987487
-0.18300419 0.33873314 -0.35680512 -0.29514584 0.2416719 0.34275344 0.26599863 0.25934735
-0.2976086 0.33750698 -0.24215478 -0.24688484

fc2.weight f4 [1, 9]
00000000: 00f6 54be 9e4c 10be 1b9f 083e 7e24 43be
00000010: 8cce 993e 0b1b 503e 90c9 03be ee79 6c3e
00000020: 6058 90bd
-0.20796967 -0.14091727 0.13341944 -0.1905689 0.30040395 0.20322816 -0.12869859 0.23093387
-0.07048106

fc3.weight f4 [1, 2]
00000000: 21ab a9be 9292 0a3f
-0.33138373 0.541299

input_fc.weight f4 [18, 3]
00000000: 08fc 833e d6a9 d2be 5256 db3d 6a6c 013f
00000010: e682 ddbd 90bf 4bbe 65ad f9be 0514 303e
00000020: 480e eabe d528 0c3e 2fc1 8f3e d0ac e53e
00000030: 3dea d23d 1c2d 77be 1994 f6bd 1a6e 14bf
00000040: 3a98 01bf 44fc c4be 9eea bfbe 8cec 39be
00000050: 63d9 c0be f923 a0be 1b67 b6be 5b10 00bf
00000060: 6e76 d7be f312 83be 097c 0f3f b759 4d3d
00000070: e4ee f73e 45fb 103f cf52 05bf 60de 86be
00000080: 8704 49be 6ded e53d 2922 fc3e 8d6d c63e
00000090: ff3b dd3e eefc e2be fa7a f7bd fa73 a5be
000000a0: 2d1f 373d a0f8 763e df19 743c 0048 a53c
000000b0: 812e 6bbe 4e21 d4bd cd4f ab3c 79e9 febe
000000c0: d9f2 c5be 829e e73e 8910 a3be 1f67 633d
000000d0: 9cdc 0abe c45f 3cbd
0.25778222 -0.411452 0.10709824 0.5055605 -0.108159825 -0.19897294 -0.48765102 0.17195137
-0.4571402 0.13687451 0.28077075 0.44858408 0.10298584 -0.24138302 -0.12039966 -0.579805
-0.50622904 -0.38473713 -0.37483686 -0.18156642 -0.37665853 -0.31277445 -0.35625538 -0.50024956
-0.42082542 -0.25600395 0.5604864 0.050134387 0.48424447 0.56633407 -0.5207948 -0.26341534
-0.19630633 0.11226926 0.49244812 0.38755456 0.43209836 -0.44333595 -0.12084003 -0.32315046
0.044707466 0.2411828 0.014898746 0.020175934 -0.22966959 -0.10357915 0.020912075 -0.497875
-0.3866184 0.4523812 -0.31848553 0.055518266 -0.13560718 -0.045989767

input_fc.bias f4 [18]
00000000: 0055 753e 1037 cabe 4b61 f03e 9d7d 553e
00000010: 3be4 813d bd18 1cbc f7ab c7be 4ef7 92be
00000020: 03bb 073b 1ab1 c03e 8a8e 2e3e bd5f 343e
00000030: c92d 073f d345 e7be 0934 09bf 881c 8dbe
00000040: f7c0 b63e d85e 69be
0.23958206 -0.39495134 0.4694923 0.20848699 0.0634236 -0.009527382 -0.38998386 -0.28704304
0.0020710833 0.37635118 0.17046562 0.17614646 0.5280424 -0.4517046 -0.53595024 -0.2756083
0.35694095 -0.22790086

norm.weight f4 [36]
00000000: 0000 803f 0000 803f 0000 803f 0000 803f
00000010: 0000 803f 0000 803f 0000 803f 0000 803f
00000020: 0000 803f 0000 803f 0000 803f 0000 803f
00000030: 0000 803f 0000 803f 0000 803f 0000 803f
00000040: 0000 803f 0000 803f 0000 803f 0000 803f
00000050: 0000 803f 0000 803f 0000 803f 0000 803f
00000060: 0000 803f 0000 803f 0000 803f 0000 803f
00000070: 0000 803f 0000 803f 0000 803f 0000 803f
00000080: 0000 803f 0000 803f 0000 803f 0000 803f
1.0 1.0 1.0 1.0 1.0 1.0 1.0 1.0
1.0 1.0 1.0 1.0 1.0 1.0 1.0 1.0
1.0 1.0 1.0 1.0 1.0 1.0 1.0 1.0
1.0 1.0 1.0 1.0 1.0 1.0 1.0 1.0
1.0 1.0 1.0 1.0

norm.bias f4 [36]
00000000: 0000 0000 0000 0000 0000 0000 0000 0000
00000010: 0000 0000 0000 0000 0000 0000 0000 0000
00000020: 0000 0000 0000 0000 0000 0000 0000 0000
00000030: 0000 0000 0000 0000 0000 0000 0000 0000
00000040: 0000 0000 0000 0000 0000 0000 0000 0000
00000050: 0000 0000 0000 0000 0000 0000 0000 0000
00000060: 0000 0000 0000 0000 0000 0000 0000 0000
00000070: 0000 0000 0000 0000 0000 0000 0000 0000
00000080: 0000 0000 0000 0000 0000 0000 0000 0000
0.0 0.0 0.0 0.0 0.0 0.0 0.0 0.0
0.0 0.0 0.0 0.0 0.0 0.0 0.0 0.0
0.0 0.0 0.0 0.0 0.0 0.0 0.0 0.0
0.0 0.0 0.0 0.0 0.0 0.0 0.0 0.0
0.0 0.0 0.0 0.0

norm1.weight f4 [9]
00000000: 0000 803f 0000 803f 0000 803f 0000 803f
00000010: 0000 803f 0000 803f 0000 803f 0000 803f
00000020: 0000 803f
1.0 1.0 1.0 1.0 1.0 1.0 1.0 1.0
1.0

norm1.bias f4 [9]
00000000: 0000 0000 0000 0000 0000 0000 0000 0000
00000010: 0000 0000 0000 0000 0000 0000 0000 0000
00000020: 0000 0000
0.0 0.0 0.0 0.0 0.0 0.0 0.0 0.0
0.0

norm2.weight f4 [9]
00000000: 0000 803f 0000 803f 0000 803f 0000 803f
00000010: 0000 803f 0000 803f 0000 803f 0000 803f
00000020: 0000 803f
1.0 1.0 1.0 1.0 1.0 1.0 1.0 1.0
1.0

norm2.bias f4 [9]
00000000: 0000 0000 0000 0000 0000 0000 0000 0000
00000010: 0000 0000 0000 0000 0000 0000 0000 0000
00000020: 0000 0000
0.0 0.0 0.0 0.0 0.0 0.0 0.0 0.0
0.0

m.running_mean f4 [12]
00000000: d102 febf 1070 fcbf 5116 00c0 a5b2 02c0
00000010: fa52 04c0 e89f 03c0 7228 02c0 abd1 01c0
00000020: 691f 04c0 2597 07c0 383e 0ac0 bf2b 0ac0
-1.984461 -1.9721699 -2.001362 -2.0421536 -2.0675645 -2.056635 -2.0337186 -2.028422
-2.0644171 -2.1186001 -2.1600475 -2.15892

m.running_var f4 [12]
00000000: 6366 7444 0a9b 7444 447a 7444 70e0 7344
00000010: e880 7344 ba83 7344 0fe8 7344 e12f 7444
00000020: 8164 7444 bcec 7344 09f0 7344 0f76 7444
977.5998 978.4225 977.9104 975.50684 974.01416 974.0582 975.6259 976.7481
977.5704 975.699 975.75055 977.84467

linear_net.0.weight f4 [9, 18]
00000000: 11ba 7f3c 89db ffbc 111f 50be e49f 63be
00000010: 10e4 95bd 6780 b7bd 4909 ee3c 1f0f 61be
00000020: e380 cabc 95b8 4fbe 955b 56bd 5d42 5b3e
00000030: c12a f5bd d53d d9bd 1c4a 2cbd 0afc 393e
00000040: fcac 1d3e da99 6e3e 24dd 383e 1d03 2d3e
00000050: 014c 593d 05e1 293e 27d4 803d 77d4 e3bd
00000060: 6d6d a83d e22d 1a3e d613 4abe 63cd 053e
00000070: a3aa 24be 0e80 36be ffd2 2dbd 81ab 273c
00000080: dae7 713d 9ebb d63d f0a0 cf3d d494 acbd
00000090: 9415 71bd 8b35 443e 28e8 6b3e 1918 26be
000000a0: 0ae6 dc3c d688 64bc 8ad9 f43d 755d 843d
000000b0: 034c 34be c4bd 323d e36f 33be af81 d23d
000000c0: d0ab d83b e569 46be b706 0ebe 4576 a23d
000000d0: e06c 10bd 794e 833d 41da 883d 6b60 433e
000000e0: 99f3 07be 3e57 d23d 9021 61bc 0a63 4abe
000000f0: 1614 153e 315f 533e 001f be3d 5cce 583e
00000100: 8c05 20be c60a dabc 3416 743c dfa6 3fbd
00000110: 8071 2e3e 62a3 9fbd fb20 ac3d 5cda 56bd
00000120: 4896 a93d 0970 f53d 9178 863d 6143 09be
00000130: 9204 683e c86a 46be 6654 6e3e 4173 e43d
00000140: 8687 ce3d 6645 26be 4820 06bd 410c debc
00000150: fcd0 7dbd af16 333d c8c8 3b3e 5957 b0bd
00000160: 1a5e 91bd 79e1 66be 5da9 29be 8d52 f23d
00000170: 4239 72bd 0144 1a3e d285 4dbe e01e acbd
00000180: 7631 55be 6a7a 30be 0e6f 213e 23ab 753d
00000190: 897c 67be e4d9 bbbd 5724 c9bd d231 38be
000001a0: d937 133e 970d f6bd 2b50 4a3e 7bd1 ec3d
000001b0: c909 44be 1ea0 eebd 0b7d afbd 4645 69be
000001c0: 116b 69be 48d5 bb3d d85e fbbc 24e4 643d
000001d0: 0f5f 83bc 2021 e23c 4373 85bd ae9a 08be
000001e0: 0f00 0a3e 07d5 673e 67cf adbd 00fc 60bd
000001f0: b526 123e 4643 7fbd 2463 1c3e 43cb 18b9
00000200: 8461 f8bc 4430 9b3c 0a9b d3bc 36b7 f23d
00000210: 9b4a 0ebd 0507 fe3c 5373 19be 6715 83bb
00000220: d80e 6a3d f1e2 b0bd 397e 22be 0bb5 59be
00000230: f6bf d63c 7f4c 5abe 804e 18be d3e0 05be
00000240: e016 173e 0535 85bd bba9 52be efd7 32be
00000250: f6ae 563e f2c0 b2bd f941 0e3e 9334 533e
00000260: 17ef a7bc 7868 783c 0195 0a3e 5c72 ca3d
00000270: ab15 833d d2b7 213e 1149 993c 6826 e6bd
00000280: 6e64 e1bd 9bb6 093d
0.0156083265 -0.031232612 -0.20324351 -0.22228962 -0.0731889 -0.08960038 0.029057162 -0.21978424
-0.024719661 -0.20285256 -0.052333433 0.21412034 -0.11971045 -0.10607497 -0.042062864 0.18162552
0.1539802 0.23300877 0.18053108 0.16895719 0.053051 0.16589744 0.06290465 -0.11124509
0.08223996 0.15056565 -0.1973413 0.1306663 -0.16080718 -0.17822286 -0.04243755 0.010233761
0.059059 0.10485004 0.10138118 -0.08426824 -0.05885847 0.1916105 0.2303778 -0.1622013
0.02696516 -0.01394864 0.11955555 0.06463138 -0.17607121 0.043638006 -0.1752315 0.102786414
0.0066122785 -0.19376333 -0.13869749 0.079327144 -0.03526008 0.06411452 0.06682254 0.1907975
-0.13276519 0.102705464 -0.013740912 -0.19764343 0.14558443 0.20641781 0.092832565 0.2117247
-0.15627116 -0.026616465 0.014897872 -0.04679 0.17035484 -0.07794835 0.08404728 -0.052454337
0.08280617 0.1198426 0.06565965 -0.1340461 0.22657993 -0.19376671 0.23274383 0.111547954
0.10084443 -0.16237411 -0.03274563 -0.027105452 -0.06196688 0.043722805 0.1833831 -0.0861041
-0.070980266 -0.22546948 -0.16568513 0.118321516 -0.059136637 0.15065004 -0.2007058 -0.084043264
-0.20819649 -0.17234197 0.1576502 0.05997766 -0.226061 -0.09172419 -0.098213844 -0.17987755
0.14376773 -0.12014311 0.19757144 0.11563393 -0.19144358 -0.11651634 -0.08568772 -0.22780332
-0.22794749 0.091715395 -0.030684873 0.055881634 -0.016036538 0.027603686 -0.06516125 -0.13340256
0.13476585 0.22639857 -0.084868245 -0.054927826 0.14272578 -0.062320016 0.15272194 -0.0001457157
-0.030319937 0.018943913 -0.025830764 0.11851351 -0.034739118 0.031009207 -0.14985399 -0.004000354
0.057143062 -0.08637036 -0.15868463 -0.21260469 0.026214581 -0.21318243 -0.14873695 -0.13074045
0.1475482 -0.06504253 -0.2057256 -0.17465185 0.2096518 -0.08728208 0.13892354 0.20625524
-0.02049975 0.015161626 0.13533403 0.098850936 0.06400617 0.15792778 0.018711599 -0.11237794
-0.110054836 0.03362141

linear_net.0.bias f4 [9]
00000000: be26 0bbd 0dfc 183c b81d 6cbe 058e 01bc
00000010: ac40 523d 4365 503d 21c0 1dbe 10c1 3b3e
00000020: cfd5 f23d
-0.033972494 0.009337437 -0.23058212 -0.007907395 0.051331207 0.05087782 -0.15405323 0.18335366
0.11857187

linear_net.2.weight f4 [1, 9]
00000000: 8b51 8abe abeb 7fbd 2b4e a5bc 20b7 b73d
00000010: 90c1 2dbe cc7f 84be 7343 65be 0095 2e3e
00000020: 28ee 9abe
-0.27015337 -0.06248061 -0.020178875 0.08970475 -0.1696837 -0.2587875 -0.22389011 0.17049026
-0.30259824

exp_avg f4 [108, 36]
00000000: 5191 8039 7d6d 2b39 17a8 613a cea4 acba
00000010: 3335 033a e1e0 f33a c529 a03a 03ca d83a
00000020: 3275 92b9 980a e9ba 0b85 913a a692 c6ba
00000030: 4806 103a 1e73 74b9 ee34 c939 0797 713a
00000040: 51f3 0239 28ce 8739 27bc 91b8 8632 0f37
00000050: f55a 1937 7614 6fb8 379e 9435 cb66 47b8
00000060: 8960 2e34 b1af 48b8 de64 4833 a2fb 48b8
00000070: 2654 8b32 0f06 49b8 246b c731 6107 49b8
00000080: 7040 0f31 8f07 49b8 67e9 4d30 9207 49b8
00000090: 3631 c538 a340 9a38 830d 8939 fc87 e0b9
000000a0: 2643 3239 fa1a 1b3a 4107 cb39 4c9b 0b3a
000000b0: c71c dbb8 e02c 19ba b172 b539 5c07 02ba
000000c0: b612 5239 9339 bab8 0de7 0339 b9ca 9b39
000000d0: b417 b537 aa9c b838 fd1c 03b8 b785 4637
000000e0: ad07 9136 608f ffb7 5874 b436 196d 9cb7
000000f0: 4c22 1536 baf2 86b7 9d45 5a35 9eee 83b7
00000100: 0840 9d34 c889 83b7 701e e233 c17c 83b7
00000110: 3a88 2233 0f7b 83b7 3aa5 6932 db7a 83b7
00000120: c87d 2bb9 987b 91b8 54c9 43ba 71f7 8b3a
00000130: efaa cab9 5bc0 cbba fec8 85ba 55f6 b1ba
00000140: 2ece 3539 0abf ba3a f6b3 78ba a035 a03a
00000150: 8713 cab9 d661 1a39 1cd9 9fb9 a44c 44ba
00000160: 2b2f 1bb9 92b2 51b9 3434 1b38 8b49 6335
00000170: 3ca2 95b6 a72f 1438 1e23 7836 c901 1438
00000180: 9db9 f635 79a8 1e38 0239 3835 894b 2038
00000190: eb0e 8534 d582 2038 0965 bf33 fc89 2038
000001a0: 2294 0933 eb8a 2038 5cc6 4532 0c8b 2038
000001b0: 8119 cdb8 b0f5 d1b8 bf6f 14b9 cba6 9d39
000001c0: 0f53 0eb9 df65 c8b9 8821 82b9 326f bdb9
000001d0: a88c e438 f970 de39 9395 58b9 9d33 ba39
000001e0: d0a8 47b9 eddb c438 7943 c0b8 d24c 56b9
000001f0: 4382 df37 2d4c 94b8 0fe6 e737 6326 b6b7
00000200: 005f 86b6 6bb2 e837 8571 a2b6 6c35 6637
00000210: e5f8 fdb5 2824 4237 086e 38b5 0a69 3d37
00000220: 64bc 84b4 4acc 3c37 fcd7 beb3 0cb8 3c37
00000230: a92c 09b3 6bb5 3c37 3231 45b2 17b5 3c37
00000240: 5e43 f7b8 2d04 c0b8 ef2c a8b9 9f97 0a3a
00000250: 6ec4 5cb9 a975 3fba d655 fab9 c24e 2cba
00000260: 347d 0639 123a 3d3a 88c0 dfb9 cab5 203a
00000270: 4d9c 82b9 12c8 e638 e286 22b9 1fe1 bfb9
00000280: 0c2b cdb7 0e1a e5b8 fe52 fd37 d0d6 64b7
00000290: c6eb aeb6 c89d 0638 0f5e 6eb6 a34a ae37
000002a0: 3e71 b0b5 825e a337 6c72 feb4 1c01 a237
000002b0: cff5 36b4 3dd4 a137 0383 83b3 6ace a137
000002c0: 780d bdb2 b0cd a137 5ee2 07b2 96cd a137
000002d0: 50c5 1fb9 4fb9 d6b8 fe5b 0fba b646 5a3a
000002e0: 795b a5b9 4724 9aba acb1 4aba b50f 89ba
000002f0: e0aa 3a39 4e37 933a 7615 38ba 4cc4 7a3a
00000300: 31bf b4b9 f215 1a39 41f2 7eb9 4913 19ba
00000310: ee89 acb8 3cf5 2ab9 9861 4438 1687 13b4
00000320: fd56 d6b6 bed4 0838 9b80 8eb4 3efc fa37
00000330: 274d b832 f159 fe37 ac0f 5f32 abda fe37
00000340: 83b4 a831 91eb fe37 0513 f430 bbed fe37
00000350: ac93 2f30 03ee fe37 0c6a 7c2f 0eee fe37
00000360: f4d7 20b8 bfd6 16b8 3f8c 34b8 21a4 d638
00000370: c53a 4ab8 9519 09b9 f03c aeb8 52c3 00b9
00000380: 8ef2 0e38 6821 1939 c167 92b8 0012 0139
00000390: bb5e 92b8 23d8 0838 9359 fcb7 c345 8cb8
000003a0: ad00 8437 e5c8 d3b7 19c4 7037 a9f6 9cb7
000003b0: 1ae0 9cb4 6c85 7137 14a9 45b6 384e ba36
000003c0: 759e a1b5 5368 8436 97fd ebb4 3765 7a36
000003d0: 11f6 29b4 4d86 7836 1663 74b3 8448 7836
000003e0: 72a9 afb2 6640 7836 0885 fcb1 753f 7836
000003f0: 6f35 0a39 0ab0 8538 23e7 093a 1d0b 4bba
0.00024522332 0.00016348618 0.0008608116 -0.0013171674 0.0005005181 0.0018606448 0.001221948 0.0016539696
-0.00027934607 -0.0017779646 0.0011102272 -0.0015149906 0.00054941 -0.00023312538 0.00038377143 0.0009215925
0.00012488409 0.00025902805 -6.949185e-05 8.535228e-06 9.140688e-06 -5.7001096e-05 1.1072906e-06 -4.754103e-05
1.6240132e-07 -4.784734e-05 4.6657867e-08 -4.7918067e-05 1.6219996e-08 -4.7927777e-05 5.8038427e-09 -4.7929007e-05
2.0845867e-09 -4.7929174e-05 7.491025e-10 -4.7929185e-05 9.402858e-05 7.355332e-05 0.00026140743 -0.00042825926
0.00017000418 0.00059168006 0.00038724582 0.000532557 -0.00010448094 -0.0005843174 0.00034608462 -0.0004960203
0.00020034131 -8.879895e-05 0.00012579207 0.00029714944 2.1587919e-05 8.802985e-05 -3.125983e-05 1.1832853e-05
4.3222303e-06 -3.0465133e-05 5.377962e-06 -1.8647452e-05 2.2222694e-06 -1.6087073e-05 8.131263e-07 -1.5727532e-05
2.9290118e-07 -1.5680576e-05 1.05294816e-07 -1.567451e-05 3.784246e-08 -1.567372e-05 1.3599953e-08 -1.5673626e-05
-0.00016354688 -6.93716e-05 -0.000746866 0.0010678602 -0.00038655798 -0.0015544997 -0.0010206995 -0.0013577441
0.00017338313 0.0014247608 -0.00094872655 0.0012223013 -0.0003854299 0.00014723031 -0.00030488602 -0.0007488227
-0.00014799523 -0.00019998316 3.7003498e-05 8.467111e-07 -4.4594326e-06 3.533033e-05 3.697532e-06 3.5287612e-05
1.8382449e-06 3.7827038e-05 6.86283e-07 3.821732e-05 2.4784035e-07 3.826882e-05 8.912509e-08 3.827548e-05
3.2032524e-08 3.827635e-05 1.1512011e-08 3.827647e-05 -9.779912e-05 -0.000100116595 -0.00014156009 0.00030069644
-0.00013573117 -0.00038222873 -0.00024820515 -0.00036131736 0.000108980865 0.0004242731 -0.00020655086 0.0003551514
-0.00019041006 9.386973e-05 -9.167841e-05 -0.00020437248 2.664433e-05 -7.071379e-05 2.7644475e-05 -2.1713966e-05
-4.0045707e-06 2.7739638e-05 -4.8411916e-06 1.3721507e-05 -1.8922407e-06 1.1571719e-05 -6.870546e-07 1.1289734e-05
-2.4723988e-07 1.1253238e-05 -8.886852e-08 1.1248525e-05 -3.1938416e-08 1.1247913e-05 -1.1478095e-08 1.12478365e-05
-0.00011790426 -9.156051e-05 -0.00032076935 0.00052868755 -0.0002105401 -0.00073036045 -0.0004774767 -0.0006573015
0.00012825878 0.0007218431 -0.00042677321 0.00061306043 -0.00024911985 0.00011004521 -0.00015499772 -0.00036598087
-2.445795e-05 -0.00010924424 3.0198597e-05 -1.3639874e-05 -5.2130517e-06 3.2095035e-05 -3.5519513e-06 2.0777172e-05
-1.314598e-06 1.9475123e-05 -4.739444e-07 1.9312422e-05 -1.7039496e-07 1.9291527e-05 -6.123994e-08 1.9288815e-05
-2.200862e-08 1.9288476e-05 -7.909504e-09 1.9288429e-05 -0.00015236926 -0.000102388316 -0.0005468725 0.0008326577
-0.00031539405 -0.0011760079 -0.00077321636 -0.0010456952 0.00017801998 0.0011231692 -0.0007022241 0.00095659937
-0.00034474724 0.0001469476 -0.00024313574 -0.00058393605 -8.2272905e-05 -0.0001630382 4.6820933e-05 -1.3739586e-07
-6.3878238e-06 3.262306e-05 -2.6543134e-07 2.9919782e-05 2.1455504e-08 3.0321042e-05 1.2983872e-08 3.0380985e-05
4.9099653e-09 3.0388854e-05 1.7758742e-09 3.0389861e-05 6.3874483e-10 3.0389992e-05 2.2956942e-10 3.0390012e-05
-3.8348095e-05 -3.5962785e-05 -4.304596e-05 0.000102348866 -4.8215286e-05 -0.00013074868 -8.308317e-05 -0.00012279794
3.4081335e-05 0.00014603662 -6.981148e-05 0.00012309104 -6.9794674e-05 3.262622e-05 -3.0082452e-05 -6.688714e-05
1.573594e-05 -2.5246709e-05 1.4350772e-05 -1.871151e-05 -2.922032e-07 1.4395784e-05 -2.9453704e-06 5.552338e-06
-1.2041552e-06 3.9460515e-06 -4.3956672e-07 3.7311818e-06 -1.582887e-07 3.7033053e-06 -5.6900795e-08 3.699709e-06
-2.0449736e-08 3.6992365e-06 -7.349289e-09 3.6991817e-06 0.00013180611 6.374724e-05 0.00052605773 -0.00077454915

exp_avg_sq f4 [108, 36]
00000000: 0c39 7d37 7303 0b38 3d86 0f39 dbef 5e39
00000010: aa53 be37 4438 473a 299c 8a39 2f08 db39
00000020: 5e50 6638 5b0a bd39 9b79 b239 9952 ad39
00000030: a3cc a637 2357 3637 2269 ab36 1144 7a38
00000040: bcf6 4b37 7432 9436 49f5 3c33 11d7 4533
00000050: 4bbd b133 d7ed 8833 6789 6933 5820 f033
00000060: 0d23 1932 22cb 2b34 f33a a330 9978 3434
00000070: 1856 292f 5ca1 3534 640e af2d e2c7 3534
00000080: 19e3 342c e0cc 3534 c2e6 ba2a 7dcd 3534
00000090: b673 7836 c3b9 bd36 0307 dd37 6929 3e38
000000a0: bc09 ae36 8dbe 2439 4699 6338 77f5 b738
000000b0: 2b78 2f37 4fd5 a338 5292 9038 1872 9538
000000c0: 5089 9f36 a692 f735 2d06 9535 abe9 5037
000000d0: 5793 1036 3513 8a35 e2f7 1d32 acb0 2732
000000e0: 63f8 9732 038d 5e32 7d7f 5232 d09e c932
000000f0: 74c9 0a31 8801 1433 f007 942f daf3 1b33
00000100: ce94 192e b403 1d33 4bc5 9e2c f526 1d33
00000110: 3d0f 242b 982b 1d33 9d83 a929 252c 1d33
00000120: 0685 ba36 2567 2a37 aa4e 3b38 e349 9938
00000130: f46b 0737 7d0e 8739 1629 bb38 4c93 1539
00000140: ce7f 9537 2704 0339 3a8e ef38 64e0 ef38
00000150: 5d78 ef36 cd84 5d36 78c9 ea35 d38a a937
00000160: f6e7 7a36 601d d535 841b 7832 b25e 7c32
00000170: ff22 f632 a84f b632 5524 a132 a96c 2533
00000180: 1f56 5331 8431 6d33 4043 e12f c537 7933
00000190: 57b0 692e f3d2 7a33 1b95 f12c 4f08 7b33
000001a0: 0da1 792b 400f 7b33 dff6 002a 1510 7b33
000001b0: 0acf 2036 aaa4 7e36 6b83 9537 b53b fe37
000001c0: 46ea 6636 2a02 db38 a32c 1838 068a 7538
000001d0: 5cc5 e636 3681 5a38 d574 4038 af9b 4638
000001e0: ca2f 5136 b03e a535 22f3 5035 1105 0f37
000001f0: cee8 c535 e227 3b35 f54e c831 bc9f da31
00000200: 8b5b 4832 4c22 1332 ed99 0632 51b6 8a32
00000210: f10f b230 6236 c832 6104 3e2f 7992 d232
00000220: a627 c52d f9f4 d332 79d1 4b2c ed22 d432
00000230: 979b d22a db28 d432 379c 5929 a329 d432
00000240: f0bf 8e36 b807 2537 2012 2738 346f 7f38
00000250: 2cc4 d736 3447 6539 ccb9 9f38 a198 fb38
00000260: ae76 8637 c017 d838 e709 ce38 ab49 c638
00000270: 04e5 bd36 8c94 5936 7309 c435 6ee2 8f37
00000280: 6ce1 7236 b1a7 a735 ff46 5932 db0f 7732
00000290: b0de c832 7354 a032 510c 8532 f8af 0933
000002a0: def8 2e31 b09c 4433 3e93 ba2f 5e87 4e33
000002b0: 6190 412e a4da 4f33 841a c82c a506 5033
000002c0: dac4 4e2b 5c0c 5033 bca4 d529 150d 5033
000002d0: 902a d636 791a 3737 2be3 4d38 06ac ab38
000002e0: 0b12 1a37 be03 9639 57d7 cf38 a7d0 2639
000002f0: 4ff2 a237 992d 1339 0b83 0439 e964 0639
00000300: 6540 0a37 deb3 6d36 4725 0636 4147 be37
00000310: b54d 8936 e4ac f535 c60a 8d32 48b3 9032
00000320: ddc3 0633 b4be cc32 75db b632 2f9a 3833
00000330: 344f 7131 684a 8533 edb4 0030 5032 8c33
00000340: dd88 852e aa1e 8d33 0d0c 0a2d 533d 8d33
00000350: 3aa5 8e2b 4541 8d33 6863 132a ca41 8d33
00000360: 5178 aa34 08bc 9834 349f 0336 84bd 8036
00000370: 040b 0035 f638 4e37 8148 9036 d2fa ef36
00000380: de27 2c35 9c84 e136 e018 af36 b5bc c736
00000390: 4773 e634 18ee b833 a867 0134 d695 9835
000003a0: 81dd 0f34 39ab df33 f64a 3130 3112 3530
000003b0: 09a1 b330 209f 8430 1d21 9030 ed38 0d31
000003c0: a53f 422f f753 5431 70bf cf2d f95f 6031
000003d0: a99c 572c 83fc 6131 57e8 de2a 1632 6231
000003e0: 7755 6629 f338 6231 1bfe ed27 dc39 6231
000003f0: dca5 9636 51d0 3637 544f 3738 ca56 8a38
1.5093257e-05 3.3143395e-05 0.0001368755 0.00021260923 2.2688724e-05 0.0007599632 0.0002643776 0.00041777032
5.491112e-05 0.00036056605 0.0003404141 0.0003305867 1.9884033e-05 1.0868333e-05 5.108436e-06 5.9668037e-05
1.215719e-05 4.4166172e-06 4.3995247e-08 4.606324e-08 8.276637e-08 6.376256e-08 5.4374507e-08 1.1181754e-07
8.913742e-09 1.5999515e-07 1.1876565e-09 1.680768e-07 1.5401047e-10 1.6915641e-07 1.9901587e-11 1.6929656e-07
2.5705603e-12 1.6931472e-07 3.3200358e-13 1.6931695e-07 3.7022232e-06 5.6542644e-06 2.6348518e-05 4.5338096e-05
5.1867373e-06 0.00015711244 5.4263764e-05 8.7718414e-05 1.0458792e-05 7.8121775e-05 6.893709e-05 7.126125e-05
4.7545545e-06 1.8445614e-06 1.1103162e-06 1.2452171e-05 2.1543435e-06 1.0287391e-06 9.194965e-09 9.76085e-09
1.7691667e-08 1.2954163e-08 1.2252596e-08 2.34717e-08 2.0196156e-09 3.4460328e-08 2.6926683e-10 3.631053e-08
3.4920337e-11 3.655778e-08 4.512534e-12 3.6589842e-08 5.828565e-13 3.659406e-08 7.527939e-14 3.659456e-08
5.558718e-06 1.0156805e-05 4.4657536e-05 7.309371e-05 8.071762e-06 0.0002576 8.924508e-05 0.0001426462
1.7821698e-05 0.0001249468 0.000114229 0.00011438204 7.136767e-06 3.3008866e-06 1.7492994e-06 2.0211015e-05
3.7387922e-06 1.5878286e-06 1.4441756e-08 1.4689862e-08 2.8654084e-08 2.1223812e-08 1.8759389e-08 3.8515882e-08
3.0753495e-09 5.5225897e-08 4.0975046e-10 5.8025552e-08 5.3134688e-11 5.8399518e-08 6.866186e-12 5.8448048e-08
8.8686073e-13 5.845436e-08 1.1454334e-13 5.8455118e-08 2.396237e-06 3.7944797e-06 1.782338e-05 3.0306963e-05
3.4409036e-06 0.00010443137 3.6281195e-05 5.8541096e-05 6.87751e-06 5.2095587e-05 4.5885175e-05 4.735187e-05
3.1171244e-06 1.2311702e-06 7.7839843e-07 8.524644e-06 1.4745399e-06 6.9720966e-07 5.8297425e-09 6.3627947e-09
1.1662347e-08 8.564324e-09 7.834825e-09 1.6148222e-08 1.2955735e-09 2.3307795e-08 1.7281955e-10 2.4513826e-08
2.2413914e-11 2.4675034e-08 2.8964316e-12 2.469593e-08 3.7411456e-13 2.4698627e-08 4.8319174e-14 2.4698982e-08
4.2542742e-06 9.836564e-06 3.9832783e-05 6.0900304e-05 6.4303367e-06 0.00021865667 7.616318e-05 0.00011997042
1.602931e-05 0.000103041064 9.82469e-05 9.4550975e-05 5.6593e-06 3.2421985e-06 1.4605888e-06 1.7152368e-05
3.6192023e-06 1.2491274e-06 1.2647205e-08 1.4380897e-08 2.3384331e-08 1.8664855e-08 1.5488839e-08 3.205784e-08
2.5461797e-09 4.5777313e-08 3.3937825e-10 4.808623e-08 4.4011354e-11 4.8394796e-08 5.6872857e-12 4.8434817e-08
7.345909e-13 4.8440015e-08 9.487677e-14 4.8440672e-08 6.382652e-06 1.0913814e-05 4.9087375e-05 8.185957e-05
9.183316e-06 0.00028613018 9.910639e-05 0.00015908723 1.9424739e-05 0.00014035999 0.00012637318 0.00012816828
8.240434e-06 3.5420449e-06 1.9989254e-06 2.2682945e-05 4.0919645e-06 1.830424e-06 1.641946e-08 1.6845334e-08
3.1377443e-08 2.3835447e-08 2.1287386e-08 4.2981068e-08 3.5115137e-09 6.2068295e-08 4.682324e-10 6.52841e-08
6.0724516e-11 6.571402e-08 7.847068e-12 6.576979e-08 1.0135566e-12 6.5776966e-08 1.3090711e-13 6.577791e-08
3.175251e-07 2.8449017e-07 1.961319e-06 3.83676e-06 4.7699746e-07 1.2291819e-05 4.299975e-06 7.1519544e-06
6.413301e-07 6.7209603e-06 5.2183022e-06 5.9526305e-06 4.2924714e-07 8.611477e-08 1.2051771e-07 1.136849e-06
1.3398495e-07 1.0415392e-07 6.449875e-10 6.587327e-10 1.3069733e-09 9.64949e-10 1.048679e-09 2.055056e-09
1.7666808e-10 3.0897789e-09 2.361819e-11 3.2650844e-09 3.0640301e-12 3.2885346e-09 3.959634e-13 3.29158e-09
5.1144388e-14 3.29197e-09 6.6056216e-15 3.2920218e-09 4.489657e-06 1.0896548e-05 4.370448e-05 6.5965185e-05

exp_avg f4 [108]
00000000: 9407 49b8 d37a 83b7 0b8b 2038 0fb5 3c37
00000010: 8bcd a137 12ee fe37 3c3f 7836 a332 e8b7
00000020: f34a b6b6 1bd0 a536 1524 05b7 d8ac 0938
00000030: 522e a6b6 2f8c ff33 d6dd b7b7 179c c9b7
00000040: 0e28 d037 45ff b1b6 cdf8 5eb7 8d0d 4eb8
00000050: 633d 00b7 7773 61b7 2a05 8db7 71e0 36b8
00000060: 3c9a c1b7 4696 4d36 19a3 8cb7 b7e6 1fb8
00000070: 4bbc a1b7 8e81 a7b8 a684 8e37 e0dc df36
00000080: ad0a d937 7c33 d737 2ddd 92b6 5aca 9937
00000090: e4be c9af 37ea 9aaf 4dc3 c42f b89b 2e2f
000000a0: a9ae 3c2f 5f11 8330 7588 3730 c96b 842f
000000b0: 0701 c22f e1d5 9d2f ec47 d32e a683 8830
000000c0: f306 c8af 2b43 2a2e 0352 44b0 c6c7 86af
000000d0: ac5b 6f2f 2988 f2af c82c 41af 7a30 41af
000000e0: ca13 07af 86d2 c42f 4cc9 98af 01f1 a6b0
000000f0: 512a a0b0 d391 412f a955 a0b0 e74f aab0
00000100: 7eb4 cf2f ba83 48af b531 492e cdcd 1db0
00000110: c76f d7af 3318 f2ae 3873 97b0 a163 8f2f
00000120: 6985 d5b7 65b5 ff38 0273 d3b7 00ed 8eb8
00000130: e64c 2939 7fa5 4739 e0eb 8938 e3d1 6038
00000140: d89b 98b8 a4f2 0db8 7b6d 87b8 5ee6 44b5
00000150: 828f 8db9 ddf3 a4b7 6aa5 d537 6bd3 df38
00000160: c293 1038 9dad 24b8 a922 2eb9 0fd0 11b8
00000170: e164 bfb4 de82 2239 d8e7 a2b7 caf4 0d39
00000180: eef8 96b8 117d 34b7 66a1 bcb8 775d b238
00000190: c169 0038 dde0 6838 1dbf a8b8 006d 1d37
000001a0: e81f 9139 c7c5 da38 5744 a438 5978 1139
-4.7929192e-05 -1.5673611e-05 3.8276467e-05 1.1247829e-05 1.9288409e-05 3.039002e-05 3.6991687e-06 -2.7680135e-05
-5.432748e-06 4.94161e-06 -7.935819e-06 3.282432e-05 -4.952578e-06 1.1899862e-07 -2.19186e-05 -2.4033752e-05
2.4814184e-05 -5.3047283e-06 -1.329016e-05 -4.9126847e-05 -7.643687e-06 -1.3437929e-05 -1.6810915e-05 -4.360121e-05
-2.3079214e-05 3.063485e-06 -1.6765249e-05 -3.8123424e-05 -1.9280376e-05 -7.987312e-05 1.6989488e-05 6.671631e-06
2.5873387e-05 2.5653972e-05 -4.3768873e-06 1.8333249e-05 -3.6697323e-10 -2.8178856e-10 3.5790962e-10 1.588053e-10
1.7160552e-10 9.536442e-10 6.676893e-10 2.4087246e-10 3.5289124e-10 2.8710104e-10 9.607945e-11 9.932719e-10
-3.6384726e-10 3.8713182e-11 -7.142093e-10 -2.4516406e-10 2.1769492e-10 -4.411629e-10 -1.7569157e-10 -1.757047e-10
-1.2285209e-10 3.5801778e-10 -2.779167e-10 -1.2146587e-09 -1.1653559e-09 1.7605055e-10 -1.1665878e-09 -1.2391838e-09
3.7781328e-10 -1.8236693e-10 4.5746257e-11 -5.740873e-10 -3.9187695e-10 -1.10091845e-10 -1.1019443e-09 2.608234e-10
-2.5453703e-05 0.00012193135 -2.5206715e-05 -6.815232e-05 0.00016145743 0.00019039771 6.576604e-05 5.3601234e-05
-7.276953e-05 -3.3842996e-05 -6.457694e-05 -7.335092e-07 -0.00027000537 -1.9663881e-05 2.5468606e-05 0.00010672848
3.4469886e-05 -3.9262337e-05 -0.00016606845 -3.4764464e-05 -3.564992e-07 0.00015498276 -1.9419866e-05 0.00013537999
-7.198924e-05 -1.0757955e-05 -8.9946014e-05 8.5051106e-05 3.061607e-05 5.552253e-05 -8.046462e-05 9.383308e-06
0.00027680327 0.00010431889 7.832859e-05 0.0001387311

exp_avg_sq f4 [108]
00000000: 97cd 3534 362c 1d33 3a10 7b33 c129 d432
00000010: 2d0d 5033 e041 8d33 013a 6231 67b1 6033
00000020: 08a1 da31 65db 3330 c9a7 3530 4088 8c33
00000030: e7e5 6530 520b 6630 5182 d532 bfec 2a32
00000040: e791 3533 4780 d230 f1a5 1a31 5137 5734
00000050: 1b70 9130 01cf 8632 fdac c732 ccd5 2034
00000060: 0082 c932 c299 8731 eda4 6532 96dd ad33
00000070: 99ae 1132 ddcf ad34 2a00 2332 6683 cd32
00000080: 16ad 9b33 2e40 e632 23d4 6032 8982 a131
00000090: 1438 6525 f384 3723 6a0b 7524 55d0 7325
000000a0: 4ed2 f224 c5d9 0926 9b42 7524 5c8f 8225
000000b0: 08be 3526 a79f 5326 6964 3924 3df2 df25
000000c0: ceb7 b922 dc2d 8923 8ca1 5b25 2dda 2824
000000d0: 8346 9c24 f813 4f23 a38d c225 d4df 9925
000000e0: 6084 b324 4a80 d425 8ac3 8425 c892 8025
000000f0: 13b5 7b25 1429 ee23 8e49 3b26 e1d2 9925
00000100: 4263 3626 2d49 7324 b66c 2325 7a17 4726
00000110: 8e20 3126 b66e de24 4612 3226 e6c4 e225
00000120: 9247 9933 7af5 6633 c84d 1035 0647 0434
00000130: 9431 af33 f90a 9e33 8b21 d832 1a19 2c33
00000140: 8994 4334 a11d 1e32 81ea 9a34 2698 2033
00000150: 00a8 f433 4734 8e33 8ecb 3234 d68b e234
00000160: 7503 5733 5f50 8534 6268 bc33 54ec 4432
00000170: ef2d c934 359b 6a34 08b5 0734 7a10 ae33
00000180: 8df5 1233 7f15 0f34 6423 bb34 a58c d733
00000190: da15 8c32 0792 2a34 243b 9f32 eccf d632
000001a0: 4699 a534 1adf d533 f3d5 8734 2497 fc33
1.6931732e-07 3.659462e-08 5.845525e-08 2.4699036e-08 4.8440757e-08 6.577807e-08 3.29203e-09 5.231541e-08
6.362942e-09 6.54316e-10 6.6085853e-10 6.544042e-08 8.3636426e-10 8.36896e-10 2.4855725e-08 9.949132e-09
4.2275044e-08 1.531597e-09 2.2504276e-09 2.004356e-07 1.0582001e-09 1.5693788e-08 2.3245315e-08 1.497894e-07
2.3458597e-08 3.9464974e-09 1.3367054e-08 8.0962465e-08 8.47981e-09 3.2375002e-07 9.487886e-09 2.3924894e-08
7.249234e-08 2.680471e-08 1.308675e-08 4.700557e-09 1.9881584e-16 9.948603e-18 5.3135575e-17 2.1147476e-16
1.0530704e-16 4.7826556e-16 5.3182323e-17 2.264855e-16 6.305453e-16 7.34217e-16 4.020053e-17 3.884848e-16
5.033896e-18 1.4872992e-17 1.9049956e-16 3.6613995e-17 6.777367e-17 1.1225721e-17 3.3749612e-16 2.669294e-16
7.785313e-17 3.686307e-16 2.3030852e-16 2.2303923e-16 2.183213e-16 2.5821409e-17 6.4978343e-16 2.6684166e-16
6.3278454e-16 5.2754208e-17 1.4174829e-16 6.907381e-16 6.145333e-16 9.6464705e-17 6.178092e-16 3.9338174e-16
7.137636e-08 5.3774308e-08 5.3757367e-07 1.2319296e-07 8.158091e-08 7.359444e-08 2.5160963e-08 4.00697e-08
1.8214827e-07 9.203547e-09 2.885536e-07 3.739128e-08 1.13926944e-07 6.6218995e-08 1.6651595e-07 4.2197524e-07
5.0061733e-08 2.4831658e-07 8.773419e-08 1.1462436e-08 3.747259e-07 2.1849412e-07 1.2638714e-07 8.1055035e-08
3.42166e-08 1.3325733e-07 3.4857214e-07 1.0037301e-07 1.6308082e-08 1.5885608e-07 1.853693e-08 2.500743e-08
3.0845166e-07 9.9591674e-08 2.5301378e-07 1.1762157e-07
