SensorFormer/SensorFormer/result/individual/LCS16_10.pt (torch, 81844 bytes, 35 tensors)

self_attn.qkv_proj.weight f4 [108, 36]
0	0x3df89e36	0.12139551
1	0xbdf4adbe	-0.11947201
2	0xbcee3d5e	-0.029081997
3	0x3d1ca9e2	0.03824795
4	0x3d8a6da3	0.06759193
5	0xbe5b2086	-0.21399125
6	0xbd398048	-0.045288354
7	0x3e05fe21	0.13085224
8	0xbe1987a7	-0.14993154
9	0x3d4059e9	0.046960745
10	0xbda77689	-0.08176906
11	0xbd05b650	-0.03264457
12	0xbdaa3c8d	-0.083123304
13	0x3e14c161	0.14526893
14	0x3db7960b	0.08964165
15	0x3b8668df	0.004101857
16	0xbbe64f3b	-0.007028488
17	0x3db88611	0.09009946
18	0x3dbc3782	0.09190275
19	0xbe582b70	-0.2111032
20	0xbe350b7f	-0.17680167
21	0x3dd7d9db	0.105395995
22	0xbd1fed15	-0.03904446
23	0x3d85270a	0.06501587
24	0xbc258501	-0.010102511
25	0xbc45e9b8	-0.012079649
26	0xbca849e9	-0.020543056
27	0xbcbf467e	-0.023349043
28	0xbdaeff75	-0.08544818
29	0xbe2e9073	-0.1704729
30	0x3aecaef6	0.0018057514
31	0xbdf9ded9	-0.12200708
32	0x3d24a535	0.040196616
33	0x3dce88da	0.10084696
34	0x3d46792a	0.048455395
35	0xbd24332f	-0.040087875
36	0xbe4d59eb	-0.20053832
37	0x3e17ceff	0.14825056
38	0x3c9a8272	0.01886103
39	0xbe20b023	-0.15692191
40	0xbe4ddc83	-0.2010365
41	0x3dfb99ce	0.12285195
42	0xbd5c699e	-0.053811662
43	0xbba6d28d	-0.0050910176
44	0x3e0a4615	0.13503297
45	0x3e0d4267	0.13794862
46	0x3dacfbf1	0.084464915
47	0x3daac2d5	0.083379425
48	0x3dd9ac92	0.10628618
49	0x3cf5689c	0.029957108
50	0xbe307de6	-0.17235526
51	0x3d7cb5b6	0.06169673
52	0xbcde4ef9	-0.027137266
53	0xbe0777cc	-0.13229293
54	0xbe47275e	-0.19448611
55	0xbd31a6ee	-0.043372087
56	0xbe0af5b4	-0.13570291
57	0x3e17baa5	0.14817293
58	0x3d810263	0.06299283
59	0xbe359d3f	-0.17735766
60	0xbe26f42d	-0.16304083
61	0x3d2aca50	0.041696846
62	0x3d98ca37	0.074604444
63	0x3de59ba3	0.11211326
64	0xbe05cf64	-0.13067394
65	0xbd81451b	-0.06312009
66	0x3d8549d1	0.0650822
67	0xbe063127	-0.13104688
68	0xbdd54e8e	-0.10415374
69	0xbd9f8adf	-0.077901594
70	0xbd5c9c89	-0.05386022
71	0xbe0cff5b	-0.13769285
72	0xbdc400dc	-0.095704764
73	0x3df27847	0.11839347
74	0xbe064065	-0.13110502
75	0xbdca09a9	-0.09865124
76	0xbd860d19	-0.06545467
77	0x3dc17d19	0.094476886
78	0xbd9d613a	-0.0768456
79	0x3e0154f2	0.1263006
80	0x3d40e236	0.04709073
81	0xbd2033ae	-0.039111786
82	0x3e607da4	0.21922928
83	0xbdca8b9f	-0.09889912
84	0xbd6e7477	-0.05821654
85	0xbe4f0759	-0.20217647
86	0x3e203976	0.1564692
87	0x3c6ddd4e	0.014518095
88	0x3e05fa1d	0.13083692
89	0xbe1feb6e	-0.15617153
90	0xbddcde30	-0.107845664
91	0xbe255dc4	-0.1614905
92	0xbcd0bb91	-0.025480064
93	0xbe67112e	-0.22565147
94	0x3c9ffc33	0.019529438
95	0xbdeae8a7	-0.11470156
96	0xbe536e72	-0.206476
97	0xbe2d7be3	-0.1694179
98	0x3d7db52d	0.06194036
99	0x3d683bf6	0.05669781
100	0x3d68a0fd	0.056794155
101	0xbe37f745	-0.1796542
102	0x3da3fd44	0.08007291
103	0x3d2bc18b	0.041932624
104	0xbd8db1ef	-0.06918704
105	0xbb9d8931	-0.0048076143
106	0x3e0031cf	0.12519
107	0xbc574f45	-0.013141458
108	0x3cede84d	0.029041434
109	0xbe0cb07a	-0.13739195
110	0x3e0b4a85	0.13602646
111	0x3e089e05	0.1334153
112	0x3e1db2dc	0.1540026
113	0xbc423164	-0.011852596
114	0x3d80c404	0.06287387
115	0x3d3a42fa	0.04547403
116	0x3dfdf8f8	0.12401003
117	0x3dd61864	0.10453871
118	0x3e58bf7a	0.21166793
119	0xbddece32	-0.108791724
120	0x3e15578b	0.14584176
121	0xbd0e222d	-0.03470056
122	0x3e338184	0.17529875
123	0xbdd86800	-0.105667114
124	0xbe0e6ba3	-0.13908248
125	0xbdee5982	-0.11638166
126	0x3dc33ec7	0.09533458
127	0xbde5a14c	-0.112124056
128	0x3d6c096e	0.05762618
129	0x3e2e87c0	0.17043972
130	0xbbe2f20d	-0.0069258274
131	0xbe2f732d	-0.1713378
132	0xbe49c194	-0.1970275
133	0xbe2e9e10	-0.17052484
134	0xbe648941	-0.22317983
135	0xbe70aae0	-0.23502684
136	0xbe10e271	-0.1414888
137	0xbdfb662e	-0.122753486
138	0x3d869142	0.065706745
139	0xbe299b34	-0.16563112
140	0x3da503a0	0.08057332
141	0x3d573c36	0.052547656
142	0x3e247723	0.16061072
143	0xbd69888d	-0.05701499
144	0xbe4e54e2	-0.20149568
145	0xbcba09dd	-0.022709781
146	0x3d3e38c5	0.04644086
147	0x3e0adecf	0.13561557
148	0x3dc1aa50	0.09456313
149	0x3e257f38	0.16161811
150	0xbd34113c	-0.04396175
151	0x3d9dcf0b	0.07705506
152	0xbe25e74c	-0.16201514
153	0x3d030c55	0.031994183
154	0xbe035cf2	-0.12828425
155	0x3dec031c	0.115240306
156	0xbd749a1e	-0.05971729
157	0xbdd36947	-0.103228144
158	0x3d66aca3	0.056316983
159	0x3e03c777	0.12869059
160	0xbd3d67fe	-0.046241753
161	0x3af5195f	0.0018699578
162	0x3e335cd5	0.17515881
163	0xbd16de3e	-0.03683304
164	0xbd74a901	-0.059731487
165	0xbd6bb071	-0.057541315
166	0xbcbbdbf2	-0.022932027
167	0xbc52fee4	-0.0128781535
168	0xbe11e6fb	-0.14248268
169	0x3dcdb944	0.10045102
170	0xbe0d2658	-0.13784158
171	0x3d87b0d6	0.06625526
172	0xbd9327d1	-0.07185329
173	0x3b109a95	0.0022064794
174	0xbd5731e3	-0.05253781
175	0xbe14f913	-0.1454814
176	0xbdfed26c	-0.124424785
177	0xbe461f75	-0.19347937
178	0xbd06f3ce	-0.032947354
179	0xbd8749bd	-0.06605861
180	0xbc37d93f	-0.011221229
181	0xbe596ec7	-0.21233664
182	0xbe6aedac	-0.22942227
183	0xbe39af03	-0.18133168
184	0xbd261788	-0.040549785
185	0x3db4df98	0.088317096
186	0x3dedc303	0.11609461
187	0x3e548768	0.20754778
188	0x3e6445d1	0.22292258
189	0xbc7baa11	-0.015360371
190	0xbd5112b1	-0.051043216
191	0xbd7f7d52	-0.062375374
192	0xbcce4990	-0.025181562
193	0x3e14c592	0.14528492
194	0x3d33b591	0.043874327
195	0xbd1743ad	-0.036929775
196	0x3e2b314b	0.16718023
197	0x3ddcbd21	0.10778261
198	0xbc855f3e	-0.016280767
199	0x3da4c93e	0.080461964
200	0x3e26f6d9	0.16305102
201	0x3dccff9f	0.10009693
202	0x3e09797e	0.13425252
203	0x3d712c23	0.058879983
204	0x3cba5d9e	0.022749718
205	0xbde32e58	-0.11092824
206	0xbdf8db3c	-0.12151191
207	0xbc1b44be	-0.009476839
208	0xbc7a50a4	-0.015278015
209	0x3e0f9b95	0.14024194
210	0xbe1bff04	-0.15234
211	0x3e61a824	0.22036797
212	0xbd03f843	-0.032219183
213	0xbd898405	-0.06714634
214	0xbe2455ef	-0.16048406
215	0x3e12292a	0.14273515
216	0xbe3b0092	-0.18261936
217	0xbd636d33	-0.055524062
218	0xbdacbf69	-0.08434946
219	0x3d8bda50	0.06828749
220	0x3d02360f	0.031789836
221	0x3e463fe2	0.19360307
222	0xbc5330b7	-0.0128900325
223	0x3e01db2a	0.1268126
224	0x3dead575	0.11466495
225	0x3d0472b7	0.032335963
226	0x3ca6372d	0.020289982
227	0xbb1847f9	-0.0023236258
228	0xba84588f	-0.0010097193
229	0x3e3135ed	0.17305727
230	0x3e0ba354	0.13636523
231	0xbc9a2e0d	-0.018820787
232	0x3de336e6	0.110944554
233	0xbe2ad1e2	-0.16681626
234	0x3c5d88c2	0.013521375
235	0x3cda8b2f	0.026677696
236	0xbe15873c	-0.14602369
237	0x3e18ee16	0.14934573
238	0xbe3e775f	-0.18600224
239	0xbe09ab53	-0.13444261
240	0x3dee2e66	0.116299435
241	0x3cf5c64b	0.03000178
242	0x3d4ad79f	0.04952204
243	0xbe4c1ac8	-0.19932091
244	0xbdb44a04	-0.0880318
245	0xbd923c81	-0.071404465
246	0xbdb5c298	-0.088750064
247	0x3caab64b	0.020838877
248	0x3d61554b	0.055012982
249	0xbd34602a	-0.04403702
250	0xbe392542	-0.18080619
251	0xbe5c17d3	-0.21493463
252	0x3b603ec3	0.0034217096
253	0x3e186bdb	0.14884894
254	0xbd779c09	-0.06045154
255	0x3d8449ac	0.06459364

self_attn.qkv_proj.bias f4 [108]
0	0x3c452c32	0.012034463
1	0xbd22dd2e	-0.039761715
2	0xbd2861ff	-0.04110908
3	0xbd181c17	-0.037136164
4	0xb9853a83	-0.0002541133
5	0x3d2f90f6	0.042862855
6	0xbcd1afad	-0.025596464
7	0x3bc4cea5	0.0060060793
8	0x3d1ef2f5	0.03880592
9	0x3a1000e3	0.0005493296
10	0xbce66327	-0.028123451
11	0x3c14796c	0.009062152
12	0xbd058405	-0.032596607
13	0xbc963d00	-0.018339634
14	0x3d30f999	0.043206785
15	0xbd7d6eca	-0.061873235
16	0x3c463bed	0.012099248
17	0x3cbc5308	0.022988811
18	0xbce9451b	-0.028475335
19	0xbc10a82c	-0.008829158
20	0x3d757337	0.05992433
21	0x3d09c5da	0.03363595
22	0x3d0c0f4e	0.034194283
23	0x3bfe3290	0.0077574924
24	0x3ca2703c	0.019828908
25	0x3d77df37	0.06051561
26	0xbc8cf4b3	-0.017206525
27	0x3d1ebd10	0.038754523
28	0xbcbc12c1	-0.022958161
29	0xbc01181e	-0.007879285
30	0x3cace1d9	0.021103786
31	0x3c88dae4	0.016705938
32	0x3c91101b	0.017707875
33	0x3cb4d26c	0.022072993
34	0x3c92990e	0.017895248
35	0x3c38557f	0.011250853
36	0xbcc822d2	-0.024430666
37	0x3ca3a24d	0.019974852
38	0xbabcc0c1	-0.0014400707
39	0x3ccecba3	0.025243586
40	0x39ac4d22	0.00032863865
41	0xbcda422c	-0.026642881
42	0xbc87f9f7	-0.016598685
43	0xbc2b04ba	-0.010438139
44	0xbcc397d1	-0.023876103
45	0x3c9622bf	0.018327115
46	0x3cd99200	0.026558876
47	0xbceafe77	-0.028685791
48	0xbcb767fa	-0.022388447
49	0xbccf1583	-0.025278812
50	0x3c7eb67b	0.015546436
51	0x3cc9c952	0.02463213
52	0xbc921e9a	-0.017836858
53	0x3c0860ac	0.00832383
54	0x3abfc813	0.001463177
55	0xbc5ab5df	-0.0133490255
56	0xbbac6073	-0.005260521
57	0x3c00d801	0.007863999
58	0xbcb45723	-0.022014206
59	0x3c200748	0.009767361
60	0xbc5350fe	-0.012897728
61	0xbc8a45e4	-0.01687903
62	0x3cdc28b5	0.02687488
63	0xbcaa8bcf	-0.020818619
64	0xbb142e4b	-0.00226106
65	0xbc8b6488	-0.01701571
66	0x3cb9a289	0.02266051
67	0xbcbad680	-0.02280736
68	0x3bea14df	0.0071436013
69	0xbc0e3439	-0.008679443
70	0xbc8d0e19	-0.017218636
71	0xbbc7a75e	-0.00609295
72	0xbce8871c	-0.028384738
73	0x3c63e854	0.013910372
74	0x3c2a774a	0.010404417
75	0x3cba0b98	0.022710606
76	0xbd0bf6a2	-0.034170754
77	0xbce32001	-0.027725222
78	0x3d2aca1e	0.04169666
79	0x3d37cab0	0.044871032
80	0x3cafba3f	0.021451114
81	0xbca496b5	-0.020091394
82	0xbc1cacf8	-0.009562723
83	0xbcfadebf	-0.030623792
84	0xbcc2003f	-0.023681758
85	0x3d17d9b7	0.037072863
86	0xbcbfdd87	-0.023421062
87	0x3cd4351f	0.025904236
88	0x3cd920b4	0.026504852
89	0x3d11445d	0.035465587
90	0x3be230d1	0.006902792
91	0xbce53790	-0.027980596
92	0xbcdc63ff	-0.02690315
93	0xbd035480	-0.032063007
94	0xbcdb44ed	-0.026766265
95	0x3cf698ad	0.030102098
96	0xbc149e7c	-0.009070989
97	0x3cf42dde	0.029807027
98	0x3cf15e1a	0.029463816
99	0xbce00f35	-0.027351001
100	0xbc2209bf	-0.009890019
101	0xbc1c687a	-0.0095463935
102	0xbc0170dd	-0.007900444
103	0x3a214f20	0.0006153453
104	0xba7f21cd	-0.0009732515
105	0x3d2f4961	0.04279459
106	0xbb5f33f6	-0.003405807
107	0xbd2c54a8	-0.042072922

self_attn.o_proj.weight f4 [36, 36]
0	0x3ea0bab2	0.31392437
1	0xbe96665d	-0.29374972
2	0xbde2d064	-0.110749036
3	0xbe2a301e	-0.16619918
4	0x3c593167	0.013256407
5	0x3d2572e4	0.04039277
6	0xbe6f9239	-0.23395623
7	0xbe3bfaf3	-0.18357448
8	0x3cfb0fb5	0.030647138
9	0xbe0f2ff2	-0.13983133
10	0x3c4885de	0.012238948
11	0xbe2b0e15	-0.1670459
12	0xbcca8077	-0.02471946
13	0x3de5723c	0.11203429
14	0x3e8e0e02	0.27745062
15	0xbe96986a	-0.29413158
16	0xbe678271	-0.22608353
17	0x3e39e423	0.18153434
18	0xbe265fba	-0.16247454
19	0x3e002dc2	0.12517455
20	0x3e5f7546	0.2182208
21	0xbdd2f2a1	-0.10300184
22	0xbb43d572	-0.0029881862
23	0xbd8807da	-0.066421226
24	0x3e737241	0.23774053
25	0xbd02c586	-0.031926654
26	0x3e3ace53	0.18242769
27	0x3ea9e37f	0.33181378
28	0x3bca0420	0.0061650425
29	0x3d439486	0.047749065
30	0x3db7533e	0.08951424
31	0x3e4b71c5	0.19867618
32	0x3e64c0b1	0.22339131
33	0xbe02ade9	-0.12761654
34	0x3d43926c	0.04774706
35	0x3d7a922e	0.061174564
36	0x3e358f12	0.17730358
37	0x3e40a4af	0.18812822
38	0xbe004a15	-0.1252826
39	0xbe456a38	-0.192788
40	0x3e107d15	0.14110215
41	0xbbe5f793	-0.0070180385
42	0xbd0b6d75	-0.034039933
43	0x3e6c5c2a	0.23082033
44	0xbc6653dd	-0.0140580805
45	0x3e5d525c	0.21613449
46	0x3eaea5df	0.34110925
47	0xbe534cd6	-0.2063478
48	0xbdc9ee93	-0.098599575
49	0xbe3237fc	-0.17404169
50	0xbe2cb137	-0.16864477
51	0xbe2c0027	-0.16796933
52	0xbe9c9ee3	-0.3058997
53	0xbe786abe	-0.24259469
54	0x3d176b36	0.03696748
55	0xbe013d25	-0.12620981
56	0xbda098b1	-0.078416236
57	0xbe38a170	-0.18030334
58	0xbdfceb1b	-0.1234953
59	0xbe5828b9	-0.21109284
60	0x3e716ead	0.23577376
61	0x3e125d6f	0.14293455
62	0x3c46a641	0.012124599
63	0xbe60552e	-0.21907493
64	0xbe2e24a2	-0.17006162
65	0x3e74392a	0.23849931
66	0x3e3ec72d	0.18630667
67	0xbb9e52c7	-0.004831645
68	0x3e6ba28d	0.23011227
69	0x3d34ba55	0.044123013
70	0xbe5432fe	-0.20722577
71	0xbd414570	-0.04718536
72	0x3e494f5a	0.19659176
73	0xbe443d1a	-0.19163933
74	0x3e83e428	0.25760007
75	0x3de90637	0.113781385
76	0x3b64e91a	0.0034928978
77	0x3e90ab3b	0.28255638
78	0xbd83d19b	-0.064364634
79	0x3e45074c	0.19241065
80	0x3ea3d7c6	0.3200056
81	0x3dc840df	0.09777998
82	0xbd50196a	-0.050805487
83	0xbe0a7b20	-0.13523531
84	0x3e036647	0.12831984
85	0x3cea292c	0.028584085
86	0xbe6a65fb	-0.22890465
87	0x3e5f9068	0.2183243
88	0xbba5c032	-0.005058312
89	0x3e617aa4	0.2201944
90	0x3d7fc18c	0.06244044
91	0x3e92119b	0.28529057
92	0xbe5eccbd	-0.21757789
93	0xbe8045d6	-0.2505328
94	0xbe9ba3c5	-0.30398384
95	0xbce0a28a	-0.027421255
96	0xbe7d4acb	-0.24735563
97	0x3d964b8c	0.07338628
98	0xbcb4dc24	-0.022077627
99	0xbde61cc8	-0.11235958
100	0x3dd31295	0.103062786
101	0x3dee9622	0.11649729
102	0xbd7f66c8	-0.06235388
103	0x3de31342	0.110876575
104	0x3c05e837	0.00817304
105	0xbdbaff6b	-0.09130748
106	0xbe96548b	-0.29361376
107	0x3ba0eede	0.0049112877
108	0xbe2e014e	-0.16992685
109	0xbdc4f1fd	-0.09616468
110	0x3dfdfd39	0.12401814
111	0xbe27e48b	-0.16395776
112	0xbe4e9619	-0.20174445
113	0xbe82d4e1	-0.2555304
114	0x3e1cc998	0.15311277
115	0x3cead499	0.028665828
116	0xbe3e5d40	-0.1859026
117	0x3e12ebc5	0.14347751
118	0x3de9cee8	0.11416417
119	0xbd01fee4	-0.031737223
120	0x3e9ccbb7	0.30624172
121	0x3dfa6211	0.12225736
122	0xbd6274dd	-0.05528723
123	0x3d657924	0.05602373
124	0xbe8f1404	-0.27944958
125	0x3ceb1d9d	0.028700644
126	0x3e73af36	0.23797306
127	0x3ddf4e0a	0.10903557
128	0xbda55bbc	-0.080741376
129	0xbdaaffa9	-0.083495446
130	0xbe68f229	-0.22748627
131	0xbe460396	-0.19337305
132	0x3e691a4f	0.22763942
133	0xbd5f6b88	-0.05454591
134	0xbe3e7498	-0.18599164
135	0x3e0d778e	0.13815138
136	0x3e97d02c	0.2965101
137	0xbe2f1ca2	-0.17100766
138	0x3e4a695a	0.19766751
139	0x3e404a84	0.18778425
140	0x3db0977f	0.086226456
141	0x3e19dd2b	0.15025775
142	0x3e33464c	0.17507285
143	0x3ea93c3d	0.3305377
144	0x3dbe32ab	0.09287008
145	0xbe7417d2	-0.23837212
146	0x3e66e2aa	0.22547403
147	0xbd132374	-0.035922483
148	0x3e93eb49	0.28890446
149	0x3cf1ca43	0.029515391
150	0xbe1198ab	-0.14218394
151	0x3e927f87	0.2861292
152	0xbcf57e33	-0.029967403
153	0x3bd56fdb	0.0065135784
154	0x3b530b78	0.003220288
155	0x3e76cd91	0.24101855
156	0x3eaa5398	0.33266902
157	0x3de52e74	0.11190501
158	0x3eae54aa	0.3404897
159	0x3e120ffb	0.14263909
160	0xbe0836d1	-0.13302161
161	0x3e08ed06	0.13371667
162	0x3e0e7e9e	0.13915488
163	0x3dfadb71	0.122488864
164	0x3ea23436	0.3168046
165	0x3d15164f	0.03639823
166	0x3d4f52fc	0.05061625
167	0xbded5cc3	-0.115899585
168	0x3ea30b52	0.31844574
169	0xbe5e33d7	-0.21699463
170	0xbe4bd04d	-0.19903679
171	0xbe1f4364	-0.15553051
172	0x3d86d7e3	0.06584146
173	0x3e9dad1c	0.30796134
174	0x3ded4c23	0.115867876
175	0x3e0a1ff8	0.13488758
176	0xbb8af7f8	-0.004240986
177	0x3cd8d157	0.026467009
178	0x3d7162eb	0.058932226
179	0x3e05017f	0.12988852
180	0xbe47e2d6	-0.19520125
181	0x3e587bdb	0.21140997
182	0xbe573cba	-0.21019259
183	0x3db211e0	0.08694816
184	0xbe3f911e	-0.18707702
185	0xbe5d08c8	-0.21585381
186	0xbe2cfdb9	-0.16893663
187	0x3e74a7c6	0.23892125
188	0xbc7c9c03	-0.0154180555
189	0xbc3d0df3	-0.01153897
190	0xbe4638df	-0.19357632
191	0x3d830a4c	0.06398448
192	0x3ddf0092	0.10888781
193	0x3d7a8bf9	0.061168645
194	0x3e23d432	0.15998915
195	0xbd41c9cc	-0.04731159
196	0x3c43cd5c	0.011950817
197	0xbe091a56	-0.13388953
198	0xbd9c6e11	-0.07638181
199	0xbdedb7f9	-0.116073556
200	0x3e73f52a	0.23823991
201	0x3e87e1e7	0.26539537
202	0x3e8e58d1	0.27802137
203	0xbd2f8c71	-0.042858545
204	0xbe579815	-0.21054108
205	0xbe058418	-0.13038671
206	0x3d6b8fcf	0.057510193
207	0xbe41eef1	-0.18938805
208	0x3e871454	0.26382697
209	0x3e48a308	0.19593441
210	0xbd59c8c7	-0.05316999
211	0xbd06ecf0	-0.032940805
212	0xbe0e7911	-0.1391337
213	0xbe198493	-0.1499198
214	0x3e0659b2	0.13120154
215	0x3cd3c17a	0.025849093
216	0xbd6ce58a	-0.057836093
217	0xbe8c696b	-0.27424178
218	0xbe945994	-0.28974593
219	0xbe91e613	-0.28495845
220	0x3d9c817a	0.07641883
221	0x3e0a3700	0.13497543
222	0x3b817a7f	0.0039513703
223	0x3e51a3ec	0.20472687
224	0x3dae2a9b	0.0850422
225	0x3e54bff8	0.20776355
226	0x3de93cdd	0.11388562
227	0xbd0e130b	-0.03468613
228	0x3e8af512	0.271401
229	0xbdc56397	-0.09638136
230	0x3dd404b8	0.103524625
231	0x3e4e3a1e	0.20139357
232	0xbd98687f	-0.07441806
233	0xbe88f7fe	-0.26751703
234	0x3e9c2e8e	0.30504268
235	0xbdf94745	-0.12171797
236	0xbe85c880	-0.26129532
237	0x3e90ba6d	0.28267232
238	0xbe0c2569	-0.13686146
239	0x3e1be409	0.15223707
240	0x3e80a77a	0.25127774
241	0xbe50d0dd	-0.20392175
242	0x3da8b33b	0.082373105
243	0xbe42014f	-0.18945812
244	0x3cedb1f3	0.029015517
245	0xbe32cc8c	-0.17460841
246	0xbd039f3c	-0.03213428
247	0x3d2ba435	0.041904647
248	0x3dc5e79f	0.09663319
249	0x3d711949	0.058862004
250	0x3ccf9bb4	0.0253428
251	0x3e54a0fd	0.20764537
252	0xbe249c36	-0.16075215
253	0x3e149641	0.14510442
254	0xbe4fc9e7	-0.20291863
255	0x3ea0f726	0.3143856

self_attn.o_proj.bias f4 [36]
0	0xbd1a0fc8	-0.037612706
1	0xbd46a266	-0.04849472
2	0x3d65ca38	0.056101054
3	0xbd5dcbb9	-0.054149363
4	0xbd219bfb	-0.039455395
5	0xbd141fef	-0.036163267
6	0xbc88cb55	-0.016698519
7	0xbd039df5	-0.03213306
8	0xbd267348	-0.040637285
9	0x3d898bdb	0.067161284
10	0x3c53c811	0.0129261175
11	0xbca2dac0	-0.019879699
12	0x3d09c38f	0.033633765
13	0xbce13f63	-0.027496045
14	0xbcfb44ad	-0.030672396
15	0x3cdd7807	0.027034773
16	0xbcccc5bc	-0.02499663
17	0x3d186f04	0.037215248
18	0xbd1479f0	-0.0362491
19	0x3d676742	0.05649496
20	0x3d205c77	0.03915068
21	0x3d7f3e62	0.062315352
22	0x3d17d297	0.03706607
23	0xbca7f54a	-0.020502705
24	0xbd36810f	-0.044556674
25	0xbcdd393a	-0.027004827
26	0x3cb99b44	0.022657044
27	0x3cadd9ba	0.021221984
28	0x3c9658a7	0.01835282
29	0x3cae3832	0.02126703
30	0xbc235423	-0.00996879
31	0x3cf852e1	0.030312957
32	0x3d5836ba	0.052786566
33	0xbd382aee	-0.044962816
34	0xbcdb2915	-0.026752988
35	0xbd5a0797	-0.053229894

fc.weight f4 [1, 18]
0	0xbcb1c40a	-0.021699924
1	0xbe493ab0	-0.19651294
2	0x3e4a1749	0.19735445
3	0x3e4e40d4	0.20141917
4	0x3d6adff9	0.057342503
5	0xbd5d2992	-0.053994723
6	0xbdb62108	-0.08893019
7	0x3e10b6d7	0.14132248
8	0xbe66d5ee	-0.22542545
9	0x3e4409c5	0.19144352
10	0x3e657e14	0.22411376
11	0x3d8bd694	0.06828037
12	0x3e2c4ec0	0.16826916
13	0xbe37d600	-0.17952728
14	0xbe2e7d03	-0.17039876
15	0xbe6975e5	-0.2279888
16	0x3e425b5b	0.18980162
17	0xbdbf745b	-0.09348365

fc1.weight f4 [1, 36]
0	0xbea13c82	-0.31491476
1	0xbf1f2931	-0.6217223
2	0xbf0a1dcb	-0.5395171
3	0xbf137d08	-0.5761266
4	0x3f0f7919	0.56044155
5	0xbf064e65	-0.5246337
6	0xbf065313	-0.5247051
7	0xbf1ca6c0	-0.6119194
8	0xbf22d6f5	-0.6360925
9	0x3ec09509	0.37613705
10	0xbf169376	-0.5881876
11	0x3f055e60	0.5209713
12	0xbf0ece78	-0.55783796
13	0x3ec5198a	0.38496047
14	0xbf1845e8	-0.5948167
15	0x3f1c5adc	0.6107614
16	0xbf19bd73	-0.600547
17	0x3ef7e7f9	0.4841917
18	0xbefb5172	-0.49085575
19	0x3f134326	0.57524335
20	0x3f10d676	0.5657724
21	0x3f0a14b2	0.5393783
22	0x3f16d6f9	0.5892177
23	0xbf0626e5	-0.524031
24	0xbf15da21	-0.58535963
25	0xbf11b1bb	-0.5691182
26	0x3f19bc09	0.60052544
27	0x3f14550c	0.5794227
28	0x3f1d66d5	0.61485034
29	0x3f0a1503	0.5393831
30	0xbf099d80	-0.5375595
31	0x3ee98ea5	0.45616642
32	0x3ed83241	0.4222584
33	0xbf17629a	-0.5913483
34	0xbf20d362	-0.62822545
35	0xbf261d10	-0.64888096

fc2.weight f4 [1, 9]
0	0xbe368003	-0.1782227
1	0xbe8872ff	-0.26650235
2	0xbda92886	-0.08259682
3	0xbe447588	-0.1918546
4	0x3904f556	0.00012679896
5	0xbe2b233b	-0.16712658
6	0xbd6661eb	-0.056245726
7	0x3db243c6	0.08704333
8	0xbe860406	-0.26174945

fc3.weight f4 [1, 2]
0	0xbd1c529f	-0.03816473
1	0xbe98de48	-0.29857087

input_fc.weight f4 [18, 3]
0	0x3eb5bce5	0.35495678
1	0x3d002e5b	0.031294208
2	0xbdbaf297	-0.091283016
3	0x3e847cff	0.25876614
4	0x3d45ee90	0.048323214
5	0xbe9e34cf	-0.30899665
6	0xbe0da196	-0.13831171
7	0xbed1c7a4	-0.40972626
8	0xbf10ee40	-0.5661354
9	0x3e370016	0.17871127
10	0xbebf01d3	-0.3730608
11	0x3e3d799d	0.18503423
12	0x3eec0063	0.46094045
13	0x3e417586	0.18892488
14	0x3ea6fcc0	0.32614708
15	0x3ecb19c6	0.396681
16	0xbecfcbc2	-0.40585142
17	0x3cf838b5	0.030300478
18	0x3e60a57c	0.21938127
19	0xbea1551a	-0.3151024
20	0x3e97ce27	0.2964947
21	0xbee603df	-0.44924828
22	0x3f11ff5d	0.5703028
23	0x3e2a32b9	0.16620912
24	0xbe4ba189	-0.1988584
25	0x3eab309c	0.33435524
26	0x3de6c405	0.112678565
27	0x3dce8bbd	0.10085247
28	0xbe7b0170	-0.24512267
29	0xbee8e8ad	-0.45490018
30	0xbe99b82c	-0.30023324
31	0xbe362cf0	-0.1779058
32	0xbee880a4	-0.45410645
33	0x3f1b3fc8	0.606442
34	0xbecd568d	-0.40105096
35	0x3ee043c8	0.43801713
36	0x3d72083a	0.059089877
37	0xbebe163a	-0.37126333
38	0xbf0a1889	-0.5394369
39	0xbeae4a97	-0.34041283
40	0x3f07b85e	0.53015697
41	0xbc51e0df	-0.012809961
42	0xbe6403b1	-0.22267033
43	0xbc089648	-0.008336611
44	0x3b721bd5	0.0036942859
45	0x3f0dfad2	0.55460846
46	0xbe8b0547	-0.27152464
47	0x3ebaa37d	0.36452857
48	0xbeb48bbd	-0.35262862
49	0x3e86726d	0.26259175
50	0x3ddc79e8	0.10765439
51	0x3e822566	0.25419158
52	0x3e409e3b	0.1881036
53	0x3e13f52f	0.14448999

input_fc.bias f4 [18]
0	0xbd80393c	-0.062609166
1	0xbeb6246b	-0.3557466
2	0xbefaac7d	-0.48959723
3	0xbe8c95fa	-0.27458173
4	0x3e61a6fc	0.22036356
5	0x3e9b3fc0	0.30322075
6	0x3e7972d8	0.24360216
7	0xbe6b1e96	-0.22960886
8	0x3e47d0de	0.1951327
9	0xbe83ca0a	-0.2574008
10	0x3e053b9b	0.13011019
11	0xbe80c628	-0.2515118
12	0xbe275b50	-0.16343427
13	0x3f082740	0.5318489
14	0xbe2fd890	-0.17172456
15	0x3f0de217	0.5542311
16	0x3ead83d9	0.33889654
17	0x3e6bd4d2	0.23030403

norm.weight f4 [36]
0	0x3f800000	1.0
1	0x3f800000	1.0
2	0x3f800000	1.0
3	0x3f800000	1.0
4	0x3f800000	1.0
5	0x3f800000	1.0
6	0x3f800000	1.0
7	0x3f800000	1.0
8	0x3f800000	1.0
9	0x3f800000	1.0
10	0x3f800000	1.0
11	0x3f800000	1.0
12	0x3f800000	1.0
13	0x3f800000	1.0
14	0x3f800000	1.0
15	0x3f800000	1.0
16	0x3f800000	1.0
17	0x3f800000	1.0
18	0x3f800000	1.0
19	0x3f800000	1.0
20	0x3f800000	1.0
21	0x3f800000	1.0
22	0x3f800000	1.0
23	0x3f800000	1.0
24	0x3f800000	1.0
25	0x3f800000	1.0
26	0x3f800000	1.0
27	0x3f800000	1.0
28	0x3f800000	1.0
29	0x3f800000	1.0
30	0x3f800000	1.0
31	0x3f800000	1.0
32	0x3f800000	1.0
33	0x3f800000	1.0
34	0x3f800000	1.0
35	0x3f800000	1.0

norm.bias f4 [36]
0	0x00000000	0.0
1	0x00000000	0.0
2	0x00000000	0.0
3	0x00000000	0.0
4	0x00000000	0.0
5	0x00000000	0.0
6	0x00000000	0.0
7	0x00000000	0.0
8	0x00000000	0.0
9	0x00000000	0.0
10	0x00000000	0.0
11	0x00000000	0.0
12	0x00000000	0.0
13	0x00000000	0.0
14	0x00000000	0.0
15	0x00000000	0.0
16	0x00000000	0.0
17	0x00000000	0.0
18	0x00000000	0.0
19	0x00000000	0.0
20	0x00000000	0.0
21	0x00000000	0.0
22	0x00000000	0.0
23	0x00000000	0.0
24	0x00000000	0.0
25	0x00000000	0.0
26	0x00000000	0.0
27	0x00000000	0.0
28	0x00000000	0.0
29	0x00000000	0.0
30	0x00000000	0.0
31	0x00000000	0.0
32	0x00000000	0.0
33	0x00000000	0.0
34	0x00000000	0.0
35	0x00000000	0.0

norm1.weight f4 [9]
0	0x3f800000	1.0
1	0x3f800000	1.0
2	0x3f800000	1.0
3	0x3f800000	1.0
4	0x3f800000	1.0
5	0x3f800000	1.0
6	0x3f800000	1.0
7	0x3f800000	1.0
8	0x3f800000	1.0

norm1.bias f4 [9]
0	0x00000000	0.0
1	0x00000000	0.0
2	0x00000000	0.0
3	0x00000000	0.0
4	0x00000000	0.0
5	0x00000000	0.0
6	0x00000000	0.0
7	0x00000000	0.0
8	0x00000000	0.0

norm2.weight f4 [9]
0	0x3f800000	1.0
1	0x3f800000	1.0
2	0x3f800000	1.0
3	0x3f800000	1.0
4	0x3f800000	1.0
5	0x3f800000	1.0
6	0x3f800000	1.0
7	0x3f800000	1.0
8	0x3f800000	1.0

norm2.bias f4 [9]
0	0x00000000	0.0
1	0x00000000	0.0
2	0x00000000	0.0
3	0x00000000	0.0
4	0x00000000	0.0
5	0x00000000	0.0
6	0x00000000	0.0
7	0x00000000	0.0
8	0x00000000	0.0

m.running_mean f4 [12]
0	0x401ef1c1	2.4835055
1	0x401fcf2b	2.4970195
2	0x401e3761	2.47213
3	0x401b6585	2.4280713
4	0x40194cce	2.3953128
5	0x4019de16	2.40418
6	0x401b52c9	2.4269278
7	0x401bc461	2.433861
8	0x4018fa7b	2.390288
9	0x401597b4	2.3373842
10	0x4013439b	2.3010013
11	0x4012ba10	2.2926064

m.running_var f4 [12]
0	0x43b4836c	361.02673
1	0x43b456d7	360.67844
2	0x43b3e6ee	359.80414
3	0x43b42204	360.26575
4	0x43b53af7	362.46066
5	0x43b5d798	363.68433
6	0x43b5dd06	363.72675
7	0x43b4fc52	361.97125
8	0x43b4a099	361.25467
9	0x43b44822	360.56354
10	0x43b4b923	361.44638
11	0x43b63249	364.39285

linear_net.0.weight f4 [9, 18]
0	0x3e2c1793	0.16805868
1	0xbd263899	-0.04058132
2	0xbe06857a	-0.13136855
3	0x3e40f0f5	0.18841918
4	0x3e30073f	0.17190264
5	0xbd9b0644	-0.075695544
6	0x3dfa805e	0.12231515
7	0x3e38e2e6	0.18055305
8	0x3d9841f3	0.07434454
9	0xbe5d26a3	-0.2159677
10	0x3d395b14	0.045252874
11	0xbe26c539	-0.16286172
12	0xbe378c47	-0.17924605
13	0xbcbf2f75	-0.023338059
14	0xbde3eba7	-0.111289315
15	0x3de0db9e	0.10979389
16	0x3dbb5136	0.09146349
17	0x3e6987c9	0.22805704
18	0x3dfc155d	0.12308762
19	0x3e1efc58	0.15525949
20	0x3da63cc0	0.08117056
21	0x3da6dde2	0.081477895
22	0x3e157a5c	0.14597458
23	0xbd3edf42	-0.046599634
24	0xbdbb6f26	-0.09152059
25	0xbc95475a	-0.0182225
26	0xbe212055	-0.1573499
27	0xbe0d02f9	-0.13770665
28	0xbe24e7ef	-0.161041
29	0xbe055993	-0.13022451
30	0x3ce7fb12	0.028317962
31	0xbd27f9d1	-0.041009728
32	0x3d71403d	0.058899153
33	0xbdfe4765	-0.12415961
34	0xbe052f01	-0.13006212
35	0x3d153d11	0.03643519
36	0x3d8828ab	0.06648382
37	0xbd56eaa0	-0.05246985
38	0x3d88d904	0.066820174
39	0xbd5bc4d5	-0.05365451
40	0x3e09b3b4	0.13447458
41	0x3de8efb7	0.11373847
42	0xbe3625b7	-0.17787825
43	0x3d8996fe	0.067182526
44	0x3e3ea673	0.18618183
45	0x3dcb2e86	0.09920983
46	0xbe53ce04	-0.20684057
47	0xbe39dea3	-0.18151335
48	0x3d767f1f	0.060179826
49	0x3cac88d6	0.021061342
50	0x3d576521	0.05258668
51	0x3dcbee7a	0.09957595
52	0x3cd58b31	0.026067348
53	0x3e6e75dd	0.23287149
54	0xbe6ef1a6	-0.23334369
55	0x3e3e06ea	0.18557325
56	0x3e6e0605	0.23244484
57	0x3e20ed36	0.15715489
58	0xbe3f8137	-0.18701635
59	0xbd6598cf	-0.056053933
60	0xbdf24f0f	-0.118314855
61	0xbe4402f5	-0.19141753
62	0x3dbf1407	0.09329992
63	0xb899bc9f	-7.330742e-05
64	0xbd6d204b	-0.057892125
65	0x3dafe453	0.08588471
66	0x3e3efbd3	0.18650751
67	0xbe614dc9	-0.22002329
68	0xbc2af2d7	-0.010433874
69	0xbe0306d9	-0.12795581
70	0xbe1727da	-0.14761296
71	0xbe5b6b1b	-0.21427576
72	0x3c6533b9	0.013989382
73	0xbe60a787	-0.21938907
74	0x3e15e91c	0.14639705
75	0xbd5b5056	-0.05354341
76	0xbc704ec3	-0.014667216
77	0x3df63530	0.120218635
78	0xbdb3aa8e	-0.08772765
79	0xbda7d059	-0.08194036
80	0x3dd70062	0.1049812
81	0xbe6f78f9	-0.23385991
82	0x3d8e1748	0.06938034
83	0x3e4ec699	0.20192946
84	0xba9a08fd	-0.0011751946
85	0x3e5ca7cb	0.21548383
86	0x3e27a64e	0.16372034
87	0x3e6f06c6	0.23342428
88	0x3e1c1ef9	0.1524619
89	0xbe3f5b52	-0.1868718
90	0xbe3e8f44	-0.18609339
91	0x3d89d22f	0.067295425
92	0xbdf1fcb6	-0.11815779
93	0x3e2498c0	0.16073895
94	0x3e39639d	0.18104406
95	0x3e67f3a2	0.22651532
96	0xbd6ca83b	-0.057777625
97	0xbe1275bc	-0.14302725
98	0x3b2a6930	0.0026002638
99	0x3e07232a	0.13197008
100	0xbe1c0e3f	-0.1523981
101	0x3dac14e6	0.084024236
102	0xbe0217eb	-0.12704436
103	0x3e708333	0.23487549
104	0xbe3bd3a9	-0.1834246
105	0xbe70659a	-0.23476258
106	0x3d1fb6cd	0.03899269
107	0x3d875e06	0.066097304
108	0xbe6ad614	-0.22933227
109	0x3c4e82b9	0.012604409
110	0xbe306ffc	-0.17230219
111	0x3e4ceacb	0.20011441
112	0xbe0ef355	-0.13960011
113	0xbe0b2be8	-0.13590968
114	0x3e0e2ab6	0.1388348
115	0xbc7a6158	-0.015281998
116	0x3ca43f29	0.020049648
117	0x3defe2b1	0.1171316
118	0xbe3b52bd	-0.18293281
119	0x3e1ee3b3	0.15516548
120	0x3e216095	0.157595
121	0x3e48bed7	0.1960405
122	0xbd0dd449	-0.03462628
123	0xbd700002	-0.058593757
124	0xbe15cc09	-0.14628614
125	0x3e105c64	0.14097744
126	0x3e22d202	0.15900424
127	0xbe248d76	-0.16069588
128	0x3e1ab8b8	0.15109527
129	0x3e1ad67e	0.15120885
130	0x3e36eb05	0.1786309
131	0x3ddcf47a	0.10788818
132	0x3e1d6927	0.15372144
133	0xbde7e143	-0.11322262
134	0xbd2ae907	-0.04172614
135	0xbdcaa72c	-0.09895167
136	0xbe450a7c	-0.1924228
137	0x3e5d559f	0.21614693
138	0x3e071e78	0.13195217
139	0x3cd3b433	0.025842762
140	0x3dc66c41	0.096886165
141	0x3e6335e2	0.22188523
142	0x3e3e865d	0.18605943
143	0x3e24d37e	0.16096303
144	0x3e6290a8	0.22125494
145	0xbdfdbbc6	-0.123893306
146	0x3e650aa4	0.2236734
147	0x3e2c0726	0.16799602
148	0x3c294381	0.010331036
149	0xbe4e11d9	-0.20123996
150	0x3e1f5ea2	0.15563443
151	0xbcf8d1c5	-0.030373463
152	0x3e148bff	0.1450653
153	0xbdd35ff3	-0.10321035
154	0xbd166a90	-0.03672272
155	0xbddf8254	-0.1091353
156	0x3d470cb5	0.048596103
157	0xbcc10162	-0.02356023
158	0x3e001569	0.12508167
159	0xbe55b4dc	-0.20869774
160	0xbdcbb401	-0.099464424
161	0xbe0c7332	-0.13715819

linear_net.0.bias f4 [9]
0	0xbba7c69c	-0.0051201116
1	0x3be9ff7e	0.0071410527
2	0x3dfbb73f	0.12290811
3	0x3d925ccb	0.07146605
4	0xbe664e0e	-0.22490713
5	0xbda300d9	-0.07959146
6	0x3e63e96a	0.22257009
7	0x3e028ed7	0.12749802
8	0x3e2a96dd	0.16659112

linear_net.2.weight f4 [1, 9]
0	0xbd915a36	-0.070972845
1	0xbc0ab300	-0.0084655285
2	0x3e549143	0.20758538
3	0x3e8f10af	0.27942416
4	0x3cc3716b	0.023857793
5	0x3e3de41b	0.18544047
6	0xbd1edbc0	-0.03878379
7	0x3d1602b6	0.03662368
8	0xbda025db	-0.0781972

exp_avg f4 [108, 36]
0	0xb7a7de8a	-2.001158e-05
1	0xb793f290	-1.7636718e-05
2	0x37814819	1.5411571e-05
3	0x363b6687	2.792485e-06
4	0xb7e23fe7	-2.6971056e-05
5	0xb70c96b6	-8.37974e-06
6	0x340f8a0f	1.3368138e-07
7	0x36f341aa	7.2496086e-06
8	0x35f8b7d4	1.8530941e-06
9	0xb5d76e98	-1.6050935e-06
10	0x37925c67	1.7447584e-05
11	0xb783a61a	-1.5693764e-05
12	0x368f52e8	4.2713837e-06
13	0x35e74078	1.7229604e-06
14	0x374214c5	1.1568137e-05
15	0xb793614a	-1.756907e-05
16	0x373b8fea	1.1179576e-05
17	0xb7922a39	-1.7424218e-05
18	0xb6bada82	-5.5686696e-06
19	0x3631c9fc	2.6492626e-06
20	0xb5887e26	-1.0169504e-06
21	0x3559ee97	8.1185993e-07
22	0xb5084216	-5.0760116e-07
23	0x325de26a	1.2915374e-08
24	0xb43c9c4f	-1.7565729e-07
25	0xb352d04c	-4.908388e-08
26	0xb386970b	-6.267336e-08
27	0xb36a9053	-5.4613633e-08
28	0xb2c14993	-2.2501615e-08
29	0xb36d6cc6	-5.527979e-08
30	0xb20ae90a	-8.085644e-09
31	0xb36dcb99	-5.5366034e-08
32	0xb147aeed	-2.9057745e-09
33	0xb36dd7c0	-5.5377086e-08
34	0xb08f8653	-1.0442797e-09
35	0xb36dd839	-5.5377516e-08
36	0xb75364b8	-1.26000305e-05
37	0xb7c112e7	-2.3016195e-05
38	0xb89681dd	-7.176746e-05
39	0xb7e7989e	-2.7608414e-05
40	0x37df3488	2.6608133e-05
41	0xb83d7e3a	-4.517867e-05
42	0xb77d1b26	-1.5086296e-05
43	0x389cad1d	7.4709045e-05
44	0x38368c15	4.3522643e-05
45	0xb866f29d	-5.5062224e-05
46	0xb81cab45	-3.7352806e-05
47	0xb7d668e5	-2.5559633e-05
48	0xb894f690	-7.103116e-05
49	0x38744a42	5.824329e-05
50	0x36aac09e	5.0888184e-06
51	0xb77cf6f2	-1.5077867e-05
52	0x382d3dc6	4.1303945e-05
53	0x37aa70d7	2.0318124e-05
54	0xb5e8fa44	-1.7358184e-06
55	0xb68e2afe	-4.2369347e-06
56	0x36046ed1	1.9734036e-06
57	0x36eb6dfa	7.0163487e-06
58	0xb5d1334d	-1.5586644e-06
59	0x367aba44	3.7361324e-06
60	0xb545f02d	-7.373772e-07
61	0x362ad598	2.5456302e-06
62	0xb492fe76	-2.7379764e-07
63	0x361f471a	2.3734233e-06
64	0xb3d43130	-9.8809664e-08
65	0x361dc374	2.3508592e-06
66	0xb318991c	-3.552951e-08
67	0x361d914d	2.34794e-06
68	0xb25b60fb	-1.27695285e-08
69	0x361d8ad4	2.3475632e-06
70	0xb19daec5	-4.5891704e-09
71	0x361d8a00	2.347515e-06
72	0xb837abbc	-4.379054e-05
73	0x36414641	2.8800134e-06
74	0x3974bab1	0.00023339201
75	0x385b9ee1	5.2361636e-05
76	0xb9372f1e	-0.00017469793
77	0x385d3917	5.2743675e-05
78	0x370c14d1	8.349497e-06
79	0xb9034e30	-0.0001252226
80	0xb8b6ebe3	-8.7223736e-05
81	0x390b0ddb	0.00013261235
82	0x392fd687	0.00016769218
83	0xb8313eb5	-4.225849e-05
84	0x3944e228	0.00018776266
85	0xb8db0b86	-0.0001044488
86	0x3810b1d0	3.4497876e-05
87	0xb8881f03	-6.490762e-05
88	0xb83c8464	-4.494599e-05
89	0xb8f1259f	-0.00011498783
90	0xb6a68c40	-4.9635128e-06
91	0x36825a57	3.884819e-06
92	0xb6a80e89	-5.0084823e-06
93	0xb6483c6b	-2.983749e-06
94	0xb6139655	-2.1992212e-06
95	0xb6c7ed68	-5.9583e-06
96	0xb554ce57	-7.927642e-07
97	0xb6d37603	-6.3020284e-06
98	0xb498ed9d	-2.8485093e-07
99	0xb6d4db9d	-6.3436587e-06
100	0xb3dbd4a2	-1.023666e-07
101	0xb6d50957	-6.348982e-06
102	0xb31e015d	-3.678848e-08
103	0xb6d50f3f	-6.3496695e-06
104	0xb26322f0	-1.3221083e-08
105	0xb6d51001	-6.3497578e-06
106	0xb1a341da	-4.751411e-09
107	0xb6d51019	-6.3497687e-06
108	0x375d232c	1.3180816e-05
109	0x36c92341	5.994371e-06
110	0xb785070b	-1.5858115e-05
111	0x36deb3fc	6.6370685e-06
112	0x37cbcf6f	2.429608e-05
113	0x37634352	1.3545929e-05
114	0x373255a9	1.0629571e-05
115	0xb74d6ba3	-1.2244013e-05
116	0xb66d78f7	-3.5386163e-06
117	0xb6882d56	-4.0583936e-06
118	0xb7a1cd5d	-1.9288325e-05
119	0x37e907f0	2.777946e-05
120	0xb6eed049	-7.1172003e-06
121	0xb7285572	-1.0033475e-05
122	0xb71ac1d1	-9.224242e-06
123	0x37d8554e	2.578893e-05
124	0xb735fda0	-1.0847492e-05
125	0x3764da22	1.3640647e-05
126	0xb593010f	-1.0952662e-06
127	0xb46d1cb1	-2.2082783e-07
128	0xb504efcb	-4.9522777e-07
129	0xb6c60d15	-5.902383e-06
130	0x362fc839	2.6193577e-06
131	0xb5c62d91	-1.4765411e-06
132	0x359cb1cc	1.1674651e-06
133	0x33a89949	7.850992e-08
134	0x34e74ccf	4.3082989e-07
135	0x34a2ef59	3.0349e-07
136	0x3426d0ff	1.5535987e-07
137	0x34b2c319	3.3297036e-07
138	0x336fe884	5.5857996e-08
139	0x34b4cf71	3.3678546e-07
140	0x32ac7264	2.0075454e-08
141	0x34b51320	3.3727792e-07
142	0x31f7e605	7.2147963e-09
143	0x34b51bf3	3.3734213e-07
144	0xb77b4a19	-1.4978018e-05
145	0x3806eabf	3.2166714e-05
146	0x39785473	0.00023682583
147	0x3868b03f	5.5477252e-05
148	0xb91d17f2	-0.00014981607
149	0x389e59e6	7.550772e-05
150	0x373a0339	1.1087214e-05
151	0xb9238f40	-0.00015598256
152	0xb8d505fb	-0.000101577454
153	0x391efd34	0.0001516238
154	0x3925ea55	0.00015822922
155	0xb78dc26d	-1.6899046e-05
156	0x39569d40	0.0002046721
157	0xb900d9f8	-0.00012288231
158	0x379b3f8b	1.850703e-05
159	0xb82810d3	-4.006999e-05
160	0xb894bbcc	-7.09217e-05
161	0xb8d0389f	-9.9287594e-05
162	0x3675e820	3.664296e-06
163	0xb665a5a7	-3.4220081e-06
164	0xb695f617	-4.4691947e-06
165	0xb723605b	-9.737992e-06
166	0x35513a90	7.7943787e-07
167	0xb70e2715	-8.472959e-06
168	0x3505bb67	4.981907e-07
169	0xb6f4b8c1	-7.293275e-06
170	0x344c0b84	1.900317e-07
171	0xb6eebdab	-7.115033e-06
172	0x3393c45c	6.8809385e-08
173	0xb6edf404	-7.0915576e-06
174	0x32d4a001	2.475281e-08
175	0xb6edd9e6	-7.088517e-06
176	0x3218d88a	8.8968e-09
177	0xb6edd688	-7.088125e-06
178	0x315bb92e	3.1973957e-09
179	0xb6edd61b	-7.0880756e-06
180	0x38013132	3.0801813e-05
181	0x37825969	1.5538842e-05
182	0xb89e5e16	-7.551552e-05
183	0xb7797143	-1.4867927e-05
184	0x38973968	7.210934e-05
185	0xb68596c4	-3.9812603e-06
186	0xb51b585e	-5.787059e-07
187	0x37c5ad0c	2.3564811e-05
188	0x37a9c76e	2.0239237e-05
189	0xb80b1087	-3.3155575e-05
190	0xb88039ce	-6.1142826e-05
191	0x37f3eef9	2.9079138e-05
192	0xb85cfc3e	-5.2687006e-05
193	0x37c58d75	2.3550101e-05
194	0xb7abc55a	-2.0476687e-05
195	0x3817b696	3.6171252e-05
196	0xb3915c22	-6.7688475e-08
197	0x38446f70	4.6833826e-05
198	0x36b8a948	5.5033343e-06
199	0x3521d9ca	6.02941e-07
200	0x353c9aee	7.026091e-07
201	0xb5b30d5f	-1.3340431e-06
202	0x35bfbaf6	1.4285022e-06
203	0x358685ed	1.0022756e-06
204	0x351efcd3	5.9227494e-07
205	0x35db77a2	1.6351589e-06
206	0x3468a92a	2.1668225e-07
207	0x35e75cff	1.7237907e-06
208	0x33a79ca1	7.805034e-08
209	0x35e8ea67	1.7353567e-06
210	0x32f1048b	2.8058158e-08
211	0x35e91dce	1.7368527e-06
212	0x322d3db9	1.00839594e-08
213	0x35e9247a	1.7370469e-06
214	0x31790a32	3.6240064e-09
215	0x35e9254b	1.7370706e-06
216	0xb7bfb60a	-2.2853743e-05
217	0xb784f68f	-1.5850439e-05
218	0x37ea86ce	2.7957747e-05
219	0x3592ced5	1.0938044e-06
220	0xb820d46c	-3.8344806e-05
221	0xb730dde8	-1.0542084e-05
222	0xb6975629	-4.510181e-06
223	0x36d4b549	6.3391967e-06
224	0xb4e16790	-4.1984867e-07
225	0x36c48926	5.8572214e-06
226	0x37efb0f5	2.8573422e-05
227	0xb7dd9958	-2.641666e-05
228	0x37667930	1.37372845e-05
229	0x3600b6ea	1.9179956e-06
230	0x3770da76	1.4355979e-05
231	0xb7e8eb7a	-2.7766207e-05
232	0x3744830f	1.1713025e-05
233	0xb7c897ce	-2.3912547e-05
234	0xb63bff06	-2.8013615e-06
235	0xb62ab63a	-2.5438044e-06
236	0x34b20825	3.316101e-07
237	0x368a83ea	4.1280773e-06
238	0xb5efdc41	-1.787099e-06
239	0x3546242e	7.3813396e-07
240	0xb5514a6d	-7.796687e-07
241	0xb4975c4f	-2.8193105e-07
242	0xb49a0d53	-2.869443e-07
243	0xb4e5212e	-4.2678715e-07
244	0xb3de218e	-1.0343784e-07
245	0xb4ef4bb0	-4.457229e-07
246	0xb31fb8f9	-3.7188304e-08
247	0xb4f09c5c	-4.481725e-07
248	0xb2659de8	-1.3365458e-08
249	0xb4f0c7d0	-4.4848866e-07
250	0xb1a50a85	-4.803328e-09
251	0xb4f0cd83	-4.4853013e-07
252	0x385e1b42	5.295431e-05
253	0xb7b6762a	-2.1751115e-05
254	0xb9c8eb80	-0.00038322434
255	0xb8c15e63	-9.220538e-05

exp_avg_sq f4 [108, 36]
0	0x33b24aa5	8.302349e-08
1	0x3336ef06	4.2592568e-08
2	0x36926fb1	4.3641417e-06
3	0x35263d99	6.1929455e-07
4	0x35f43161	1.8193788e-06
5	0x355afe46	8.1581345e-07
6	0x344609f5	1.844381e-07
7	0x362e3499	2.5958636e-06
8	0x359a1417	1.1479741e-06
9	0x35eea87d	1.7781418e-06
10	0x35f17bdb	1.7991946e-06
11	0x34432838	1.8175422e-07
12	0x365800a8	3.218689e-06
13	0x35fcaa73	1.882507e-06
14	0x336368ad	5.2947758e-08
15	0x33ee0d06	1.10851076e-07
16	0x350e8ace	5.310111e-07
17	0x3581898e	9.651283e-07
18	0x30bdef3b	1.3819553e-09
19	0x30a5f4cb	1.2074904e-09
20	0x30caec43	1.4764584e-09
21	0x31011dff	1.8789021e-09
22	0x30d65f94	1.5597714e-09
23	0x3103795d	1.9131996e-09
24	0x2fabf25f	3.1276934e-10
25	0x3156f0d6	3.1277998e-09
26	0x2e3bdf44	4.2717177e-11
27	0x31691f47	3.3923742e-09
28	0x2cc38513	5.5570075e-12
29	0x316ba02f	3.4288055e-09
30	0x2b4a34e2	7.1838206e-13
31	0x316bf399	3.433547e-09
32	0x29d0f3f1	9.2793727e-14
33	0x316bfe71	3.4341634e-09
34	0x2857e6db	1.1984956e-14
35	0x316bffc5	3.434239e-09
36	0x35cc2f7d	1.5213005e-06
37	0x34fb815b	4.6846512e-07
38	0x38243034	3.914554e-05
39	0x36b790a6	5.4706643e-06
40	0x37a0239e	1.9090072e-05
41	0x36cd4d3f	6.1184687e-06
42	0x35c1a5f4	1.4427919e-06
43	0x37abb1d1	2.046759e-05
44	0x37299de0	1.0109943e-05
45	0x37827a05	1.5554027e-05
46	0x37906526	1.7213239e-05
47	0x35906fc4	1.0761364e-06
48	0x37e59cce	2.7371945e-05
49	0x3781099a	1.538247e-05
50	0x356132b2	8.3892803e-07
51	0x3598ea33	1.1393043e-06
52	0x36815d9b	3.8553967e-06
53	0x372db3fb	1.03535085e-05
54	0x32155a93	8.693536e-09
55	0x31f2f2b9	7.0707213e-09
56	0x325b045c	1.2748469e-08
57	0x3242f4f8	1.1347986e-08
58	0x3252849d	1.2253762e-08
59	0x328b9fea	1.625445e-08
60	0x311af36b	2.2548317e-09
61	0x32eb3437	2.7381345e-08
62	0x2fa792bf	3.0481392e-10
63	0x32fd52a4	2.9490657e-08
64	0x2e2e2a75	3.960073e-11
65	0x32ffc790	2.9776658e-08
66	0x2cb41793	5.118525e-12
67	0x33000c96	2.981377e-08
68	0x2b3a18a7	6.6114686e-13
69	0x330011de	2.9818573e-08
70	0x29c048d9	8.53915e-14
71	0x33001292	2.9819212e-08
72	0x352ad0c4	6.363373e-07
73	0x346804c0	2.1608412e-07
74	0x38005ea8	3.0605734e-05
75	0x36c691d4	5.9178365e-06
76	0x37521301	1.25214e-05
77	0x36f2ce72	7.2361954e-06
78	0x36139822	2.199326e-06
79	0x37b003e8	2.0982654e-05
80	0x371d985a	9.393401e-06
81	0x37536e9a	1.26023315e-05
82	0x3748e771	1.1974816e-05
83	0x3616f99a	2.249703e-06
84	0x37be3e9b	2.2678918e-05
85	0x3785f87e	1.5970549e-05
86	0x34d1d9c5	3.9087732e-07
87	0x356e7ef4	8.884665e-07
88	0x368f54a1	4.271584e-06
89	0x36f466cd	7.2837342e-06
90	0x3239f3ce	1.0823852e-08
91	0x32167729	8.758243e-09
92	0x3242288f	1.1301508e-08
93	0x32a0c44b	1.8715715e-08
94	0x3272f7fd	1.414264e-08
95	0x3238a464	1.0747588e-08
96	0x31432c39	2.8401372e-09
97	0x32ad4bc2	2.0174301e-08
98	0x2fd5398c	3.8785364e-10
99	0x32c0080d	2.2355403e-08
100	0x2e5de665	5.0454214e-11
101	0x32c29fec	2.2657296e-08
102	0x2ce57d12	6.522457e-12
103	0x32c2f657	2.2696595e-08
104	0x2b6d252e	8.425091e-13
105	0x32c30186	2.270168e-08
106	0x29f5082a	1.0881602e-13
107	0x32c30300	2.2702352e-08
108	0x34d5870d	3.9772604e-07
109	0x34499bdc	1.8776285e-07
110	0x3785da5a	1.5956513e-05
111	0x361418a6	2.2068066e-06
112	0x36e8da54	6.9395555e-06
113	0x363aeff5	2.7855833e-06
114	0x351fa60e	5.9473757e-07
115	0x371905e4	9.120882e-06
116	0x3688ed26	4.0807236e-06
117	0x36d53a26	6.354664e-06
118	0x36dfb0f6	6.666519e-06
119	0x34d939b7	4.0461393e-07
120	0x3741bb61	1.1547324e-05
121	0x36df9ab0	6.663926e-06
122	0x347444b6	2.2749268e-07
123	0x349c270e	2.908568e-07
124	0x35f48f8f	1.8221198e-06
125	0x3674ec26	3.649629e-06
126	0x310d013d	2.0518904e-09
127	0x30e03a97	1.6314797e-09
128	0x317a4c2d	3.642309e-09
129	0x3189116c	3.9892054e-09
130	0x31ad206f	5.03865e-09
131	0x31e60ae5	6.6951196e-09
132	0x307a31db	9.102032e-10
133	0x324a490c	1.1774556e-08
134	0x2f06e9e0	1.2270318e-10
135	0x325a17d7	1.2694691e-08
136	0x2d8c2b9a	1.593552e-11
137	0x325c3984	1.2818763e-08
138	0x2c10eed4	2.0596207e-12
139	0x325c805f	1.2834874e-08
140	0x2a95c3a1	2.6603462e-13
141	0x325c8988	1.2836956e-08
142	0x291abe97	3.436018e-14
143	0x325c8abb	1.2837229e-08
144	0x35cb8722	1.5164007e-06
145	0x34f15d89	4.4957804e-07
146	0x3880dcb3	6.144624e-05
147	0x373d5030	1.1283948e-05
148	0x37dae1df	2.6092805e-05
149	0x376404a2	1.3590938e-05
150	0x368292c2	3.8913868e-06
151	0x3828afcc	4.0218045e-05
152	0x379d7147	1.8768607e-05
153	0x37d70e0d	2.563654e-05
154	0x37ce801e	2.4616773e-05
155	0x367b890d	3.7481689e-06
156	0x383df143	4.5285804e-05
157	0x37ffa12c	3.047342e-05
158	0x35779841	9.223623e-07
159	0x35dd39a1	1.6482555e-06
160	0x37088a3b	8.138416e-06
161	0x378068e4	1.5307633e-05
162	0x3296a656	1.7537939e-08
163	0x3247b563	1.1624567e-08
164	0x32af2077	2.0387445e-08
165	0x32f44148	2.8435025e-08
166	0x32ccf550	2.386028e-08
167	0x32c17a09	2.2523652e-08
168	0x319f294c	4.632204e-09
169	0x332e1c59	4.0538314e-08
170	0x302d39a5	6.301895e-10
171	0x333e894f	4.4362704e-08
172	0x2eb42fa3	8.193914e-11
173	0x3340ca75	4.4887617e-08
174	0x2d3a5637	1.05920194e-11
175	0x334115a6	4.4956003e-08
176	0x2bc08d3d	1.3681622e-12
177	0x33411f62	4.4964857e-08
178	0x2a46f488	1.7670772e-13
179	0x33412092	4.4965937e-08
180	0x344f1a5d	1.9287968e-07
181	0x3400e224	1.2003198e-07
182	0x376a3ad3	1.3961183e-05
183	0x36288043	2.510861e-06
184	0x36b25f66	5.315919e-06
185	0x365bef14	3.2772705e-06
186	0x3573fb84	9.089056e-07
187	0x3721a132	9.633879e-06
188	0x368749fe	4.0319273e-06
189	0x36bae94e	5.570392e-06
190	0x36b2fdba	5.334351e-06
191	0x356c3c12	8.8004265e-07
192	0x373007e8	1.0492258e-05
193	0x36f0d299	7.177074e-06
194	0x34032889	1.2215072e-07
195	0x3497d74e	2.8282597e-07
196	0x3605dedc	1.9948266e-06
197	0x364507fb	2.9359933e-06
198	0x31a1d5ed	4.7100372e-09
199	0x319e0de1	4.599983e-09
200	0x31c68952	5.77817e-09
201	0x3203c7a6	7.670598e-09
202	0x31b991be	5.4007776e-09
203	0x31d3e973	6.1674483e-09
204	0x30931409	1.0701352e-09
205	0x3226e660	9.714853e-09
206	0x2f2079e0	1.4595214e-10
207	0x3234cfd7	1.0524636e-08
208	0x2da6fa85	1.8983268e-11
209	0x3236bc3b	1.0636593e-08
210	0x2c2caf8b	2.4540116e-12
211	0x3236fc62	1.06511795e-08
212	0x2ab27246	3.1698445e-13
213	0x323704b4	1.0653071e-08
214	0x2938616e	4.0940714e-14
215	0x323705c6	1.0653315e-08
216	0x3544bd80	7.329145e-07
217	0x344b8b5e	1.895655e-07
218	0x37b29f4c	2.1293432e-05
219	0x3676c3af	3.677076e-06
220	0x37262534	9.903033e-06
221	0x368bb5b3	4.1636754e-06
222	0x35a481c5	1.225672e-06
223	0x375611fa	1.27595795e-05
224	0x36ce19bb	6.142274e-06
225	0x37118333	8.673221e-06
226	0x371671fa	8.967234e-06
227	0x359b7989	1.1583771e-06
228	0x377e751f	1.5166849e-05
229	0x37244c82	9.792975e-06
230	0x34df17ca	4.1554296e-07
231	0x353ac3fc	6.9575594e-07
232	0x36256eb4	2.4651354e-06
233	0x36be6087	5.6736785e-06
234	0x31ee8fe1	6.943069e-09
235	0x31d086e0	6.0689302e-09
236	0x31e8e4ae	6.7780865e-09
237	0x32438879	1.1381524e-08
238	0x320a7965	8.060259e-09
239	0x320edfd4	8.3163805e-09
240	0x30d4c908	1.5482167e-09
241	0x32743b52	1.4216157e-08
242	0x2f673f29	2.1031767e-10
243	0x3284da4c	1.5466092e-08
244	0x2df07e48	2.7340921e-11
245	0x3286534e	1.5637536e-08
246	0x2c78b24e	3.5341899e-12
247	0x3286845f	1.5659849e-08
248	0x2b007ed0	4.5650723e-13
249	0x32868ab5	1.566273e-08
250	0x2984c4b4	5.8961e-14
251	0x32868b91	1.566312e-08
252	0x35090480	5.1043025e-07
253	0x3452f843	1.9648091e-07
254	0x37df20ab	2.6598884e-05
255	0x369d3f76	4.6863524e-06

exp_avg f4 [108]
0	0xb36dd7e6	-5.537722e-08
1	0x361d89d6	2.3475054e-06
2	0xb6d51020	-6.349772e-06
3	0x34b51d2a	3.3735097e-07
4	0xb6edd601	-7.0880637e-06
5	0x35e9256c	1.7370744e-06
6	0xb4f0ce60	-4.485364e-07
7	0x3734c165	1.0773864e-05
8	0xb74e9dc5	-1.231529e-05
9	0x3665b3bf	3.4228285e-06
10	0x35a07478	1.1954826e-06
11	0x371c336d	9.310298e-06
12	0xb68a280e	-4.1173835e-06
13	0x370d6cae	8.429559e-06
14	0x378bb24e	1.665312e-05
15	0xb671f251	-3.6052845e-06
16	0xb6b5338c	-5.400221e-06
17	0xb61d625e	-2.345208e-06
18	0xb636b871	-2.7227472e-06
19	0x36c4dacb	5.866726e-06
20	0x36cfcfec	6.193286e-06
21	0x35f0dd72	1.7945843e-06
22	0xb72d5077	-1.0330338e-05
23	0x372fbe5c	1.0475134e-05
24	0xb6293a75	-2.521699e-06
25	0xb64ee680	-3.083056e-06
26	0xb72278f8	-9.684118e-06
27	0x36b8e986	5.510813e-06
28	0x3691c8dd	4.3447203e-06
29	0xb6eb8102	-7.0185642e-06
30	0x35c76269	1.4855297e-06
31	0xb703851f	-7.839203e-06
32	0xb520523e	-5.9724323e-07
33	0x3748fca1	1.1979749e-05
34	0xb5109a9e	-5.386918e-07
35	0x375b66f6	1.307739e-05
36	0xb0fcded1	-1.8398741e-09
37	0x30c7c635	1.453549e-09
38	0xb0d620d1	-1.5579876e-09
39	0x30a822bc	1.2233481e-09
40	0x308ce458	1.025124e-09
41	0xb19c615e	-4.551267e-09
42	0xb1052b0d	-1.9378519e-09
43	0xb0e942b0	-1.6971935e-09
44	0x2d738187	1.3841712e-11
45	0xb0cd044e	-1.4916937e-09
46	0x30e7ab64	1.6856174e-09
47	0xb12c954d	-2.5114162e-09
48	0xafd44ba8	-3.8616332e-10
49	0xb0a41af3	-1.194023e-09
50	0xb141900d	-2.816708e-09
51	0x30b12666	1.2889358e-09
52	0x2d1da3bd	8.960774e-12
53	0xb0ce3b14	-1.5005264e-09
54	0x2feb52e4	4.2805148e-10
55	0xaf12cca7	-1.335133e-10
56	0xaf7cacac	-2.2980612e-10
57	0xaf742e8d	-2.2208209e-10
58	0xb0f63a77	-1.7915472e-09
59	0xaf5bcb7e	-1.9990229e-10
60	0x2e073b50	3.0748126e-11
61	0xb0243635	-5.9739885e-10
62	0x312d79a9	2.524397e-09
63	0xb095d6fe	-1.0902281e-09
64	0xaf2162ea	-1.4678006e-10
65	0xb08881ea	-9.932226e-10
66	0x302dbb40	6.320313e-10
67	0xb13eb531	-2.7751634e-09
68	0xb06827ed	-8.4457846e-10
69	0x2ef66eab	1.12064434e-10
70	0xb01fb0dc	-5.8095195e-10
71	0x2d4c2248	1.1603669e-11
72	0x3a1d74b8	0.0006006467
73	0xb97cdbd3	-0.00024114484
74	0xb941c638	-0.00018479757
75	0x393bce67	0.000179106
76	0xb8123547	-3.485873e-05
77	0xb8872458	-6.444071e-05
78	0xb9aa3e59	-0.0003247138
79	0x39b17110	0.0003384431
80	0xba442b12	-0.00074832246
81	0x38e41f45	0.000108777116
82	0xb94eb6e5	-0.00019713824
83	0x39194ce1	0.00014619857
84	0x39aff7af	0.0003356314
85	0xb9d46e62	-0.00040518033
86	0x39697be4	0.00022266764
87	0xb94d6596	-0.00019588167
88	0xb8336904	-4.277473e-05
89	0xb9c160c8	-0.00036883936
90	0x38ab55cf	8.1698985e-05
91	0x39909302	0.0002757535
92	0x390c41bb	0.00013375927
93	0x39718ae0	0.00023035286
94	0x3951399a	0.00019953251
95	0xb9d22a5c	-0.00040085881
96	0xb930fb2e	-0.0001687824
97	0x3844e5a8	4.6943926e-05
98	0x37435c70	1.1644428e-05
99	0x39ee1f3d	0.00045418172
100	0x3a10b90b	0.00055207376
101	0xb955ecd6	-0.00020401491
102	0xb8e1fa2f	-0.000107754364
103	0x39e86f08	0.00044333213
104	0x38683c58	5.536931e-05
105	0xb92c1f3e	-0.00016414837
106	0x38863238	6.398972e-05
107	0x38504066	4.965104e-05

exp_avg_sq f4 [108]
0	0x316c0006	3.4342533e-09
1	0x330012a8	2.981929e-08
2	0x32c30338	2.2702451e-08
3	0x325c8ae4	1.28372655e-08
4	0x334120b7	4.4966068e-08
5	0x323705ef	1.0653351e-08
6	0x32868bad	1.566317e-08
7	0x32aa191c	1.9802023e-08
8	0x32af2ca1	2.0392976e-08
9	0x32756219	1.4283182e-08
10	0x31b25147	5.189722e-09
11	0x3308680c	3.1759598e-08
12	0x32b77f6b	2.1361947e-08
13	0x330332e7	3.054711e-08
14	0x3394a5d4	6.921951e-08
15	0x32291f26	9.844177e-09
16	0x32867b27	1.5655656e-08
17	0x327af986	1.460865e-08
18	0x3227bda5	9.7637995e-09
19	0x3298d4fa	1.779198e-08
20	0x3172db20	3.5340193e-09
21	0x338751be	6.301296e-08
22	0x3277fbac	1.4434516e-08
23	0x34157e03	1.3922549e-07
24	0x31fe119a	7.394374e-09
25	0x3349a848	4.695201e-08
26	0x32bf6564	2.2281434e-08
27	0x32bcb566	2.1968571e-08
28	0x3335cb9d	4.232753e-08
29	0x327ab893	1.45938825e-08
30	0x31a48371	4.7879714e-09
31	0x339cc5cf	7.300297e-08
32	0x311f18a3	2.315155e-09
33	0x33029082	3.0399413e-08
34	0x32ddf4de	2.5839139e-08
35	0x32d73a2b	2.5055746e-08
36	0x2732188d	2.4715771e-15
37	0x2763871a	3.1575817e-15
38	0x2620236b	5.555915e-16
39	0x27dd1c16	6.1370273e-15
40	0x2560cd34	1.9498428e-16
41	0x281089a3	8.023451e-15
42	0x25916e21	2.5228117e-16
43	0x25636278	1.9722474e-16
44	0x27fd8ef9	7.0376618e-15
45	0x26f1bedf	1.677447e-15
46	0x2816350e	8.338177e-15
47	0x279ca1de	4.3474195e-15
48	0x259e6af9	2.7481118e-16
49	0x26b33df7	1.2437416e-15
50	0x259da817	2.734906e-16
51	0x2832f507	9.934117e-15
52	0x268d3372	9.797785e-16
53	0x24d5f514	9.2789204e-17
54	0x25118d6c	1.2624661e-16
55	0x242b4ca1	3.714462e-17
56	0x2685a034	9.272152e-16
57	0x24d42ddf	9.201805e-17
58	0x277516ec	3.4013006e-15
59	0x2533325d	1.5542839e-16
60	0x26e318fc	1.5758061e-15
61	0x277d51a1	3.5155054e-15
62	0x281ee3fa	8.8201964e-15
63	0x278dbd13	3.9340356e-15
64	0x2536f246	1.5868069e-16
65	0x25ecacd8	4.1056598e-16
66	0x261a3c17	5.351092e-16
67	0x27afdf9e	4.8814704e-15
68	0x24938483	6.397557e-17
69	0x258687a7	2.3337216e-16
70	0x26f6a3bc	1.7114059e-15
71	0x25a705bd	2.897377e-16
72	0x38e8cb8b	0.00011100535
73	0x375a860d	1.3025024e-05
74	0x394680aa	0.00018930683
75	0x3875bed0	5.859026e-05
76	0x389dbf8d	7.5220225e-05
77	0x3889c716	6.569752e-05
78	0x366ce3c4	3.5299317e-06
79	0x38178b4c	3.6130936e-05
80	0x38b43bef	8.594232e-05
81	0x372ef120	1.04273495e-05
82	0x39013bd9	0.00012324694
83	0x38a15ca7	7.694336e-05
84	0x38969cd7	7.181771e-05
85	0x3963312b	0.00021666723
86	0x3a094c7a	0.0005237531
87	0x390d9119	0.00013500861
88	0x3630118c	2.6236257e-06
89	0x3716c8d3	8.987455e-06
90	0x38e139eb	0.00010739624
91	0x37df88bf	2.6647349e-05
92	0x37feebc9	3.0388956e-05
93	0x37699db9	1.3924605e-05
94	0x37871a1a	1.6105409e-05
95	0x3800f66a	3.074707e-05
96	0x362b986b	2.5569705e-06
97	0x360cf3d9	2.1003564e-06
98	0x3561938e	8.403375e-07
99	0x37f5e1e5	2.9311466e-05
100	0x38f7bb74	0.00011812794
101	0x36c495c4	5.85869e-06
102	0x372df9b2	1.036974e-05
103	0x386ced20	5.6487625e-05
104	0x38c04a90	9.169162e-05
105	0x3896b89f	7.186946e-05
106	0x393b3b1c	0.0001785573
107	0x37b4810f	2.151777e-05
