SensorFormer/SensorFormer/result/individual/LCS11_10.pt (torch, 81844 bytes, 35 tensors)

self_attn.qkv_proj.weight f4 [108, 36]
0	0x3d87eb9f	0.06636738
1	0xbe23b851	-0.1598828
2	0xbe4b19e3	-0.19834094
3	0xbb30aa73	-0.0026957064
4	0xbe016503	-0.12636189
5	0x3e1baf30	0.15203547
6	0x3e3502e6	0.17676887
7	0x3e4a0c1c	0.19731182
8	0xbe3353bd	-0.17512412
9	0xbcc64f30	-0.024207681
10	0xbd3ac3be	-0.04559683
11	0xbe38aee4	-0.18035465
12	0x3d6a6d18	0.057232946
13	0x3e053c4f	0.13011287
14	0xbd51acc7	-0.051190164
15	0x3e1890a5	0.14898928
16	0xbe45f7d2	-0.19332817
17	0xbe082a98	-0.13297498
18	0x3e1aeffd	0.15130611
19	0x3e33e140	0.17566395
20	0xbd8c4975	-0.06849948
21	0xbdebdb3c	-0.11516425
22	0x3e1fb961	0.1559806
23	0xbd8c4185	-0.06848434
24	0xbd3a6af4	-0.045512155
25	0xbc709085	-0.014682894
26	0x3d6570f7	0.056015935
27	0x3e05c24d	0.13062401
28	0x3d1991ec	0.037492678
29	0x3e128fb5	0.14312632
30	0xbd9e7777	-0.0773763
31	0xbdfcc96a	-0.12343104
32	0x3e17f77e	0.14840505
33	0xbe0a5f36	-0.13512883
34	0x3c72c721	0.014817984
35	0xbe15f922	-0.14645818
36	0x3da1c978	0.07899755
37	0xbc5bbc04	-0.013411526
38	0xbdaa059d	-0.08301852
39	0xbc8193be	-0.01581752
40	0xbe06ac18	-0.13151586
41	0x3ddefd0e	0.1088811
42	0x3e51d2dc	0.20490593
43	0x3db1fa0b	0.0869027
44	0xbd07563a	-0.033041216
45	0x3e4e8a11	0.20169856
46	0xbdaa7829	-0.083237
47	0x3da2a320	0.0794127
48	0xbe5117ad	-0.20419188
49	0x3e6bf662	0.23043206
50	0x3ae70f0a	0.0017628383
51	0x3d8cc1f6	0.068729326
52	0x3dc5a8ca	0.096513346
53	0x3dd41ccd	0.10357056
54	0x3e540496	0.20704874
55	0xbcca6bf9	-0.024709688
56	0x3de8bf4e	0.113646135
57	0xbc9ff144	-0.019524224
58	0xbdc5033d	-0.09619758
59	0x3dbba31b	0.09161969
60	0xbd9a9431	-0.075477965
61	0xbd9fd2ee	-0.078039035
62	0x3c82bda5	0.01595957
63	0x3e0ccac8	0.1374923
64	0xbe0784d8	-0.1323427
65	0x3dc33270	0.095311046
66	0x3dd34f53	0.10317864
67	0x3d785642	0.060629137
68	0xbe33e293	-0.175669
69	0xbe246841	-0.16055395
70	0x3e4685b8	0.19386947
71	0x3e5e1106	0.21686181
72	0x3e6ffd35	0.23436435
73	0xbcb99078	-0.022651896
74	0x3d0f6250	0.035005867
75	0xbd0873bc	-0.033313498
76	0xbdfc5289	-0.1232043
77	0xbdddc5e8	-0.10828763
78	0xbe48f352	-0.1962407
79	0xbdaaa2d3	-0.083318375
80	0x3d135854	0.03597291
81	0xbe627706	-0.22115716
82	0xbd4b42b2	-0.049624152
83	0xbd7ff991	-0.062493864
84	0xbe2c4260	-0.16822195
85	0xbe68ebcd	-0.22746201
86	0x3e3b8773	0.18313389
87	0x3cadb409	0.021204012
88	0xbd4c0221	-0.049806718
89	0x3e607321	0.21918918
90	0xbe181878	-0.14853084
91	0xbd4beb45	-0.049784917
92	0x3d92e561	0.07172657
93	0x3e51e299	0.20496596
94	0xbe63a068	-0.22229159
95	0xbe086993	-0.13321523
96	0xbdeca005	-0.11553959
97	0xbe5f14d7	-0.21785294
98	0xbe1df545	-0.15425594
99	0x3e0aaacf	0.13541721
100	0xbe27dc41	-0.16392614
101	0xbdb0f579	-0.0864057
102	0xbe0cbc76	-0.13743767
103	0xbe3f2e8a	-0.18670097
104	0xbe07d284	-0.13263899
105	0xbdb19938	-0.08671802
106	0xbe26ecec	-0.16301316
107	0x3e10d3ab	0.14143245
108	0x3e36e36a	0.17860189
109	0xbd9c6726	-0.076368615
110	0x3cef2406	0.029191982
111	0xbdd8282c	-0.10554537
112	0x3d297374	0.04136987
113	0xbdbc2bd0	-0.09188044
114	0x3e576aa4	0.21036774
115	0x3d9d2777	0.07673543
116	0xbd995e26	-0.074886605
117	0x3e2ffc36	0.17186055
118	0xbdd5a595	-0.10431973
119	0xbe2ea7b9	-0.17056169
120	0xbd986e69	-0.07442934
121	0xbcefe631	-0.029284569
122	0x3d95b7c5	0.07310442
123	0xbdf19cc5	-0.117974795
124	0x3da8aca5	0.08236054
125	0x3e2c24c5	0.16810901
126	0xbd236f2e	-0.03990095
127	0xbe769df6	-0.24083695
128	0x3e2724d3	0.16322641
129	0xbe0754e1	-0.13215972
130	0xbe1e634a	-0.15467563
131	0x3d99cb52	0.075094834
132	0xbe2779c8	-0.1635505
133	0x3e05657c	0.13026994
134	0xbdbb9dbc	-0.09160945
135	0x3d35e185	0.044404525
136	0x3e3d7a62	0.18503717
137	0xbd53fd9f	-0.051755544
138	0x3d5b5c60	0.053554893
139	0x3db501ba	0.0883822
140	0xbdd0cbb2	-0.10195102
141	0xbe23aea4	-0.15984589
142	0xbe143b6d	-0.14475794
143	0xbcbb249e	-0.022844609
144	0xbcb00727	-0.021487786
145	0x3d9adee0	0.07562041
146	0xbe2de600	-0.1698227
147	0xbdc50e7d	-0.09621904
148	0x3e36c622	0.17849019
149	0x3e2d0735	0.1689728
150	0xbe29aac9	-0.16569056
151	0xbcb805a2	-0.022463623
152	0x3e0e4839	0.13894738
153	0xbe276f10	-0.1635096
154	0x3d3b02c7	0.045656946
155	0x3e36924b	0.17829244
156	0x3de0de9f	0.109799616
157	0xbe08fb2b	-0.13377063
158	0xbcc336be	-0.023829814
159	0xbe2f28bf	-0.17105387
160	0x3e3a49bc	0.1819219
161	0x3d24807c	0.040161595
162	0xbcbfbdac	-0.023405872
163	0xbd924348	-0.07141739
164	0xbd02b437	-0.031910148
165	0xbdb7d196	-0.08975522
166	0x3c9010fc	0.017586224
167	0x3d9ba521	0.07599855
168	0x3dcf3274	0.10117045
169	0xbe256db5	-0.16155131
170	0x3e40f44f	0.18843196
171	0xbe47c6f2	-0.19509485
172	0x3d62a017	0.055328455
173	0x3dcb0f1a	0.0991499
174	0x3b17be45	0.002315418
175	0xbd760e17	-0.06007203
176	0xbdf513e7	-0.11966687
177	0xbd4be058	-0.049774498
178	0xbda59587	-0.08085161
179	0x3e2c0d52	0.16801956
180	0x3e4cdffc	0.20007318
181	0x3e0014d2	0.12507942
182	0x3e5738a8	0.21017706
183	0x3dff2578	0.124583185
184	0xbd8f1841	-0.06987048
185	0x3d6cfd32	0.057858653
186	0x3d38e12b	0.045136612
187	0xbc814029	-0.015777664
188	0x3e6270e0	0.22113371
189	0x3ca342a9	0.019929247
190	0x3d04217c	0.032258496
191	0x3d81ffc7	0.06347614
192	0xbdce28d6	-0.100663826
193	0x3cf35b7b	0.029706707
194	0xbc0f214a	-0.008735964
195	0x3d9a03f6	0.07520287
196	0xbdd01f43	-0.10162213
197	0x3e5069dc	0.20352882
198	0x3d18c914	0.037301138
199	0xbe0093cd	-0.12556382
200	0x3d0576e6	0.032584094
201	0xbb08b179	-0.0020857735
202	0xbe78db68	-0.24302447
203	0xbd0be7d2	-0.034156628
204	0x3d3f8e6c	0.046766683
205	0xbdec0b6f	-0.11525618
206	0x3d079588	0.03310159
207	0x3e247513	0.16060285
208	0xbd7f6695	-0.06235369
209	0xbe5b837c	-0.21436876
210	0xbd5586b7	-0.052130427
211	0xbe517c4c	-0.20457572
212	0xbcbc275d	-0.022967989
213	0x3db2c7ea	0.08729537
214	0x3e090414	0.13380462
215	0x3c6f3743	0.014600578
216	0xbc738ab6	-0.014864614
217	0x3d4b6cd4	0.049664333
218	0x3dfc95f2	0.12333287
219	0xbe4c8152	-0.19971207
220	0x3e5eef9b	0.2177109
221	0x3d5a9e0f	0.053373393
222	0x3d5a5069	0.05329934
223	0x3b1cc01b	0.0023918215
224	0xbe35de8f	-0.1776068
225	0x3e57307f	0.21014594
226	0xbc28735f	-0.010281413
227	0x3cc8e433	0.024522876
228	0x3bfd4109	0.0077287
229	0x3e2c1ddd	0.16808267
230	0x3ce676b3	0.028132772
231	0x3bd73e07	0.0065686735
232	0x3dc7cda6	0.09756021
233	0xbd8139e7	-0.06309872
234	0x3e63c7de	0.22244212
235	0xbe4d164a	-0.20028034
236	0x3da2d498	0.07950705
237	0xbd5b2133	-0.053498458
238	0x3c0f2cf6	0.008738747
239	0x3d8da897	0.069169216
240	0x3dbcc6f0	0.09217632
241	0x3e4195ad	0.18904753
242	0xbe0d93be	-0.1382589
243	0x3e12e8bb	0.14346592
244	0x3b88df96	0.004177044
245	0xbe062fb6	-0.13104138
246	0xbe14fc12	-0.14549282
247	0x3d265965	0.040612597
248	0xbe26ba36	-0.16281971
249	0xbe3a1a4f	-0.18174098
250	0x3d3491d4	0.044084385
251	0xbdf542a6	-0.11975603
252	0x3e10e496	0.14149699
253	0x3dc01c8f	0.09380447
254	0xbd88ec1d	-0.0668566
255	0x3c9c9a4c	0.019116543

self_attn.qkv_proj.bias f4 [108]
0	0x3ccd3133	0.025047874
1	0x3cd8229c	0.02638369
2	0xbcefc9ac	-0.02927097
3	0x3cc09c2d	0.02351197
4	0xbc07dcfd	-0.008292434
5	0xbd240454	-0.04004319
6	0x3c40bcb0	0.011763737
7	0xbcbc6034	-0.022995092
8	0xbcfd998a	-0.030957002
9	0x3cab3ab7	0.02090202
10	0x3cea49d7	0.028599663
11	0x3c42fec0	0.011901557
12	0x3c2341a4	0.00996438
13	0x3c2dab1c	0.010599878
14	0xbc434ec5	-0.011920636
15	0x3c5f67e4	0.013635609
16	0x3c6bb605	0.014386659
17	0xbca7b062	-0.020469848
18	0x3ca00de8	0.019537881
19	0xbcf9dfc6	-0.030502211
20	0x3b13dec6	0.0022563203
21	0xbd0fbef8	-0.03509423
22	0xbd2cd652	-0.04219658
23	0xbc529b8f	-0.012854471
24	0xbcf2d0d6	-0.029640596
25	0xbd29ec71	-0.041485254
26	0x3cd6b383	0.026208645
27	0xb9f0bfc4	-0.00045919244
28	0xbd112d78	-0.035443753
29	0xbcb42d0d	-0.021994138
30	0x3ceb17e3	0.028697914
31	0xbd2e1843	-0.042503607
32	0xbd04d3a1	-0.032428388
33	0x3cb38a4a	0.021916527
34	0x3c50170a	0.012700805
35	0xbd0da09a	-0.03457699
36	0xbc2d2296	-0.010567328
37	0xbbfc5f31	-0.0077017774
38	0x3bc7ede3	0.0061013564
39	0xbc69eb71	-0.014277325
40	0xbae70ba7	-0.0017627374
41	0x3c6e2adb	0.014536585
42	0xbbfa401e	-0.007637038
43	0x3b80f303	0.0039352193
44	0xbb12a826	-0.0022378056
45	0xbc7253f8	-0.0147905275
46	0xbc4b1f36	-0.012397578
47	0x3c764f77	0.015033594
48	0xbc0f2446	-0.008736676
49	0x3bcb88fe	0.006211399
50	0x3c5a0fc1	0.01330942
51	0x3c24ebf9	0.010066026
52	0xba9c0459	-0.0011903151
53	0x3ba0599e	0.0048934957
54	0x3c706c04	0.01467419
55	0xbbcd108d	-0.0062580765
56	0xb973a0fd	-0.00023234259
57	0x3c3fadb9	0.011699134
58	0x3c1998c1	0.009374798
59	0x3cac1f49	0.021011012
60	0x3c591f68	0.013252117
61	0x3c5fe5d6	0.013665637
62	0x3ba91f67	0.005161214
63	0xbc94cada	-0.018163133
64	0x3c6a6101	0.014305354
65	0x3b2549e6	0.002522105
66	0xbc3907c5	-0.011293356
67	0x3c37c71c	0.011216905
68	0x3b52dc27	0.0032174678
69	0xbc4d3d10	-0.0125267655
70	0xbb98e56e	-0.004666022
71	0x3c2a9ae0	0.010412902
72	0x3d3dc82c	0.046333477
73	0xbd550fe5	-0.05201711
74	0xbd84ba6a	-0.06480868
75	0xbcc330c4	-0.023826964
76	0xbc170568	-0.009217598
77	0xbca66916	-0.02031378
78	0xbcf171a9	-0.029473143
79	0xbdad6e83	-0.08468344
80	0xbd85832d	-0.065191604
81	0x3d8879f9	0.066638894
82	0x3d407261	0.04698408
83	0x3ccabaf3	0.024747347
84	0x3d660306	0.056155227
85	0x3d0e4bb8	0.03474018
86	0xbd0179bc	-0.031610236
87	0x3d475951	0.048669163
88	0x3cc6a12f	0.02424678
89	0xbd93ae51	-0.072109826
90	0x3c8bc4ca	0.01706161
91	0x3d3423a1	0.04397929
92	0xbd788b20	-0.060679555
93	0x3d248b71	0.040172044
94	0xbc17ecbc	-0.0092727505
95	0x3d581ec1	0.052763704
96	0xbd2e47da	-0.04254899
97	0x3d56f7a5	0.052482266
98	0x3d2b3a01	0.041803364
99	0xbb9f3cbb	-0.0048595346
100	0x3d5b5c04	0.05355455
101	0xbd7ae90c	-0.061257407
102	0xbd2abe02	-0.04168511
103	0xbcc6e4a5	-0.024278948
104	0xbc86d3f2	-0.016458485
105	0x3d3805c0	0.04492736
106	0x3d3ae81e	0.04563152
107	0xbd726459	-0.05917773

self_attn.o_proj.weight f4 [36, 36]
0	0x3dbfdf92	0.093688145
1	0xbdf37b00	-0.11888695
2	0xbde26d34	-0.11055985
3	0xbd5e6af1	-0.054301206
4	0x3e13fb16	0.1445125
5	0x3e38f28d	0.18061276
6	0xbe1915af	-0.14949678
7	0x3e565f4f	0.20934795
8	0xbe812d5e	-0.25229925
9	0xbd8d090b	-0.068864904
10	0xbe73f12b	-0.23822467
11	0xbea0592c	-0.31318033
12	0x3daa3d11	0.08312429
13	0x3e5b2e2b	0.2140433
14	0x3cdc16d2	0.02686635
15	0xbdd5efe4	-0.10446146
16	0x3eb06ba7	0.34457132
17	0x3c949982	0.018139604
18	0x3da00b9b	0.078147136
19	0x3e3dd706	0.18539056
20	0xbe914be7	-0.2837822
21	0xbbec2c5d	-0.007207437
22	0x3e9071c5	0.282118
23	0x3e8e231f	0.2776117
24	0x3d504924	0.050851002
25	0x3de5b027	0.11215239
26	0x3e47170e	0.19442388
27	0xbd836b8c	-0.06416997
28	0x3e8034e8	0.25040364
29	0xbd8da5cb	-0.06916388
30	0xbe446018	-0.19177282
31	0xbe00adc1	-0.12566282
32	0xbe56253f	-0.20912646
33	0xbc949621	-0.018137993
34	0x3d89503c	0.067047566
35	0xbd32a273	-0.043611955
36	0xbe35c2a6	-0.17750034
37	0x3c510f9d	0.01276007
38	0x3e7e023b	0.24805538
39	0x3c94751e	0.018122252
40	0xbdc47c43	-0.095940135
41	0xbe118d45	-0.14214046
42	0x3e8a5364	0.27016747
43	0xbe32ea80	-0.17472267
44	0xbcb1696a	-0.02165671
45	0xbd057b65	-0.03258838
46	0xbe8b102f	-0.27160785
47	0xbb8b2586	-0.0042464165
48	0x3daf1b06	0.08550076
49	0x3e411a91	0.1885779
50	0x3c62af3d	0.013835725
51	0x3e2ac28a	0.16675773
52	0xbe51b7b8	-0.2048024
53	0xbd4d9df1	-0.050199453
54	0x3d143861	0.03618658
55	0x3e91d4b5	0.28482595
56	0x3d8cd701	0.06876946
57	0xbe2220c7	-0.15832816
58	0x3e24df7a	0.16100875
59	0x3e8f09d4	0.27937186
60	0x3e944991	0.28962377
61	0x3da07a5e	0.0783584
62	0x3e91a69f	0.28447434
63	0xbdec16cc	-0.11527786
64	0xbe2409b5	-0.16019328
65	0xbe53ea7e	-0.2069492
66	0x3e7a1e6a	0.24425665
67	0xbe3b8bb2	-0.18315008
68	0x3d519233	0.051164817
69	0xbe5855f9	-0.21126546
70	0xbe31b231	-0.17353131
71	0xbe1ac23b	-0.15113156
72	0x3d9eeab6	0.07759611
73	0x3df8309c	0.121186465
74	0x3e138f17	0.14410053
75	0x3dc680bf	0.09692525
76	0xbd3bd7c8	-0.045860082
77	0x3e0f9b3c	0.14024061
78	0x3e7451fb	0.23859398
79	0xbdf3deaf	-0.11907708
80	0xbd832f00	-0.06405449
81	0x3e7bd982	0.24594691
82	0x3ea07325	0.31337848
83	0xbe939656	-0.28825635
84	0xbe4efad2	-0.20212868
85	0x3e6230f1	0.22088982
86	0xbe046b09	-0.12931456
87	0x3e464c1a	0.19364968
88	0xbe610cbe	-0.21977517
89	0xbdfe5ed0	-0.12420428
90	0x3e238836	0.15969929
91	0xbdef1a4d	-0.11674938
92	0x3e1051f5	0.14093764
93	0x3e51ee49	0.20501055
94	0xbd70258a	-0.05862955
95	0x3ea3731a	0.31923753
96	0x3a1fdb0e	0.00060980103
97	0x3e06d4de	0.1316714
98	0xbd1a0f12	-0.03761203
99	0x3e26038f	0.16212295
100	0xbe554745	-0.20827968
101	0x3de010bf	0.10940694
102	0xbd44378d	-0.04790454
103	0xbe9563dd	-0.29177752
104	0x3e88cb71	0.26717713
105	0x3ea78666	0.32719725
106	0x3e4a6e04	0.1976853
107	0xbea12c76	-0.31479234
108	0xbd0f7a09	-0.03502849
109	0x3e852a98	0.2600906
110	0x3e6a762c	0.22896641
111	0xbe739b81	-0.23789789
112	0x3d159987	0.03652337
113	0xbe0d203a	-0.13781825
114	0xbe1fa14c	-0.15588874
115	0xbc438afb	-0.011934991
116	0xbe21a624	-0.15786034
117	0xbe5a4995	-0.21317132
118	0x3e3682a4	0.17823273
119	0xbe528741	-0.20559408
120	0x3e3282cf	0.17432712
121	0xbcaebd7b	-0.021330586
122	0xbdeddd92	-0.11614527
123	0xbdd884bb	-0.10572191
124	0xbd855907	-0.06511121
125	0xbdc6d5a1	-0.09708715
126	0xbdc40d34	-0.09572831
127	0xbc377974	-0.01119839
128	0xbdd4465d	-0.10364983
129	0x3dd542cb	0.104131304
130	0xbcabcd1c	-0.020971827
131	0x3e1c6aef	0.15275167
132	0xbd215a50	-0.03939277
133	0xbd8d4efa	-0.06899829
134	0xbd93e40a	-0.072212294
135	0x3e82251c	0.25418937
136	0x3e891eda	0.2678135
137	0xbe216a6c	-0.15763253
138	0xbe8e52b4	-0.27797472
139	0x3decf95b	0.11570998
140	0x3e995d43	0.29953966
141	0xbd4995cd	-0.049215127
142	0x3cd4f4a9	0.02599557
143	0xbe47706e	-0.19476482
144	0xbdfa6128	-0.12225562
145	0x3e5e5c50	0.21714902
146	0xbbda0f2d	-0.006654641
147	0x3e7cd0b2	0.24688986
148	0x3e330089	0.17480673
149	0x3eaad769	0.3336747
150	0x3ea68f45	0.3253118
151	0x3dafe606	0.08588795
152	0x3eaeb11c	0.341195
153	0xbd6f58c2	-0.058434255
154	0x3e1d68dd	0.15372033
155	0xbdb8e7df	-0.09028601
156	0x3e1ba124	0.15198189
157	0x3e3c5bc7	0.18394385
158	0x3eac3a2f	0.3363814
159	0x3e34ff56	0.17675528
160	0x3de45fa4	0.111510545
161	0xbd98ed3e	-0.07467125
162	0x3d2efaf3	0.042719793
163	0x3d5a825d	0.05334698
164	0x3e4eae17	0.20183598
165	0x3dbd5a75	0.09245769
166	0x3df12fd5	0.11776701
167	0xbe2706af	-0.16311143
168	0x3d95c728	0.07313377
169	0x3e07a6d5	0.13247235
170	0xbe1327c7	-0.14370643
171	0x3df58db6	0.1198992
172	0xbe548717	-0.20754658
173	0x3e273578	0.1632899
174	0x3e0ff2bf	0.14057444
175	0xbe251f8b	-0.16125314
176	0xbeacafec	-0.33727968
177	0xbe6b472a	-0.22976366
178	0xbdc94176	-0.09826939
179	0xbdbb3540	-0.09141016
180	0xbe4bf7e7	-0.19918786
181	0x3d89dedc	0.0673196
182	0x3d087690	0.033316195
183	0x3a21343b	0.00061494455
184	0x3d8a7ff0	0.067626834
185	0x3e18d7b0	0.14926028
186	0x3e64612d	0.22302695
187	0xbbca33f1	-0.0061707427
188	0x3db5e4f8	0.08881563
189	0xbc209be9	-0.009802797
190	0x3ce17987	0.027523769
191	0xbe751365	-0.2393318
192	0xbeaf582c	-0.34246957
193	0xbd5d523b	-0.0540335
194	0xbd708c5d	-0.05872761
195	0xbe4c88d6	-0.19974074
196	0xbda428e9	-0.080156155
197	0x3e4e2bca	0.20133892
198	0x3e8bc3d9	0.27297857
199	0xbe12b13b	-0.1432542
200	0x3e2b0352	0.16700485
201	0xbe45c5e0	-0.19313765
202	0xbe92a214	-0.2863928
203	0xbe926aad	-0.28597012
204	0x3d1e07ac	0.038581535
205	0x3e55d0d9	0.2088045
206	0x3e990b4c	0.2989143
207	0xbe0e6455	-0.13905461
208	0xbe83aaba	-0.25716192
209	0xbe4b70c4	-0.19867235
210	0xbe07332f	-0.13203119
211	0xbe1c6a99	-0.15275039
212	0x3c008716	0.007844707
213	0xbe970dab	-0.29502615
214	0x3a6752fe	0.00088243175
215	0xbaf15528	-0.0018412219
216	0x3e1c0934	0.15237886
217	0xbe47b535	-0.19502719
218	0x3e4e2a2a	0.20133272
219	0xbe895c77	-0.26828358
220	0xbe2a3c7e	-0.16624638
221	0xbe834311	-0.25637105
222	0x3e5a7f36	0.2133759
223	0x3d8bf1ec	0.06833252
224	0xbe13cdde	-0.14434001
225	0x3d980175	0.07422153
226	0xbe311350	-0.17292523
227	0xbe3e2cbc	-0.18571752
228	0x3e866ddd	0.26255694
229	0xbe36ef11	-0.17864634
230	0xbe88d9b1	-0.26728585
231	0x3e9048ee	0.2818064
232	0x3e58ab2e	0.2115905
233	0x3d8ff150	0.070284486
234	0x3c8ecb24	0.01743085
235	0x3dd20227	0.10254317
236	0xbca6ede6	-0.02037711
237	0x3e2177f9	0.15768422
238	0xbdb19637	-0.08671229
239	0x3d58dd80	0.052945614
240	0x3e115991	0.14194323
241	0x3e4d3a1b	0.20041697
242	0xbdd823d0	-0.10553706
243	0xbe8173c8	-0.25283647
244	0xbe702e1b	-0.23455088
245	0xbdb80612	-0.08985533
246	0x3e168c78	0.14702022
247	0xbe0f4fcb	-0.13995282
248	0x3d627b67	0.055293467
249	0x3e42939e	0.19001624
250	0x3e7908da	0.24319783
251	0x3e2ef7d5	0.17086728
252	0xbdcdc460	-0.10047221
253	0x3df092d0	0.11746752
254	0x3e087bf6	0.13328537
255	0x3d5553d5	0.0520819

self_attn.o_proj.bias f4 [36]
0	0x3d4ae8dd	0.049538482
1	0xbae27add	-0.0017279048
2	0x3d369626	0.044576786
3	0x3bf6d571	0.0075327684
4	0xbd54eb57	-0.05198225
5	0xbd5e7833	-0.05431385
6	0x3c983317	0.018579049
7	0x3d715ec9	0.058928285
8	0x3d865ca6	0.0656064
9	0xbd41ed20	-0.04734528
10	0xbc9857b8	-0.018596515
11	0xbd090f9a	-0.033462144
12	0x3d13a011	0.036041323
13	0x3d4a1b78	0.049342602
14	0x3b5e50e5	0.0033922729
15	0x3d1ab620	0.037771344
16	0xbcb91040	-0.022590756
17	0xbca101ef	-0.019654242
18	0x3d1b47d3	0.037910294
19	0xbd60a5d7	-0.054845657
20	0x3cb4a49b	0.022051146
21	0xbcb7004c	-0.022339009
22	0x3d57317d	0.05253743
23	0xbcde39c4	-0.027127154
24	0x3d49d6d0	0.049277127
25	0xbd7eba98	-0.06218967
26	0xbd1cf1dd	-0.038316596
27	0xbccbf53f	-0.024897216
28	0x3d4e8a9d	0.05042516
29	0x3cd5e2f1	0.02610919
30	0xbd008c6f	-0.031383928
31	0xbd5629e9	-0.052286062
32	0xbd3c401d	-0.04595958
33	0xbd10dd78	-0.03536746
34	0xbd66c462	-0.05633963
35	0x3cfba74e	0.030719426

fc.weight f4 [1, 18]
0	0x3e371d30	0.17882228
1	0xbe40ff5f	-0.18847416
2	0xbc72d03a	-0.014820153
3	0x3dcad8d5	0.09904639
4	0x3ce0b27d	0.02742886
5	0x3e288673	0.16457538
6	0xbe47d4cc	-0.1951477
7	0xbd1ec7e3	-0.038764846
8	0x3e15b1c9	0.14618601
9	0xbd709b92	-0.058742113
10	0xbe0fcd12	-0.14043072
11	0x3cccc703	0.02499724
12	0x3e6f3d62	0.2336326
13	0x3c987db7	0.018614633
14	0xbdd1b576	-0.10239689
15	0xbe63bc05	-0.22239693
16	0x3dace7c4	0.08442643
17	0xbe4da6b7	-0.20083128

fc1.weight f4 [1, 36]
0	0x3dc8e6d3	0.09809651
1	0xbe9e5641	-0.30925182
2	0x3dee6a99	0.11641426
3	0x3e8f0a9e	0.27937788
4	0xbeb559a0	-0.3541994
5	0xbd4b4c24	-0.04963316
6	0x3eb890b0	0.36047888
7	0x3e825f21	0.25463203
8	0x3e67a7c1	0.22622587
9	0x3e0a9543	0.13533501
10	0x3e52623b	0.20545284
11	0xbecab103	-0.39588174
12	0x3e9660d4	0.2937075
13	0x3ec41cb4	0.3830315
14	0x3e6344a4	0.22194153
15	0x3e8a081e	0.26959318
16	0xbeb63294	-0.35585463
17	0xbebad946	-0.3649389
18	0x3e91f353	0.28505954
19	0xbe826cbc	-0.25473583
20	0x3eb4f640	0.35344124
21	0xbd1218b6	-0.035668097
22	0x3eb7e348	0.3591559
23	0xbec2650a	-0.37967712
24	0x3eb1809c	0.34668434
25	0xbe99409c	-0.29932106
26	0xbed6b9a5	-0.4193851
27	0xbea1cfdc	-0.31603897
28	0x3ec15be4	0.3776542
29	0x3eba599c	0.36396492
30	0xbec9acf4	-0.39389765
31	0xbe677714	-0.22604018
32	0xbedb1eb3	-0.4279686
33	0xbeb29eb6	-0.34886712
34	0xbeb46a0c	-0.35237157
35	0x3e99b6b3	0.300222

fc2.weight f4 [1, 9]
0	0xbd7e53d6	-0.06209167
1	0xbd95bdf6	-0.07311623
2	0x3e7943cb	0.24342267
3	0x3e562ae6	0.20914802
4	0x3ea08306	0.31349963
5	0x3e4fecde	0.20305201
6	0x3d103ca0	0.035214067
7	0xbe8b48c6	-0.2720396
8	0xbd691df6	-0.05691334

fc3.weight f4 [1, 2]
0	0x3f2dfb83	0.679619
1	0xbe57a877	-0.21060358

input_fc.weight f4 [18, 3]
0	0xbf001f1b	-0.50047463
1	0xbe59a908	-0.21255887
2	0x3e0fccd7	0.14042984
3	0x3ecdc6f1	0.40190843
4	0xbe953d89	-0.2914851
5	0xbf14b64e	-0.58090675
6	0xbc327f01	-0.010894538
7	0x3d92ae2d	0.07162128
8	0xbf024ae4	-0.50895524
9	0x3e8096f6	0.25115174
10	0xbd96dacc	-0.07365951
11	0xbdf571e1	-0.11984611
12	0xbebdac94	-0.3704573
13	0xbe3b9de6	-0.18321952
14	0x3ea5a2f9	0.323509
15	0x3e2dffff	0.16992186
16	0x3edcde6b	0.4313844
17	0x3eba7855	0.3641993
18	0x3d22a47d	0.03970765
19	0x3edaaac6	0.42708415
20	0xbe0553a3	-0.13020186
21	0x3e92c20d	0.28663674
22	0xbe5f2967	-0.21793137
23	0xbdab2d3b	-0.083582364
24	0x3cd19ccc	0.025587462
25	0xbe01b3e3	-0.12666278
26	0xbe12e19f	-0.1434388
27	0x3e4a04e7	0.19728433
28	0xbeab0aa6	-0.33406562
29	0x3edb114f	0.42786643
30	0x3f037f30	0.5136595
31	0x3e8ca02f	0.2746596
32	0xbeca72da	-0.3954075
33	0x3d6c59ed	0.057702947
34	0xbe71a6d3	-0.23598795
35	0xbe22b43c	-0.15889066
36	0x3dac740d	0.084205724
37	0xbda46fd9	-0.08029146
38	0xbe257d72	-0.16161135
39	0x3eb3be58	0.35106158
40	0x3ee26737	0.44219372
41	0xbc181739	-0.00928288
42	0xbe94d545	-0.29068962
43	0xbe01043d	-0.12599273
44	0x3ee12cf0	0.43979597
45	0xbf00ec37	-0.50360435
46	0x3c6160de	0.013756005
47	0xbe6d53c7	-0.2317649
48	0x3dac7f69	0.08422739
49	0xbef18010	-0.47168016
50	0xbdb14c87	-0.086571746
51	0x3e143cad	0.14476271
52	0xbe0de705	-0.13857658
53	0xbe5395e2	-0.20662645

input_fc.bias f4 [18]
0	0x3d6bf668	0.05760804
1	0xbe9715e5	-0.29508892
2	0xbebefa9e	-0.3730058
3	0x3ead13fa	0.33804303
4	0xbd948cc1	-0.07253409
5	0x3e79d5a1	0.24397899
6	0x3e3b1eb8	0.18273437
7	0x3e549cfb	0.20763008
8	0x3dbc2bd0	0.09188044
9	0x3f162c72	0.5866157
10	0xbed5624f	-0.41676566
11	0x3ee28110	0.44239092
12	0x3d56c068	0.052429587
13	0xbd3a611c	-0.045502767
14	0x3db1156d	0.08646665
15	0x3c87c99c	0.016575627
16	0xbe5f71af	-0.2182071
17	0xbf16a800	-0.588501

norm.weight f4 [36]
0	0x3f800000	1.0
1	0x3f800000	1.0
2	0x3f800000	1.0
3	0x3f800000	1.0
4	0x3f800000	1.0
5	0x3f800000	1.0
6	0x3f800000	1.0
7	0x3f800000	1.0
8	0x3f800000	1.0
9	0x3f800000	1.0
10	0x3f800000	1.0
11	0x3f800000	1.0
12	0x3f800000	1.0
13	0x3f800000	1.0
14	0x3f800000	1.0
15	0x3f800000	1.0
16	0x3f800000	1.0
17	0x3f800000	1.0
18	0x3f800000	1.0
19	0x3f800000	1.0
20	0x3f800000	1.0
21	0x3f800000	1.0
22	0x3f800000	1.0
23	0x3f800000	1.0
24	0x3f800000	1.0
25	0x3f800000	1.0
26	0x3f800000	1.0
27	0x3f800000	1.0
28	0x3f800000	1.0
29	0x3f800000	1.0
30	0x3f800000	1.0
31	0x3f800000	1.0
32	0x3f800000	1.0
33	0x3f800000	1.0
34	0x3f800000	1.0
35	0x3f800000	1.0

norm.bias f4 [36]
0	0x00000000	0.0
1	0x00000000	0.0
2	0x00000000	0.0
3	0x00000000	0.0
4	0x00000000	0.0
5	0x00000000	0.0
6	0x00000000	0.0
7	0x00000000	0.0
8	0x00000000	0.0
9	0x00000000	0.0
10	0x00000000	0.0
11	0x00000000	0.0
12	0x00000000	0.0
13	0x00000000	0.0
14	0x00000000	0.0
15	0x00000000	0.0
16	0x00000000	0.0
17	0x00000000	0.0
18	0x00000000	0.0
19	0x00000000	0.0
20	0x00000000	0.0
21	0x00000000	0.0
22	0x00000000	0.0
23	0x00000000	0.0
24	0x00000000	0.0
25	0x00000000	0.0
26	0x00000000	0.0
27	0x00000000	0.0
28	0x00000000	0.0
29	0x00000000	0.0
30	0x00000000	0.0
31	0x00000000	0.0
32	0x00000000	0.0
33	0x00000000	0.0
34	0x00000000	0.0
35	0x00000000	0.0

norm1.weight f4 [9]
0	0x3f800000	1.0
1	0x3f800000	1.0
2	0x3f800000	1.0
3	0x3f800000	1.0
4	0x3f800000	1.0
5	0x3f800000	1.0
6	0x3f800000	1.0
7	0x3f800000	1.0
8	0x3f800000	1.0

norm1.bias f4 [9]
0	0x00000000	0.0
1	0x00000000	0.0
2	0x00000000	0.0
3	0x00000000	0.0
4	0x00000000	0.0
5	0x00000000	0.0
6	0x00000000	0.0
7	0x00000000	0.0
8	0x00000000	0.0

norm2.weight f4 [9]
0	0x3f800000	1.0
1	0x3f800000	1.0
2	0x3f800000	1.0
3	0x3f800000	1.0
4	0x3f800000	1.0
5	0x3f800000	1.0
6	0x3f800000	1.0
7	0x3f800000	1.0
8	0x3f800000	1.0

norm2.bias f4 [9]
0	0x00000000	0.0
1	0x00000000	0.0
2	0x00000000	0.0
3	0x00000000	0.0
4	0x00000000	0.0
5	0x00000000	0.0
6	0x00000000	0.0
7	0x00000000	0.0
8	0x00000000	0.0

m.running_mean f4 [12]
0	0xc0900d5b	-4.5016303
1	0xc08f4cc7	-4.478122
2	0xc08fdf88	-4.4960365
3	0xc091111b	-4.533338
4	0xc091ba4b	-4.553991
5	0xc0915dcf	-4.5427012
6	0xc0909b0b	-4.518926
7	0xc0906846	-4.5127287
8	0xc0915480	-4.541565
9	0xc092efe5	-4.591784
10	0xc0940956	-4.6261396
11	0xc093e461	-4.6216283

m.running_var f4 [12]
0	0x4426a7bd	666.6209
1	0x44274a61	669.1622
2	0x4427d03a	671.25354
3	0x4427e9ae	671.65125
4	0x4427a97c	670.6482
5	0x44276a0d	669.65704
6	0x442776fa	669.859
7	0x4427d98c	671.3992
8	0x44283d91	672.962
9	0x4428419d	673.0252
10	0x4427e3b9	671.55817
11	0x4427739d	669.80646

linear_net.0.weight f4 [9, 18]
0	0xbe0ea0f2	-0.13928583
1	0xbe1a0b33	-0.15043335
2	0x3d108271	0.03528065
3	0xbe3ba1a9	-0.18323387
4	0xbd5cbd0f	-0.053891238
5	0xbcf195eb	-0.029490432
6	0x3cf3c0f0	0.029755086
7	0xbe5ab705	-0.21358879
8	0x3dc8ce57	0.09804981
9	0x3d859cf7	0.06524079
10	0x3d8d28a2	0.06892516
11	0xbe369c0a	-0.17832962
12	0xbd54f10b	-0.05198769
13	0xbe49d24e	-0.19709131
14	0x3dca07f5	0.09864799
15	0xbccab8ed	-0.024746383
16	0x3d7ca8ae	0.061684303
17	0xbe524472	-0.20533922
18	0x3e0c343a	0.13691798
19	0xbe1d1aee	-0.15342304
20	0x3b2d77b8	0.0026469063
21	0xbe341f4d	-0.17590065
22	0xbe30b583	-0.17256741
23	0x3e146e81	0.14495279
24	0x3e1d3aef	0.15354513
25	0x3bb1c966	0.00542562
26	0xbe5938e0	-0.21213102
27	0x3dcf3299	0.101170726
28	0xbde5a53e	-0.11213158
29	0xbd962416	-0.073311016
30	0xbd974c43	-0.07387593
31	0xbdfea27b	-0.124333344
32	0x3e3df6e8	0.18551219
33	0xbde753ea	-0.11295302
34	0x3e03bf60	0.12865973
35	0x3d7623ca	0.060092725
36	0xbe489d9a	-0.1959137
37	0xbcf0566c	-0.029338084
38	0x3a69a976	0.0008913496
39	0x3d505fe6	0.050872706
40	0xbe17399e	-0.14768073
41	0x3da83188	0.08212572
42	0xb8f7d747	-0.00011817976
43	0x3d305e82	0.04305888
44	0x3df0f5eb	0.11765655
45	0x3dc5391e	0.09630035
46	0xbe5451d7	-0.20734344
47	0x3afd37c7	0.0019318991
48	0xbe655387	-0.22395144
49	0x3db776f2	0.08958234
50	0x3de23d03	0.11046793
51	0xbda31fc8	-0.07965046
52	0xbdd10c6f	-0.1020745
53	0x3e292309	0.16517271
54	0x3e44ccfa	0.19218817
55	0x3d309bff	0.04311752
56	0x3d8d144e	0.068886384
57	0xbcc0b37b	-0.023523083
58	0xbe080d70	-0.13286376
59	0xbe0439f6	-0.12912735
60	0xbe3f27ce	-0.18667528
61	0x3d438075	0.047729928
62	0x3e020de1	0.12700607
63	0x3e4cfe98	0.20018995
64	0x3e2f49a3	0.17117934
65	0x3e242a8a	0.16031852
66	0x3de5b1ad	0.112155296
67	0x3dd50ee0	0.10403228
68	0xbe588c59	-0.21147288
69	0xbe40a9be	-0.18814752
70	0xbdaac2c1	-0.083379276
71	0x3d0000d5	0.031250793
72	0xbdadde08	-0.08489615
73	0xbd80356c	-0.062601894
74	0xbd298e6d	-0.041395593
75	0xbd74bbb2	-0.059749313
76	0xbe072c5b	-0.13200514
77	0xbd276eed	-0.04087727
78	0xbe233be9	-0.15940823
79	0x3da6bc80	0.08141422
80	0x3dbb224b	0.091374
81	0x3d8b4986	0.06801133
82	0x3dfde6c6	0.12397532
83	0x3d106c67	0.03525963
84	0xbe00cd7b	-0.12578385
85	0x3e24efc3	0.16107087
86	0x3d9a6513	0.075388096
87	0xbe1e5337	-0.15461431
88	0xbddb56d9	-0.10709924
89	0x3e4abc6e	0.19798443
90	0xbe09168f	-0.13387512
91	0xbda804ca	-0.082040384
92	0x3d4b3f19	0.04962072
93	0xbccd1452	-0.025034104
94	0xbe237d02	-0.15965655
95	0x3d89959f	0.06717991
96	0x3e22ef55	0.1591161
97	0x3cba6126	0.022751402
98	0xbe0980ba	-0.13428012
99	0xbdfb12a3	-0.12259414
100	0x3e2858bb	0.16440098
101	0xbe10feac	-0.1415965
102	0x3e5349a2	0.20633557
103	0x3cf30405	0.029665003
104	0x3e0094be	0.1255674
105	0x3e4bc66f	0.19899915
106	0x3e5bf571	0.21480347
107	0xbd80e6c6	-0.062940165
108	0xbc6b6f4f	-0.0143698
109	0x3c934685	0.017977962
110	0x3dca0148	0.09863526
111	0x3cea5eb8	0.028609619
112	0xbc3b791b	-0.011442448
113	0x3bc81e98	0.0061071627
114	0x3e43ee0a	0.19133773
115	0x3d70709d	0.058701146
116	0x3e574802	0.21023563
117	0x3ab329c6	0.0013669066
118	0x3da39c5a	0.07988806
119	0xba6a1a9a	-0.00089303555
120	0xbc138a58	-0.009005152
121	0x3e29f2cf	0.1659653
122	0xbe5e2bf1	-0.2169645
123	0x3dbcd8c2	0.09221031
124	0xbe658309	-0.22413267
125	0x3d220635	0.0395567
126	0xbe5d3140	-0.21600819
127	0xbe25aeda	-0.16179982
128	0xbc7393dc	-0.014866795
129	0xbdb9e254	-0.09076372
130	0x3e690add	0.2275805
131	0x3cfcbc09	0.03085138
132	0x3e64ea54	0.22355014
133	0xbd360ae0	-0.044443965
134	0x3e422a54	0.1896146
135	0x3e4ba7b4	0.19888192
136	0xbda5355e	-0.080668196
137	0xb8ce2e39	-9.831455e-05
138	0xbe2dc2a9	-0.16968788
139	0x3e05006c	0.12988442
140	0xbe02bb92	-0.12766865
141	0xbce75623	-0.028239315
142	0x3e1a6fe5	0.15081747
143	0x3e20b954	0.15695697
144	0xbcdfba3c	-0.027310483
145	0xbd88b02b	-0.066742264
146	0xbe61f5c1	-0.22066404
147	0xbe26930a	-0.16267028
148	0x3e100972	0.14066103
149	0x3e3fa28f	0.18714355
150	0xbd9d2c0a	-0.076744154
151	0x38d9c9f5	0.00010384984
152	0x3cc18524	0.023623057
153	0xbe5e8d26	-0.21733531
154	0x3de3d587	0.111247115
155	0xbdfb945c	-0.12284157
156	0x3e371f31	0.17882992
157	0x3e14f919	0.14548148
158	0x3d7cc7d2	0.061714
159	0xbe1cecc1	-0.1532469
160	0xbdfaad98	-0.12240142
161	0xbe366df7	-0.17815386

linear_net.0.bias f4 [9]
0	0xbb5d4653	-0.003376384
1	0x3e645cb4	0.22300988
2	0xbd4ed5b8	-0.050496787
3	0xbdf11c75	-0.11773006
4	0x3d00cbd4	0.031444386
5	0xbe3afd66	-0.18260726
6	0xbe4c3515	-0.19942124
7	0x3e1d1c93	0.15342931
8	0x3e4e2d33	0.2013443

linear_net.2.weight f4 [1, 9]
0	0x3dde61a6	0.10858469
1	0x3e820f54	0.2540232
2	0xbe80b996	-0.2514159
3	0x3db362fb	0.087591134
4	0x3dc4429b	0.095830165
5	0xbb9c3756	-0.0047673387
6	0xbd8004f0	-0.06250942
7	0xbd31690b	-0.043313067
8	0x3e06e2c0	0.13172436

exp_avg f4 [108, 36]
0	0xb699875a	-4.5755123e-06
1	0x380a74f3	3.301068e-05
2	0x37e81be9	2.7669552e-05
3	0x36c700a2	5.930736e-06
4	0xb77b8121	-1.4990831e-05
5	0xb7c8920a	-2.3909863e-05
6	0x366af591	3.5011656e-06
7	0x36ac3832	5.1325414e-06
8	0x370f23e3	8.53182e-06
9	0xb7b8bb4b	-2.2021724e-05
10	0x379a085e	1.8362127e-05
11	0x37235808	9.7360535e-06
12	0x371849b8	9.07707e-06
13	0xb681c66a	-3.867598e-06
14	0xb7ba46e3	-2.2205937e-05
15	0x376b0350	1.4007863e-05
16	0x370b0925	8.287175e-06
17	0x3752e8df	1.2571195e-05
18	0x3645a071	2.9448677e-06
19	0x3629a2a3	2.527763e-06
20	0xb68100f7	-3.844612e-06
21	0xb62ce8dc	-2.576554e-06
22	0x348313dd	2.4415104e-07
23	0xb60e4994	-2.1202477e-06
24	0x34808844	2.3941004e-07
25	0xb5b4bbd4	-1.346571e-06
26	0x33c93702	9.369798e-08
27	0xb5a4dde1	-1.2283527e-06
28	0x33122b4c	3.4032652e-08
29	0xb5a2c630	-1.2127621e-06
30	0x325268a8	1.2247405e-08
31	0xb5a280cc	-1.2107425e-06
32	0x319742bd	4.4022657e-09
33	0xb5a277d1	-1.2104812e-06
34	0x30d97228	1.5821273e-09
35	0xb5a276ae	-1.2104481e-06
36	0x370a1ee0	8.23263e-06
37	0xb81973f8	-3.6586047e-05
38	0xb7ea6161	-2.794032e-05
39	0xb704b15f	-7.9091105e-06
40	0x3795d4b9	1.786124e-05
41	0x37c2afb4	2.320842e-05
42	0xb6740995	-3.636441e-06
43	0xb6f91350	-7.4230265e-06
44	0xb715a969	-8.920536e-06
45	0x37adcb6d	2.0717935e-05
46	0xb7baf15a	-2.2285316e-05
47	0xb72ee9f1	-1.0425677e-05
48	0xb725a4a5	-9.873101e-06
49	0x35cfc5a0	1.5480218e-06
50	0x37ce6d3a	2.4607976e-05
51	0xb72ff25a	-1.048724e-05
52	0xb71b5ec5	-9.260785e-06
53	0xb768e661	-1.3881917e-05
54	0xb68754ba	-4.033177e-06
55	0xb6949037	-4.4275325e-06
56	0x369da7db	4.6985056e-06
57	0x3686b097	4.014069e-06
58	0xb527f57e	-6.2569586e-07
59	0x362856bf	2.5084444e-06
60	0xb4e2d2f5	-4.2249272e-07
61	0x35bc29ca	1.4019254e-06
62	0xb42da57f	-1.6172088e-07
63	0x35a5fcf4	1.2367077e-06
64	0xb37b9c60	-5.8582714e-08
65	0x35a3124e	1.2149774e-06
66	0xb2b50896	-2.1075078e-08
67	0x35a2b1a7	1.2121644e-06
68	0xb2022327	-7.574989e-09
69	0x35a2a52d	1.2118013e-06
70	0xb13b142b	-2.7223546e-09
71	0x35a2a38f	1.2117542e-06
72	0xb8ba39ad	-8.879914e-05
73	0xb85e1d5d	-5.295627e-05
74	0xb8a04a6b	-7.643256e-05
75	0x37a1b6e9	1.927787e-05
76	0xb81097af	-3.447354e-05
77	0x390d3858	0.00013467798
78	0x3809a835	3.282e-05
79	0x377fa8d0	1.5238489e-05
80	0xb8024e35	-3.106725e-05
81	0x3891c5d3	6.9509864e-05
82	0x386a3da2	5.5847348e-05
83	0xb81ebb3c	-3.784451e-05
84	0xb79e9597	-1.8904726e-05
85	0x38e19b79	0.00010757795
86	0x36a4e6f6	4.9144683e-06
87	0xb9022c07	-0.00012414168
88	0xb851ce3c	-5.0021554e-05
89	0xb7ccefef	-2.4430423e-05
90	0xb645d6b1	-2.9480254e-06
91	0x35b421bc	1.3420863e-06
92	0x366130ba	3.3555975e-06
93	0xb5189263	-5.6837433e-07
94	0x362f9c09	2.6167857e-06
95	0x3674fc69	3.6505755e-06
96	0x358b5a8d	1.0382661e-06
97	0x369940ba	4.5672905e-06
98	0x34cae6f2	3.7793467e-07
99	0x369d8503	4.694449e-06
100	0x34121459	1.3604712e-07
101	0x369e1366	4.711025e-06
102	0x335209b1	4.890325e-08
103	0x369e25d0	4.713169e-06
104	0x3296f8b7	1.75754e-08
105	0x369e282f	4.713445e-06
106	0x31d906b3	6.316293e-09
107	0x369e287f	4.7134813e-06
108	0xb84e25bb	-4.9149367e-05
109	0xb800f818	-3.0748633e-05
110	0xb8384391	-4.3931945e-05
111	0x3730c1b5	1.0535518e-05
112	0xb79a900c	-1.8425308e-05
113	0x389ef433	7.579513e-05
114	0x37950150	1.7762795e-05
115	0x370d604c	8.426676e-06
116	0xb79346fd	-1.7556822e-05
117	0x3827be6c	3.9993247e-05
118	0x37fcc264	3.0131261e-05
119	0xb7b3025c	-2.1339561e-05
120	0xb7365e14	-1.086995e-05
121	0x387acaa9	5.9793387e-05
122	0x3680a841	3.8342846e-06
123	0xb8928a08	-6.987533e-05
124	0xb7e97b21	-2.78331e-05
125	0xb76b6531	-1.4030652e-05
126	0xb5b2dd34	-1.3326412e-06
127	0x35adf91e	1.2962007e-06
128	0x35d9bf08	1.6223357e-06
129	0xb2224a19	-9.446489e-09
130	0x35b3dff5	1.3401719e-06
131	0x360bab38	2.0812276e-06
132	0x351053cd	5.3766126e-07
133	0x362c8352	2.5706436e-06
134	0x345273be	1.9599881e-07
135	0x36311e7f	2.6392806e-06
136	0x33978b41	7.0568156e-08
137	0x3631b86f	2.648241e-06
138	0x32d9e671	2.5366917e-08
139	0x3631cc58	2.6494e-06
140	0x321c9f92	9.116677e-09
141	0x3631ceea	2.6495495e-06
142	0x3161269f	3.2763763e-09
143	0x3631cf41	2.6495693e-06
144	0x37001dd8	7.636343e-06
145	0xb72476b4	-9.8027995e-06
146	0xb61b829d	-2.3172827e-06
147	0xb6968909	-4.4863013e-06
148	0x36e2db7c	6.760876e-06
149	0x3515af2e	5.5761745e-07
150	0xb3ccbca5	-9.5338045e-08
151	0xb6adab4d	-5.175744e-06
152	0xb5cfaed4	-1.5473584e-06
153	0xb5bf6b50	-1.4261841e-06
154	0xb718967d	-9.094944e-06
155	0xb617e125	-2.2631805e-06
156	0xb61bcdd5	-2.321661e-06
157	0xb689fb8c	-4.112202e-06
158	0x36d35ced	6.299108e-06
159	0x36d3bb78	6.3101143e-06
160	0xb64abc77	-3.0210047e-06
161	0xb67983d6	-3.718063e-06
162	0xb6626d74	-3.3740334e-06
163	0xb642119d	-2.8918505e-06
164	0x360871b6	2.0331768e-06
165	0x360aab56	2.0663333e-06
166	0xb511fa2a	-5.4380746e-07
167	0x356ba77a	8.778803e-07
168	0xb49feafd	-2.9787034e-07
169	0x348bc15d	2.6031458e-07
170	0xb3f0d09c	-1.1213817e-07
171	0x343613b5	1.695724e-07
172	0xb32e1cbc	-4.0538666e-08
173	0x34294975	1.5766075e-07
174	0xb27a7b21	-1.45799115e-08
175	0x3427a1a5	1.5611893e-07
176	0xb1b40dd8	-5.2402633e-09
177	0x34276ae9	1.559198e-07
178	0xb1016af3	-1.8832764e-09
179	0x342763ef	1.5589443e-07
180	0x37a56cdc	1.9720224e-05
181	0x37c6fc9a	2.3721066e-05
182	0x37dfa8e4	2.6662317e-05
183	0xb622d8d3	-2.426609e-06
184	0x367105d6	3.5915195e-06
185	0xb82882fc	-4.017631e-05
186	0xb6fb4ac4	-7.489087e-06
187	0xb5bf7375	-1.4264211e-06
188	0x372d2378	1.0319862e-05
189	0xb7be036f	-2.2651364e-05
190	0xb700c717	-7.675749e-06
191	0x3751db9d	1.25085035e-05
192	0x36fd1251	7.54212e-06
193	0xb7e58350	-2.7360074e-05
194	0xb70761fa	-8.069439e-06
195	0x380c81c9	3.3499473e-05
196	0x37817f49	1.543727e-05
197	0x37298fbf	1.01066535e-05
198	0x36510309	3.1145194e-06
199	0x3598e303	1.1390952e-06
200	0xb61b78a7	-2.3167029e-06
201	0xb5918eb6	-1.0844876e-06
202	0xb4ffb402	-4.7628424e-07
203	0xb5db8c82	-1.6357665e-06
204	0xb4152bf2	-1.3892694e-07
205	0xb5ce8474	-1.5386745e-06
206	0xb34f843c	-4.831621e-08
207	0xb5cc507b	-1.5222607e-06
208	0xb29481a6	-1.7288425e-08
209	0xb5cc0556	-1.5200737e-06
210	0xb1d55c83	-6.2096333e-09
211	0xb5cbfb96	-1.51979e-06
212	0xb119584d	-2.2314623e-09
213	0xb5cbfa55	-1.5197535e-06
214	0xb05c6f67	-8.0193846e-10
215	0xb5cbfa29	-1.5197485e-06
216	0xb7ddca0c	-2.6439338e-05
217	0xb842ca19	-4.6441422e-05
218	0xb846ead6	-4.7425587e-05
219	0x357aba8d	9.3403725e-07
220	0x33ad0acc	8.057904e-08
221	0x388b3ca7	6.639334e-05
222	0x372f1e5c	1.0437881e-05
223	0xb5226510	-6.049677e-07
224	0xb796ff27	-1.8000208e-05
225	0x38232f10	3.890606e-05
226	0x369ae67d	4.61639e-06
227	0xb7b72694	-2.1833264e-05
228	0xb76e0ad8	-1.418843e-05
229	0x382be3c7	4.098171e-05
230	0x37a1785f	1.9248748e-05
231	0xb85a07d0	-5.1982526e-05
232	0xb7daffa7	-2.6106673e-05
233	0xb7a1bf02	-1.928164e-05
234	0xb692670a	-4.3631344e-06
235	0xb653685e	-3.15022e-06
236	0x369d683e	4.6911e-06
237	0x3649aedf	3.0053122e-06
238	0x34dec460	4.1493604e-07
239	0x3657d5fb	3.216205e-06
240	0x3319f73e	3.5847954e-08
241	0x3634eb4a	2.6959046e-06
242	0x31f7800d	7.203204e-09
243	0x362f845e	2.615408e-06
244	0x311f98a9	2.3224322e-09
245	0x362ecdc1	2.6047785e-06
246	0x306205f3	8.2226775e-10
247	0x362eb61c	2.6034022e-06
248	0x2fa2245c	2.9493463e-10
249	0x362eb30c	2.603224e-06
250	0x2ee90600	1.0596679e-10
251	0x362eb2aa	2.6032017e-06
252	0xb8891c22	-6.537909e-05
253	0xb7873e61	-1.6122302e-05
254	0xb8332a8e	-4.2716558e-05
255	0x379e463c	1.8867773e-05

exp_avg_sq f4 [108, 36]
0	0x33e99f63	1.08789e-07
1	0x3486faab	2.514183e-07
2	0x346c1128	2.1985454e-07
3	0x310a4c71	2.0125095e-09
4	0x31f0d870	7.0095254e-09
5	0x3510f855	5.400555e-07
6	0x32815e56	1.5060476e-08
7	0x3204a982	7.721953e-09
8	0x330423bf	3.0766156e-08
9	0x341d66e4	1.4659196e-07
10	0x325f538d	1.2999306e-08
11	0x33425528	4.5246594e-08
12	0x32eb7586	2.7411044e-08
13	0x344a8bb5	1.8863541e-07
14	0x332e99d7	4.065245e-08
15	0x349d4277	2.9291888e-07
16	0x33a4731e	7.657785e-08
17	0x331a739e	3.5961072e-08
18	0x2ef7f764	1.1276205e-10
19	0x2ee422e2	1.0374436e-10
20	0x2f44876a	1.7874205e-10
21	0x2f9bb410	2.8322278e-10
22	0x3004c7b4	4.8305115e-10
23	0x2ff7bc39	4.5062779e-10
24	0x2ec62bc3	9.011771e-11
25	0x30819964	9.429582e-10
26	0x2d568160	1.2193219e-11
27	0x308e3042	1.0345576e-09
28	0x2bdef794	1.5842765e-12
29	0x308fe42f	1.0469473e-09
30	0x2a668eaf	2.0477607e-13
31	0x30901cca	1.0485561e-09
32	0x28ee3ea7	2.6450479e-14
33	0x3090241e	1.0487644e-09
34	0x27762acc	3.4162558e-15
35	0x30902516	1.0487919e-09
36	0x339be8a8	7.26007e-08
37	0x343ad57a	1.7400262e-07
38	0x341b93b7	1.4489238e-07
39	0x30f73e10	1.7989255e-09
40	0x31ae9856	5.081385e-09
41	0x34c97669	3.7525322e-07
42	0x32166ae1	8.755451e-09
43	0x31a6c988	4.8541473e-09
44	0x32a4ece1	1.9199833e-08
45	0x33d5a0f8	9.9478655e-08
46	0x321e47ca	9.213133e-09
47	0x32f3a3f5	2.8363482e-08
48	0x32ad2329	2.015584e-08
49	0x34007ae1	1.1965632e-07
50	0x32eb6fb4	2.7408397e-08
51	0x344f708a	1.9319319e-07
52	0x334eef26	4.8180617e-08
53	0x32c8e9f0	2.3389447e-08
54	0x2ebf7c28	8.707729e-11
55	0x2ed2a39d	9.578758e-11
56	0x2f1256ba	1.3309434e-10
57	0x2f808b92	2.3382235e-10
58	0x2fba7cd9	3.3921913e-10
59	0x2fb36b05	3.2635952e-10
60	0x2e8ad654	6.313586e-11
61	0x30367c92	6.638824e-10
62	0x2d163d3b	8.540109e-12
63	0x3047cf94	7.2690765e-10
64	0x2b9c28f4	1.1095833e-12
65	0x304a279f	7.3543477e-10
66	0x2a21799f	1.4341868e-13
67	0x304a758f	7.365423e-10
68	0x28a6dbdc	1.8525051e-14
69	0x304a7fa7	7.3668577e-10
70	0x272c6851	2.3926345e-15
71	0x304a8103	7.367051e-10
72	0x339545a8	6.9510236e-08
73	0x33ab83a6	7.986755e-08
74	0x33ab540e	7.9780975e-08
75	0x30c07f26	1.4005976e-09
76	0x3161161b	3.2754375e-09
77	0x3488aeba	2.5459104e-07
78	0x31431902	2.839045e-09
79	0x31c2dce4	5.6712555e-09
80	0x31f08a68	7.0006543e-09
81	0x33a06627	7.469162e-08
82	0x31e687ee	6.7093344e-09
83	0x322bca2a	9.999477e-09
84	0x3252c7ab	1.2269008e-08
85	0x339c4484	7.276779e-08
86	0x323b92c3	1.0918202e-08
87	0x341fa5c7	1.4868338e-07
88	0x328e3fd9	1.656001e-08
89	0x3211bcac	8.48301e-09
90	0x2efa7c77	1.1390793e-10
91	0x2eb7bfa2	8.355917e-11
92	0x2f144c37	1.3487599e-10
93	0x2f14f6b6	1.3548171e-10
94	0x2f4e8f43	1.8786488e-10
95	0x2f846e65	2.40891e-10
96	0x2e18e757	3.476627e-11
97	0x2ff09f19	4.376879e-10
98	0x2ca56391	4.700636e-12
99	0x30024628	4.739342e-10
100	0x2b2be5f6	6.107054e-13
101	0x30039edd	4.788328e-10
102	0x29b1bf60	7.893577e-14
103	0x3003cba5	4.794692e-10
104	0x2837ac88	1.01959524e-14
105	0x3003d164	4.7955084e-10
106	0x26bdc80e	1.3168734e-15
107	0x3003d21e	4.7956117e-10
108	0x3396c9ff	7.021662e-08
109	0x3385dff9	6.2340355e-08
110	0x33951880	6.94281e-08
111	0x308a2a42	1.0052832e-09
112	0x311aedba	2.2545081e-09
113	0x347ae865	2.3367609e-07
114	0x3114d5a3	2.1658273e-09
115	0x31e84bac	6.7606916e-09
116	0x31b3496e	5.2179336e-09
117	0x3397cad0	7.068377e-08
118	0x31a1f8b5	4.7139914e-09
119	0x31f72bb8	7.1936164e-09
120	0x323a5e9d	1.08481375e-08
121	0x33897ec8	6.402621e-08
122	0x3208b9cf	7.95849e-09
123	0x34187605	1.4199038e-07
124	0x3249234e	1.1707767e-08
125	0x31d152ab	6.092099e-09
126	0x2e8ea70b	6.487085e-11
127	0x2ea369a4	7.4311474e-11
128	0x2f0721ad	1.2290143e-10
129	0x2ed26dc2	9.569191e-11
130	0x2f3dfe87	1.7279876e-10
131	0x2f693e97	2.1213463e-10
132	0x2e0b95fe	3.173816e-11
133	0x2fd8f0ab	3.9461176e-10
134	0x2c96de8c	4.287964e-12
135	0x2feb39fe	4.2787457e-10
136	0x2b1ccae0	5.570388e-13
137	0x2fedb1e3	4.3236445e-10
138	0x29a2203f	7.199839e-14
139	0x2fee03cd	4.3294648e-10
140	0x282787e3	9.299828e-15
141	0x2fee0e77	4.3302226e-10
142	0x26ad1a10	1.2011351e-15
143	0x2fee0fcb	4.330317e-10
144	0x330ea352	3.321049e-08
145	0x3381d237	6.0452685e-08
146	0x339bf61b	7.262516e-08
147	0x3091d031	1.060931e-09
148	0x3135f8ee	2.6480467e-09
149	0x341e92e0	1.476833e-07
150	0x31737f30	3.5433452e-09
151	0x30f8b56e	1.809594e-09
152	0x32134ccc	8.573988e-09
153	0x337c2eb6	5.8715806e-08
154	0x31c596af	5.7505853e-09
155	0x3242717b	1.1318089e-08
156	0x31e53a20	6.671385e-09
157	0x3373c6c6	5.675863e-08
158	0x3246efb4	1.1579619e-08
159	0x33dfb17e	1.0416532e-07
160	0x3294719d	1.7281133e-08
161	0x32144bb9	8.631951e-09
162	0x2ee3b93e	1.03556705e-10
163	0x2ecefe73	9.412995e-11
164	0x2ef8c54e	1.1312783e-10
165	0x2f4ff0b2	1.8912052e-10
166	0x2f102f36	1.3113496e-10
167	0x2f37fa59	1.6732694e-10
168	0x2ddeff4c	2.5351853e-11
169	0x2f9705c1	2.7470828e-10
170	0x2c727bc9	3.4458983e-12
171	0x2fa33694	2.9688307e-10
172	0x2afc32a2	4.4799326e-13
173	0x2fa4e187	2.9991673e-10
174	0x298266a1	5.790963e-14
175	0x2fa51920	3.0031178e-10
176	0x2806c008	7.480134e-15
177	0x2fa52047	3.003626e-10
178	0x268b3b32	9.661107e-16
179	0x2fa52138	3.0036929e-10
180	0x32c2ae85	2.2663935e-08
181	0x32e07ef3	2.6134762e-08
182	0x32ff6a2d	2.973419e-08
183	0x2fdca0c8	4.013201e-10
184	0x309be630	1.1343158e-09
185	0x33b46cee	8.4017174e-08
186	0x308ffd93	1.047669e-09
187	0x30f8c531	1.810042e-09
188	0x3133b290	2.614943e-09
189	0x32f39fe6	2.8361637e-08
190	0x3123b4ca	2.3822389e-09
191	0x3172ccaa	3.5331973e-09
192	0x3186cfcb	3.9235366e-09
193	0x32d55caf	2.4838611e-08
194	0x318d4003	4.1109174e-09
195	0x336334c6	5.2900553e-08
196	0x31b8af43	5.3750298e-09
197	0x314b7cba	2.9611287e-09
198	0x2e4f3d21	4.7120644e-11
199	0x2e10e175	3.2942055e-11
200	0x2e59b9af	4.9505008e-11
201	0x2e81addb	5.897124e-11
202	0x2e6fdac1	5.45366e-11
203	0x2ec93781	9.150281e-11
204	0x2d2fde58	9.9969685e-12
205	0x2f21306b	1.4660066e-10
206	0x2bbe0e16	1.3504222e-12
207	0x2f2c57e9	1.5674541e-10
208	0x2a45832f	1.7542628e-13
209	0x2f2dd9ed	1.5811681e-10
210	0x28cc3b15	2.2674172e-14
211	0x2f2e0bee	1.5829446e-10
212	0x27530a2e	2.928765e-15
213	0x2f2e1274	1.5831764e-10
214	0x25da0e9b	3.782687e-16
215	0x2f2e1355	1.5832076e-10
216	0x32e29d75	2.6381466e-08
217	0x33902c5c	6.7135915e-08
218	0x338ad2c6	6.464465e-08
219	0x30509091	7.58754e-10
220	0x311542ae	2.1720257e-09
221	0x3416b413	1.4035349e-07
222	0x318b2da3	4.0506207e-09
223	0x309af331	1.1274094e-09
224	0x321baf6e	9.0620755e-09
225	0x333ba061	4.3685194e-08
226	0x319bfaf5	4.5396242e-09
227	0x325cee4a	1.2859866e-08
228	0x31ee50e2	6.935907e-09
229	0x33664ad8	5.3619118e-08
230	0x32427bc3	1.1320426e-08
231	0x33b3978e	8.362905e-08
232	0x32b414bf	2.0964192e-08
233	0x322a4bf2	9.91257e-09
234	0x2eb18834	8.0732226e-11
235	0x2e9175d3	6.6147664e-11
236	0x2ebfbea0	8.719536e-11
237	0x2eeb6b07	1.07055746e-10
238	0x2f063528	1.2206114e-10
239	0x2f16fe71	1.3732816e-10
240	0x2dc704e4	2.2625853e-11
241	0x2f89b69b	2.5049904e-10
242	0x2c5755b1	3.0600906e-12
243	0x2f95819d	2.7195038e-10
244	0x2adfd16f	3.975808e-13
245	0x2f971aec	2.748587e-10
246	0x29676f90	5.138907e-14
247	0x2f97501d	2.7523664e-10
248	0x27ef26ed	6.637803e-15
249	0x2f9756ff	2.7528554e-10
250	0x26771ace	8.5731667e-16
251	0x2f9757de	2.7529173e-10
252	0x339589e7	6.9634375e-08
253	0x33b6e396	8.516433e-08
254	0x33fbd3fb	1.1726657e-07
255	0x311ab558	2.2513031e-09

exp_avg f4 [108]
0	0xb5a27683	-1.2104432e-06
1	0x35a2a34f	1.211747e-06
2	0x369e288a	4.7134863e-06
3	0x3631cf4c	2.6495718e-06
4	0x342762d1	1.5589036e-07
5	0xb5cbfa24	-1.5197479e-06
6	0x362eb298	2.6031976e-06
7	0x363099b7	2.6315518e-06
8	0x36508b39	3.1075454e-06
9	0x364342bd	2.909611e-06
10	0xb6bfc7d8	-5.7155085e-06
11	0xb5b4766b	-1.3445509e-06
12	0x36a5cdda	4.9413475e-06
13	0xb6bbc750	-5.5962373e-06
14	0xb6d7e6f8	-6.4343876e-06
15	0x36ea87f6	6.9895714e-06
16	0x36a942c7	5.0443664e-06
17	0xb69b1e45	-4.622884e-06
18	0x364ce95e	3.0534206e-06
19	0xb62de8b5	-2.5914462e-06
20	0x36a8e614	5.033575e-06
21	0xb4e65085	-4.2899424e-07
22	0xb614e81b	-2.2188822e-06
23	0x364d43d9	3.0586873e-06
24	0xb6053c98	-1.9853815e-06
25	0x361f73b7	2.3760201e-06
26	0x361ec637	2.365921e-06
27	0xb320c3bb	-3.743092e-08
28	0xb6332db1	-2.6699674e-06
29	0xb63d08a2	-2.816822e-06
30	0xb3fdd5fc	-1.1820154e-07
31	0x357edd98	9.4944835e-07
32	0xb604215a	-1.9688946e-06
33	0xb66965fb	-3.4779066e-06
34	0xb6247561	-2.4506228e-06
35	0x36bab20a	5.5639584e-06
36	0x3147c8a3	2.907236e-09
37	0x30ac3ef1	1.2532536e-09
38	0xb02622b3	-6.043976e-10
39	0x30d8f962	1.5786947e-09
40	0x2de0d25e	2.5559273e-11
41	0xb13c942d	-2.7441829e-09
42	0x309c50a2	1.1373411e-09
43	0xb0371309	-6.660206e-10
44	0x2f6fd9d5	2.1814313e-10
45	0x3108bc98	1.9897808e-09
46	0x308ca371	1.0232794e-09
47	0xb112f75f	-2.138641e-09
48	0x30ab8c97	1.2481846e-09
49	0xb053b8d2	-7.7024e-10
50	0xb124d99b	-2.3988835e-09
51	0xb0b60b38	-1.3245431e-09
52	0x2fa88da9	3.0659678e-10
53	0xb05ecea4	-8.1056784e-10
54	0xb0e400e5	-1.6589438e-09
55	0x2fbd6ea8	3.4457526e-10
56	0x3084b9ab	9.657034e-10
57	0xb1496f4d	-2.9312617e-09
58	0xb0fe1582	-1.8487045e-09
59	0xb137f16a	-2.6767233e-09
60	0xb14de931	-2.996398e-09
61	0xb09e65fb	-1.1524998e-09
62	0xaecebca1	-9.4013027e-11
63	0x312fef99	2.5602047e-09
64	0xb0bf5e94	-1.392396e-09
65	0x30062743	4.880471e-10
66	0x30cbc582	1.4826329e-09
67	0xb0eb2427	-1.7108776e-09
68	0xb05134f8	-7.610903e-10
69	0x3136552e	2.6532905e-09
70	0xae835828	-5.97285e-11
71	0xb127bf3b	-2.44104e-09
72	0xb8257386	-3.9446655e-05
73	0x38d0be4f	9.9536606e-05
74	0x3923e907	0.00015631701
75	0xb7c92644	-2.3978886e-05
76	0xb6dcffaf	-6.5862764e-06
77	0xb900f9e1	-0.00012300118
78	0xb664345a	-3.400512e-06
79	0xb84aa561	-4.8314574e-05
80	0xb8641b17	-5.4384665e-05
81	0xb88fc4ed	-6.855452e-05
82	0xb8a8ee26	-8.055223e-05
83	0x38bd6671	9.0313035e-05
84	0xb7a21e4b	-1.9326011e-05
85	0x3799f3e4	1.8352592e-05
86	0x37fac441	2.989371e-05
87	0xb7775078	-1.4741083e-05
88	0xb904cca5	-0.00012664737
89	0x3845c027	4.7147416e-05
90	0x374848bf	1.19378665e-05
91	0x3897b029	7.2330535e-05
92	0x3884908f	6.3211766e-05
93	0x38437329	4.6598874e-05
94	0xb84fce74	-4.954492e-05
95	0xb83562a5	-4.3245633e-05
96	0x38ee0bd7	0.0001135093
97	0xb82d26e4	-4.1282634e-05
98	0x37929d74	1.7477876e-05
99	0xb6db73f0	-6.5402055e-06
100	0xb82fe50f	-4.193658e-05
101	0xb860c80d	-5.3592074e-05
102	0x38b023bf	8.398992e-05
103	0x378459c4	1.5777427e-05
104	0x3805dd61	3.1915846e-05
105	0x372dde17	1.0363313e-05
106	0xb858d48b	-5.169636e-05
107	0x3845c629	4.715301e-05

exp_avg_sq f4 [108]
0	0x30902541	1.0487967e-09
1	0x304a813b	7.367082e-10
2	0x3003d23a	4.795627e-10
3	0x2fee0ffa	4.33033e-10
4	0x2fa52158	3.0037017e-10
5	0x2f2e136d	1.5832109e-10
6	0x2f9757ff	2.7529265e-10
7	0x3012b24f	5.336788e-10
8	0x306ef74a	8.6935315e-10
9	0x2fc75d6b	3.6264267e-10
10	0x301a80ae	5.620774e-10
11	0x2f81cd82	2.3610985e-10
12	0x30188d9b	5.549851e-10
13	0x309574a8	1.0874333e-09
14	0x307da19d	9.227053e-10
15	0x311b0159	2.2556235e-09
16	0x2fc18029	3.519756e-10
17	0x30ae2feb	1.2673785e-09
18	0x301ab779	5.6285604e-10
19	0x2fc680d3	3.6107525e-10
20	0x2f44b70a	1.7891125e-10
21	0x3004cb2e	4.8310056e-10
22	0x3001e11e	4.724984e-10
23	0x2fe1221a	4.0951492e-10
24	0x303a52e6	6.778421e-10
25	0x2ffe7e23	4.6291956e-10
26	0x301ef677	5.783031e-10
27	0x2f475b84	1.8131457e-10
28	0x2fbcd4dc	3.4348246e-10
29	0x30322c23	6.4818745e-10
30	0x30592fb9	7.901196e-10
31	0x2fd473da	3.8644893e-10
32	0x2fe67089	4.1916717e-10
33	0x301bfeef	5.6750954e-10
34	0x304230ba	7.0646033e-10
35	0x2fe68923	4.1934198e-10
36	0x263cc4c5	6.5492275e-16
37	0x25ebfc01	4.0936766e-16
38	0x2686c94a	9.352677e-16
39	0x2414eaa8	3.2291146e-17
40	0x23115028	7.8774395e-18
41	0x259a70de	2.6791223e-16
42	0x25052c9a	1.1551023e-16
43	0x2538aa5b	1.6017175e-16
44	0x23773f47	1.3403296e-17
45	0x2459a240	4.7191805e-17
46	0x25208c8c	1.3925407e-16
47	0x24f85179	1.07690876e-16
48	0x24c00381	8.327266e-17
49	0x23ce2ed3	2.2354396e-17
50	0x2462beaa	4.9167437e-17
51	0x257dbc9b	2.2008154e-16
52	0x23878ac1	1.4695494e-17
53	0x238baa03	1.5142413e-17
54	0x2512b143	1.272354e-16
55	0x238537ab	1.4443465e-17
56	0x23c758a9	2.1613172e-17
57	0x264adbfb	7.038096e-16
58	0x26435036	6.776292e-16
59	0x251bd94c	1.351773e-16
60	0x2645e1c5	6.865408e-16
61	0x2513c87d	1.2818146e-16
62	0x24336c09	3.8905947e-17
63	0x257c9a76	2.1909849e-16
64	0x2526d67b	1.4470874e-16
65	0x24ae12b8	7.549218e-17
66	0x24b603b1	7.893617e-17
67	0x25cd3acf	3.5601682e-16
68	0x26085455	4.729877e-16
69	0x25b98bac	3.218703e-16
70	0x23d29f6f	2.2835768e-17
71	0x2624f26a	5.722746e-16
72	0x36e2575b	6.7454944e-06
73	0x34a89e9b	3.140784e-07
74	0x35a48a39	1.225918e-06
75	0x35a03f9a	1.193944e-06
76	0x33b6d5cb	8.513924e-08
77	0x351f1f4d	5.9277664e-07
78	0x345eb419	2.074088e-07
79	0x355ad3f3	8.1519755e-07
80	0x3538c905	6.8837863e-07
81	0x35459f79	7.362028e-07
82	0x34a25f0d	3.024401e-07
83	0x34d4a8fc	3.961103e-07
84	0x352e6fa8	6.498253e-07
85	0x34c3c7ae	3.6466867e-07
86	0x34de94ba	4.1458935e-07
87	0x351d9cc0	5.871516e-07
88	0x34d134c7	3.8967684e-07
89	0x34f3e873	4.5431406e-07
90	0x33ae24b0	8.10918e-08
91	0x361531db	2.223175e-06
92	0x35a24048	1.2088649e-06
93	0x351ba49f	5.7981555e-07
94	0x34af9d73	3.271085e-07
95	0x370e4fc6	8.482433e-06
96	0x34b6eb06	3.4071144e-07
97	0x3534a5d0	6.7296514e-07
98	0x34a2753b	3.0260148e-07
99	0x34887d84	2.54233e-07
100	0x3602db74	1.9499248e-06
101	0x356f3b8c	8.912109e-07
102	0x35a0eddd	1.1990156e-06
103	0x34b9bdf8	3.4597156e-07
104	0x34b6dc23	3.4060312e-07
105	0x36eaf218	7.001927e-06
106	0x34611781	2.0963309e-07
107	0x34596596	2.0246657e-07
