SensorFormer/SensorFormer/result/individual/LCS11_11.pt (torch, 81844 bytes, 35 tensors)

self_attn.qkv_proj.weight f4 [108, 36]
0.12560834 0.09264024 -0.18413016 -0.09309944 -0.1525726 -0.1665488 -0.042937566 -0.048867863
-0.042846993 0.024944045 -0.08537903 -0.13106975 0.048176885 -0.066720255 -0.21109582 0.12948728
-0.06783 0.1658734 0.17446418 0.14889403 -0.05889603 0.15981145 -0.019422997 0.17692652
0.06805512 0.12633637 0.11313824 -0.20836881 -0.12692001 -0.15175574 -0.065098606 -0.119561754
0.18724406 0.075866334 -0.08445654 0.121968195 -0.14893761 0.1806156 0.0515522 0.057628065
0.090739004 0.05253533 -0.0766712 0.180003 -0.20752016 -0.034395516 0.110175714 0.018824037
0.10774912 0.15375683 -0.16562517 0.2067201 -0.020079728 -0.053578526 0.044514637 0.026741495
0.1648414 -0.085334145 0.15636383 -0.027044645 -0.01505023 0.12731414 0.18806428 0.10735478
0.17547108 -0.11193447 0.014724886 0.17391159 0.053209405 -0.08748567 0.21370508 -0.063401915
0.062627606 -0.19123335 -0.13047816 0.15812115 0.015919426 -0.1472291 0.16267613 -0.08800211
0.14434758 0.08515163 0.18056025 -0.0052000666 -0.008200232 -0.04843326 -0.12175025 0.18200368
0.13299145 0.07173994 0.18523254 -0.07389307 -0.029208139 0.022130959 -0.19899839 -0.1676434
-0.1561201 0.15135612 -0.11131354 0.13403913 0.1562833 0.06159842 -0.100004345 -0.08957996
0.06389764 0.029890288 -0.13460107 -0.2067994 -0.16552976 0.18269946 0.15615223 0.086509824
0.20322235 0.059996188 -0.034177046 0.08439325 0.058345616 -0.095450595 0.08933709 0.19053613
0.022562787 -0.14129767 0.12963235 0.0064206617 0.03927961 0.06583247 0.1869278 -0.19684094
-0.039042704 -0.009559411 0.035038594 0.08182102 -0.19309057 -0.0104944045 0.07693386 0.037685286
0.05408754 -0.15100041 0.1548228 0.12306561 -0.118204266 0.19139357 -0.21087287 -0.025046011
-0.19491667 0.14515081 0.17110662 -0.1674742 -0.030071285 0.0374153 0.044842497 0.16369724
-0.09649651 -0.09141178 -0.098705724 0.10690549 0.048294894 0.13089296 -0.14738612 0.18699437
0.16082664 -0.002382072 -0.01722358 -0.024972692 -0.106523 -0.0010826205 0.2149158 0.11023458
-0.12687369 0.121385045 0.19847925 0.11690882 -0.07342463 -0.0755863 0.004755477 -0.04984324
-0.14261086 0.1307214 0.028873157 -0.17967519 -0.04503839 -0.16253956 -0.19450015 -0.08847108
0.16209531 -0.10190697 0.0056963107 0.17131796 -0.12666951 -0.03151222 -0.17886153 0.0020197267
0.08319759 -0.14472407 -0.18907776 -0.14021154 0.18636924 -0.15233423 0.030685011 0.09294141
0.043917503 -0.018799197 0.15466489 -0.055891655 0.13076557 0.026332427 -0.14741279 0.11334534
0.1461599 -0.04526866 -0.12912774 0.13969077 0.15973221 -0.065513365 -0.18074334 -0.106044084
-0.053926107 0.13059781 0.042867098 0.17985305 -0.04786511 -0.13991196 -0.09452553 0.17044595
-0.0662485 -0.18244584 0.12366514 0.08920008 -0.17404321 -0.081039965 -0.11490841 0.058153998
-0.06788803 -0.011770925 0.043170273 -0.17923042 -0.06853645 0.055622812 -0.21448466 0.16628058
-0.20945515 0.026413405 -0.1251666 0.0034611302 0.108788155 0.16453414 0.034137454 -0.03887347
-0.097401336 0.15032722 -0.20467743 -0.094896816 0.057327665 -0.02408095 0.08606752 -0.11560581
00000000: 799f 003e 2bba bd3d 9e8c 3cbe ebaa bebd
00000010: fe3b 1cbe c58b 2abe 4ddf 2fbd ab29 48bd
00000020: 5480 2fbd 7457 cc3c 33db aebd 2637 06be
00000030: 2055 453d a1a4 88bd 8129 58be 5098 043e
00000040: 74ea 8abd b7da 293e bda6 323e ad77 183e
00000050: f73c 71bd 9da5 233e fa1c 9fbc 3a2c 353e
00000060: 7c60 8b3d 525e 013e 06b5 e73d a25e 55be
00000070: 52f7 01be db65 1bbe 6b52 85bd cbdc f4bd
00000080: e8bc 3f3e cf5f 9b3d 8df7 acbd 76ca f93d
00000090: 1a83 18be 4cf3 383e 6628 533d 680b 6c3d
000000a0: 5fd5 b93d 492f 573d ca05 9dbd b552 383e
000000b0: 2a80 54be 50e2 0cbd cea3 e13d de34 9a3c
000000c0: 92ab dc3d 6e72 1d3e a599 29be 6fae 533e
000000d0: 3e7e a4bc 2875 5bbd fb54 363d fb10 db3c
000000e0: 2fcc 283e abc3 aebd d71d 203e bb8c ddbc
000000f0: 3d95 76bc a35e 023e ec93 403e d3dc db3d
00000100: b1ae 333e e63d e5bd a640 713c e115 323e
00000110: 1bf2 593d b02b b3bd 81d5 5a3e ddd8 81bd
00000120: e742 803d add2 43be 119c 05be 83ea 213e
00000130: 7569 823c 3ac3 16be 9294 263e 733a b4bd
00000140: dacf 133e fa63 ae3d c9e4 383e 5265 aabb
00000150: 445a 06bc f461 46bd 3258 f9bd 2c5f 3a3e
00000160: e92e 083e 64ec 923d 99ad 3d3e 4055 97bd
00000170: e845 efbc fc4b b53c 3cc6 4bbe b6aa 2bbe
00000180: f3dd 1fbe 19fd 1a3e 5af8 e3bd 8e41 093e
00000190: bb08 203e a04e 7c3d 14cf ccbd b375 b7bd
000001a0: c4dc 823d 7adc f43c ddd4 09be 39c3 53be
000001b0: a280 29be 9115 3b3e 5fe6 1f3e 102c b13d
000001c0: 8519 503e 90be 753d 3bfd 0bbd 5ed6 ac3d
000001d0: d0fb 6e3d 9a7b c3bd 5df6 b63d e71b 433e
000001e0: 98d5 b83c 56b0 10be 58be 043e 6a64 d23b
000001f0: a8e3 203d 2dd3 863d 006a 3f3e ac90 49be
00000200: 3eeb 1fbd 139f 1cbc a184 0f3d c791 a73d
00000210: 89b9 45be b9f0 2bbc 808f 9d3d e35b 1a3d
00000220: e58a 5d3d da9f 1abe de89 1e3e d309 fc3d
00000230: 1415 f2bd adfc 433e 0fef 57be 4b2d cdbc
00000240: 3c98 47be 6aa2 143e 9336 2f3e 5b7e 2bbe
00000250: 0e58 f6bc c940 193d c4ac 373d 40a0 273e
00000260: f69f c5bd 1936 bbbd 3a26 cabd 44f1 da3d
00000270: ded0 453d ce08 063e 63ec 16be 747b 3f3e
00000280: bdaf 243e 891c 1cbb 7718 8dbc 8893 ccbc
00000290: bb28 dabd b7e6 8dba e312 5c3e abc2 e13d
000002a0: 2deb 01be b998 f83d 253e 4b3e e46d ef3d
000002b0: a75f 96bd fdcc 9abd d5d3 9b3b 6d28 4cbd
000002c0: 9508 12be d5db 053e 6687 ec3c c6fc 37be
000002d0: 2d7a 38bd c570 26be 0c2b 47be 5330 b5bd
000002e0: 50fc 253e 9ab4 d0bd 1ea8 ba3b fa6d 2f3e
000002f0: a7b5 01be f512 01bd 7a27 37be 645d 043b
00000300: 8063 aa3d 8c32 14be 9a9d 41be 9d93 0fbe
00000310: 94d7 3e3e 81fd 1bbe 225f fb3c 1158 be3d
00000320: d7e2 333d c600 9abc 7960 1e3e a6ee 64bd
00000330: 69e7 053e 1ab7 d73c 61f3 16be 9a21 e83d
00000340: f1aa 153e a16b 39bd 103a 04be 190b 0f3e
00000350: d790 233e df2b 86bd c814 39be a42d d9bd
00000360: 9fe1 5cbd 6fbb 053e 6995 2f3d 662b 383e
00000370: 350e 44bd 1545 0fbe 9a96 c1bd 6289 2e3e
00000380: 4bad 87bd 15d3 3abe 2644 fd3d 88ae b63d
00000390: 6238 32be 48f8 a5bd 1a55 ebbd e332 6e3d
000003a0: e108 8bbd d6da 40bc 50d3 303d 2e88 37be
000003b0: d75c 8cbd bfd4 633d dea1 5bbe 7545 2a3e
000003c0: 697b 56be ed60 d83c ac2b 00be 21d4 623b
000003d0: 53cc de3d a37b 283e b7d3 0b3d ca39 1fbd
000003e0: 5a7a c7bd 61ef 193e f696 51be 4359 c2bd
000003f0: 6ad0 6a3d 6a45 c5bc 2b44 b03d bdc2 ecbd

self_attn.qkv_proj.bias f4 [108]
-0.013682821 0.014902284 -0.012424338 -0.0104858205 0.013747121 -0.0042859847 -0.02060739 -0.014113359
0.0020123173 -0.023749882 -0.019598562 -0.009016277 0.012860494 -0.006501167 0.021005822 0.010179046
0.018421736 -0.01519067 -0.01393134 -0.028631335 0.013423201 -0.0009957226 -0.023208808 0.0010210318
-0.012672848 -0.025833994 0.014838793 -0.0071952404 0.010989787 -0.01504668 -0.018281132 -0.010310508
0.022406917 0.011517297 -0.027305255 -0.010784462 0.0005087646 0.00052219327 -0.00053763937 -2.4146325e-07
0.00078503275 -0.0006544726 -0.00058737455 0.00016780183 0.0008838289 -0.0006804907 -0.00030940757 -0.0008007912
0.00082194153 0.0009025762 -0.0005054565 0.00049376383 0.0011659578 -0.0007018318 0.0005284891 -0.00056073273
-0.0006247315 -0.00048780115 -0.0003550914 -0.00055143225 -0.00068016024 -0.00073834567 0.0001257186 0.00024542742
0.00071991957 -0.0010153513 -0.000678501 0.00032082218 0.00039481896 -0.00072114484 -0.0005063471 -0.000659767
-0.019861093 -0.0031143383 0.043098807 -0.023359912 -0.019297028 -0.056269698 -0.027253648 -0.052483626
-0.020922834 0.021702498 0.021685733 -0.033239327 0.036962364 -0.036382884 0.032409552 0.023564508
0.03775577 -0.022379419 0.026620751 -0.015728462 0.032580458 -0.019803477 0.027645195 0.014179384
0.04162911 0.027815377 0.047034293 0.005308214 0.025090704 -0.037637107 -0.03613613 0.028575199
0.029237365 0.0347481 0.0041167946 0.059483062
00000000: e92d 60bc b628 743c 738f 4bbc b8cc 2bbc
00000010: 9b3b 613c 7271 8cbb d4d0 a8bc b83b 67bc
00000020: 15e1 033b 1d8f c2bc 2a8d a0bc 02b9 13bc
00000030: d2b4 523c be07 d5bb 6714 ac3c 03c6 263c
00000040: 2ee9 963c 4ae2 78bc 4640 64bc 438c eabc
00000050: fcec 5b3c e882 82ba 6620 bebc 24d4 853a
00000060: c7a1 4fbc d0a1 d3bc 691e 733c 0dc6 ebbb
00000070: 820e 343c 5a86 76bc 50c2 95bc 68ed 28bc
00000080: b68e b73c 0bb3 3c3c 45af dfbc 50b1 30bc
00000090: 9d5e 053a cce3 083a 5ef0 0cba 75a2 81b4
000000a0: a8ca 4d3a ea90 2bba 0afa 19ba f6f3 2f39
000000b0: c1b0 673a f562 32ba fb37 a2b9 30ec 51ba
000000c0: 9077 573a dd9a 6c3a 9d80 04ba ee6f 013a
000000d0: 0dd3 983a 23fb 37ba 4e8a 0a3a 23fe 12ba
000000e0: 05c5 23ba 90bf ffb9 902b bab9 fe8d 10ba
000000f0: c84c 32ba 8a8d 41ba 54d3 0339 b6ac 8039
00000100: fcb8 3c3a 8915 85ba 6edd 31ba 0634 a839
00000110: b4ff ce39 360b 3dba 61bc 04ba 37f4 2cba
00000120: bbb3 a2bc ed19 4cbb 6088 303d 495d bfbc
00000130: cd14 9ebc 0e7b 66bd 0b43 dfbc 12f9 56bd
00000140: 5d66 abbc 70c9 b13c 47a6 b13c f625 08bd
00000150: d965 173d 3806 15bd e1bf 043d 5b0a c13c
00000160: cba5 1a3d 0b55 b7bc c313 da3c fad8 80bc
00000170: 1673 053d e73a a2bc 2d78 e23c a650 683c
00000180: 4983 2a3d 13dd e33c 08a7 403d 87f0 ad3b
00000190: 058b cd3c 5e29 1abd 7b03 14bd 8916 ea3c
000001a0: 3383 ef3c 0654 0e3d 2de6 863b 83a4 733d

self_attn.o_proj.weight f4 [36, 36]
-0.2587587 -0.1833764 -0.27503216 0.23404197 0.24491972 0.05637439 0.120054916 0.17112489
0.11473812 -0.17093396 0.030210154 -0.2969563 -0.14424314 0.10384615 -0.033040717 0.12472907
-0.24348901 -0.12153739 -0.102619834 -0.0680817 -0.020431608 0.23928759 0.23213829 -0.2746789
0.15895906 0.2878267 -0.15875582 0.050358374 -0.24652454 -0.24411717 0.111604944 0.19141388
-0.18638662 -0.14901419 0.17251872 0.15749696 0.101466924 -0.20898084 -0.22010066 0.032579478
0.05702016 0.2627986 -0.020332903 0.18944253 -0.2714734 -0.060075227 0.2580978 -0.21464075
-0.0968377 0.07788587 0.16552061 -0.22884318 0.22815707 -0.064693585 -0.015687961 0.113319725
-0.117553785 -0.014192305 -0.0012549482 -0.20648786 -0.12535758 0.19076402 0.05933646 -0.25413042
-0.20389122 0.032140873 -0.20527083 0.0051491065 -0.19382584 -0.17717148 -0.18203083 -0.28228724
-0.24874361 -0.18868116 -0.08962648 0.086830966 0.23028769 -0.10711841 0.12630838 0.30876756
0.30644423 -0.28062057 -0.14352944 0.28778803 -0.09945208 -0.081197016 0.16369791 0.30793014
0.07644655 0.2641206 0.06363958 -0.10170267 0.18281375 -0.23181872 -0.1362988 -0.26289672
0.080081895 -0.16995326 -0.25788388 -0.069033906 0.11594091 0.123299025 0.1771489 -0.21046385
0.20519798 -0.20651174 -0.012706523 -0.1103255 -0.2577009 0.052227244 -0.0072631133 -0.2139793
-0.12743944 -0.3431548 -0.089306705 0.24339071 -0.02584391 0.049968593 0.22048993 -0.23195559
0.25355148 -0.2282206 -0.062484954 -0.15660939 0.14740126 -0.19304313 -0.057305798 0.022296116
-0.076511726 -0.023169003 -0.13372481 0.22479028 0.2024919 -0.038267303 -0.020593375 -0.13985461
-0.060218517 0.14195675 0.07838122 0.22353877 0.29006132 0.025294092 0.30795252 -0.21020879
-0.15055846 -0.15358427 -0.1727195 -0.027218398 0.13847975 0.2511976 0.16048904 -0.23937246
-0.03335878 -0.17195418 0.1892454 0.06266691 -0.31168157 0.06586883 -0.32046825 -0.26541322
-0.24658243 -0.060936168 -0.22245328 0.23546201 -0.2589787 -0.12623526 0.041593835 -0.14030463
0.018569909 -0.19678994 -0.30981648 0.08082058 -0.062248934 0.052388184 -0.15756653 0.12623689
-0.10639775 -0.09239068 0.25712314 0.13710214 -0.29217628 -0.25798312 0.06718363 0.03981172
0.1266438 0.17338158 -0.26497287 -0.12793157 0.10717048 -0.1337868 -0.19736454 -0.09871253
0.28734678 -0.03903721 0.28758544 -0.09380427 0.27459666 -0.06635986 -0.123943724 -0.21916638
-0.1577335 -0.19201414 -0.15074848 0.20872283 -0.19835427 0.026436348 0.33745205 0.21650614
-0.044086438 0.19571848 -0.17143041 -0.14384536 0.04453165 -0.057131942 0.19255038 0.28210196
0.22932296 0.31638557 -0.19441342 0.12308964 0.17914152 0.2623996 0.11657565 0.19393857
0.07334044 0.08683844 0.025262816 0.16121459 -0.075784415 0.32556754 0.06633262 -0.01897955
-0.2447055 -0.07153378 -0.26047325 0.15460251 0.2737431 0.32113463 -0.27042383 0.09791496
-0.22669534 0.18993612 -0.17626707 -0.18429893 -0.049328934 0.23555803 -0.10199031 -0.15586743
0.22780351 -0.25223032 -0.0960912 0.18942529 0.016998157 -0.036489144 -0.109614655 -0.26919284
00000000: 057c 84be 06c7 3bbe 04d1 8cbe b3a8 6f3e
00000010: 3ccc 7a3e d5e8 663d 5adf f53d 5d3b 2f3e
00000020: d2fb ea3d 5009 2fbe 497b f73c a80a 98be
00000030: 79b4 13be 4aad d43d b455 07bd f471 ff3d
00000040: 2f55 79be 98e8 f8bd 592a d2bd 6b6e 8bbd
00000050: 3060 a7bc ce07 753e a9b5 6d3e b6a2 8cbe
00000060: 2ac6 223e 055e 933e e390 22be 9544 4e3d
00000070: ee70 7cbe daf9 79be 2291 e43d 0002 443e
00000080: 22dc 3ebe 2d97 18be bfa8 303e e246 213e
00000090: e4cd cf3d 13ff 55be 1162 61be 0f72 053d
000000a0: f98d 693d 8a8d 863e 3091 a6bc 39fd 413e
000000b0: 90fe 8abe 7111 76bd 6525 843e c9ca 5bbe
000000c0: d852 c6bd a182 9f3d 3c7e 293e de55 6abe
000000d0: 02a2 693e 127e 84bd 0a84 80bc 2c14 e83d
000000e0: 0ac0 f0bd d786 68bc 137d a4ba 8e71 53be
000000f0: bd5d 00be a557 433e ca0a 733d 621d 82be
00000100: dcc8 50be 26a6 033d 8432 52be d6b9 a83b
00000110: 487a 46be 716c 35be 4a66 3abe f487 90be
00000120: a5b6 7ebe a235 41be 178e b7bd 6fd4 b13d
00000130: 89d0 6b3e e660 dbbd fc56 013e c816 9e3e
00000140: 42e6 9c3e 80ad 8fbe 62f9 12be f458 933e
00000150: 88ad cbbd 9f4a a6bd 6da0 273e 05a9 9d3e
00000160: 0290 9c3d d13a 873e 7855 823d 7d49 d0bd
00000170: 8733 3b3e e361 6dbe ea91 0bbe 669a 86be
00000180: fa01 a43d 3a08 2ebe 5b09 84be a661 8dbd
00000190: 6e72 ed3d 3384 fc3d 8566 353e d683 57be
000001a0: 6b1f 523e d077 53be 052f 50bc 56f2 e1bd
000001b0: 5ff1 83be 3cec 553d 69ff edbb 641d 5bbe
000001c0: 7c7f 02be fcb1 afbe 6fe6 b6bd 6a3b 793e
000001d0: 9cb6 d3bc deab 4c3d 1dc8 613e c485 6dbe
000001e0: 80d1 813e a9b2 69be 39f0 7fbd 365e 20be
000001f0: 5bf0 163e 19ad 45be 7cb9 6abd 58a6 b63c
00000200: 2eb2 9cbd eccc bdbc 28ef 08be 6c2f 663e
00000210: 095a 4f3e 2dbe 1cbd 70b3 a8bc 0c36 0fbe
00000220: b1a7 76bd 1c5d 113e 5586 a03d 59e7 643e
00000230: eb82 943e 8e35 cf3c f4ab 9d3e f940 57be
00000240: ff2b 1abe 3245 1dbe 61dd 30be 1ef9 debc
00000250: a3cd 0d3e f99c 803e 3d57 243e 0e1e 75be
00000260: 37a3 08bd c214 30be 8cc9 413e 8257 803d
00000270: ba94 9fbe 3de6 863d 6a14 a4be 3ee4 87be
00000280: 1b80 7cbe 3498 79bd cbca 63be f41c 713e
00000290: db98 84be d143 01be 4c5e 2a3d 04ac 0fbe
000002a0: ec1f 983c 4d83 49be 44a0 9ebe 4385 a53d
000002b0: bdf8 7ebd fe94 563d 1f59 21be 3e44 013e
000002c0: 10e7 d9bd 5337 bdbd a5a5 833e 8164 0c3e
000002d0: 2198 95be 5d16 84be 9297 893d 9d11 233d
000002e0: eaae 013e f18a 313e 86aa 87be 7e00 03be
000002f0: 327c db3d 68ff 08be ee19 4abe cc29 cabd
00000300: 1e1f 933e 7be5 1fbd 663e 933e 741c c0bd
00000310: ef97 8c3e aee7 87bd 35d6 fdbd 276d 60be
00000320: e484 21be 5b9f 44be cf5d 1abe 70bb 553e
00000330: 621d 4bbe 0a91 d83c 84c6 ac3e c9b3 5d3e
00000340: fb93 34bd 6d6a 483e 748b 2fbe 334c 13be
00000350: d266 363d 2f03 6abd ed2b 453e ab6f 903e
00000360: a3d3 6a3e 4afd a13e 5014 47be 6c16 fc3d
00000370: e070 373e 3e59 863e 37bf ee3d d597 463e
00000380: 8333 963d 5ad8 b13d f7f3 ce3c 7015 253e
00000390: dc34 9bbd cab0 a63e 66d9 873d 007b 9bbc
000003a0: 1494 7abe 4d80 92bd c05c 85be 1f50 1e3e
000003b0: 0e28 8c3e c26b a43e fe74 8abe a387 c83d
000003c0: d322 68be 9d7e 423e 5b7f 34be dcb8 3cbe
000003d0: 230d 4abd 2036 713e 4ce0 d0bd b69b 1fbe
000003e0: 5345 693e 5524 81be 77cb c4bd b4f8 413e
000003f0: b83f 8b3c a475 15bd a67d e0bd a5d3 89be

self_attn.o_proj.bias f4 [36]
0.0037119451 -3.642412e-05 -0.031027922 0.044944696 -0.028978955 0.044049878 -0.039661948 0.026574891
0.03751131 -0.02740442 0.022415478 0.043549467 -0.031300772 0.0059893434 -0.04934188 0.02356886
0.0015338415 -0.018249955 0.010868201 -0.03085893 0.0125191 -0.005623195 -0.0008532998 -0.039978206
0.03551679 -0.039870225 -0.030327456 -0.0023869944 -0.020852087 0.015224467 0.041875497 0.04185509
-0.008374288 -0.020570252 0.033962514 -0.045728114
00000000: 1b44 733b 1ac6 18b8 452e febc ee17 383d
00000010: 4665 edbc a56d 343d 9174 22bd 96b3 d93c
00000020: 76a5 193d 3c7f e0bc aaa0 b73c ed60 323d
00000030: 3d35 00bd 4142 c43b b61a 4abd 7b13 c13c
00000040: 2e0b c93a ee80 95bc 8a10 323c decb fcbc
00000050: e91c 4d3c c742 b8bb fbaf 5fba 30c0 23bd
00000060: 0e7a 113d f64e 23bd 4971 f8bc 1f6f 1cbb
00000070: ffd1 aabc 0b70 793c a485 2b3d 3e70 2b3d
00000080: 4f34 09bc f282 a8bc 471c 0b3d 674d 3bbd

fc.weight f4 [1, 18]
-0.18549381 -0.11410152 0.10133212 0.09029356 0.23209108 0.0076222294 -0.06434419 -0.15184113
0.005153745 0.14278723 0.13525651 -0.15172647 0.19579352 -0.088318214 0.22484891 -0.08942373
-0.17272028 0.027590226
00000000: 17f2 3dbe 0fae e9bd 3787 cf3d d4eb b83d
00000010: 49a9 6d3e e5c3 f93b e3c6 83bd 3e7c 1bbe
00000020: bfe0 a83b d136 123e af80 0a3e 2f5e 1bbe
00000030: 197e 483e 2ee0 b4bd cb3e 663e ca23 b7bd
00000040: 96dd 30be e604 e23c

fc1.weight f4 [1, 36]
-0.1840317 0.22236308 -0.17935547 0.005521445 -0.21988437 0.1414326 -0.02019865 0.088039435
0.07651131 -0.24211046 0.14676614 0.078225836 0.026969919 0.20415914 -0.01361095 0.24897948
0.13880381 -0.18420705 0.12918268 -0.15267575 0.18151516 -0.111875445 -0.106215134 -0.25480625
0.20558988 -0.24984844 -0.16682066 0.085969046 -0.12196021 0.0983321 0.24541432 0.046217386
-0.11294168 -0.09636405 0.14023747 0.057770036
00000000: ce72 3cbe 26b3 633e f6a8 37be 3ded b43b
00000010: 5e29 61be b5d3 103e a477 a5bc 054e b43d
00000020: f6b1 9c3d ceeb 77be dd49 163e de34 a03d
00000030: 05f0 dc3c 180f 513e 7600 5fbc 7af4 7e3e
00000040: 9622 0e3e c6a0 3cbe 7748 043e 0857 1cbe
00000050: 1cdf 393e f41e e5bd 5287 d9bd f775 82be
00000060: 2786 523e 45d8 7fbe 09d3 2abe 8a10 b03d
00000070: 46c6 f9bd 5762 c93d e44d 7b3e 714e 3d3d
00000080: f84d e7bd 845a c5bd 699a 0f3e 46a0 6c3d

fc2.weight f4 [1, 9]
-0.2475398 0.23643038 -0.26214755 0.03520032 0.019434571 -0.07241821 -0.098760486 0.21428907
0.07290065
00000000: 137b 7dbe ce1a 723e 3438 86be 362e 103d
00000010: 4035 9f3c 0050 94bd f042 cabd 986e 5b3e
00000020: f04c 953d

fc3.weight f4 [1, 2]
-0.46332806 -0.7069727
00000000: 5639 edbe 2afc 34bf

input_fc.weight f4 [18, 3]
0.105370484 -0.33667833 -0.25430074 0.4275057 0.16328716 -0.027060866 -0.06485105 0.49201617
-0.07166969 -0.54935807 0.0815199 -0.052091975 -0.44496495 0.3861627 0.15024862 -0.532697
0.27780733 0.49471065 0.42212865 0.32737264 0.09014284 0.039540034 -0.19263883 -0.09257371
0.042279556 -0.025243262 -0.49971548 -0.16150717 0.32160407 -0.27450097 0.21787868 -0.16559711
-0.09035565 -0.26749006 0.027032247 -0.5006251 0.03238928 0.27343652 0.1104615 0.026497655
-0.050618492 0.15149656 -0.0996406 0.401209 0.5545395 0.049228042 0.23607533 0.5566228
0.13200116 -0.19940475 -0.36418465 0.083227046 0.22265585 -0.3024306
00000000: 7bcc d73d 1a61 acbe b533 82be 07e2 da3e
00000010: c034 273e c0ae ddbc a1d0 84bd 8be9 fb3e
00000020: 8fc7 92bd bba2 0cbf e8f3 a63d 655e 55bd
00000030: 72d2 e3be 1eb7 c53e c6da 193e d55e 08bf
00000040: c33c 8e3e b74a fd3e 3f21 d83e 639d a73e
00000050: cf9c b83d bbf4 213d 1d43 45be 4997 bdbd
00000060: 542d 2d3d f5ca cebc b5da ffbe 2362 25be
00000070: 4aa9 a43e 648b 8cbe 971b 5f3e 4a92 29be
00000080: 620c b9bd 75f4 88be bb72 dd3c f728 00bf
00000090: 9faa 043d dfff 8b3e a439 e23d 9c11 d93c
000000a0: 5655 4fbd ea21 1b3e 5f10 ccbd 446b cd3e
000000b0: 4df6 0d3f 58a3 493d bbbd 713e d57e 0e3f
000000c0: 502b 073e c230 4cbe 6976 babe f172 aa3d
000000d0: e5ff 633e 2fd8 9abe

input_fc.bias f4 [18]
0.028178915 0.50533974 -0.16673715 0.50329137 0.51908964 0.5864094 -0.21762507 0.28178844
-0.42213368 0.45280305 0.4480505 -0.06557692 0.045154765 0.35323974 -0.24189667 0.2938827
0.20292157 -0.3590729
00000000: 78d7 e63c f25d 013f 25bd 2abe b4d7 003f
00000010: 0fe3 043f ed1e 163f 1bd9 5ebe 9346 903e
00000020: e821 d8be cdd5 e73e e066 e53e 314d 86bd
00000030: 34f4 383d d7db b43e c3b3 77be cb77 963e
00000040: acca 4f3e 67d8 b7be

norm.weight f4 [36]
1.0 1.0 1.0 1.0 1.0 1.0 1.0 1.0
1.0 1.0 1.0 1.0 1.0 1.0 1.0 1.0
1.0 1.0 1.0 1.0 1.0 1.0 1.0 1.0
1.0 1.0 1.0 1.0 1.0 1.0 1.0 1.0
1.0 1.0 1.0 1.0
00000000: 0000 803f 0000 803f 0000 803f 0000 803f
00000010: 0000 803f 0000 803f 0000 803f 0000 803f
00000020: 0000 803f 0000 803f 0000 803f 0000 803f
00000030: 0000 803f 0000 803f 0000 803f 0000 803f
00000040: 0000 803f 0000 803f 0000 803f 0000 803f
00000050: 0000 803f 0000 803f 0000 803f 0000 803f
00000060: 0000 803f 0000 803f 0000 803f 0000 803f
00000070: 0000 803f 0000 803f 0000 803f 0000 803f
00000080: 0000 803f 0000 803f 0000 803f 0000 803f

norm.bias f4 [36]
0.0 0.0 0.0 0.0 0.0 0.0 0.0 0.0
0.0 0.0 0.0 0.0 0.0 0.0 0.0 0.0
0.0 0.0 0.0 0.0 0.0 0.0 0.0 0.0
0.0 0.0 0.0 0.0 0.0 0.0 0.0 0.0
0.0 0.0 0.0 0.0
00000000: 0000 0000 0000 0000 0000 0000 0000 0000
00000010: 0000 0000 0000 0000 0000 0000 0000 0000
00000020: 0000 0000 0000 0000 0000 0000 0000 0000
00000030: 0000 0000 0000 0000 0000 0000 0000 0000
00000040: 0000 0000 0000 0000 0000 0000 0000 0000
00000050: 0000 0000 0000 0000 0000 0000 0000 0000
00000060: 0000 0000 0000 0000 0000 0000 0000 0000
00000070: 0000 0000 0000 0000 0000 0000 0000 0000
00000080: 0000 0000 0000 0000 0000 0000 0000 0000

norm1.weight f4 [9]
1.0 1.0 1.0 1.0 1.0 1.0 1.0 1.0
1.0
00000000: 0000 803f 0000 803f 0000 803f 0000 803f
00000010: 0000 803f 0000 803f 0000 803f 0000 803f
00000020: 0000 803f

norm1.bias f4 [9]
0.0 0.0 0.0 0.0 0.0 0.0 0.0 0.0
0.0
00000000: 0000 0000 0000 0000 0000 0000 0000 0000
00000010: 0000 0000 0000 0000 0000 0000 0000 0000
00000020: 0000 0000

norm2.weight f4 [9]
1.0 1.0 1.0 1.0 1.0 1.0 1.0 1.0
1.0
00000000: 0000 803f 0000 803f 0000 803f 0000 803f
00000010: 0000 803f 0000 803f 0000 803f 0000 803f
00000020: 0000 803f

norm2.bias f4 [9]
0.0 0.0 0.0 0.0 0.0 0.0 0.0 0.0
0.0
00000000: 0000 0000 0000 0000 0000 0000 0000 0000
00000010: 0000 0000 0000 0000 0000 0000 0000 0000
00000020: 0000 0000

m.running_mean f4 [12]
3.5661845 3.5894902 3.5748003 3.5417454 3.5259519 3.5401196 3.568801 3.5782683
3.5508058 3.5041442 3.4719474 3.4792914
00000000: 5e3c 6440 35ba 6540 87c9 6440 f5ab 6240
00000010: 32a9 6140 5291 6240 3c67 6440 5902 6540
00000020: 6740 6340 e643 6040 6334 5e40 b6ac 5e40

m.running_var f4 [12]
176.65813 177.92938 179.03908 179.41231 178.86017 178.26529 178.19577 178.88077
179.77922 179.87758 179.11662 177.96407
00000000: 7ba8 3043 eced 3143 010a 3343 8d69 3343
00000010: 34dc 3243 ea43 3243 1e32 3243 7ae1 3243
00000020: 7bc7 3343 a9e0 3343 db1d 3343 cdf6 3143

linear_net.0.weight f4 [9, 18]
0.04410395 -0.14995852 0.10101077 0.0034878766 0.07826625 -0.19533314 0.128072 0.16175924
-0.23382394 0.037472818 -0.021471627 -0.018373244 0.19228482 -0.16946806 0.16711465 0.117445394
0.17251438 0.012047565 0.09631286 0.10495937 0.048828416 -0.13972487 -0.014175615 -0.17877066
-0.12409328 -0.19175448 0.06866084 0.059686653 -0.20568128 -0.2156659 -0.1323805 -0.10108455
-0.123420194 -0.077634156 -0.11121828 -0.10034218 -0.12119121 -0.007034337 0.21529236 0.027011184
-0.22096322 -0.14818992 -0.20317692 -0.18271856 0.16026522 -0.07744194 0.16092359 -0.20563394
-0.076599225 0.022319678 -0.08511938 -0.036553286 -0.16445263 -0.17519383 0.009067529 -0.11412181
-0.22913527 -0.073806636 -0.065335676 -0.09955443 -0.1568472 0.03677661 -0.16857484 0.064675435
0.22902241 -0.15167597 0.056749973 -0.22273964 0.12034426 0.21945994 -0.22122814 -0.18550952
-0.23273948 0.058518708 0.04298338 0.06872921 -0.20398591 -0.20134519 0.1594133 0.14734471
-0.12532228 0.22630286 0.10585878 0.07743702 -0.17401125 0.13586076 -0.16309805 -0.16423918
0.04530286 0.013587554 0.13050589 -0.23464218 -0.10881173 0.17535253 -0.023141008 -0.05305794
-0.04458246 0.17892745 -0.019729108 -0.030426372 -0.04058497 -0.021047799 -0.14323604 0.13574697
-0.12873156 0.10671953 0.14137413 -0.22976486 0.09438144 -0.17053753 -0.13615425 0.13333482
0.08478904 -0.16431329 0.040501434 0.17894875 0.15815815 0.06145921 0.19375767 0.19447584
0.040948447 -0.124054275 -0.16628839 -0.09699864 0.22252573 -0.21303922 -0.1662308 -0.17865543
-0.17568998 -0.1401238 0.21218196 0.021457298 0.020499384 0.16116177 -0.053240124 -0.061295316
-0.120622456 0.10997566 0.16976695 0.18819574 0.086741924 -0.21848825 0.18528098 0.044422805
-0.040036976 -0.05558613 -0.018930314 0.22022931 -0.0911368 -0.008042322 -0.0044116513 0.18285829
0.07170775 0.16044892 0.011022749 0.123255394 0.04957672 0.12776008 -0.10949881 -0.07280318
-0.061937183 -0.11754205
00000000: 58a6 343d ba8e 19be bcde ce3d dc94 643b
00000010: 0e4a a03d 6905 48be 4e25 033e 37a4 253e
00000020: 8b6f 6fbe 197d 193d 44e5 afbc 7c83 96bc
00000030: 50e6 443e 0989 2dbe 1a20 2b3e 3687 f03d
00000040: 9ca7 303e 2663 453c ad3f c53d f0f4 d63d
00000050: 4e00 483d 0914 0fbe d740 68bc a80f 37be
00000060: 9e24 febd 495b 44be 0e9e 8c3d fe79 743d
00000070: 1d9e 52be 86d7 5cbe c18e 07be 6b05 cfbd
00000080: bac3 fcbd a8fe 9ebd 69c6 e3bd 3380 cdbd
00000090: 1933 f8bd 4c80 e6bb 9a75 5c3e 8f46 dd3c
000000a0: 2f44 62be 19bf 17be 9c0d 50be 931a 3bbe
000000b0: 911c 243e e199 9ebd 27c9 243e b491 52be
000000c0: 0ee0 9cbd c2d7 b63c 1253 aebd e6b8 15bd
000000d0: 4566 28be 0366 33be f98f 143c b2b8 e9bd
000000e0: 70a2 6abe ef27 97bd b6ce 85bd 31e3 cbbd
000000f0: 8d9c 20be 12a3 163d e29e 2cbe 8e74 843d
00000100: da84 6a3e f250 1bbe a972 683d dc15 64be
00000110: 0d77 f63d 1bba 603e a189 62be 35f6 3dbe
00000120: 4253 6ebe 50b1 6f3d 570f 303d e6c1 8c3d
00000130: afe1 50be 6f2d 4ebe 3d3d 233e 88e1 163e
00000140: 7c54 00be f0bb 673e 7dcc d83d 4d97 9e3d
00000150: 0130 32be 151f 0b3e 2d03 27be 512e 28be
00000160: 7e8f 393d 559e 5e3c 56a3 053e 0a46 70be
00000170: afd8 debd 9d8f 333e 3692 bdbc 4853 59bd
00000180: 199c 36bd c238 373e f09e a1bc ba40 f9bc
00000190: 6d3c 26bd 6f6c acbc 78ac 12be 4101 0b3e
000001a0: 35d2 03be c58f da3d 61c4 103e 7b47 6bbe
000001b0: 0e4b c13d 64a1 2ebe 056c 0bbe ec88 083e
000001c0: e0a5 ad3d be41 28be d5e4 253d 573e 373e
000001d0: 36f4 213e a7bc 7b3d 6968 463e ad24 473e
000001e0: 8fb9 273d 2b10 febd 8147 2abe 39a7 c6bd
000001f0: c9dd 633e f426 5abe 6838 2abe 73f1 36be
00000200: 13e8 33be 9d7c 0fbe 3a46 593e 37c7 af3c
00000210: 53ee a73c 9707 253e 5112 5abd cc10 7bbd
00000220: e808 f7bd eb3a e13d 63d7 2d3e 62b6 403e
00000230: c0a5 b13d 62bb 5fbe 4cba 3d3e b0f4 353d
00000240: d0fd 23bd 48ae 63bd bf13 9bbc cb83 613e
00000250: eea5 babd f1c3 03bc 9d8f 90bb 343f 3b3e
00000260: 83db 923d b94c 243e c398 343c 536d fc3d
00000270: f510 4b3d 8ad3 023e e940 e0bd d519 95bd
00000280: d8b1 7dbd e3b9 f0bd

linear_net.0.bias f4 [9]
0.0690101 -0.056916874 0.0950267 0.047232736 0.041040804 -0.028297085 0.030203443 0.15417132
-0.11845299
00000000: 2b55 8d3d ab21 69bd 5c9d c23d 1d77 413d
00000010: 671a 283d 4acf e7bc 366d f73c 16df 1d3e
00000020: 7b97 f2bd

linear_net.2.weight f4 [1, 9]
-0.055768333 0.045739453 -0.123175025 0.08949876 0.0667392 -0.20318091 0.30061746 0.0060186787
0.31482145
00000000: 566d 64bd 4b59 3b3d 3043 fcbd 204b b73d
00000010: 90ae 883d a80e 50be 88ea 993e 5638 c53b
00000020: 4730 a13e

exp_avg f4 [108, 36]
-3.8605153e-06 6.038142e-06 2.5644256e-06 -5.840367e-06 -3.6308964e-07 8.963009e-07 8.15335e-06 -1.8751125e-06
-4.366266e-06 -1.5753595e-06 3.9977326e-07 -7.3595065e-06 3.6005918e-06 1.3732928e-06 7.103113e-06 7.6074484e-06
-3.3915237e-06 -1.10138096e-07 8.823828e-08 -3.2273615e-08 3.6397338e-07 -3.305415e-07 2.5522263e-07 1.9692766e-07
9.5541544e-08 2.7213417e-07 3.4490217e-08 2.8164365e-07 1.2402157e-08 2.8286746e-07 4.4574295e-09 2.8302543e-07
1.6019319e-09 2.830458e-07 5.757054e-10 2.8304842e-07 2.6592813e-06 -1.1139465e-05 -4.766976e-06 1.0317127e-05
3.7995796e-06 6.2870513e-06 -1.3104441e-05 1.7416357e-06 6.2458514e-07 -3.6506398e-07 -2.3855034e-06 6.293966e-06
-4.43698e-06 -3.605656e-07 -4.13708e-06 -5.3324707e-06 4.939322e-07 -3.833716e-06 -2.482972e-06 7.9858086e-07
2.5824818e-06 9.2579035e-07 -5.537064e-07 4.852544e-07 -3.3914014e-07 -2.407093e-07 -1.2895562e-07 -3.514632e-07
-4.6676195e-08 -3.6606633e-07 -1.6789993e-08 -3.6795709e-07 -6.0347265e-09 -3.682018e-07 -2.168801e-09 -3.682335e-07
-7.4394034e-06 6.305959e-06 1.3021812e-08 -8.1505e-06 5.30477e-07 7.999974e-06 1.0005552e-05 -2.9640737e-06
-1.3258815e-05 -7.5055796e-06 -2.7281118e-07 -1.7054059e-05 5.0717294e-06 4.332934e-06 1.5914758e-05 1.7251326e-05
-9.154234e-06 -5.9032673e-06 -1.2103911e-06 1.6737554e-08 2.6809025e-06 5.3733396e-07 2.7373869e-08 9.844622e-07
-8.9336936e-08 5.5279224e-07 -3.7162987e-08 4.841223e-07 -1.3593229e-08 4.7502516e-07 -4.8962e-09 4.7384654e-07
-1.7601157e-09 4.7369406e-07 -6.3257716e-10 4.7367456e-07 -2.6532443e-05 5.9987535e-05 1.9316241e-05 -6.0740826e-05
-1.52909e-05 -9.591978e-06 7.585274e-05 -1.3337288e-05 -3.0956766e-05 -1.4883059e-05 9.718962e-06 -6.282257e-05
2.9052031e-05 1.083648e-05 5.07324e-05 5.887003e-05 -2.129946e-05 3.144603e-06 5.300434e-07 -4.8146543e-08
4.3648825e-07 5.151726e-07 1.2382806e-06 1.918419e-06 5.4471036e-07 2.5479137e-06 2.0079703e-07 2.6410214e-06
7.239914e-08 2.6532557e-06 2.6029898e-08 2.654839e-06 9.355171e-09 2.6550438e-06 3.3620973e-09 2.6550701e-06
2.5732504e-07 -4.0786363e-06 -2.3018117e-06 3.3569136e-06 1.5907299e-06 3.7903583e-06 -4.4901954e-06 4.2769838e-07
-1.5949581e-06 -1.3552785e-06 -1.0182498e-06 3.4488895e-07 -1.3488248e-06 4.7727616e-07 2.649916e-07 -1.2216165e-09
-9.952706e-07 -2.6179491e-06 -4.870682e-07 3.2401388e-07 7.515435e-07 2.5199691e-08 -6.555492e-08 9.957315e-08
-5.8535118e-08 -6.21242e-08 -2.281747e-08 -8.751372e-08 -8.283819e-09 -9.087248e-08 -2.9809408e-09 -9.130763e-08
-1.0714754e-09 -9.136386e-08 -3.850767e-10 -9.137121e-08 -6.7964397e-06 1.694996e-05 5.5185424e-06 -1.7065122e-05
-4.7953877e-06 -4.002719e-06 2.1129928e-05 -3.5058856e-06 -7.501323e-06 -3.6295423e-06 2.987096e-06 -1.6528877e-05
7.868733e-06 2.694967e-06 1.2888832e-05 1.5205522e-05 -5.087592e-06 1.5835273e-06 8.2309555e-07 -4.4597107e-07
-1.5067457e-06 -1.6587767e-06 1.0843908e-06 -2.9747338e-07 5.385601e-07 5.639056e-07 2.01054e-07 6.927628e-07
7.260717e-08 7.097158e-07 2.6110037e-08 7.119105e-07 9.384218e-09 7.1219415e-07 3.3725485e-09 7.1223076e-07
-8.745621e-06 2.1359128e-05 8.668172e-06 -2.0411164e-05 -4.939158e-06 -5.342496e-06 2.6696389e-05 -4.688101e-06
-7.809391e-06 -2.5155314e-06 3.335594e-06 -1.8654306e-05 1.0249759e-05 2.6830448e-06 1.5540474e-05 1.7797905e-05
-5.856977e-06 3.5843814e-06 1.4273542e-06 -2.3277391e-07 4.3763683e-07 1.881881e-06 -4.0238547e-07 1.2535023e-06
-1.9901209e-07 9.309209e-07 -7.429305e-08 8.8255126e-07 -2.6829735e-08 8.7618463e-07 -9.648163e-09 8.753603e-07
-3.4676502e-09 8.75254e-07 -1.2462221e-09 8.7524006e-07 -6.4247474e-06 1.794776e-05 6.852804e-06 -1.7349974e-05
00000000: 9389 81b6 3f9b ca36 7f18 2c36 5ff8 c3b6
00000010: a9ee c2b4 5499 7035 5fca 0837 60ac fbb5
00000020: f081 92b6 f170 d3b5 6ba0 d634 aef1 f6b6
00000030: b2a1 7136 fb51 b835 4757 ee36 7c43 ff36
00000040: ef99 63b6 0f85 ecb3 827d bd33 379d 0ab3
00000050: 1f68 c334 4775 b1b4 8805 8934 1073 5334
00000060: 852c cd33 d619 9234 6522 1433 cf34 9734
00000070: 4311 5532 02dd 9734 f727 9931 b8f2 9734
00000080: f82a dc30 85f5 9734 aa3f 1e30 e1f5 9734
00000090: 1b76 3236 a3e3 3ab7 03f4 9fb6 b917 2d37
000000a0: 48fc 7e36 5cf5 d236 25db 5bb7 26c2 e935
000000b0: 2aa9 2735 03fe c3b4 a316 20b6 c230 d336
000000c0: 5ee1 94b6 c293 c1b4 3fd1 8ab6 93ed b2b6
000000d0: c396 0435 5fa3 80b6 22a1 26b6 0f5e 5635
000000e0: b34e 2d36 d483 7835 6aa2 14b5 6e42 0235
000000f0: 1113 b6b4 d63a 81b4 0d77 0ab4 bcb0 bcb4
00000100: 0579 48b3 c687 c4b4 9639 90b2 a38b c5b4
00000110: 045a cfb1 45ad c5b4 f309 15b1 a0b1 c5b4
00000120: fd9f f9b6 c697 d336 89b6 5f32 22be 08b7
00000130: 1a66 0e35 a037 0637 85dd 2737 66ea 46b6
00000140: 2d72 5eb7 70d8 fbb6 e276 92b4 500f 8fb7
00000150: d32d aa36 9f63 9136 af80 8537 f1b6 9037
00000160: 2395 19b7 ae14 c6b6 b974 a2b5 45c6 8f32
00000170: 8ee9 3336 4f3d 1035 c623 eb32 dd21 8435
00000180: 80d9 bfb3 9863 1435 239d 1fb3 a2f4 0135
00000190: a787 69b2 f606 ff34 6e3b a8b1 f964 fe34
000001a0: 91e8 f1b0 0450 fe34 a9e1 2db0 564d fe34
000001b0: fd91 deb7 209b 7b38 5009 a237 f7c3 7eb8
000001c0: f544 80b7 3bed 20b7 2113 9f38 37c3 5fb7
000001d0: 93d7 01b8 40b2 79b7 a00e 2337 9cbf 83b8
000001e0: c3b4 f337 54ce 3537 80c9 5438 37eb 7638
000001f0: 3eac b2b7 de07 5336 4e48 0e35 afc9 4eb3
00000200: 7d56 ea34 644a 0a35 ff32 a635 30be 0036
00000210: 3638 1235 d3fc 2a36 ab9a 5734 673c 3136
00000220: d979 9b33 960e 3236 5a98 df32 c929 3236
00000230: 7ab8 2032 4e2d 3236 a40a 6731 c22d 3236
00000240: 7c26 8a34 38db 88b6 d378 1ab6 5647 6136
00000250: 1081 d535 dc5d 7e36 7caa 96b6 6b9e e534
00000260: 5812 d6b5 04e7 b5b5 ccaa 88b5 2d29 b934
00000270: 4409 b5b5 2b1e 0035 2b44 8e34 cfe5 a7b0
00000280: 3d95 85b5 06b0 2fb6 12bf 02b5 21f4 ad34
00000290: adbd 4935 b576 d832 33c7 8cb3 ebd4 d533
000002a0: 0b68 7bb3 2469 85b3 2600 c4b2 2def bbb3
000002b0: 9f50 0eb2 ad25 c3b3 44d9 4cb1 e714 c4b3
000002c0: 3043 93b0 d033 c4b3 bab2 d3af db37 c4b3
000002d0: f90c e4b6 c32f 8e37 eb2b b936 1227 8fb7
000002e0: 11e8 a0b6 184f 86b6 2d40 b137 a846 6bb6
000002f0: e0b3 fbb6 1093 73b6 eb75 4836 7ea7 8ab7
00000300: f303 0437 2edb 3436 1d3d 5837 381b 7f37
00000310: 15b6 aab6 9589 d435 b2f2 5c35 cc6d efb4
00000320: 633b cab5 22a3 deb5 628b 9135 6eb4 9fb4
00000330: 9191 1035 4c5f 1735 4de1 5734 4cf6 3935
00000340: 37ec 9b33 4c83 3e35 9448 e032 1e1a 3f35
00000350: 3a38 2132 9c2d 3f35 80c2 6731 2030 3f35
00000360: 28ba 12b7 612c b337 846d 1137 a438 abb7
00000370: 0bbb a5b6 b143 b3b6 0ff2 df37 7b4e 9db6
00000380: 1405 03b7 80d0 28b6 12d9 5f36 d17b 9cb7
00000390: 61f6 2b37 5c0e 3436 ea5c 8237 b64c 9537
000003a0: 0d87 c4b6 348b 7036 8493 bf35 68f0 79b4
000003b0: 59f4 ea34 f094 fc35 7007 d8b4 033e a835
000003c0: 07b0 55b4 66e4 7935 098b 9fb3 76e8 6c35
000003d0: 3677 e6b2 f332 6b35 12c1 25b2 4dfa 6a35
000003e0: 8c4b 6eb1 fff2 6a35 8b47 abb0 0af2 6a35
000003f0: 2994 d7b6 858e 9637 23f1 e536 c98a 91b7

exp_avg_sq f4 [108, 36]
4.611421e-08 1.6548233e-07 2.6071161e-08 1.5225564e-07 5.751594e-09 1.9441622e-08 3.0540838e-07 1.26087505e-08
2.6988046e-08 4.411149e-09 4.000913e-10 2.4401012e-07 5.3992203e-08 9.992135e-09 1.4175237e-07 1.303976e-07
1.2522549e-08 3.503941e-09 3.121468e-11 9.310667e-12 4.30168e-11 1.196257e-10 1.6883253e-10 1.2671308e-10
3.110004e-11 2.9094394e-10 4.20051e-12 3.214699e-10 5.456512e-13 3.2559683e-10 7.052596e-14 3.2613284e-10
9.109665e-15 3.2620207e-10 1.176572e-15 3.2621128e-10 2.8236578e-09 1.10422835e-08 1.725534e-09 1.0230401e-08
4.441621e-10 1.0111647e-09 1.942936e-08 7.5309814e-10 1.898542e-09 3.277339e-10 1.0251826e-10 1.4344074e-08
3.3292764e-09 5.442128e-10 8.785222e-09 8.970991e-09 9.551674e-10 2.1530072e-10 1.2183019e-11 2.2470263e-12
9.669566e-12 6.658895e-12 9.98547e-12 9.682311e-12 1.848291e-12 1.9037135e-11 2.4993503e-13 2.0810673e-11
3.2472038e-14 2.105107e-11 4.1971376e-15 2.1082308e-11 5.4213465e-16 2.1086351e-11 7.002035e-17 2.108686e-11
4.7071502e-08 1.6980295e-07 2.901662e-08 1.555521e-07 5.389299e-09 1.6320922e-08 3.1674253e-07 1.3954068e-08
3.0161807e-08 4.9616475e-09 1.1357286e-09 2.4727024e-07 5.7258788e-08 9.0458885e-09 1.4720904e-07 1.4222599e-07
1.6073301e-08 3.753823e-09 2.7526063e-11 1.4642938e-11 4.2981545e-11 1.0268717e-10 1.684328e-10 1.3387955e-10
3.1769587e-11 3.055455e-10 4.3035597e-12 3.3786898e-10 5.5924807e-13 3.4224648e-10 7.2287045e-14 3.4281533e-10
9.337171e-15 3.4288894e-10 1.2059602e-15 3.4289838e-10 8.0404774e-08 2.7300717e-07 4.9253014e-08 2.4506733e-07
6.8344668e-09 2.740293e-08 5.2072323e-07 2.3895959e-08 4.5806658e-08 5.9592264e-09 1.1119243e-09 4.1157276e-07
9.639684e-08 1.5494507e-08 2.4640602e-07 2.2474116e-07 2.4790126e-08 6.2323515e-09 2.977593e-11 1.376764e-11
8.598099e-11 1.3319054e-10 2.3062731e-10 2.5956368e-10 4.2295757e-11 5.064956e-10 5.710474e-12 5.511807e-10
7.417631e-13 5.5720467e-10 9.587311e-14 5.5798766e-10 1.238366e-14 5.5808824e-10 1.5994312e-15 5.581017e-10
2.0477556e-08 6.856844e-08 1.311457e-08 6.101692e-08 1.3749936e-09 6.9747585e-09 1.3546433e-07 6.6748496e-09
1.1459859e-08 1.2929399e-09 2.7496097e-10 1.0856262e-07 2.5683518e-08 3.6989023e-09 6.3239355e-08 5.6723234e-08
6.7066908e-09 1.647437e-09 5.1704648e-12 2.322272e-12 2.1966862e-11 1.936936e-11 5.6308888e-11 6.624686e-11
1.0246842e-11 1.3071055e-10 1.3822054e-12 1.4213165e-10 1.7952127e-13 1.4366769e-10 2.320284e-14 1.4386699e-10
2.99704e-15 1.438927e-10 3.8708733e-16 1.4389606e-10 1.0122866e-08 3.3765684e-08 6.740732e-09 2.9859862e-08
6.072173e-10 3.1943248e-09 6.714388e-08 3.3884842e-09 5.7081873e-09 6.2458744e-10 1.8351227e-10 5.3200573e-08
1.2871116e-08 1.7414776e-09 3.1324603e-08 2.8390613e-08 3.5100896e-09 8.5442337e-10 3.832855e-12 1.2708346e-12
1.2404299e-11 1.0127669e-11 2.7122445e-11 3.3959106e-11 4.9647066e-12 6.51099e-11 6.7021285e-13 7.0657744e-11
8.705604e-14 7.140443e-11 1.1252013e-14 7.1501256e-11 1.4533911e-15 7.151385e-11 1.8771486e-16 7.151534e-11
1.8663377e-08 6.569634e-08 1.0757066e-08 6.026699e-08 2.0088147e-09 7.2897395e-09 1.244058e-07 5.495437e-09
1.1169806e-08 1.665582e-09 2.0039272e-10 1.0108306e-07 2.2506125e-08 3.8445225e-09 5.8054894e-08 5.3383072e-08
5.637374e-09 1.3143115e-09 1.2695703e-11 4.39122e-12 2.153774e-11 3.5590197e-11 6.036506e-11 5.810048e-11
1.0958238e-11 1.2093279e-10 1.4776344e-12 1.3227161e-10 1.9190632e-13 1.337995e-10 2.4803466e-14 1.3399787e-10
3.2037848e-15 1.3402356e-10 4.1378946e-16 1.3402703e-10 1.38667655e-08 4.635869e-08 8.116268e-09 4.1443215e-08
00000000: 1c0f 4633 70af 3134 17f3 df32 b67b 2334
00000010: 8e9f c531 9400 a732 02f7 a334 df9d 5832
00000020: 57d3 e732 e090 9731 d8f3 db2f 7f00 8334
00000030: 0ee5 6733 e0a9 2b32 9834 1834 6b03 0c34
00000040: c122 5732 fbc9 7031 9b48 092e 84cb 232d
00000050: 9c30 3d2e a487 032f 22a2 392f 9052 0b2f
00000060: 88c7 082e b8f2 9f2f d5ca 932c deba b02f
00000070: 5096 192b aeff b22f 73cf 9e29 1e4b b32f
00000080: ea1a 2428 dc54 b32f d88f a926 2856 b32f
00000090: 500a 4231 7ab4 3d32 d527 ed30 c8c1 2f32
000000a0: 422e f42f 32f9 8a30 9de5 a632 9202 4f30
000000b0: 8177 0231 722c b42f a670 e12e e86d 7632
000000c0: 40c9 6431 9297 1530 d1ed 1632 d61e 1a32
000000d0: f746 8330 c4b9 6c2f 7153 562d d41e 1e2c
000000e0: db1b 2a2d fe49 ea2c 8faa 2f2d 4155 2a2d
000000f0: da0f 022c d173 a72d 6fb3 8c2a 780d b72d
00000100: b63d 1229 cc2a b92d c337 9727 2371 b92d
00000110: 7a42 1c26 3e7a b92d b874 a124 637b b92d
00000120: aa2b 4a33 1453 3634 3940 f932 d605 2734
00000130: c62c b931 1632 8c32 c30c aa34 a4ba 6f32
00000140: 428b 0133 1d7b aa31 e617 9c30 90c0 8434
00000150: b4ec 7533 3d68 1b32 8310 1e34 c8b6 1834
00000160: 9011 8a32 fafa 8031 2f1f f22d f7cc 802d
00000170: eb08 3d2e bdcf e12e 9e31 392f be33 132f
00000180: 60b9 0b2e b5f9 a72f 056b 972c d5be b92f
00000190: 126a 1d2b e926 bc2f a5c6 a229 f876 bc2f
000001a0: 1a34 2828 5481 bc2f 14cc ad26 a882 bc2f
000001b0: feaa ac33 d291 9234 438a 5333 cc91 8334
000001c0: 9bd4 ea31 ae63 eb32 d4c7 0b35 c543 cd32
000001d0: f4bc 4433 e9c1 cc31 5cd2 9830 21f6 dc34
000001e0: b902 cf33 c818 8532 c949 8434 6150 7134
000001f0: 10f2 d432 5824 d631 b8f4 022e f033 722d
00000200: ff12 bd2e ce71 122f d193 7d2f 57b2 8e2f
00000210: ca04 3a2e 7639 0b30 61eb c82c e581 1730
00000220: aac9 502b cb29 1930 16e3 d729 e460 1930
00000230: 8d15 5f28 f867 1930 9980 e626 ea68 1930
00000240: 9fe6 af32 e63f 9333 7d4e 6132 6808 8333
00000250: 49fa bc30 a0a6 ef31 2774 1134 9958 e531
00000260: fee0 4432 47b3 b130 5129 972f ee22 e933
00000270: a79e dc32 c72f 7e31 34ce 8733 db9f 7333
00000280: ad70 e631 096c e230 68eb b52c 556a 232c
00000290: fa38 c12d ec5f aa2d 2ca6 772e abad 912e
000002a0: ac43 342d c0b7 0f2f 3387 c22b 8146 1c2f
000002b0: 7c1f 4a2a dcf6 1d2f 1bfe d028 f52e 1e2f
000002c0: a1f5 5727 3236 1e2f 0224 df25 2437 1e2f
000002d0: d6e8 2d32 c305 1133 1b9c e731 443f 0033
000002e0: 1ee9 2630 2883 5b31 bd30 9033 d8da 6831
000002f0: bf21 c431 6faf 2b30 1dc6 492f a67e 6433
00000300: c41f 5d32 cc58 ef30 c489 0633 9edf f332
00000310: 2636 7131 b3dc 6a30 4adb 862c a4da b22b
00000320: ff37 5a2d f72a 322d 5192 ee2d 8e5a 152e
00000330: 1aae ae2c 9d2d 8f2e eda5 3c2b c660 9b2e
00000340: 6408 c429 1f05 9d2e c0b2 4a28 a13b 9d2e
00000350: ab74 d126 b842 9d2e a66b 5825 8f43 9d2e
00000360: 3351 a032 f214 8d33 14ce 3832 216c 8133
00000370: 710b 0a31 3a79 fa31 6894 0534 60d2 bc31
00000380: 54e5 3f32 75ea e430 8955 5c2f 0013 d933
00000390: 7e53 c132 c718 8431 0858 7933 4f47 6533
000003a0: deb2 c131 3aa3 b430 5d58 5f2d 9880 9a2c
000003b0: ae72 bd2d 0087 1c2e 82be 842e 5387 7f2e
000003c0: 84c7 402d 8ef7 042f 64f5 cf2b 266f 112f
000003d0: 3b11 582a 361d 132f e668 df28 0c55 132f
000003e0: 66db 6627 475c 132f 8c88 ee25 415d 132f
000003f0: ae3a 6e32 eb1b 4733 b96f 0b32 4cff 3133

exp_avg f4 [108]
2.8304893e-07 -3.6823815e-07 4.7367135e-07 2.6550738e-06 -9.1372215e-08 7.1223616e-07 8.7523813e-07 7.008553e-07
-2.5281486e-06 1.2892518e-06 1.0578682e-06 1.25264075e-08 -1.8861164e-06 7.161185e-07 -4.7528988e-07 -1.2005657e-06
8.143359e-08 -1.1929096e-06 -3.9001208e-07 3.8929855e-07 6.010906e-07 2.1286147e-07 6.9285085e-07 -9.995321e-07
-1.60103e-06 1.8981816e-06 3.1228555e-07 2.1514732e-06 -3.4970533e-06 -3.11433e-07 9.736673e-07 7.2562244e-07
-1.6056624e-06 1.1322093e-06 6.5880033e-07 1.3593262e-06 -1.1415663e-09 -1.4230629e-09 1.0262137e-09 -6.524828e-11
-2.3887718e-09 2.344269e-09 1.2213816e-09 -5.156316e-11 -2.5699913e-09 1.4400318e-09 2.4992636e-10 1.8386568e-09
-2.9034517e-09 -3.2259588e-09 1.0622371e-09 -2.2171e-09 -3.817173e-09 2.5036544e-09 -7.402732e-10 1.877216e-09
1.2701098e-09 7.0684925e-10 5.930677e-10 7.364584e-10 2.42291e-09 2.3185782e-09 -3.1672806e-10 -5.1678756e-10
-1.5924049e-09 4.23067e-09 1.8680142e-09 -4.2603426e-10 -1.2506121e-09 1.7473103e-09 7.6022316e-10 2.0428934e-09
-1.6551865e-05 1.6495058e-05 -2.7513797e-05 -4.410837e-05 8.852253e-06 1.0057534e-05 6.51925e-05 1.7038301e-05
4.8135786e-05 -8.715596e-06 -2.103948e-05 8.961704e-05 -0.00013020229 5.6299312e-05 -9.97094e-05 1.4014743e-05
-8.23401e-05 4.966452e-05 -9.789385e-05 2.72752e-05 2.8276298e-07 3.9068058e-05 -2.9806837e-05 -2.462034e-05
-2.7997781e-05 -6.5875465e-05 -6.757611e-05 7.966178e-06 -9.512451e-05 2.5493759e-05 7.69206e-05 -6.2562713e-06
-1.7920547e-05 -0.00011949238 -1.6368605e-05 -6.669996e-05
00000000: f3f5 9734 44b2 c5b4 e54c fe34 d22d 3236
00000010: 6838 c4b3 7f30 3f35 e8f1 6a35 6922 3c35
00000020: 43a9 29b6 5b0a ad35 13fc 8d35 b933 5732
00000030: 7726 fdb5 4a3b 4035 582b ffb4 2023 a1b5
00000040: 97e0 ae33 101c a0b5 da62 d1b4 c900 d134
00000050: a25a 2135 ea8e 6434 59fc 3935 a927 86b5
00000060: f9e2 d6b5 06c5 fe35 33a8 a734 0762 1036
00000070: ebae 6ab6 0733 a7b4 f4ae 8235 65c8 4235
00000080: 2482 d7b5 6af6 9735 6ad8 3035 1872 b635
00000090: 4be5 9cb0 9395 c3b0 af0a 8d30 847b 8fae
000000a0: b827 24b1 d118 2131 8bdd a730 f5c6 62ae
000000b0: c49b 30b1 9dea c530 0266 892f fcb3 fc30
000000c0: 1086 47b1 abaf 5db1 25fe 9130 a35b 18b1
000000d0: 3528 83b1 c10c 2c31 187c 4bb0 5500 0131
000000e0: 0490 ae30 184c 4230 6e05 2330 a76f 4a30
000000f0: 4980 2631 dc54 1f31 831f aeaf b10d 0eb0
00000100: c4db dab0 5e5d 9131 745e 0031 fe36 eaaf
00000110: 00e2 abb0 0426 f030 f3f7 5030 f662 0c31
00000120: dcd8 8ab7 de5e 8a37 6ecd e6b7 0001 39b8
00000130: 2384 1437 c8bc 2837 f5b7 8838 79ed 8e37
00000140: 68e5 4938 3339 12b7 f07d b0b7 c8f0 bb38
00000150: e986 08b9 ed22 6c38 141b d1b8 dd20 6b37
00000160: 01ae acb8 df4e 5038 5c4c cdb8 0ccd e437
00000170: a6ce 9734 02dd 2338 b209 fab7 c787 ceb7
00000180: c7dc eab7 9f26 8ab8 a6b7 8db8 79a6 0537
00000190: 957d c7b8 6edb d537 6f50 a138 f6ec d1b6
000001a0: 1554 96b7 fc97 fab8 504f 89b7 45e1 8bb8

exp_avg_sq f4 [108]
3.2621236e-10 2.108694e-11 3.4289965e-10 5.58104e-10 1.4389656e-10 7.151564e-11 1.3402755e-10 9.282681e-11
3.1510564e-10 3.353884e-11 9.059003e-11 3.5324313e-10 4.8031246e-10 7.3405354e-10 2.1470267e-10 6.114417e-10
1.514215e-10 2.3038169e-11 3.3151862e-10 1.2569457e-10 2.0348268e-10 1.9182242e-10 1.3464521e-10 1.5041111e-10
4.9784893e-10 8.8563566e-11 6.876192e-10 4.724737e-10 5.1416105e-10 3.7173298e-10 3.792239e-10 3.9462308e-10
4.0981323e-11 9.908142e-11 9.6989104e-11 2.971004e-10 1.0329502e-17 1.13874266e-17 5.3219746e-18 7.617251e-19
3.5718503e-17 2.7526782e-17 7.938936e-18 5.311088e-19 4.2361937e-17 1.242732e-17 1.1802246e-18 2.7666096e-17
4.6095285e-17 7.2900466e-17 8.622485e-18 2.5450112e-17 1.0233952e-16 3.635898e-17 4.574692e-18 1.9077362e-17
1.1851769e-17 6.54434e-18 2.2343873e-18 5.630709e-18 3.7704388e-17 3.3176527e-17 3.6945678e-19 1.9315346e-18
1.5342918e-17 1.0539124e-16 1.7478333e-17 2.2502969e-18 6.7172906e-18 2.0979368e-17 2.784101e-18 2.311898e-17
1.0673476e-06 2.039234e-08 1.8132467e-07 1.964751e-07 4.915224e-07 1.648253e-06 2.7513966e-06 3.4129772e-07
3.1767428e-07 6.887856e-07 7.699216e-07 2.0063314e-06 6.3849093e-06 2.413876e-06 2.6296682e-06 9.703006e-09
2.7386177e-06 1.0317332e-07 1.5094458e-06 4.6792144e-07 4.0556465e-08 4.5448252e-07 1.7874463e-07 5.5973055e-07
1.4406218e-07 1.2628495e-06 1.7329604e-06 7.946885e-08 1.4674866e-07 1.4837288e-07 2.9690223e-06 2.5691352e-07
8.391409e-08 1.1472731e-06 9.544667e-07 8.3631954e-07
00000000: 4f56 b32f 917b b92d d682 bc2f 1469 1930
00000010: 4837 1e2f ba43 9d2e 675d 132f d920 cc2e
00000020: 2d3b ad2f 6081 132e a735 c72e 8d32 c22f
00000030: fc06 0430 6dc6 4930 6e11 6c2f 6212 2830
00000040: 5d7d 262f 58a5 ca2d 1941 b62f e033 0a2f
00000050: 48bb 5f2f 36e9 522f 420b 142f f760 252f
00000060: 01d9 0830 dbc0 c22e e602 3d30 62df 0130
00000070: de54 0d30 c45c cc2f 057b d02f 43f2 d82f
00000080: de3c 342e e1e1 d92e 0348 d52e 2a55 a32f
00000090: b28b 3e23 9a0f 5223 a158 c422 52d2 6021
000000a0: f7b8 2424 c7e3 fd23 9172 1223 72c1 1c21
000000b0: 265c 4324 5c3e 6523 a02b ae21 b92c ff23
000000c0: b593 5424 d718 a824 890e 1f23 61bc ea23
000000d0: 97fa eb24 1bad 2724 bfc6 a822 26f5 af23
000000e0: 66a0 5a23 8b71 f122 62de 2422 8bbc cf22
000000f0: 7ce1 2d24 eeff 1824 bb16 da20 a885 0e22
00000100: 7183 8d23 0204 f324 8c35 a123 e80a 2622
00000110: 04d3 f722 2280 c123 2e6e 4d22 263c d523
00000120: c941 8f35 3b2b af32 25b2 4234 aaf6 5234
00000130: 2af1 0335 8b39 dd35 a2a4 3836 9a3b b734
00000140: d28c aa34 fce4 3835 9cac 4e35 83a4 0636
00000150: f43d d636 13fe 2136 5b79 3036 46b2 2632
00000160: 18c9 3736 2290 dd33 2a98 ca35 a236 fb34
00000170: 4e30 2e33 9aff f334 f3ec 3f34 6440 1635
00000180: 83af 1a34 2e7f a935 1198 e835 76a8 aa33
00000190: f791 1d34 6d50 1f34 6a3f 4736 eded 8934
000001a0: 4234 b433 01fc 9935 3a1b 8035 717f 6035
