SensorFormer/SensorFormer/checkpoints/CLfor12/chpt_AdamW_lr0.0003_ep50_7to9.pt (torch, 83172 bytes, 35 tensors)

self_attn.qkv_proj.weight f4 [108, 36]
-0.0833426 0.076994754 0.045380745 -0.17822048 0.112018675 0.20225419 -0.076434515 0.24867347
-0.09012728 0.09847344 -0.31308007 -0.20276201 -0.037386063 -0.09702575 0.15294564 -0.033615053
0.32830748 0.0016043371 0.09034525 0.05560642 -0.029139511 -0.032496512 -0.04995101 0.042819258
-0.13134353 -0.020823734 -0.007075759 0.051577747 -0.021225482 0.085941754 -0.06864866 -0.06100852
-0.099063754 0.20386696 0.11854192 -0.09419885 -0.16791679 -0.042324748 -0.1258106 -0.0020738908
0.009177955 0.06832247 0.17147747 -0.027040934 -0.0055228486 0.4406161 -0.09129203 -0.6132096
0.15635242 0.16592605 0.27333272 0.1743247 0.23523255 -0.040179033 -0.15653217 0.1454061
-0.027327787 -0.39732644 0.1280108 -0.00035619654 0.14265722 -0.1722553 -0.051121157 0.016134795
0.13410875 -0.22435401 0.14852889 -0.006763298 0.06041671 -0.13672084 -0.010761144 0.011609713
0.13059725 0.11923718 -0.14680807 -0.41650617 0.28291965 0.13044937 0.15194863 0.2514092
-0.171141 0.15039976 -0.1636814 -0.18794455 0.22464989 0.046473302 0.09627013 0.064653784
0.3388029 -0.4009031 -0.09330443 0.12054078 0.069136664 0.0437002 -0.011993962 0.07363378
0.008006286 0.019526474 0.06470978 0.21653953 0.038482383 0.017508272 0.17013633 -0.010409128
0.07806312 0.06787942 0.083745494 0.16136254 0.08938364 0.025504429 0.032580655 -0.02379586
0.025861599 0.18505101 -0.21858646 -0.0046429867 -0.12034452 -0.07641665 0.24355823 0.19684704
-0.23811251 0.04404505 -0.22199334 -0.08211949 0.14807342 -0.121837646 0.13927822 -0.0012212627
0.2235322 0.1884744 -0.023283986 0.033087216 0.08263526 0.15568575 0.09457195 -0.005583312
0.0077526732 -0.07119487 0.049893457 0.014569907 0.0067154905 0.14939365 -0.15202194 0.16197154
-0.13467418 0.07526556 0.024421392 0.052652515 -0.01682678 0.16519667 0.09415626 0.07628569
-0.036491532 -0.20439167 -0.017322697 -0.33053964 0.021580365 0.06039562 0.22738259 0.13943896
-0.20093034 0.13093561 0.09515893 0.13186084 0.1645611 -0.3374472 0.10118961 0.1066507
-0.03137371 0.08695792 0.1381984 0.03225174 -0.10476717 0.07472223 0.20104149 -0.025164125
0.11874826 0.12310753 -0.069961496 -0.15596671 0.10893792 -0.047701616 -0.06369503 -0.15150228
-0.06718893 0.056708883 -0.18528631 -0.15464038 -0.04945346 -0.13023672 -0.11705564 0.3599027
0.151817 0.097541854 -0.36059788 -0.23764037 -0.16716492 0.12122688 0.007288392 0.14310755
0.04376259 0.38903868 0.08210051 0.060069293 0.028479677 0.16813588 -0.0073058633 0.019072786
-0.1721867 0.11502518 -0.1944856 0.02616003 -0.018545045 0.18224303 0.080831826 -0.05779745
-0.03988505 -0.06694412 0.04373845 -0.1036342 -0.100387074 -0.19780193 0.010902679 -0.0476784
0.012806203 -0.07521368 -0.17725833 -0.068305045 -0.020208081 0.19847724 -0.089819126 -0.016994394
0.16693994 0.031338144 0.2282676 0.01184981 0.22943637 0.029392637 0.15057653 -0.07033098
0.004404071 0.015490595 0.050511204 0.1618162 0.10063407 -0.1201776 0.0924316 0.042378332
0.12553649 -0.037531823 0.18946123 -0.08355723 0.28400412 0.0032808827 -0.1832067 -0.25857964
00000000: 86af aabd 6daf 9d3d 29e1 393d 6e7f 36be
00000010: 0c6a e53d b91b 4f3e b389 9cbd 42a4 7e3e
00000020: a794 b8bd 71ac c93d 084c a0be d8a0 4fbe
00000030: 2122 19bd 70b5 c6bd c89d 1c3e f0af 09bd
00000040: eb17 a83e 9f48 d23a ee06 b93d 8fc3 633d
00000050: fcb5 eebc 101b 05bd 6e99 4cbd 3f63 2f3d
00000060: eb7e 06be 8996 aabc c5db e7bb 3043 533d
00000070: 10e1 adbc 3b02 b03d ab97 8cbd 12e4 79bd
00000080: f0e1 cabd 80c2 503e 1bc6 f23d 54eb c0bd
00000090: 61f2 2bbe b75c 2dbd 7ed4 00be 1dea 07bb
000000a0: 225f 163c a7ec 8b3d ca97 2f3e f384 ddbc
000000b0: 03f9 b4bb 6f98 e13e 51f7 babd 4efb 1cbf
000000c0: d91a 203e 85e8 293e 44f2 8b3e 2d82 323e
000000d0: cde0 703e c592 24bd f849 20be 56e5 143e
000000e0: 86de dfbc 5f6e cbbe 4315 033e e4bf bab9
000000f0: bc14 123e b263 30be 6b64 51bd 1e2d 843c
00000100: ce53 093e 0fbd 65be f517 183e a89e ddbb
00000110: 8377 773d 8c00 0cbe 824f 30bc aa36 3e3c
00000120: 49bb 053e 9f32 f43d db54 16be 4c40 d5be
00000130: d8da 903e 8594 053e 6c98 1b3e b5b8 803e
00000140: 963f 2fbe 6502 1a3e 199c 27be 8974 40be
00000150: 9f0a 663e ca5a 3e3d 4629 c53d 3469 843d
00000160: 9377 ad3e 2c43 cdbe 6516 bfbd 16de f63d
00000170: 8697 8d3d fbfe 323d 5382 44bc 4fcd 963d
00000180: cc2c 033c fcf5 9f3c 9086 843d 8abc 5d3e
00000190: b49f 1d3d 826d 8f3c 3838 2e3e 0c8b 2abc
000001a0: 8fdf 9f3d 5e04 8b3d c282 ab3d 393c 253e
000001b0: c50e b73d aaee d03c 4b73 053d 89ef c2bc
000001c0: b4db d33c 037e 3d3e 21d5 5fbe 3224 98bb
000001d0: 3077 f6bd 5580 9cbd 5467 793e 4592 493e
000001e0: c4d3 73be 9568 343d 3952 63be 432e a8bd
000001f0: 8fa0 173e 0486 f9bd f39e 0e3e c712 a0ba
00000200: a0e5 643e 6fff 403e 0fbe bebc 7686 073d
00000210: ad3c a93d 166c 1f3e f0ae c13d 37f4 b6bb
00000220: 230a fe3b 9ece 91bd 155d 4c3d 9fb6 6e3c
00000230: 9e0d dc3b a6fa 183e a4ab 1bbe dedb 253e
00000240: 07e8 09be d424 9a3d 5f0f c83c 2aaa 573d
00000250: 51d8 89bc 5129 293e ffd4 c03d ac3b 9c3d
00000260: 2578 15bd 0d4c 51be 54e8 8dbc 7e3c a9be
00000270: 4ec9 b03c 6661 773d fbd6 683e 16c9 0e3e
00000280: afc0 4dbe fc13 063e afe2 c23d 8706 073e
00000290: b482 283e e1c5 acbe 803c cf3d af6b da3d
000002a0: b881 00bd fe16 b23d e283 0d3e 671a 043d
000002b0: 2c90 d6bd f807 993d d2dd 4d3e ff24 cebc
000002c0: 4a32 f33d cd1f fc3d f947 8fbd bdb5 1fbe
000002d0: d81a df3d c562 43bd 8a72 82bd 6a23 1bbe
000002e0: 5a9a 89bd 9347 683d b2bb 3dbe 0c5a 1ebe
000002f0: b68f 4abd c65c 05be deba efbd 2b45 b83e
00000300: ea75 1b3e 06c4 c73d 49a0 b8be ff57 73be
00000310: 482d 2bbe cc45 f83d 77d3 ee3b c98a 123e
00000320: 6740 333d 1430 c73e 5024 a83d 380b 763d
00000330: 364e e93c d02b 2c3e 0666 efbb 883e 9c3c
00000340: b651 30be 5292 eb3d 3c27 47be 8f4d d63c
00000350: c7eb 97bc eb9d 3a3e 288b a53d 05bd 6cbd
00000360: 825e 23bd 001a 89bd 1727 333d 2b3e d4bd
00000370: bd97 cdbd 978c 4abe 26a1 323c 6d4a 43bd
00000380: 1cd1 513c a109 9abd 3583 35be 84e3 8bbd
00000390: 6b8b a5bc 9e3d 4b3e 17f3 b7bd d437 8bbc
000003a0: 4ef2 2a3e 6d5c 003d fbbe 693e b525 423c
000003b0: 5ef1 6a3e d4c8 f03c bc30 1a3e b009 90bd
000003c0: 0650 903b 44cc 7d3c d6e4 4e3d 25b3 253e
000003d0: 3c19 ce3d ac1f f6bd c74c bd3d e794 2d3d
000003e0: a38c 003e f8ba 19bd 2002 423e 0e20 abbd
000003f0: fd68 913e 1404 573b 8a9a 3bbe 8d64 84be

self_attn.qkv_proj.bias f4 [108]
0.051320933 -0.08894412 0.06483652 0.06930192 -0.0025473558 0.08051894 0.03293554 0.038651053
-0.003095961 0.15256454 -0.056472037 0.132682 -0.0017690819 -0.001270281 -0.04704336 -0.17512903
-0.080993034 -0.084017836 0.20346312 -0.036096446 -0.01742992 0.03879706 -0.106917076 0.04335386
0.08387675 -0.112899825 0.1005892 0.055530153 0.07507124 0.01846801 0.015844543 -0.11914532
0.11562184 0.017890789 0.15729398 -0.019617584 -0.028526353 0.03944066 -0.050304383 -0.07762734
-0.01841123 -0.040559486 0.0030750271 0.018993676 0.015614666 -0.014885663 0.024232352 -0.00064579997
-0.05013589 -0.018632336 -0.023495158 0.094189286 0.014475169 0.040885728 -0.049707007 -0.009701172
0.002479874 -0.026974 0.061960895 -0.022971356 -0.016871335 0.01010249 -0.032248806 -0.06219
-0.08779835 -0.046360277 -0.037109125 0.07769146 0.027326087 -0.0037149442 -0.028571362 -0.02211831
0.12345685 0.12405285 0.089887775 -0.1001284 0.26695162 -0.14157231 0.0073953504 -0.04401578
-0.031457685 0.09579246 -0.21726358 0.12207264 -0.0425068 0.12291487 0.08194128 0.102522306
-0.06785886 -0.0041217813 0.020818587 0.27395648 0.009405523 0.20928884 -0.099377185 -0.08490612
-0.14979017 -0.08512614 0.05398464 -0.27642745 -0.34217364 -0.2856951 -0.13203941 -0.22957975
0.10535827 0.29962304 -0.03266876 0.07460118
00000000: e635 523d 5628 b6bd 02c9 843d 2aee 8d3d
00000010: 8af1 26bb 1de7 a43d 6be7 063d 9150 1e3d
00000020: 9be5 4abb e139 1c3e 394f 67bd cadd 073e
00000030: 8ae0 e7ba 8f7f a6ba 8ab0 40bd 0655 33be
00000040: addf a5bd 8b11 acbd a358 503e ded9 13bd
00000050: 31c9 8ebc aae9 1e3d 57f7 dabd d193 313d
00000060: 93c7 ab3d 0638 e7bd b601 ce3d 9673 633d
00000070: f3be 993d 394a 973c 6acc 813c 7602 f4bd
00000080: 25cb ec3d b48f 923c ac11 213e 0eb5 a0bc
00000090: 19b0 e9bc 888c 213d f80b 4ebd 15fb 9ebd
000000a0: 26d3 96bc b421 26bd 6586 493b a098 9b3c
000000b0: a8d4 7f3c ffe2 73bc ed82 c63c e74a 29ba
000000c0: 4a5b 4dbd d7a2 98bc eb78 c0bc 50e6 c03d
000000d0: 4229 6d3c cb77 273d 9399 4bbd aaf1 1ebc
000000e0: 6285 223b 94f8 dcbc b5ca 7d3d 6d2e bcbc
000000f0: c135 8abc ea84 253c 5317 04bd f1ba 7ebd
00000100: 9fcf b3bd 46e4 3dbd bdff 17bd b31c 9f3d
00000110: f5da df3c 6c76 73bb 7d0e eabc 7531 b5bc
00000120: f2d6 fc3d 6c0f fe3d 1517 b83d 1e10 cdbd
00000130: e2ad 883e 55f8 10be b254 f23b e449 34bd
00000140: c6d9 00bd d62e c43d 587a 5ebe 3801 fa3d
00000150: 9c1b 2ebd cbba fb3d d4d0 a73d 37f7 d13d
00000160: 96f9 8abd 0210 87bb be8b aa3c 0644 8c3e
00000170: 9f19 1a3c d04f 563e 4486 cbbd 43e3 adbd
00000180: 9862 19be 9d56 aebd ff1e 5d3d e687 8dbe
00000190: 6231 afbe a146 92be 5735 07be f416 6bbe
000001a0: 14c6 d73d 3168 993e adcf 05bd 81c8 983d

self_attn.o_proj.weight f4 [36, 36]
0.20843747 0.09839752 0.34155303 0.17896816 0.32072225 -0.035953466 -0.025168547 -0.043327615
0.103352256 -0.03879014 -0.28902802 0.35379866 -0.058063883 0.10147474 -0.23842412 0.07081371
0.2703806 -0.39174438 -0.070392065 0.20386954 -0.21423295 0.16155142 0.28610834 -0.16769475
-0.26563516 -0.090165846 -0.14780934 -0.21833177 0.118887626 -0.0908084 -0.51586646 -0.059260845
-0.20312938 0.30179465 0.3983239 0.0334395 0.33307323 0.33932203 0.08521019 0.24784707
0.624814 -0.18984783 0.081988245 -0.03979073 -0.28609657 0.3757765 -0.015863562 0.27823442
-0.072048366 0.35265946 0.14612111 0.26339665 -0.2237761 -0.026910571 0.32574126 0.37525052
0.20551348 0.22632748 -0.07323061 -0.22583704 -0.5730151 -0.22073077 0.14346364 -0.42329168
-0.40425718 -0.5502411 -0.1563494 -0.23505037 0.22349766 0.5447591 0.010253763 -0.12033519
0.4425739 -0.19722408 0.21291237 0.04540129 0.0401233 -0.2577936 -0.0036112224 -0.04391348
-0.26789156 0.48850405 0.27820745 0.20166034 -0.13999787 0.5330769 0.22240491 -0.15279698
0.025476566 0.0050711627 -0.1885755 0.06613995 0.3526693 -0.16685812 -0.1788413 -0.10371194
-0.0940196 0.00039109468 -0.028895987 0.08699272 -0.12210593 -0.21988659 0.24247216 -0.07642685
0.33559117 -0.08801935 -0.15751852 -0.03876298 0.073530555 -0.23322107 0.015413085 -0.27975383
0.05574406 0.05205026 0.18140928 0.36441913 -0.021381013 0.15631607 0.35778582 0.03529945
-0.09737946 0.010398686 0.3832867 -0.14530697 0.19444026 0.32137492 -0.20137344 -0.11025361
-0.063083924 -0.17321244 0.26311642 -0.11958309 0.12241579 -0.10366475 0.1339167 0.16838364
-0.0062620603 -0.19062988 0.17337605 -0.07284393 -0.02463829 0.041614383 0.1880995 0.19282407
0.3543036 0.42326322 0.124275036 0.074953414 0.7755039 -0.009317488 -0.18998392 -0.25918734
-0.3583415 0.1366577 -0.5540788 0.69558054 0.01845502 0.4422671 -0.04794895 0.17941567
-0.06621456 -0.18443622 0.12259692 0.5411375 0.18107691 0.23105967 0.11795325 -0.0013336028
-0.5933354 0.10240368 -0.20241505 -0.72040063 -0.56733406 -0.4891061 -0.3225509 -0.6851408
0.40023503 0.49756226 0.13721664 -0.14412856 -0.4257259 0.16946398 -0.02601738 0.14527033
-0.15976793 0.20340532 -0.08083856 0.19971499 0.17525174 -0.49755734 0.026552077 -0.29176414
0.095941044 -0.5512692 -0.15101488 -0.049848884 -0.13059296 -0.38183898 -0.047129337 -0.2815886
-0.46489823 -0.26980332 0.3872317 0.095899835 0.3773692 0.04732826 -0.21447131 0.18947181
0.31409457 0.22885701 0.023209952 0.22088514 -0.13698903 -0.26970333 0.30352813 -0.1163581
-0.23131967 -0.1808681 0.17857593 0.22593957 0.044128284 0.32456318 -0.10392015 0.033021912
-0.06727255 0.14654326 0.01868106 -0.29656264 0.08440044 0.028561067 0.09452226 0.22223859
-0.23381227 0.26809335 -0.11597745 0.113179736 -0.24752232 0.13369332 -0.15308093 0.262511
-0.19517088 0.03757762 -0.28446257 -0.10810311 0.056943238 -0.1368508 -0.13800295 0.15812548
0.37542847 0.019731676 -0.1790047 -0.097809754 0.08573832 -0.13240892 -0.06912543 0.00020766637
00000000: a270 553e a484 c93d 0ae0 ae3e 6e43 373e
00000010: b535 a43e f143 13bd 452e cebc 4c78 31bd
00000020: 59aa d33d 69e2 1ebd 7bfb 93be 1925 b53e
00000030: 65d4 6dbd fdd1 cf3d 7425 74be c706 913d
00000040: 536f 8a3e b892 c8be b729 90bd 2dc3 503e
00000050: e25f 5bbe bc6d 253e cb7c 923e 2cb8 2bbe
00000060: 5501 88be dfa8 b8bd 555b 17be 5d92 5fbe
00000070: 5b7b f33d c1f9 b9bd d30f 04bf 80bb 72bd
00000080: 2601 50be d484 9a3e 1cf1 cb3e dbf7 083d
00000090: 9388 aa3e 9ebb ad3e ae82 ae3d 9fcb 7d3e
000000a0: cff3 1f3f 7867 42be 74e9 a73d 9bfb 22bd
000000b0: 407b 92be c765 c03e 4df4 81bc be74 8e3e
000000c0: 188e 93bd c88f b43e c6a0 153e eddb 863e
000000d0: 9025 65be 8f73 dcbc 8fc7 a63e d620 c03e
000000e0: 2072 523e 64c2 673e eef9 95bd d341 67be
000000f0: 1eb1 12bf 3f07 62be 22e8 123e b0b9 d8be
00000100: ccfa cebe 9adc 0cbf 0f1a 20be 0bb1 70be
00000110: 92dc 643e 5575 0b3f 66ff 273c 4c72 f6bd
00000120: 0c99 e23e 1cf5 49be b305 5a3e b4f6 393d
00000130: 5458 243d 86fd 83be 42aa 6cbb 9fde 33bd
00000140: 1529 89be 341d fa3e 3571 8e3e 0c80 4e3e
00000150: 9a5b 0fbe ba77 083f 1dbe 633e d076 1cbe
00000160: 3bb4 d03c ff2b a63b f019 41be 6274 873d
00000170: 1291 b43e dbdc 2abe 2c22 37be ed66 d4bd
00000180: 598d c0bd d70b cd39 47b7 ecbc 3d29 b23d
00000190: ac12 fabd f329 61be 9f4a 783e ae85 9cbd
000001a0: 9bd2 ab3e 7d43 b4bd 894c 21be eec5 1ebd
000001b0: 3097 963d 81d1 6ebe 2a87 7c3c e53b 8fbe
000001c0: e253 643d a732 553d 5bc3 393e 2595 ba3e
000001d0: 3c27 afbc 5211 203e b42f b73e 2896 103d
000001e0: e26e c7bd 405f 2a3c 283e c43e 5acb 14be
000001f0: 591b 473e 418b a43e d734 4ebe a5cc e1bd
00000200: 2532 81bd 9a5e 31be 32b7 863e fbe7 f4bd
00000210: 21b5 fa3d 2f4e d4bd 7621 093e c36c 2c3e
00000220: f831 cdbb 7b34 43be 7e89 313e 332f 95bd
00000230: 3dd6 c9bc d873 2a3d 289d 403e ac73 453e
00000240: 4867 b53e f5b5 d83e e983 fe3d 2d81 993d
00000250: 6c87 463f 61a8 18bc 258b 42be 34b4 84be
00000260: 8978 b7be ffef 0b3e 1cd8 0dbf 9111 323f
00000270: fb2e 973c d570 e23e 1e66 44bd beb8 373e
00000280: 809b 87bd d9dc 3cbe 1814 fb3d fd87 0a3f
00000290: 3a6c 393e e89a 6c3e 7991 f13d 49cc aeba
000002a0: d4e4 17bf 05b9 d13d e445 4fbe 2d6c 38bf
000002b0: ce3c 11bf 1d6c fabe 6425 a5be 6365 2fbf
000002c0: 9beb cc3e 7bc0 fe3e 8582 0c3e 7096 13be
000002d0: bff8 d9be f787 2d3e 6722 d5bc bfc1 143e
000002e0: 349a 23be 7c49 503e b08e a5bd 1682 4c3e
000002f0: 3175 333e d6bf febe be83 d93c 1c62 95be
00000300: bd7c c43d fa1f 0dbf a5a3 1abe 582e 4cbd
00000310: 29ba 05be 6680 c3be b10a 41bd 622c 90be
00000320: 2407 eebe a923 8abe 3c43 c63e 2267 c43d
00000330: 8936 c13e 47db 413d 5e9e 5bbe e604 423e
00000340: 01d1 a03e 7e59 6a3e cc22 be3c b72f 623e
00000350: da46 0cbe 8e16 8abe 0a68 9b3e 284d eebd
00000360: 10df 6cbe 7d35 39be 9cdc 363e b45c 673e
00000370: dcbf 343d 252d a63e 16d4 d4bd fc41 073d
00000380: 31c6 89bd 700f 163e 0609 993c 0fd7 97be
00000390: 23da ac3d e6f8 e93c e394 c13d 8392 633e
000003a0: 7c6c 6fbe 8843 893e 9685 edbd c7ca e73d
000003b0: 7e76 7dbe e7e6 083e 3fc1 1cbe d767 863e
000003c0: e0da 47be feea 193d 14a5 91be 2a65 ddbd
000003d0: 503d 693d 9e22 0cbe a550 0dbe a5eb 213e
000003e0: 2938 c03e 53a4 a13c 024d 37be 7b50 c8bd
000003f0: 9397 af3d 3496 07be a291 8dbd 04c1 5939

self_attn.o_proj.bias f4 [36]
0.023317749 0.48187405 0.050965108 -0.02578304 0.5571127 -0.24650039 0.06344853 0.026031798
-0.47182065 -0.0062779128 -0.0637818 0.53646356 -0.51502013 -0.17635348 -0.10655805 0.058443524
0.06521574 0.11233738 -0.4855726 0.26216146 -0.34061298 0.13179529 -0.4854288 -0.012653687
0.37823814 -0.11943912 0.08359511 0.5792419 -0.14103448 -0.15955177 0.018059274 0.4293036
-0.03652398 -0.122119375 -0.14496216 -0.17868336
00000000: dd04 bf3c 32b8 f63e cac0 503d f436 d3bc
00000010: f09e 0e3f 996a 7cbe 4ef1 813d a340 d53c
00000020: 7a92 f1be f3b6 cdbb 08a0 82bd ad55 093f
00000030: 5cd8 03bf 0296 34be 1b3b dabd 7a62 6f3d
00000040: d48f 853d 2411 e63d f99c f8be 073a 863e
00000050: d364 aebe 58f5 063e 208a f8be 6951 4fbc
00000060: 6ea8 c13e 7f9c f4bd ea33 ab3d 3249 143f
00000070: 586b 10be 8a61 23be 0bf1 933c aecd db3e
00000080: 2b9a 15bd b919 fabd f670 14be c5f8 36be

fc.weight f4 [1, 18]
-0.11420506 -0.23567155 0.22063945 -0.07954836 -0.20978293 -0.16988468 0.058494095 0.14493045
0.02432258 0.03676939 -0.032807417 0.039206713 -0.020001827 0.18863134 0.08839577 -0.10110167
0.08372446 -0.0826756
00000000: 58e4 e9bd e253 71be 4fef 613e 40ea a2bd
00000010: 56d1 56be 40f6 2dbe 8197 6f3d a668 143e
00000020: 2640 c73c 809b 163d 1261 06bd 3897 203d
00000030: dfda a3bc 9328 413e d708 b53d 640e cfbd
00000040: bb77 ab3d d351 a9bd

fc1.weight f4 [1, 36]
-0.5684359 0.68281585 0.56747967 -0.8908971 0.76567847 -0.6226238 1.012903 0.7307425
-0.7013676 0.555589 -0.7781189 0.763707 -0.7026078 -0.6445315 -0.8384102 0.8648186
0.85741407 -0.0038562329 -0.72143084 0.63336754 -0.6782147 0.85933244 -0.707653 1.0314971
0.7956525 -0.82237244 0.9466183 0.776976 -0.54029596 -0.8942824 1.0694122 0.7295587
-0.9556444 -0.7695501 -1.0334057 -0.7087394
00000000: 0485 11bf 05cd 2e3f 5946 113f d511 64bf
00000010: 8103 443f 4664 1fbf cea6 813f f111 3b3f
00000020: d48c 33bf 153b 0e3f cd32 47bf 4d82 433f
00000030: 1bde 33bf 0400 25bf 0da2 56bf c064 5d3f
00000040: 7d7f 5b3f dab8 7cbb b1af 38bf 6024 223f
00000050: 7b9f 2dbf 36fd 5b3f bf28 35bf 1908 843f
00000060: e2af 4b3f 0087 52bf 9455 723f e6e7 463f
00000070: d650 0abf b1ef 64bf 80e2 883f 5cc4 3a3f
00000080: 1da5 74bf 3c01 45bf a346 84bf f26f 35bf

fc2.weight f4 [1, 9]
-0.3052305 -0.32291704 -0.08533736 -0.030207198 0.24997962 -0.21768829 -0.32283914 0.0012872617
-0.30869973
00000000: 2c47 9cbe 6255 a5be 5bc5 aebd 1675 f7bc
00000010: a8fa 7f3e aee9 5ebe 2c4b a5be 56b9 a83a
00000020: e40d 9ebe

fc3.weight f4 [1, 2]
0.5097901 -0.5854001
00000000: 9b81 023f c8dc 15bf

input_fc.weight f4 [18, 3]
-0.36999628 0.3049001 0.013361256 0.18592209 0.02239913 -0.14492935 0.42893854 -0.37772095
0.36142945 0.3218438 -0.5001437 0.28081113 -0.014885149 0.30076885 -0.2792978 0.023577563
0.019250222 -0.041735556 0.24662025 0.06444191 -0.24739318 0.7461496 0.26604122 -0.21081117
-0.23504575 -0.34439418 -0.20198558 0.09440865 0.35420075 -0.597311 -0.21991533 -0.23938175
0.46130407 -0.63994056 0.1625283 0.20804554 0.31732956 -0.033235375 -0.11270632 0.404145
-0.28712982 0.16996364 0.419415 -0.108834796 -0.1956667 0.48726085 -0.21589306 -0.007290727
-0.378053 0.44274706 -0.3027616 0.20017585 -0.30978265 0.19124083
00000000: 2770 bdbe de1b 9c3e 2be9 5a3c 5c62 3e3e
00000010: 617e b73c 5c68 14be d59d db3e a464 c1be
00000020: 480d b93e b6c8 a43e 6b09 00bf 7ac6 8f3e
00000030: d7e0 73bc 60fe 993e 1f00 8fbe bc25 c13c
00000040: a4b2 9d3c e7f2 2abd 058a 7c3e 1ffa 833d
00000050: a354 7dbe a903 3f3f 8e36 883e e2de 57be
00000060: d5af 70be 6f54 b0be 4fd5 4ebe 5359 c13d
00000070: cd59 b53e 60e9 18bf 7c31 61be 7d20 75be
00000080: 0c30 ec3e 25d3 23bf d26d 263e e409 553e
00000090: 0579 a23e d121 08bd 92d2 e6bd 18ec ce3e
000000a0: ae02 93be f30a 2e3e 90bd d63e c7e4 debd
000000b0: da5c 48be 417a f93e 1213 5dbe 0de7 eebb
000000c0: 2a90 c1be beaf e23e 9203 9bbe e6fa 4c3e
000000d0: d59b 9ebe a3d4 433e

input_fc.bias f4 [18]
-0.12741853 -0.1408602 -0.2601039 -0.07500237 -0.046203908 0.33367056 -0.36531594 0.28696102
-0.31873468 -0.3128557 0.11475208 -0.14386311 -0.005864415 0.17580277 -0.22907877 -0.19781007
0.23512222 0.41239673
00000000: 017a 02be a83d 10be 572c 85be d89a 99bd
00000010: 4f40 3dbd ded6 aa3e b10a bbbe 8eec 923e
00000020: 3131 a3be 9f2e a0be 2303 eb3d da50 13be
00000030: 472a c0bb a405 343e a093 6abe b98e 4abe
00000040: e1c3 703e aa25 d33e

norm.weight f4 [36]
1.0 1.0 1.0 1.0 1.0 1.0 1.0 1.0
1.0 1.0 1.0 1.0 1.0 1.0 1.0 1.0
1.0 1.0 1.0 1.0 1.0 1.0 1.0 1.0
1.0 1.0 1.0 1.0 1.0 1.0 1.0 1.0
1.0 1.0 1.0 1.0
00000000: 0000 803f 0000 803f 0000 803f 0000 803f
00000010: 0000 803f 0000 803f 0000 803f 0000 803f
00000020: 0000 803f 0000 803f 0000 803f 0000 803f
00000030: 0000 803f 0000 803f 0000 803f 0000 803f
00000040: 0000 803f 0000 803f 0000 803f 0000 803f
00000050: 0000 803f 0000 803f 0000 803f 0000 803f
00000060: 0000 803f 0000 803f 0000 803f 0000 803f
00000070: 0000 803f 0000 803f 0000 803f 0000 803f
00000080: 0000 803f 0000 803f 0000 803f 0000 803f

norm.bias f4 [36]
0.0 0.0 0.0 0.0 0.0 0.0 0.0 0.0
0.0 0.0 0.0 0.0 0.0 0.0 0.0 0.0
0.0 0.0 0.0 0.0 0.0 0.0 0.0 0.0
0.0 0.0 0.0 0.0 0.0 0.0 0.0 0.0
0.0 0.0 0.0 0.0
00000000: 0000 0000 0000 0000 0000 0000 0000 0000
00000010: 0000 0000 0000 0000 0000 0000 0000 0000
00000020: 0000 0000 0000 0000 0000 0000 0000 0000
00000030: 0000 0000 0000 0000 0000 0000 0000 0000
00000040: 0000 0000 0000 0000 0000 0000 0000 0000
00000050: 0000 0000 0000 0000 0000 0000 0000 0000
00000060: 0000 0000 0000 0000 0000 0000 0000 0000
00000070: 0000 0000 0000 0000 0000 0000 0000 0000
00000080: 0000 0000 0000 0000 0000 0000 0000 0000

norm1.weight f4 [9]
1.0 1.0 1.0 1.0 1.0 1.0 1.0 1.0
1.0
00000000: 0000 803f 0000 803f 0000 803f 0000 803f
00000010: 0000 803f 0000 803f 0000 803f 0000 803f
00000020: 0000 803f

norm1.bias f4 [9]
0.0 0.0 0.0 0.0 0.0 0.0 0.0 0.0
0.0
00000000: 0000 0000 0000 0000 0000 0000 0000 0000
00000010: 0000 0000 0000 0000 0000 0000 0000 0000
00000020: 0000 0000

norm2.weight f4 [9]
1.0 1.0 1.0 1.0 1.0 1.0 1.0 1.0
1.0
00000000: 0000 803f 0000 803f 0000 803f 0000 803f
00000010: 0000 803f 0000 803f 0000 803f 0000 803f
00000020: 0000 803f

norm2.bias f4 [9]
0.0 0.0 0.0 0.0 0.0 0.0 0.0 0.0
0.0
00000000: 0000 0000 0000 0000 0000 0000 0000 0000
00000010: 0000 0000 0000 0000 0000 0000 0000 0000
00000020: 0000 0000

m.running_mean f4 [12]
-5.4428444 -5.4235883 -5.439187 -5.4685907 -5.4825974 -5.4813232 -5.453845 -5.4427814
-5.4771924 -5.516454 -5.5533338 -5.5466995
00000000: c82b aec0 098e adc0 d20d aec0 b2fe aec0
00000010: 7071 afc0 0067 afc0 e685 aec0 442b aec0
00000020: 2945 afc0 cb86 b0c0 e9b4 b1c0 907e b1c0

m.running_var f4 [12]
9048.595 9058.092 9047.614 9009.564 8993.931 9051.346 9041.494 9054.833
9074.01 9083.074 9091.221 9132.02
00000000: 6162 0d46 5e88 0d46 755e 0d46 42c6 0c46
00000010: b987 0c46 626d 0d46 fa45 0d46 557b 0d46
00000020: 0ac8 0d46 4cec 0d46 e20c 0e46 14b0 0e46

linear_net.0.weight f4 [9, 18]
0.23512112 0.069411784 0.058534134 0.2250136 -0.1257093 0.14141594 -0.13527587 0.067116916
-0.23260854 -0.030561551 0.21341074 0.21948941 -0.04750166 -0.113862045 -0.025004601 0.15404013
0.05954175 -0.08087039 -0.10273578 0.15410282 -0.15555772 -0.09413768 -0.0355566 0.22035572
0.18106124 0.17848103 -0.15957755 0.08130695 -0.01620226 0.11714556 0.15591623 -0.18442391
-0.19048147 0.026999243 -0.23263909 0.16998538 -0.17062278 -0.13697374 0.001052772 0.13433386
0.20579149 0.04352078 0.20106685 0.09922666 0.23123074 -0.05809395 -0.05987359 -0.07291843
-0.040029783 -0.1993641 0.070445366 0.16907035 0.121487506 -0.14872134 0.21363333 -0.0006018851
-0.0071250373 -0.20445931 -0.10312991 0.07613477 0.028586747 -0.15066451 0.21862829 0.098720364
0.13014725 -0.13711047 -0.0951716 0.073708795 -0.22114713 0.11037827 0.012157174 0.1506479
0.18087716 0.04658446 0.1229561 0.0054819 0.22992691 -0.026158864 -0.1452239 -0.03151837
-0.17760073 -0.13802697 0.05147181 0.18209237 0.19204925 0.17755346 0.20135151 0.21048938
-0.14177337 -0.0719769 0.10726982 -0.09258772 -0.040210593 0.19935058 -0.020539284 -0.054712903
0.09691109 0.23059735 -0.101584725 -0.030826824 -0.20969763 0.02786817 0.024326403 0.15829368
-0.19256586 -0.14602284 0.18343261 -0.106227055 0.015522656 0.20275567 0.20469761 -0.014762018
-0.22280161 -0.19341251 -0.22631831 -0.014116862 -0.18331452 0.19115113 -0.20460139 -0.069981106
0.10099026 -0.09943888 0.1764665 0.050439943 0.2263952 0.033603262 0.14396104 -0.20783292
-0.10016777 0.10541559 -0.08960653 0.07767232 -0.14264803 0.046773672 0.02882527 -0.1299565
-0.005747369 0.18235084 -0.17411464 0.039055828 0.12811565 0.21713635 -0.21474168 0.10663389
0.22409701 0.16130096 -0.2032996 -0.034190394 -0.028890232 -0.03387553 0.01699375 0.015324763
0.12485161 -0.18471149 -0.16620596 -0.0071372315 -0.2220625 0.23112829 0.16834915 -0.10422497
0.1677655 -0.10570067
00000000: 97c3 703e c427 8e3d 7dc1 6f3d f769 663e
00000010: f0b9 00be 57cf 103e c285 0abe 9874 893d
00000020: ef30 6ebe 385c fabc 5888 5a3e d5c1 603e
00000030: 1a91 42bd 8130 e9bd 73d6 ccbc b2bc 1d3e
00000040: 0de2 733d 609f a5bd 2367 d2bd 21cd 1d3e
00000050: 864a 1fbe 42cb c0bd cca3 11bd eea4 613e
00000060: 1e68 393e bbc3 363e 4c68 23be 4284 a63d
00000070: 9aba 84bc 03ea ef3d 81a8 1f3e 9fd9 3cbe
00000080: 930d 43be 842d dd3c f138 6ebe a610 2e3e
00000090: bdb7 2ebe d842 0cbe 2bfd 893a d18e 093e
000000a0: 01bb 523e d842 323d 78e4 4d3e 5937 cb3d
000000b0: c0c7 6c3e ecf3 6dbd 023e 75bd 4256 95bd
000000c0: 45f6 23bd 1a26 4cbe a945 903d c720 2d3e
000000d0: 71ce f83d 684a 18be b2c2 5a3e d3c7 1dba
000000e0: 2579 e9bb c85d 51be c635 d3bd 8cec 9b3d
000000f0: c12e ea3c cc47 1abe 18e0 5f3e e72d ca3d
00000100: 5245 053e b066 0cbe 54e9 c2bd a3f4 963d
00000110: 6574 62be 010e e23d e22e 473c 7143 1a3e
00000120: dd37 393e 59cf 3e3d 68d0 fb3d 83a1 b33b
00000130: f671 6b3e 1d4b d6bc 93b5 14be 6819 01bd
00000140: f7dc 35be f156 0dbe 1bd4 523d 6c76 3a3e
00000150: 8fa8 443e 93d0 353e 172f 4e3e 878a 573e
00000160: 0a2d 11be a068 93bd 48b0 db3d a19e bdbd
00000170: ddb3 24bd 8f22 4c3e 0042 a8bc a31a 60bd
00000180: 5279 c63d b621 6c3e a70b d0bd 8988 fcbc
00000190: faba 56be ca4b e43c 2a48 c73c bd17 223e
000001a0: fc2f 45be 0387 15be c2d5 3b3e 928d d9bd
000001b0: bd52 7e3c 2f9f 4f3e 409c 513e 64dc 71bc
000001c0: 1b26 64be ee0d 46be fdbf 67be 694a 67bc
000001d0: cdb6 3bbe 1fbd 433e 0783 51be 4152 8fbd
000001e0: fbd3 ce3d 9da6 cbbd a2b3 343e 1d9a 4e3d
000001f0: 25d4 673e 93a3 093d 866a 133e 27d2 54be
00000200: c324 cdbd 21e4 d73d a183 b7bd aa12 9f3d
00000210: 5312 12be c095 3f3d f922 ec3c 5113 05be
00000220: 6d54 bcbb 2eba 3a3e 1c4b 32be 01f9 1f3d
00000230: c030 033e fe58 5e3e 3ee5 5bbe de62 da3d
00000240: b079 653e 142c 253e c52d 50be 3a0b 0cbd
00000250: 35ab ecbc 11c1 0abd 7a36 8b3c b714 7b3c
00000260: 33b2 ff3d 0225 3dbe e531 2abe 70df e9bb
00000270: 5a64 63be e5ac 6c3e b863 2c3e e773 d5bd
00000280: b8ca 2b3e 9879 d8bd

linear_net.0.bias f4 [9]
-0.0016157697 -0.20124966 0.008176939 0.07882188 -0.09764736 0.13084657 -0.002317009 0.12630275
0.23200722
00000000: 3cc8 d3ba 6414 4ebe 91f8 053c 5e6d a13d
00000010: 57fb c7bd a5fc 053e f6d8 17bb 8255 013e
00000020: 4d93 6d3e

linear_net.2.weight f4 [1, 9]
-0.23256946 -0.23333327 0.25145853 -0.07154012 -0.23910797 0.044293802 -0.22933035 0.32548147
0.15662663
00000000: b026 6ebe ebee 6ebe 2cbf 803e a083 92bd
00000010: b8d8 74be 6b6d 353d 93d5 6abe 82a5 a63e
00000020: bb62 203e

exp_avg f4 [108, 36]
-0.008727308 0.00091045105 -0.0014737259 0.008611985 -0.0042267716 -0.00033194528 0.0017783612 -0.017854337
0.027326824 0.0025241273 -0.0010438628 -0.0041394727 0.00023738129 0.0008004235 0.005226544 0.0026151564
-0.004393682 0.004292739 5.7270066e-05 6.344728e-05 -0.0005606013 -0.000136574 -0.00044069736 -0.00076804025
-0.00017601578 -0.0009206295 -6.4127285e-05 -0.00094203575 -2.3086877e-05 -0.0009448304 -8.29889e-06 -0.00094519166
-2.9825537e-06 -0.0009452384 -1.0718783e-06 -0.0009452444 -0.014514832 0.0015754048 -0.002819696 0.014144662
-0.006877056 -0.0005504754 0.0030891264 -0.029967302 0.04593056 0.0045916783 -0.0019934145 -0.006885628
0.0004005459 0.0011180384 0.008772818 0.00426157 -0.007061014 0.006986197 0.00017794884 5.4319946e-05
-0.0008918743 -0.00013829654 -0.0007793464 -0.0012509695 -0.00031528994 -0.0015392555 -0.00011505569 -0.0015800339
-4.143063e-05 -0.0015853628 -1.48932e-05 -0.0015860524 -5.352516e-06 -0.0015861411 -1.9236024e-06 -0.0015861525
-0.01229425 0.0010907385 -0.00090758986 0.012703342 -0.0064355037 -0.000492198 0.0020966243 -0.024320317
0.0369606 0.0022894295 -0.0006444885 -0.005811979 0.00032765977 0.0018040279 0.0071097105 0.0039684414
-0.006980465 0.0065224534 8.971526e-05 7.889781e-05 -0.0007668098 -0.00017388882 -0.0006003345 -0.0010367701
-0.0002396332 -0.0012441889 -8.729827e-05 -0.0012732722 -3.142851e-05 -0.0012770687 -1.129739e-05 -0.0012775596
-4.06019e-06 -0.001277623 -1.4591618e-06 -0.0012776314 0.007510953 -0.0006993356 0.00085485744 -0.0076401643
0.0038368478 0.0003028429 -0.0013614659 0.015177646 -0.023036344 -0.0016778187 0.00056134094 0.0035130784
-0.00018071146 -0.00092201843 -0.00438513 -0.0023330925 0.004076935 -0.0038737499 -0.00011680868 -2.1918971e-05
0.00045502733 7.379495e-05 0.00038902034 0.00062772806 0.00015716757 0.0007703765 5.7344798e-05 0.0007905537
2.0648991e-05 0.0007931905 7.422743e-06 0.0007935316 2.6676817e-06 0.00079357566 9.587193e-07 0.0007935812
0.00035253481 0.00016758984 -0.0015122615 -0.0010571274 0.000735363 3.7157184e-05 0.00039732596 -0.000644085
0.0011228719 0.0014850534 -0.0009516269 0.00024564358 -7.4017094e-05 -0.0009628665 5.8958438e-05 -0.00054869975
0.0012142222 -0.00076847867 -9.630214e-06 2.0559573e-05 -4.1673302e-05 -7.0958e-05 9.474697e-06 -5.3402884e-05
5.663567e-06 -4.0813033e-05 2.1495323e-06 -3.89172e-05 7.778606e-07 -3.866754e-05 2.797976e-07 -3.8635186e-05
1.00565565e-07 -3.8631046e-05 3.6141998e-08 -3.8630467e-05 0.0076338984 -0.0011347985 0.0033408399 -0.0065275664
0.0028479658 0.00025302893 -0.0022777154 0.017075805 -0.026587995 -0.0044296137 0.0023642664 0.0036536336
-0.00022511366 0.00048745325 -0.0050184876 -0.0017916432 0.0024551016 -0.0029151628 -0.00011533713 -5.381487e-05
0.00049138855 3.902175e-05 0.00047083764 0.00070676015 0.00019232146 0.0008892545 7.026603e-05 0.0009152088
2.5306128e-05 0.0009186027 9.097055e-06 0.0009190417 3.269428e-06 0.0009190984 1.1749767e-06 0.00091910583
0.00148445 -0.00021158005 0.0001910102 -0.0014206097 0.00064225454 4.4694447e-05 -0.00038020208 0.002687208
-0.0043712347 -0.00050994114 0.00028104603 0.0008332416 -0.00012935087 -0.00019623798 -0.0009626094 -0.00053320936
0.0007534881 -0.00070195534 6.1391705e-07 5.068661e-06 7.1554045e-05 1.10090305e-05 7.525933e-05 0.00011806705
3.0939733e-05 0.0001482377 1.1312683e-05 0.00015253671 4.0746295e-06 0.00015309897 1.4647677e-06 0.00015317171
5.264297e-07 0.00015318113 1.8918996e-07 0.00015318234 -0.0024795071 0.0002245185 -9.476844e-05 0.0025846479
00000000: fcfc 0ebc 56ab 6e3a 092a c1ba 4819 0d3c
00000010: bb80 8abb f108 aeb9 e617 e93a 4243 92bc
00000020: 81dc df3c d46b 253b 39d2 88ba 6aa4 87bb
00000030: 8ee9 7839 83d3 513a 6e43 ab3b 0b63 2b3b
00000040: e0f8 8fbb 1baa 8c3b 4435 7038 000f 8538
00000050: 51f5 12ba 4e35 0fb9 660d e7b9 4f56 49ba
00000060: e090 38b9 6656 71ba 137c 86b8 f3f2 76ba
00000070: b1aa c1b7 7fae 77ba 763b 0bb7 bdc6 77ba
00000080: e227 48b6 e0c9 77ba 75dd 8fb5 47ca 77ba
00000090: 9ecf 6dbc d07d ce3a a6ca 38bb 03bf 673c
000000a0: ed58 e1bb c74d 10ba f172 4a3b fd7d f5bc
000000b0: af21 3c3d ca75 963b f2a3 02bb d6a0 e1bb
000000c0: 5c00 d239 258b 923a debb 0f3c a4a4 8b3b
000000d0: 1460 e7bb 78ec e43b c797 3a39 99d5 6338
000000e0: accc 69ba b203 11b9 0d4d 4cba 92f7 a3ba
000000f0: 804d a5b9 d8c0 c9ba 0e4a f1b8 2419 cfba
00000100: cdc5 2db8 f3cb cfba cfdd 79b7 16e3 cfba
00000110: c399 b3b6 10e6 cfba 3d17 01b6 72e6 cfba
00000120: d26d 49bc 1cf7 8e3a 53eb 6dba ae21 503c
00000130: ebe0 d2bb d906 01ba 8567 093b 673b c7bc
00000140: 0064 173d 410a 163b e4f2 28ba 6a72 bebb
00000150: c0c9 ab39 2275 ec3a 93f8 e83b b309 823b
00000160: 62bc e4bb 4eba d53b 8325 bc38 f075 a538
00000170: bc03 49ba ed55 36b9 c45f 1dba 3be4 87ba
00000180: 0c46 7bb9 0d14 a3ba e713 b7b8 ede3 a6ba
00000190: 1bd2 03b8 5163 a7ba ec89 3db7 c973 a7ba
000001a0: c43c 88b6 ea75 a7ba 6bd8 c3b5 3276 a7ba
000001b0: 711e f63b 9e53 37ba 8318 603a 585a fabb
000001c0: a073 7b3b e3c6 9e39 3773 b2ba a9ab 783c
000001d0: b7b6 bcbc 41ea dbba f426 133a ad3b 663b
000001e0: 5d7d 3db9 9cb3 71ba 23b1 8fbb cce6 18bb
000001f0: cf97 853b bdde 7dbb 2ff7 f4b8 a2de b7b7
00000200: bc90 ee39 5dc2 9a38 6df5 cb39 1e8e 243a
00000210: 59cd 2439 17f3 493a 8285 7038 293d 4f3a
00000220: 5f37 ad37 1dee 4f3a e010 f936 0105 503a
00000230: 6c06 3336 f607 503a 58ad 8035 5508 503a
00000240: 6cd4 b839 0ebb 2f39 1337 c6ba 4f8f 8aba
00000250: 60c5 403a 39d9 1b38 3050 d039 d0d7 28ba
00000260: 542d 933a 20a6 c23a 9a76 79ba b9c9 8039
00000270: a039 9bb8 e168 7cba 244a 7738 9ed6 0fba
00000280: 8926 9f3a bb73 49ba 7491 21b7 5977 ac37
00000290: 5eca 2eb8 49cf 94b8 84f5 1e37 e9fc 5fb8
000002a0: ac09 be36 a92e 2bb8 af40 1036 063b 23b8
000002b0: 2cce 5035 f42e 22b8 1737 9634 370c 22b8
000002c0: 81f6 d733 c507 22b8 8c3a 1b33 2607 22b8
000002d0: c825 fa3b 85bd 94ba fef1 5a3b 32e5 d5bb
000002e0: f0a4 3a3b f8a8 8439 b945 15bb 8fe2 8b3c
000002f0: 11cf d9bc 4b26 91bb cff1 1a3b cd71 6f3b
00000300: 7d0c 6cb9 de90 ff39 2072 a4bb 92d5 eaba
00000310: c5e5 203b 510c 3fbb 26e1 f1b8 47b7 61b8
00000320: 87d0 003a 49ab 2338 c2da f639 df45 393a
00000330: e6a9 4939 dc1c 693a ca5b 9338 9fea 6f3a
00000340: 7f48 d437 62ce 703a 8e9f 1837 d8eb 703a
00000350: 5868 5b36 a6ef 703a e4b3 9d35 26f0 703a
00000360: e091 c23a 96db 5db9 e949 4839 c033 baba
00000370: f95c 283a 4c76 3b38 dc55 c7b9 de1b 303b
00000380: 933c 8fbb 92ad 05ba 5c59 9339 e66d 5a3a
00000390: 5ca2 07b9 3bc5 4db9 a057 7cba 13c7 0bba
000003a0: bb85 453a 6d03 38ba 0fcc 2435 7713 aa36
000003b0: 490f 9638 6db3 3837 8cd4 9d38 c49a f738
000003c0: 49c5 0138 4170 1b39 9acb 3d37 43f2 1f39
000003d0: cdb8 8836 3189 2039 0999 c435 b89c 2039
000003e0: f94f 0d35 3f9f 2039 2424 4b34 929f 2039
000003f0: 3a7f 22bb ba6c 6b39 6bbe c6b8 3263 293b

exp_avg_sq f4 [108, 36]
0.0010956756 0.00027786047 0.0021819856 0.0007968283 0.00040121353 3.266896e-05 0.0007330245 0.008166169
0.020396618 0.0036969823 0.0017296529 0.000692183 0.0001362254 0.0005188374 0.0010313278 0.00021033881
0.0005909982 0.0002729133 5.6928843e-07 7.488797e-07 5.0817916e-06 2.9153198e-06 1.0235255e-05 1.47688015e-05
1.85175e-06 2.7010012e-05 2.4963862e-07 2.9148045e-05 3.2420772e-08 2.9435128e-05 4.1902948e-09 2.9472394e-05
5.412467e-10 2.9477229e-05 6.99055e-11 2.9477837e-05 0.002311052 0.00012327124 0.0018914213 0.004122926
0.0018298022 0.00010767722 0.00021649669 0.031621277 0.044712447 0.0013609022 0.0007680853 0.000699709
0.0002809228 0.00068989553 0.00054886634 0.00048445084 0.0015397522 0.0010859803 1.5779457e-06 2.4400279e-06
8.145814e-06 7.7973045e-06 1.862465e-05 2.2489394e-05 3.4327463e-06 4.3332027e-05 4.6381928e-07 4.708525e-05
6.025397e-08 4.7591053e-05 7.787939e-09 4.76568e-05 1.0059487e-09 4.7665177e-05 1.2992514e-10 4.7666283e-05
0.0019709114 0.00061198097 0.00500692 0.0010897851 0.000726731 6.851545e-05 0.0016017784 0.017912107
0.04288563 0.008115011 0.0037992755 0.0015333866 0.00034459878 0.0012043228 0.002131244 0.00047101514
0.0010582152 0.0004309595 9.873331e-07 1.2706947e-06 1.0658119e-05 5.6283966e-06 2.142036e-05 3.1213334e-05
3.859898e-06 5.6997713e-05 5.2009807e-07 6.14796e-05 6.754121e-08 6.208115e-05 8.729436e-09 6.2159226e-05
1.1275508e-09 6.2169274e-05 1.4563055e-10 6.217061e-05 0.0008203843 8.0614074e-05 0.0009323948 0.0014769506
0.000736101 4.6702946e-05 0.00016057913 0.01304832 0.018291214 0.00087718596 0.00049068744 0.00032886278
0.00013581882 0.0003014669 0.00025404434 0.00019094924 0.00055832695 0.0003982642 5.946502e-07 9.745363e-07
3.4191e-06 3.1443003e-06 7.719964e-06 9.506622e-06 1.4153304e-06 1.8186936e-05 1.9110861e-07 1.9740552e-05
2.482445e-08 1.9949768e-05 3.2085774e-09 1.9976922e-05 4.1444287e-10 1.9980438e-05 5.3528026e-11 1.9980878e-05
0.0010216517 0.00014092818 0.0014477217 0.0011765382 0.0004730313 2.8868779e-05 0.0003300153 0.011684436
0.020723745 0.001654029 0.0007252718 0.00048131385 0.0001363964 0.00042742575 0.00058025646 0.0002493771
0.0005158364 0.00030946848 3.1633323e-07 3.7869026e-07 3.6332103e-06 1.8694593e-06 9.387728e-06 1.2127599e-05
1.695649e-06 2.3544004e-05 2.285161e-07 2.5529944e-05 2.967618e-08 2.5796424e-05 3.835537e-09 2.5831047e-05
4.9542476e-10 2.5835508e-05 6.398727e-11 2.5836087e-05 0.002213589 0.00020725523 0.0027492747 0.0039276965
0.0018905639 6.045685e-05 0.00042561867 0.03539767 0.049436048 0.0023779944 0.0013290676 0.00085659936
0.00038910398 0.000951183 0.0006573122 0.0005407577 0.0015961137 0.0010495397 1.383286e-06 2.1367482e-06
8.245185e-06 7.406281e-06 2.0040812e-05 2.4302188e-05 3.6700612e-06 4.7127134e-05 4.954715e-07 5.11976e-05
6.4358694e-08 5.1745472e-05 8.318364e-09 5.181664e-05 1.0744625e-09 5.182587e-05 1.3877378e-10 5.1827006e-05
2.8714094e-05 6.6484236e-06 5.183744e-05 2.9787665e-05 1.5924421e-05 6.8900766e-07 1.6019529e-05 0.00033817702
0.0006193519 7.5996395e-05 3.7679158e-05 1.8263923e-05 5.2998994e-06 1.3840071e-05 2.217463e-05 7.016165e-06
1.548715e-05 8.789962e-06 1.0429391e-08 1.3404379e-08 1.1767039e-07 7.01574e-08 2.940401e-07 3.7118545e-07
5.3250112e-08 7.2166665e-07 7.178839e-09 7.8299826e-07 9.32319e-10 7.9123544e-07 1.2049978e-10 7.923039e-07
1.5564543e-11 7.9244165e-07 2.0102626e-12 7.9245996e-07 0.00047518362 9.916654e-05 0.00088025077 0.0004512759
00000000: c69c 8f3a cdad 9139 a5ff 0e3b 3ee2 503a
00000010: f859 d239 0706 0938 7128 403a 65cb 053c
00000020: cf16 a73c 1249 723b 85b5 e23a 9d73 353a
00000030: bad7 0e39 9702 083a 9e2d 873a 658e 5c39
00000040: 38ed 1a3a ce15 8f39 34d1 1835 9f06 4935
00000050: 4284 aa36 d0a4 4336 16b8 2b37 85c7 7737
00000060: a589 f835 8f93 e237 1206 8634 f382 f437
00000070: 043f 0b33 75eb f637 39fa 8f31 7c3b f737
00000080: dac6 1430 de45 f737 4cb9 992e 2c47 f737
00000090: 0575 173b 5f42 0139 91e9 f73a 9c19 873b
000000a0: f9d5 ef3a c4d0 e138 6303 6339 5085 013d
000000b0: 6624 373d 4d60 b23a 5559 493a ad6c 373a
000000c0: d248 9339 1bda 343a cce1 0f3a e4fd fd39
000000d0: 83d1 c93a 7457 8e3a cdc9 d335 5cbf 2336
000000e0: 01aa 0837 2bd1 0237 223c 9c37 9ba7 bc37
000000f0: 225e 6636 69bf 3538 d602 f934 677d 4538
00000100: f864 8133 819c 4738 b8cb 0532 19e3 4738
00000110: ac41 8a30 18ec 4738 adda 0e2f 48ed 4738
00000120: 682a 013b 596d 203a 1711 a43b 1fd7 8e3a
00000130: 1882 3e3a f4af 8f38 c4f2 d13a 69bc 923c
00000140: d8a8 2f3d d3f4 043c 44fd 783b ebfb c83a
00000150: 44ab b439 5eda 9d3a 57ac 0b3b 95f2 f639
00000160: cfb3 8a3a 68f2 e139 8284 8435 bd8c aa35
00000170: 46d0 3237 8fdb bc36 dfaf b337 10eb 0238
00000180: 4584 8136 d410 6f38 de9c 0b35 9cee 8038
00000190: 2c0b 9133 9031 8238 77f8 1532 7b5b 8238
000001a0: 2bf8 9a30 e060 8238 5b1f 202f 9861 8238
000001b0: 0f0f 573a 5a0f a938 f56b 743a 3d96 c13a
000001c0: e7f6 403a e8e2 4338 2261 2839 9fc8 553c
000001d0: 75d7 953c f4f2 653a 7aa1 003a 376b ac39
000001e0: 966a 0e39 340e 9e39 4131 8539 8c39 4839
000001f0: b05c 123a 1ece d039 0da0 1f35 d0cc 8235
00000200: b173 6536 ab02 5336 fe84 0137 a17e 1f37
00000210: 62f6 bd35 2690 9837 8933 4d34 8398 a537
00000220: 8b3d d532 cd59 a737 e47d 5c31 1d94 a737
00000230: a6d7 e32f aa9b a737 336b 6b2e 9c9c a737
00000240: f1e8 853a 1fc6 1339 7bc1 bd3a 1236 9a3a
00000250: 3001 f839 3b2b f237 e705 ad39 1470 3f3c
00000260: d8c4 a93c 01cc d83a 2b20 3e3a da58 fc39
00000270: a105 0f39 1d18 e039 5a1c 183a d4be 8239
00000280: 3239 073a 2840 a239 82d4 a934 cb4e cb34
00000290: 14d2 7336 22ea fa35 fc7f 1d37 a477 4b37
000002a0: 0e96 e335 5d80 c537 075e 7534 2329 d637
000002b0: 9cea fe32 6665 d837 bec9 8331 c0af d837
000002c0: 6b2e 0830 55b9 d837 a1b5 8c2e 93ba d837
000002d0: dc11 113b a752 5939 2d2d 343b e8b3 803b
000002e0: cccc f73a 0c93 7d38 9225 df39 26fd 103d
000002f0: 747d 4a3d 20d8 1b3b 1c34 ae3a 698d 603a
00000300: a700 cc39 d058 793a 7a4f 2c3a a3c1 0d3a
00000310: b034 d13a b590 893a 58a9 b935 0e65 0f36
00000320: cd54 0a37 7883 f836 511d a837 8ddc cb37
00000330: 2c4b 7636 60aa 4538 8b00 0535 01bd 5638
00000340: 9135 8a33 4709 5938 8de8 0e32 b255 5938
00000350: 4aac 9330 9b5f 5938 5995 182f d360 5938
00000360: 0cdf f037 8615 df36 076c 5938 86e0 f937
00000370: 6f95 8537 3ff4 3835 ad61 8637 5a4d b139
00000380: 015c 223a 4160 9f38 b009 1e38 7a35 9937
00000390: cad5 b136 a732 6837 a803 ba37 666c eb36
000003a0: 67ea 8137 9978 1337 f22c 3332 1549 6632
000003b0: fbb1 fc33 70a9 9633 90dc 9d34 5747 c734
000003c0: 1eb5 6433 8eb8 4135 bca9 f631 3b2f 5235
000003d0: 0f23 8030 4965 5435 ac7d 042f b6ae 5435
000003e0: 3ce8 882d 2db8 5435 ac75 0d2c 6fb9 5435
000003f0: 1122 f939 a1f7 cf38 a1c0 663a 3a99 ec39

exp_avg f4 [108]
-0.0009452452 -0.0015861543 -0.0012776324 0.000793582 -3.8630315e-05 0.0009191069 0.00015318251 -0.00025121315
0.00022556527 0.0012969646 -0.0017336515 0.0012147522 5.7345325e-05 3.1676067e-05 -0.00062359776 -0.0014351007
0.0014491372 -0.0014262818 8.950997e-05 -0.00068333006 0.00013153987 0.0010070648 0.00046445132 0.0011958784
-0.0010763196 -0.0010152197 -0.0009892348 -0.0005378811 0.0006875441 0.00024479046 0.0003460779 -1.1805822e-05
0.00089491886 -0.00075771083 -0.00012490497 1.6076632e-05 -4.061602e-09 -1.2377128e-09 -6.645337e-09 -2.5478948e-09
4.8010427e-09 -1.1911607e-09 1.7595318e-10 -8.973833e-09 1.838825e-10 -7.264144e-10 -5.588589e-09 -1.7741021e-09
-4.5130255e-09 -3.3441006e-10 -2.9775789e-09 -2.9473823e-09 8.007948e-09 -1.3939505e-09 -6.576561e-09 3.8991543e-09
2.7626241e-09 -3.4850174e-09 5.1284763e-09 -2.5581488e-09 -5.5220175e-09 -3.1989722e-09 -6.3160757e-09 -3.9902606e-09
-1.4155879e-10 -5.231418e-09 -5.02132e-09 5.5183076e-09 2.366276e-10 -4.588067e-09 -6.828815e-09 -4.1532704e-11
0.0025104163 -0.0031070053 3.0475521e-05 -0.0005346451 0.0004584227 0.00015472101 -0.00058849994 -0.0017496753
-0.005519767 0.008347443 0.00038796422 -0.0023296685 -0.00042714117 0.010442503 0.000658198 0.002077236
-0.010206532 0.0073564006 -0.0007657325 0.00504628 0.005298726 0.0029771903 -0.009550274 0.0008650405
-0.0015406775 0.00030399187 0.0013013565 -0.0014973736 -0.004257593 -0.0076929787 0.008068024 -0.0029945709
0.012246237 0.003561115 -0.011794367 -0.0004519203
00000000: 55ca 77ba 82e6 cfba 3b76 a7ba 6308 503a
00000010: fc06 22b8 38f0 703a 9e9f 2039 42b5 83b9
00000020: b785 6c39 e9fe a93a b13b e3ba 5238 9f3a
00000030: 1386 7038 ebdb 0438 f078 23ba fd19 bcba
00000040: faf0 bd3a 13f2 baba 4db7 bb38 8121 33ba
00000050: f7ed 0939 7dff 833a 9a81 f339 05bf 9c3a
00000060: 4b13 8dba 1f11 85ba 36a9 81ba 9700 0dba
00000070: 4e3c 343a 3857 8039 ca71 b539 9f11 46b7
00000080: fd98 6a3a 1da1 46ba ecf8 02b9 4edc 8637
00000090: 3b8e 8bb1 261c aab0 0155 e4b1 0a17 2fb1
000000a0: 6bf6 a431 3eb6 a3b0 6b76 412f 562b 1ab2
000000b0: 532e 4a2f deac 47b0 c005 c0b1 abd4 f3b0
000000c0: fe10 9bb1 08d8 b7af 1f9e 4cb1 e68a 4ab1
000000d0: 5493 0932 4695 bfb0 0bf8 e1b1 53f9 8531
000000e0: 99d8 3d31 137d 6fb1 8e36 b031 6ecb 2fb1
000000f0: 2ebc bdb1 ead4 5bb1 ca04 d9b1 b41a 89b1
00000100: 42a5 1baf 0ac0 b3b1 ff87 acb1 8c9b bd31
00000110: 6016 822f 10a5 9db1 e4a2 eab1 aba9 36ae
00000120: cc85 243b e69e 4bbb afa5 ff37 6d27 0cba
00000130: 7458 f039 9b3c 2239 9045 1aba 5c55 e5ba
00000140: 29df b4bb b7c3 083c ad67 cb39 5aad 18bb
00000150: ebf1 dfb9 0817 2b3c ec8a 2c3a 3d22 083b
00000160: 4c39 27bc f60d f13b 70bb 48ba 445b a53b
00000170: efa0 ad3b f71c 433b c178 1cbc e3c3 623a
00000180: 8ff0 c9ba 1961 9f39 4792 aa3a 8543 c4ba
00000190: 4783 8bbb 6215 fcbb bf2f 043c 9040 44bb
000001a0: 71a4 483c 9861 693b 293d 41bc b7ef ecb9

exp_avg_sq f4 [108]
2.9477924e-05 4.766645e-05 6.2170766e-05 1.9980955e-05 2.583618e-05 5.182719e-05 7.92462e-07 1.3925245e-05
9.549627e-07 3.8256017e-05 4.2470347e-05 3.8308397e-05 3.100859e-06 5.0032287e-07 8.194754e-06 4.613566e-05
7.0210095e-05 5.1511888e-05 7.3250862e-06 5.0591603e-05 1.8860189e-06 4.6969053e-05 1.1513621e-05 5.253477e-05
4.309538e-05 1.9509735e-05 4.4340013e-05 1.4513997e-05 1.2367858e-05 1.9828278e-05 8.593006e-06 8.746137e-06
2.0700523e-05 1.2666904e-05 4.633897e-06 6.7357615e-07 3.0363488e-15 2.2299205e-15 8.1741525e-15 1.4059927e-15
8.673829e-16 7.8313813e-16 1.5021913e-17 1.3772225e-15 2.4096976e-17 5.6818875e-16 2.2260168e-15 1.3220456e-15
4.556932e-16 1.3169779e-17 5.949925e-16 4.208655e-15 5.628413e-15 1.190003e-15 6.9405253e-15 1.0239077e-15
1.7727936e-16 8.8390646e-16 5.369471e-15 1.6611922e-15 6.636418e-15 2.5867976e-16 4.0082383e-15 2.6653499e-15
2.8026633e-15 8.134909e-16 1.2032032e-15 7.723489e-15 7.611677e-16 6.707545e-16 4.2635933e-15 1.4250472e-17
0.00016216883 0.00013310225 1.5403948e-05 6.645963e-05 0.00043075398 7.095073e-05 5.115661e-05 8.8973546e-05
0.00012450521 0.00026245572 8.828336e-05 0.0006119757 1.0575463e-05 0.0004406872 0.000114247305 0.00012450771
0.0012309703 0.0003639519 2.944679e-05 9.543395e-05 0.00013895455 0.00013421255 0.00062438514 0.0002461003
0.00016109513 0.0001304582 5.255445e-05 0.0002934427 8.318263e-05 0.0002085874 0.00062181347 0.00010973285
0.0008748772 0.0001791657 0.0010033167 0.0001511327
00000000: 5c47 f737 76ed 4738 ad61 8238 c69c a737
00000010: c6ba d837 0661 5938 93b9 5435 79a0 6937
00000020: 452c 8035 1675 2038 3022 3238 54ad 2038
00000030: 5a18 5036 ed4d 0635 337c 0937 ca81 4138
00000040: c23d 9338 780e 5838 03ca f536 5232 5438
00000050: 1e23 fd35 a300 4538 a02a 4137 c858 5c38
00000060: 50c1 3438 d6a8 a337 baf9 3938 2481 7337
00000070: 8c7f 4f37 e754 a637 ae2a 1037 5fbc 1237
00000080: 09a6 ad37 f083 5437 df7c 9b36 cdcf 3435
00000090: c0ca 5a27 c6ae 2027 a040 1328 fa9f ca26
000000a0: 9001 7a26 65b9 6126 7d8d 8a23 8b7a c626
000000b0: 6041 de23 eec4 2326 c366 2027 e086 be26
000000c0: 3958 0326 86f0 7223 b37e 2b26 fea1 9727
000000d0: f2c8 ca27 5d7f ab26 0c0f fa27 878f 9326
000000e0: a263 4c25 c9c4 7e26 a174 c127 2d67 ef26
000000f0: 271a ef27 651e 9525 7969 9027 070f 4027
00000100: 03f4 4927 0979 6a26 5d66 ad26 4e22 0b28
00000110: 4364 5b26 f254 4126 b59c 9927 fa6f 8323
00000120: dd0b 2a39 5d91 0b39 ba37 8137 3e60 8b38
00000130: d2d6 e139 62cb 9438 fe90 5638 4f97 ba38
00000140: 9d8d 0239 369a 8939 c524 b938 fe6c 203a
00000150: 456d 3137 090c e739 0e98 ef38 498e 0239
00000160: 8258 a13a ccd0 be39 8004 f737 b623 c838
00000170: 54b4 1139 68bb 0c39 c7ad 233a 0607 8139
00000180: a5eb 2839 9bcb 0839 e96d 5c38 36d9 9939
00000190: 5672 ae38 41b8 5a39 3201 233a 6020 e638
000001a0: 0458 653a 6dde 3b39 b981 833a 6079 1e39
