SensorFormer/SensorFormer/checkpoints/CLfor12/chpt_AdamW_lr0.0003_ep50_10to11.pt (torch, 83172 bytes, 35 tensors)

self_attn.qkv_proj.weight f4 [108, 36]
0	0xbe86ec3c	-0.26352108
1	0x3e53b049	0.20672716
2	0x3e8da815	0.276673
3	0x3e609be7	0.21934472
4	0xbdb3a3af	-0.087714545
5	0x3de36e48	0.11105019
6	0xbdaecf90	-0.08535683
7	0x3e1605e1	0.1465068
8	0xbd46ba21	-0.04851735
9	0xbdddd83c	-0.10832259
10	0xbe192a05	-0.14957435
11	0xbe2a042c	-0.16603154
12	0xbc2a280a	-0.010385523
13	0x3e606ef6	0.21917328
14	0x3e4515d2	0.19246605
15	0x3e28945b	0.16462843
16	0xbe005be9	-0.12535061
17	0x3e80a68d	0.25127068
18	0x3da8e141	0.08246089
19	0xbc23655d	-0.009972897
20	0xbb97ee7b	-0.0046365834
21	0x3cb2906f	0.021797387
22	0x3d81b14a	0.06332643
23	0x3e17f583	0.14839749
24	0xbc4fca07	-0.012682444
25	0x3dbd7e2f	0.09252583
26	0x3df0d9e9	0.11760313
27	0x3e2d3a25	0.16916712
28	0x3dd2d383	0.10294249
29	0x3e51f89e	0.20504996
30	0x3d5aec97	0.053448286
31	0x3d5601b5	0.05224772
32	0x3cafa64e	0.021441605
33	0x3ea7d14b	0.32776865
34	0x3e7cf153	0.24701433
35	0x3c914943	0.01773513
36	0xbe3380cb	-0.175296
37	0x3b888cda	0.0041671814
38	0x3d37168b	0.044699233
39	0x3dc2ecb4	0.09517804
40	0xbc87c15b	-0.016571691
41	0x3e32d4c5	0.17463978
42	0xbca0fd25	-0.019651959
43	0xbd207172	-0.03917069
44	0xbdaf59c9	-0.08562047
45	0x3e5c673b	0.21523754
46	0x3d8d8791	0.06910623
47	0xbe8410d4	-0.2579409
48	0x3cdae42d	0.02672013
49	0x3ea40d3e	0.32041353
50	0x3cc1972e	0.023631658
51	0x3ddb47f8	0.10707086
52	0x3c905eba	0.017623294
53	0x3b033388	0.0020019729
54	0xbd9aa021	-0.075500734
55	0x3d9c5cee	0.076349124
56	0x3e6127ea	0.21987882
57	0xbe0005df	-0.1250224
58	0x3e96714a	0.29383308
59	0x3ea56a25	0.32307544
60	0x3e9bd9a1	0.30439475
61	0x3dcfa43f	0.10138749
62	0x3dd19ada	0.10234614
63	0x3e95a9f6	0.29231232
64	0x3e970192	0.29493386
65	0x3d2a2ae0	0.041544795
66	0x3e9ea6ea	0.3098672
67	0x3e891a5d	0.26777926
68	0x3e5f553e	0.21809861
69	0x3e07c70b	0.13259523
70	0x3e135265	0.143869
71	0x3e92e0f6	0.28687257
72	0x3d52703d	0.05137657
73	0x3e091a58	0.13388956
74	0xbe9151c6	-0.283827
75	0xbe055d78	-0.13023937
76	0xbd8f3001	-0.06991578
77	0x3e35d5f3	0.17757396
78	0x3e01b994	0.12668449
79	0x3ceb6317	0.028733773
80	0xbd073f48	-0.033019334
81	0x3d027f64	0.03185977
82	0x3d79700d	0.060897876
83	0xbd9b9b95	-0.07598034
84	0x3db0b280	0.08627796
85	0x3b552516	0.0032523326
86	0x3e44974c	0.1919834
87	0x3d8f96cc	0.07011184
88	0x3e676558	0.22597253
89	0xbe27684a	-0.16348377
90	0xbcdd86c3	-0.027041798
91	0x3e25276e	0.16128322
92	0xbe64d830	-0.22348094
93	0x3d8e592b	0.06950601
94	0xbe551fbd	-0.20812888
95	0xbe202d14	-0.15642196
96	0xbe388351	-0.18018843
97	0xbe491d8c	-0.19640177
98	0xbdf67bfc	-0.12035367
99	0x3c2b7a4a	0.010466168
100	0xbe170328	-0.14747298
101	0xbe49085d	-0.19632097
102	0xbc29f663	-0.010373685
103	0xbe66bd68	-0.2253319
104	0xbdd88a45	-0.10573248
105	0xbe1357f9	-0.14389028
106	0xbdca2db4	-0.098719984
107	0xbd3f23e8	-0.046665102
108	0x3db91695	0.0903751
109	0xbe43f543	-0.19136529
110	0x3e3bd487	0.18342791
111	0x3dcb1ed4	0.099179894
112	0xbd34fb3c	-0.04418491
113	0x3dea6169	0.11444361
114	0xbe72917c	-0.2368831
115	0xbc0de0d9	-0.008659565
116	0xbe174ca0	-0.14775324
117	0xbc757b9d	-0.014983085
118	0x3e697594	0.22798759
119	0x3dc9b70c	0.098493665
120	0xbe0f5cc5	-0.14000233
121	0x3e569751	0.2095616
122	0xbe8b3a37	-0.27192852
123	0x3d45fa98	0.048334688
124	0x3cb6439c	0.022249036
125	0xbd4fc8bd	-0.05072855
126	0xbd94686b	-0.07246479
127	0xbd9ce6cd	-0.07661209
128	0x3e8c3d2e	0.27390426
129	0xbe431c12	-0.19053677
130	0x3e5e1ed9	0.21691455
131	0x3dae9040	0.08523607
132	0x3eab33b2	0.33437878
133	0x3e90e244	0.28297627
134	0x3eb1f413	0.34756526
135	0x3dfa71fa	0.122287706
136	0x3e83b8a5	0.2572681
137	0x3d610520	0.05493653
138	0x3e9a0b3c	0.30086696
139	0x3e13b6cc	0.144252
140	0x3e82b135	0.25525823
141	0x3e91ab2e	0.28450912
142	0x3db552a5	0.08853654
143	0x3e9860e0	0.2976141
144	0xbdaf8962	-0.085711256
145	0x3bbb3d5b	0.0057141013
146	0xbd4de321	-0.050265435
147	0x3c63abe9	0.013895967
148	0x3cc9a8f7	0.024616702
149	0x3e7a277c	0.24429125
150	0x3d4667db	0.048438888
151	0x3cdc53b0	0.026895374
152	0xbceee20b	-0.02916052
153	0xbe4aee90	-0.19817567
154	0xbd6da987	-0.058023002
155	0xbde507fa	-0.11183162
156	0x3ddebe9a	0.10876198
157	0x3d4ae8db	0.049538475
158	0x3d145ef9	0.036223385
159	0xbdc3da79	-0.09563155
160	0xbe382b44	-0.17985255
161	0x3da92a22	0.08259989
162	0xbc4c7222	-0.012478383
163	0x3e0a4554	0.13503009
164	0x3e627ee1	0.22118713
165	0xbe0a23db	-0.1349024
166	0x3e3106a7	0.17287694
167	0x3e9a916c	0.30189073
168	0x3d0d0fbe	0.03443884
169	0x3e84b91b	0.25922474
170	0x3e57d125	0.21075876
171	0x3e4c2063	0.1993423
172	0xbd2c20a7	-0.042023327
173	0x3e78fc8a	0.24315086
174	0x3e8d4c5c	0.2759732
175	0x3e0e8d37	0.13921057
176	0x3e429617	0.19002567
177	0x3e963b29	0.2934201
178	0xbbe6af2c	-0.007039925
179	0x3b4e2e4b	0.0031460698
180	0x3d05debf	0.03268313
181	0x3af94f51	0.001902083
182	0x3d8735c9	0.066020556
183	0xbda3e67b	-0.08002945
184	0xbdc14c9a	-0.09438439
185	0xbbae8401	-0.0053257947
186	0xbd8a446c	-0.06751332
187	0xbdf2e383	-0.11859801
188	0xbd67b51d	-0.056569207
189	0xbd76ec5d	-0.060284007
190	0xbe07ccaa	-0.13261667
191	0x3d60b72b	0.054862183
192	0x3e487070	0.19574142
193	0x3e5cf3f0	0.2157743
194	0xbe7a5380	-0.24445915
195	0xbd5d530e	-0.054034285
196	0xbe849347	-0.25893614
197	0x3e3d7e1c	0.18505138
198	0xbe20f0ea	-0.15716901
199	0x3da20a51	0.07912124
200	0x3d96d006	0.07363896
201	0xbcaccc1b	-0.021093419
202	0x3ea4a6f5	0.32158628
203	0x3dc073a0	0.09397054
204	0x3e8dd1fc	0.27699268
205	0x3e8cc623	0.27494916
206	0x3e76da36	0.24106678
207	0x3e02543a	0.12727442
208	0x3d8ed5d4	0.06974378
209	0x3e697c54	0.22801334
210	0x3d3f0272	0.04663319
211	0x3e0af52b	0.13570087
212	0x3e6b474f	0.22976421
213	0x3e989b3f	0.29805943
214	0x3eaac59a	0.33353883
215	0x3d463608	0.048391372
216	0xbe2696fb	-0.16268532
217	0x3e34ae09	0.17644514
218	0xbdb04134	-0.086061865
219	0xbdbfd451	-0.09366668
220	0xbe08eab3	-0.1337078
221	0xbdf683fe	-0.12036894
222	0x3dd21cfc	0.102594346
223	0xbdca8b31	-0.0988983
224	0x3e05bf52	0.13061264
225	0xbd4bfbcc	-0.04980068
226	0xbe36b2fe	-0.17841718
227	0xbd2c6c5a	-0.04209552
228	0xbe1909c4	-0.14945132
229	0x3d8c2ed2	0.06844868
230	0x3d6eabe6	0.058269404
231	0xbdd9490e	-0.10609637
232	0x3e6f293c	0.23355573
233	0x3d479912	0.048729964
234	0x3e613aa0	0.2199502
235	0x3dd2280f	0.10261547
236	0x3c815331	0.015786739
237	0x3e11e8ca	0.14248958
238	0xbdc6687e	-0.09687899
239	0xbea3a5c2	-0.319624
240	0xbe7cc3ff	-0.24684142
241	0xbe789bde	-0.24278209
242	0xbe4b5721	-0.19857456
243	0xbdbafa65	-0.0912979
244	0xbe15e249	-0.14637102
245	0xbec4f5d9	-0.38468817
246	0xbe1e75f1	-0.15474679
247	0xbe5ccc4d	-0.2156231
248	0xbdf5531c	-0.119787425
249	0xbe98efc4	-0.29870427
250	0xbd544b11	-0.0518294
251	0xbeb17837	-0.3466203
252	0x3e5b9d7f	0.21446799
253	0xbcb3ebd7	-0.021963043
254	0xbdd7d4f3	-0.10538664
255	0xbd8062c6	-0.062688395

self_attn.qkv_proj.bias f4 [108]
0	0x3e2d2777	0.16909586
1	0x3e3ab121	0.18231632
2	0xbe169595	-0.14705499
3	0x3e4e08a7	0.20120488
4	0x3e26a34a	0.16273227
5	0x3e44dbf6	0.19224533
6	0xbe66da7b	-0.22544281
7	0x3dfc4758	0.12318295
8	0xbe7d9a38	-0.24765861
9	0x3dd7a2a4	0.10529068
10	0x3e46424b	0.19361226
11	0xbe5609b8	-0.20902145
12	0x3e51b70b	0.20479982
13	0x3e3b4736	0.18288884
14	0x3e23bba6	0.15989551
15	0xbe48a6ef	-0.1959493
16	0x3e10e6ac	0.14150494
17	0xbe108434	-0.14112931
18	0x3e11bea5	0.14232881
19	0x3e2727fd	0.16323848
20	0xbc2aa14b	-0.010414432
21	0xbe3b4ad2	-0.1829026
22	0x3e3cb72d	0.18429251
23	0xbe589592	-0.21150807
24	0xbe683fae	-0.22680542
25	0xbe4de846	-0.20108137
26	0xbd34b501	-0.04411793
27	0x3e4dd7e5	0.20101888
28	0xbd2651a0	-0.040605187
29	0x3e360c26	0.17778072
30	0x3de2ebaa	0.110801056
31	0x3da5f82e	0.08103977
32	0xbdd2478d	-0.102675535
33	0xbd9a7c4a	-0.075432375
34	0xbd78276b	-0.060584467
35	0x3da82721	0.08210588
36	0xbca41749	-0.020030634
37	0xbbfdcae2	-0.007745133
38	0x3cc34214	0.02383522
39	0x3d221c4e	0.039577775
40	0x3d81b1b4	0.06332722
41	0xbcff452f	-0.031160919
42	0xbd91671e	-0.07099746
43	0x3d2d4b0c	0.0423079
44	0x3cdb2c2f	0.026754467
45	0x3d323e34	0.043516353
46	0x3c213d97	0.009841344
47	0xbcc07737	-0.023494346
48	0x3d8df377	0.06931203
49	0xbca3b9d5	-0.019986073
50	0xbc3898e2	-0.011266919
51	0xbb783815	-0.0037875224
52	0xbd29a2e4	-0.04141511
53	0x3cb410d4	0.02198068
54	0xbc2b5949	-0.010458299
55	0xbcdaa9dc	-0.026692323
56	0xbd6879c0	-0.056756735
57	0x3bac22b9	0.0052531627
58	0xbd116a6b	-0.03550188
59	0xbc78a508	-0.015176065
60	0x3cadc564	0.021212287
61	0x3ce4e957	0.027943296
62	0x3cf72c9b	0.030172637
63	0x3d6c398d	0.057672072
64	0xbb9c78ed	-0.0047751577
65	0x3d6dfae3	0.058100592
66	0xbcd152e3	-0.025552219
67	0x3d10b30a	0.035326995
68	0xbd11b6d5	-0.035574753
69	0x3cfe51c3	0.031044846
70	0xbacfbfd0	-0.0015850011
71	0x3bcb0e84	0.0061967988
72	0xbe129e1e	-0.1431813
73	0x3e0a1a75	0.13486655
74	0xbea656e1	-0.32488158
75	0x3e0d0bce	0.13774034
76	0x3e5f09f2	0.21781138
77	0xbdf16235	-0.1178631
78	0xbd7e9e76	-0.06216284
79	0xbea38f88	-0.31945443
80	0x3e4d9d71	0.2007959
81	0xbea2728a	-0.3172801
82	0xbe8ea652	-0.27861267
83	0x3db83a8b	0.08995541
84	0xbd840a5a	-0.06447287
85	0xbe967935	-0.2938935
86	0x3ded27d0	0.11579859
87	0x3c96900f	0.01837924
88	0x3e3fec80	0.18742561
89	0xbd96c5e7	-0.073619656
90	0x3eac95df	0.33708093
91	0x3e95d14d	0.29261246
92	0x3d297695	0.041372854
93	0x3e688bd0	0.22709584
94	0x3e824cee	0.25449318
95	0x3e206f35	0.15667422
96	0xbe9a5531	-0.3014312
97	0xbd8ed112	-0.06973471
98	0xbe246e5c	-0.16057724
99	0xbe8dc148	-0.27686524
100	0xbdd2c5b1	-0.10291613
101	0x3e2f6a67	0.17130433
102	0xbebca031	-0.36840966
103	0xbc0fc306	-0.008774525
104	0xbe9a4da3	-0.30137357
105	0x3eb8e171	0.36109498
106	0x3e019838	0.12655723
107	0x3e4451a1	0.19171764

self_attn.o_proj.weight f4 [36, 36]
0	0x3e409c96	0.18809733
1	0xbd1a9668	-0.037741095
2	0x3e087389	0.13325323
3	0x3e0affb2	0.13574103
4	0x3e5c1399	0.21491851
5	0xbda6375f	-0.0811603
6	0x3cd93c01	0.02651787
7	0xbc8853af	-0.016641466
8	0x3da5e649	0.08100564
9	0xbd9afa98	-0.07567328
10	0xbe4c1db4	-0.19933206
11	0x3e780db4	0.24223977
12	0xbe4ae626	-0.19814357
13	0x3e211b4f	0.15733074
14	0xbc85813d	-0.016296977
15	0x3d275abf	0.040858027
16	0x3ead5cd7	0.33859894
17	0xbe2e2d89	-0.17009558
18	0xbdf89c7c	-0.12139222
19	0x3e9640f4	0.2934643
20	0xbe0a5c50	-0.13511777
21	0x3e098b0a	0.13431945
22	0x3ebbad5e	0.36655706
23	0xbe0ca11e	-0.13733336
24	0xbea8c4bd	-0.329626
25	0xbe41ceb9	-0.18926515
26	0xbcfa4533	-0.030550575
27	0xbdec708c	-0.11544904
28	0x3e02971a	0.12752953
29	0xbddef324	-0.10886219
30	0xbeae16f2	-0.3400188
31	0x3d0572da	0.032580234
32	0xbdc47d69	-0.095942326
33	0x3e93c264	0.28859246
34	0x3e78a754	0.2428258
35	0x3dee94ed	0.11649499
36	0x3decfdd7	0.115718536
37	0x3e7ae10c	0.24499911
38	0xbd00d3f9	-0.031452153
39	0x3e674d18	0.22588003
40	0x3e3a47cd	0.18191452
41	0xbe2756e3	-0.16341738
42	0x3e06ef87	0.1317731
43	0x3d2dded4	0.042448834
44	0xbd1b7d21	-0.03796113
45	0x3e5117be	0.20419213
46	0x3e31ecaa	0.17375436
47	0xbdebb464	-0.11509016
48	0xbe424582	-0.18971828
49	0x3d96d5e9	0.07365019
50	0xbd132737	-0.03592607
51	0x3e31dbe7	0.17369042
52	0xbeb4b38d	-0.35293236
53	0xbd33eecb	-0.043928903
54	0x3e1f223f	0.15540408
55	0x3d20eb00	0.039286613
56	0x3d674dec	0.056470796
57	0x3e4182a9	0.18897499
58	0xbe49d353	-0.1970952
59	0xbd8ebc2a	-0.06969483
60	0x3cb19558	0.021677658
61	0xbd9f3aab	-0.07774862
62	0x3e52174e	0.20516703
63	0x3d11884b	0.03553037
64	0xbe2ebf37	-0.1706513
65	0xbe491dd6	-0.19640288
66	0xbd639d1f	-0.055569764
67	0x3e1c0d15	0.15239365
68	0xbde18b2d	-0.11012874
69	0x3e08abaa	0.13346735
70	0x3dc27e4b	0.09496745
71	0xbe55aa5c	-0.20865768
72	0x3e2080e0	0.15674162
73	0xbdf14553	-0.11780801
74	0x3ed50a3d	0.41609374
75	0x3e142c1d	0.14469953
76	0xbd33c524	-0.04388918
77	0xbe1c68aa	-0.15274301
78	0xbdf16319	-0.117864795
79	0xba1fa31f	-0.00060896756
80	0x3dd987b3	0.10621586
81	0x3eb9cb03	0.36287698
82	0x3e9c0b8e	0.30477566
83	0x3e63d0c5	0.22247608
84	0xbdc6e3af	-0.09711396
85	0x3e9664e0	0.29373837
86	0x3d0b58c4	0.0340202
87	0xbddfe3d4	-0.10932127
88	0xbc9247ae	-0.017856445
89	0xbe919384	-0.28432858
90	0xbe7528ab	-0.23941295
91	0xbe063648	-0.13106644
92	0x3cd81ce8	0.026380971
93	0xbe4bd9d7	-0.19907318
94	0xbe671a39	-0.22568597
95	0x3bfd3a27	0.0077278796
96	0x3e111e49	0.14171709
97	0x3e14eb2c	0.14542836
98	0xbdb4d230	-0.088291526
99	0x3e47a806	0.1949769
100	0xbd36cd38	-0.044629306
101	0xbdd428a6	-0.103593156
102	0x3d59dbff	0.05318832
103	0xbcd9de8f	-0.026595382
104	0x3e0df64e	0.13863489
105	0xbe9fce0f	-0.31211898
106	0x3e20c386	0.15699586
107	0xbe8c213e	-0.27369112
108	0x3d57039c	0.052493677
109	0xbe27977a	-0.16366377
110	0x3f06ebc9	0.5270353
111	0xbd0b5ecd	-0.034025956
112	0xbe22216c	-0.15833062
113	0x3e04dc75	0.12974723
114	0xbe172547	-0.14760314
115	0x3e8cf3d8	0.27529788
116	0x3ce26c46	0.02763952
117	0x3eeacb97	0.45858452
118	0x3e2ea179	0.17053784
119	0xbcde19a7	-0.027111841
120	0xbb6691a9	-0.0035182035
121	0x3ed5953b	0.41715416
122	0x3eb18537	0.34671947
123	0x3eb2c1de	0.34913534
124	0x3e2699e0	0.16269636
125	0x3e415956	0.18881735
126	0xbe425d82	-0.18980983
127	0xbe9a4702	-0.301323
128	0xbe0ad430	-0.13557506
129	0xbec9a8de	-0.39386648
130	0x3d7494c7	0.059712198
131	0xbd635e99	-0.055510137
132	0x3e46ccbb	0.19414036
133	0x3dd4026e	0.10352026
134	0x3bc78eb1	0.006090008
135	0x3e5181ab	0.2045962
136	0x3d342b63	0.04398669
137	0xbf04dbf9	-0.5189815
138	0x3dc47077	0.095917635
139	0xbe257e4a	-0.16161457
140	0x3eab6789	0.3347743
141	0xbf081d7c	-0.5316999
142	0x3dc54536	0.096323416
143	0xbeb36b91	-0.35043004
144	0x3e349855	0.17636235
145	0x3dbd462e	0.09241901
146	0xbdc69425	-0.09696225
147	0xbe153a36	-0.14572987
148	0x3d6f25aa	0.05838553
149	0xbe166010	-0.14685082
150	0xbd477b93	-0.048701834
151	0xbd4bf757	-0.04979643
152	0xbe23092d	-0.15921469
153	0xbb0427d7	-0.0020165348
154	0xbe047cfe	-0.12938306
155	0x3e2ad6f3	0.16683559
156	0xbe05388e	-0.13009855
157	0x3e8d9d38	0.2765901
158	0xbc47d7a4	-0.012197409
159	0xbd76c82b	-0.06024949
160	0xbe07d537	-0.13264929
161	0x3bc27269	0.005934049
162	0xbd88aec9	-0.066739626
163	0x3e816430	0.2527175
164	0x3e0ae9f1	0.13565804
165	0x3cb74767	0.022372914
166	0xbbfa0cd6	-0.0076309247
167	0x3e1bb232	0.15204695
168	0x3d8828b6	0.0664839
169	0x3db85e19	0.09002323
170	0x3de17955	0.110094704
171	0xbd6a61d3	-0.0572222
172	0xbe5a8dfd	-0.21343227
173	0xbe807020	-0.25085545
174	0xbc3cb7ee	-0.011518462
175	0xbe56c47f	-0.20973395
176	0x3e3a54d2	0.18196419
177	0xbd931008	-0.07180792
178	0x3e3ca9db	0.1842417
179	0xbe3535fc	-0.17696375
180	0xbde14510	-0.10999501
181	0x3e1df9c2	0.15427306
182	0xbcbdaf73	-0.02315495
183	0x3e11ca9d	0.14237447
184	0x3e2facff	0.17155837
185	0x3dc1fe25	0.09472302
186	0xbdd87efb	-0.105710946
187	0x3e175945	0.14780147
188	0xbe3571c1	-0.17719175
189	0xbe959766	-0.2921707
190	0xbdb0046b	-0.08594593
191	0xbd970555	-0.07374064
192	0x3e25b137	0.16180883
193	0xbe761184	-0.24030119
194	0x3dabd8a7	0.083909325
195	0xba84e39b	-0.0010138632
196	0x3c363556	0.011121115
197	0xbe735225	-0.23761804
198	0x3e0175dc	0.12642616
199	0xbcf83df0	-0.030302972
200	0xbe5cabcc	-0.2154991
201	0xbe930031	-0.28711084
202	0x3ef62d5e	0.48081487
203	0xbdc58177	-0.09643834
204	0xbd3e45df	-0.046453353
205	0xbddb91e4	-0.10721186
206	0xbe3a57ea	-0.18197599
207	0xbdf21066	-0.11819534
208	0x3e2882aa	0.16456094
209	0xbd265bde	-0.040614955
210	0x3d61363e	0.05498337
211	0x3b57ad76	0.0032909787
212	0x3e2562a8	0.16150916
213	0x3cc5645a	0.024095703
214	0x3d98e354	0.074652344
215	0x3d64d43e	0.055866472
216	0xbe164fc5	-0.14678867
217	0xbe1e2b60	-0.15446234
218	0x3e105bea	0.14097562
219	0x3e3cdbcf	0.18443225
220	0x3d9a4bb5	0.07533971
221	0x3e821b3f	0.25411412
222	0xbdb97fd5	-0.09057585
223	0x3dc738f8	0.09727663
224	0xbe28d359	-0.16486873
225	0x3e69323d	0.2277307
226	0x3db92b3d	0.0904145
227	0xbe68a65e	-0.22719714
228	0x3d9bfbfc	0.076164216
229	0x3cf5df1c	0.030013613
230	0xbda28826	-0.079361245
231	0x3e02b91f	0.1276593
232	0xbe7d7927	-0.24753247
233	0x3e5b717e	0.21430013
234	0xbd80317a	-0.06259437
235	0x3da10748	0.07862717
236	0xbe5862cd	-0.2113144
237	0x3ddf6e79	0.10909743
238	0xbe78559a	-0.24251404
239	0x3e0e3b94	0.13889915
240	0x3c9f2736	0.019427877
241	0xbdd268ac	-0.10273871
242	0xbe5740c1	-0.21020795
243	0xbdbbcc64	-0.09169844
244	0x3da7936d	0.08182416
245	0xbe154a13	-0.14579038
246	0xbe1d334b	-0.15351598
247	0x3e5a9f94	0.21349937
248	0x3e8b8dd9	0.2725666
249	0x3e2774e5	0.16353185
250	0xbdc5225f	-0.096256964
251	0x3d318409	0.04333881
252	0xbcd2790f	-0.02569249
253	0x3c949f18	0.018142268
254	0x3e15c461	0.14625694
255	0xbd015378	-0.031573743

self_attn.o_proj.bias f4 [36]
0	0x3e9f0c70	0.31064177
1	0xbe00536d	-0.12531824
2	0xbeac9088	-0.3370402
3	0xbed8ab90	-0.42318392
4	0xbdd326b5	-0.10310117
5	0x3e320e2d	0.1738822
6	0xbe52c0e8	-0.205814
7	0xbecf35bc	-0.40470684
8	0x3d7f1eba	0.062285163
9	0xbf0356a7	-0.51304096
10	0x3eb5d8b0	0.35516882
11	0x3f2ef11c	0.68336654
12	0x3e14a298	0.1451515
13	0xbf210852	-0.6290332
14	0xbe8d290e	-0.27570385
15	0xbec11af1	-0.37715867
16	0x3f03a76e	0.5142735
17	0x3ddd7f33	0.10815277
18	0x3ea142c2	0.31496245
19	0xbea2f3c3	-0.318266
20	0x3e485cc8	0.19566643
21	0xbe8df777	-0.27727863
22	0x3e821667	0.25407717
23	0xbe0ddfa4	-0.13854843
24	0x3d14c4e9	0.0363206
25	0x3e246d5b	0.16057341
26	0x3e92d6cb	0.286795
27	0xbe0bccf3	-0.136524
28	0x3ea80fac	0.32824457
29	0x3e662a73	0.2247713
30	0xbe3a583f	-0.18197726
31	0xbd017d32	-0.031613536
32	0xbe63ddd8	-0.22252595
33	0x3e96b1ea	0.29432613
34	0x3e3888a3	0.18020873
35	0x3e550da9	0.20805992

fc.weight f4 [1, 18]
0	0xbde9e458	-0.11420506
1	0xbe7153e2	-0.23567155
2	0x3e61ef4f	0.22063945
3	0xbda2ea40	-0.07954836
4	0xbe56d156	-0.20978293
5	0xbe2df640	-0.16988468
6	0x3d6f9781	0.058494095
7	0x3e1468a6	0.14493045
8	0x3cc74026	0.02432258
9	0x3d169b80	0.03676939
10	0xbd066112	-0.032807417
11	0x3d209738	0.039206713
12	0xbca3dadf	-0.020001827
13	0x3e412893	0.18863134
14	0x3db508d7	0.08839577
15	0xbdcf0e64	-0.10110167
16	0x3dab77bb	0.08372446
17	0xbda951d3	-0.0826756

fc1.weight f4 [1, 36]
0	0xbf9ae309	-1.2100536
1	0x3fbb091b	1.4612154
2	0x3f3be0a4	0.7338965
3	0xbf63e303	-0.8901827
4	0x3fb47af3	1.4100021
5	0xbfd1294b	-1.6340727
6	0x3fca959f	1.5826911
7	0x3fdc6def	1.7221049
8	0xbf8211c7	-1.0161675
9	0x3fab82fa	1.3399346
10	0xbfd2518c	-1.6431136
11	0x3f2349cb	0.63784474
12	0xbfa5acd5	-1.2943369
13	0xbeeec60f	-0.46635482
14	0xbf77d70e	-0.9681252
15	0x3fb937f2	1.4470198
16	0x3f568412	0.83795273
17	0xbf3d1dc5	-0.7387355
18	0xbf9fd034	-1.2485414
19	0x3fd52d93	1.6654533
20	0xbfd26731	-1.6437742
21	0x3fd326f8	1.6496267
22	0xbfba5103	-1.4555973
23	0x3fa6aa83	1.3020786
24	0x3f93f6c3	1.1559681
25	0xbf9df498	-1.2340269
26	0x3f745316	0.9543928
27	0x3fb47692	1.4098685
28	0xbfd11ea8	-1.633748
29	0xbfa44cc9	-1.2835933
30	0x3f9aa640	1.2081985
31	0x3f929c58	1.1453962
32	0x3fb6eec1	1.4291612
33	0xbfb7d0f3	-1.4360641
34	0xbfb824c0	-1.4386215
35	0xbfdbff24	-1.7187238

fc2.weight f4 [1, 9]
0	0xbe9c472c	-0.3052305
1	0xbea55562	-0.32291704
2	0xbdaec55b	-0.08533736
3	0xbcf77516	-0.030207198
4	0x3e7ffaa8	0.24997962
5	0xbe5ee9ae	-0.21768829
6	0xbea54b2c	-0.32283914
7	0x3aa8b956	0.0012872617
8	0xbe9e0de4	-0.30869973

fc3.weight f4 [1, 2]
0	0x3f02819b	0.5097901
1	0xbf15dcc8	-0.5854001

input_fc.weight f4 [18, 3]
0	0xbe593ea5	-0.21215303
1	0x3e964a6e	0.2935366
2	0x3dca9891	0.09892381
3	0x3d9a199b	0.07524415
4	0x3b706e8d	0.0036686987
5	0xbd8b156f	-0.067911975
6	0x3eaf09de	0.34187216
7	0xbeff2167	-0.4983017
8	0x3dc7c798	0.09754866
9	0x3e58aa24	0.21158653
10	0xbf193b48	-0.5985608
11	0x3d956275	0.0729417
12	0x3e735dca	0.23766246
13	0x3e582b9e	0.21110389
14	0x3cb2d674	0.021830775
15	0xbd2b004f	-0.04174834
16	0xbc7e47e5	-0.015520071
17	0x3d03379c	0.032035455
18	0x3d710de3	0.058851134
19	0x3dbb07b1	0.091323264
20	0xbdaad12f	-0.0834068
21	0x3f17097f	0.58998865
22	0x3e3105bb	0.17287342
23	0xbe951c59	-0.2912319
24	0xbe4ea2b2	-0.20179251
25	0xbe8be2ad	-0.27321377
26	0xbe18c6cd	-0.14919586
27	0x3e80bdba	0.2514475
28	0x3f013ab4	0.504802
29	0xbed8ee38	-0.42369246
30	0xbeaf2ae7	-0.3421242
31	0xbea428ce	-0.32062382
32	0x3e9f7b8b	0.31148943
33	0xbeea3b5b	-0.4574841
34	0x3e580536	0.21095738
35	0x3ea57c2b	0.32321295
36	0x3c563391	0.013073818
37	0xbc1a3477	-0.009411923
38	0xbc84db06	-0.01621772
39	0x3e9ec115	0.31006685
40	0xbec96c4d	-0.3934044
41	0xbd8082ad	-0.062749244
42	0x3e9140f4	0.28369868
43	0xbdea70de	-0.11447309
44	0xbe8efc2a	-0.2792676
45	0x3e9fcf54	0.31212866
46	0xbe8a66b8	-0.27031493
47	0xbe23406d	-0.15942545
48	0xbea31076	-0.31848496
49	0x3f077c2b	0.5292384
50	0xbcc05969	-0.023480134
51	0x3db632c2	0.088964
52	0xbeb0375e	-0.34417242
53	0x3d157401	0.036487583

input_fc.bias f4 [18]
0	0xbe64f766	-0.2236
1	0xbe586bd7	-0.21134888
2	0xbf034646	-0.51279104
3	0xbd80dcb3	-0.06292095
4	0xbe159edf	-0.14611386
5	0x3ec24cca	0.3794921
6	0xbf06bb56	-0.526296
7	0xbcbc5d6a	-0.022993762
8	0xbe0da589	-0.13832678
9	0xbf05895b	-0.5216271
10	0x3e9338d8	0.28754306
11	0x3e1b396f	0.15158628
12	0xbcecfac9	-0.028928177
13	0xbd30f75e	-0.043204658
14	0xbefb85c9	-0.49125507
15	0xbef00098	-0.46875453
16	0x3f05444d	0.52057344
17	0x3f0a8387	0.54106945

norm.weight f4 [36]
0	0x3f800000	1.0
1	0x3f800000	1.0
2	0x3f800000	1.0
3	0x3f800000	1.0
4	0x3f800000	1.0
5	0x3f800000	1.0
6	0x3f800000	1.0
7	0x3f800000	1.0
8	0x3f800000	1.0
9	0x3f800000	1.0
10	0x3f800000	1.0
11	0x3f800000	1.0
12	0x3f800000	1.0
13	0x3f800000	1.0
14	0x3f800000	1.0
15	0x3f800000	1.0
16	0x3f800000	1.0
17	0x3f800000	1.0
18	0x3f800000	1.0
19	0x3f800000	1.0
20	0x3f800000	1.0
21	0x3f800000	1.0
22	0x3f800000	1.0
23	0x3f800000	1.0
24	0x3f800000	1.0
25	0x3f800000	1.0
26	0x3f800000	1.0
27	0x3f800000	1.0
28	0x3f800000	1.0
29	0x3f800000	1.0
30	0x3f800000	1.0
31	0x3f800000	1.0
32	0x3f800000	1.0
33	0x3f800000	1.0
34	0x3f800000	1.0
35	0x3f800000	1.0

norm.bias f4 [36]
0	0x00000000	0.0
1	0x00000000	0.0
2	0x00000000	0.0
3	0x00000000	0.0
4	0x00000000	0.0
5	0x00000000	0.0
6	0x00000000	0.0
7	0x00000000	0.0
8	0x00000000	0.0
9	0x00000000	0.0
10	0x00000000	0.0
11	0x00000000	0.0
12	0x00000000	0.0
13	0x00000000	0.0
14	0x00000000	0.0
15	0x00000000	0.0
16	0x00000000	0.0
17	0x00000000	0.0
18	0x00000000	0.0
19	0x00000000	0.0
20	0x00000000	0.0
21	0x00000000	0.0
22	0x00000000	0.0
23	0x00000000	0.0
24	0x00000000	0.0
25	0x00000000	0.0
26	0x00000000	0.0
27	0x00000000	0.0
28	0x00000000	0.0
29	0x00000000	0.0
30	0x00000000	0.0
31	0x00000000	0.0
32	0x00000000	0.0
33	0x00000000	0.0
34	0x00000000	0.0
35	0x00000000	0.0

norm1.weight f4 [9]
0	0x3f800000	1.0
1	0x3f800000	1.0
2	0x3f800000	1.0
3	0x3f800000	1.0
4	0x3f800000	1.0
5	0x3f800000	1.0
6	0x3f800000	1.0
7	0x3f800000	1.0
8	0x3f800000	1.0

norm1.bias f4 [9]
0	0x00000000	0.0
1	0x00000000	0.0
2	0x00000000	0.0
3	0x00000000	0.0
4	0x00000000	0.0
5	0x00000000	0.0
6	0x00000000	0.0
7	0x00000000	0.0
8	0x00000000	0.0

norm2.weight f4 [9]
0	0x3f800000	1.0
1	0x3f800000	1.0
2	0x3f800000	1.0
3	0x3f800000	1.0
4	0x3f800000	1.0
5	0x3f800000	1.0
6	0x3f800000	1.0
7	0x3f800000	1.0
8	0x3f800000	1.0

norm2.bias f4 [9]
0	0x00000000	0.0
1	0x00000000	0.0
2	0x00000000	0.0
3	0x00000000	0.0
4	0x00000000	0.0
5	0x00000000	0.0
6	0x00000000	0.0
7	0x00000000	0.0
8	0x00000000	0.0

m.running_mean f4 [12]
0	0x4074a6f3	3.8226898
1	0x4076b613	3.854863
2	0x4075beae	3.8397632
3	0x4073e0f7	3.8106058
4	0x4072d258	3.7940884
5	0x407434a5	3.8157132
6	0x4076718a	3.8506799
7	0x40797e9e	3.898353
8	0x40756662	3.834374
9	0x407250e6	3.7861876
10	0x406f823f	3.7423246
11	0x406e13c1	3.7199557

m.running_var f4 [12]
0	0x4436c4d1	731.07526
1	0x4436ab53	730.67694
2	0x4436359a	728.8375
3	0x44368441	730.06647
4	0x4436dfb1	731.4952
5	0x44376f7d	733.742
6	0x4437c3a9	735.0572
7	0x443b318f	748.77435
8	0x4436f28c	731.7898
9	0x44374236	733.03455
10	0x443745ce	733.0907
11	0x4436ab78	730.6792

linear_net.0.weight f4 [9, 18]
0	0x3e70c397	0.23512112
1	0x3d8e27c4	0.069411784
2	0x3d6fc17d	0.058534134
3	0x3e6669f7	0.2250136
4	0xbe00b9f0	-0.1257093
5	0x3e10cf57	0.14141594
6	0xbe0a85c2	-0.13527587
7	0x3d897498	0.067116916
8	0xbe6e30ef	-0.23260854
9	0xbcfa5c38	-0.030561551
10	0x3e5a8858	0.21341074
11	0x3e60c1d5	0.21948941
12	0xbd42911a	-0.04750166
13	0xbde93081	-0.113862045
14	0xbcccd673	-0.025004601
15	0x3e1dbcb2	0.15404013
16	0x3d73e20d	0.05954175
17	0xbda59f60	-0.08087039
18	0xbdd26723	-0.10273578
19	0x3e1dcd21	0.15410282
20	0xbe1f4a86	-0.15555772
21	0xbdc0cb42	-0.09413768
22	0xbd11a3cc	-0.0355566
23	0x3e61a4ee	0.22035572
24	0x3e39681e	0.18106124
25	0x3e36c3bb	0.17848103
26	0xbe23684c	-0.15957755
27	0x3da68442	0.08130695
28	0xbc84ba9a	-0.01620226
29	0x3defea03	0.11714556
30	0x3e1fa881	0.15591623
31	0xbe3cd99f	-0.18442391
32	0xbe430d93	-0.19048147
33	0x3cdd2d84	0.026999243
34	0xbe6e38f1	-0.23263909
35	0x3e2e10a6	0.16998538
36	0xbe2eb7bd	-0.17062278
37	0xbe0c42d8	-0.13697374
38	0x3a89fd2b	0.001052772
39	0x3e098ed1	0.13433386
40	0x3e52bb01	0.20579149
41	0x3d3242d8	0.04352078
42	0x3e4de478	0.20106685
43	0x3dcb3759	0.09922666
44	0x3e6cc7c0	0.23123074
45	0xbd6df3ec	-0.05809395
46	0xbd753e02	-0.05987359
47	0xbd955642	-0.07291843
48	0xbd23f645	-0.040029783
49	0xbe4c261a	-0.1993641
50	0x3d9045a9	0.070445366
51	0x3e2d20c7	0.16907035
52	0x3df8ce71	0.121487506
53	0xbe184a68	-0.14872134
54	0x3e5ac2b2	0.21363333
55	0xba1dc7d3	-0.0006018851
56	0xbbe97925	-0.0071250373
57	0xbe515dc8	-0.20445931
58	0xbdd335c6	-0.10312991
59	0x3d9bec8c	0.07613477
60	0x3cea2ec1	0.028586747
61	0xbe1a47cc	-0.15066451
62	0x3e5fe018	0.21862829
63	0x3dca2de7	0.098720364
64	0x3e054552	0.13014725
65	0xbe0c66b0	-0.13711047
66	0xbdc2e954	-0.0951716
67	0x3d96f4a3	0.073708795
68	0xbe627465	-0.22114713
69	0x3de20e01	0.11037827
70	0x3c472ee2	0.012157174
71	0x3e1a4371	0.1506479
72	0x3e3937dd	0.18087716
73	0x3d3ecf59	0.04658446
74	0x3dfbd068	0.1229561
75	0x3bb3a183	0.0054819
76	0x3e6b71f6	0.22992691
77	0xbcd64b1d	-0.026158864
78	0xbe14b593	-0.1452239
79	0xbd011968	-0.03151837
80	0xbe35dcf7	-0.17760073
81	0xbe0d56f1	-0.13802697
82	0x3d52d41b	0.05147181
83	0x3e3a766c	0.18209237
84	0x3e44a88f	0.19204925
85	0x3e35d093	0.17755346
86	0x3e4e2f17	0.20135151
87	0x3e578a87	0.21048938
88	0xbe112d0a	-0.14177337
89	0xbd9368a0	-0.0719769
90	0x3ddbb048	0.10726982
91	0xbdbd9ea1	-0.09258772
92	0xbd24b3dd	-0.040210593
93	0x3e4c228f	0.19935058
94	0xbca84200	-0.020539284
95	0xbd601aa3	-0.054712903
96	0x3dc67952	0.09691109
97	0x3e6c21b6	0.23059735
98	0xbdd00ba7	-0.101584725
99	0xbcfc8889	-0.030826824
100	0xbe56bafa	-0.20969763
101	0x3ce44bca	0.02786817
102	0x3cc7482a	0.024326403
103	0x3e2217bd	0.15829368
104	0xbe452ffc	-0.19256586
105	0xbe158703	-0.14602284
106	0x3e3bd5c2	0.18343261
107	0xbdd98d92	-0.106227055
108	0x3c7e52bd	0.015522656
109	0x3e4f9f2f	0.20275567
110	0x3e519c40	0.20469761
111	0xbc71dc64	-0.014762018
112	0xbe64261b	-0.22280161
113	0xbe460dee	-0.19341251
114	0xbe67bffd	-0.22631831
115	0xbc674a69	-0.014116862
116	0xbe3bb6cd	-0.18331452
117	0x3e43bd1f	0.19115113
118	0xbe518307	-0.20460139
119	0xbd8f5241	-0.069981106
120	0x3dced3fb	0.10099026
121	0xbdcba69d	-0.09943888
122	0x3e34b3a2	0.1764665
123	0x3d4e9a1d	0.050439943
124	0x3e67d425	0.2263952
125	0x3d09a393	0.033603262
126	0x3e136a86	0.14396104
127	0xbe54d227	-0.20783292
128	0xbdcd24c3	-0.10016777
129	0x3dd7e421	0.10541559
130	0xbdb783a1	-0.08960653
131	0x3d9f12aa	0.07767232
132	0xbe121253	-0.14264803
133	0x3d3f95c0	0.046773672
134	0x3cec22f9	0.02882527
135	0xbe051351	-0.1299565
136	0xbbbc546d	-0.005747369
137	0x3e3aba2e	0.18235084
138	0xbe324b1c	-0.17411464
139	0x3d1ff901	0.039055828
140	0x3e0330c0	0.12811565
141	0x3e5e58fe	0.21713635
142	0xbe5be53e	-0.21474168
143	0x3dda62de	0.10663389
144	0x3e6579b0	0.22409701
145	0x3e252c14	0.16130096
146	0xbe502dc5	-0.2032996
147	0xbd0c0b3a	-0.034190394
148	0xbcecab35	-0.028890232
149	0xbd0ac111	-0.03387553
150	0x3c8b367a	0.01699375
151	0x3c7b14b7	0.015324763
152	0x3dffb233	0.12485161
153	0xbe3d2502	-0.18471149
154	0xbe2a31e5	-0.16620596
155	0xbbe9df70	-0.0071372315
156	0xbe63645a	-0.2220625
157	0x3e6cace5	0.23112829
158	0x3e2c63b8	0.16834915
159	0xbdd573e7	-0.10422497
160	0x3e2bcab8	0.1677655
161	0xbdd87998	-0.10570067

linear_net.0.bias f4 [9]
0	0xbad3c83c	-0.0016157697
1	0xbe4e1464	-0.20124966
2	0x3c05f891	0.008176939
3	0x3da16d5e	0.07882188
4	0xbdc7fb57	-0.09764736
5	0x3e05fca5	0.13084657
6	0xbb17d8f6	-0.002317009
7	0x3e015582	0.12630275
8	0x3e6d934d	0.23200722

linear_net.2.weight f4 [1, 9]
0	0xbe6e26b0	-0.23256946
1	0xbe6eeeeb	-0.23333327
2	0x3e80bf2c	0.25145853
3	0xbd9283a0	-0.07154012
4	0xbe74d8b8	-0.23910797
5	0x3d356d6b	0.044293802
6	0xbe6ad593	-0.22933035
7	0x3ea6a582	0.32548147
8	0x3e2062bb	0.15662663

exp_avg f4 [108, 36]
0	0xb8154557	-3.5588946e-05
1	0xbaee199d	-0.0018165592
2	0xbab52e1b	-0.0013822945
3	0x3b914a82	0.004433931
4	0xbc3487f4	-0.011018742
5	0x3adc6a98	0.0016816435
6	0xbb2a37ea	-0.0025973269
7	0xbc9627eb	-0.018329581
8	0x3c4a3f4d	0.012344194
9	0xbc5bb6b7	-0.013410262
10	0x3c5ec650	0.013597086
11	0x3be12d58	0.0068718605
12	0x39a082a1	0.00030614904
13	0xbaa89de8	-0.0012864443
14	0xbb819854	-0.0039549265
15	0xbb33fe82	-0.002746493
16	0xba093b59	-0.0005234979
17	0x3b5de71b	0.0033859673
18	0xb9bc92d2	-0.00035967544
19	0xb91759e1	-0.00014433965
20	0x38eae71a	0.000112010355
21	0xb8b02ee7	-8.40107e-05
22	0xb90d0007	-0.00013446818
23	0xb95eb0b2	-0.00021237394
24	0xb88827ed	-6.492422e-05
25	0xb9a06dda	-0.00030599424
26	0xb7cac6b4	-2.4172805e-05
27	0xb9a7d34c	-0.0003201015
28	0xb71268de	-8.726694e-06
29	0xb9a8cca0	-0.00032195915
30	0xb6529736	-3.1380455e-06
31	0xb9a8eced	-0.0003221998
32	0xb597604b	-1.1278402e-06
33	0xb9a8f119	-0.0003222309
34	0xb4d99bf3	-4.0532868e-07
35	0xb9a8f19e	-0.00032223476
36	0xb971ab26	-0.00023047309
37	0xbb1e1b67	-0.002412522
38	0xba85e967	-0.0010216654
39	0x3bd61dd3	0.006534317
40	0xbc6da033	-0.0145035265
41	0x3b05166e	0.0020307559
42	0xbb6472ba	-0.0034858421
43	0xbcc570cd	-0.02410164
44	0x3c8488ea	0.016178567
45	0xbc952cbe	-0.018209811
46	0x3c94d8c7	0.018169774
47	0x3c105cc8	0.008811183
48	0x3996b17f	0.00028742474
49	0xba9d42b4	-0.0011998028
50	0xbba73c51	-0.005103626
51	0xbb580355	-0.003296097
52	0xbab61bb7	-0.0013893758
53	0x3b9b978a	0.0047482895
54	0xb97e2cce	-0.00024240019
55	0xb8c31d6e	-9.303806e-05
56	0x378e9a65	1.6999615e-05
57	0x37e2edd8	2.7052054e-05
58	0xb97e1602	-0.00024231526
59	0xb990d6bd	-0.00027625813
60	0xb8e4d4c7	-0.0001091152
61	0xb9d96476	-0.00041464315
62	0xb8291fa5	-4.032221e-05
63	0xb9e41854	-0.00043505675
64	0xb773fdd2	-1.4543026e-05
65	0xb9e58035	-0.00043773805
66	0xb6af7405	-5.228913e-06
67	0xb9e5aecb	-0.00043808515
68	0xb5fc3bb9	-1.8792845e-06
69	0xb9e5b4ca	-0.00043812982
70	0xb5354c21	-6.7538537e-07
71	0xb9e5b592	-0.00043813564
72	0xbad9777b	-0.0016591394
73	0xbb18f553	-0.0023339584
74	0x39a3008b	0.00031090187
75	0x3c1aa48b	0.009438644
76	0xbc92d2f1	-0.01792285
77	0x3ac7e20a	0.001524986
78	0xbb7558bb	-0.003743692
79	0xbcdda6c0	-0.027057052
80	0x3caa6eae	0.02080473
81	0xbca74c60	-0.02042216
82	0x3ca77fa8	0.020446613
83	0x3bf67041	0.007520706
84	0x3859167c	5.1757772e-05
85	0x39fe1c5d	0.00048467788
86	0xbb6c4a52	-0.003605504
87	0xbae5e789	-0.0017540316
88	0xbb6b463a	-0.0035900013
89	0x3bd05bf3	0.0063586175
90	0x39ccadd3	0.0003903942
91	0x39c1886b	0.00036913468
92	0xb955b971	-0.00020382345
93	0x3a1ada15	0.00059071305
94	0xba27fd7f	-0.00064083183
95	0xb9a8baa8	-0.00032182527
96	0xb991fa0e	-0.0002784286
97	0xba2a85b3	-0.0006504908
98	0xb8d6e6b8	-0.0001024729
99	0xba370ca6	-0.0006982781
100	0xb81aefdf	-3.693986e-05
101	0xba38b124	-0.0007045439
102	0xb75ed06e	-1.328076e-05
103	0xba38e78d	-0.0007053547
104	0xb6a0289d	-4.7730996e-06
105	0xba38ee96	-0.0007054595
106	0xb5e63bd2	-1.7153745e-06
107	0xba38ef7f	-0.00070547307
108	0x3b0eb7b4	0.0021776976
109	0x3aff0bfc	0.0019458528
110	0x3ae01b2d	0.0017097943
111	0xbc10b3b0	-0.008831903
112	0x3ca5ee86	0.020255338
113	0xbac42d11	-0.0014967044
114	0x3b654d3b	0.003498866
115	0x3ce99b21	0.028516354
116	0xbcc7c4ef	-0.024385897
117	0x3c9c6e11	0.019095453
118	0xbca6cf0b	-0.020362398
119	0xbbe0a740	-0.0068558753
120	0xb92128e0	-0.00015369384
121	0xb8888d1a	-6.5112676e-05
122	0x3b1a0f54	0.0023507671
123	0x3ac1b94f	0.0014779958
124	0x3b2b8fac	0.0026178164
125	0xbbd02102	-0.006351591
126	0x37cc8718	2.4381603e-05
127	0xb98730b4	-0.00025785493
128	0xb7ff6b60	-3.044837e-05
129	0xba0e2dc0	-0.00054236874
130	0x3a3be03a	0.0007166896
131	0x39ccd039	0.0003906505
132	0x39a9034f	0.00032236657
133	0x3a522348	0.00080161216
134	0x38f9cd38	0.0001191147
135	0x3a6203da	0.000862179
136	0x3834309a	4.2960608e-05
137	0x3a6419ad	0.0008701336
138	0x378192ce	1.544636e-05
139	0x3a645ec5	0.00087116315
140	0x36ba46b5	5.5514633e-06
141	0x3a6467b2	0.00087129616
142	0x3605e3af	1.9951074e-06
143	0x3a6468da	0.0008713134
144	0x3a52aef4	0.00080369343
145	0xb8f84dad	-0.0001184003
146	0x399719de	0.00028820237
147	0xba94404c	-0.0011310666
148	0x3b33ec36	0.0027454025
149	0x392c9486	0.00016458528
150	0x38c48b46	9.37195e-05
151	0x3b200bed	0.002442117
152	0xbb794423	-0.0038034997
153	0x3a5d1e74	0.0008435019
154	0xbab4c6bd	-0.0013792139
155	0x3a1ac1e4	0.0005903526
156	0x383662f4	4.348434e-05
157	0xba02feb2	-0.0004997059
158	0xba842742	-0.00100825
159	0xba308c73	-0.0006734796
160	0x3a12fb5a	0.00056069123
161	0xba4cfa13	-0.00078192464
162	0xb8d21b22	-0.00010018634
163	0xb9217d0f	-0.00015400744
164	0x37e295a8	2.7010989e-05
165	0xb95d2e5f	-0.00021093477
166	0x39531fb1	0.00020134334
167	0x3888f024	6.529715e-05
168	0x38bac90e	8.9066205e-05
169	0x39379086	0.00017506079
170	0x3809c655	3.2848056e-05
171	0x39486b3e	0.00019113437
172	0x3746b70a	1.1844337e-05
173	0x394aa178	0.00019324373
174	0x368ee3ef	4.2584647e-06
175	0x394aeac6	0.00019351681
176	0x35cd6b81	1.5304978e-06
177	0x394af43b	0.00019355204
178	0x3513a635	5.500363e-07
179	0x394af57a	0.00019355668
180	0x3b01c22c	0.0019799573
181	0x3b165b3e	0.0022942568
182	0x3a8ea4ef	0.0010882894
183	0xbc197acd	-0.009367657
184	0x3ca5aa2c	0.020222746
185	0xbae65f7c	-0.0017576064
186	0x3b765f20	0.003759332
187	0x3cf02229	0.029313164
188	0xbcc51623	-0.024058407
189	0x3ca7f495	0.020502368
190	0xbcaf0f37	-0.02136956
191	0xbbf682f0	-0.007522933
192	0xb979302f	-0.0002376444
193	0xb8eb2df1	-0.000112142305
194	0x3b48aeae	0.0030621695
195	0x3ae60cfc	0.0017551477
196	0x3b45a03b	0.003015532
197	0xbbd74f0a	-0.0065707015
198	0xb8ca7375	-9.653616e-05
199	0xb998db4a	-0.00029155082
200	0x390372a1	0.00012535836
201	0xb9e9f355	-0.0004462252
202	0x3a2d10fe	0.00066019583
203	0x39e66f7d	0.00043952084
204	0x39987b9e	0.000290838
205	0x3a4f8839	0.0007916722
206	0x38e0d774	0.000107212836
207	0x3a5d0c78	0.0008432339
208	0x38222311	3.8656468e-05
209	0x3a5ed290	0.0008500004
210	0x37692cb2	1.3898289e-05
211	0x3a5f0d56	0.0008508762
212	0x36a79b37	4.995057e-06
213	0x3a5f14ef	0.0008509894
214	0x35f0f0a3	1.7951428e-06
215	0x3a5f15e7	0.00085100386
216	0xbb3acb75	-0.0028502617
217	0xbab80955	-0.0014040867
218	0xbb35cb28	-0.0027739499
219	0x3c02baa0	0.007979065
220	0xbca7d3f1	-0.020486804
221	0x3aa940f4	0.0012913034
222	0xbb352c48	-0.0027644802
223	0xbcd7c5cd	-0.026339436
224	0x3cd2b681	0.02572179
225	0xbc7dc5de	-0.01548907
226	0x3c91f09a	0.017814923
227	0x3b90c214	0.004417667
228	0x39b592d7	0.00034632414
229	0x39abc7c6	0.00032764504
230	0xb8fa97c9	-0.00011949201
231	0xb99a7194	-0.0002945779
232	0xbb105ba4	-0.0022027278
233	0x3bc08a6e	0.005875877
234	0xb8921c49	-6.967091e-05
235	0x39a2acc4	0.00031027768
236	0xb8890096	-6.532778e-05
237	0x39e7513c	0.00044120278
238	0xba49a7e5	-0.000769256
239	0xba0f2e13	-0.00054618827
240	0xb9b3b8b7	-0.00034279164
241	0xba7e68fe	-0.0009704976
242	0xb904adb2	-0.00012653208
243	0xba87643b	-0.0010329554
244	0xb83f62b7	-4.5629884e-05
245	0xba887771	-0.0010411573
246	0xb7899f39	-1.6405816e-05
247	0xba889b11	-0.001042219
248	0xb6c5d8ad	-5.896282e-06
249	0xba889faa	-0.001042356
250	0xb60e34a6	-2.1190294e-06
251	0xba88a043	-0.0010423738
252	0x3a155b67	0.0005697519
253	0x3a3f9b20	0.0007309187
254	0x3a9f0a03	0.0012133721
255	0xbb2e8fef	-0.0026636084

exp_avg_sq f4 [108, 36]
0	0x3b199c92	0.002343927
1	0x39abd1d9	0.0003277201
2	0x3b10addd	0.0022076287
3	0x3bf83606	0.0075747995
4	0x3d678007	0.05651858
5	0x39afdbc0	0.00033542328
6	0x3a28d5cd	0.000644055
7	0x3d9c9547	0.0764566
8	0x3dc74020	0.09729028
9	0x3ca2ecca	0.0198883
10	0x3cfd5c1a	0.030927707
11	0x3aed2d77	0.0018095215
12	0x39091cf2	0.00013076121
13	0x3a206424	0.0006118438
14	0x3b04fb0f	0.0020291244
15	0x3a4ecf18	0.0007889136
16	0x3a92058c	0.0011140569
17	0x3b868821	0.0041055833
18	0x36881b7a	4.0563145e-06
19	0x3664a163	3.4068587e-06
20	0x381eeae9	3.7888913e-05
21	0x37d17596	2.4969497e-05
22	0x38c4d574	9.385767e-05
23	0x38e67cd9	0.00010990509
24	0x378e3c0e	1.6955684e-05
25	0x3964c448	0.00021816895
26	0x361959ea	2.2851113e-06
27	0x3978b53d	0.0002371864
28	0x349f51d5	2.9675599e-07
29	0x397b62ee	0.0002397408
30	0x3324bb6b	3.835468e-08
31	0x397bbc00	0.00024007261
32	0x31aa392e	4.9541518e-09
33	0x397bc77d	0.0002401154
34	0x302fe240	6.398615e-10
35	0x397bc908	0.00024012115
36	0x3aba8667	0.0014230729
37	0x391437e0	0.00014135195
38	0x3a98f266	0.001166892
39	0x3b961329	0.004579921
40	0x3cce516b	0.025185307
41	0x39056391	0.0001272096
42	0x39b622d1	0.00034739685
43	0x3d060b59	0.032725666
44	0x3d3301d7	0.043702926
45	0x3c20297d	0.009775517
46	0x3c61880c	0.013765346
47	0x3a86f580	0.0010296553
48	0x386471d7	5.4465458e-05
49	0x3a26fb46	0.000636984
50	0x3aad8858	0.0013239486
51	0x3a25d77f	0.0006326362
52	0x3a9a6160	0.0011778288
53	0x3b15aaf3	0.002283749
54	0x36233d35	2.432452e-06
55	0x35fcfe28	1.8849432e-06
56	0x3790a3b8	1.7242375e-05
57	0x3724f796	9.832807e-06
58	0x382700f2	3.9816783e-05
59	0x385485ec	5.0669463e-05
60	0x36f095cf	7.1699974e-06
61	0x38ccdd7a	9.768731e-05
62	0x3581a5ad	9.659467e-07
63	0x38de0ff3	0.00010588756
64	0x3406afd9	1.2543696e-07
65	0x38e05ede	0.00010698823
66	0x328b4303	1.6212203e-08
67	0x38e0ab8e	0.00010713107
68	0x310fe765	2.0940771e-09
69	0x38e0b575	0.00010714951
70	0x2f94b052	2.7046326e-10
71	0x38e0b6bb	0.000107151885
72	0x3c6c3e3e	0.014419137
73	0x3a613c67	0.00085920695
74	0x3c50ac18	0.012736343
75	0x3d30c8e3	0.04316033
76	0x3e308503	0.1723824
77	0x3a5f1c03	0.0008510949
78	0x3b20a958	0.0024515
79	0x3e5a9e22	0.21349385
80	0x3e9c3552	0.3050943
81	0x3d8d9826	0.06913786
82	0x3dbcd03f	0.09219407
83	0x3c1f7bb1	0.00973408
84	0x39b7a6bb	0.00035028704
85	0x3c1e47b2	0.009660648
86	0x3c478c17	0.012179396
87	0x3c04fe23	0.008117232
88	0x3c892bf0	0.016744584
89	0x3ca238da	0.0198025
90	0x37b5be24	2.1665423e-05
91	0x37a06ae9	1.912327e-05
92	0x38f5ee40	0.00011726888
93	0x3897bc97	7.235369e-05
94	0x39910cda	0.0002766613
95	0x39b9eab3	0.00035460814
96	0x3851e0b2	5.0038747e-05
97	0x3a32f430	0.0006826548
98	0x36e25326	6.7450046e-06
99	0x3a42007f	0.00074005866
100	0x356b23af	8.759625e-07
101	0x3a4405d2	0.0007477674
102	0x33f320e3	1.1321551e-07
103	0x3a444913	0.00074876955
104	0x327b3bac	1.4623691e-08
105	0x3a4451b4	0.00074889814
106	0x3101cb2a	1.8887456e-09
107	0x3a4452da	0.00074891525
108	0x3b43a71e	0.0029854248
109	0x396d65ef	0.00022640055
110	0x3b703cb0	0.0036657266
111	0x3c4f94cd	0.012669754
112	0x3cfff94c	0.031246804
113	0x393f677b	0.00018253729
114	0x3a86eff3	0.0010294899
115	0x3d3a20ad	0.04544132
116	0x3d56e49c	0.052464113
117	0x3cb9b97c	0.022671454
118	0x3cc07559	0.023493456
119	0x3ab3404f	0.0013675782
120	0x38a75e88	7.980788e-05
121	0x3b25ce12	0.002529983
122	0x3aa0deea	0.0012273465
123	0x3aaf2374	0.0013362006
124	0x3bb36217	0.0054743397
125	0x3bb49326	0.0055107055
126	0x36a13c63	4.805204e-06
127	0x36cd74a2	6.123054e-06
128	0x37cc85d7	2.438102e-05
129	0x37a649fb	1.9823192e-05
130	0x384c89a2	4.876557e-05
131	0x387cfa6b	6.0314702e-05
132	0x37131acc	8.768122e-06
133	0x38efd9c8	0.00011436973
134	0x359e846f	1.1810461e-06
135	0x3901eaee	0.00012389917
136	0x3424ad02	1.533663e-07
137	0x390342bc	0.00012517994
138	0x32aa44c3	1.9821874e-08
139	0x39036f63	0.00012534628
140	0x312ff1be	2.5603266e-09
141	0x39037529	0.00012536779
142	0x2fb5cb7f	3.30683e-10
143	0x390375de	0.00012537042
144	0x3aa36c1f	0.0012468136
145	0x38d2f0bc	0.000100584206
146	0x3a84eab8	0.0010140752
147	0x3b878eb0	0.0041368827
148	0x3c97d0f3	0.018532252
149	0x38b3efa3	8.580021e-05
150	0x399d9c7f	0.00030061972
151	0x3cc6642f	0.024217693
152	0x3d03b422	0.03215421
153	0x3c003fe4	0.007827733
154	0x3c2c0c58	0.01050099
155	0x3a2b6247	0.0006537777
156	0x3827310d	3.9861585e-05
157	0x3a2f2068	0.0006680549
158	0x3a69e728	0.00089226896
159	0x3a0c6c31	0.0005356698
160	0x3aaab50f	0.001302393
161	0x3b022008	0.0019855518
162	0x361cb4cf	2.3351056e-06
163	0x3603d991	1.9647161e-06
164	0x375e7efb	1.3261796e-05
165	0x37245e61	9.797136e-06
166	0x380021f1	3.054919e-05
167	0x381e53c4	3.774815e-05
168	0x36b8e422	5.5101855e-06
169	0x3898cff4	7.286659e-05
170	0x35474e3d	7.424713e-07
171	0x38a5bdad	7.903143e-05
172	0x33cf0ee7	9.6418994e-08
173	0x38a77a40	7.9859514e-05
174	0x3256179c	1.2461808e-08
175	0x38a7b408	7.996714e-05
176	0x30dd3a6e	1.6096473e-09
177	0x38a7bb76	7.998098e-05
178	0x2f649599	2.0789627e-10
179	0x38a7bc6c	7.998277e-05
180	0x3b83ef4a	0.004026328
181	0x399f9a27	0.00030441696
182	0x3b8a40e4	0.0042191613
183	0x3c738159	0.014862382
184	0x3d4ef0d4	0.05052264
185	0x398e69a4	0.0002716306
186	0x3a90ce30	0.0011047777
187	0x3d8bd172	0.06827058
188	0x3db2201a	0.08697529
189	0x3cda9ea8	0.026686981
190	0x3d02261d	0.03177463
191	0x3b0b394b	0.0021243866
192	0x38ef8745	0.00011421604
193	0x3b3b6790	0.0028595664
194	0x3b1e77f6	0.002418039
195	0x3af6405a	0.0018787489
196	0x3bbd1cef	0.0057712714
197	0x3bdcc971	0.006737881
198	0x36c7cce2	5.9545137e-06
199	0x36e56ab5	6.837154e-06
200	0x381c0729	3.7199967e-05
201	0x37d2c41e	2.5125275e-05
202	0x38a7d1e0	8.002273e-05
203	0x38d3c7de	0.00010098492
204	0x3771b03d	1.4405753e-05
205	0x394a7af4	0.00019310025
206	0x36023d48	1.940718e-06
207	0x395b675f	0.00020923976
208	0x34874d34	2.5201882e-07
209	0x395dad39	0.00021140733
210	0x330be5ba	3.2572395e-08
211	0x395df8bd	0.00021168865
212	0x31908f7c	4.207264e-09
213	0x395e028d	0.0002117252
214	0x30155e0c	5.4339533e-10
215	0x395e03bf	0.00021172965
216	0x3bdda062	0.006763504
217	0x393d77d7	0.00018069088
218	0x3ba23139	0.0049497155
219	0x3ca14956	0.01968829
220	0x3d48bf7a	0.04901073
221	0x3907af67	0.00012939946
222	0x3a88ec28	0.0010446357
223	0x3d521353	0.05128796
224	0x3db9a49f	0.09064602
225	0x3cb95d5a	0.022627521
226	0x3cc8aa86	0.024495374
227	0x3b6a9825	0.0035796252
228	0x38db0412	0.00010443492
229	0x3ba929b7	0.0051624435
230	0x3bbf50a4	0.0058384705
231	0x3b8763b7	0.00413176
232	0x3c168d93	0.009189027
233	0x3c0a968c	0.008458745
234	0x3754f665	1.2693553e-05
235	0x372499ec	9.8109995e-06
236	0x381c9c07	3.733861e-05
237	0x37f5b996	2.9292696e-05
238	0x38ad9642	8.2772705e-05
239	0x38f2a6ea	0.000115705494
240	0x377ab381	1.4942955e-05
241	0x3960e00b	0.00021445767
242	0x3607230a	2.0136963e-06
243	0x3972f4ad	0.00023170067
244	0x348c652a	2.615064e-07
245	0x39756219	0.00023401565
246	0x33112a21	3.379876e-08
247	0x3975b2a6	0.00023431572
248	0x319600e3	4.3656754e-09
249	0x3975bd22	0.00023435478
250	0x301afdc3	5.638549e-10
251	0x3975be6f	0.00023435963
252	0x3ac5bb3c	0.0015085707
253	0x3895e822	7.148112e-05
254	0x3ab29c42	0.0013626891
255	0x3b84a1d6	0.0040476127

exp_avg f4 [108]
0	0xb9a8f1ac	-0.00032223517
1	0xb9e5b5b3	-0.0004381366
2	0xba38efa0	-0.000705475
3	0x3a646906	0.00087131595
4	0x394af5a5	0.00019355731
5	0x3a5f160f	0.0008510062
6	0xba88a058	-0.0010423763
7	0x39962480	0.00028637424
8	0xb9987d1d	-0.00029084916
9	0x3ab28b12	0.0013621768
10	0x3936b21d	0.00017423225
11	0x3a29eebc	0.00064824126
12	0x3a334414	0.00068384525
13	0x3a10777d	0.0005510969
14	0xb9832794	-0.00025015755
15	0xba84899b	-0.001011181
16	0x3a001a0e	0.0004886695
17	0x38853550	6.3518644e-05
18	0xb943d1ad	-0.0001867476
19	0x37c0c862	2.2981494e-05
20	0xba2db960	-0.00066270493
21	0x3aa18cee	0.0012325326
22	0xb9d5e80b	-0.0004079941
23	0x3ab1b29b	0.0013557257
24	0x38820909	6.200566e-05
25	0x3ab22fb0	0.0013594534
26	0x39a64cfe	0.0003171935
27	0x3a96de4f	0.0011510345
28	0x39faa360	0.0004780544
29	0x3a8842e5	0.0010395913
30	0x39aeff19	0.0003337793
31	0x38f9153c	0.000118772004
32	0x394322d0	0.00018609618
33	0x391a4397	0.00014711764
34	0xb9bd92b3	-0.0003615819
35	0x39d566d0	0.00040703127
36	0x32a2b87f	1.8943181e-08
37	0x3296c5b9	1.7552212e-08
38	0x31d4a02b	6.188221e-09
39	0xb28144f4	-1.5048933e-08
40	0x304c8150	7.439853e-10
41	0xb220ee8b	-9.367464e-09
42	0xb2234031	-9.502444e-09
43	0xb293af66	-1.7192814e-08
44	0xb02848f1	-6.12217e-10
45	0x31efc9de	6.978765e-09
46	0x321f5302	9.273892e-09
47	0xb274ff11	-1.4260665e-08
48	0x3151516a	3.0459781e-09
49	0x3111138d	2.111139e-09
50	0x3237c54f	1.0696865e-08
51	0x3223f577	9.543661e-09
52	0xb1aaccd6	-4.9709383e-09
53	0x328af79d	1.6177916e-08
54	0x31740c8a	3.55138e-09
55	0xb1e83f18	-6.7592616e-09
56	0xb28c00a6	-1.629844e-08
57	0xb1aa6a23	-4.9597175e-09
58	0xb259208c	-1.2638463e-08
59	0xb27d20b1	-1.4733971e-08
60	0xb0901396	-1.0482946e-09
61	0x320fdc2e	8.373759e-09
62	0x328f851b	1.670792e-08
63	0xb0cae82e	-1.4763424e-09
64	0x3129dadd	2.4717146e-09
65	0x328abd0b	1.6151281e-08
66	0xb292c610	-1.7086705e-08
67	0xb2310809	-1.0304583e-08
68	0x328a0caf	1.6071082e-08
69	0x320bc920	8.136595e-09
70	0xb213b27b	-8.597108e-09
71	0xb21f25b6	-9.263593e-09
72	0xba43a274	-0.0007462867
73	0x3abcf996	0.0014417644
74	0xbb8968fb	-0.004193423
75	0x3c598138	0.013275437
76	0x3bc39151	0.005968251
77	0xba150944	-0.00056852796
78	0xbc9543c1	-0.018220784
79	0xbc53b05b	-0.012920464
80	0x39b280ce	0.00034046773
81	0x3bdd8edd	0.0067614154
82	0xbc7b9503	-0.015355351
83	0x39c55d43	0.00037644253
84	0x37b4f27d	2.157059e-05
85	0x3c427003	0.011867526
86	0x3b9d7504	0.004805209
87	0x3c9e912f	0.019356338
88	0x3b97c80b	0.0046320013
89	0xbadbd0db	-0.0016770618
90	0x3c971a01	0.018445017
91	0x3c2da5d2	0.010598617
92	0x3a27f1bf	0.00064065674
93	0xbb10e94a	-0.0022111707
94	0x3b69badb	0.0035664353
95	0x3b41ebff	0.0029590128
96	0xbb2ab138	-0.0026045572
97	0xb9d8cbb4	-0.000413505
98	0xbb01b976	-0.0019794381
99	0xbb887544	-0.00416437
100	0xbc7380d3	-0.014862257
101	0xbc4091f4	-0.011753548
102	0xbc57447f	-0.013138889
103	0x39db60f3	0.00041843168
104	0x3c36706d	0.011135203
105	0xbabd80cf	-0.0014457944
106	0xba227424	-0.0006197116
107	0xbc17ed65	-0.009272908

exp_avg_sq f4 [108]
0	0x397bc949	0.0002401221
1	0x38e0b6ed	0.00010715225
2	0x3a445309	0.000748918
3	0x390375f9	0.00012537082
4	0x38a7bc8f	7.998302e-05
5	0x395e03ef	0.00021173035
6	0x3975bea1	0.00023436036
7	0x38989c00	7.276982e-05
8	0x3a52e899	0.0008045524
9	0x395e03dc	0.00021173008
10	0x3965507d	0.00021869126
11	0x3ad3a6e4	0.001614776
12	0x38e37b01	0.00010847115
13	0x3a34446e	0.0006876652
14	0x398795aa	0.00025860715
15	0x39e76f80	0.00044142827
16	0x3a3a6d08	0.0007111584
17	0x3a512bcd	0.0007979244
18	0x39155e34	0.0001424484
19	0x3a1f57f2	0.00060784735
20	0x37a6d908	1.9889805e-05
21	0x3a2a90ac	0.0006506543
22	0x39f46b33	0.00046619176
23	0x3ae39431	0.001736289
24	0x39d40c7c	0.00040445093
25	0x3a3614d4	0.00069458527
26	0x3892938c	6.989305e-05
27	0x38e8a2cc	0.00011092945
28	0x381e5cb8	3.7756487e-05
29	0x398f7f70	0.00027370034
30	0x39120ef3	0.00013929214
31	0x37f837e5	2.9589932e-05
32	0x37c80118	2.3842367e-05
33	0x3892cf3f	7.000425e-05
34	0x3850fd8e	4.9827206e-05
35	0x38456c09	4.7069076e-05
36	0x274430f5	2.7227004e-15
37	0x26ae2c07	1.2085609e-15
38	0x26cc5a3b	1.4179801e-15
39	0x26badfef	1.296704e-15
40	0x25659a09	1.9914773e-16
41	0x2689f841	9.573574e-16
42	0x2710f521	2.01169e-15
43	0x26851252	9.233695e-16
44	0x2788a66f	3.792803e-15
45	0x2704f8b6	1.8453506e-15
46	0x26c7f8c8	1.3875831e-15
47	0x26fa7fee	1.738191e-15
48	0x25ec6338	4.1006707e-16
49	0x2722c3ba	2.258812e-15
50	0x27f4a3d5	6.790123e-15
51	0x2713daf8	2.0519051e-15
52	0x26db0827	1.5198387e-15
53	0x278a582d	3.8398295e-15
54	0x25a586b7	2.8714224e-16
55	0x27812062	3.58398e-15
56	0x264e022b	7.1473545e-16
57	0x27cc2cef	5.667009e-15
58	0x27276a52	2.3233542e-15
59	0x2731db67	2.4682623e-15
60	0x26f40b48	1.6933959e-15
61	0x2803bbef	7.312712e-15
62	0x26a7fce8	1.1656503e-15
63	0x258bc42e	2.4245593e-16
64	0x245b1865	4.7508718e-17
65	0x2875c8c3	1.3643765e-14
66	0x26fe662f	1.7652487e-15
67	0x25ca78ad	3.5123187e-16
68	0x267450d0	8.4764027e-16
69	0x25fc5f25	4.3779504e-16
70	0x25b266ac	3.094765e-16
71	0x25f7afb7	4.296674e-16
72	0x37ffaea6	3.0479696e-05
73	0x393282cf	0.00017024133
74	0x3a60e26c	0.00085786614
75	0x3a8fed6f	0.0010980795
76	0x3986d715	0.0002571872
77	0x3783855d	1.5678519e-05
78	0x3b16274e	0.002291161
79	0x3a94d097	0.0011353669
80	0x38088181	3.2545537e-05
81	0x3bc8f73b	0.006132988
82	0x3ac3d2d3	0.001494015
83	0x38489257	4.7820005e-05
84	0x3808281a	3.2462274e-05
85	0x3b721dcd	0.0036944032
86	0x3bd3054a	0.0064398395
87	0x3b39e925	0.0028367725
88	0x3c6de048	0.014518805
89	0x38106cbb	3.443354e-05
90	0x3b060d0c	0.0020454554
91	0x3a8e8d29	0.0010875809
92	0x37a07d2c	1.9131774e-05
93	0x3b1e9cf0	0.0024202429
94	0x3c7bf04a	0.015377114
95	0x38a651ce	7.930734e-05
96	0x3bbe4cbe	0.005807488
97	0x374dd34b	1.2268148e-05
98	0x381f51bd	3.798468e-05
99	0x39259452	0.0001579088
100	0x3b4d7b8b	0.0031354155
101	0x3b55f294	0.0032645809
102	0x3a9ef38e	0.0012127028
103	0x37387e5a	1.0996673e-05
104	0x3ad59c77	0.001629724
105	0x3ad4ac57	0.0016225678
106	0x375a196a	1.299973e-05
107	0x3a95f189	0.0011439781
