SensorFormer/SensorFormer/checkpoints/CLfor12/chpt_AdamW_lr0.0003_ep50_4to6.pt (torch, 83172 bytes, 35 tensors)

self_attn.qkv_proj.weight f4 [108, 36]
00000000: 83d6 40be b90e 473e c233 173e 7aec a33d
00000010: a8c2 ddbd e7b1 283e 2083 50be 26c7 203e
00000020: 17eb 39bd aa02 0cbd 0a58 50be 6b26 37be
00000030: 3ddc cfbc 3b4e 183d 74d8 6a3e d400 3bbc
00000040: d1a8 863d 49ea 313e 0e57 c43e 833e cf3c
00000050: 0dd1 87be f7c2 5e3e 0bba 86be fc36 afbd
00000060: aafd aebe 2502 30be 3c68 57be fbd2 c7bd
00000070: ce81 66be c9aa 7cbd 62c3 8cbe 044e 5dbe
00000080: 8c1c 9dbe dcc4 7e3d 6842 a0bd 6181 80be
00000090: 6b34 ecbd 350e 49bc 6148 6ebd 43f4 203d
000000a0: 0edc d6bd 59bc 6a3d f477 0fbe a121 b0bd
000000b0: 1894 82bd 5c79 4c3e 5f7d bb3d b2f6 22be
000000c0: 294f 063e ed17 483e b5a7 77bc cc9d 00bd
000000d0: 7622 ef3d 88b4 07bd d198 ce3d 1609 d93d
000000e0: e9ec 3bba 2d41 04bb 85d7 873d c49b 023e
000000f0: b860 9d3d 3d5d d2bd 3558 02be ab0e b73d
00000100: cee9 893d 70fd 27be be23 a93d 5111 843d
00000110: 2136 20bc 51a0 93bd a3bd acbd 0789 ab3d
00000120: 21b9 cd3c 0941 78bd 9a6b 86bd 2df1 773d
00000130: 4b18 55bd 05ea 0d3d 35f5 80bd cea8 153d
00000140: c240 d0bd 8daf 11be 91cc 263e bd82 e43d
00000150: 3c0c eb3d 4489 453e 523d 51be 1fa7 263d
00000160: c474 6d3c 8fde 67bd 8a55 6bbd e9a4 453e
00000170: 99ce 583e 5d01 2abc 4765 a03d 966c 2c3e
00000180: bc4d c03d 3477 ce3d 8283 1c3e ee1f 9d3e
00000190: af47 003e 41f0 c73d 410b 873e c1d7 8b3d
000001a0: e03e 2b3e a026 1a3e abb8 313e fbb7 7e3e
000001b0: 068b 3abb 77c6 393e c852 50bc 5756 7fbd
000001c0: b4c8 b8ba aaf6 f73c 9743 8a3d b8a8 fabb
000001d0: 7ff8 07bd 7ca7 fa3d cb5e 153e 6a16 30be
000001e0: 01fa 5abe 3940 873d 6049 603e b411 063e
000001f0: 4cbb 623e 092b c0bd 16d8 34bd 187c 1abe
00000200: 09ab 51be cf42 30be df51 31be 45cf c5be
00000210: 626c 26bd a3ea 2cbe ab51 d1bc 3606 a8be
00000220: 685a eebd 97a6 cabe 972b 93bd 0772 9cbe
00000230: 9100 efbd cfce 27be 7d81 90be da4a 1abe
00000240: 973f 2fbe 6b35 843e e5c4 b7bd fc36 65bc
00000250: 16e4 9dbc 7f3f 2e3e 38d5 523e 7524 ba3c
00000260: 0cb4 333d 56d9 19be d75e bebd 5953 7dbe
00000270: 74d8 123d c107 52bd 7f7a 003f 3af3 d23c
00000280: 46bf 22be 400a a63d 32fc 383e 8c4e 743d
00000290: a09e 1bbe 834e 193c e01c 6dbe 43b3 b8bd
000002a0: 2622 babe c64e 18be a5cf 3cbe 9acc 56be
000002b0: ba0e e1be 248c 29be cd2b f2bd c58a 8abe
000002c0: 4cb7 51be 951f ebbd 4382 cebe 36eb d0be
000002d0: c85f 333e a166 28be b2ee 84bd b7aa 32be
000002e0: cf40 88bd b597 733d 8631 26be cf09 fcbd
000002f0: 2906 cfbd 5c2c 13bb 01d5 2fbe 964a 833e
00000300: 6941 493e 218c 053e 07ec 13bf dfb5 5bbe
00000310: 47b3 fabd fe01 e03d 7838 29be cdf1 2f3e
00000320: 0d31 663e 7d58 cfbd d4f2 cd3e 9da8 153e
00000330: a9c4 b13e e983 aa3e d287 9e3e 454c 3c3e
00000340: c6a8 0b3e f13e 923e a63c e73d f8fd 443e
00000350: 0e6d 983e 2179 b63e 48cc cd3e de5c d53d
00000360: bf38 2fbe 5b25 0e3e 46b9 d6bc d24b c1bd
00000370: 1350 a8bd 492e 08be b236 e63d 04ba 00be
00000380: 1576 033e abf1 d1bd c2fb 20be 480b 51bd
00000390: 092e 94bc cee0 273e 60c0 453e 0c0d 91bd
000003a0: f285 213e 7360 2f3d bfc8 153e 7c65 4a3e
000003b0: b0bc b9bd e462 443e b502 9dbd 98c7 97be
000003c0: 26ec 5cbe eced 52be b86b 29be 9cc5 52bd
000003d0: a660 e6bd 08fc b1be bc9c f7bd b20e 35be
000003e0: 3542 afbd 2686 85be 6ea3 8abc df46 9ebe
000003f0: ff28 923e 1fc9 16bd df4a 80bd d275 bebd
-0.1883183 0.1943921 0.14765838 0.08004089 -0.10828143 0.16474114 -0.2036252 0.15700969
-0.045390215 -0.03418223 -0.20346084 -0.17885749 -0.025373572 0.03718398 0.22934133 -0.011413772
0.06575168 0.17374529 0.38347667 0.025298363 -0.2652668 0.2175406 -0.26313815 -0.08555409
-0.34177905 -0.17188318 -0.21035856 -0.09757038 -0.22510454 -0.06168631 -0.27492815 -0.21611792
-0.30685842 0.06219946 -0.07825166 -0.25098708 -0.115334354 -0.012271454 -0.058174495 0.039295446
-0.10491191 0.05730853 -0.14010602 -0.08600164 -0.06375903 0.1996817 0.09154772 -0.1591442
0.13116135 0.19540377 -0.015115668 -0.031400487 0.11676495 -0.033131152 0.10087741 0.10597436
-0.0007168786 -0.002018045 0.06632904 0.12754732 0.07684463 -0.1027169 -0.12728961 0.089383446
0.06734048 -0.16405272 0.082587704 0.06448615 -0.00977853 -0.07208312 -0.08434608 0.08375745
0.02511269 -0.060608897 -0.06563492 0.060532738 -0.05202512 0.034647007 -0.062967695 0.036537938
-0.101686016 -0.14227124 0.16288973 0.11157749 0.11476943 0.19290644 -0.20433548 0.040686723
0.014493171 -0.056608733 -0.057454623 0.1930119 0.21172561 -0.010376302 0.07831817 0.16838297
0.09389827 0.1008133 0.15284541 0.30688423 0.12527345 0.09762622 0.26375774 0.06828261
0.16723204 0.15053797 0.17355601 0.2487487 -0.0028464212 0.18142115 -0.012715049 -0.0623382
-0.00140979 0.030268986 0.06751173 -0.0076495074 -0.03319597 0.12238976 0.14586942 -0.1719605
-0.21384431 0.066040464 0.2190299 0.1309269 0.2214176 -0.09383208 -0.044151388 -0.150864
-0.20475401 -0.17212985 -0.17316388 -0.38634697 -0.040630706 -0.16886382 -0.025551638 -0.3281724
-0.116383374 -0.39580223 -0.071860485 -0.30555746 -0.1167003 -0.16387485 -0.28223792 -0.15067616
-0.17114101 0.25822005 -0.089731015 -0.01399016 -0.019273799 0.1701641 0.20589149 0.022722462
0.043872878 -0.15024313 -0.09295433 -0.24738826 0.035850957 -0.051276926 0.50186914 0.025750745
-0.15893278 0.08107424 0.18064955 0.05964522 -0.1519723 0.009357098 -0.23155546 -0.090185665
-0.36354178 -0.148738 -0.18438585 -0.20976487 -0.43956548 -0.16557366 -0.118247606 -0.27058998
-0.20480078 -0.11480633 -0.40333757 -0.40804452 0.17517006 -0.164454 -0.0649084 -0.17447935
-0.06652986 0.05947085 -0.16229829 -0.12306558 -0.10108597 -0.002245686 -0.17171098 0.25642842
0.19653858 0.13041736 -0.57782024 -0.21456097 -0.12241226 0.1093788 -0.16525447 0.17182083
0.22479649 -0.101243 0.40224326 0.14615102 0.34720352 0.33303764 0.30962998 0.1838847
0.136386 0.28563645 0.11290865 0.19237506 0.29770702 0.3563929 0.40194917 0.10418104
-0.1711149 0.13881437 -0.026211392 -0.0943829 -0.08218398 -0.13298906 0.11240901 -0.1257096
0.12838013 -0.10251173 -0.15721038 -0.05103615 -0.018088358 0.1639435 0.19311666 -0.070825666
0.15773752 0.04281659 0.1462736 0.19765276 -0.090691924 0.19178349 -0.07666532 -0.29644465
-0.21574458 -0.20598572 -0.16544998 -0.051457986 -0.11248903 -0.34762597 -0.120904416 -0.17681387
-0.0855755 -0.2607891 -0.016923632 -0.30913445 0.28546903 -0.036812898 -0.062642805 -0.09299816

self_attn.qkv_proj.bias f4 [108]
00000000: cae2 c8bd 7a47 b3bc 37e2 163e 08fd 7dbe
00000010: fcbd 7cbe dd81 7f3e 6638 3fbe 3962 833e
00000020: cbaf 363e 9b35 533e 9b46 683d 2889 3b3e
00000030: 3485 3c3e 49ae 32be 92f7 373d 88aa 21be
00000040: 1fea 34be e0b6 5ebe 0514 1d3e d9dd 47be
00000050: fa4b 04bd 9881 2d3d a8c8 ecbd 3400 053e
00000060: 21bb 013e 33fe b7bd 5874 c0bd d109 4fbe
00000070: d5b6 7dbe e7ab 8a3e cf78 1a3e e7d3 95bd
00000080: 8e8d b9bd 6486 8a3e 658f a13c 5ab5 86be
00000090: 11c4 83bd 3dbb 12bd 7c0a 85bd 10d1 5f3d
000000a0: 3c23 923d c013 02bd 6734 0d3d 5322 7cbd
000000b0: 71cd 3abd 68f4 87bd 6218 79bd 0611 6bbd
000000c0: 5256 69bd 0704 0d3d 2515 703d 0ee0 dd3c
000000d0: 1c27 4b3d fa19 ff3c 4149 4bbc ea57 913d
000000e0: 017b 9a3d 4ec1 85bd 73e8 853d 6393 d53c
000000f0: 595e a7bd e7b0 59bc 3530 7cbd 6c68 813c
00000100: e980 b83d 560f 60bd c73a e53b 9b79 073d
00000110: d2e1 e2bc 8a94 aabd 8081 39bd 4808 903d
00000120: 3bb8 06be b9b3 5e3e c5da 9fbe 5c1e 8a3e
00000130: c6d3 223e 9e13 083e a818 dfbe 997b 02bf
00000140: bac7 47be ca5d d2bd fe93 0dbf d422 3c3e
00000150: 03a9 8a3e bea1 c3bd 5441 fbbe 266b 093f
00000160: bd46 3c3d 385b 5bbe e4db bc3e b289 ce3e
00000170: 547c 15be 288b dc3e 9348 dd3d 6bc7 9abe
00000180: 04f7 49be d2f3 87be c45c 9e3d 90a1 9fbe
00000190: 9255 f5bd f962 19bf d8ad ccbd 206c 84bd
000001a0: 8c40 00be a1b8 123f 1435 563e 825b 39be
-0.098088816 -0.021884669 0.14734732 -0.24803555 -0.24681848 0.24951883 -0.18673858 0.25660875
0.17840497 0.20625918 0.05670796 0.1831404 0.18410188 -0.17449297 0.044913836 -0.15787709
-0.17667435 -0.21749449 0.15339668 -0.19518222 -0.03229902 0.04235992 -0.1156171 0.12988359
0.1266904 -0.089840315 -0.09397191 -0.20218588 -0.24776776 0.27084276 0.15085147 -0.07315808
-0.090602025 0.27055657 0.019721696 -0.26310235 -0.06433881 -0.035823096 -0.0649614 0.054642737
0.07135627 -0.031757116 0.034473803 -0.06155617 -0.04560608 -0.06638414 -0.06081427 -0.05738928
-0.056967087 0.03442767 0.058613915 0.027084377 0.049597844 0.031140316 -0.012407602 0.070968464
0.075429924 -0.065310106 0.06538477 0.026071256 -0.08172292 -0.013286806 -0.06156941 0.015796863
0.09008963 -0.054702125 0.006995532 0.033074956 -0.02769557 -0.08329113 -0.045289516 0.070328295
-0.13156216 0.21748246 -0.31221595 0.26976287 0.15901098 0.13288733 -0.435735 -0.50969845
-0.19509783 -0.10271795 -0.55303943 0.18372661 0.2708207 -0.09552334 -0.4907328 0.5367912
0.0459659 -0.21421516 0.36886513 0.40339428 -0.14598209 0.43074918 0.10804858 -0.3023027
-0.19723135 -0.26553208 0.077325374 -0.3117795 -0.11979212 -0.59916645 -0.099940956 -0.06465936
-0.12524623 0.5731297 0.20918685 -0.18101314

self_attn.o_proj.weight f4 [36, 36]
00000000: 984c f03d e9e7 82bd b16a 953d d1cb af3d
00000010: 820c 303e 97a5 efbd 39a0 513d 08a8 f23b
00000020: 8c1a 7e3d 0846 ccbd 4939 44be 59c8 ab3e
00000030: 961e 11be a347 013e 01c1 debd a723 dd3c
00000040: 5b9c 953e 720e 96be af9e 24be 6748 823e
00000050: add6 3dbe d1ba 1e3e 5156 993e 203a 94be
00000060: 4149 afbe 1da7 5cbe e6aa f7b8 8fe2 03be
00000070: 434a 203e 2637 20be 4d92 52be 13c0 bb3c
00000080: fb22 07be 814c af3e 5fe0 603e e0e0 db3d
00000090: 8865 423e ff77 923e 7397 6c3d 14bc 513e
000000a0: 7f01 2b3e 312b 46be ab23 fc3d 0d86 d2bc
000000b0: d6d1 bbbd b9f2 873e 074e 8f3d c129 32be
000000c0: 3684 2fbe 1e2f 333e 5496 9b3d 69c9 8a3e
000000d0: 53e4 70be cb40 fb3c b18c 453e f5b4 d63d
000000e0: 9a18 e13d 53cb 0c3e b610 d1bd 7822 aabd
000000f0: 2c96 d9bc c883 32be 31ed 263e 8783 1ebd
00000100: e531 6abd bc27 78be 3117 d9bd 7e88 053e
00000110: 9591 1dbd ea6b 013e 1538 133e d348 9cbe
00000120: 2461 833e cc15 93bd b70c d93e 3d71 723e
00000130: 4e4f 473d 4d58 aabd 6515 eebd 8f7f 58bd
00000140: aa3a ed3d 1bde 9d3e bbfd 963e 36ad 0b3e
00000150: 5981 00be 144e 893e 0b66 5b3d 942e 09be
00000160: d442 863c d186 2ebe a0d4 42be a7e7 9dbd
00000170: ec0f cd3d 9efb 02be 3581 e6bd 9741 293e
00000180: a1a5 673d c134 053e 6998 64be b953 5d3e
00000190: 0d41 04be 6017 983c d8d0 a4bc 8e3e 34bd
000001a0: 2318 e33d a9f2 8ebe 2618 633e 093a 62be
000001b0: a5cd 993a 3e43 8bbd 8058 cb3e b430 97be
000001c0: eba8 d93d 72c7 613e c6f1 d33e fae9 343f
000001d0: 7a5d 863e e94c 6b3d 8dd1 423f dd22 473c
000001e0: c623 e1bd 6a1f 00be 4873 153f a1f1 dbbe
000001f0: 4901 3c3e 56e1 933e ade1 f4be 85ef f1be
00000200: a61f 01be fbe5 91be d3e8 673e c5f6 453e
00000210: dd21 b53d a143 803e 3a14 78bb ef1c 3c3e
00000220: bea6 cbbd 521f 933e 5f0f 50bc 1ff7 1cbe
00000230: 252a 07be 0a63 16bf 318e ff3d 0010 883e
00000240: d8b9 1a3e 8270 f73d 229d 32be 69fa 743d
00000250: 0b29 123e 323b 91bd 66a8 8ebe d9ee adbe
00000260: 146f 7ebe ffcf 153d d223 f7be 97f5 423e
00000270: 5af0 f6bc bc22 b23e 9f4c 22be 0563 953e
00000280: 4e34 d1bd 365a 62bd 0b42 c03d e93a b33e
00000290: bb14 743d fa96 3c3e 7913 213e e299 8e3d
000002a0: 0af1 01be 6c52 273d 7ae7 3b3d 03a9 3f3b
000002b0: f78d d4bd 227e 14bf eac4 2bbd 91a8 75be
000002c0: a799 a63e 2147 3c3e 7132 ae3e 9874 cebe
000002d0: 05b8 27be d9fd d93d 0cf7 09be 70e3 ef3d
000002e0: 61aa 083e fc85 c53d 73cc 9fbd 7ab0 573e
000002f0: 77b6 3dbe 70b9 a3be 17ca 4abb 063d bebb
00000300: 5218 333e 0876 95be 2155 fcbc 112b 94bd
00000310: 2359 dcbd acd7 a1be 5678 933d ba5b 73bd
00000320: 1b7b 87be 0981 7dbe 009f c53e fdae 29be
00000330: 1167 19bc 5b0b 90bd e910 0dbe fbed bfbd
00000340: 008e 0b3e a738 61bd dc2f 153e d181 163c
00000350: 8965 f03d cfc4 893d ac56 7a3c c177 9e3d
00000360: 2070 86bd 4eab 15be 3c8a 323e 9aa8 2a3e
00000370: a8e1 d53d 5581 553e ba8f d9bd c641 903c
00000380: 9daa 5ebe 0260 883e fba4 a7bc 0415 93be
00000390: 3ab5 d63d dacf 013e b0f2 9f3d 64ab 6b3e
000003a0: 5d28 fcbd 4313 a53e fadb 543c 2198 3b3e
000003b0: fea6 1dbe b94a 233d 1bd2 ebbd 22ea 1b3e
000003c0: 0fbb 7bbd 6a14 41be dbba 46be 170a 56be
000003d0: 13f9 463e eb69 49be e95d 4cbe f2a9 473e
000003e0: fd82 ad3e 341a 4c3e 8e87 ddbd ce46 46bd
000003f0: 2b15 cc3d 8efb 8fbc a65d 3d3e 7e8c b33d
0.11733359 -0.063918896 0.072957404 0.08583797 0.17192271 -0.11701506 0.05117819 0.007405285
0.062037036 -0.09974295 -0.19162478 0.3355129 -0.14171824 0.12624983 -0.10876656 0.02699454
0.29220852 -0.29307896 -0.16076158 0.25445864 -0.18538924 0.15500952 0.29948667 -0.28950596
-0.34235576 -0.21548124 -0.0001180971 -0.12879394 0.15653329 -0.15646037 -0.20563622 0.022918737
-0.13196938 0.34238055 0.21960591 0.10736251 0.18984044 0.28607175 0.05776162 0.20481902
0.1669979 -0.19352414 0.123114906 -0.025698686 -0.091708824 0.2655237 0.069973044 -0.1739874
-0.17140278 0.17498443 0.07597032 0.2710679 -0.23524599 0.030670544 0.19291951 0.104837336
0.109910205 0.13749437 -0.102082655 -0.08307356 -0.026560865 -0.17433083 0.16301419 -0.038699653
-0.05717649 -0.24233907 -0.106001265 0.13040349 -0.038468916 0.12638822 0.14376862 -0.3052431
0.2566005 -0.07181892 0.42392513 0.2367601 0.048659615 -0.08317623 -0.116251744 -0.052856024
0.11583455 0.30833516 0.29490456 0.13640293 -0.12549342 0.2681738 0.053564113 -0.13396674
0.016389288 -0.17043616 -0.19026423 -0.077102 0.100128025 -0.12791297 -0.11255113 0.16528927
0.05655444 0.13008405 -0.22323765 0.21613969 -0.1291544 0.018565834 -0.020119116 -0.04400497
0.11088588 -0.2791951 0.2217718 -0.22092451 0.001173426 -0.06799935 0.39715958 -0.29529345
0.10627922 0.22048739 0.41395396 0.7066952 0.26243192 0.057446394 0.76101 0.012154308
-0.10993151 -0.12511984 0.5837903 -0.42957786 0.18359865 0.28882855 -0.47828427 -0.4725305
-0.12609729 -0.28495774 0.22647409 0.19332416 0.088443495 0.25051597 -0.0037853853 0.18370412
-0.09943913 0.28734833 -0.012698977 -0.15328644 -0.1319967 -0.5874487 0.12478293 0.26574707
0.15109956 0.12082006 -0.17442754 0.059809122 0.14273469 -0.07091369 -0.27862853 -0.3397129
-0.2484706 0.036575314 -0.48269516 0.19038998 -0.030143905 0.34792125 -0.15849541 0.29177108
-0.102150545 -0.055261813 0.09387597 0.35005882 0.059590083 0.18416968 0.15730084 0.069629446
-0.12689605 0.040850088 0.04587505 0.0029245026 -0.1037864 -0.58004963 -0.04193584 -0.23990084
0.32539102 0.18386509 0.3402286 -0.4032333 -0.16378792 0.10644121 -0.13473147 0.11713302
0.13346244 0.09644696 -0.078026675 0.21063414 -0.18526636 -0.31977415 -0.003094321 -0.0058056144
0.17489746 -0.29191613 -0.030802311 -0.07234777 -0.10759189 -0.31609857 0.07200687 -0.05941365
-0.2646111 -0.24756254 0.3859787 -0.16570659 -0.009362952 -0.07033416 -0.13775982 -0.09371563
0.13628387 -0.05498567 0.14569038 0.009186224 0.11738116 0.067269914 0.015279453 0.07737685
-0.06564355 -0.14616129 0.17435545 0.16665879 0.10443431 0.20850118 -0.10623117 0.017609488
-0.21744771 0.26635748 -0.020464411 -0.2872697 0.10483785 0.12676945 0.07809961 0.23014599
-0.12312386 0.32241258 0.0129919 0.18319751 -0.15395734 0.039866183 -0.11514684 0.15226033
-0.06145769 -0.18855444 -0.19407217 -0.20902286 0.19430952 -0.19669311 -0.19957699 0.19498423
0.33889 0.1993187 -0.10816871 -0.04840737 0.09964975 -0.017576005 0.18492755 0.08767031

self_attn.o_proj.bias f4 [36]
00000000: 4b54 633e 077f 44bd 60e9 84be 3467 4fbf
00000010: 0274 203f 0a44 173e 2a96 a3bd 6df1 3dbe
00000020: 3896 2fbf 5377 77be be5b 203e e02a 333f
00000030: f063 bcbd ecb2 32bf b443 47bf 5ebd 72be
00000040: bc3b 403f 97f1 26bf fad3 8dbd b2c9 cabd
00000050: 3e45 023e 228e 0cbe 89d5 cf3d fa95 c93d
00000060: e169 aebd 3d99 39bf eb65 3e3f 2fdf e13e
00000070: 7d2d 4e3e cee1 3ebd 488a 16bc 604b 9f3e
00000080: 230b 3e3f 265e 1e3e 6edf 093e 2801 ac3d
0.22200124 -0.047972705 -0.259593 -0.8101685 0.62677014 0.14772049 -0.07987626 -0.18549128
-0.6858859 -0.24166612 0.15659997 0.699873 -0.09198749 -0.69804263 -0.7783768 -0.2370505
0.7509115 -0.65212387 -0.06925197 -0.099017516 0.12721726 -0.13726094 0.101481505 0.09843059
-0.085162885 -0.7249945 0.74374264 0.44115588 0.2013454 -0.046602063 -0.009188242 0.31112194
0.74235743 0.15465602 0.13464138 0.08398658

fc.weight f4 [1, 18]
00000000: 58e4 e9bd e253 71be 4fef 613e 40ea a2bd
00000010: 56d1 56be 40f6 2dbe 8197 6f3d a668 143e
00000020: 2640 c73c 809b 163d 1261 06bd 3897 203d
00000030: dfda a3bc 9328 413e d708 b53d 640e cfbd
00000040: bb77 ab3d d351 a9bd
-0.11420506 -0.23567155 0.22063945 -0.07954836 -0.20978293 -0.16988468 0.058494095 0.14493045
0.02432258 0.03676939 -0.032807417 0.039206713 -0.020001827 0.18863134 0.08839577 -0.10110167
0.08372446 -0.0826756

fc1.weight f4 [1, 36]
00000000: 0f4b cdbf 8656 d23f 6aa0 f73f 4320 83bf
00000010: 30fb 8c3f ab06 04c0 8766 e33f b2c0 0840
00000020: 2365 67bf 77bd ed3f 365a 04c0 203a 693f
00000030: f70e a2bf 5407 35bf b16a 83bf c4b0 ed3f
00000040: 72fd 7d3f d32c 3dbf 1c82 a2bf 0a30 e03f
00000050: aeaf f3bf 6b83 f23f b62c cdbf ff35 ae3f
00000060: 6119 ea3f f2d8 73bf cedf 8b3f f0a9 913f
00000070: 32a8 f0bf a90c b1bf 7cfd bc3f 8f8b 933f
00000080: 34f6 7c3f f568 fcbf e98d 03c0 f1de dbbf
-1.6038531 1.6432655 1.934583 -1.024422 1.1014156 -2.062907 1.7765664 2.1367612
-0.903887 1.8573445 -2.068006 0.91104317 -1.2660817 -0.70714307 -1.0266935 1.856957
0.9921485 -0.7389652 -1.2695956 1.751466 -1.9037988 1.8946356 -1.602927 1.3610228
1.8288995 -0.9525291 1.0927675 1.1379986 -1.8801329 -1.3831989 1.4764857 1.1526965
0.98813176 -1.971953 -2.0555365 -1.7177411

fc2.weight f4 [1, 9]
00000000: 2c47 9cbe 6255 a5be 5bc5 aebd 1675 f7bc
00000010: a8fa 7f3e aee9 5ebe 2c4b a5be 56b9 a83a
00000020: e40d 9ebe
-0.3052305 -0.32291704 -0.08533736 -0.030207198 0.24997962 -0.21768829 -0.32283914 0.0012872617
-0.30869973

fc3.weight f4 [1, 2]
00000000: 9b81 023f c8dc 15bf
0.5097901 -0.5854001

input_fc.weight f4 [18, 3]
00000000: 541c 9dbe f83d f13e daf8 8a3e 21a3 473e
00000010: 0163 af3a 961e 82be d69e b33e 3eae d4be
00000020: 238b a93e 5188 823e eb4b 07bf 0231 883c
00000030: 8f84 493c 3fbc 84bc d0b1 2e3c 7dff 89bb
00000040: 98e1 0e3c 7d58 0abc e37b fb3d a58d 4e3d
00000050: 59ab b2be b75d 0d3f fe3d 2c3e aabe 79be
00000060: 64de 093b 6d2d d1be 3b7e c4be 2ce4 763e
00000070: 0e72 d83e 503a a7be 35a8 a8be 04de 9bbe
00000080: 2080 9b3e a64b f1be fee2 6b3e 2aaf b03e
00000090: b166 bc3a d7de 45bc 0c6d 96bc cb88 623e
000000a0: 9167 afbe 60fe 9b3d 9c94 a13e 7347 53be
000000b0: 59cc 9ebe fd47 af3e e1bb 8cbe 5392 9dbd
000000c0: 39d8 94be 4742 003f e235 47be 3b65 603e
000000d0: bb03 dbbe e8fd 07be
-0.30685675 0.4711759 0.27142984 0.19495822 0.0013380946 -0.2541396 0.3508212 -0.41539186
0.33113965 0.25494626 -0.52850217 0.016624931 0.012299671 -0.016203044 0.010662511 -0.004211365
0.008720778 -0.008443949 0.12279489 0.05042805 -0.34896353 0.5522112 0.16820523 -0.24389139
0.0021037096 -0.4085497 -0.38377556 0.24110478 0.42274517 -0.32661676 -0.32940832 -0.30442822
0.3037119 -0.47128028 0.2303581 0.3450864 0.0014373866 -0.012077055 -0.018362544 0.22122495
-0.34258702 0.076168776 0.31558692 -0.20632724 -0.3101528 0.3423461 -0.2748709 -0.07693925
-0.29071215 0.5010113 -0.19454148 0.21913616 -0.42776284 -0.13280451

input_fc.bias f4 [18]
00000000: 2330 9f3e 8179 e8be f390 6abe 6244 c0be
00000010: f350 913d 0dfa 183e dd23 2bbf 4659 2b3e
00000020: af5a 3bbf 454e 98be d7aa 023e 24e9 073e
00000030: 083c 3b3e 6690 f93d baf5 0ebf 9ea4 c6be
00000040: d547 b73e a41a a63b
0.31091413 -0.454052 -0.22906856 -0.37552172 0.07095518 0.14939137 -0.668516 0.16733274
-0.7318525 -0.29747215 0.12760483 0.1327253 0.18284619 0.12185745 -0.558437 -0.38797468
0.3579699 0.005069094

norm.weight f4 [36]
00000000: 0000 803f 0000 803f 0000 803f 0000 803f
00000010: 0000 803f 0000 803f 0000 803f 0000 803f
00000020: 0000 803f 0000 803f 0000 803f 0000 803f
00000030: 0000 803f 0000 803f 0000 803f 0000 803f
00000040: 0000 803f 0000 803f 0000 803f 0000 803f
00000050: 0000 803f 0000 803f 0000 803f 0000 803f
00000060: 0000 803f 0000 803f 0000 803f 0000 803f
00000070: 0000 803f 0000 803f 0000 803f 0000 803f
00000080: 0000 803f 0000 803f 0000 803f 0000 803f
1.0 1.0 1.0 1.0 1.0 1.0 1.0 1.0
1.0 1.0 1.0 1.0 1.0 1.0 1.0 1.0
1.0 1.0 1.0 1.0 1.0 1.0 1.0 1.0
1.0 1.0 1.0 1.0 1.0 1.0 1.0 1.0
1.0 1.0 1.0 1.0

norm.bias f4 [36]
00000000: 0000 0000 0000 0000 0000 0000 0000 0000
00000010: 0000 0000 0000 0000 0000 0000 0000 0000
00000020: 0000 0000 0000 0000 0000 0000 0000 0000
00000030: 0000 0000 0000 0000 0000 0000 0000 0000
00000040: 0000 0000 0000 0000 0000 0000 0000 0000
00000050: 0000 0000 0000 0000 0000 0000 0000 0000
00000060: 0000 0000 0000 0000 0000 0000 0000 0000
00000070: 0000 0000 0000 0000 0000 0000 0000 0000
00000080: 0000 0000 0000 0000 0000 0000 0000 0000
0.0 0.0 0.0 0.0 0.0 0.0 0.0 0.0
0.0 0.0 0.0 0.0 0.0 0.0 0.0 0.0
0.0 0.0 0.0 0.0 0.0 0.0 0.0 0.0
0.0 0.0 0.0 0.0 0.0 0.0 0.0 0.0
0.0 0.0 0.0 0.0

norm1.weight f4 [9]
00000000: 0000 803f 0000 803f 0000 803f 0000 803f
00000010: 0000 803f 0000 803f 0000 803f 0000 803f
00000020: 0000 803f
1.0 1.0 1.0 1.0 1.0 1.0 1.0 1.0
1.0

norm1.bias f4 [9]
00000000: 0000 0000 0000 0000 0000 0000 0000 0000
00000010: 0000 0000 0000 0000 0000 0000 0000 0000
00000020: 0000 0000
0.0 0.0 0.0 0.0 0.0 0.0 0.0 0.0
0.0

norm2.weight f4 [9]
00000000: 0000 803f 0000 803f 0000 803f 0000 803f
00000010: 0000 803f 0000 803f 0000 803f 0000 803f
00000020: 0000 803f
1.0 1.0 1.0 1.0 1.0 1.0 1.0 1.0
1.0

norm2.bias f4 [9]
00000000: 0000 0000 0000 0000 0000 0000 0000 0000
00000010: 0000 0000 0000 0000 0000 0000 0000 0000
00000020: 0000 0000
0.0 0.0 0.0 0.0 0.0 0.0 0.0 0.0
0.0

m.running_mean f4 [12]
00000000: a372 3fbf 2476 39bf d13d 40bf a218 4bbf
00000010: e83e 51bf fa63 4ebf 253f 47bf f38d 44bf
00000020: 4177 4cbf d726 59bf b3c0 60bf 2e86 5fbf
-0.74784297 -0.72445893 -0.75094324 -0.7933446 -0.8173661 -0.806213 -0.77830726 -0.767791
-0.7986947 -0.8482489 -0.87794036 -0.87314117

m.running_var f4 [12]
00000000: 2fa8 9d45 64a0 9d45 1ad2 9d45 44f3 9d45
00000010: 7236 9e45 cc44 9e45 1818 9e45 ddd1 9d45
00000020: 78c1 9d45 d1b9 9d45 229c 9d45 fdcd 9d45
5045.023 5044.049 5050.2627 5054.408 5062.8057 5064.5996 5059.0117 5050.233
5048.1836 5047.227 5043.5166 5049.7485

linear_net.0.weight f4 [9, 18]
00000000: 97c3 703e c427 8e3d 7dc1 6f3d f769 663e
00000010: f0b9 00be 57cf 103e c285 0abe 9874 893d
00000020: ef30 6ebe 385c fabc 5888 5a3e d5c1 603e
00000030: 1a91 42bd 8130 e9bd 73d6 ccbc b2bc 1d3e
00000040: 0de2 733d 609f a5bd 2367 d2bd 21cd 1d3e
00000050: 864a 1fbe 42cb c0bd cca3 11bd eea4 613e
00000060: 1e68 393e bbc3 363e 4c68 23be 4284 a63d
00000070: 9aba 84bc 03ea ef3d 81a8 1f3e 9fd9 3cbe
00000080: 930d 43be 842d dd3c f138 6ebe a610 2e3e
00000090: bdb7 2ebe d842 0cbe 2bfd 893a d18e 093e
000000a0: 01bb 523e d842 323d 78e4 4d3e 5937 cb3d
000000b0: c0c7 6c3e ecf3 6dbd 023e 75bd 4256 95bd
000000c0: 45f6 23bd 1a26 4cbe a945 903d c720 2d3e
000000d0: 71ce f83d 684a 18be b2c2 5a3e d3c7 1dba
000000e0: 2579 e9bb c85d 51be c635 d3bd 8cec 9b3d
000000f0: c12e ea3c cc47 1abe 18e0 5f3e e72d ca3d
00000100: 5245 053e b066 0cbe 54e9 c2bd a3f4 963d
00000110: 6574 62be 010e e23d e22e 473c 7143 1a3e
00000120: dd37 393e 59cf 3e3d 68d0 fb3d 83a1 b33b
00000130: f671 6b3e 1d4b d6bc 93b5 14be 6819 01bd
00000140: f7dc 35be f156 0dbe 1bd4 523d 6c76 3a3e
00000150: 8fa8 443e 93d0 353e 172f 4e3e 878a 573e
00000160: 0a2d 11be a068 93bd 48b0 db3d a19e bdbd
00000170: ddb3 24bd 8f22 4c3e 0042 a8bc a31a 60bd
00000180: 5279 c63d b621 6c3e a70b d0bd 8988 fcbc
00000190: faba 56be ca4b e43c 2a48 c73c bd17 223e
000001a0: fc2f 45be 0387 15be c2d5 3b3e 928d d9bd
000001b0: bd52 7e3c 2f9f 4f3e 409c 513e 64dc 71bc
000001c0: 1b26 64be ee0d 46be fdbf 67be 694a 67bc
000001d0: cdb6 3bbe 1fbd 433e 0783 51be 4152 8fbd
000001e0: fbd3 ce3d 9da6 cbbd a2b3 343e 1d9a 4e3d
000001f0: 25d4 673e 93a3 093d 866a 133e 27d2 54be
00000200: c324 cdbd 21e4 d73d a183 b7bd aa12 9f3d
00000210: 5312 12be c095 3f3d f922 ec3c 5113 05be
00000220: 6d54 bcbb 2eba 3a3e 1c4b 32be 01f9 1f3d
00000230: c030 033e fe58 5e3e 3ee5 5bbe de62 da3d
00000240: b079 653e 142c 253e c52d 50be 3a0b 0cbd
00000250: 35ab ecbc 11c1 0abd 7a36 8b3c b714 7b3c
00000260: 33b2 ff3d 0225 3dbe e531 2abe 70df e9bb
00000270: 5a64 63be e5ac 6c3e b863 2c3e e773 d5bd
00000280: b8ca 2b3e 9879 d8bd
0.23512112 0.069411784 0.058534134 0.2250136 -0.1257093 0.14141594 -0.13527587 0.067116916
-0.23260854 -0.030561551 0.21341074 0.21948941 -0.04750166 -0.113862045 -0.025004601 0.15404013
0.05954175 -0.08087039 -0.10273578 0.15410282 -0.15555772 -0.09413768 -0.0355566 0.22035572
0.18106124 0.17848103 -0.15957755 0.08130695 -0.01620226 0.11714556 0.15591623 -0.18442391
-0.19048147 0.026999243 -0.23263909 0.16998538 -0.17062278 -0.13697374 0.001052772 0.13433386
0.20579149 0.04352078 0.20106685 0.09922666 0.23123074 -0.05809395 -0.05987359 -0.07291843
-0.040029783 -0.1993641 0.070445366 0.16907035 0.121487506 -0.14872134 0.21363333 -0.0006018851
-0.0071250373 -0.20445931 -0.10312991 0.07613477 0.028586747 -0.15066451 0.21862829 0.098720364
0.13014725 -0.13711047 -0.0951716 0.073708795 -0.22114713 0.11037827 0.012157174 0.1506479
0.18087716 0.04658446 0.1229561 0.0054819 0.22992691 -0.026158864 -0.1452239 -0.03151837
-0.17760073 -0.13802697 0.05147181 0.18209237 0.19204925 0.17755346 0.20135151 0.21048938
-0.14177337 -0.0719769 0.10726982 -0.09258772 -0.040210593 0.19935058 -0.020539284 -0.054712903
0.09691109 0.23059735 -0.101584725 -0.030826824 -0.20969763 0.02786817 0.024326403 0.15829368
-0.19256586 -0.14602284 0.18343261 -0.106227055 0.015522656 0.20275567 0.20469761 -0.014762018
-0.22280161 -0.19341251 -0.22631831 -0.014116862 -0.18331452 0.19115113 -0.20460139 -0.069981106
0.10099026 -0.09943888 0.1764665 0.050439943 0.2263952 0.033603262 0.14396104 -0.20783292
-0.10016777 0.10541559 -0.08960653 0.07767232 -0.14264803 0.046773672 0.02882527 -0.1299565
-0.005747369 0.18235084 -0.17411464 0.039055828 0.12811565 0.21713635 -0.21474168 0.10663389
0.22409701 0.16130096 -0.2032996 -0.034190394 -0.028890232 -0.03387553 0.01699375 0.015324763
0.12485161 -0.18471149 -0.16620596 -0.0071372315 -0.2220625 0.23112829 0.16834915 -0.10422497
0.1677655 -0.10570067

linear_net.0.bias f4 [9]
00000000: 3cc8 d3ba 6414 4ebe 91f8 053c 5e6d a13d
00000010: 57fb c7bd a5fc 053e f6d8 17bb 8255 013e
00000020: 4d93 6d3e
-0.0016157697 -0.20124966 0.008176939 0.07882188 -0.09764736 0.13084657 -0.002317009 0.12630275
0.23200722

linear_net.2.weight f4 [1, 9]
00000000: b026 6ebe ebee 6ebe 2cbf 803e a083 92bd
00000010: b8d8 74be 6b6d 353d 93d5 6abe 82a5 a63e
00000020: bb62 203e
-0.23256946 -0.23333327 0.25145853 -0.07154012 -0.23910797 0.044293802 -0.22933035 0.32548147
0.15662663

exp_avg f4 [108, 36]
00000000: bdcf 073d 8e7e 14bc 44d4 7c3c beec 9abc
00000010: 0309 4b3a d8bb ad37 148a 8bbc bdd7 ab3c
00000020: 5476 5bbd 33a2 673c 4dea 59bc fa44 773c
00000030: de0d 00bb 42c5 7cbb 1167 a2bc 7f7d babb
00000040: 8ddb 2f3b 9aeb c7bc 251d f438 71a6 99b8
00000050: 10cc 633a 2536 2739 8769 903a 186e d33a
00000060: 2de6 f239 cc0f 093b 7321 3239 119a 0d3b
00000070: b45d 8038 6732 0e3b 5e97 b837 1d46 0e3b
00000080: dcae 0437 a948 0e3b 7dbc 3e36 fd48 0e3b
00000090: b550 e33b 59e5 c1ba 1256 773b 0a08 85bb
000000a0: 8fc4 2e39 14ba f837 d80e 5abb dfbd ca3b
000000b0: 43ec 45bc 80be 883b 5005 86bb 080a 173b
000000c0: f12b d8b9 7988 2dba 0d2b 74bb 9816 30ba
000000d0: b3c6 db39 ba50 abbb ca35 ceb5 61fb 8f37
000000e0: d9d4 4f39 9a1d 1538 4909 7a39 c6c5 bb39
000000f0: 6c11 d138 730a f139 f635 1938 8fb9 f839
00000100: b6cb 5c37 3fbb f939 46c0 9e36 96dc f939
00000110: dd37 e435 e5e0 f939 1d09 2435 73e1 f939
00000120: 05ed 283c 30f8 7bba 6fe9 aa3b 1502 e2bb
00000130: 375c 5c39 3e3d ce38 ff6c 73bb f845 513c
00000140: 8688 9bbc c1cf 193c 75bd 16bc 6e54 d43a
00000150: 6855 1dba 4258 b3ba 506a 91bb 7221 b8b9
00000160: f3cc be3a b3a4 06bc 3b87 0837 bdde 3b38
00000170: bc7a 8e39 1b33 5638 f854 bb39 84bd 093a
00000180: eeea 1d39 5ae7 323a 29af 6738 96de 383a
00000190: d8f6 a637 c5a6 393a d018 f036 acc0 393a
000001a0: 8c94 2c36 06c4 393a 0317 7835 74c4 393a
000001b0: 09cb 95bc 8949 513b 11f0 17bc 507e 393c
000001c0: 0e08 d3b9 664c e7b8 563a 023c 1338 93bc
000001d0: a06d 033d 8a96 50bc ee32 4b3c 9d5a aabb
000001e0: f2fa 8b3a c3c4 0c3b 8724 173c 75b6 d13a
000001f0: 575f f4ba f151 663c 3e25 6ab6 5510 deb7
00000200: dc5a 0aba 7c8d b2b8 94e6 25ba 972a 73ba
00000210: b8f5 8ab9 df00 9dba 32b7 cbb8 ec1f a2ba
00000220: 55cb 12b8 b8cb a2ba eb16 53b7 f4e1 a2ba
00000230: cbba 97b6 d3e4 a2ba cf1d dab5 30e5 a2ba
00000240: d5e4 23bc 50f4 b1ba a66c c5bb 232b 003c
00000250: e3c5 3cb9 4c07 61b9 6b08 e83a c2ec a7bc
00000260: fb3b b13c a4bb 7bbc d572 7b3c 3634 1c3b
00000270: fc8f 183a 0f14 b13a 1842 0c3b bd04 d3ba
00000280: 15cc f8ba 0213 0f3c c436 1238 409e c0b8
00000290: a1ba b1b9 cf34 1bb9 9b4a a7b9 e9e1 1dba
000002a0: 1233 08b9 a2d2 3dba d5f4 46b8 2c5a 42ba
000002b0: 854c 8fb7 bdf1 42ba 0e0d ceb6 5905 43ba
000002c0: 5e1b 14b6 e007 43ba 89e8 54b5 3408 43ba
000002d0: db46 babb f787 013c 0a8f 6cba 89c5 29b9
000002e0: 96b7 75b9 b793 ae39 373d 073c ee68 943c
000002f0: bde5 7f3a f1c4 713c 2b25 79bc f802 59bc
00000300: 3cd7 c039 dffc 5f39 2c04 193c 44ca c33b
00000310: 9f04 c23a ea38 053b 0c53 f7b8 847a af38
00000320: 6916 e038 9983 ae39 dd5b 9db9 e440 84b7
00000330: d116 13b9 9fc0 59b9 7058 5ab8 e1e2 77b9
00000340: 3296 9db7 f3d9 7bb9 d5a7 e2b6 765d 7cb9
00000350: 34ec 22b6 716e 7cb9 2735 6ab5 8670 7cb9
00000360: 4559 0fbd a60a d83b 7a06 8fbc 85b3 af3c
00000370: b340 4eba 08d1 32b9 073e 7f3c 336f 05bd
00000380: 1676 783d 508e bcbc bdf0 b63c dc7e 31bc
00000390: a668 073b 8a75 873b d174 943c 732a 663b
000003a0: b3fe 65bb a518 db3c c1cb 6ab8 e46b f2b7
000003b0: df19 7cba 7d11 57b9 98df 98ba 3d4e e9ba
000003c0: 74b0 ffb9 483e 15bb bb60 3bb9 98f1 19bb
000003d0: 7b04 87b8 3b8f 1abb 6627 c2b7 9ea3 1abb
000003e0: 708e 0bb7 41a6 1abb f19d 48b6 97a6 1abb
000003f0: 30d4 5b3c a84a d1b9 c256 f33b cc95 18bc
0.0331571 -0.009063376 0.015431467 -0.018911716 0.00077451783 2.0710679e-05 -0.017033614 0.020976895
-0.053579643 0.014137792 -0.013300491 0.015092129 -0.0019539515 -0.0038569723 -0.019824537 -0.00569123
0.0026833743 -0.024404336 0.00011640255 -7.326611e-05 0.00086897705 0.00015946531 0.0011017778 0.0016130833
0.0004632933 0.0020913957 0.00016987864 0.0021606723 6.120969e-05 0.0021697523 2.2004995e-05 0.0021709271
7.908526e-06 0.002171079 2.842192e-06 0.0021710985 0.0069371113 -0.0014793082 0.003774051 -0.004059796
0.00016667157 2.9650553e-05 -0.0033273008 0.006187185 -0.012080255 0.0041731 -0.004089989 0.002304675
-0.0004123147 -0.0006619762 -0.0037257106 -0.0006717234 0.00041918978 -0.005228129 -1.5363851e-06 1.7163986e-05
0.0001982035 3.5551937e-05 0.00023845317 0.00035814772 9.969142e-05 0.00045974887 3.6528298e-05 0.00047440498
1.3160452e-05 0.0004763249 4.7311505e-06 0.0004765733 1.7003582e-06 0.0004766054 6.110802e-07 0.00047660954
0.010310416 -0.0009611873 0.0052158157 -0.006897221 0.00021015188 9.834253e-05 -0.0037143824 0.0127730295
-0.018985998 0.009387911 -0.0092004435 0.0016199478 -0.0006001801 -0.0013682919 -0.0044377223 -0.00035120134
0.0014556929 -0.008217978 8.1377175e-06 4.4791715e-05 0.00027175795 5.106917e-05 0.00035730726 0.0005254375
0.00015060205 0.0006824635 5.5237822e-05 0.0007052211 1.9903688e-05 0.00070820405 7.155446e-06 0.00070859
2.5716463e-06 0.00070864 9.2420686e-07 0.0007086464 -0.018285291 0.00319347 -0.009273545 0.011321619
-0.00040251057 -0.00011029169 0.007948479 -0.017971074 0.03208697 -0.012731204 0.012402279 -0.00519879
0.0010679646 0.0021479584 0.009225017 0.0015999811 -0.0018644136 0.014057622 -3.4890395e-06 -2.6472067e-05
-0.00052778213 -8.514055e-05 -0.00063286093 -0.0009276061 -0.00026504486 -0.0011978409 -9.713917e-05 -0.0012369133
-3.499848e-05 -0.0012420332 -1.2581916e-05 -0.0012426958 -4.5218962e-06 -0.0012427814 -1.6250941e-06 -0.0012427922
-0.010003288 -0.0013576839 -0.006024915 0.007822785 -0.00018002796 -0.0002146039 0.0017702704 -0.020498637
0.021635046 -0.015364561 0.015347202 0.002383483 0.0005819795 0.0013510006 0.00214017 -0.0016099435
-0.001898172 0.008732559 3.4860117e-05 -9.18475e-05 -0.0003389912 -0.00014801625 -0.00031908308 -0.0006022738
-0.00012988996 -0.00072411646 -4.7434896e-05 -0.00074139494 -1.708256e-05 -0.00074365345 -6.140798e-06 -0.00074394565
-2.2069648e-06 -0.0007439833 -7.931454e-07 -0.0007439882 -0.005684716 0.007905952 -0.0009024 -0.00016190684
-0.00023433412 0.00033297922 0.008254341 0.01811644 0.00097617117 0.014756427 -0.015206615 -0.013245337
0.00036781456 0.00021361139 0.009339374 0.0059750397 0.0014802403 0.0020328113 -0.000117933465 8.3674706e-05
0.000106853266 0.00033285914 -0.00030013817 -1.5765843e-05 -0.00014027512 -0.0002076649 -5.2057614e-05 -0.00023640275
-1.8785799e-05 -0.00024018418 -6.754863e-06 -0.0002406741 -2.427737e-06 -0.00024073735 -8.724914e-07 -0.00024074511
-0.034997243 0.0065930663 -0.017459143 0.021447906 -0.00078679173 -0.00017053273 0.015578753 -0.03257675
0.06065949 -0.023017079 0.02233159 -0.010833468 0.002066174 0.004133885 0.018122109 0.0035120517
-0.003509444 0.02674515 -5.5979708e-05 -2.8898889e-05 -0.0009616892 -0.00020510513 -0.0011663316 -0.0017799806
-0.00048768858 -0.0022772718 -0.00017869745 -0.0023489948 -6.438136e-05 -0.0023583907 -2.3144948e-05 -0.0023596059
-8.318209e-06 -0.002359763 -2.9894256e-06 -0.002359783 0.013417289 -0.0003991921 0.007426114 -0.009313058

exp_avg_sq f4 [108, 36]
00000000: 4e45 fb3a 74b2 f638 d27a cb3a a8bb 9d3a
00000010: 2a3e 9436 6a86 3636 a38d a939 a208 f43b
00000020: 24d3 113c 4e9a 7e3b 375c 803b b150 ad39
00000030: b39f e236 0f20 4639 bf43 8c39 e080 3739
00000040: 2a6c eb39 1f7e b53a 4594 ba35 3ee4 9035
00000050: 9f9c 7436 b4d5 4636 4587 ab36 a59e 0237
00000060: 6973 7635 9a14 5f37 c4cc 0434 ad73 6f37
00000070: 4af6 8932 4da7 7137 dea5 0e31 6ff0 7137
00000080: 1567 932f f2f9 7137 dd4d 182e 21fb 7137
00000090: 519d 1038 a85b 4b36 bae9 0738 124d a037
000000a0: cf3e da33 f597 7e33 6e45 0137 5351 0939
000000b0: e5f1 2539 287c 8338 d7b6 8838 7bca 2737
000000c0: 68be 4934 0c61 5c36 9f62 ef36 1f31 9c36
000000d0: 2713 0537 7d3d c537 16c7 9f32 e76f aa32
000000e0: 2c2c 7b33 41b9 5533 cec4 cf33 f160 1134
000000f0: cb10 9732 cdc6 8134 7f08 2331 fdf6 8b34
00000100: 8c66 a92f 1156 8d34 9028 2f2e b283 8d34
00000110: 70ff b42c 8289 8d34 1c04 3b2b 538a 8d34
00000120: 69bf 173a b601 a038 4e93 073a ba32 033a
00000130: 8a84 fb35 6f28 bb35 57f9 7738 0b65 863b
00000140: e650 5c3b 9e4b 133b 623e 153b 2248 7539
00000150: 4512 3c36 bf96 a038 a5d4 1338 3c0a c538
00000160: 9748 3c39 6502 033a f8fd d634 518e ed34
00000170: 99ed bc35 2cd6 6735 998f cc35 5736 3836
00000180: 61ad 8f34 260a 9436 9c6f 1a33 8eb4 9d36
00000190: 9262 a031 6900 9f36 59d3 2530 732b 9f36
000001a0: 1e5a ab2e 1331 9f36 b20c 312d c531 9f36
000001b0: 4c69 163a ef7f a538 bf8a 023a 9067 f339
000001c0: ad40 0736 740d cb35 5f6d af38 532b 663b
000001d0: e667 473b 00d7 fb3a 7182 fe3a d894 7739
000001e0: 67de 3536 2cf5 a538 76de 9238 5859 c538
000001f0: e2af 3f39 fd36 f539 1fb4 6834 0ca9 7c34
00000200: 322b 9235 fa2f 2035 20ee c635 d4d7 2036
00000210: 75e6 8c34 c23c 8936 de95 1733 2d0e 9336
00000220: 5271 9d31 4f5f 9436 1ec9 2230 038b 9436
00000230: 0236 a82e b490 9436 e9cd 2d2d 6f91 9436
00000240: 2f7e 4e3b 078a c939 708f 563b 2f28 323b
00000250: 5d02 3237 2029 0837 918c 8b39 4d0f c63c
00000260: 7c9e a03c 3a60 543c a312 593c a683 a73a
00000270: 0e72 7e37 8728 d539 e6b4 b138 e528 163a
00000280: b0bd 813a ba52 353b 4711 3836 7642 4c36
00000290: c394 1737 9880 b136 6cf6 1037 9769 8b37
000002a0: d147 ca35 c6bc d937 fc43 5934 5037 e737
000002b0: 0c9d e132 e505 e937 a443 6931 f841 e937
000002c0: a809 f12f b249 e937 690d 792e b94a e937
000002d0: 1f51 353c a67e 9c3a 99f2 413c 3c35 153c
000002e0: a208 1a38 1dd6 eb37 fd7e 823a 374c a53d
000002f0: 4905 8b3d 3bfc 2e3d b356 333d 840c 863b
00000300: 4fd1 5738 7d15 b63a 8109 b739 a59f 013b
00000310: 7d74 5e3b 2169 1b3c f7b9 2d37 8b30 3937
00000320: 7717 0338 8b27 9637 47e5 fe37 7137 7238
00000330: f1ee b136 9761 be38 cb1f 3f35 f84b ca38
00000340: 1e78 c633 d1e4 cb38 fb32 4d32 f019 cc38
00000350: a109 d430 c420 cc38 8416 5b2f a221 cc38
00000360: 06ec 863a 573a 1f39 d7e4 413a 45b4 3c3a
00000370: 85b8 5636 e5ff 0036 fd6c 2e39 0226 c03b
00000380: 087d aa3b b251 503b 557c 543b 5d35 f439
00000390: 9b9c aa36 3fe3 bc38 c785 3839 67c1 2539
000003a0: 4b43 5939 45a1 503a 989e e734 000c 2035
000003b0: 4a7d 0c36 d646 d235 b3c7 2736 9333 8536
000003c0: 4d4b ee34 d665 dd36 753c 8033 c3ec ec36
000003d0: da32 0532 1b03 ef36 37b8 8930 6948 ef36
000003e0: 584f 0e2f 7451 ef36 c10a 932d 7d52 ef36
000003f0: 9887 ea3a e81a 7639 dd3d e23a afa3 cb3a
0.0019170435 0.000117634336 0.0015524274 0.0012034075 4.4179806e-06 2.7198353e-06 0.0003233972 0.007447318
0.0089004375 0.0038849297 0.003917243 0.0003305725 6.7539163e-06 0.00018894694 0.00026753356 0.0001750025
0.0004490328 0.0013846791 1.3901232e-06 1.0795263e-06 3.6449999e-06 2.962869e-06 5.1119446e-06 7.785541e-06
9.1810085e-07 1.32966325e-05 1.2367951e-07 1.4272443e-05 1.6060898e-08 1.4403672e-05 2.0758004e-09 1.44207e-05
2.6812388e-10 1.4422914e-05 3.4629955e-11 1.442319e-05 3.4478788e-05 3.0302708e-06 3.2404183e-05 1.9109375e-05
1.0162841e-07 5.9277188e-08 7.7051645e-06 0.00013095634 0.00015825739 6.269693e-05 6.519042e-05 1.0001119e-05
1.8788853e-07 3.2839043e-06 7.134236e-06 4.6548807e-06 7.931877e-06 2.3512863e-05 1.860057e-08 1.9841492e-08
5.8480666e-08 4.9761415e-08 9.674987e-08 1.3539444e-07 1.758635e-08 2.417277e-07 2.3724451e-09 2.6070475e-07
3.0813785e-10 2.6325918e-07 3.982642e-11 2.6359118e-07 5.144267e-12 2.6363347e-07 6.644145e-13 2.636394e-07
0.0005788715 7.629713e-05 0.00051717914 0.0005004812 1.8739531e-06 1.3944353e-06 5.9121605e-05 0.0041014007
0.0033617555 0.0022475491 0.0022772779 0.00023391892 2.8024817e-06 7.657473e-05 3.524557e-05 9.395598e-05
0.00017956119 0.000499761 4.0045393e-07 4.424824e-07 1.4076242e-06 8.6365867e-07 1.5240977e-06 2.7449767e-06
2.6761975e-07 4.411925e-06 3.5957427e-08 4.699984e-06 4.667819e-09 4.738617e-06 6.0326993e-10 4.7436274e-06
7.792188e-11 4.7442823e-06 1.0064104e-11 4.744363e-06 0.00057377364 7.8916426e-05 0.0004979781 0.00046425732
2.0154214e-06 1.5128594e-06 8.365022e-05 0.0035121038 0.0030426919 0.0019213855 0.0019417537 0.00023611204
2.7100557e-06 7.91348e-05 7.003259e-05 9.4103336e-05 0.00018280701 0.0004677101 2.1672211e-07 2.3530828e-07
1.0890419e-06 5.967446e-07 1.4821453e-06 2.3967486e-06 2.6244712e-07 4.0899913e-06 3.529373e-08 4.3825917e-06
4.5821844e-09 4.421839e-06 5.922106e-10 4.426927e-06 7.649349e-11 4.4275894e-06 9.879633e-12 4.4276744e-06
0.0031508317 0.00038440546 0.0032739304 0.0027184596 1.0610177e-05 8.115807e-06 0.00026616876 0.024177218
0.019606821 0.012962395 0.013249072 0.0012780323 1.5166135e-05 0.0004065672 8.473713e-05 0.00057281397
0.000989845 0.0027667717 2.7428193e-06 3.0437054e-06 9.034938e-06 5.2899813e-06 8.640443e-06 1.661926e-05
1.5071074e-06 2.595632e-05 2.0234432e-07 2.7563103e-05 2.6264864e-08 2.777851e-05 3.3944412e-09 2.7806484e-05
4.3844506e-10 2.7810082e-05 5.6627956e-11 2.781056e-05 0.011066704 0.00119396 0.011837625 0.00910693
3.67245e-05 2.8113887e-05 0.0009956058 0.080711775 0.067881174 0.042721014 0.043783855 0.0040908474
5.145493e-05 0.0013891902 0.0003491156 0.0019778993 0.0033943944 0.009485514 1.0354902e-05 1.1038162e-05
3.1254687e-05 1.7899807e-05 3.0385925e-05 5.774893e-05 5.3028275e-06 9.0780835e-05 7.119931e-07 9.646261e-05
9.241943e-08 9.722415e-05 1.1944162e-08 9.732309e-05 1.5427767e-09 9.733581e-05 1.9925933e-10 9.7337426e-05
0.0010293729 0.00015185155 0.00073964655 0.0007198493 3.199589e-06 1.9222437e-06 0.00016634534 0.005863906
0.005202893 0.0031786975 0.003242274 0.00046579065 5.084626e-06 9.0068665e-05 0.00017597443 0.00015807674
0.00020719801 0.00079586013 4.3142495e-07 5.9622107e-07 2.0934554e-06 1.5666835e-06 2.500118e-06 3.969713e-06
4.4385743e-07 6.5981685e-06 5.9714615e-08 7.060911e-06 7.753181e-09 7.1231166e-06 1.0020419e-09 7.1311847e-06
1.2943013e-10 7.1322374e-06 1.671674e-11 7.132358e-06 0.0017893193 0.00023470412 0.0017260868 0.0015536452

exp_avg f4 [108]
00000000: 0a49 0e3b 8ae1 f939 84c4 393a 40e5 a2ba
00000010: 4208 43ba d770 7cb9 a4a6 1abb 82d4 783a
00000020: 3f8a a3b9 b1f7 453b 87b3 21ba 44d6 bab9
00000030: 81bb 0b3a 49d5 723b fda9 73ba 412d 1dbb
00000040: f790 a839 0779 4c3b fb88 6bbb fbe2 a1ba
00000050: c4b3 8cbb 782d 193b 80cc ddba 37f7 2abb
00000060: 174a 5a3a 6cef 4a3b 22d8 d23a 2df5 b83b
00000070: a80a 6339 e3d8 753a bf23 bbbb 9042 42ba
00000080: 7840 4d3b 8ed3 433b 399f e939 5472 d0ba
00000090: eed7 2732 1e6f ee30 62f4 6eb2 08b7 5c32
000000a0: 1a0c ebb1 c906 e131 39f6 3fb2 5ba0 9c32
000000b0: 7766 08b2 e3a4 9032 c21d 1cb1 81a7 f9b1
000000c0: 3c62 e4b1 7e48 aaaf 297e d6af 576c f3b1
000000d0: 2eea 8a32 3a3e 7432 7c36 0231 545c 8232
000000e0: c837 76b3 8a52 9732 c162 6032 6dfb 78b2
000000f0: 5c08 5db2 e12e da32 f575 8031 02d1 8432
00000100: 6ca1 e631 c84b e932 8b35 8cb2 364b 6c32
00000110: 9cd0 0033 f11c 0933 2ebc 1431 fb3b dcb1
00000120: e7ae 1c3c 72ca e239 0643 353c 2c95 fb3a
00000130: 0ab9 513a d43a 2139 be50 bdbb 8376 bcbb
00000140: 4c07 99bb 1446 ad3c 4f02 5ebb 5b59 17bc
00000150: e123 a63a c2e0 8f3c cb6c ddbb a886 123c
00000160: 291e 99bc 7f2a 0d3c f7d7 2e3b 2f7b ba3b
00000170: 14a8 5c3b f1b8 c83b 4efa 92bc 0035 723b
00000180: 224a 873c b286 0ebb abd7 cf39 bf94 91ba
00000190: b57d 12ba 38bd 23bc 0b8d 79b9 f1a6 f8b9
000001a0: cc71 5b3c 41f1 8e3b 2f2d 613a d0c1 31bc
0.0021711015 0.0004766102 0.0007086473 -0.0012427941 -0.000743989 -0.00024074629 -0.002359786 0.00094921154
-0.00031192784 0.003020745 -0.0006168414 -0.00035636325 0.00053303695 0.0037053397 -0.00092950446 -0.0023983272
0.00032151464 0.0031200068 -0.00359398 -0.0012350971 -0.0042938907 0.0023373049 -0.0016921908 -0.0026087293
0.000832708 0.003096546 0.0016086141 0.0056444616 0.00021652377 0.0009378327 -0.0057110484 -0.0007410431
0.0031318944 0.0029880735 0.00044559853 -0.0015903213 9.769776e-09 1.734836e-09 -1.39089895e-08 1.2847302e-08
-6.840776e-09 6.5491332e-09 -1.1173648e-08 1.8233711e-08 -7.93954e-09 1.6838788e-08 -2.2717903e-09 -7.2658968e-09
-6.6468413e-09 -3.097433e-10 -3.9016015e-10 -7.0845476e-09 1.6171807e-08 1.4216818e-08 1.894846e-09 1.5175978e-08
-5.732707e-08 1.7616248e-08 1.306097e-08 -1.44926675e-08 -1.2865794e-08 2.5399858e-08 3.7387005e-09 1.5461868e-08
6.7122325e-09 2.7159231e-08 -1.6322494e-08 1.3754109e-08 2.999205e-08 3.192412e-08 2.1643802e-09 -6.4096617e-09
0.009563184 0.00043256913 0.011063343 0.0019194237 0.000800029 0.00015376072 -0.0057774475 -0.0057514324
-0.0046700593 0.02115158 -0.0033875888 -0.009237613 0.0012675488 0.017563228 -0.006757354 0.008943237
-0.01869114 0.008616089 0.0026679018 0.005690954 0.0033669518 0.0061255624 -0.01794162 0.003695786
0.016514841 -0.0021747765 0.00039642802 -0.0011106952 -0.000558819 -0.009993844 -0.00023799033 -0.00047426627
0.0133938305 0.004362256 0.0008589802 -0.010849431

exp_avg_sq f4 [108]
00000000: 55fb 7137 708a 8d34 df31 9f36 8991 9436
00000010: de4a e937 cc21 cc38 b152 ef36 09b5 7d37
00000020: 558e b035 32dc 2e37 58df 7f35 8fa5 b137
00000030: e05e a937 e8cc 3239 19e3 b835 4eb8 f036
00000040: 51d1 4136 bbbf fb38 c5f8 8638 1eea e336
00000050: 6f43 d737 2e3a a236 7d53 8036 b9ff 4c38
00000060: bbaa 1736 34fd 4537 8918 0d37 6003 7939
00000070: 1da9 6e36 5254 0a38 3296 af39 18f4 1d36
00000080: e1f0 0d38 e3c2 f036 9863 dc34 e5b8 a637
00000090: 85f5 3a27 83c1 a024 4118 bf26 532a a026
000000a0: df81 1628 9b7a 0728 05f1 fd27 762f 2e28
000000b0: 32d6 a725 d6a0 6928 4941 9024 f3a7 a526
000000c0: 2f03 1f27 6f76 9527 1d85 5525 c4cb fe27
000000d0: 8c00 5226 d052 2627 f9e7 5627 8df5 1e27
000000e0: 2bb1 d928 c4b7 8d27 6b10 c426 0509 4a27
000000f0: aa16 7826 e4e7 f527 3451 1727 ae01 5427
00000100: 4c16 af25 cb4d a028 bb94 ec27 bb72 5526
00000110: aaf2 8727 ec0c ae28 e71f 3d24 7d01 1128
00000120: cdb8 713a 123c 1237 9736 173b 5447 0739
00000130: 80e4 cb36 5894 ae36 fee3 ac39 3e5c 203a
00000140: 37bb 3039 8df0 6f3b 4422 893a 715a 893a
00000150: fe3b b838 41d1 1b3b 4859 ef39 a9fe 213a
00000160: c14d 263b faac 8f3a 8e6d ab39 89e3 9c39
00000170: 0340 3839 c435 a139 574c 373b 14da 143a
00000180: 15aa 4f3b 55c7 d438 06b8 ea36 d776 a337
00000190: 4814 e936 b33f 533a 8373 9136 1c6c b036
000001a0: 783b ad3a 1564 553a 6f29 0138 f3e4 2a3a
1.4423237e-05 2.6364023e-07 4.744375e-06 4.4276862e-06 2.7810627e-05 9.733773e-05 7.1323816e-06 1.5122126e-05
1.3154446e-06 1.0422476e-05 9.531991e-07 2.1177138e-05 2.019055e-05 0.00017051736 1.3775162e-06 7.1740133e-06
2.888108e-06 0.00012004325 6.435955e-05 6.792382e-06 2.5661398e-05 4.8347492e-06 3.8244166e-06 4.887555e-05
2.2600132e-06 1.18010685e-05 8.409967e-06 0.00023747748 3.55632e-06 3.2980293e-05 0.00033490505 2.3536904e-06
3.3841356e-05 7.175245e-06 4.1050657e-07 1.987484e-05 2.5945782e-15 6.971676e-17 1.3259861e-15 1.1113702e-15
8.354834e-15 7.520591e-15 7.048292e-15 9.669232e-15 2.9115026e-16 1.2968974e-14 6.256064e-17 1.1494698e-15
2.2067408e-15 4.1484214e-15 1.8519906e-16 7.0720085e-15 7.2859127e-16 2.308202e-15 2.9824219e-15 2.2060018e-15
2.4168674e-14 3.93346e-15 1.3604682e-15 2.803802e-15 8.6073e-16 6.8252577e-15 2.099948e-15 2.942182e-15
3.037277e-16 1.7797306e-14 6.5664412e-15 7.405471e-16 3.7733124e-15 1.9323485e-14 4.1009864e-17 8.04944e-15
0.0009220958 8.716264e-06 0.002307331 0.00012901175 6.0764723e-06 5.2028736e-06 0.00032976264 0.0006117261
0.00016854411 0.0036611885 0.0010462482 0.0010479224 8.784978e-05 0.0023775848 0.00045652152 0.000617961
0.0025375935 0.0010961585 0.00032697286 0.00029924166 0.00017571454 0.00030748372 0.0027969086 0.0005678248
0.003168707 0.00010146076 6.9951666e-06 1.9486453e-05 6.946302e-06 0.0008058503 4.334784e-06 5.2577943e-06
0.0013216576 0.00081402186 3.0794585e-05 0.00065191014
