SensorFormer/SensorFormer/result/tmp/model.pt (torch, 37314 bytes, 22 tensors)

weight f4 [108, 36]
0.0062996116 0.18446484 0.09445942 -0.27228847 0.2713195 0.14270385 -0.16923404 0.46694896
-0.13868698 0.5245616 -0.6167619 0.08926283 0.05138367 -0.14967869 0.031821433 -0.1917501
0.30848423 -0.03425455 0.25554588 0.22392747 -0.04524985 0.1662141 -0.15975292 0.02661611
-0.26153728 -0.081748985 -0.10768137 0.005063159 -0.12484128 0.047244273 -0.18247037 -0.13469337
-0.21723336 0.19316968 0.05845532 -0.17578188 -0.04312199 -0.09938704 -0.06269011 -0.16935292
0.06856757 0.25370026 -0.1458608 0.21015042 -0.1267642 0.58558834 -0.10333975 -0.09873009
0.20006187 0.1811787 -0.0896582 -0.05371381 0.20747548 -0.18049225 -0.07084817 0.23378208
0.17781074 -0.07159159 0.15412508 0.22886285 0.1612782 -0.057979677 -0.07960526 0.16706775
0.15015689 -0.1316638 0.16954263 0.13755438 0.06407696 -0.023337834 -0.017665608 0.16027121
-0.11753697 0.05883869 0.0075746677 0.3908151 -0.49559093 0.093983404 -0.036773484 -0.34807637
-0.06462267 -0.786496 0.6920762 -0.09272605 -0.05996551 0.36064655 0.111201204 0.22406465
-0.1611072 0.09719943 -0.09389513 -0.03674344 -0.07479737 -0.07522047 0.050922174 0.06932254
0.08999543 0.042523514 0.16185896 0.29080462 0.12947205 0.044976786 0.2921043 0.010493052
0.17720772 0.107410304 0.18213396 0.22311282 0.03573465 -0.0949904 -0.07037297 -0.18580377
0.037037615 0.13650233 -0.12916288 0.06510952 -0.07687945 0.3280988 0.08519965 -0.07063985
-0.45853713 -0.02700254 -0.09559742 -0.00031698187 0.35286015 -0.2012581 -0.26815504 -0.22334522
0.038902022 -0.1970778 -0.064290956 -0.26073095 0.08118742 -0.03809405 0.09766787 -0.22892524
-0.00945514 -0.30901486 0.04310776 -0.20270939 -0.00950201 -0.035793032 -0.20446667 -0.020242117
0.02914463 -0.08942635 -0.13382515 -0.24662755 0.15114619 0.16111346 -0.035012525 0.21719387
-0.10241551 0.08296317 -0.27567688 0.0006626357 -0.1338174 -0.15225948 -0.018073648 -0.28063834
-0.056801856 -0.18751536 0.020046325 -0.12724149 0.03291609 -0.3354428 0.068673104 0.0830468
-0.0846409 0.06618459 0.1264325 -0.00022867139 -0.17452556 0.052516643 0.20304345 -0.071109965
0.09856847 0.11243453 -0.14099112 -0.23302546 0.1840401 0.12030531 -0.1747685 -0.5548976
0.19551204 0.10475514 0.074492455 0.2818273 -0.060460508 0.6267727 -0.68720925 0.084088184
0.38189122 -0.008392605 -0.16718487 -0.1542383 0.04111942 -0.029704962 -0.13776593 0.32353032
-0.06571647 0.06730132 0.080292076 -0.15156612 0.021039015 0.0361379 -0.02236638 -0.14211293
-0.22609776 -0.022543192 -0.25297537 -0.13244508 -0.033279266 0.06076909 0.09445776 -0.23635119
-0.114998035 0.041032236 -0.0075088637 0.06837019 -0.017993426 -0.25224274 -0.01957891 -0.21659851
0.07219193 -0.2746167 -0.0999263 0.07944163 0.11547013 0.2167182 -0.14153913 -0.15777376
0.15278877 0.05813711 0.19555949 0.23635755 0.13998772 0.27817148 0.03523 -0.16354807
-0.14389196 -0.07387579 -0.0865316 0.10541328 -0.024437629 -0.24389637 -0.03458842 -0.042693846
0.00636308 -0.14161149 0.08555141 -0.19858995 0.23541607 0.014949867 -0.20674804 -0.2195038
00000000: f96c ce3b 5ae4 3c3e f173 c13d 6569 8bbe
00000010: 64ea 8a3e f520 123e b04b 2dbe ef13 ef3e
00000020: f603 0ebe ab49 063f 1ce4 1dbf 6ecf b63d
00000030: af77 523d 5f45 19be 3157 023d 235a 44be
00000040: a5f1 9d3e 804e 0cbd e9d6 823e 3e4d 653e
00000050: e857 39bd 0734 2a3e 4596 23be 070a da3c
00000060: 37e8 85be 036c a7bd 0d88 dcbd dbe8 a53b
00000070: c9ac ffbd 3683 413d 83d9 3abe 0fed 09be
00000080: 6c72 5ebe 46ce 453e d86e 6f3d 2a00 34be
00000090: afa0 30bd 6f8b cbbd ac63 80bd da6a 2dbe
000000a0: 276d 8c3d 00e5 813e 895c 15be ac31 573e
000000b0: 79ce 01be 1ee9 153f caa3 d3bd 0033 cabd
000000c0: 05dd 4c3e e986 393e b89e b7bd 0303 5cbd
000000d0: 7474 543e f6d2 38be d818 91bd 9264 6f3e
000000e0: 0514 363e 9d9e 92bd f7d2 1d3e 065b 6a3e
000000f0: 1d26 253e 197c 6dbd 1508 a3bd cf13 2b3e
00000100: bac2 193e e0d2 06be 959c 2d3e 0edb 0c3e
00000110: c83a 833d fc2e bfbc 77b7 90bc 231e 243e
00000120: 39b7 f0bd d700 713d eb34 f83b eb18 c83e
00000130: 18be fdbe 5f7a c03d cb9f 16bd 1137 b2be
00000140: e458 84bd cd57 49bf e82b 313f 28e7 bdbd
00000150: 659e 75bd aaa6 b83e 75bd e33d 3471 653e
00000160: 49f9 24be 7f10 c73d 174c c0bd 4a80 16bd
00000170: 5d2f 99bd 310d 9abd c593 503d faf8 8d3d
00000180: 864f b83d 232d 2e3d 5bbe 253e 58e4 943e
00000190: 5294 043e 9439 383d b28e 953e 0deb 2b3c
000001a0: f175 353e eff9 db3d 5381 3a3e b077 643e
000001b0: 7f5e 123d 548a c2bd b41f 90bd 5843 3ebe
000001c0: c1b4 173d 44c7 0b3e 4643 04be 2458 853d
000001d0: f972 9dbd 91fc a73e 277d ae3d a0ab 90bd
000001e0: 61c5 eabe 6e34 ddbc 95c8 c3bd 9630 a6b9
000001f0: 16aa b43e 9a16 4ebe 9e4b 89be 9cb4 64be
00000200: ba57 1f3d c3ce 49be faaa 83bd 877e 85be
00000210: 9745 a63d 8208 1cbd 1806 c83d 616b 6abe
00000220: bbe9 1abc 3237 9ebe c391 303d 0d93 4fbe
00000230: 52ae 1bbc b79b 12bd b65f 51be ccd2 a5bc
00000240: b8c0 ee3c 2a25 b7bd 7609 09be ef8b 7cbe
00000250: 11c6 1a3e edfa 243e 4b69 0fbd 1268 5e3e
00000260: 39bf d1bd 98e8 a93d 8525 8dbe bbb4 2d3a
00000270: 6e07 09be e9e9 1bbe 300f 94bc d4af 8fbe
00000280: 10a9 68bd 0704 40be 3138 a43c 984b 02be
00000290: 06d3 063d 29bf abbe 7ca4 8c3d 7114 aa3d
000002a0: 3558 adbd c98b 873d 8577 013e 82c7 6fb9
000002b0: d4b6 32be b11b 573d 9fea 4f3e 1aa2 91bd
000002c0: 44de c93d 1344 e63d fa5f 10be 3a9e 6ebe
000002d0: 0275 3c3e a162 f63d 83f6 32be c50d 0ebf
000002e0: 4f34 483e dd89 d63d 808f 983d ab4b 903e
000002f0: 70a5 77bd 2d74 203f f2ec 2fbf 6d36 ac3d
00000300: 3f87 c33e 2381 09bc 8332 2bbe a5f0 1dbe
00000310: d66c 283d d257 f3bc 8312 0dbe c4a5 a53e
00000320: 5b96 86bd 46d5 893d 2c70 a43d 2634 1bbe
00000330: 035a ac3c 5605 143d b339 b7bc 0d86 11be
00000340: 2c86 67be 80ac b8bc fd85 81be af9f 07be
00000350: d74f 08bd 02e9 783d 1273 c13d 0c06 72be
00000360: 1784 ebbd 6b11 283d ea0c f6bb ac05 8c3d
00000370: f366 93bc f625 81be f363 a0bc 00cc 5dbe
00000380: 5dd9 933d 8f9a 8cbe 29a6 ccbd 4bb2 a23d
00000390: 9b7b ec3d 60eb 5d3e a2ef 10be 728f 21be
000003a0: a974 1c3e 2e21 6e3d bf40 483e b707 723e
000003b0: f158 0f3e 7e6c 8e3e 554d 103d 2579 27be
000003c0: 6a58 13be 314c 97bd 7b37 b1bd ebe2 d73d
000003d0: 6c31 c8bc f8bf 79be 96ac 0dbd bedf 2ebd
000003e0: 6281 d03b 9a02 11be 9435 af3d 2a5b 4bbe
000003f0: e910 713e 49f0 743c c2b5 53be 9bc5 60be

bias f4 [108]
0.0043451106 0.035803117 0.10364217 -0.13494037 -0.04310571 -0.065143414 -0.054388087 -0.05282271
-0.08735526 0.033644397 0.2824443 -0.12447917 -0.12604402 0.17424192 0.19880652 0.291481
0.0075725405 0.22891913 -0.11697595 0.056236833 -0.14044645 -0.103964366 -0.15926541 -0.097522974
0.023782603 0.020126076 -0.06605683 0.23564355 0.09081671 0.091253914 0.018470706 0.18307765
-0.009872481 -0.103769645 -0.05376387 0.10561573 -0.089674726 -0.029054267 0.09510954 -0.13615845
-0.082834125 -0.07729499 0.059012175 0.023251664 -0.19665758 -0.15076438 0.09367697 -0.15755716
-0.09687376 0.10836021 0.17003092 0.13566096 -0.076743774 0.13299145 -0.038214184 0.19475064
0.11650208 -0.18208466 0.08951965 0.0055727535 -0.068633944 -0.0065088803 -0.048983585 0.1804753
0.07095332 -0.12457606 0.16333662 0.032083847 -0.1346937 -0.13085505 -0.10714709 0.07356097
0.2698266 -0.26998243 -0.017861454 -0.35490522 -0.0726342 -0.16358958 -0.12880573 -0.19007985
-0.24747746 0.25193852 -0.19119038 -0.16695338 -0.16635112 0.35165608 -0.07675092 0.25842577
-0.24971871 0.2435894 -0.00092457986 0.4646263 0.109883845 0.07350131 -0.20306696 0.12448344
0.2623356 0.3092413 0.19738653 -0.0066388045 0.2286171 -0.33689907 0.082387455 0.11001309
-0.001979398 0.4683829 -0.29935312 -0.1937551
00000000: 6e61 8e3b 4aa6 123d 5942 d43d cf2d 0abe
00000010: 9d8f 30bd e969 85bd 0bc6 5ebd a05c 58bd
00000020: 51e7 b2bd b5ce 093d 8a9c 903e efee febd
00000030: af11 01be 796c 323e f093 4b3e ff3c 953e
00000040: 1323 f83b c769 6a3e 1691 efbd 9858 663d
00000050: 32d1 0fbe 45eb d4bd 7916 23be 20ba c7bd
00000060: bcd3 c23c 71df a43c ce48 87bd 8b4c 713e
00000070: 1cfe b93d 55e3 ba3d e14f 973c b578 3b3e
00000080: 30c0 21bc 2e85 d4bd 8137 5cbd 0f4d d83d
00000090: 62a7 b7bd 3703 eebc cac8 c23d 1f6d 0bbe
000000a0: f0a4 a9bd d64c 9ebd c0b6 713d 467a be3c
000000b0: 9b60 49be fa61 1abe b6d9 bf3d aa56 21be
000000c0: c065 c6bd f5eb dd3d 961c 2e3e b5ea 0a3e
000000d0: d72b 9dbd e92e 083e 7a86 1cbd b66c 473e
000000e0: a498 ee3d 6774 3abe 1456 b73d a59b b63b
000000f0: f48f 8cbd 7248 d5bb 03a3 48bd 84ce 383e
00000100: f94f 913d bc21 ffbd b741 273e 5a6a 033d
00000110: 25ed 09be defe 05be ef6f dbbd 22a7 963d
00000120: b626 8a3e 233b 8abe 2f52 92bc 23b6 b5be
00000130: 3dc1 94bd 0784 27be a6e5 03be 4ba4 42be
00000140: bb6a 7dbe 16fe 803e 69c7 43be d4f5 2abe
00000150: f357 2abe 440c b43e 962f 9dbd 6250 843e
00000160: 43b6 7fbe 806f 793e 815f 72ba 80e3 ed3e
00000170: c80a e13d db87 963d c9f0 4fbe 2cf1 fe3d
00000180: da50 863e e054 9e3e b21f 4a3e 548a d9bb
00000190: 9a1a 6a3e 097e acbe c1ba a83d 8b4e e13d
000001a0: cab8 01bb e2cf ef3e d044 99be bd67 46be

weight f4 [36, 36]
0.22369532 -0.216935 0.170087 0.24256276 0.5545344 -0.1397076 0.069809236 -0.20382221
0.026283577 -0.08551776 -0.45965928 0.35550547 -0.1324004 0.2425519 -0.022397889 0.21665159
0.33099142 -0.4968778 -0.30451915 0.3665666 -0.21336496 0.2619266 0.13816528 -0.20947827
-0.47277588 0.0006968586 0.009903114 -0.3258233 -0.2004044 -0.33297977 -0.1284437 -0.066123106
-0.14526929 0.48623675 0.3841643 0.18183397 0.2599983 0.33870012 -0.0237523 -0.038295634
0.006464512 -0.36627153 0.23007122 0.117117666 -0.122363456 0.2931758 0.2661438 -0.2311797
-0.38373506 0.19967811 0.13709004 0.18459767 -0.3640744 0.2869921 0.27435774 0.071525894
0.2203933 0.11903584 0.0017219555 -0.14601213 0.17393358 -0.24465 0.3049215 0.06279566
0.25308767 -0.18544555 -0.13006829 0.28957185 -0.035211314 0.050663244 -0.15215407 -0.41955543
0.26720455 0.055052303 0.38430953 0.044426966 -0.32781297 -0.2064446 -0.081893444 0.12326168
0.10684023 0.36078203 0.5301481 0.29693374 -0.08318457 0.26600567 0.0826554 -0.33858028
0.12778234 0.039880946 -0.25597396 -0.12126303 0.075374104 -0.35181653 0.1335336 0.077114515
0.15904436 -0.027977386 -0.22829905 0.3612462 0.3295641 0.1456714 -0.074383505 -0.0349035
-0.03577413 -0.38228178 0.103011206 -0.19813563 -0.2434501 0.114764154 0.5112412 -0.11013876
-0.122206405 0.252742 0.04944562 0.6852768 0.40503374 0.16317438 0.52280605 0.4602535
0.6017479 -0.27509072 0.22709481 -0.33024278 0.78448516 0.24226493 -0.8311446 -0.5197853
-0.6355485 -0.42246965 0.3662049 0.09306837 -0.14592637 0.035014354 -0.34914353 0.30773982
0.09327173 0.2764388 -0.054395095 -0.88075703 -0.8172345 -0.43156716 0.76511115 0.68176365
0.4187585 0.17505811 -0.17219159 -0.38455635 0.06912815 -0.23337479 -0.11758398 -0.22845349
-0.48214132 0.007672462 -0.38304004 0.33033413 -0.08342364 0.5868155 0.14433923 0.1496398
0.027770273 0.23273285 -0.12531155 0.5343215 0.11181173 -0.020540657 0.30100995 0.19103086
0.091382034 0.07343151 0.064570345 -0.13531847 -0.11713106 -0.47819355 0.007398214 -0.28846055
0.093783736 0.13443598 -0.028014863 -0.1062438 -0.2280601 0.11904588 -0.040120706 0.42396128
0.3719543 0.16286795 -0.15294243 0.16226558 -0.15622686 -0.38623935 -0.090990715 -0.11207472
0.20161897 -0.36869904 -0.06474925 -0.018551217 -0.16584726 -0.61727935 0.11421951 -0.11203453
-0.3023658 -0.1910426 0.3137195 -0.12675239 -0.14495912 -0.024481995 -0.13564244 -0.14482218
-0.2100563 -0.111340426 0.13092741 0.017136378 0.26188028 0.05860669 0.25548503 0.04196762
0.0023745757 -0.2150931 -0.019190038 -0.08171808 0.15047503 0.20351142 -0.08415527 -0.045352817
-0.38691366 0.23709749 -0.10265482 -0.22438826 0.07978813 0.2534609 0.17003272 0.34377408
-0.13970587 0.54384 0.024185397 0.35931596 -0.20511313 0.11745698 -0.033374295 0.11440971
-0.014144558 -0.14443369 -0.27468297 -0.3089036 0.29025275 -0.31830952 -0.11348066 0.23832202
0.31454253 0.3658234 -0.47018588 0.026073867 0.07396615 0.10471958 0.16450922 -0.029278334
00000000: 6310 653e 3524 5ebe 492b 2e3e 5f62 783e
00000010: f7f5 0d3f 820f 0fbe 25f8 8e3d c5b6 50be
00000020: a850 d73c ef23 afbd 7658 ebbe d004 b63e
00000030: f893 07be 865f 783e c77b b7bc ead9 5d3e
00000040: b577 a93e c466 febe efe9 9bbe 9eae bb3e
00000050: 587c 5abe 3e1b 863e 337b 0d3e 7981 56be
00000060: ae0f f2be 64ad 363a ac40 223c 50d2 a6be
00000070: d036 4dbe 537c aabe bf86 03be 8d6b 87bd
00000080: 79c1 14be 06f4 f83e 2fb1 c43e af32 3a3e
00000090: 7f1e 853e 1a6a ad3e 2f94 c2bc e2db 1cbd
000000a0: 42d4 d33b f187 bbbe ca97 6b3e 63db ef3d
000000b0: b199 fabd 231b 963e 0044 883e 5fba 6cbe
000000c0: ec78 c4be 6b78 4c3e 5561 0c3e 2c07 3d3e
000000d0: f667 babe a1f0 923e 9e78 8c3e 2b7c 923d
000000e0: c8ae 613e 10c9 f33d 3db3 e13a 3484 15be
000000f0: a51b 323e 8885 7abe ac1e 9c3e 039b 803d
00000100: b594 813e 70e5 3dbe 9f30 05be c342 943e
00000110: bd39 10bd 4384 4f3d 47ce 1bbe f8cf d6be
00000120: 09cf 883e 867e 613d 38c4 c43e 0df9 353d
00000130: 1ad7 a7be 3766 53be c0b7 a7bd 9f70 fc3d
00000140: 0dcf da3d 6cb8 b83e c9b7 073f b307 983e
00000150: ac5c aabd e531 883e 3c47 a93d 655a adbe
00000160: 60d9 023e 345a 233d 050f 83be c058 f8bd
00000170: bd5d 9a3d 4c21 b4be 08bd 083e 37ee 9d3d
00000180: 86dc 223e d530 e5bc 3ac7 69be 43f5 b83e
00000190: a0bc a83e e22a 153e 6156 98bd f9f6 0ebd
000001a0: e587 12bd 70ba c3be 8af7 d23d 11e4 4abe
000001b0: fc4a 79be 7809 eb3d b4e0 023f 6e90 e1bd
000001c0: 5a47 fabd 6667 813e 7e87 4a3d 4d6e 2f3f
000001d0: 9560 cf3e 2f17 273e 9ed6 053f 59a6 eb3e
000001e0: 260c 1a3f b1d8 8cbe 8b8b 683e 9515 a9be
000001f0: 05d4 483f 4c14 783e e4c5 54bf a610 05bf
00000200: 4eb3 22bf f14d d8be 357f bb3e a19a be3d
00000210: b96d 15be 366b 0f3d f1c2 b2be 1390 9d3e
00000220: 4005 bf3d 6389 8d3e 64cd 5ebd 4b79 61bf
00000230: 4836 51bf 5ff6 dcbe 53de 433f 1088 2e3f
00000240: 8467 d63e 6f42 333e fe52 30be 92e4 c4be
00000250: 0f93 8d3d cdf9 6ebe dfcf f0bd b6ef 69be
00000260: 3adb f6be 4769 fb3b d31d c4be 8e21 a93e
00000270: 03da aabd 8a39 163f aacd 133e 2d3b 193e
00000280: 7c7e e33c 8551 6e3e ac51 00be 4bc9 083f
00000290: 8cfd e43d e144 a8bc fa1d 9a3e 989d 433e
000002a0: 8126 bb3d 4263 963d 753d 843d ed90 0abe
000002b0: 69e2 efbd c9d5 f4be b86c f23b 1ab1 93be
000002c0: b011 c03d 96a9 093e 6d7f e5bc 5996 d9bd
000002d0: 9688 69be 54ce f33d 9c55 24bd 7411 d93e
000002e0: cb70 be3e dbc6 263e f19c 1cbe f328 263e
000002f0: eff9 1fbe 2ac1 c5be 5759 babd 6e87 e5bd
00000300: 3475 4e3e 1fc6 bcbe 419b 84bd b9f8 97bc
00000310: ddd3 29be 0506 1ebf ebeb e93d 5c72 e5bd
00000320: b1cf 9abe aca0 43be d89f a03e 61cb 01be
00000330: 2a70 14be 778e c8bc dae5 0abe 444c 14be
00000340: 0019 57be 7306 e4bd d611 063e 9761 8c3c
00000350: 2c15 863e 920d 703d efce 823e 3de6 2b3d
00000360: c59e 1b3b 5e41 5cbe 6d34 9dbc cf5b a7bd
00000370: 2016 1a3e 4c65 503e 9959 acbd e0c3 39bd
00000380: 8c19 c6be afc9 723e b13c d2bd 09c6 65be
00000390: f667 a33d a1c5 813e 0f1d 2e3e 2803 b03e
000003a0: 0e0f 0fbe 1939 0b3f 7420 c63c 43f8 b73e
000003b0: 2d09 52be 498d f03d 7cb3 08bd a34f ea3d
000003c0: 94be 67bc 6de6 13be 3fa3 8cbe 9d28 9ebe
000003d0: 029c 943e 77f9 a2be 8c68 e8bd b00a 743e
000003e0: b80b a13e 344d bb3e 34bc f0be dd98 d53c
000003f0: 917b 973d 3877 d63d 1b75 283e 1ed9 efbc

bias f4 [36]
-0.031413026 0.33507693 0.010592104 -0.8997169 0.6213599 -0.26933625 0.5694266 0.08657012
-0.5235219 0.21874107 -0.18827079 0.68137807 -0.49814385 -0.58041584 -0.6864184 0.08559717
0.7520835 -0.69236386 -0.36311427 0.37288812 -0.43194467 0.250884 -0.5260613 0.57166505
0.41820085 -0.4295367 0.70730054 0.52987325 -0.26622054 -0.5466424 0.5495377 0.65588427
0.50969934 -0.26984054 -0.46463892 -0.41086176
00000000: f2aa 00bd 348f ab3e 818a 2d3c d953 66bf
00000010: 7111 1f3f 71e6 89be f1c5 113f ad4b b13d
00000020: 8805 06bf a9fd 5f3e 0fca 40be cb6e 2e3f
00000030: b60c ffbe 2296 14bf 1eb9 2fbf 924d af3d
00000040: 8b88 403f c23e 31bf 1dea b9be 31eb be3e
00000050: da27 ddbe de73 803e f4ab 06bf a458 123f
00000060: 6c1e d63e 3cec dbbe a611 353f c6a5 073f
00000070: 0f4e 88be c2f0 0bbf 81ae 0c3f 08e8 273f
00000080: a87b 023f 8a28 8abe 27e5 edbe 795c d2be

weight f4 [1, 18]
-0.11420506 -0.23567155 0.22063945 -0.07954836 -0.20978293 -0.16988468 0.058494095 0.14493045
0.02432258 0.03676939 -0.032807417 0.039206713 -0.020001827 0.18863134 0.08839577 -0.10110167
0.08372446 -0.0826756
00000000: 58e4 e9bd e253 71be 4fef 613e 40ea a2bd
00000010: 56d1 56be 40f6 2dbe 8197 6f3d a668 143e
00000020: 2640 c73c 809b 163d 1261 06bd 3897 203d
00000030: dfda a3bc 9328 413e d708 b53d 640e cfbd
00000040: bb77 ab3d d351 a9bd

weight f4 [1, 36]
-1.5614824 1.3690567 1.5306181 -0.8357476 0.9387543 -1.4094867 0.9326687 1.6776512
-0.80101585 1.5033933 -1.6603371 0.65187263 -0.9231335 -0.43087834 -0.85138893 1.564814
0.77340585 -0.59741676 -0.8791643 1.0142663 -0.9896867 1.1039317 -0.8460746 0.97337556
1.1353277 -0.81866676 0.9371658 0.9030552 -1.2208004 -0.9238682 0.96738786 0.8646793
0.8269364 -1.4529134 -1.2036711 -1.0941672
00000000: a8de c7bf 403d af3f 4beb c33f 8ef3 55bf
00000010: 3452 703f 0f6a b4bf 60c3 6e3f 46bd d63f
00000020: 600f 4dbf 316f c03f ed85 d4bf 20e1 263f
00000030: 7a52 6cbf 169c dcbe a0f4 59bf d34b c83f
00000040: edfd 453f 4ef0 18bf e910 61bf 7ad3 813f
00000050: 1c5c 7dbf a24d 8d3f 5898 58bf 242f 793f
00000060: 6b52 913f 2594 51bf 19ea 6f3f a02e 673f
00000070: 3043 9cbf a082 6cbf bba6 773f 9f5b 5d3f
00000080: 1bb2 533f 11f9 b9bf e511 9abf ac0d 8cbf

weight f4 [1, 9]
-0.3052305 -0.32291704 -0.08533736 -0.030207198 0.24997962 -0.21768829 -0.32283914 0.0012872617
-0.30869973
00000000: 2c47 9cbe 6255 a5be 5bc5 aebd 1675 f7bc
00000010: a8fa 7f3e aee9 5ebe 2c4b a5be 56b9 a83a
00000020: e40d 9ebe

weight f4 [1, 2]
0.5097901 -0.5854001
00000000: 9b81 023f c8dc 15bf

weight f4 [18, 3]
-0.44034407 0.8474321 0.09497048 0.35824165 -0.31004837 -0.3061417 0.5974047 -0.2871693
0.5002758 0.34166414 -0.7263828 0.36216888 0.16371746 0.0273851 -0.28656167 -0.03876977
-0.001956882 -0.013397866 0.24717537 -0.16503574 -0.255504 0.4804103 -0.033452276 -0.58184445
0.22017981 -0.5329121 -0.013062781 0.38011178 0.27503264 -0.8622459 -0.37289235 -0.11999988
0.7011427 -0.632121 0.56283903 0.38371372 0.008955167 -0.04244787 0.013737028 0.3241526
-0.4194325 0.15140471 0.4458553 -0.52401835 -0.2980815 0.48447132 -0.49498832 -0.021212356
-0.4962487 0.54974943 -0.29559672 0.31887013 -0.6435623 0.1788389
00000000: c774 e1be 4ff1 583f e27f c23d 736b b73e
00000010: a9be 9ebe 9bbe 9cbe 84ef 183f db07 93be
00000020: 1312 003f 9aee ae3e 39f4 39bf 336e b93e
00000030: 8da5 273e b856 e03c 36b8 92be 0dcd 1ebd
00000040: 083f 00bb b982 5bbc 8a1b 7d3e 21ff 28be
00000050: 6cd1 82be 57f8 f53e 4105 09bd c2f3 14bf
00000060: d176 613e ed6c 08bf 4605 56bc 039e c23e
00000070: 14d1 8c3e 26bc 5cbf bfeb bebe 7fc2 f5bd
00000080: 177e 333f afd2 21bf 3816 103f 2076 c43e
00000090: b1b8 123c d1dd 2dbd 4611 613c 54f7 a53e
000000a0: dbbf d6be d609 1b3e 2547 e43e 1126 06bf
000000b0: 239e 98be a00c f83e 1c6f fdbe 89c5 adbc
000000c0: 4f14 febe 61bc 0c3f 7458 97be f242 a33e
000000d0: 80c0 24bf 8b21 373e

bias f4 [18]
-0.22361773 -0.026832854 -0.0894279 0.08493338 0.06467041 0.43865618 -0.19609204 0.2691059
-0.10897593 -0.23435071 0.015746322 -0.3183069 0.21214427 0.3135287 -0.09627046 -0.037072506
0.14208052 0.6738492
00000000: 0cfc 64be 93d0 dbbc fa25 b7bd 8df1 ad3d
00000010: eb71 843d 8b97 e03e 5acc 48be 40c8 893e
00000020: c62e dfbd a2f9 6fbe 6efe 803c 1ff9 a2be
00000030: 593c 593e d586 a03e 7229 c5bd 57d9 17bd
00000040: 8e7d 113e 6281 2c3f

weight f4 [36]
1.0 1.0 1.0 1.0 1.0 1.0 1.0 1.0
1.0 1.0 1.0 1.0 1.0 1.0 1.0 1.0
1.0 1.0 1.0 1.0 1.0 1.0 1.0 1.0
1.0 1.0 1.0 1.0 1.0 1.0 1.0 1.0
1.0 1.0 1.0 1.0
00000000: 0000 803f 0000 803f 0000 803f 0000 803f
00000010: 0000 803f 0000 803f 0000 803f 0000 803f
00000020: 0000 803f 0000 803f 0000 803f 0000 803f
00000030: 0000 803f 0000 803f 0000 803f 0000 803f
00000040: 0000 803f 0000 803f 0000 803f 0000 803f
00000050: 0000 803f 0000 803f 0000 803f 0000 803f
00000060: 0000 803f 0000 803f 0000 803f 0000 803f
00000070: 0000 803f 0000 803f 0000 803f 0000 803f
00000080: 0000 803f 0000 803f 0000 803f 0000 803f

bias f4 [36]
0.0 0.0 0.0 0.0 0.0 0.0 0.0 0.0
0.0 0.0 0.0 0.0 0.0 0.0 0.0 0.0
0.0 0.0 0.0 0.0 0.0 0.0 0.0 0.0
0.0 0.0 0.0 0.0 0.0 0.0 0.0 0.0
0.0 0.0 0.0 0.0
00000000: 0000 0000 0000 0000 0000 0000 0000 0000
00000010: 0000 0000 0000 0000 0000 0000 0000 0000
00000020: 0000 0000 0000 0000 0000 0000 0000 0000
00000030: 0000 0000 0000 0000 0000 0000 0000 0000
00000040: 0000 0000 0000 0000 0000 0000 0000 0000
00000050: 0000 0000 0000 0000 0000 0000 0000 0000
00000060: 0000 0000 0000 0000 0000 0000 0000 0000
00000070: 0000 0000 0000 0000 0000 0000 0000 0000
00000080: 0000 0000 0000 0000 0000 0000 0000 0000

weight f4 [9]
1.0 1.0 1.0 1.0 1.0 1.0 1.0 1.0
1.0
00000000: 0000 803f 0000 803f 0000 803f 0000 803f
00000010: 0000 803f 0000 803f 0000 803f 0000 803f
00000020: 0000 803f

bias f4 [9]
0.0 0.0 0.0 0.0 0.0 0.0 0.0 0.0
0.0
00000000: 0000 0000 0000 0000 0000 0000 0000 0000
00000010: 0000 0000 0000 0000 0000 0000 0000 0000
00000020: 0000 0000

weight f4 [9]
1.0 1.0 1.0 1.0 1.0 1.0 1.0 1.0
1.0
00000000: 0000 803f 0000 803f 0000 803f 0000 803f
00000010: 0000 803f 0000 803f 0000 803f 0000 803f
00000020: 0000 803f

bias f4 [9]
0.0 0.0 0.0 0.0 0.0 0.0 0.0 0.0
0.0
00000000: 0000 0000 0000 0000 0000 0000 0000 0000
00000010: 0000 0000 0000 0000 0000 0000 0000 0000
00000020: 0000 0000

running_mean f4 [12]
-0.05458059 -0.031243265 -0.048231706 -0.07824595 -0.09165004 -0.07299306 -0.04349844 -0.034596615
-0.056932546 -0.10775813 -0.13837509 -0.13452026
00000000: e68f 5fbd e0f1 ffbc 9c8e 45bd 6a3f a0bd
00000010: 04b3 bbbd 637d 95bd 6c2b 32bd 2eb5 0dbd
00000020: 1a32 69bd 4bb0 dcbd 33b2 0dbe aebf 09be

running_var f4 [12]
14924.182 14912.521 14899.554 14895.955 14897.495 14899.608 14898.787 14887.757
14872.543 14877.922 14886.081 14902.645
00000000: ba30 6946 1602 6946 37ce 6846 d2bf 6846
00000010: fbc5 6846 6fce 6846 26cb 6846 079f 6846
00000020: 2c62 6846 b077 6846 5398 6846 94da 6846

pe f4 [1, 12, 18]
0.0 1.0 0.0 1.0 0.0 1.0 0.0 1.0
0.0 1.0 0.0 1.0 0.0 1.0 0.0 1.0
0.0 1.0 0.84147096 0.54030234 0.3516952 0.93611455 0.1287962 0.9916711
0.04639924 0.99892294 0.016680235 0.9998609 0.0059948075 0.99998206 0.0021544343 0.9999977
0.000774264 0.9999997 0.00027825605 0.99999994 0.9092974 -0.41614684 0.658454 0.752621
0.25544694 0.9668231 0.09269853 0.9956942 0.03335583 0.99944353 0.0119894 0.9999281
0.0043088584 0.9999907 0.0015485275 0.9999988 0.0005565121 0.9999998 0.14112 -0.9899925
0.8810815 0.4729644 0.3778425 0.9258699 0.13879815 0.9903207 0.05002214 0.9987481
0.017983561 0.9998383 0.0064632627 0.99997914 0.00232279 0.9999973 0.00083476806 0.99999964
-0.7568025 -0.6536436 0.99113256 0.13287666 0.49394402 0.8694937 0.18459877 0.98281395
0.06667453 0.9977748 0.023977075 0.9997125 0.008617637 0.99996287 0.0030970513 0.99999523
0.001113024 0.9999994 -0.9589243 0.2836622 0.9745457 -0.22418885 0.6018175 0.79863364
0.23000178 0.9731902 0.08330838 0.9965238 0.029969728 0.9995508 0.010771971 0.999942
0.0038713105 0.9999925 0.0013912797 0.99999905 -0.2794155 0.96017027 0.8334404 -0.5526093
0.69966596 0.7144701 0.27490938 0.9614701 0.099919036 0.9949956 0.035961304 0.9993532
0.012926255 0.99991643 0.0046455674 0.9999892 0.0016695355 0.9999986 0.6569866 0.75390226
0.5858456 -0.81042266 0.7858595 0.618405 0.31922475 0.94767904 0.11650189 0.99319047
0.04195159 0.99911964 0.01508048 0.9998863 0.005419822 0.99998534 0.0019477911 0.9999981
0.98935825 -0.14550003 0.26339677 -0.9646876 0.8589624 0.51203865 0.3628525 0.93184656
0.13305233 0.991109 0.047940366 0.99885017 0.017234635 0.99985147 0.006194073 0.9999808
0.0022260465 0.99999756 0.4121185 -0.91113025 -0.092706494 -0.99569345 0.9177568 0.39714286
0.4056987 0.9140069 0.14956576 0.98875177 0.053927414 0.9985449 0.01938871 0.999812
0.00696832 0.99997574 0.002504302 0.99999684 -0.5440211 -0.8390715 -0.43696457 -0.89947873
0.9612634 0.27563143 0.44767097 0.89419836 0.16603756 0.98611945 0.059912533 0.99820364
0.021542693 0.9997679 0.0077425633 0.99997 0.002782557 0.9999961 -0.9999902 0.004425698
-0.72539115 -0.6883369 0.9887574 0.1495286 0.48867893 0.8724637 0.18246315 0.9832127
0.0658955 0.9978265 0.023696577 0.9997192 0.0085168015 0.99996376 0.0030608117 0.9999953
00000000: 0000 0000 0000 803f 0000 0000 0000 803f
00000010: 0000 0000 0000 803f 0000 0000 0000 803f
00000020: 0000 0000 0000 803f 0000 0000 0000 803f
00000030: 0000 0000 0000 803f 0000 0000 0000 803f
00000040: 0000 0000 0000 803f a46a 573f 4151 0a3f
00000050: 6511 b43e 34a5 6f3f 27e3 033e 28de 7d3f
00000060: 210d 3e3d 6ab9 7f3f fda4 883c e2f6 7f3f
00000070: 1770 c43b d3fe 7f3f 6931 0d3b d9ff 7f3f
00000080: faf7 4a3a fbff 7f3f e5e2 9139 ffff 7f3f
00000090: b7c7 683f 3311 d5be 7190 283f c5ab 403f
000000a0: f1c9 823e b881 773f bad8 bd3d d1e5 7e3f
000000b0: 1fa0 083d 88db 7f3f 306f 443c 4afb 7f3f
000000c0: 5331 8d3b 64ff 7f3f f6f7 ca3a ecff 7f3f
000000d0: e5e2 113a fdff 7f3f c381 103e 2670 7dbf
000000e0: 8f8e 613f 6428 f23e 9274 c13e cf05 6d3f
000000f0: 1a21 0e3e a885 7d3f 04e4 4c3d f5ad 7f3f
00000100: 4352 933c 67f5 7f3f c7c9 d33b a2fe 7f3f
00000110: f339 183b d3ff 7f3f 56d4 5a3a faff 7f3f
00000120: cfbd 41bf 3055 27bf ddba 7d3f d210 083e
00000130: 3be6 fc3e 2497 5e3f 7607 3d3e b299 7b3f
00000140: a88c 883d 2b6e 7f3f 926b c43c 29ed 7f3f
00000150: fd30 0d3c 91fd 7f3f e6f7 4a3b b0ff 7f3f
00000160: e3e2 913a f6ff 7f3f 107c 75bf 2c3c 913e
00000170: d47b 793f c391 65be b610 1a3f 4173 4c3f
00000180: 9685 6b3e fe22 793f 959d aa3d 2f1c 7f3f
00000190: 1383 f53c 90e2 7f3f ec7c 303c 33fc 7f3f
000001a0: d0b5 7d3b 82ff 7f3f 9a5b b63a f0ff 7f3f
000001b0: 8c0f 8fbe b8cd 753f 5a5c 553f ce77 0dbf
000001c0: 4f1d 333f 83e7 363f ecc0 8c3e e822 763f
000001d0: 5aa2 cc3d 08b8 7e3f 294c 133d 9cd5 7f3f
000001e0: a5c8 533c 86fa 7f3f d839 983b 4bff 7f3f
000001f0: 51d4 da3a e9ff 7f3f 4630 283f bdff 403f
00000200: faf9 153f dc77 4fbf 172e 493f ca4f 1e3f
00000210: 6d71 a33e 189b 723f 8b98 ee3d bb41 7e3f
00000220: 6ed5 2b3d 4ec6 7f3f 1e14 773c 8cf8 7f3f
00000230: c398 b13b 0aff 7f3f 064d ff3a e0ff 7f3f
00000240: 9546 7d3f f6fd 14be f1db 863e c4f5 76bf
00000250: f6e4 5b3f f714 033f cec7 b93e 7f8d 6e3f
00000260: df3e 083e 52b9 7d3f 1e5d 443d a5b4 7f3f
00000270: a62f 8d3c 44f6 7f3f a6f7 ca3b befe 7f3f
00000280: dde2 113b d7ff 7f3f 3201 d33e d53f 69bf
00000290: e7dc bdbd c4e5 7ebf 1cf2 6a3f 4f56 cb3e
000002a0: bdb7 cf3e 5bfc 693f c427 193e d61e 7d3f
000002b0: fee2 5c3d a3a0 7f3f 12d5 9e3c aef3 7f3f
000002c0: 8156 e43b 69fe 7f3f 371f 243b cbff 7f3f
000002d0: f844 0bbf 64cd 56bf d2b9 dfbe 3d44 66bf
000002e0: 5c15 763f 901f 8d3e 2135 e53e 2fea 643f
000002f0: c005 2a3e 5372 7c3f d866 753d 468a 7f3f
00000300: 4d7a b03c caf0 7f3f 54b5 fd3b 09fe 7f3f
00000310: 8f5b 363b bfff 7f3f 5cff 7fbf 7205 913b
00000320: 3cb3 39bf d936 30bf 341f 7d3f 061e 193e
00000330: 2034 fa3e c859 5f3f 9fd7 3a3e d4b3 7b3f
00000340: 38f4 863d 8f71 7f3f 531f c23c 99ed 7f3f
00000350: 0e8a 0b3c a0fd 7f3f e697 483b b1ff 7f3f

weight f4 [9, 18]
0.23512112 0.069411784 0.058534134 0.2250136 -0.1257093 0.14141594 -0.13527587 0.067116916
-0.23260854 -0.030561551 0.21341074 0.21948941 -0.04750166 -0.113862045 -0.025004601 0.15404013
0.05954175 -0.08087039 -0.10273578 0.15410282 -0.15555772 -0.09413768 -0.0355566 0.22035572
0.18106124 0.17848103 -0.15957755 0.08130695 -0.01620226 0.11714556 0.15591623 -0.18442391
-0.19048147 0.026999243 -0.23263909 0.16998538 -0.17062278 -0.13697374 0.001052772 0.13433386
0.20579149 0.04352078 0.20106685 0.09922666 0.23123074 -0.05809395 -0.05987359 -0.07291843
-0.040029783 -0.1993641 0.070445366 0.16907035 0.121487506 -0.14872134 0.21363333 -0.0006018851
-0.0071250373 -0.20445931 -0.10312991 0.07613477 0.028586747 -0.15066451 0.21862829 0.098720364
0.13014725 -0.13711047 -0.0951716 0.073708795 -0.22114713 0.11037827 0.012157174 0.1506479
0.18087716 0.04658446 0.1229561 0.0054819 0.22992691 -0.026158864 -0.1452239 -0.03151837
-0.17760073 -0.13802697 0.05147181 0.18209237 0.19204925 0.17755346 0.20135151 0.21048938
-0.14177337 -0.0719769 0.10726982 -0.09258772 -0.040210593 0.19935058 -0.020539284 -0.054712903
0.09691109 0.23059735 -0.101584725 -0.030826824 -0.20969763 0.02786817 0.024326403 0.15829368
-0.19256586 -0.14602284 0.18343261 -0.106227055 0.015522656 0.20275567 0.20469761 -0.014762018
-0.22280161 -0.19341251 -0.22631831 -0.014116862 -0.18331452 0.19115113 -0.20460139 -0.069981106
0.10099026 -0.09943888 0.1764665 0.050439943 0.2263952 0.033603262 0.14396104 -0.20783292
-0.10016777 0.10541559 -0.08960653 0.07767232 -0.14264803 0.046773672 0.02882527 -0.1299565
-0.005747369 0.18235084 -0.17411464 0.039055828 0.12811565 0.21713635 -0.21474168 0.10663389
0.22409701 0.16130096 -0.2032996 -0.034190394 -0.028890232 -0.03387553 0.01699375 0.015324763
0.12485161 -0.18471149 -0.16620596 -0.0071372315 -0.2220625 0.23112829 0.16834915 -0.10422497
0.1677655 -0.10570067
00000000: 97c3 703e c427 8e3d 7dc1 6f3d f769 663e
00000010: f0b9 00be 57cf 103e c285 0abe 9874 893d
00000020: ef30 6ebe 385c fabc 5888 5a3e d5c1 603e
00000030: 1a91 42bd 8130 e9bd 73d6 ccbc b2bc 1d3e
00000040: 0de2 733d 609f a5bd 2367 d2bd 21cd 1d3e
00000050: 864a 1fbe 42cb c0bd cca3 11bd eea4 613e
00000060: 1e68 393e bbc3 363e 4c68 23be 4284 a63d
00000070: 9aba 84bc 03ea ef3d 81a8 1f3e 9fd9 3cbe
00000080: 930d 43be 842d dd3c f138 6ebe a610 2e3e
00000090: bdb7 2ebe d842 0cbe 2bfd 893a d18e 093e
000000a0: 01bb 523e d842 323d 78e4 4d3e 5937 cb3d
000000b0: c0c7 6c3e ecf3 6dbd 023e 75bd 4256 95bd
000000c0: 45f6 23bd 1a26 4cbe a945 903d c720 2d3e
000000d0: 71ce f83d 684a 18be b2c2 5a3e d3c7 1dba
000000e0: 2579 e9bb c85d 51be c635 d3bd 8cec 9b3d
000000f0: c12e ea3c cc47 1abe 18e0 5f3e e72d ca3d
00000100: 5245 053e b066 0cbe 54e9 c2bd a3f4 963d
00000110: 6574 62be 010e e23d e22e 473c 7143 1a3e
00000120: dd37 393e 59cf 3e3d 68d0 fb3d 83a1 b33b
00000130: f671 6b3e 1d4b d6bc 93b5 14be 6819 01bd
00000140: f7dc 35be f156 0dbe 1bd4 523d 6c76 3a3e
00000150: 8fa8 443e 93d0 353e 172f 4e3e 878a 573e
00000160: 0a2d 11be a068 93bd 48b0 db3d a19e bdbd
00000170: ddb3 24bd 8f22 4c3e 0042 a8bc a31a 60bd
00000180: 5279 c63d b621 6c3e a70b d0bd 8988 fcbc
00000190: faba 56be ca4b e43c 2a48 c73c bd17 223e
000001a0: fc2f 45be 0387 15be c2d5 3b3e 928d d9bd
000001b0: bd52 7e3c 2f9f 4f3e 409c 513e 64dc 71bc
000001c0: 1b26 64be ee0d 46be fdbf 67be 694a 67bc
000001d0: cdb6 3bbe 1fbd 433e 0783 51be 4152 8fbd
000001e0: fbd3 ce3d 9da6 cbbd a2b3 343e 1d9a 4e3d
000001f0: 25d4 673e 93a3 093d 866a 133e 27d2 54be
00000200: c324 cdbd 21e4 d73d a183 b7bd aa12 9f3d
00000210: 5312 12be c095 3f3d f922 ec3c 5113 05be
00000220: 6d54 bcbb 2eba 3a3e 1c4b 32be 01f9 1f3d
00000230: c030 033e fe58 5e3e 3ee5 5bbe de62 da3d
00000240: b079 653e 142c 253e c52d 50be 3a0b 0cbd
00000250: 35ab ecbc 11c1 0abd 7a36 8b3c b714 7b3c
00000260: 33b2 ff3d 0225 3dbe e531 2abe 70df e9bb
00000270: 5a64 63be e5ac 6c3e b863 2c3e e773 d5bd
00000280: b8ca 2b3e 9879 d8bd

bias f4 [9]
-0.0016157697 -0.20124966 0.008176939 0.07882188 -0.09764736 0.13084657 -0.002317009 0.12630275
0.23200722
00000000: 3cc8 d3ba 6414 4ebe 91f8 053c 5e6d a13d
00000010: 57fb c7bd a5fc 053e f6d8 17bb 8255 013e
00000020: 4d93 6d3e

weight f4 [1, 9]
-0.23256946 -0.23333327 0.25145853 -0.07154012 -0.23910797 0.044293802 -0.22933035 0.32548147
0.15662663
00000000: b026 6ebe ebee 6ebe 2cbf 803e a083 92bd
00000010: b8d8 74be 6b6d 353d 93d5 6abe 82a5 a63e
00000020: bb62 203e
